results2_checkpoint/univ/val_best.pth (torch_old, 55823 bytes, 10 tensors)

gcn.gc1.weight f4 [2, 2]
0	0xbc59e5ab	-0.013299386
1	0xbcf5880e	-0.029972102
2	0xbcc1ae38	-0.023642644
3	0x3b5750a2	0.0032854457

gcn.gc1.bias f4 [2]
0	0xbc30a38c	-0.01078118
1	0x3d125b6b	0.035731714

grucell.weight_ih f4 [192, 2]
0	0xbdb965ea	-0.09052642
1	0x3ca4f035	0.02013407
2	0x3dba6717	0.09101694
3	0x3d6bbf86	0.057555698
4	0xbb95c785	-0.0045709037
5	0x3d8770c6	0.06613307
6	0x3b08e1b4	0.0020886483
7	0x3c62ce90	0.013843194
8	0xbd75d731	-0.060019676
9	0x3d1f4857	0.038887348
10	0xbdf15524	-0.117838174
11	0x3d1f0063	0.03881873
12	0xbd10021e	-0.03515827
13	0xbca3f92c	-0.020016275
14	0x3d383397	0.044971075
15	0xbc6e88c7	-0.014558977
16	0x3cf350af	0.029701559
17	0x3dc3e2e1	0.09564758
18	0xbdf73c62	-0.12072064
19	0x3b68dc97	0.0035531872
20	0xbd83f176	-0.064425394
21	0x3c76a1e3	0.015053245
22	0x3df25e73	0.11834421
23	0x3db92173	0.09039583
24	0x3a48f62a	0.0007666076
25	0x3dc2792f	0.0949577
26	0xbdb8dd92	-0.09026636
27	0x3decd6d6	0.11564414
28	0x3d415dda	0.047208644
29	0xbd6ee565	-0.058324236
30	0x3dd4be6a	0.10387881
31	0x3dc079d9	0.093982406
32	0x3bf583fb	0.00749254
33	0xbdde4c0b	-0.10854348
34	0x3d08409e	0.03326475
35	0xbda6b2b4	-0.08139554
36	0xbdd79a15	-0.10527436
37	0xbd9ccca1	-0.07656217
38	0x3dfe549f	0.12418484
39	0xbce894bc	-0.028391235
40	0x3c8f5d24	0.017500468
41	0x3c4e0bf7	0.012576095
42	0x3d92abda	0.07161684
43	0x3d68a49e	0.056797616
44	0x3cd6155f	0.026133237
45	0x3dab4e24	0.083645135
46	0x3c30f151	0.010799722
47	0xbd63780a	-0.0555344
48	0xbdd05258	-0.10171956
49	0x3b8f7f44	0.004379185
50	0xbda8a7ad	-0.082351066
51	0xbcf5787d	-0.02996468
52	0xbc9c8ec1	-0.01911104
53	0xbdb9fbc4	-0.090812236
54	0x3d56ed20	0.052472234
55	0x3ddda10c	0.10821733
56	0x3d897dc5	0.06713442
57	0xbd9554f1	-0.07291592
58	0x3dc9994c	0.09843692
59	0xbdf93e7a	-0.121701196
60	0xbc83bdfe	-0.016081806
61	0x3dfff735	0.12498323
62	0x3d5f0411	0.054447237
63	0xbdef233c	-0.11676642
64	0xbdbf0a81	-0.09328175
65	0xbd1bba41	-0.038019422
66	0xbd92d6dd	-0.07169888
67	0x3d85b622	0.0652888
68	0xbd5d4636	-0.054022036
69	0xbda491e9	-0.08035643
70	0xbcd55c31	-0.026044937
71	0xbd649a01	-0.055810932
72	0xbb1f4bbf	-0.0024306623
73	0x3d96e4d8	0.07367867
74	0xbcfd3366	-0.030908298
75	0xbde5cfe4	-0.112212926
76	0xbdb61bda	-0.08892031
77	0x3d7701cc	0.060304448
78	0xbdbe0099	-0.09277458
79	0xbb6a281b	-0.003572947
80	0x3d2eabc5	0.04264428
81	0xbd5cfbb8	-0.053950995
82	0xbd0e3370	-0.034717023
83	0x39ae809e	0.00033283693
84	0xbde89a5b	-0.11357566
85	0xbdb3435a	-0.08753081
86	0xbd96c29d	-0.07361338
87	0x3d37f6cf	0.04491311
88	0xbd91f8f8	-0.07127565
89	0x3c95b54a	0.018274922
90	0x3dd8f3c8	0.105933726
91	0x3d49629d	0.04916631
92	0x3da37619	0.0798151
93	0x3de7e7d1	0.11323512
94	0x3d87660a	0.06611259
95	0xbcd1d25b	-0.025613
96	0x3db89968	0.09013635
97	0x3ad7b5a1	0.0016457328
98	0x3da2ad3f	0.079432
99	0x3daa79f5	0.08324043
100	0xbd21b75e	-0.039481513
101	0x3d16726b	0.03673021
102	0x3d2d1dcd	0.04226475
103	0xbda8f85e	-0.08250497
104	0xbdac9f27	-0.084287934
105	0x3d9d6881	0.07685948
106	0xbdfba76f	-0.12287795
107	0x3d91761c	0.07102606
108	0x3d49bada	0.04925046
109	0x3c4a47e1	0.012346239
110	0xbdd908be	-0.105973706
111	0x3d5b97db	0.053611618
112	0xbda860c8	-0.082215846
113	0xbd756e48	-0.059919626
114	0x3d9e71db	0.0773656
115	0xbdb6f909	-0.089342184
116	0x3a0e9eb0	0.00054405164
117	0xbdd6667a	-0.104687646
118	0x3dc9615e	0.098330244
119	0xbb80bdc3	-0.0039288714
120	0x3d88a7da	0.0667264
121	0x3cafcc6f	0.021459786
122	0x3de595b0	0.11210191
123	0x3d4259c9	0.047448907
124	0x3de8856d	0.11353574
125	0x3dc71ee0	0.09722686
126	0x3c191d2d	0.009345335
127	0x3da460e2	0.080262914
128	0xbcef9d4d	-0.029249812
129	0x3a198f6f	0.000585786
130	0xbd0bc13d	-0.034119833
131	0xbddcfc0c	-0.107902616
132	0x3d7952c6	0.060869955
133	0x3de3b05d	0.11117623
134	0xbd5a8baf	-0.05335587
135	0xbcba3340	-0.022729516
136	0xbd47fe63	-0.048826586
137	0xbdbcd517	-0.09220331
138	0x3d95b47f	0.073098175
139	0x3d70e1e6	0.058809184
140	0x3d72d14b	0.05928163
141	0x3d8edafd	0.069753624
142	0xbd31c1bf	-0.04339766
143	0x3df9b56e	0.12192808
144	0xbdc3d446	-0.09561972
145	0xbd9583b6	-0.073005125
146	0x3bd0f0e9	0.006376375
147	0x3d9b999d	0.07597659
148	0xbde23abc	-0.11046359
149	0xbd0b4c2b	-0.034008186
150	0x3d010eae	0.03150814
151	0x3af30a24	0.0018542451
152	0x3d9dcaad	0.07704673
153	0x3ca71cbd	0.020399446
154	0xbd1e82df	-0.038699027
155	0x3d0a8156	0.03381475
156	0x3daf78ce	0.085679635
157	0xbcbcd76c	-0.02305194
158	0x3da4772a	0.08030541
159	0x3d1267d0	0.035743535
160	0xbd6ff4f7	-0.058583226
161	0x3d4f571b	0.05062018
162	0xbd1f524e	-0.03889685
163	0x3d3af171	0.045640413
164	0xbda7b2a1	-0.08188368
165	0x3d3cec50	0.046123803
166	0xbda1ec5d	-0.07906411
167	0xbdfa9399	-0.12235183
168	0x3dbcfd7b	0.09228035
169	0x3dade8b4	0.0849165
170	0xbda95428	-0.08268005
171	0xbdd85e73	-0.1056489
172	0x3dccc2c1	0.09998084
173	0x3dcd5640	0.100262165
174	0xbd938b73	-0.07204332
175	0xbd3a63cc	-0.04550533
176	0x3d329a03	0.04360391
177	0x3c706704	0.014672998
178	0xbdef0e4f	-0.11672651
179	0x3c123afb	0.008925195
180	0xbdefe161	-0.117129095
181	0x3d9eea6d	0.07759557
182	0x3d88391b	0.06651517
183	0x3cd71f8f	0.026260165
184	0xbb689ab2	-0.0035492596
185	0xbc3527ff	-0.011056899
186	0xbdfbda86	-0.122975394
187	0x3d21d9ff	0.039514538
188	0x3de1d51e	0.11026977
189	0x3b3c449e	0.0028727422
190	0x3d409378	0.047015637
191	0xbd92199d	-0.071337916
192	0xbdfb2a7e	-0.12263964
193	0xbda89960	-0.08232379
194	0xbdbad510	-0.0912267
195	0xbcc18387	-0.023622287
196	0x3bc927ef	0.0061387937
197	0x3df38925	0.118913926
198	0x3d9aadf5	0.07552711
199	0xbdb1dfc2	-0.086852565
200	0x3d8e16d9	0.069379516
201	0xbde766ca	-0.11298902
202	0xbc92d7f0	-0.017925233
203	0xbd4ecf24	-0.050490513
204	0xbd376ee0	-0.044783473
205	0x3d1d68bd	0.038429964
206	0x3d8f0152	0.06982674
207	0x3db10b68	0.08644754
208	0xbb59a5e2	-0.0033210446
209	0xbc88b151	-0.016686114
210	0xbd91fa62	-0.07127835
211	0xbdd9bb7e	-0.106314644
212	0x3d116633	0.035497855
213	0xbd771089	-0.060318504
214	0xbb11aa06	-0.0022226586
215	0xbd419a95	-0.04726656
216	0xbd8073cf	-0.06272089
217	0x3d86b4be	0.065774426
218	0xbd8ff228	-0.070286095
219	0x3c773a28	0.015089549
220	0x3ca63417	0.02028851
221	0x3dfcf15e	0.12350725
222	0x3da5c9f0	0.08095157
223	0x3c068fb0	0.008212969
224	0x3c1678a1	0.009184034
225	0xbdbcb4f1	-0.09214199
226	0x3dcebff6	0.100952074
227	0x3df25b5e	0.11833833
228	0xbdc0eb7f	-0.09419917
229	0x3d8d94b5	0.06913129
230	0xbd998037	-0.07495158
231	0xbcd2db5d	-0.025739366
232	0xbc39b601	-0.011334897
233	0x3de6fa2f	0.112781875
234	0x3d2f415c	0.04278694
235	0x3d89db97	0.067313366
236	0x3da02a1b	0.07820531
237	0x3d932c51	0.07186187
238	0xbdaaab4e	-0.08333455
239	0x3df3b5f3	0.118999384
240	0xbd7cef18	-0.061751455
241	0x3d8e13ae	0.06937347
242	0xbde8662b	-0.11347612
243	0xbc3aec9b	-0.01140895
244	0xbc58e2cc	-0.013237666
245	0xbdaef236	-0.08542292
246	0x3ce8fa25	0.02843959
247	0x3d0f971b	0.035056215
248	0xbd9771b7	-0.07394736
249	0xbdeb5764	-0.11491278
250	0x3d8146c4	0.063123256
251	0xbddafc3b	-0.106926404
252	0xbd9af8fe	-0.07567023
253	0xbdfcd0ef	-0.123445384
254	0x3de2e7a0	0.11079335
255	0x3d8a3f23	0.067503236

grucell.weight_hh f4 [192, 64]
0	0x3d0ea95d	0.034829486
1	0x3dcadeb2	0.09905757
2	0x3d759dd9	0.05996499
3	0xbdf7901c	-0.120880336
4	0x3d8941c2	0.067019954
5	0x3d9b8281	0.07593251
6	0xbdce2cac	-0.10067114
7	0x3da02ace	0.07820664
8	0x3c7e0307	0.015503651
9	0xbd71c220	-0.059023023
10	0x3d7aa410	0.06119162
11	0xbc8c8060	-0.017151058
12	0x3d31afe4	0.043380633
13	0x3c088327	0.00833205
14	0x3dcadd42	0.09905483
15	0x3bab4f21	0.0052279388
16	0x3da9975a	0.08280821
17	0x3d719cb1	0.058987323
18	0x3d95980c	0.07304391
19	0xbde0fbd7	-0.10985535
20	0x3d7d1dbc	0.061795935
21	0x3cdc0893	0.026859557
22	0x3d013eed	0.03155415
23	0xbd1dd4ac	-0.038532898
24	0x3d976a0b	0.07393273
25	0xbc90248d	-0.017595554
26	0x3cfc8ed6	0.030829828
27	0xbd919a60	-0.07109523
28	0x3d9d190a	0.076707914
29	0xbcd33e70	-0.025786608
30	0x3d9c794d	0.07640324
31	0x3dfe72d4	0.124242455
32	0xbdd90472	-0.10596551
33	0x3dd9ab23	0.10628345
34	0x3c40fc0f	0.011778845
35	0x3be629da	0.007024032
36	0x3d8c4f28	0.06851035
37	0xbde74631	-0.11292685
38	0x3d9c7ad5	0.07640616
39	0x3db29616	0.08720033
40	0xbce78d4e	-0.028265622
41	0x3d78fca6	0.06078782
42	0xbda1c7f7	-0.078994684
43	0xbcec83b6	-0.028871398
44	0xbdf26d11	-0.11837209
45	0xbce279b5	-0.027645925
46	0xbcf2cb58	-0.029637977
47	0xbd6deb61	-0.058085803
48	0x3d887c0f	0.06664287
49	0x3d96efa1	0.07369924
50	0x3d998d77	0.074976854
51	0x3de8f5c9	0.11375005
52	0xbd2bc9b8	-0.04194042
53	0x3daf7a2a	0.08568223
54	0x3c1dfa67	0.00964222
55	0xbcd044d4	-0.025423445
56	0x3dd71203	0.10501482
57	0xbc23b6d8	-0.009992324
58	0x3d8d4662	0.0689819
59	0xbd01c37f	-0.03168058
60	0xbd323615	-0.043508608
61	0x3d41d833	0.047325324
62	0xbce35389	-0.027749794
63	0x3dfed127	0.124422364
64	0x3cf76986	0.030201685
65	0xbc8446be	-0.016147014
66	0x3dbc9842	0.092087284
67	0x3db2c65e	0.08729242
68	0x3d921d28	0.07134467
69	0xbcd21d11	-0.025648626
70	0xbdb84c43	-0.08998921
71	0xbd991351	-0.074743874
72	0x3d2d4b88	0.04230836
73	0x3cff4d3b	0.031164756
74	0x3da957ef	0.08268725
75	0x3d3f53aa	0.046710648
76	0xbd891e05	-0.06695179
77	0x3d10a187	0.035310294
78	0xbdcc5892	-0.09977831
79	0xbdd9bb01	-0.10631371
80	0x3c15706d	0.009121043
81	0xbdc99318	-0.09842509
82	0xbd81846d	-0.06324086
83	0xbdcf3985	-0.10118393
84	0xbd8546c4	-0.06507638
85	0xbd4c41ee	-0.049867563
86	0x3df08a94	0.11745182
87	0x3dfb95c9	0.122844286
88	0xbdfd3542	-0.12363674
89	0xbd004108	-0.03131202
90	0x3abfc867	0.0014631868
91	0xbd84b5a8	-0.06479961
92	0x3b69656d	0.0035613433
93	0xbcfcf2b5	-0.03087745
94	0xbcd1f526	-0.025629591
95	0x3b7643e9	0.0037577099
96	0xbdfceea5	-0.12350205
97	0x3d827e25	0.063717164
98	0x3c5cd388	0.013478167
99	0x3daab0cb	0.08334502
100	0xbaa6d575	-0.001272841
101	0x3b2b51d4	0.0026141303
102	0xbc8648bd	-0.016392106
103	0xbd1e775a	-0.03868804
104	0xbc867dee	-0.01641747
105	0x3d64160f	0.0556851
106	0x3db38ab1	0.08766688
107	0x3dbf5a5b	0.09343406
108	0x3b99cae9	0.004693378
109	0xbce04173	-0.027374959
110	0xbdf6cbbc	-0.12050578
111	0x3d5e174b	0.054221433
112	0x3df1f49e	0.11814235
113	0x3d83b077	0.064301424
114	0x3d8532ce	0.06503831
115	0xbd840291	-0.06445802
116	0x3d8db366	0.06918983
117	0x3c1536c1	0.009107293
118	0x3c52429a	0.012833262
119	0x3dadf85b	0.08494636
120	0x3d8f612c	0.07000956
121	0xbd2fedf7	-0.04295155
122	0x3d68bc1e	0.056820028
123	0x3c815e6c	0.015792094
124	0xbcb4fa3c	-0.022091977
125	0xbd1434e8	-0.036183268
126	0x3b3677e6	0.002784246
127	0x3dae7c4a	0.085198
128	0xbbf7d9ba	-0.007563797
129	0xbdc2165f	-0.09476923
130	0x3ddb40ad	0.10705695
131	0x3dd1c76a	0.10243113
132	0x3c45746c	0.012051683
133	0xbdcea707	-0.10090452
134	0x3dafba6b	0.08580478
135	0x3b769c1f	0.0037629677
136	0xbdf246ef	-0.11829936
137	0xbd4a2196	-0.049348436
138	0xbcb621d6	-0.022232931
139	0x3dc955ab	0.09830793
140	0xbd619468	-0.05507317
141	0xbdffef7b	-0.12496849
142	0xbdec9d39	-0.11553425
143	0xbd6a6fd7	-0.057235565
144	0xbd051dba	-0.032499053
145	0x3db3b59a	0.08774872
146	0x3dd0f44e	0.102028474
147	0x3b9d70b9	0.0048046974
148	0xbdbcc702	-0.09217645
149	0x3d8244dd	0.06360791
150	0xbd76665d	-0.060156215
151	0x3bd42468	0.0064740665
152	0x3de21188	0.110385
153	0xbd485a4f	-0.04891425
154	0xbdfb689d	-0.12275813
155	0xbd8cec90	-0.06881058
156	0x3dfa48f1	0.12220944
157	0x3ddb78c8	0.107163966
158	0x3db81231	0.08987845
159	0xbdeca7a9	-0.11555416
160	0xbdce7267	-0.10080414
161	0xbdb1eb12	-0.08687414
162	0x3d16d841	0.03682733
163	0xbdc23c24	-0.09484127
164	0x3dfea5a7	0.124339394
165	0xbdc39106	-0.095491454
166	0x3dd9cf4d	0.106352426
167	0xbdca01a3	-0.098635934
168	0x3df3d3a9	0.11905605
169	0x3da085a1	0.07837988
170	0xbdbc2307	-0.091863684
171	0x3cf362f6	0.029710274
172	0x3cffc907	0.031223787
173	0x3dee302b	0.11630281
174	0xbdad9b9b	-0.08476945
175	0xbd473dea	-0.04864303
176	0xbd1fbe5b	-0.038999896
177	0x3c7f2b36	0.015574267
178	0xbc528f5e	-0.012851564
179	0x3c101cc9	0.008795925
180	0xbdea137a	-0.11429496
181	0xbcb009aa	-0.021488983
182	0xbdda54c3	-0.10660698
183	0x3de8f33a	0.11374517
184	0xbdaa5d86	-0.083186194
185	0x3d9b40a1	0.07580686
186	0x3d0892c0	0.033343077
187	0x3c5cc2af	0.013474151
188	0x3d2a2ae9	0.04154483
189	0xbdcfcec2	-0.10146858
190	0xbcefd96c	-0.02927848
191	0x3d3a3f56	0.045470558
192	0xbd58d1e7	-0.052934553
193	0x3d9d0343	0.07666638
194	0xbd8ee4bb	-0.069772206
195	0xbd17201e	-0.036895864
196	0xbd178692	-0.03699357
197	0x3dde891f	0.108659975
198	0x3d758b95	0.05994757
199	0x3da04d19	0.07827205
200	0xbce45d10	-0.027876407
201	0x3d508807	0.050910976
202	0xbcfa7a2e	-0.030575838
203	0xbcb850b9	-0.022499429
204	0x3d755dc3	0.05990387
205	0xbd411722	-0.0471412
206	0xbdc4c385	-0.09607605
207	0xbde5e61b	-0.1122553
208	0x3ce33a24	0.027737685
209	0xbcf20ff8	-0.02954863
210	0xbc8d4cf4	-0.017248608
211	0x3c00ea22	0.007868322
212	0xbd38ddb2	-0.0451333
213	0x3d821f5e	0.06353639
214	0x3d34b2fc	0.044116005
215	0x3c9692b1	0.018380495
216	0x3cd01401	0.025400164
217	0xbdfc3fd9	-0.123168655
218	0x3c9b3d39	0.018950092
219	0xbddaa463	-0.106758855
220	0x3c473e6a	0.012160877
221	0x3dd8751c	0.10569212
222	0x3de0939b	0.109656535
223	0x3dd2bc26	0.10289793
224	0x3d43d3be	0.047809355
225	0x3d01ba79	0.031671975
226	0x3b0366db	0.002005032
227	0xbdc513ff	-0.096229546
228	0xbdf74a85	-0.1207476
229	0xbd3a5a43	-0.045496237
230	0x3df82650	0.121166825
231	0xbd993066	-0.074799344
232	0x3dd07b48	0.10179764
233	0xbd4fcf1f	-0.050734635
234	0xbd9abd09	-0.07555587
235	0x3d0fd98b	0.035119575
236	0x3cdb081c	0.026737265
237	0xbcb15404	-0.021646507
238	0xbde98d3d	-0.11403892
239	0xbcff3835	-0.031154731
240	0x3c5b60f7	0.013389817
241	0xbcdbc7d6	-0.026828688
242	0x3cf1380a	0.029445667
243	0x3c71d6ab	0.0147606535
244	0x3df8dbad	0.12151275
245	0xbd4b3bba	-0.049617507
246	0xbc7a3261	-0.0152708
247	0x3bb24621	0.005440489
248	0xbddbae19	-0.10726566
249	0x3c40ed42	0.011775317
250	0x3d7421ae	0.059602432
251	0xbd49de7b	-0.04928444
252	0xbd6b3ef1	-0.057433072
253	0x3d5d143e	0.053974383
254	0xbd2de8ff	-0.04245853
255	0x3ceea748	0.0291325

grucell.bias_ih f4 [192]
0	0xbac60b2d	-0.0015109532
1	0x3db8bcb8	0.0902037
2	0x3d33a3b5	0.043857295
3	0xbdd12482	-0.102120414
4	0x3d79afb5	0.060958583
5	0xbe0016fb	-0.12508766
6	0x3dd2cc9d	0.10292933
7	0x3d2c0f8b	0.04200701
8	0xbdb0f7a9	-0.086409874
9	0xbca616e6	-0.02027459
10	0xbdaec9ca	-0.08534582
11	0xbca839de	-0.020535406
12	0x3d493450	0.049122155
13	0x3df3612d	0.11883769
14	0xbca7bfc4	-0.020477183
15	0x3d9e5861	0.07731701
16	0xbc9a2a3e	-0.01881897
17	0x3bc5dd5d	0.0060383515
18	0xbe001fb3	-0.12512092
19	0xbd0be4a0	-0.03415358
20	0x3c8538c3	0.016262418
21	0x3c7ce1dd	0.015434709
22	0x3dd12951	0.102129586
23	0xbc3cf02d	-0.011531872
24	0xbd7f6f45	-0.062361974
25	0xbc45a824	-0.012064014
26	0x3dc4d856	0.09611575
27	0xbd1aac93	-0.037762236
28	0xbda63ab9	-0.08116669
29	0x3debf822	0.11521937
30	0x3dbfe8c2	0.09370567
31	0x3df9f3c6	0.12204699
32	0xbd22dfff	-0.0397644
33	0xbccd4fc6	-0.025062453
34	0xbd971722	-0.07377459
35	0xbcd13307	-0.025537027
36	0xbdcfd241	-0.101475246
37	0x3d232c50	0.03983718
38	0xbd8d78ce	-0.06907807
39	0xbdffc4e1	-0.124887235
40	0x3d2945e1	0.041326407
41	0xbdd96134	-0.10614243
42	0xbd3ce19d	-0.0461136
43	0x3c3a29ac	0.011362474
44	0x3df326a7	0.11872607
45	0xbde59e74	-0.11211863
46	0xbdcac1a4	-0.09900215
47	0xbd27c049	-0.04095486
48	0x3c26c666	0.010179138
49	0xbcb9a301	-0.022660734
50	0xbc88da20	-0.016705573
51	0x3dcc8c09	0.09987647
52	0x3dafac83	0.08577826
53	0xbd53547b	-0.05159424
54	0xbdc7ff19	-0.09765453
55	0xbda28643	-0.07935765
56	0x3c07588b	0.008260856
57	0x3d60f061	0.054916743
58	0xbdbe9e4e	-0.09307538
59	0x3ddd3edf	0.10803007
60	0x3bcc4dbb	0.006234852
61	0xbd4eb35d	-0.050464023
62	0x3c00b4af	0.007855578
63	0x3da98d22	0.08278872
64	0xbddf0932	-0.10890426
65	0xbd13c11e	-0.036072843
66	0xbd8426a0	-0.0645268
67	0x3c324607	0.010880954
68	0xbdf347a7	-0.11878901
69	0x3d86e70e	0.06587039
70	0x3bd86883	0.0066042556
71	0x3dfaa6f3	0.12238874
72	0xbcd85fd0	-0.026412874
73	0xbc0d8ed1	-0.008640007
74	0xbd1d7e49	-0.038450513
75	0xbdc1fea4	-0.09472397
76	0xbddad632	-0.10685386
77	0xbd7551e3	-0.059892546
78	0x3dc88489	0.09790904
79	0x3c87366c	0.016505443
80	0xbdc8a2a3	-0.097966455
81	0xbd7c0de0	-0.06153667
82	0xbd0b52aa	-0.03401438
83	0x3cbac1d0	0.022797495
84	0xbdd20054	-0.10253969
85	0xbd6d7c88	-0.05798009
86	0xbddb6b6b	-0.10713848
87	0xbdb96fb5	-0.090545096
88	0xbdd92355	-0.10602442
89	0x3de24d14	0.11049858
90	0x3da418b2	0.08012523
91	0x3da03bfb	0.0782394
92	0x3dd52496	0.10407369
93	0xbc973057	-0.018455667
94	0xbdceb3c7	-0.100928836
95	0xbdb856f8	-0.09000963
96	0xbde5da55	-0.11223284
97	0x3df7b9c3	0.12095978
98	0xbd1c7e5f	-0.038206454
99	0x3de24371	0.1104802
100	0x3c99a6b2	0.018756244
101	0x3d245602	0.040121086
102	0xbdfbe58f	-0.12299644
103	0xbdbca30a	-0.09210785
104	0xbd43c9ca	-0.047799863
105	0x3c17d4b2	0.009267019
106	0x3c0f40dc	0.008743491
107	0xbd7a6c1b	-0.061138254
108	0x3d7f8699	0.06238422
109	0x3d020b1b	0.031748872
110	0xbda38dbb	-0.07986017
111	0x3d57db85	0.052699585
112	0x3d9bae05	0.07601551
113	0xbd6eec49	-0.058330808
114	0xbde404ad	-0.11133704
115	0xbd3014a8	-0.04298845
116	0x3d8383bc	0.06421611
117	0x3d07b502	0.033131607
118	0x3dd7e194	0.105410725
119	0xbd18bdae	-0.037290268
120	0xbd97be7a	-0.074093774
121	0x3cd90a89	0.026494281
122	0x3d9f29f4	0.07771674
123	0xbc6adcb2	-0.014334844
124	0x3df09880	0.11747837
125	0xbdd7c4db	-0.10535594
126	0xbda9bbc4	-0.082877666
127	0x3d95a996	0.073077366
128	0xbe0eae86	-0.13933763
129	0xbe30ccc6	-0.17265615
130	0xbd4319a2	-0.047631867
131	0xbd87e53e	-0.06635521
132	0x3e159cd1	0.14610602
133	0x3da23b63	0.07921483
134	0xbe1c6a80	-0.15275002
135	0x3d473db3	0.048642825
136	0x3e000eaa	0.12505594
137	0xbc85f0d7	-0.016350193
138	0x3d9f5170	0.07779205
139	0x3d8d539e	0.06900714
140	0xbc9c86dd	-0.019107277
141	0x3d2daeef	0.042403158
142	0xbdce5bcc	-0.100761026
143	0xbce61ef7	-0.028090937
144	0x3d0209b9	0.031747553
145	0xbdb7da59	-0.089771934
146	0x3dd01491	0.10160173
147	0xbddbe5d4	-0.107371956
148	0x3d73f1b6	0.059556685
149	0xbd849928	-0.06474525
150	0x3e0cb5dd	0.1374125
151	0xbc532ee9	-0.012889602
152	0xbd6248d6	-0.055245243
153	0x3e20ac1f	0.15690659
154	0xbd18f9b5	-0.037347514
155	0x3dd0e99c	0.102008075
156	0x3dab3e80	0.0836153
157	0xbd315d52	-0.043301888
158	0xbcd36950	-0.025807053
159	0xbc468486	-0.012116557
160	0x3cbd00ef	0.023071734
161	0xbb2b7aa5	-0.002616563
162	0x3d0bdf56	0.034148537
163	0xbd5102c4	-0.051028028
164	0xbe001275	-0.12507041
165	0xbd1c3c33	-0.038143348
166	0xbcd77592	-0.02630118
167	0x3d402bbb	0.046916705
168	0x3dbb3c1b	0.091423236
169	0x3df193c9	0.11795766
170	0xbdb08725	-0.08619527
171	0x3d709ac0	0.05874133
172	0x3d4f824a	0.050661363
173	0xbde0dece	-0.109799966
174	0x3db93cf8	0.09044832
175	0x3c01b24a	0.007916043
176	0xbe3e2060	-0.18567038
177	0x3e21c1e9	0.15796627
178	0xbe1aa2ef	-0.15101217
179	0xbdc97bbe	-0.09838055
180	0xbb0af99a	-0.0021205903
181	0xbd819543	-0.063272975
182	0xbcb31aa1	-0.021863284
183	0x3dbcac29	0.092125244
184	0xbd10728f	-0.0352655
185	0xbcf25ce6	-0.029585313
186	0x3ce1ead9	0.027577804
187	0xbdca2f64	-0.0987232
188	0xbe0a0d76	-0.13481697
189	0xbdadc2f3	-0.08484449
190	0xbd5a63f0	-0.053317964
191	0xbde537ab	-0.111922584

grucell.bias_hh f4 [192]
0	0x3d6a921d	0.05726825
1	0x3ca7b03f	0.020469783
2	0x3d798609	0.06091884
3	0x3de66f94	0.112517506
4	0xbda35fdf	-0.0797727
5	0x3c72cbec	0.014819127
6	0x3db5a687	0.08869653
7	0x3bd2c427	0.0064320746
8	0x3de2b4a7	0.11069613
9	0xbdd8cd17	-0.10585993
10	0xbd6ed1c1	-0.058305506
11	0xbcbf39d6	-0.023343008
12	0xbd2b9488	-0.041889697
13	0x3d3b010a	0.045655288
14	0x3dea423f	0.11438417
15	0xbce66c98	-0.028127953
16	0xbda1890a	-0.07887466
17	0x3d353c92	0.044247217
18	0x3d92bc2e	0.07164799
19	0x3d233594	0.039846018
20	0x3d39f1d5	0.045396645
21	0xbd81cb7f	-0.06337642
22	0xbd7a5273	-0.061113786
23	0x3d712bce	0.058879666
24	0xbde49405	-0.11161045
25	0xbd956f51	-0.072966225
26	0xbcdf0588	-0.027224317
27	0x3dccaf67	0.09994393
28	0xbdc6895b	-0.09694167
29	0xbddc8b1e	-0.10768722
30	0xbd1165a5	-0.035497326
31	0xbd214a38	-0.03937742
32	0x3b38998c	0.0028167693
33	0xbdce89a1	-0.100848444
34	0xbca9a957	-0.02071063
35	0xbdc25ac5	-0.09489969
36	0x3aa2de7f	0.0012425928
37	0x3da608a3	0.08107116
38	0x3d7f9ae8	0.06240359
39	0xbcb4977b	-0.022044888
40	0xbc324a71	-0.010882006
41	0xbd5adfff	-0.053436276
42	0x3de12cb5	0.10994855
43	0x3d153d86	0.036435626
44	0xbd8f0a31	-0.06984366
45	0x3d74b1cc	0.059739873
46	0xbd985966	-0.074389264
47	0xbbc179e8	-0.005904425
48	0x3d4c81cd	0.049928475
49	0x3cd68437	0.026186092
50	0x3d591af5	0.053004224
51	0x3c857813	0.016292607
52	0x3c412b1f	0.011790066
53	0x3d2d1721	0.042258386
54	0x3dd6a73f	0.104811184
55	0xbd31312f	-0.043259796
56	0x3db9f97f	0.09080791
57	0x3cd8afb2	0.026450966
58	0x3c605803	0.013692859
59	0xbcce4e3b	-0.025183788
60	0xbd20c48b	-0.039249938
61	0xbdb6ea36	-0.08931391
62	0x3df18acb	0.11794051
63	0xbdf7edaa	-0.12105878
64	0xbde7c8ce	-0.11317597
65	0x3dfec9ee	0.12440859
66	0x3d9661d6	0.073428795
67	0xbbd86be3	-0.006604658
68	0xbd123beb	-0.035701673
69	0x3ddf5d44	0.10906461
70	0xbcd83eac	-0.026397072
71	0xb8cee748	-9.865925e-05
72	0x3d9c260f	0.076244466
73	0xbd3a53bc	-0.04549001
74	0xbd8ad74a	-0.067793444
75	0x3dd4f268	0.10397798
76	0xbdc73fc4	-0.09728959
77	0x3b8e7f29	0.0043486548
78	0xbd1a48dd	-0.037667144
79	0x3c474b7e	0.012163995
80	0xbd29a641	-0.041418318
81	0x3bd1395f	0.006385013
82	0x3bb24c70	0.005441241
83	0x3d2e47f9	0.042549107
84	0x3dfe48a4	0.12416199
85	0xbdd0b366	-0.101904675
86	0x3cad45ba	0.021151412
87	0x3dbca83d	0.092117764
88	0xbde8fd57	-0.11376446
89	0xbccd65a6	-0.025072884
90	0xbdbec5ce	-0.09315072
91	0xbdae5739	-0.0851273
92	0xbda11d38	-0.07866901
93	0x3d7696c2	0.060202368
94	0xbd3741a5	-0.044740338
95	0xbdc93980	-0.098254204
96	0x3df57713	0.11985602
97	0x3dbb28c1	0.091386326
98	0xbd7a1d27	-0.061062958
99	0xbdeaad43	-0.11458828
100	0xbddca6e9	-0.10774023
101	0xbdd68d89	-0.104762144
102	0xbce4cda7	-0.027930094
103	0x3d9eb294	0.07748905
104	0xbbae8b7b	-0.005326686
105	0x3bf9b71b	0.007620705
106	0x3da2c555	0.07947794
107	0x3d601375	0.054706056
108	0x3d267f21	0.040648583
109	0xbd7bdcb9	-0.061489794
110	0xbcd61a42	-0.026135568
111	0x3d0c8201	0.03430367
112	0x3d127c9f	0.03576338
113	0x3c9d9e82	0.019240621
114	0x3dbfdc5b	0.09368201
115	0x3abb7c6f	0.0014304052
116	0xbdd12678	-0.102124155
117	0x3d275f26	0.040862225
118	0xbd628c73	-0.055309724
119	0xb8008540	-3.0641677e-05
120	0xbdb2b89e	-0.08726619
121	0x3df6d0c0	0.12051535
122	0xbcd7669a	-0.026294041
123	0x3c98dd5c	0.01866024
124	0xbd89fb1e	-0.0673735
125	0xbda5233d	-0.08063362
126	0x3dcba3c0	0.09943342
127	0x3d3e40fc	0.046448693
128	0x3d1f462f	0.03888529
129	0x3d84beaf	0.064816825
130	0x3b4f9fc6	0.0031680926
131	0xbdc198ca	-0.0945297
132	0xbd9585b4	-0.073008925
133	0xbd11743b	-0.035511237
134	0x3cb3f4aa	0.02196725
135	0xbcb1f55b	-0.02172344
136	0x3e0987b1	0.13430668
137	0x3d7fba54	0.062433556
138	0xbdab5163	-0.08365133
139	0x3dbe10fe	0.09280585
140	0x3c3c10b1	0.011478589
141	0xbd392e77	-0.045210328
142	0xbde9837f	-0.11402034
143	0x3dd3de5c	0.10345146
144	0x3c9fedb5	0.019522527
145	0xbd403d80	-0.04693365
146	0xbda2eeb7	-0.079556875
147	0xbb6d3969	-0.003619755
148	0xbdde610a	-0.108583525
149	0xbd510280	-0.051027775
150	0x3d62c76f	0.055365976
151	0xbdddcdd8	-0.10830277
152	0xbdb0adef	-0.08626925
153	0x3d9e0c21	0.07717157
154	0xbd6138cb	-0.054985803
155	0x3e1a92b0	0.1509502
156	0xbc1bfa40	-0.0095201135
157	0xbd09186d	-0.03347056
158	0xbc5bfc44	-0.013426844
159	0x3d6bca9c	0.05756627
160	0x3c5893e9	0.013218858
161	0x3d139370	0.03602928
162	0x3c7f03fe	0.015564917
163	0xbdac0937	-0.08400195
164	0xbd0ff954	-0.035149887
165	0xbdd49955	-0.10380808
166	0xbc0ec4d8	-0.008713923
167	0x3d904a5a	0.070454314
168	0xbd105837	-0.03524038
169	0xbd4ac483	-0.049503814
170	0x3d10b03c	0.03532432
171	0xbd5f1ab6	-0.054468833
172	0x3dd36454	0.103218704
173	0xbdf5fc10	-0.12010968
174	0xbd9ff49f	-0.0781033
175	0x3d84bacc	0.06480941
176	0xbdc86003	-0.09783938
177	0xbdab6bb6	-0.083701536
178	0x3d88811c	0.06665251
179	0xbc523151	-0.012829141
180	0xbd140f5b	-0.036147457
181	0xbe06ce20	-0.13164568
182	0xbc651068	-0.013980962
183	0xbcf4cfcb	-0.02988424
184	0xbca986f9	-0.020694243
185	0xbda373a3	-0.0798104
186	0x3da9e492	0.082955495
187	0xbdce97f0	-0.100875735
188	0xbd12b4f3	-0.035817098
189	0xbc76c078	-0.015060537
190	0x3dc009ee	0.09376894
191	0xbe1434b9	-0.14473237

linear.weight f4 [2, 64]
0	0xbde1663e	-0.11005829
1	0xbcbf9881	-0.02338815
2	0x3d358a2e	0.04432123
3	0x3da4815c	0.08032486
4	0x3cd9ffa6	0.02661116
5	0xbcdf40da	-0.027252603
6	0xbdc2f88d	-0.095200635
7	0xbcf47ccb	-0.029844662
8	0x3d919061	0.07107616
9	0x3d96c804	0.07362369
10	0xbc282070	-0.01026164
11	0xbc054444	-0.008133952
12	0xbd01a8ca	-0.03165511
13	0xbcb0e381	-0.021592857
14	0x3c9400e6	0.018066835
15	0xbbd00fd8	-0.006349545
16	0xbd6ee8d8	-0.058327526
17	0xbd6f605d	-0.05844151
18	0x3dcae0a1	0.09906126
19	0x3df4737e	0.11936091
20	0xbd881196	-0.06643979
21	0x3d7d2006	0.061798118
22	0xbd81a8f5	-0.06331054
23	0x3dfb1f50	0.12261832
24	0x3d566653	0.052343678
25	0xbdfcd227	-0.12344771
26	0x3c92e166	0.017929744
27	0xbcfdab40	-0.030965447
28	0x3dfe01c1	0.12402678
29	0x3dcc44f4	0.09974089
30	0xbdb86695	-0.09003941
31	0x3d603a50	0.05474311
32	0x3dce1e30	0.100643516
33	0x3c9bcfa1	0.019019904
34	0x3dbf5486	0.093422934
35	0x3dac991f	0.08427643
36	0xba4e6190	-0.00078728143
37	0x3d875c3c	0.06609389
38	0xbd56e819	-0.05246744
39	0x3d2f0efe	0.042738907
40	0xbb35eb68	-0.0027758721
41	0xbdcad57f	-0.099040024
42	0xbdd49b83	-0.10381224
43	0x3dd37168	0.10324365
44	0x3db2786b	0.08714374
45	0x3d8a0542	0.06739284
46	0x3db0befd	0.08630178
47	0x3dd636d4	0.104596764
48	0xbd9a0d46	-0.07522063
49	0xbb4f97dd	-0.003167621
50	0xbd94f5e0	-0.072734594
51	0xbd97f921	-0.074205644
52	0x3c845813	0.016155278
53	0xbd28bee6	-0.04119768
54	0xbd7139d8	-0.058893055
55	0x3d05e8c7	0.032692697
56	0xbdf31e47	-0.11871009
57	0xbd631f3b	-0.055449706
58	0xbd874803	-0.06605532
59	0xbd5934e3	-0.053028952
60	0xbd64a158	-0.055817932
61	0xbdcc99bf	-0.09990262
62	0x3cfb1867	0.030651284
63	0x3df28dd0	0.11843455
64	0xbd7f6e04	-0.06236078
65	0x3ceff2d2	0.02929059
66	0xbd27f770	-0.04100746
67	0x3def1370	0.11673629
68	0x3c138a1c	0.009005096
69	0xbd32b4bd	-0.043629397
70	0x3d6b1337	0.05739137
71	0xbd1781f0	-0.036989152
72	0xbd888d0e	-0.06667529
73	0x3dd1079f	0.10206532
74	0xbcfcb58e	-0.03084829
75	0x3d1d783a	0.038444735
76	0xbdc7aabb	-0.09749361
77	0x3d916aa9	0.07100422
78	0xbdd56a21	-0.10420633
79	0x3c61db7f	0.013785242
80	0x3d1ec622	0.038763173
81	0xbd2bc29c	-0.04193364
82	0x3d87064c	0.06592998
83	0x3d223e78	0.039610356
84	0x3d8fec62	0.07027508
85	0xbd32c38f	-0.04364353
86	0x3d694415	0.056949694
87	0x3db8e60b	0.09028252
88	0x3dd870c9	0.10568387
89	0x3da58f56	0.0808398
90	0xbd4fa21a	-0.0506917
91	0xbb2e9258	-0.002663752
92	0xbdcf88d9	-0.101335235
93	0x3df61f1f	0.12017655
94	0xbdbe16c0	-0.09281683
95	0xbc473282	-0.012158038
96	0xbdcdd378	-0.100501
97	0xbd2973de	-0.041370265
98	0xbdcdf473	-0.100563906
99	0x3dac05d0	0.08399546
100	0x3d8ca718	0.06867808
101	0xbc60791f	-0.0137007525
102	0xbc80e5e5	-0.015734622
103	0x3e006968	0.1254021
104	0xbc9678dd	-0.018368179
105	0xbcc0fe41	-0.023558738
106	0xbdca55c7	-0.09879642
107	0xbdc83ce2	-0.097772375
108	0xbc702b32	-0.014658736
109	0xbd8ea68e	-0.069653615
110	0x3d82700d	0.06369028
111	0xbd89dee8	-0.06731969
112	0x3d0bb039	0.034103606
113	0xbd97c602	-0.07410814
114	0x3ddcf94b	0.10789736
115	0x3cdadd2b	0.02671679
116	0x3dba639b	0.091010295
117	0x3d96ab57	0.07356899
118	0xbdf9618f	-0.12176811
119	0xbdbdc282	-0.09265615
120	0xbda55b9f	-0.08074116
121	0xbd20b586	-0.039235614
122	0x3d18e3af	0.03732651
123	0xbcd38f31	-0.025825115
124	0x3db17681	0.08665181
125	0xbd9ea7f5	-0.07746879
126	0xbdcbb3ed	-0.099464275
127	0xbd8df4f4	-0.06931487

linear.bias f4 [2]
0	0x3da0fc0d	0.07860575
1	0x3d2c78b2	0.04210729

linear_final.weight f4 [5, 64]
0	0xbdc111e5	-0.09427241
1	0x3d89ec43	0.067345165
2	0xbdd4790a	-0.10374649
3	0x3d173286	0.036913417
4	0x3d87e9a6	0.06636362
5	0xbdd6cf46	-0.10488753
6	0xbdd9eb67	-0.106406026
7	0xbd8ae70c	-0.0678235
8	0x3dc8b685	0.09800438
9	0xbda46266	-0.080265805
10	0x3db1cfd0	0.08682215
11	0x3d62596c	0.05526106
12	0xbd7a7359	-0.06114516
13	0x3d9728ac	0.073808044
14	0x3d36a9eb	0.04459564
15	0xbd7a5d80	-0.061124325
16	0x3db065cd	0.08613167
17	0x3d117515	0.03551205
18	0xbd8e80a3	-0.06958129
19	0xbd6ed0c0	-0.05830455
20	0xbd8b4ba2	-0.06801535
21	0xbdabfd74	-0.08397952
22	0x3b6df683	0.0036310263
23	0x3cb333db	0.021875313
24	0xbda60452	-0.08106293
25	0x3d10afc5	0.035323877
26	0x3b75ce59	0.0037507026
27	0x3d8d7d93	0.06908717
28	0xbd6a2bbc	-0.057170615
29	0xbc587579	-0.013211601
30	0x3cf9f98b	0.0305145
31	0xbdd1889d	-0.10231135
32	0x3dc8df43	0.09808209
33	0x3c7f67e0	0.015588731
34	0xbd7ee709	-0.06223205
35	0x3dba62c6	0.09100871
36	0x3cc417a3	0.023937052
37	0xbd153a07	-0.036432292
38	0xbcde235d	-0.027116472
39	0xb9ae14f0	-0.00033203466
40	0x3d175190	0.03694302
41	0x3b42cda3	0.002972462
42	0x3d448f7f	0.04798841
43	0xbdba20d9	-0.090882964
44	0x3d5e997d	0.054345597
45	0x3d593d59	0.05303702
46	0x3d09cf50	0.033644974
47	0x3dac8bcf	0.08425104
48	0xbc878b25	-0.016545841
49	0x3ce253d7	0.027627869
50	0xbdd914b3	-0.10599651
51	0x3d2df5de	0.042470805
52	0x3db39ee5	0.08770541
53	0x3dd02fd4	0.101653725
54	0xbd9378b9	-0.072007604
55	0x3d81c5c8	0.06336552
56	0x3dca8ad1	0.098897584
57	0x3d017cc0	0.03161311
58	0x3cef1655	0.029185453
59	0xbd638308	-0.055544883
60	0x3daf3e73	0.08556833
61	0x3d1cf2ab	0.038317364
62	0x3d013008	0.031539947
63	0xbc59340f	-0.013257041
64	0x3d914140	0.070925236
65	0x3d0a6957	0.033791866
66	0xbd15664d	-0.036474515
67	0x3c29a742	0.010354819
68	0x3c2801a1	0.010254295
69	0xbd2325fe	-0.039831154
70	0x3d818c73	0.06325617
71	0x3b0884e8	0.0020831171
72	0xbccf0488	-0.025270715
73	0x3d18549c	0.037190065
74	0xbbb36e38	-0.0054757856
75	0x3c3a40b0	0.011367962
76	0xbd1276df	-0.035757896
77	0xbc50a873	-0.012735474
78	0x3ce13143	0.02748931
79	0x3cd13461	0.025537672
80	0xbcaaf829	-0.020870285
81	0xbc0e6004	-0.008689884
82	0xbaeffdd5	-0.0018309901
83	0xbc3ec9d5	-0.0116448
84	0x3c591194	0.01324882
85	0x3ce09e34	0.027419187
86	0xbd39a587	-0.045323875
87	0xbd218797	-0.03943595
88	0x3d2eb318	0.042651266
89	0x3c398f69	0.011325696
90	0xbc67f6c2	-0.014157953
91	0xbca82653	-0.020526087
92	0x3d0c7e45	0.034300108
93	0xbb66e255	-0.003523012
94	0x3c9c1714	0.019053973
95	0x3d80349a	0.06260033
96	0x39b7d34d	0.0003506191
97	0xbd5d9259	-0.054094646
98	0xbd47089d	-0.0485922
99	0xbcf6aa47	-0.030110491
100	0x3d0c8dbf	0.034314867
101	0xba9c1636	-0.0011908475
102	0x3d479471	0.04872555
103	0xbc5bdb0c	-0.013418924
104	0xbc187818	-0.009305976
105	0xbce68d18	-0.02814345
106	0x3d10ca81	0.035349373
107	0x3caae80b	0.0208626
108	0xbd1d8330	-0.03845519
109	0xbc1854d0	-0.009297565
110	0xbd12ebe6	-0.0358695
111	0xbbe16f1b	-0.0068797
112	0x3d39b647	0.04533985
113	0x3cc67699	0.024226474
114	0x3d3c267e	0.045935147
115	0x3c734365	0.014847611
116	0xbcebbb9b	-0.02877598
117	0xbc1fcb5c	-0.0097530745
118	0x3d147aaf	0.036249813
119	0xbd3a89b0	-0.045541465
120	0xbcf9419c	-0.030426793
121	0xbd282ec5	-0.041060228
122	0xbce4c590	-0.027926236
123	0x3c43574f	0.011922671
124	0xbc5b4779	-0.01338374
125	0x3bd62c58	0.006536048
126	0xbc6370db	-0.013881887
127	0x3d49a446	0.04922893
128	0x3de1394b	0.10997256
129	0x3e40e378	0.18836772
130	0x3c8ddb92	0.017316613
131	0x3de22a5c	0.11043236
132	0xbe0152b0	-0.12629199
133	0xbd204fa0	-0.039138436
134	0x3d33465a	0.043768264
135	0x3cf584c2	0.02997053
136	0xbb05db4f	-0.0020424908
137	0x3c2c6361	0.010521741
138	0xbd4a7be2	-0.04943455
139	0x3d12cb9c	0.03583871
140	0x3d5410df	0.051773902
141	0xbe34344b	-0.17598073
142	0x3c153e8f	0.009109153
143	0xbd2e3172	-0.042527623
144	0xbe0ddb75	-0.13853247
145	0x3e462a7d	0.19352145
146	0xbdf7bf97	-0.1209709
147	0xbbf26233	-0.00739696
148	0x3da3f81f	0.0800631
149	0xbd004073	-0.031311464
150	0xbd80ca32	-0.06288566
151	0xbd29fcf5	-0.041501004
152	0x3e3aa8c8	0.18228447
153	0xbdd61927	-0.10454016
154	0xbdaece87	-0.08535486
155	0xbe0c6f22	-0.13714269
156	0x3d871a69	0.06596834
157	0x3e1d27a9	0.1534716
158	0xbc1bd63e	-0.009511529
159	0xbba5adf1	-0.005056136
160	0x3cd3ea55	0.025868574
161	0x3d36a215	0.044588167
162	0x3cdde484	0.027086504
163	0xbc612e8b	-0.013744007
164	0x3df85df2	0.12127294
165	0x3d5bdc36	0.053676806
166	0xbb9b921e	-0.004747643
167	0xbde6b6dd	-0.11265347
168	0xbcff978b	-0.031200191
169	0xbe25bdaf	-0.1618564
170	0x3c0a0f12	0.008426445
171	0x3a024fb6	0.00049709843
172	0xbd18501d	-0.037185777
173	0x3e3bb01c	0.18328899
174	0xbdd7bad1	-0.10533679
175	0x3c486c47	0.012232847
176	0x3e393118	0.18085134
177	0x3cd6214f	0.02613893
178	0x3da34a61	0.07973171
179	0x3d08c632	0.03339214
180	0xbd75809b	-0.0599371
181	0x3e62c753	0.22146349
182	0xbdcc0aa6	-0.099629685
183	0xbcc40219	-0.023926781
184	0xbd8d0393	-0.06885447
185	0x3e5fd7ae	0.21859619
186	0xbd076894	-0.033058718
187	0x3db9ff05	0.09081844
188	0x3e4dc1ac	0.20093411
189	0xbc068cc1	-0.008212269
190	0xbd72ba8e	-0.059259944
191	0x3e4a9c5c	0.19786209
192	0x3e736394	0.23768455
193	0x3e875089	0.2642863
194	0x3c8f44a2	0.017488781
195	0x3e65ea4e	0.22452661
196	0xbdf88d29	-0.12136299
197	0xbe00d846	-0.12582502
198	0x3e935bf6	0.28781098
199	0xbdfcc375	-0.12341968
200	0xbe80c28b	-0.25148425
201	0xbc98103f	-0.018562434
202	0xbc72ec35	-0.014826824
203	0xbdbc3c68	-0.09191209
204	0x3dab48f0	0.08363521
205	0xbc848c78	-0.016180262
206	0x3e23d035	0.15997393
207	0x3c360191	0.011108772
208	0xb84c8d9d	-4.8769278e-05
209	0x3e07a5df	0.13246869
210	0xbe48d4b1	-0.19612385
211	0x3dfb1a9b	0.12260934
212	0x3d3b622a	0.045747913
213	0x3e234552	0.15944412
214	0xbe4097a5	-0.18807848
215	0x3db03b5f	0.08605074
216	0x3e2caba6	0.16862354
217	0xbe9259e4	-0.28584206
218	0x3e09b69e	0.13448569
219	0xbe9cf492	-0.30655342
220	0xbd60ac4f	-0.054851826
221	0x3da3724f	0.07980787
222	0xbc5fdc25	-0.013663326
223	0x3d38ceb4	0.045119002
224	0xbe11844c	-0.14210624
225	0xbd92d2f6	-0.07169144
226	0xbdd7a5fc	-0.10529706
227	0x3e4bba68	0.19895327
228	0x3e55f07a	0.20892516
229	0x3de31c5c	0.110893935
230	0x3d6ba33b	0.057528716
231	0xbdbe5695	-0.09293858
232	0xbe047b61	-0.1293769
233	0xbe1c0142	-0.15234855
234	0x3d8f0c4a	0.06984766
235	0xbbb265ae	-0.00544425
236	0xbda25d5c	-0.07927963
237	0x3e6b401d	0.22973676
238	0xbd5d5b68	-0.05404225
239	0xbd3e980a	-0.046531714
240	0x3eaaf1b5	0.33387533
241	0xbe12fe39	-0.14354791
242	0x3e1af3e8	0.15132105
243	0x3e1a7c84	0.15086561
244	0x3d7688da	0.060189106
245	0x3e460f91	0.19341876
246	0xbd153496	-0.036427103
247	0xbe283f78	-0.16430461
248	0xbcc06419	-0.02348523
249	0x3e1938bf	0.14963053
250	0xbe31a5b2	-0.17348364
251	0x3e73085e	0.2373366
252	0x3e79d936	0.24399266
253	0x3e0166d5	0.12636884
254	0xbd81d746	-0.06339888
255	0x3e638ac8	0.2222091

linear_final.bias f4 [5]
0	0xbd789062	-0.06068457
1	0x3d98715c	0.074434966
2	0xbf0c19a3	-0.5472662
3	0xbf88d380	-1.0689545
4	0xbda44ecf	-0.08022844
