results1_checkpoint/hotel/ade_best.pth (torch_old, 57359 bytes, 12 tensors)

gcn.gc1.weight f4 [2, 64]
00000000: d2cb e1b8 c700 533a ded8 a03b 9a5a 9fba
00000010: 6bb6 7ebb 04e4 80bb 7bd4 3e3a e976 7939
00000020: 7d76 95bb 72fb 533b fa5d 84bb eaef e5bb
00000030: d741 c63a eaa6 f4ba b4f6 4c3a c4c0 183b
00000040: e4ca 873a 8e8c af3b e592 663b 6990 c2bb
00000050: 5a80 7abb 6be6 e339 0dad a8bb 2859 b5ba
00000060: 8616 1f3c 3552 e83b 15fc c1ba c1fa 97b8
00000070: 3af8 8dbb f590 c43b e14d bb3b 29b7 043b
00000080: c49e bbbb cc5b 583b 917c 8abb ac76 98bb
00000090: 30cc 9fbb 8791 db3b 1a68 0638 0d07 a0ba
000000a0: 8313 94bb 8702 50bb 82be 273b 85c2 523b
000000b0: d1e3 8b3a 1050 51bb 9254 a5b7 c0b7 ca3a
000000c0: 9e3a 9fba 48d4 9338 5cde 813b b65a 13bb
000000d0: eda0 c0bb 575a 003c 18cd ab3b feb8 1dbb
000000e0: fd75 62bb 3081 75bb 9e2e b7ba d79f ccba
000000f0: a97b b3ba fc46 cd38 c259 8fbb 0ba8 b339
00000100: 113f d6b9 af3c 8b3a c175 2e3b 600d 58bb
00000110: 1100 98bb 53bc f038 338f ba3a e98d aa3b
00000120: 43db 0aba 4a9e cfbb a243 a5bb 66c4 2a3a
00000130: 9176 013b 984d f8ba e4c6 9439 0692 073b
00000140: b6c8 cfbb 9f6f 3aba c588 f1ba c115 37bb
00000150: 6153 883a d6b4 d23a 50a4 12bb 32d6 c23b
00000160: f726 58bb 81d0 99ba 15ae aabb 0c33 ae3a
00000170: d996 783b 23f3 793b a537 633b a21e 16ba
00000180: b42e c3ba 1234 3a3b cffb ea39 f2e3 223b
00000190: d9ae 433b 7d50 9bbb 013e 51bb 5e91 d6ba
000001a0: 44c4 363b 7200 9e3b 8be9 40b9 4e5e 6f3b
000001b0: f1cb 39bb 9cd3 9b3a 3685 f73a ea42 21bb
000001c0: 1030 8a3a a77c 06bb 44ec 523b 21db f8bb
000001d0: 9667 3b3b 94f8 b6ba ae7c 3dba ab11 45bb
000001e0: 4275 b23a d332 8abb 6505 da3a d0ff b239
000001f0: 60dc 813b fee0 213b 366a eab9 0366 1bba
-0.000107668006 0.0008049127 0.004908665 -0.0012157739 -0.0038866054 -0.0039334316 0.0007279587 0.00023790788
-0.004561244 0.0032345918 -0.004039523 -0.0070171254 0.0015125823 -0.0018665467 0.0007818744 0.0023308257
0.0010360149 0.0053573316 0.003518277 -0.005937625 -0.0038223476 0.0004346849 -0.0051475824 -0.0013835775
0.00970996 0.007089878 -0.0014799858 -7.246948e-05 -0.0043325694 0.0059987255 0.005716071 0.0020250774
-0.0057257134 0.00330137 -0.0042262753 -0.0046528187 -0.004876636 0.006700698 3.204504e-05 -0.0012209133
-0.0045189275 -0.0031739788 0.002559573 0.00321594 0.0010672753 -0.003193859 -1.9708914e-05 0.0015466139
-0.0012148207 7.049047e-05 0.003963275 -0.0022484488 -0.005878559 0.007834039 0.005242955 -0.0024066563
-0.003455519 -0.0037461035 -0.0013975685 -0.0015611601 -0.001369347 9.7883836e-05 -0.0043747136 0.00034266742
-0.0004086425 0.0010622944 0.002662048 -0.0032966956 -0.00463868 0.0001147917 0.001423335 0.0052049053
-0.0005296955 -0.006336008 -0.005043463 0.0006514251 0.001975451 -0.0018944023 0.00028376945 0.0020686402
-0.0063410653 -0.000711197 -0.0018427601 -0.002793655 0.0010400825 0.0016075622 -0.002237577 0.005945944
-0.003298221 -0.0011735113 -0.0052087405 0.001329036 0.003793171 0.0038139306 0.0034670618 -0.00057266105
-0.0014891238 0.0028412384 0.0004481957 0.0024855104 0.0029858856 -0.0047398196 -0.0031927826 -0.0016370227
0.002788798 0.0048218304 -0.00018397548 0.0036524716 -0.0028350318 0.0011888626 0.0018884304 -0.0024606534
0.0010542888 -0.0020521076 0.0032184282 -0.0075944816 0.0028595678 -0.001395958 -0.00072283566 -0.0030070345
0.0013615268 -0.0042174845 0.0016633688 0.000341414 0.0039630383 0.0024700756 -0.0004471109 -0.00059279817

gcn.gc1.bias f4 [64]
00000000: 94c1 0e38 8732 ed38 f45c dcb8 d580 b0b9
00000010: fb1b da39 18d1 8438 9ecc 5b35 c80e 3f38
00000020: 43ac 39b8 8a71 9f38 84c0 e038 aaf6 ec38
00000030: 79fb 8bb8 077a 0639 7d27 0b39 fc9d fa38
00000040: ca70 82b8 f1ab 3cb8 6808 4ab8 35f9 0739
00000050: ece4 cc37 39f1 3c39 9ce4 a938 a6b3 d6b7
00000060: 0ef9 a6b8 b8ea 28b8 91b7 a2b8 6f79 5138
00000070: 5618 92b9 bada cfb8 0dee 7439 c452 b737
00000080: 27db f7b7 4999 3139 1fa1 a737 e0cf 71b9
00000090: 95f2 2639 f181 ab38 7888 4f39 a021 b538
000000a0: 03fd 9139 0c54 0939 c06a 7338 e117 6d37
000000b0: d2d9 7b39 7b4e a438 0686 13b9 f817 bdb8
000000c0: bd2c e238 c3bf 32b9 8281 dcb8 ac2a f6b7
000000d0: 0340 2db9 3414 28b8 5adc f4b6 a99a 18b9
000000e0: dc63 d238 c115 97b9 2b83 e238 7c87 6d38
000000f0: 1b59 2e39 f09f 40b9 e4d0 afb8 98f9 a3b7
3.4035722e-05 0.00011310452 -0.00010507731 -0.00033665323 0.00041601047 6.333197e-05 8.1881615e-07 4.5551715e-05
-4.426787e-05 7.602859e-05 0.00010717011 0.00011299302 -6.674877e-05 0.00012824695 0.00013270784 0.00011950356
-6.219892e-05 -4.4982826e-05 -4.8168382e-05 0.0001296744 2.4425295e-05 0.0001801894 8.10113e-05 -2.5594443e-05
-7.961887e-05 -4.027292e-05 -7.758954e-05 4.9942577e-05 -0.00027865422 -9.91127e-05 0.00023358334 2.185384e-05
-2.9546745e-05 0.00016937139 1.998298e-05 -0.0002306099 0.00015921363 8.178119e-05 0.00019791897 8.637016e-05
0.00027845064 0.00013096648 5.8035133e-05 1.4131861e-05 0.0002401837 7.8347475e-05 -0.0001406894 -9.016687e-05
0.00010784853 -0.0001704684 -0.0001051454 -2.9345356e-05 -0.00016522412 -4.0073137e-05 -7.297419e-06 -0.00014553465
0.000100321806 -0.00028817172 0.00010800952 5.6631383e-05 0.00016627127 -0.00018370128 -8.383559e-05 -1.954734e-05

gcn.gc2.weight f4 [64, 2]
00000000: ce85 41bb 6eb9 9ebb dbb2 17bb 3b03 1b3b
00000010: 868c 633b 9167 d7ba d521 393b c487 9d3b
00000020: dfa4 f539 9e37 43bc bbdd 84bb 926c 883a
00000030: 729a e23a c07e e83a 8c3c c7ba 4d98 5dba
00000040: ffd1 3c3b bd3c 96ba cad4 0db9 5e19 08bb
00000050: e3c4 bc38 af91 20bb b0e1 02bb 16cf bdbb
00000060: c0ae be3a 1496 21ba 0e14 90bb 0d3b 89bb
00000070: 99c6 11bc a3db 193b 99d9 8bbb 320e 3b3a
00000080: 6965 e4ba dc97 1e3a 9b6c b63b f22f 6cba
00000090: c3c8 c63a d586 423b 85c4 83bb 4ca1 48bb
000000a0: 654e 5fba a5ba 9bb8 0f18 f0bb ff5b 413a
000000b0: 5a01 583b fbe2 89bb de3c 7bba a3c2 30bb
000000c0: 6cba f73b 00df 8a3b 2ff3 8dba 93bb c03b
000000d0: 5be1 a2ba 0021 903a 6e18 afba 1349 b1b8
000000e0: 81bd b93b 798f dbba 667a b73b 04ef 883a
000000f0: b7f3 bbbb b2fd 023c bec4 963b a5c1 89bb
00000100: d40c fab9 e740 b43a 8f16 0cbb 2f30 b93b
00000110: 8e1e e139 3e74 1abb c52e 9a3b 8a65 823b
00000120: b47f a4bb 1242 4c3a 8f79 093b b2a9 71bb
00000130: 454a b23b eca7 1eba ea8d 50bb 83dc 48bb
00000140: 02ab 19bc 07ea ccba e1b6 1cbb f234 0e3b
00000150: 0b82 cabb e88e e639 6901 293b 2ad1 583b
00000160: ce87 5b3b 0289 a2bb 9d5e 81bb a4a5 9c3b
00000170: 2aad b23a e705 30bb 404a e6ba bbe1 113b
00000180: afc6 68bb a4c6 2a3a af96 fbb9 d994 353b
00000190: aaa9 883a 7d9d 80bb 8b91 60bb 54ae 52b9
000001a0: 83b9 8e3b ee19 ad39 eff9 e73b be0c 06bb
000001b0: b8b0 7aba 397a 113b ebef 41bb f9ce 653b
000001c0: 1776 6ebb 7c1b 313a 03fd 933b 0530 903b
000001d0: 844c f8ba 9a89 823b 74f6 4fbb b91b b23a
000001e0: 882e 863a 979a f23b 85ea e03a a328 67bb
000001f0: 461e 413b 34e8 6d3a 4772 3e39 85df 053a
-0.0029529217 -0.0048438823 -0.0023147378 0.0023653049 0.003472121 -0.0016434063 0.0028248925 0.0048074443
0.0004685288 -0.011915116 -0.0040547526 0.0010408333 0.001728846 0.001773797 -0.001520054 -0.00084531755
0.002881169 -0.0011462193 -0.00013526078 -0.0020767073 9.0012116e-05 -0.0024500897 -0.0019970946 -0.005792509
0.0014547929 -0.0006164026 -0.004396922 -0.0041879476 -0.008897447 0.002347686 -0.004267883 0.0007135599
-0.0017425242 0.00060498505 0.005567146 -0.000900983 0.0015166033 0.0029682417 -0.0040212297 -0.0030613719
-0.00085184566 -7.425741e-05 -0.0073270868 0.0007376074 0.003295979 -0.0042079664 -0.000958396 -0.0026971481
0.007560065 0.0042380095 -0.0010829921 0.0058817356 -0.001242678 0.0010996163 -0.0013358721 -8.453629e-05
0.0056683426 -0.0016751132 0.005599308 0.0010447209 -0.00573584 0.007995056 0.00460109 -0.0042039924
-0.00047693274 0.0013752253 -0.002137575 0.005651496 0.0004293811 -0.002356782 0.0047052824 0.0039793896
-0.005020106 0.00077918277 0.0020976996 -0.0036874828 0.0054409825 -0.0006052244 -0.0031822869 -0.0030649013
-0.00937915 -0.001563371 -0.0023912715 0.0021699038 -0.006180053 0.00043975492 0.0025788194 0.0033083656
0.0033497694 -0.0049601803 -0.0039480464 0.004780488 0.0013631929 -0.0026858987 -0.0017569736 0.002225979
-0.0035518815 0.0006514585 -0.0004798672 0.0027707128 0.001042654 -0.003925024 -0.0034266438 -0.00020092103
0.004355611 0.0003301645 0.007079355 -0.0020454372 -0.00095630763 0.0022198095 -0.0029592465 0.0035065992
-0.0036386305 0.00067561097 0.0045162453 0.0044002556 -0.0018943702 0.0039836885 -0.003173259 0.0013588584
0.0010237256 0.0074036825 0.0017159736 -0.0035272024 0.0029467507 0.00090754335 0.00018162384 0.00051068544

gcn.gc2.bias f4 [2]
00000000: b525 2bbb df2d 463b
-0.0026115004 0.0030239744

grucell.weight_ih f4 [192, 2]
00000000: 264d c7bd f462 6639 c5c4 92bd 5e5d 153d
00000010: fee4 81bd 0e4e 97bd 616d 643d 5e7e 993d
00000020: 1cc6 86bd 17a5 863d d0cb 8f3d 67ae c83d
00000030: fefc 88bd e364 d93d f77e 2abd eae9 fdbd
00000040: 57a1 223b a789 09bd c6c2 063d 6ef9 ec3c
00000050: cc13 c73d d5b8 8cbd ab4d ac3c fcae 923d
00000060: 8917 5f3d 44f3 ac3d a967 c23d b71e a93d
00000070: 100c adbd c88d 6a3d fabe 963d e860 ee3d
00000080: 1613 e3bd 1320 cabd 09e1 d6bb 7bbb d53d
00000090: 7755 7f3d cfa3 8abd e653 fdbc f00b d0bc
000000a0: 408b 7a3d 51ba 1b3d 8f22 de3b a9a5 86bd
000000b0: 0823 473b 2cd4 333d c2be 7dbc 76a4 c43d
000000c0: 3031 0fbd 9e6d 9fbd 7cd9 a2bc 1728 dd3c
000000d0: 551f 703d dc07 a53d 918d 57bc 2a7e 3ebd
000000e0: cb65 a23d 55eb 85bd 579b 62bd d59f b1bd
000000f0: b404 8dbd 053c 95bd 0a10 66bd 9cbd 56bb
00000100: 6ed8 d0bd b984 06bd 357d 823c c6b5 96bd
00000110: a469 d73d 36bd 2c3d 6d27 023d f5e7 b8bc
00000120: b2a7 9c3c 9de0 eebd 23ab 633d a22c e3bb
00000130: ee39 7cbd a9f1 90bd d00c a03d 1a75 823d
00000140: 1ec5 af3d 1304 9d3d 0db4 ae3d 2d2c 31bd
00000150: 42da e5bd ab74 cbbd 2477 f73d 0b78 843d
00000160: 328c 423d 1438 a33d 799b 93bc c289 ea3d
00000170: 6da9 e83d 6d12 72bd 6229 a03d 1266 ef3d
00000180: da45 f4bd eb2b a1bd 5e73 4a3c 2a3a d33d
00000190: 6f98 c3bc f7e0 3cbc 8d5a cabd 1b47 3e3c
000001a0: d8a6 f0bd 063e 5ebd 6da9 e03d 76d2 f13d
000001b0: 35e1 cebc dafe 183d a115 b8bc 1ef5 43bd
000001c0: 0095 dbbb e089 d4bb 4d51 a6bd 1cef ebbd
000001d0: 01a3 b33d 7c8a f93d e6c1 9fbd d584 84bd
000001e0: 976c cbbd 5ec8 b53c a54f 073d e8ad 74bc
000001f0: 8021 cf3d 84b1 783c 4539 3f3d 44b9 1c3d
00000200: 65fa a6bd c98a eabd b6ea 67bd b12a 64bd
00000210: d6e5 f7bd 3f53 7b3d f478 803d 681a dc3d
00000220: 3e0c ed3d 33bf debd b829 eb3d 18ca 91bd
00000230: 9e7c 2cbc 2b10 84bd 3e1e 823d 55a8 be3d
00000240: 5456 e5bd d91d cb3d c0bb 8b3d 9e55 91bd
00000250: b61c d83d edab 913d 2a9d 483d a5f7 093c
00000260: bb72 cd3c 7084 a0bd 07f3 e4bd b047 e53d
00000270: 6941 243d e2a7 a1bd be65 b2bd 2837 cfbd
00000280: ac6a b5bd e943 e13d 075b e6bd 4446 04bc
00000290: f062 8cbd 0677 d23d 1ea3 a1bd f3da 4dbd
000002a0: b83e a6bd 9ad7 b73d 7c62 d53d 2669 7d3c
000002b0: b966 e6bd 9c87 8bb9 4fe9 84bd 2dd3 c83d
000002c0: 2378 1dbd 9ccc 6f3c e9d2 a93d 1a69 5abd
000002d0: 7c72 033d afcb 83bd d9a1 493d e8b2 80bc
000002e0: ecec cebd ea49 b23d 478a eabd 015d cf3d
000002f0: 8879 a2bb 70b4 d03b 3d13 853c 8995 28bd
00000300: f879 eabd 418b cf3d d995 33bb 4f55 cdbd
00000310: 352c 75bc d0b0 e4bd e309 c43d 9e94 b13c
00000320: e160 51bc 9e6e 4fbd 459a 9f3d 57f6 1c3d
00000330: cf7d f63d 1987 913d 4739 c5bd ba41 c93d
00000340: 762d df3d e8b2 803d e254 cbbd e3d5 0b3d
00000350: 02fe bfbb ca46 c6bd f280 0abc e417 053c
00000360: 1709 fd3d 0d98 84bc 1f2f 233a b27e f0bd
00000370: 0943 8bbd 720a cfbd dce4 dfbd cc1f 783d
00000380: 972b 363d 7c3f 8bbc e822 b33d f078 8a3d
00000390: 3a8e 67bd bb53 a83d 9ae8 edbc 03ac dd3c
000003a0: a6fd c23c 9390 03bd dcb0 9b3d 3f93 523d
000003b0: 95ca 1fbd cfa6 183d b5ad cd3c 4af7 9abc
000003c0: 6cd4 343d ef54 f33d 3917 fdbd a200 bc3d
000003d0: 2a94 a5bd 43b6 e0bd 140c 25bb 95c3 92bc
000003e0: e99c aa3d 1e8e 6e3d d16f 853d 999b e6bd
000003f0: b3fa dfbc 4cf6 d2bd fb57 113d 0359 e4bd
-0.09731512 0.00021971372 -0.07166437 0.036465995 -0.06342505 -0.073879346 0.055768374 0.07494806
-0.06580755 0.06574457 0.07021296 0.097988896 -0.066888794 0.10614946 -0.04162499 -0.12398131
0.0024815404 -0.03357854 0.032900594 0.028927531 0.09720573 -0.068711914 0.021033129 0.07162282
0.054465804 0.08444837 0.09492428 0.082578115 -0.08449566 0.05726412 0.07360645 0.11639577
-0.11087625 -0.09869399 -0.006557588 0.1043615 0.062337365 -0.06769525 -0.030923795 -0.025396317
0.061167955 0.038019482 0.006779022 -0.06574566 0.003038587 0.043903515 -0.015487375 0.09601681
-0.03495902 -0.0778458 -0.019879095 0.026996655 0.05862363 0.0805814 -0.013156311 -0.04650704
0.07929572 -0.06539027 -0.055323925 -0.08673064 -0.06885663 -0.072868384 -0.05616764 -0.0032766825
-0.10197531 -0.032841418 0.015928844 -0.07358889 0.10518196 0.042172633 0.03177588 -0.022571543
0.019122932 -0.11663935 0.05558313 -0.006932811 -0.061578684 -0.07077343 0.07814944 0.063699916
0.08582519 0.07666793 0.08530436 -0.04325502 -0.1122327 -0.09934362 0.12083271 0.06468209
0.047496982 0.079696804 -0.018018471 0.114520565 0.113604404 -0.059099603 0.07820393 0.1168939
-0.11927386 -0.07869705 0.012356607 0.10313828 -0.023876397 -0.011528245 -0.098805524 0.011613633
-0.11750573 -0.05425837 0.109698154 0.1180772 -0.025253871 0.03735242 -0.022471251 -0.047841184
-0.006701112 -0.0064861625 -0.08120976 -0.11520216 0.08771325 0.12184617 -0.07800655 -0.06470648
-0.09932821 0.02219027 0.03303494 -0.014934041 0.101138115 0.015179042 0.046685476 0.03826262
-0.08153228 -0.114522524 -0.056620322 -0.055704776 -0.121043846 0.061358687 0.0627307 0.10747224
0.11574601 -0.10876312 0.114825666 -0.071186244 -0.010527758 -0.06448396 0.063534245 0.093094505
-0.111981064 0.09917802 0.0682292 -0.07096408 0.10552351 0.0711287 0.04897801 0.008420859
0.025079122 -0.078377604 -0.11179166 0.11195314 0.040101442 -0.07893349 -0.08710812 -0.10117942
-0.08858237 0.10999281 -0.11247831 -0.008073393 -0.06854808 0.10276608 -0.0789244 -0.050257634
-0.081174314 0.089766696 0.10419175 0.015466964 -0.112500615 -0.00026613183 -0.064898126 0.098059036
-0.03844465 0.014636185 0.08292181 -0.05332289 0.032091603 -0.06435334 0.049226616 -0.01571031
-0.10103783 0.08705504 -0.114521556 0.10125161 -0.0049583353 0.006369166 0.016244525 -0.041158233
-0.11449045 0.101339824 -0.0027402549 -0.10026037 -0.014964153 -0.11166537 0.09572198 0.021677312
-0.012779445 -0.050642602 0.077930965 0.038320865 0.12035715 0.07105846 -0.096300654 0.098269895
0.10897343 0.06284124 -0.099282995 0.034139525 -0.0058591375 -0.09681471 -0.0084535945 0.008123372
0.123552494 -0.016185785 0.0006224978 -0.11742915 -0.06799895 -0.10109414 -0.10932323 0.0605772
0.044475164 -0.016998045 0.08746892 0.06761348 -0.056532122 0.08219095 -0.029041577 0.02705956
0.02380259 -0.0321203 0.076020926 0.051409956 -0.039011557 0.037268456 0.025107244 -0.018916745
0.044147894 0.11881434 -0.12357945 0.09179808 -0.08084901 -0.10972264 -0.00251842 -0.017915526
0.083307095 0.058241002 0.06515468 -0.11260147 -0.027341222 -0.10300884 0.035484295 -0.1114979

grucell.weight_hh f4 [192, 64]
00000000: 04d3 7cbd 7e04 3bbc 6c84 a93c 64c9 a4bd
00000010: d671 edbd bcf4 d03d 7726 07bd f728 a8bd
00000020: 7a60 af3d 592e f23d 27db 85bd 0ab6 40bd
00000030: 2eff 953d 6904 00be aeb5 d5bd c8c7 07bd
00000040: 10d2 9cbd 1559 57bd 5e9e bebd b325 ddbc
00000050: e6b3 b5bd 8a5b 4b3d 394d aa3d 0972 32bd
00000060: 6ae9 10bd d0f0 3e3d dd40 44bd b363 b7bd
00000070: 89d7 0e3d 20ef f8bc d599 44bd d2bb 413d
00000080: 1b72 e0bd b1df 483d c6c7 913d d8ef 82bc
00000090: 2cc4 c7bd 1ae0 babd 788a 48bd 3feb 1fbd
000000a0: ac4e d4bb 80fa 773c 0dbf a0bc 7bf7 2ebd
000000b0: c0d9 a2bd 2a0f cfbd 88ab 9cbd dda6 4fbc
000000c0: aac6 373d d2b7 3c3c 5fe3 a8bd 31bd 46bd
000000d0: 838f 463d 6417 a4bd 849d 98bd 0dda a9bd
000000e0: f835 5dbb 3cb4 7abd 3835 9fbd cc28 bf3d
000000f0: 402d a8bd 2e58 d4bd 238c ca3d 48e5 91bd
00000100: 58a0 b2bd 7654 fd3d c10f f8bd d84c 4abd
00000110: 65fd 3f3d b454 d0bc ba51 f73d fc14 34bd
00000120: 79cd 2cbd 3883 84bd bcfa 32bd 233e 083c
00000130: 193b 7bbd ebef f9bd a002 d2bd 7f78 dfbd
00000140: 09b5 2abd 35ed a13d 5c6a ab3d 94b8 86bd
00000150: 5668 a13d c2b4 b63d e188 963d d08e 98ba
00000160: 5b08 0cbc b002 8bbb 42d5 503d 2fd2 823d
00000170: c143 d3bb 4ffd eb3d c139 c5bd ec2b 92bd
00000180: f9f7 14bc e49a 5c3c 7621 b03d ae1c 33bd
00000190: d702 583c 5baa 9cbd 1741 98bd cb7a f2bc
000001a0: d7cd 58bc ac62 a93d 6df3 66bd 5b10 823a
000001b0: 5de7 a93c 2bf0 383d defb 143d 8739 68bd
000001c0: 55cf d73d 172c b4bd f36f 41bd e9e1 7d3c
000001d0: 2972 063d dc28 e4bc 4e4e 473d 1186 88bd
000001e0: 5dbc aabb 6114 9c3d e380 ccbd 233a 423c
000001f0: 3e04 d63d 7d85 38b9 1074 f33d 3826 ec3d
00000200: 5fc6 ca3d 135a 2bbd 493e d83c 7771 ebbc
00000210: 774b b1bd 06f7 f23c 493d a6bd 6337 e3bd
00000220: 280d 68bd e273 2cbc 4b0f f8bc 8b04 a93c
00000230: f5c0 af3a 78d3 35bd eace b13d 12b8 68bd
00000240: 141f 723d bd38 e23d 1405 f93d ebd8 a7bc
00000250: 6fe0 923d fe0b 593b 7b6f afbd 0826 6fbd
00000260: 351f bfbd ebab eaba ab06 adbd c26c c2bd
00000270: bc31 74bd 46ac fcbd cc28 2fbd 1b23 ffbd
00000280: 2f16 913d f4b2 853d 0ff1 0abd 40cb d7bd
00000290: 3602 143d e09b bcbd a91f b33d ee4b 87bd
000002a0: bfc8 9dbd 6037 5d3b 2255 413d d18f a73d
000002b0: 104f 193d 18c2 cb3d 908c 1a3d c07a 33bd
000002c0: 4781 ecbc 12a8 893d e17a 333d d416 53bd
000002d0: 5d71 75bd f943 b3bd 94b7 4e3c 5181 8b3d
000002e0: 2bde 8a3d fd02 e0bd 939e a1bd 09ee 363c
000002f0: 0427 b03c aeef 9fbb fa5f 96bb d413 933d
00000300: e51f 24bd 8a35 973d 1e27 e93d b07f debd
00000310: 5187 4d3c 849b c6bc 1b2c bd3d 5bdc 6d3d
00000320: a38d f83d 5b7d 23bd 4c9f 79bd 2925 05bd
00000330: 6faa b13d 2c27 e23d 80b5 153d dc8d 363d
00000340: 6eef 953d 4027 bd3d 6d23 b1bd dd89 acbd
00000350: 0f1a 1e3c 2cf4 ba3d 04fc e1bd eb8a b6bd
00000360: d137 723d aea1 5f3c 57a4 2bbd c377 463c
00000370: dccf 783c 0629 6bbd a0c7 dcbd 833d 49bb
00000380: 554f 6bbd 3161 ea3d 0340 823d ba53 c7bc
00000390: d73c 9a3d 9ae7 f73d b4fe dd3d 0328 6e3d
000003a0: 413e ed3b e0a9 f2bd eaa6 9bbd af75 b73d
000003b0: b984 eabd cb3c f2bc 2c69 e8bb beac 84bd
000003c0: 8749 d63b 37cb 1c3d 4531 c83d 78c6 71bd
000003d0: e500 cf3d e458 f1bc 6941 ed3d ac8c c13d
000003e0: 1cb4 d8bd f10e ca3d 144c 28bd 2cfa c6bd
000003f0: 17c0 94bd 6645 e33d 5709 91bd b9af 7ebd
-0.061724678 -0.011414645 0.020693026 -0.08046225 -0.11593978 0.102029294 -0.032995667 -0.082109384
0.08563323 0.11825246 -0.065359406 -0.047048606 0.07324062 -0.12501682 -0.10435043 -0.03314951
-0.07657254 -0.05257519 -0.0930755 -0.026995515 -0.088722035 0.049647845 0.0831551 -0.043565784
-0.03537885 0.046616375 -0.04791342 -0.08954563 0.03487352 -0.030387461 -0.04799827 0.04729826
-0.10959264 0.049041454 0.07118182 -0.015983507 -0.09754214 -0.09124775 -0.04896018 -0.039042708
-0.006479105 0.015135407 -0.01962235 -0.042716485 -0.07951689 -0.10110314 -0.076499045 -0.012674061
0.044867195 0.011518436 -0.082464926 -0.04852027 0.048476707 -0.08012274 -0.07451919 -0.08293543
-0.0033754092 -0.06120704 -0.077738225 0.09333953 -0.08211756 -0.103683814 0.0989001 -0.0712381
-0.087219894 0.12369625 -0.1211238 -0.04938969 0.046872515 -0.025431015 0.12076135 -0.043965325
-0.04218814 -0.064703405 -0.04369615 0.008315596 -0.061335657 -0.12203964 -0.10254407 -0.10911655
-0.041676555 0.07906572 0.08369896 -0.06578174 0.078812286 0.089211956 0.07350326 -0.0011639241
-0.008546914 -0.0042422637 0.05098463 0.063877456 -0.006447286 0.11522924 -0.09630156 -0.07137284
-0.009092324 0.013464663 0.08600132 -0.043728523 0.013184271 -0.0764968 -0.0743429 -0.029599568
-0.01323267 0.08270773 -0.056384493 0.0009923087 0.020740205 0.045150917 0.03637301 -0.056695487
0.10537592 -0.08797472 -0.047225904 0.015495756 0.032823715 -0.027851515 0.04865866 -0.06666196
-0.005210443 0.076210745 -0.09985521 0.011854681 0.10450028 -0.00017597336 0.118873715 0.11530727
0.099011175 -0.04183395 0.026396887 -0.028740628 -0.08656972 0.029658806 -0.08117158 -0.110945486
-0.05665317 -0.0105256755 -0.03028073 0.02063205 0.0013408946 -0.044391125 0.08682044 -0.056816168
0.05911167 0.11045978 0.12159172 -0.020489177 0.071717136 0.003311872 -0.08566185 -0.05838588
-0.09332124 -0.0017904019 -0.084485374 -0.094934 -0.059617743 -0.12337546 -0.042763516 -0.12457868
0.07084309 0.06528273 -0.033921298 -0.10536814 0.03613492 -0.09209418 0.08746273 -0.06606279
-0.07704305 0.003375493 0.04720033 0.08181728 0.037428916 0.0994913 0.037731707 -0.043818235
-0.028870238 0.0672151 0.04381836 -0.051535442 -0.059922565 -0.08753199 0.012617011 0.068117745
0.067806564 -0.1093807 -0.07891574 0.01116515 0.02150298 -0.004880867 -0.004589078 0.07181516
-0.04006948 0.07383259 0.11384414 -0.10864198 0.012544469 -0.024244078 0.09236928 0.058071475
0.1213639 -0.03991447 -0.060942933 -0.03250614 0.08675086 0.11042628 0.036550045 0.04456888
0.07321058 0.09236002 -0.08649335 -0.08424733 0.009649768 0.09128603 -0.11034396 -0.08913215
0.059135262 0.013649387 -0.041904774 0.012113514 0.015186276 -0.05741217 -0.10780263 -0.003070683
-0.057448704 0.11444319 0.063598655 -0.024331916 0.075311355 0.12104721 0.108395964 0.058143627
0.0072400873 -0.11848807 -0.07600196 0.08957993 -0.11451096 -0.029570004 -0.0070926156 -0.064782605
0.006539527 0.03827974 0.097750224 -0.059027165 0.101075925 -0.029461332 0.115847416 0.09450659
-0.10581228 0.09866131 -0.04108818 -0.09715685 -0.07263201 0.11097221 -0.070818596 -0.0621793

grucell.bias_ih f4 [192]
00000000: 4323 38bd 21b9 b1bd 0fc4 17bd e570 99bd
00000010: 6caf a5bb 4c39 ea3d 6bb0 743d 2071 36bd
00000020: e194 f6bd 3c06 5a3d a832 c3bc b29d c93d
00000030: ee63 1dbd 08a0 f4bd 3b40 c43d 7402 a33d
00000040: faeb 8f3d 8143 bdbc ce15 cf3d 42b4 c23d
00000050: 03ce 4f3c 2a48 f43c 648e e63d 56ef af3d
00000060: a506 fabb 05d6 dfbb 0329 693d 12b1 fdbd
00000070: 515f 10bd 9971 903d 1d6a e0bd 33da 83bd
00000080: bc1d ae3d 9343 ab3c f2d7 cb3d 4e80 88bc
00000090: 133e 5d3d 99c6 c63d 0ceb c63d 3ba3 c43d
000000a0: 9bc3 ad3d a569 c13d 2a1c b2bd 2a31 7cbd
000000b0: f178 c7bd 2955 733a 2f2b c4bd 9f99 f63c
000000c0: a426 713d 349e bebd a98a 423d 62ca bdbd
000000d0: aa2b 88bd fa36 a6bd 7a1b 253d a98b d03d
000000e0: dcd9 5c3d 83bd d1bd dbf9 4fbd b9ec 99bd
000000f0: 0720 cabd c099 ddbd 75d7 aebd 654b f23b
00000100: f9f6 6e3d a185 eabd 07a0 443d 170f d3bc
00000110: ba25 8a3d 8fd8 eebd 1841 883d 0655 823d
00000120: 4917 583b e4fe 3e3d 2c15 c23b f825 dbbd
00000130: 2814 a0bd eff9 633d fd30 ce3c c7b9 a9bc
00000140: d386 ecbd c7c7 1c3c ebc6 c73d 1b58 573d
00000150: 11c8 0bbd d114 023b df64 f53d 5efd 8fbb
00000160: ea30 5bbd b7f0 10bd 15d6 a03d bdaa c93d
00000170: 7422 34bd 990f cebd 4f6f 0e3d b377 5dbd
00000180: 4bb1 e93b 4937 45bd c0c0 a2bc 8028 5f3d
00000190: 875f 6c3d ce27 18bd efcc 7b3d 480f 693d
000001a0: 3ca4 d9bc 7232 ca3c 7d0c f4bd 0cf2 fdbd
000001b0: 1389 bfbb 5014 e63d 7a4b 1cbd 6dce 703c
000001c0: 3451 94bd 0176 96bd 3914 db3d 91e3 2b3d
000001d0: fc83 ca3d 4065 863d 6bf4 85bc c41c 223d
000001e0: 43ed a03d d8d2 f03d 6ccb aebd aa4a 8fbd
000001f0: f331 20bd 77ef 89bd 7024 db3d 8e07 a5bc
00000200: 50da d9bd 0a2d 7cbd 1cae 083e 4fec 23be
00000210: 2468 9fbd 1699 ce3b 1dfe 963c 830a d73d
00000220: ade9 b33d 2133 debd 71a1 fcbc 9b87 ac3d
00000230: 6727 123c c036 863d 814f d83d ebd0 fabd
00000240: 3e94 4a3d bc5a e0bd 8068 f7bd 07c1 4f3d
00000250: f51b b1bd 4203 1c3e 177e ebbd 8477 8f3d
00000260: 6caa fc3d 3e9d 8cbd 4cac ddbd bf13 4ebb
00000270: b389 693c a9f4 413d b51f acbd 3fba 0f3d
00000280: 8881 49bc 9f70 fcbc e6d1 8c3d 39a5 76be
00000290: 1a5c 063e f551 05bd e6b6 343b 71ab c0bc
000002a0: dfc9 383d 3afd d63d 69b0 8dbd c7be e93c
000002b0: c618 a33d 6dc2 32bd ab69 b23d 059f 3fbd
000002c0: ce88 afbd a1f0 4dbd 6356 88bc 5bec 743d
000002d0: 33af 06bc 6208 99bd 3873 e63c 0a5f 0d3e
000002e0: 84e9 80bd 05aa 09bd 5a4f 2b3d 9093 14be
000002f0: 7b8a 0bbc 1ab7 823d 12ac 12bd 816f 08be
-0.044955503 -0.08677889 -0.03705221 -0.07492236 -0.0050563123 0.1143671 0.059738558 -0.04454148
-0.12040115 0.0532286 -0.023827866 0.09844531 -0.03842538 -0.11944586 0.095825635 0.07959452
0.07027431 -0.023103477 0.10111581 0.09507038 0.012683394 0.029819567 0.112576276 0.085905716
-0.0076301866 -0.006830933 0.056923877 -0.12387289 -0.03524715 0.07052917 -0.109577395 -0.064381026
0.08501765 0.020906245 0.09953298 -0.016662743 0.054014277 0.09705848 0.097128004 0.09601446
0.084845744 0.09443978 -0.08696778 -0.061570324 -0.097398646 0.0009282404 -0.09578549 0.03010255
0.05887474 -0.093075186 0.047495518 -0.09267117 -0.06648953 -0.08115955 0.040309407 0.10182888
0.053918704 -0.102412246 -0.05077539 -0.075158544 -0.0986939 -0.10820341 -0.08537189 0.0073942416
0.058341 -0.11451269 0.048004176 -0.025764031 0.06745477 -0.11662399 0.06653041 0.06363873
0.0032972863 0.0466298 0.005922934 -0.10700601 -0.078163445 0.055658277 0.025169844 -0.020718468
-0.11549153 0.009569115 0.097547375 0.05257426 -0.034126345 0.0019848833 0.1198213 -0.0043942174
-0.053513445 -0.035385814 0.07853333 0.09847019 -0.04397817 -0.10061569 0.03477412 -0.054069232
0.0071317307 -0.048148427 -0.019867301 0.054481983 0.05770829 -0.037147336 0.061474737 0.05689934
-0.02656757 0.024682257 -0.119164445 -0.123996824 -0.005845198 0.11234343 -0.038157918 0.014697653
-0.07242051 -0.07346726 0.106972165 0.04196507 0.09888455 0.06562281 -0.0163519 0.039578214
0.07857754 0.11758965 -0.085348934 -0.06996663 -0.039110135 -0.067351274 0.10700309 -0.020145204
-0.10637343 -0.06156639 0.13347667 -0.16008113 -0.07783535 0.0063048704 0.018431718 0.10500052
0.087848045 -0.10849596 -0.0308387 0.08424302 0.008920527 0.065534115 0.10562039 -0.12246879
0.04945778 -0.10954806 -0.12080479 0.050721195 -0.086479105 0.15235618 -0.11498659 0.07005218
0.12337193 -0.06865929 -0.10823879 -0.0031444875 0.014254021 0.047352467 -0.08404485 0.035089727
-0.012298949 -0.03081542 0.068759724 -0.24086465 0.13121071 -0.032548863 0.0027574836 -0.02351925
0.045114394 0.10497518 -0.06918413 0.028533353 0.079637095 -0.04364245 0.08711561 -0.046782512
-0.08571015 -0.05027831 -0.016642755 0.05979572 -0.008220482 -0.07472302 0.028131112 0.13805786
-0.062945396 -0.03360941 0.041823722 -0.14509416 -0.008516903 0.0638258 -0.03580863 -0.13323785

grucell.bias_hh f4 [192]
00000000: 0df1 1d3d 5b4e eb3d cf3e 6abd f139 c6bb
00000010: 2d36 ea3c 296c 32bd 4047 a9bd 287d 96bd
00000020: 7180 9f3d 94c9 73bd c09c 813d 70dd aa3d
00000030: d9fd c0bd a951 763d abe7 b7bd 9416 293d
00000040: 6d7f 09bd d5ef 56bd 24dd 8f3b 0297 fc3d
00000050: eaa0 a5bc 3e40 f5bd ed96 7b3d 5cd9 c4bd
00000060: 730b f6bd d67a f4bd c7ed 9c3d 4f63 3fbd
00000070: db2a 6d3d dfbb efbd 719d b23d 8450 a6bc
00000080: 42aa 8039 759b bcbc 70cc 62bd 1cef 3a3d
00000090: 41d4 83bd 9301 0d3d 2129 6b3d e737 cc3d
000000a0: c34e 69bb 2ffa d93d f355 2ebd 5e2a c63d
000000b0: cd70 a7bd a35a 8abd 68ee 5abd 3e4d 0dbd
000000c0: d037 3a3d 00ae 70bc 15c2 433d 9e8e 3abd
000000d0: 0bbc 5a3d b753 1cbd 8457 d93d bc12 7dbc
000000e0: 3b23 d8bc 652f f43d 850d 183c 340e d0bb
000000f0: 7f06 833d 1074 debd 0552 b43d d36b 0bbd
00000100: 6fab dcbd 0eb9 5abd 08b3 f6bd e903 12bc
00000110: e4fe b0bd 4335 a23d 5977 62bc d676 c83c
00000120: 0add 68bd 4945 da3c 2e50 873d f2d7 d2bc
00000130: 62bd cc3d de0d 9d3d 7013 163b 353e f83d
00000140: bff7 ef3d 9690 1cbd f1eb 3f3d 0138 68bd
00000150: c45a eabd 30dc cabd 4355 9a3d b6a9 90bc
00000160: da11 aa3d 2f50 2ebd 1d42 bcbd 65ae 6abb
00000170: d4fe 743d ed5b a33c b3f1 a2bd 15f8 80bb
00000180: b42a 67bd 0363 343d abdc 55bd bde8 b03d
00000190: 414a dabd 5ae6 4fbc df7b 323d c8b0 5d3d
000001a0: fb38 d13d 8cc5 7f3d 639b ccbd 9cbd 9dbd
000001b0: 993c acbd d463 4b3d 8a1e df3d b0d9 093d
000001c0: d5fa d83c 6445 1e3c cb0b 0f3d 05fb 283d
000001d0: 00b7 e03d a6eb debd fbb1 99bc 2881 a63b
000001e0: 97ae a23d 406f f6bc 5176 11bd bcdb fdbd
000001f0: 6e0c cdbd 4bd4 9bbd 535c 083d 552d 993d
00000200: 6aad 913d 83f7 e03c fefa 91bd ae88 e2bd
00000210: 3a0a fcbc 345f 4bbd c87a c93c 9646 f2bd
00000220: c441 c2bd 55da 333d bed7 a23c 3321 d73d
00000230: 4c04 80bc dcf7 8939 73f2 cd3d 95ab 90bd
00000240: 4b11 d4bd e8e5 b23c d8c1 78bd 5a2d 85bd
00000250: c6c9 f5bc 5651 44bd 27a2 bdbd f77a 6a3d
00000260: 9311 1c3e 4fad b4bc 71a1 adbd a682 093e
00000270: 8480 e43c 6f7b c2bd f7e6 02be 2f86 63bd
00000280: d757 0b3e 1cda d0bd 5c06 8c3d 8d4a 09be
00000290: 52b9 6ebd 65b8 ddbd a4e7 093e f411 783d
000002a0: 9852 033e 0ddb ee3d 5f3e 06bc 5a3b b2bd
000002b0: 5bf5 51bd 6942 b5bb a0bc 8a3d a613 d33d
000002c0: e58f 063e 4bdd 85bd fb17 38bc b119 c73c
000002d0: 68b0 9fbd f9b6 11bd ee3a c13b 2f13 323c
000002e0: b0d4 a8bc 7db5 de3d bfff 28bd 7795 14be
000002f0: 9785 2a3c 026d 8b3d 7b0d 103d 8dbc c3bd
0.038559962 0.114895545 -0.057188805 -0.0060493876 0.028590286 -0.04356018 -0.08265543 -0.073480904
0.0778817 -0.05951841 0.06328726 0.08343017 -0.094234176 0.06013647 -0.08979734 0.041281298
-0.03356879 -0.052474815 0.0043903757 0.1233349 -0.020218331 -0.11975144 0.06142323 -0.096117705
-0.120139025 -0.119374916 0.0766254 -0.046725567 0.0579022 -0.117057554 0.08721436 -0.020302065
0.00024540914 -0.023023346 -0.055370748 0.04563819 -0.064369686 0.03442533 0.05741227 0.099716
-0.0035599924 0.10643422 -0.042562436 0.0967605 -0.08175812 -0.06755569 -0.05345002 -0.034497492
0.045463383 -0.014689922 0.047792513 -0.045546167 0.053401988 -0.038165774 0.106123954 -0.015446361
-0.026383987 0.11923102 0.009280567 -0.0063493494 0.063977234 -0.10861981 0.088047065 -0.034038376
-0.10774886 -0.05339914 -0.12045866 -0.008912065 -0.086423665 0.07920315 -0.0138224 0.024470728
-0.056851424 0.026644366 0.0660709 -0.025737736 0.099970594 0.076686606 0.002289977 0.1212124
0.11717176 -0.038223825 0.04685587 -0.056694034 -0.114430934 -0.09905279 0.07535794 -0.01765905
0.08304186 -0.042556938 -0.091922976 -0.0035809514 0.059813336 0.019941295 -0.07956257 -0.0039358237
-0.05643721 0.044039737 -0.0522124 0.08638141 -0.10658694 -0.012689197 0.043575164 0.05412367
0.10215946 0.062444255 -0.09990575 -0.07702181 -0.084099956 0.04965575 0.10894497 0.03365487
0.026486794 0.009660099 0.034923356 0.041255016 0.109724045 -0.1088479 -0.018761626 0.0050813146
0.079434566 -0.030082345 -0.035513226 -0.12395427 -0.100121364 -0.07608851 0.033291172 0.074793495
0.07113154 0.027461773 -0.07127951 -0.11061226 -0.030766595 -0.04965134 0.02459468 -0.118298694
-0.094852 0.04390939 0.019878265 0.10504379 -0.015627049 0.00026315346 0.10056009 -0.07063977
-0.10354861 0.021838143 -0.06073174 -0.06502791 -0.03000344 -0.04792913 -0.09259444 0.057246175
0.15241079 -0.022055296 -0.08478058 0.13428745 0.027893312 -0.09496199 -0.12783419 -0.05554789
0.13607727 -0.10197851 0.068371505 -0.13407345 -0.058282204 -0.10826186 0.1346727 0.060563996
0.12824476 0.11662874 -0.008193581 -0.08702727 -0.05125938 -0.0055315983 0.067742586 0.10306482
0.13140829 -0.06536349 -0.011236186 0.024304243 -0.07797319 -0.035574887 0.0058969175 0.010868832
-0.02060923 0.1087446 -0.041259523 -0.14510141 0.010407827 0.06807901 0.035169106 -0.095574476

linear.weight f4 [2, 64]
00000000: ca1c c73d 4352 9bbd febd 673d 5187 ba3d
00000010: fae0 8cbd deee 9aba 0eec e93d 0f91 9e3d
00000020: 665b d2bd 06ef e13d ef10 073b 4b97 a83d
00000030: a393 89bd a91e 6f3b 99cd 8dbd 82d5 413d
00000040: 06d6 2bbd c457 183d f626 813d 67b2 f7bc
00000050: 8576 98bc 2431 623d afcb adbd bd40 f93c
00000060: 207e ccbd 50e8 cebd f3dc 8f3d 31dd 563d
00000070: 5e65 8a3d cf86 37bd fff8 7e3d 2b7c f4bc
00000080: 4335 c7bc e130 c13d 8f3f c13d 2241 cc3a
00000090: 15bc d9bd ef2b cfbd e78c a0bd 9b07 00bd
000000a0: 3789 ebbd 46c4 37bc f080 ab3d a06b 73bd
000000b0: 7d75 c4bb 7bab febd 14d1 a1bd e2b0 ccbd
000000c0: db75 b03d 34ea 3dbc 749c cbbd f22c d03d
000000d0: 1926 eebd 117a 1dbd 6e50 103a 3e6d 863c
000000e0: e140 fbbb 3f82 fdbc 1cf0 883d f6ab 65bd
000000f0: eafd a7bd 60ba 753c b495 bc3d dd99 f23c
00000100: 0e8e 8f3d f949 ecbc 7334 b5bd 1856 283b
00000110: 1642 22bc 0e93 66bd 61eb 9d3d 0760 edbd
00000120: edba 9bbd 5959 8e3d a828 ddbd 5ba8 ffbd
00000130: c2c4 a7bc 138b b73d f536 443d ea4f 803d
00000140: c148 d0bc 2823 01bd eb8a 303d 50d4 dcbd
00000150: 3690 a4bb 0884 92bc c261 96bd f61b 2cbc
00000160: ddea d73a b3bb b3bd fc82 bb3d 2810 e6bd
00000170: af45 683d 7c81 cfbc 6aab 2b3c e03a ee3d
00000180: 3e96 d13b 424d f73c 8919 81bd e81e 56bd
00000190: 213a 623d ff0d 5d3d 16b2 fa3b 283d d03d
000001a0: 1793 073c e366 b4bb e042 99bd da90 3dbd
000001b0: 606c ffbd e281 4dbd f073 d33d fcdf 89bd
000001c0: 4395 27bc 7e15 433d 04c1 3cbd 9be2 b1bc
000001d0: 06c9 09bb 2c5a a73d a3ab 763d f546 533d
000001e0: a803 c53d 1f19 02be 45ee 953c 7a6a b4bd
000001f0: 0531 68bd a206 39bd 7c4c e23d eeb2 463c
0.09722288 -0.075840496 0.056577675 0.09107841 -0.068788484 -0.0011820456 0.11421977 0.077425115
-0.10271339 0.11031918 0.0020609458 0.08231982 -0.067176126 0.003648678 -0.0692398 0.047322758
-0.041952156 0.037193075 0.06306259 -0.030236436 -0.018611202 0.055222645 -0.08486115 0.030426377
-0.09984994 -0.10102904 0.070245646 0.05245704 0.067576155 -0.044806298 0.06224918 -0.029844364
-0.02431739 0.09433151 0.09435951 0.0015583376 -0.10631577 -0.101158015 -0.07839375 -0.031257253
-0.11500781 -0.011216229 0.08374202 -0.05942881 -0.005995451 -0.12435051 -0.079012066 -0.09994675
0.08616229 -0.011591483 -0.099419504 0.10164823 -0.1162836 -0.03844649 0.0005505149 0.016409513
-0.0076676463 -0.030945895 0.06686422 -0.056072198 -0.08202727 0.014998049 0.09208241 0.029614383
0.07009517 -0.028843867 -0.088478945 0.0025686081 -0.009903451 -0.056292586 0.077109106 -0.115905814
-0.07604013 0.069506355 -0.1079877 -0.12483283 -0.020479564 0.08962073 0.047903974 0.062652424
-0.025425317 -0.03152767 0.043101232 -0.10782683 -0.005022074 -0.017885223 -0.073428646 -0.010504713
0.0016473193 -0.08776035 0.09155843 -0.1123355 0.05670708 -0.025330298 0.01047788 0.11632323
0.006396084 0.030188207 -0.063036986 -0.05227557 0.055231217 0.053968426 0.007650624 0.10167915
0.008274815 -0.005505429 -0.074834585 -0.04628072 -0.12471843 -0.050172694 0.10324848 -0.06732175
-0.010228458 0.04762792 -0.04608251 -0.0217145 -0.002102436 0.08171496 0.06022228 0.05158134
0.09619838 -0.12704895 0.018302092 -0.08809371 -0.056687374 -0.04517234 0.110497445 0.012127621

linear.bias f4 [2]
00000000: 266c db3d 3ca7 4b3d
0.10713987 0.049720034

linear_final.weight f4 [5, 64]
00000000: 6335 7a3d 4114 b4bd 99a5 49bb 0674 0abd
00000010: 9655 13bd 9897 7abd 26ac f0bd 6dda d03b
00000020: f7b2 d13b cfff 81bc efa7 debd c718 a53d
00000030: cf80 a83d 8a63 243d e732 aabd 2bd8 7ebd
00000040: 489d ee3c e3af a4bd 665c 3fbd 08a9 b03d
00000050: 7c70 793d 49d9 bfbd e5a4 59bc 64ba 1f3d
00000060: e0b0 a9bd c117 4dbd 6143 56bd cd33 313d
00000070: 7369 2e3c afc6 b1bd de0e 8e3c 0dfc 6a3d
00000080: 2836 8a3d ed09 1b3d 23f5 4ebc d51a 863d
00000090: edc6 713d 44d8 69bd a108 d23d bfa7 4fbd
000000a0: 8a5f d5bd 7f02 943d c0be bf3d b320 47bd
000000b0: c071 8dbb 9a78 8f3c e6a0 73bd 0578 8b3c
000000c0: 481e 65bd 73c0 74bd c634 b63c 9143 b43d
000000d0: 4241 4e3d c110 14bc 404f 8d3d 8aa3 f9bd
000000e0: 2924 c2bd 6c2f c13c 61ac 1e3c 99b0 4c3d
000000f0: 2062 b93c 7787 7abd 2c0f 713d cbab 3bbd
00000100: 5d04 b23b 3167 453c 45c4 ac3c 85bf 29bd
00000110: 51be 003d fd10 a03c f95d b83c 8046 013d
00000120: df9a 81bd 528c 6c3c 501d 1bbc 9579 31bc
00000130: 4248 75bc f7d9 0cbd 949e c9bc cae6 92bc
00000140: 6495 29bc a13a a03c 9b3e 0cbc 253f 1b3d
00000150: e911 123d 0451 99bd 9ff0 a33d bad5 a23d
00000160: 0353 2fbd 4528 043d cc48 053d bac8 56bd
00000170: 6485 93bc a488 01bd 0adc 843d 577f ddbc
00000180: 73ed 08bb d294 89bb a9a0 00bb 8083 eabc
00000190: c972 c53c 5c9a c0bc 2225 80bc 3775 8c3b
000001a0: f87d 403d 67bc 103d 0255 493b 38a5 67bc
000001b0: abfe 7e3c 4e92 e6bc 19a1 50bd ceef 17bc
000001c0: d1c3 a6bc 6024 af3c 1bea fdbc 6caa ffbb
000001d0: aff7 6cbd 8467 183c 08a8 7fbb db00 59bc
000001e0: b8bb 41bd c624 20bd 64ab 0e3d 931c 173d
000001f0: a46a 96bc f315 34bd 2654 dabc 851b fbba
00000200: 76b3 293e 3567 89bc a61f 1a3d 38f0 1d3e
00000210: a7b9 1d3e 0547 353d ca19 5bbd 3465 15bd
00000220: 5753 e53a a3de da3d 6f5a 543d 71de 513d
00000230: 51d1 db3d 035e eabd 250d 2fbc 0034 08bc
00000240: cac1 4abd ce87 af3d 809b 073e bd0b bfbd
00000250: 71c8 053e 4556 03bb ad17 173e b7c4 1b3c
00000260: 5a0c 50be 0bbf a0bc ab42 253e 1bfe f1bb
00000270: ee71 933d 07af 2c3d edc4 c83c 33b6 843c
00000280: eb20 7abd dfab fa3d 63ff 3b3d c86f 6a3e
00000290: eaa4 0b3c 5559 2d3e b09e e5bd 349a debd
000002a0: f4a9 c7b9 9990 23be 3368 053d f30e 8abd
000002b0: 6431 bcbc c1fa 193e 7a82 39be f629 f5bd
000002c0: a69d c43d b0c7 febc db4e fdbc bce8 03be
000002d0: ba5d 843d 976b aabc 857f 05be 1bf4 34be
000002e0: 4dbb ecbd c8f8 153c 897b ee3d fc61 413e
000002f0: 8454 7c3d dba4 5b3c 2bb1 863d ef1d e03d
00000300: 2126 eb3d f68c 863d b074 52be 4d39 7c3e
00000310: 1f0c 573e d8ea 1abd 9bd4 25be 43f9 97bd
00000320: 5673 c5bd 0acd fa3d f217 e8bd c294 47be
00000330: a83e d03d a7c9 4bbd 62d8 62be 03b8 933e
00000340: 984e a23b 6324 603d 4467 693e 1778 103c
00000350: 7fcc 5c3e 4f4b 91be ea9c 553e 06e1 363d
00000360: efda 91be f8ed 8e3d dd1c 363e 198f c4bd
00000370: 4261 dcbd bdbf b53d 4198 633e 6cb0 1ebe
00000380: e732 5ebe 7284 343d 945a 21be e685 c83e
00000390: 03f2 34be dc48 293d e209 a33c cd7d d63d
000003a0: 292a 0dbe 80e3 b6be 0dd8 8c3d 1006 833d
000003b0: 32d5 aabd 0982 8a3d 623b 92be 58c5 483d
000003c0: 6967 0dbe fb6e ac3d 4421 513d 717e a9bd
000003d0: 67cf 5d3d 6e86 503e 1da6 c1bd 22bf 5fbe
000003e0: 875e be3d 7b22 21be d655 04bd 2c80 a43e
000003f0: 8a03 7abd b30c 1fbe 35db 96bd f5c4 6f3e
0.06108607 -0.087929256 -0.003076887 -0.033802055 -0.035970293 -0.061179727 -0.11751585 0.0063736946
0.006399508 -0.01586905 -0.108718745 0.080613665 0.08227693 0.04013399 -0.0831049 -0.062217873
0.029127732 -0.0804136 -0.046718977 0.0862599 0.06089829 -0.09367616 -0.013283943 0.038996115
-0.08285689 -0.05007148 -0.05231035 0.04326229 0.010645258 -0.08680474 0.017341074 0.05736928
0.06748611 0.037851263 -0.012631687 0.065480866 0.0590276 -0.057091013 0.10255552 -0.050697085
-0.10418613 0.072270386 0.093625546 -0.04861517 -0.0043165386 0.017513562 -0.059479617 0.017025003
-0.05593708 -0.059753846 0.022241961 0.0880195 0.050355203 -0.009037198 0.06899881 -0.12189396
-0.09479553 0.023582183 0.009684653 0.049973104 0.022629797 -0.061164346 0.05885236 -0.04581813
0.005432649 0.0120485285 0.021089682 -0.041442413 0.0314315 0.01953935 0.022505747 0.031561375
-0.063283674 0.014437752 -0.009467438 -0.01083221 -0.014970841 -0.034387555 -0.024611749 -0.017932314
-0.010350559 0.019559206 -0.008559848 0.037902016 0.03566161 -0.07486156 0.08004879 0.07950921
-0.042803776 0.032264967 0.032540128 -0.05243752 -0.018007942 -0.03162445 0.064872816 -0.02703826
-0.0020893484 -0.004198649 -0.001962701 -0.028627157 0.024102585 -0.023511104 -0.015642706 0.004286434
0.046995133 0.035335924 0.0030720835 -0.014138512 0.015563647 -0.028145935 -0.050934885 -0.0092734825
-0.020357044 0.02137965 -0.03099542 -0.0078022983 -0.057853397 0.009302024 -0.0039010067 -0.013244833
-0.047298163 -0.03909757 0.03483142 0.036892485 -0.018361397 -0.043966245 -0.026651453 -0.0019157982
0.16572365 -0.016772846 0.03762784 0.15423667 0.15402852 0.044257183 -0.05349139 -0.036473468
0.0017496151 0.10686996 0.051844057 0.051237527 0.10733283 -0.114437126 -0.010684286 -0.008313179
-0.049501218 0.085708246 0.13242912 -0.09328411 0.13064744 -0.0020040434 0.14755125 0.00950735
-0.20317212 -0.019622346 0.16138713 -0.007385028 0.07199465 0.042159107 0.024507964 0.01620016
-0.06106655 0.12239813 0.045897853 0.22894204 0.008523205 0.16928609 -0.11211908 -0.10869256
-0.00038082863 -0.15973128 0.032570075 -0.067411326 -0.02297277 0.15037061 -0.18116179 -0.11970894
0.096003816 -0.031101078 -0.03092139 -0.1288175 0.064631894 -0.020803256 -0.13036926 -0.17671244
-0.11559162 0.009153552 0.11644656 0.18885034 0.061604038 0.013406004 0.06576761 0.109432094
0.11481882 0.06569855 -0.20552325 0.24631234 0.21000718 -0.03782162 -0.16194384 -0.0742059
-0.09641139 0.12246139 -0.11332692 -0.1949034 0.10168201 -0.049752858 -0.22152856 0.28851327
0.0049532168 0.0547222 0.22793299 0.008817694 0.21562384 -0.28377768 0.20860639 0.044648193
-0.28487346 0.06978983 0.17784448 -0.09597606 -0.10760738 0.08874462 0.22226049 -0.15496987
-0.21699105 0.044071622 -0.15757209 0.39164656 -0.17670445 0.04132925 0.019902173 0.10473213
-0.13785614 -0.35720444 0.06877146 0.06397641 -0.08341445 0.067630835 -0.2856093 0.049016327
-0.13808979 0.08419605 0.051057115 -0.0827607 0.054152872 0.20363781 -0.09455512 -0.21850255
0.092953734 -0.1573581 -0.032308422 0.32129037 -0.06103853 -0.15532188 -0.07366029 0.23414977

linear_final.bias f4 [5]
00000000: 9bce a63c 0a0b 833d 78cd 10bf c432 67bf
00000010: 9aeb 01be
0.020362189 0.0639859 -0.5656352 -0.9031184 -0.12687531
