results1_checkpoint/hotel/latest.pth (torch_old, 57359 bytes, 12 tensors)

gcn.gc1.weight f4 [2, 64]
-8.943681e-05 0.0008041859 0.0048977453 -0.0012198383 -0.0038605195 -0.003936406 0.00072000065 0.00024381522
-0.0045585865 0.0032367154 -0.0040350733 -0.007014615 0.0015089002 -0.0018549568 0.00081350334 0.0023446959
0.0010377937 0.005332577 0.0035050095 -0.005935712 -0.003822786 0.00045781684 -0.0051424163 -0.001371172
0.00966455 0.0070772627 -0.0014782741 -6.7702465e-05 -0.0043318616 0.0059712203 0.005716283 0.0020156358
-0.0057265353 0.0032931033 -0.004224605 -0.004658339 -0.004874727 0.006700693 1.4924993e-05 -0.001210722
-0.0045122416 -0.0031738707 0.002589752 0.003201058 0.0010591486 -0.003198676 -1.676319e-05 0.0015468313
-0.0012113737 6.944973e-05 0.00396763 -0.0022389619 -0.0058788247 0.0078057633 0.0052408897 -0.0024071846
-0.0034548251 -0.003758711 -0.00140166 -0.0015636681 -0.0013942596 0.00010058395 -0.0043730824 0.00034164623
-0.00044866532 0.0010799895 0.0026420497 -0.003264928 -0.004715077 0.00013104748 0.0014052665 0.0052192905
-0.0005394157 -0.0063483785 -0.0050577465 0.0006447397 0.001965459 -0.0019241894 0.00034920537 0.002102177
-0.0063420385 -0.00072656164 -0.0018313215 -0.0028074686 0.0010439042 0.0016766548 -0.0022596093 0.005959669
-0.0032925068 -0.0011582035 -0.0052061076 0.0013414756 0.0037552533 0.0037749188 0.0035054693 -0.0005943201
-0.0014830002 0.0028538364 0.0004408158 0.0024581917 0.0030220118 -0.004756081 -0.0031842077 -0.001661453
0.0028600504 0.004838974 -0.00015965424 0.0036266625 -0.0028611694 0.0012171518 0.0018830191 -0.0024529172
0.0010838471 -0.0020375492 0.0032171519 -0.0076046274 0.002834273 -0.0014191497 -0.0007154804 -0.0029933348
0.0013854543 -0.0041873055 0.0016768266 0.00035984506 0.003941668 0.0024636423 -0.00045041056 -0.0005895339
00000000: 0690 bbb8 01d0 523a 447d a03b fbe2 9fba
00000010: c500 7dbb f8fc 80bb 6dbe 3c3a a6a8 7f39
00000020: 3260 95bb 131f 543b a638 84bb dbda e5bb
00000030: 4ac6 c53a 0622 f3ba 4941 553a 78a9 193b
00000040: 9406 883a e6bc ae3b 4db4 653b 5c80 c2bb
00000050: b587 7abb 2307 f039 b781 a8bb e6b8 b3ba
00000060: 1058 1e3c 62e8 e73b a6c2 c1ba 7cfb 8db8
00000070: 4af2 8dbb 3aaa c33b a84f bb3b c218 043b
00000080: a9a5 bbbb 1bd1 573b 8e6e 8abb fba4 98bb
00000090: 2dbc 9fbb 7d91 db3b 5b66 7a37 17b1 9eba
000000a0: 6ddb 93bb b700 50bb d4b8 293b d7c8 513b
000000b0: 21d3 8a3a e1a0 51bb ad9e 8cb7 0cbf ca3a
000000c0: f5c6 9eba 8aa5 9138 e502 823b 8cbb 12bb
000000d0: 28a3 c0bb 7dc7 ff3b c5bb ab3b dbc1 1dbb
000000e0: 596a 62bb b554 76bb e8b7 b7ba fff3 ccba
000000f0: 97bf b6ba 99f0 d238 134c 8fbb fb1e b339
00000100: d73a ebb9 6f8e 8d3a 3d26 2d3b 67f8 55bb
00000110: ef80 9abb ca69 0939 eb30 b83a 9506 ab3b
00000120: 9367 0dba 0f06 d0bb 74bb a5bb c003 293a
00000130: eece 003b 1535 fcba 8d15 b739 adc4 093b
00000140: e0d0 cfbb ba76 3eba f408 f0ba 82fd 37bb
00000150: 9dd3 883a 33c3 db3a f415 14bb 5449 c33b
00000160: 19c7 57bb dcce 97ba ff97 aabb 74d4 af3a
00000170: b21a 763b a164 773b 04bc 653b 26cc 1bba
00000180: 3b61 c2ba 6e07 3b3b 4c1d e739 9d19 213b
00000190: f20c 463b e6d8 9bbb 24ae 50bb 1dc5 d9ba
000001a0: af6f 3b3b 4290 9e3b dc68 27b9 4dad 6d3b
000001b0: 7582 3bbb d688 9f3a a3cf f63a 1fc1 20bb
000001c0: e00f 8e3a 6788 05bb dad6 523b 3d30 f9bb
000001d0: 36bf 393b c302 baba 148f 3bba d32b 44bb
000001e0: 2298 b53a aa35 89bb f7c8 db3a 96a9 bc39
000001f0: 1c29 813b 0f75 213b 1525 ecb9 f38a 1aba

gcn.gc1.bias f4 [64]
1.7681852e-05 0.00014867207 -0.00016900999 -0.00043714631 0.00046174746 6.422233e-05 -4.363774e-05 7.006115e-05
-4.6523386e-05 0.00012006346 0.00013332024 9.495376e-05 -0.00010449459 0.000104988954 0.00025009626 0.0001932467
-8.524218e-05 -0.00011134069 -0.00010634501 0.00011885415 2.7525806e-05 0.0002549205 0.00011008011 -4.100108e-05
-0.00022014976 -0.00010412491 -0.00010975421 6.5522705e-05 -0.00036620756 -0.00022891686 0.0003065366 3.455628e-05
-3.2697124e-05 0.00020305064 1.2364039e-05 -0.000263886 0.00019702615 0.00013599203 0.00030267928 7.217059e-05
0.0003115586 0.00018304194 0.00012442745 -4.1577725e-05 0.00032925062 0.000118072334 -0.0001776798 -0.00012906385
0.00012924983 -0.00023463143 -0.00011853745 -5.8653124e-05 -0.00020864455 -0.00010506813 -2.3185437e-05 -0.00019854362
0.00011520549 -0.00033265149 0.00016151366 6.682552e-05 0.0002798191 -0.00022935586 -8.579087e-05 -3.286045e-05
00000000: 7d53 9437 dbe4 1b39 4638 31b9 c930 e5b9
00000010: b216 f239 1aaf 8638 ab07 37b8 cbed 9238
00000020: 1b22 43b8 94ca fb38 e1cb 0b39 e921 c738
00000030: 1b24 dbb8 842d dc38 5a1f 8339 44a2 4a39
00000040: 0cc4 b2b8 947f e9b8 8b05 dfb8 5641 f938
00000050: 38e7 e637 daa6 8539 cfda e638 93f8 2bb8
00000060: 00d8 66b9 a35d dab8 d82b e6b8 3c69 8938
00000070: 8cff bfb9 6709 70b9 a5b6 a039 86f0 1038
00000080: 4524 09b8 fee9 5439 256f 4f37 2e5a 8ab9
00000090: ce98 4e39 1599 0e39 edb0 9e39 4a5a 9738
000000a0: b058 a339 f2ee 3f39 bd78 0239 be63 2eb8
000000b0: 459f ac39 9a9d f738 8f4f 3ab9 5055 07b9
000000c0: 3d87 0739 6507 76b9 4f97 f8b8 5002 76b8
000000d0: 98c7 5ab9 0658 dcb8 597e c2b7 2630 50b9
000000e0: 7a9a f138 ba67 aeb9 fe5b 2939 ae24 8c38
000000f0: afb4 9239 3f7f 70b9 9fea b3b8 a4d3 09b8

gcn.gc2.weight f4 [64, 2]
-0.0029534674 -0.0048462884 -0.0023274345 0.0023625083 0.0034363202 -0.0016578493 0.0028204843 0.004797713
0.0004719056 -0.011938699 -0.004057309 0.0010444762 0.0017154942 0.0017698826 -0.0015674401 -0.00085440505
0.0028795227 -0.001144592 -0.00015614164 -0.002120696 8.738849e-05 -0.0024746775 -0.0020034686 -0.005786142
0.0014362631 -0.0006226105 -0.0043966803 -0.0041964967 -0.008905404 0.0023440826 -0.0042954152 0.0007049082
-0.0017601105 0.00056611735 0.0055432855 -0.0009195856 0.0015036066 0.0029536213 -0.004020974 -0.003069766
-0.00085821707 -6.877259e-05 -0.0073457328 0.0007358486 0.003296196 -0.0042140298 -0.0010069892 -0.002704136
0.007521566 0.0042016264 -0.001114024 0.0058584064 -0.0012516124 0.0010716796 -0.0013487126 -8.5688494e-05
0.005648739 -0.0016712853 0.0055506113 0.0010253658 -0.0057893363 0.007975988 0.0045924312 -0.0042118817
-0.00047756554 0.0013737177 -0.002175585 0.0056400173 0.0004259308 -0.0023522105 0.004693191 0.003985308
-0.0050398 0.000787742 0.0020678395 -0.0037288622 0.0054377466 -0.0006283653 -0.0031828252 -0.0030732926
-0.009399672 -0.0015551738 -0.0024292017 0.002172454 -0.006193131 0.00043017912 0.0025399574 0.003295958
0.0033433842 -0.00498249 -0.0039553083 0.004785191 0.0013519285 -0.0026898042 -0.0017647566 0.0022128227
-0.0035598192 0.0006542034 -0.0004842279 0.0027638313 0.0010046675 -0.0039382223 -0.0034407068 -0.00024420908
0.004341063 0.00033835977 0.0070456914 -0.0020720128 -0.0009818985 0.0022008412 -0.002961702 0.0034952236
-0.0036462774 0.0006818262 0.00451452 0.004386609 -0.0019071953 0.0039859368 -0.0031759476 0.001360758
0.0009898809 0.007404149 0.0017008244 -0.0035324804 0.0029448944 0.0009091652 0.00017975051 0.0005075493
00000000: f68e 41bb 9dcd 9ebb df87 18bb 50d4 1a3b
00000010: e333 613b 314c d9ba e0d7 383b 2236 9d3b
00000020: 196a f739 889a 43bc 2df3 84bb cee6 883a
00000030: 6fda e03a 68fb e73a 9072 cdba 27fa 5fba
00000040: 60b6 3c3b 2206 96ba f4b9 23b9 60fb 0abb
00000050: 5744 b738 332e 22bb a04c 03bb ad99 bdbb
00000060: fe40 bc3a af36 23ba 0712 90bb c482 89bb
00000070: f9e7 11bc 2e9f 193b 8ec0 8cbb 97c9 383a
00000080: 82b3 e6ba 7e67 143a 73a4 b53b 5810 71ba
00000090: aa14 c53a 8b91 413b 60c2 83bb 212e 49bb
000000a0: f9f9 60ba 013a 90b8 79b4 f0bb f7e5 403a
000000b0: fe04 583b d815 8abb f3fc 83ba e037 31bb
000000c0: 7877 f63b ccad 893b 7104 92ba e0f7 bf3b
000000d0: 250d a4ba 9a77 8c3a 49c7 b0ba a9b3 b3b8
000000e0: 0f19 b93b 070f dbba e7e1 b53b 9165 863a
000000f0: 79b4 bdbb b8ad 023c 1b7c 963b d303 8abb
00000100: c361 fab9 510e b43a 4294 0ebb e5cf b83b
00000110: 774f df39 8b27 1abb 57c9 993b 3097 823b
00000120: e824 a5bb 7980 4e3a 9784 073b ed5f 74bb
00000130: 202f b23b e2b8 24ba f296 50bb 4b69 49bb
00000140: 1501 1abc f9d6 cbba 3e33 1fbb bb5f 0e3b
00000150: c0ef cabb aa89 e139 6a75 263b 0001 583b
00000160: ae1c 5b3b 2844 a3bb 889b 81bb 17cd 9c3b
00000170: 3133 b13a 6d47 30bb 684f e7ba 0105 113b
00000180: db4b 69bb d97e 2b3a f8df fdb9 6521 353b
00000190: 0caf 833a 340c 81bb 7b7d 61bb 3009 80b9
000001a0: 7a3f 8e3b e165 b139 8bdf e63b 9bca 07bb
000001b0: 0cb3 80ba fd3b 103b 1d19 42bb 1f10 653b
000001c0: 62f6 6ebb 95bc 323a 8aee 933b 8bbd 8f3b
000001d0: dbfa f9ba 769c 823b 8f23 50bb 765b b23a
000001e0: e4be 813a 819e f23b 32ee de3a 3081 67bb
000001f0: 21ff 403b 0b55 6e3a 697b 3c39 0f0d 053a

gcn.gc2.bias f4 [2]
-0.0019927907 0.0065638013
00000000: 7b99 02bb 2815 d73b

grucell.weight_ih f4 [192, 2]
-0.097476125 7.911584e-05 -0.07161908 0.036510956 -0.06337892 -0.073859066 0.055630323 0.074819155
-0.066087715 0.06554846 0.070223145 0.098019354 -0.066878915 0.10621507 -0.04153252 -0.12386573
0.0025153058 -0.03354132 0.033032943 0.029052218 0.09714488 -0.068779126 0.021006163 0.071579084
0.054232515 0.08426831 0.09487378 0.08255019 -0.08447783 0.057318415 0.07346138 0.11628606
-0.11077755 -0.09857665 -0.0064430465 0.10448037 0.062089488 -0.06793523 -0.030882655 -0.025353525
0.061089993 0.03795931 0.0066868016 -0.06581339 0.0028841265 0.043754816 -0.015462505 0.096055724
-0.035398927 -0.07826565 -0.019905472 0.026953842 0.058344606 0.08036087 -0.0131425 -0.046490375
0.079331234 -0.06533526 -0.05516627 -0.08653922 -0.0691082 -0.07306683 -0.05622126 -0.0033083805
-0.10243788 -0.033252154 0.01581813 -0.07371353 0.10511232 0.042127237 0.03134775 -0.02287461
0.019092524 -0.11663347 0.055493686 -0.0069677946 -0.061628807 -0.07081894 0.07816294 0.06371343
0.08570545 0.076561436 0.08511096 -0.043280575 -0.112256154 -0.09936044 0.12085627 0.06472368
0.047502086 0.07971143 -0.018108023 0.114461124 0.11323951 -0.059396163 0.078166015 0.11687083
-0.118960336 -0.07834482 0.012352478 0.103117086 -0.023909198 -0.011524429 -0.098807715 0.01160508
-0.11773101 -0.05446625 0.10956052 0.11796613 -0.02546803 0.037162658 -0.022738589 -0.048073057
-0.0067314566 -0.006532646 -0.08127335 -0.11520651 0.087709315 0.1218123 -0.07866891 -0.06516952
-0.099338375 0.022163296 0.032951564 -0.015007838 0.10118923 0.015238637 0.04660426 0.038205072
-0.08143421 -0.11448261 -0.0566278 -0.055709284 -0.121023566 0.061383758 0.06273591 0.10747849
0.115784906 -0.10870379 0.114816174 -0.07118709 -0.010372413 -0.06444143 0.063559294 0.09310363
-0.11200076 0.099170074 0.06823949 -0.07096579 0.105523326 0.07113505 0.0489549 0.008410663
0.025107946 -0.078316145 -0.111793414 0.111973025 0.040075414 -0.07894609 -0.087049976 -0.10115398
-0.088557854 0.110004306 -0.11247244 -0.008080989 -0.06851869 0.10278646 -0.07896687 -0.050256282
-0.08117294 0.08976713 0.10420406 0.0154933445 -0.11248557 -0.00026209484 -0.06491544 0.09805775
-0.038349506 0.014698845 0.08293618 -0.05331116 0.032115594 -0.06431975 0.049235936 -0.0156997
-0.101024784 0.08706187 -0.114531964 0.10124799 -0.0049395547 0.006386739 0.016299777 -0.041142527
-0.11442358 0.10141772 -0.0027267176 -0.10025753 -0.01489885 -0.111628085 0.095939286 0.02179602
-0.012759873 -0.050624542 0.07791768 0.038335342 0.12039242 0.07104793 -0.096296616 0.09826275
0.109004475 0.06285792 -0.09900073 0.03422823 -0.005857675 -0.09680836 -0.008463953 0.008120318
0.12357029 -0.016176295 0.00060893997 -0.11740569 -0.06796841 -0.10105688 -0.109311305 0.06060856
0.044534292 -0.017009197 0.087486275 0.06763253 -0.05648056 0.08220879 -0.029049216 0.027075099
0.023847178 -0.032067128 0.076034725 0.051446106 -0.038985044 0.03729093 0.025198096 -0.018828856
0.044154495 0.118826166 -0.12355498 0.09184142 -0.080856696 -0.10971528 -0.002497231 -0.017899515
0.08333144 0.05826337 0.06514938 -0.112608075 -0.027332203 -0.10300327 0.0354863 -0.11149817
00000000: 90a1 c7bd feea a538 06ad 92bd 838c 153d
00000010: cfcc 81bd 6c43 97bd 9fdc 633d c93a 993d
00000020: ff58 87bd 453e 863d 27d1 8f3d 5fbe c83d
00000030: d0f7 88bd 4987 d93d 011e 2abd 51ad fdbd
00000040: d4d7 243b a062 09bd 8d4d 073d ebfe ed3c
00000050: e5f3 c63d 12dc 8cbd 1e15 ac3c 0e98 923d
00000060: ea22 5e3d dd94 ac3d 2f4d c23d 1310 a93d
00000070: b602 adbd b7c6 6a3d ec72 963d 6327 ee3d
00000080: 57df e2bd 8ee2 c9bd 3120 d3bb cef9 d53d
00000090: 8c51 7e3d a021 8bbd 9ffd fcbc 32b2 cfbc
000000a0: 8039 7a3d 397b 1b3d f51c db3b 2cc9 86bd
000000b0: 9d03 3d3b 4038 333d 7256 7dbc ddb8 c43d
000000c0: 77fe 10bd be49 a0bd cd10 a3bc 4ece dc3c
000000d0: c1fa 6e3d 3d94 a43d a453 57bc b16c 3ebd
000000e0: 6a78 a23d 7ece 85bd 07f6 61bd 793b b1bd
000000f0: 9a88 8dbd 10a4 95bd 4448 66bd 6ad1 58bb
00000100: f4ca d1bd 6933 08bd 0695 813c 1ff7 96bd
00000110: 2145 d73d 9c8d 2c3d 8066 003d 8963 bbbc
00000120: ed67 9c3c 87dd eebd 594d 633d 1952 e4bb
00000130: 7d6e 7cbd 8509 91bd e413 a03d 307c 823d
00000140: 5786 af3d 3ecc 9c3d a84e ae3d f946 31bd
00000150: 8ee6 e5bd 7d7d cbbd 7e83 f73d d98d 843d
00000160: 8c91 423d bf3f a33d 4757 94bc 986a ea3d
00000170: 1eea e73d 6449 73bd 8115 a03d f959 ef3d
00000180: 7aa1 f3bd 4073 a0bd 0c62 4a3c 0d2f d33d
00000190: 39dd c3bc f5d0 3cbc b35b cabd 3c23 3e3c
000001a0: f51c f1bd 0118 5fbd 4461 e03d 3a98 f13d
000001b0: 54a2 d0bc df37 183d 4746 babc 41e8 44bd
000001c0: 8d93 dcbb ce0f d6bb a472 a6bd 64f1 ebbd
000001d0: f1a0 b33d ba78 f93d 2a1d a1bd 9977 85bd
000001e0: eb71 cbbd cd8f b53c 38f8 063d 6fe3 75bc
000001f0: 4d3c cf3d 7aab 793c 1ce4 3e3d ec7c 1c3d
00000200: fbc6 a6bd dc75 eabd 8df2 67bd 6b2f 64bd
00000210: 34db f7bd 896d 7b3d af7b 803d af1d dc3d
00000220: a320 ed3d 18a0 debd be24 eb3d 89ca 91bd
00000230: 0ef1 29bc def9 83bd 602b 823d 1ead be3d
00000240: a860 e5bd ae19 cb3d 25c1 8b3d 8356 91bd
00000250: 9d1c d83d 41af 913d ef84 483d e1cc 093c
00000260: 2eaf cd3c 3764 a0bd f2f3 e4bd 1d52 e53d
00000270: 1e26 243d 7dae a1bd 4247 b2bd d129 cfbd
00000280: d25d b5bd f049 e13d f357 e6bd 2066 04bc
00000290: 8753 8cbd b581 d23d 62b9 a1bd 88d9 4dbd
000002a0: 003e a6bd d4d7 b73d f068 d53d ccd7 7d3c
000002b0: d65e e6bd c669 89b9 63f2 84bd 80d2 c83d
000002c0: 5f14 1dbd 6dd3 703c 72da a93d ce5c 5abd
000002d0: a48b 033d 13ba 83bd 9fab 493d a89c 80bc
000002e0: 15e6 cebd 7e4d b23d bc8f eabd 1b5b cf3d
000002f0: fddb a1bb da47 d13b 1c87 853c 1185 28bd
00000300: e956 eabd 18b4 cf3d bbb2 32bb d253 cdbd
00000310: 4e1a 74bc 449d e4bd d17b c43d 918d b23c
00000320: c90e 51bc ae5b 4fbd 4e93 9f3d 8505 1d3d
00000330: 4d90 f63d 9481 913d 2937 c5bd fb3d c93d
00000340: bd3d df3d a7bb 803d e5c0 cabd e732 0c3d
00000350: bdf1 bfbb 7643 c6bd 64ac 0abc 150b 053c
00000360: 6c12 fd3d 2684 84bc 45a1 1f3a 6572 f0bd
00000370: 0633 8bbd e9f6 cebd 9bde dfbd ae40 783d
00000380: 9769 363d df56 8bbc 012c b33d ed82 8a3d
00000390: 2958 67bd 155d a83d 9ff8 edbc 99cc dd3c
000003a0: 285b c33c d258 03bd 18b8 9b3d 27b9 523d
000003b0: c8ae 1fbd 60be 183d 3d6c ce3c f93e 9abc
000003c0: 58db 343d 225b f33d 650a fdbd 5b17 bc3d
000003d0: 3298 a5bd 68b2 e0bd 95a8 23bb 01a2 92bc
000003e0: ada9 aa3d 92a5 6e3d 0a6d 853d 109f e6bd
000003f0: c9e7 dfbc 61f3 d2bd 155a 113d 2759 e4bd

grucell.weight_hh f4 [192, 64]
-0.061661746 -0.011373205 0.020607881 -0.08036634 -0.11586156 0.1020302 -0.03307505 -0.082165785
0.08553533 0.1182948 -0.06540487 -0.047104824 0.07333819 -0.12510745 -0.104407564 -0.033038657
-0.076569356 -0.052546058 -0.09300832 -0.027039375 -0.08858348 0.049549416 0.083221346 -0.04353696
-0.03550942 0.04665833 -0.047842592 -0.08962973 0.034852818 -0.03033297 -0.047918 0.047231674
-0.10968215 0.04906174 0.07110993 -0.01574405 -0.09760791 -0.09121803 -0.048954442 -0.039026134
-0.006532986 0.01494988 -0.019598626 -0.042723678 -0.07959754 -0.10106221 -0.07661891 -0.012699561
0.04480297 0.01155046 -0.08238939 -0.048581302 0.04851669 -0.080045596 -0.07457218 -0.0830468
-0.0033714906 -0.06127485 -0.07773002 0.093490705 -0.082171194 -0.103740364 0.09887736 -0.0711245
-0.087212615 0.1236949 -0.12111193 -0.049383067 0.046879645 -0.025437767 0.120750375 -0.0439775
-0.04218094 -0.06470212 -0.043702863 0.008314921 -0.06133201 -0.12204062 -0.10254947 -0.10910947
-0.041677587 0.07907364 0.08371462 -0.06578406 0.07882868 0.08919275 0.07350233 -0.0011715264
-0.00856448 -0.004246371 0.050996874 0.063869074 -0.0064520016 0.11523188 -0.096288726 -0.071372114
-0.009093677 0.013468393 0.08599961 -0.043717664 0.013185536 -0.07648972 -0.07433984 -0.029598339
-0.0132468 0.08268896 -0.05637464 0.0009946445 0.020739233 0.045159705 0.03636671 -0.05668707
0.105369054 -0.087970294 -0.047226958 0.015499145 0.03282925 -0.027849576 0.04866619 -0.06668387
-0.005207766 0.076213874 -0.09985732 0.011873488 0.10450805 -0.00018320716 0.1188806 0.11531629
0.098943464 -0.04186071 0.026407368 -0.028761066 -0.08666359 0.029702 -0.08118099 -0.1108971
-0.05665156 -0.010593446 -0.030257769 0.020699482 0.0013121148 -0.044335045 0.086895 -0.05688703
0.05916154 0.11038997 0.121489145 -0.020521384 0.07174407 0.0033418715 -0.08575826 -0.058344506
-0.093282424 -0.0018052872 -0.08458901 -0.09490432 -0.05960237 -0.123358466 -0.042836778 -0.12454316
0.07087048 0.06521851 -0.03391586 -0.105484374 0.0361837 -0.09214928 0.087508455 -0.06602978
-0.07700516 0.0033295276 0.04715622 0.08179391 0.037430815 0.099404365 0.03779224 -0.043858137
-0.028849209 0.06720948 0.043771636 -0.051568463 -0.05992796 -0.08758474 0.012659217 0.06813216
0.06783821 -0.109308034 -0.07889514 0.011111282 0.021480365 -0.0048667477 -0.0045700427 0.071776755
-0.040027283 0.07387311 0.113758706 -0.108523145 0.012617073 -0.024254149 0.09229645 0.058030926
0.12134303 -0.03986155 -0.060951017 -0.03257177 0.08679893 0.11038466 0.036502924 0.044699457
0.0731805 0.09240141 -0.08640556 -0.084278435 0.009694106 0.09121879 -0.11029199 -0.08916558
0.059030954 0.013696748 -0.041821707 0.012082232 0.015177029 -0.057350647 -0.10773144 -0.0031128104
-0.057528567 0.114481844 0.06352427 -0.024202175 0.07521072 0.12107469 0.10836941 0.05815592
0.007211055 -0.11865428 -0.075983636 0.089598544 -0.11457568 -0.029516693 -0.0071589304 -0.06479761
0.0064918036 0.03831364 0.0978086 -0.059063394 0.10110375 -0.02939277 0.11579434 0.09443149
-0.105797485 0.098589756 -0.041095387 -0.09703767 -0.072680235 0.11093505 -0.07086142 -0.062065795
00000000: 0791 7cbd ae56 3abc dcd1 a83c 1c97 a4bd
00000010: d348 edbd 36f5 d03d b479 07bd 8946 a8bd
00000020: 262d af3d 8b44 f23d fdf2 85bd fdf0 40bd
00000030: 5532 963d 2b1c 00be a2d3 d5bd 8b53 07bd
00000040: 65d0 9cbd 893a 57bd 257b bebd ae81 ddbc
00000050: 416b b5bd 54f4 4a3d f46f aa3d d053 32bd
00000060: 5372 11bd ce1c 3f3d 98f6 43bd cb8f b7bd
00000070: d4c1 0e3d d97c f8bc aa45 44bd 0076 413d
00000080: 09a1 e0bd f7f4 483d 15a2 913d aaf9 80bc
00000090: a8e6 c7bd 85d0 babd 7484 48bd ded9 1fbd
000000a0: a912 d6bb 57f0 743c 4c8d a0bc 06ff 2ebd
000000b0: 0904 a3bd b4f9 cebd 60ea 9cbd d211 50bc
000000c0: 5283 373d 243e 3d3c c5bb a8bd 30fd 46bd
000000d0: 70b9 463d f2ee a3bd 4db9 98bd 7114 aabd
000000e0: 3af4 5cbb 56fb 7abd eb30 9fbd 0e78 bf3d
000000f0: 5f49 a8bd d475 d4bd 3780 ca3d b9a9 91bd
00000100: 879c b2bd c053 fd3d 8809 f8bd e645 4abd
00000110: df04 403d dd62 d0bc f94b f73d c021 34bd
00000120: ecc5 2cbd 8c82 84bd c601 33bd 4e3b 083c
00000130: 4637 7bbd 6ff0 f9bd 7505 d2bd c974 dfbd
00000140: 1eb6 2abd 5cf1 a13d 9272 ab3d cbb9 86bd
00000150: ee70 a13d b0aa b63d 6488 963d e78d 99ba
00000160: 0852 0cbc 2425 8bbb 19e2 503d cacd 823d
00000170: 506b d3bb b1fe eb3d 0633 c5bd 8b2b 92bd
00000180: a5fd 14bc 89aa 5c3c 9020 b03d 4b11 33bd
00000190: 2508 583c a4a6 9cbd 7c3f 98bd 3778 f2bc
000001a0: 1b09 59bc d458 a93d 18e9 66bd bb5e 823a
000001b0: 53e5 a93c 62f9 383d 42f5 143d b330 68bd
000001c0: bbcb d73d c529 b4bd 0e71 41bd 20f0 7d3c
000001d0: f777 063d cb24 e4bc 3356 473d 8e91 88bd
000001e0: e8a5 aabb 0516 9c3d ff81 ccbd 0589 423c
000001f0: 5108 d63d 4c1b 40b9 ac77 f33d f22a ec3d
00000200: dfa2 ca3d 2376 2bbd 4454 d83c 549c ebbc
00000210: ae7c b1bd 9c51 f33c 3842 a6bd 051e e3bd
00000220: 770b 68bd 2290 2dbc 24df f7bc f691 a93c
00000230: 44fb ab3a aa98 35bd 01f6 b13d 6002 69bd
00000240: 5f53 723d 2314 e23d 4dcf f83d 761c a8bc
00000250: 8eee 923d 4d03 5b3b 07a2 afbd a6fa 6ebd
00000260: db0a bfbd 639f ecba 013d adbd 325d c2bd
00000270: 9d21 74bd 5da3 fcbd 9e75 2fbd 7c10 ffbd
00000280: 8b24 913d 4891 853d 5beb 0abd 3108 d8bd
00000290: 5c35 143d c3b8 bcbd a237 b33d 9f3a 87bd
000002a0: e2b4 9dbd 3434 5a3b e126 413d 9183 a73d
000002b0: 0e51 193d 8494 cb3d 09cc 1a3d 97a4 33bd
000002c0: 2d55 ecbc 20a5 893d e349 333d 7439 53bd
000002d0: 0577 75bd a15f b3bd 9b68 4f3c e088 8b3d
000002e0: c2ee 8a3d e4dc dfbd c693 a1bd 180c 363c
000002f0: 97f7 af3c 3d79 9fbb 4cc0 95bb b1ff 923d
00000300: a6f3 23bd c94a 973d 53fa e83d 6241 debd
00000310: d7b7 4e3c a3b0 c6bc ec05 bd3d d6b1 6d3d
00000320: b282 f83d dd45 23bd c6a7 79bd fa69 05bd
00000330: a3c3 b13d 5a11 e23d 1784 153d c716 373d
00000340: a8df 953d f33c bd3d 66f5 b0bd 2c9a acbd
00000350: 07d4 1e3c ebd0 ba3d c4e0 e1bd 729c b6bd
00000360: 71ca 713d 5368 603c 3d4d 2bbd 8ef4 453c
00000370: 13a9 783c 83e8 6abd 4da2 dcbd 4b00 4cbb
00000380: 13a3 6bbd 7575 ea3d 0319 823d a443 c6bc
00000390: 1408 9a3d 02f6 f73d c8f0 dd3d e734 6e3d
000003a0: b74a ec3b 0401 f3bd 4f9d 9bbd 717f b73d
000003b0: a7a6 eabd fecc f1bc 7695 eabb 9cb4 84bd
000003c0: 32b9 d43b c3ee 1c3d e04f c83d 75ec 71bd
000003d0: 7c0f cf3d 1bc9 f0bc 9525 ed3d 4c65 c13d
000003e0: 5aac d8bd 6de9 c93d a353 28bd b0bb c6bd
000003f0: 60d9 94bd ea31 e33d cb1f 91bd b438 7ebd

grucell.bias_ih f4 [192]
-0.045482386 -0.08686152 -0.03712666 -0.07508635 -0.0060895244 0.11443078 0.059557524 -0.044540033
-0.12061579 0.05340951 -0.023742646 0.0981927 -0.039052777 -0.11978375 0.09562614 0.078906715
0.07046125 -0.02287826 0.10089365 0.0951998 0.012483238 0.029322956 0.11223808 0.08594893
-0.008985391 -0.0069026477 0.056360748 -0.124013014 -0.035098676 0.0704116 -0.110283904 -0.06460898
0.08439975 0.020915676 0.09952742 -0.019352965 0.053560484 0.096778765 0.09693729 0.09600714
0.08443005 0.09264805 -0.08699634 -0.061482742 -0.09732337 0.0004111857 -0.09655398 0.030021226
0.058535088 -0.09307906 0.046806976 -0.0927723 -0.066829465 -0.08147848 0.039827123 0.101147264
0.054122075 -0.10262941 -0.050810676 -0.07713974 -0.098711744 -0.108436175 -0.08556477 0.0070977095
0.058635723 -0.11454371 0.048737418 -0.02602539 0.06743669 -0.11655873 0.06859614 0.063652985
0.0031202515 0.046509948 0.0059429463 -0.10731609 -0.07815847 0.055535726 0.024880089 -0.019750522
-0.11509848 0.009528698 0.09709459 0.05245378 -0.033864275 0.0020519225 0.11987001 -0.0045322403
-0.05293127 -0.03517022 0.07831332 0.09852345 -0.043946803 -0.10044019 0.03475871 -0.053417016
0.007765301 -0.047975566 -0.019168193 0.056286417 0.05778643 -0.03740041 0.062025994 0.057096727
-0.026623968 0.028567111 -0.119175985 -0.124121845 -0.0054772655 0.11206959 -0.03791997 0.015084485
-0.07159551 -0.07328627 0.10764999 0.04178674 0.099037886 0.06583422 -0.016267339 0.039981898
0.07865766 0.11771955 -0.0854107 -0.06992544 -0.03893255 -0.06732191 0.10711384 -0.020191083
-0.09775746 -0.056887053 0.13264953 -0.15162124 -0.07069022 0.008865443 0.0111219175 0.10109341
0.09239084 -0.10511642 -0.025563437 0.07806039 0.01341136 0.054018565 0.09612235 -0.11661148
0.048178427 -0.09954385 -0.11399782 0.04830467 -0.08283397 0.14586703 -0.10562308 0.061363984
0.11109345 -0.05763806 -0.09550739 -0.006456362 0.009603794 0.045972314 -0.07256318 0.03791289
-0.013359194 -0.024383672 0.05981255 -0.21610536 0.12763661 -0.021793079 0.0043166205 -0.02894204
0.038538896 0.091134496 -0.0646619 0.027243625 0.073078364 -0.034234934 0.080265276 -0.051519327
-0.086055495 -0.045742624 -0.0056504505 0.0585035 -0.0011519189 -0.070949815 0.02430039 0.12692368
-0.064661175 -0.03164153 0.041334152 -0.12822698 -0.00940413 0.061001815 -0.035030343 -0.12584291
00000000: bd4b 3abd 74e4 b1bd 2012 18bd dfc6 99bd
00000010: a28a c7bb af5a ea3d 97f2 733d 9c6f 36bd
00000020: 6905 f7bd eec3 5a3d f07f c2bc 4119 c93d
00000030: cef5 1fbd 2f51 f5bd a3d7 c33d d899 a13d
00000040: fd4d 903d 306b bbbc 54a1 ce3d 1df8 c23d
00000050: 7f86 4c3c b236 f03c 14dd e53d fe05 b03d
00000060: 7637 13bc 9b2f e2bb 87da 663d 89fa fdbd
00000070: a1c3 0fbd f533 903d 87dc e1bd b751 84bd
00000080: c7d9 ac3d 5a57 ab3c 08d5 cb3d 1c8a 9ebc
00000090: 3d62 5b3d f233 c63d 0f87 c63d 649f c43d
000000a0: a9e9 ac3d 43be bd3d 232b b2bd 54d5 7bbd
000000b0: 7a51 c7bd 6994 d739 18be c5bd 13ef f53c
000000c0: 7dc2 6f3d 3ca0 bebd acb8 3f3d 67ff bdbd
000000d0: e3dd 88bd 30de a6bd c421 233d 4c26 cf3d
000000e0: 1caf 5d3d 5e2f d2bd db1e 50bd 71fb 9dbd
000000f0: 6229 cabd c913 debd 953c afbd e793 e83b
00000100: 032c 703d e595 eabd e3a0 473d 3333 d5bc
00000110: 3f1c 8a3d 58b6 eebd 227c 8c3d 7f5c 823d
00000120: 227d 4c3b 3781 3e3d 0cbd c23b 8ac8 dbbd
00000130: 8c11 a0bd 6e79 633d 54d1 cb3c d9cb a1bc
00000140: c0b8 ebbd 421e 1c3c 87d9 c63d c6d9 563d
00000150: 44b5 0abd 8c79 063b 687e f53d 3083 94bb
00000160: 76ce 58bd a60e 10bd bc62 a03d aac6 c93d
00000170: 9001 34bd 96b3 cdbd 265f 0e3d cdcb 5abd
00000180: 1174 fe3b 0782 44bd 9d06 9dbc 968c 663d
00000190: 77b1 6c3d 2c31 19bd f80e 7e3d 42de 693d
000001a0: 821a dabc 9305 ea3c 8a12 f4bd 9833 febd
000001b0: a27a b3bb be84 e53d f851 1bbd ea24 773c
000001c0: aba0 92bd 1d17 96bd 9977 dc3d 9328 2b3d
000001d0: 60d4 ca3d 17d4 863d 1543 85bc 0fc4 233d
000001e0: 4417 a13d f316 f13d ceeb aebd 1235 8fbd
000001f0: bd77 1fbd 12e0 89bd 805e db3d c567 a5bc
00000200: 1035 c8bd 6602 69bd 47d5 073e 9942 1bbe
00000210: 09c6 90bd 5d40 113c b438 363c 100a cf3d
00000220: 6937 bd3d 4747 d7bd 6a6a d1bc 20de 9f3d
00000230: 52bb 5b3c 9242 5d3d cbdb c43d 00d2 eebd
00000240: be56 453d a5dd cbbd b077 e9bd 1edb 453d
00000250: dba4 a9bd 2b5e 153e ea50 d8bd cd58 7b3d
00000260: f684 e33d e315 6cbd 6199 c3bd e48f d3bb
00000270: 3b59 1d3c 774d 3c3d 019c 94bd 8c4a 1b3d
00000280: 85e0 5abc 44c0 c7bc 01fe 743d b94a 5dbe
00000290: 2cb3 023e 6687 b2bc 7072 8d3b db17 edbc
000002a0: f6da 1d3d b9a4 ba3d 756d 84bd 062e df3c
000002b0: 1caa 953d ee39 0cbd 1f62 a43d ee05 53bd
000002c0: dd3d b0bd 9e5c 3bbd 6a27 b9bb 5ea1 6f3d
000002d0: fcfb 96ba 234e 91bd 9d11 c73c 48f8 013e
000002e0: 146d 84bd 8d9a 01bd 004e 293d ef4d 03be
000002f0: c813 1abc 0add 793d fa7b 0fbd f7dc 00be

grucell.bias_hh f4 [192]
0.03803308 0.11481291 -0.057263255 -0.0062334067 0.027553542 -0.043468196 -0.082823955 -0.073410645
0.077667065 -0.059337504 0.06338779 0.08317756 -0.09486292 0.059828106 -0.08999684 0.040601835
-0.03335529 -0.052256927 0.004195008 0.12346432 -0.02040804 -0.12027236 0.061084863 -0.09607449
-0.121498466 -0.1193609 0.076072805 -0.046860587 0.058050673 -0.117175125 0.08650785 -0.020474898
-0.00038022271 -0.023013916 -0.05535553 0.042957712 -0.06487484 0.03416233 0.05724826 0.09970868
-0.003954336 0.10464249 -0.04261977 0.09675343 -0.081682846 -0.06807157 -0.054203954 -0.034570843
0.04512373 -0.0146854045 0.04710397 -0.045649827 0.053050835 -0.038394783 0.10565867 -0.016104937
-0.026181964 0.11901386 0.0092444 -0.008341188 0.06395939 -0.10885257 0.087854184 -0.034324363
-0.10748509 -0.05343271 -0.11972299 -0.009195685 -0.08644175 0.07926841 -0.011712308 0.024477253
-0.057031367 0.026507942 0.0660807 -0.02606821 0.09997557 0.07656229 0.002003714 0.12210839
0.11756481 -0.03824518 0.046421483 -0.056814514 -0.114240356 -0.09897948 0.07540664 -0.017796682
0.08360313 -0.042341344 -0.092142984 -0.003525935 0.059844702 0.020136664 -0.07959506 -0.0032373248
-0.055805035 0.0442126 -0.051501468 0.088076405 -0.10653501 -0.012998517 0.04412642 0.054321058
0.102099374 0.06633235 -0.09991729 -0.07714683 -0.08375867 0.04936643 0.10914826 0.03400343
0.027334815 0.009832126 0.035617296 0.041076686 0.10987738 -0.10863649 -0.018677065 0.0055180085
0.07951468 -0.02996025 -0.035579357 -0.12391308 -0.09993512 -0.07605915 0.03339197 0.07473466
0.07521993 0.029842572 -0.07154558 -0.10585068 -0.02754615 -0.04844004 0.021495918 -0.11973648
-0.092575155 0.045910913 0.022625485 0.101639695 -0.013174102 -0.0054204133 0.09615923 -0.06709106
-0.10426691 0.027191615 -0.05729493 -0.066123456 -0.02800471 -0.050562177 -0.08760559 0.0523254
0.14643592 -0.016937798 -0.07769186 0.13300158 0.025801823 -0.09519637 -0.122620046 -0.053826727
0.13586095 -0.09869925 0.06365423 -0.12124795 -0.059677012 -0.10258713 0.13596193 0.057651054
0.12477638 0.10872633 -0.0061455225 -0.08826879 -0.054005757 -0.00083821925 0.06466291 0.10062074
0.13058119 -0.06348689 -0.0060931263 0.023852237 -0.07441234 -0.033375274 0.00397773 0.0057144146
-0.021421555 0.10957369 -0.04150244 -0.13695858 0.009950616 0.06682737 0.03547497 -0.09150667
00000000: 93c8 1b3d 0823 eb3d e08c 6abd 9b41 ccbb
00000010: f7b7 e13c b50b 32bd 9b9f a9bd 5258 96bd
00000020: e90f 9f3d e20b 73bd 75d1 813d ff58 aa3d
00000030: 7e47 c2bd 510e 753d 4350 b8bd 1c4e 263d
00000040: 8e9f 08bd 5c0b 56bd 4776 893b ddda fc3d
00000050: c32e a7bc 5b51 f6bd 1f34 7a3d b4c2 c4bd
00000060: 30d4 f8bd 7d73 f4bd 0fcc 9b3d e3f0 3fbd
00000070: 8bc6 6d3d 83f9 efbd 072b b13d f9ba a7bc
00000080: a158 c7b9 ae87 bcbc 7bbc 62bd 6df4 2f3d
00000090: 1add 84bd cded 0b3d 277d 6a3d 1034 cc3d
000000a0: 6093 81bb cd4e d63d 1192 2ebd aa26 c63d
000000b0: 5649 a7bd 1b69 8bbd f704 5ebd 289a 0dbd
000000c0: a9d3 383d 0d9b 70bc 18f0 403d 50fb 3abd
000000d0: d54b 593d d943 1dbd 9363 d83d 80ee 83bc
000000e0: 8f7b d6bc 8abd f33d d375 173c 7aa9 08bc
000000f0: 24fd 823d 19ee debd e5ec b33d b497 0cbd
00000100: 2521 dcbd 42dc 5abd 5431 f5bd 80a9 16bc
00000110: 5f08 b1bd 7a57 a23d fbe4 3fbc 8584 c83c
00000120: b999 69bd 2f27 d93c 5155 873d 008d d5bc
00000130: febf cc3d b1cc 9c3d be50 033b f713 fa3d
00000140: d2c5 f03d faa6 1cbd 7424 3e3d 56b6 68bd
00000150: d9f6 e9bd c1b5 cabd cc6e 9a3d 59ca 91bc
00000160: 1e38 ab3d 1e6e 2dbd 76b5 bcbd 6013 67bb
00000170: b81f 753d a5f5 a43c bc02 a3bd 4c29 54bb
00000180: d293 64bd 4518 353d 34f3 52bd 6761 b43d
00000190: 072f dabd bbf7 54bc e8bd 343d c27f 5e3d
000001a0: 7a19 d13d 41d9 873d 70a1 ccbd 28ff 9dbd
000001b0: aa89 abbd 7434 4a3d 1f89 df3d 2e47 0b3d
000001c0: 43ed df3c ed16 213c 71e3 113d 0740 283d
000001d0: 6407 e13d cf7c debd a500 99bc 69d0 b43b
000001e0: 98d8 a23d 336f f5bc a9bb 11bd 24c6 fdbd
000001f0: c9aa ccbd e6c4 9bbd 05c6 083d 7c0e 993d
00000200: e80c 9a3d 6978 f43c 7d86 92bd 3ec8 d8bd
00000210: 77a8 e1bc 1069 46bd 3518 b03c 6638 f5bd
00000220: 0b98 bdbd 150d 3c3d 1559 b93c 7928 d03d
00000230: 30d8 57bc b99d b1bb 21ef c43d 0a67 89bd
00000240: e489 d5bd f3c0 de3c 17ae 6abd bc6b 87bd
00000250: 226a e5bc 491a 4fbd 8f6a b3bd 2953 563d
00000260: 4cf3 153e 23c1 8abc e91c 9fbd 9131 083e
00000270: 585e d33c 50f6 c2bd 3820 fbbd 6a79 5cbd
00000280: 221f 0b3e d522 cabd 265d 823d d850 f8bd
00000290: e26f 74bd 3419 d2bd 9b39 0b3e 8323 6c3d
000002a0: c28a ff3d e9ab de3d 6160 c9bb 44c6 b4bd
000002b0: 2435 5dbd f1bb 5bba fd6d 843d 3f12 ce3d
000002c0: 13b7 053e 6a05 82bd d9a8 c7bb c465 c33c
000002d0: 7f65 98bd 83b4 08bd 9e57 823b fc3f bb3b
000002e0: 427c afbc 2c68 e03d 76fe 29bd df3e 0cbe
000002f0: e907 233c cadc 883d 344e 113d d967 bbbd

linear.weight f4 [2, 64]
0.09928836 -0.07479425 0.05646677 0.09381955 -0.0658626 -0.002307586 0.114703916 0.075774156
-0.1031134 0.11302859 0.0011807659 0.07994333 -0.06594221 0.0014351236 -0.07184435 0.04925969
-0.043162934 0.039021958 0.067533694 -0.02924461 -0.018189441 0.05208478 -0.08088044 0.029478163
-0.10225431 -0.09990653 0.07394385 0.05154396 0.06719415 -0.045341663 0.06493252 -0.030033464
-0.024736272 0.09604476 0.0936087 0.0050139376 -0.10808599 -0.10012371 -0.078945756 -0.031578276
-0.11610597 -0.011856673 0.08534122 -0.05920152 -0.006367516 -0.12252063 -0.08106874 -0.09843201
0.08545766 -0.011078466 -0.098543435 0.10210127 -0.11662692 -0.037011355 -0.0010620039 0.015187947
-0.008667487 -0.032368343 0.066883154 -0.051844075 -0.0812455 0.013395199 0.091270685 0.031534865
0.07267863 -0.028189387 -0.08894848 0.0068095406 -0.0067143817 -0.058062952 0.076835975 -0.118293345
-0.07588349 0.07237263 -0.10904464 -0.12762338 -0.018865228 0.08723641 0.04422687 0.065537624
-0.026821773 -0.029438876 0.04889448 -0.10713035 -0.00467241 -0.021105427 -0.0692991 -0.012824302
-0.001384557 -0.086803555 0.096055746 -0.11312848 0.055996113 -0.025827132 0.013660904 0.11609244
0.0055676894 0.032273747 -0.064253 -0.046967816 0.052881494 0.05615469 0.007085356 0.10195455
0.00620349 -0.0078044874 -0.07328058 -0.04559802 -0.12535998 -0.04748896 0.10088772 -0.06567195
-0.010380191 0.0480161 -0.045134425 -0.021694519 -0.0013013361 0.08356634 0.058126066 0.049416486
0.096313745 -0.12823439 0.017683255 -0.08279868 -0.055883214 -0.04668663 0.1100763 0.014662025
00000000: b257 cb3d ba2d 99bd b349 673d 7724 c03d
00000010: f9e2 86bd de3a 17bb e3e9 ea3d 7b2f 9b3d
00000020: 1e2d d3bd 897b e73d eec3 9a3a 54b9 a33d
00000030: b60c 87bd c21a bc3a 2123 93bd 87c4 493d
00000040: 9ecb 30bd 7dd5 1f3d 1b4f 8a3d 6492 efbc
00000050: 0602 95bc da56 553d a5a4 a5bd 307c f13c
00000060: b56a d1bd cb9b ccbd e06f 973d c21f 533d
00000070: 169d 893d 2eb8 39bd 57fb 843d bd08 f6bc
00000080: b9a3 cabc 1db3 c43d ebb5 bf3d f54b a43b
00000090: 305c ddbd a90d cdbd 50ae a1bd 3958 01bd
000000a0: f8c8 edbd 7e42 42bc 61c7 ae3d 4b7d 72bd
000000b0: 98a6 d0bb 19ec fabd 5e07 a6bd b996 c9bd
000000c0: 6d04 af3d 7482 35bc 24d1 c9bd 781a d13d
000000d0: 18da eebd 3899 17bd f032 8bba ded6 783c
000000e0: 1302 0ebc ab94 04bd 09fa 883d 745a 54bd
000000f0: 0a64 a6bd 8977 5b3c 20ec ba3d b42a 013d
00000100: 89d8 943d 6eed e6bc 9f2a b6bd 9122 df3b
00000110: 5104 dcbb 6bd3 6dbd 2e5c 9d3d c843 f2bd
00000120: ce68 9bbd 1a38 943d cc52 dfbd b4af 02be
00000130: 408b 9abc 01a9 b23d 3c27 353d 9738 863d
00000140: 56b9 dbbc cc29 f1bc 9445 483d 2867 dbbd
00000150: 041b 99bb 4ae5 acbc b0ec 8dbd 051d 52bc
00000160: 067a b5ba 10c6 b1bd e0b8 c43d e8af e7bd
00000170: 2e5c 653d 6c93 d3bc fcd1 5f3c e0c1 ed3d
00000180: 2a71 b63b 7a31 043d 1497 83bd 5361 40bd
00000190: 449a 583d 7602 663d 462c e83b 8ccd d03d
000001a0: a546 cb3b c9bc ffbb 2114 96bd fdc4 3abd
000001b0: 5e5e 00be c983 42bd 399e ce3d 047f 86bd
000001c0: ad11 2abc 88ac 443d e0de 38bd b4b8 b1bc
000001d0: 9891 aaba d424 ab3d 9915 6e3d f168 4a3d
000001e0: 2440 c53d e04f 03be 79dc 903c 5b92 a9bd
000001f0: cce5 64bd 7b3a 3fbd af6f e13d fd38 703c

linear.bias f4 [2]
0.096998565 0.03397618
00000000: 2fa7 c63d 9b2a 0b3d

linear_final.weight f4 [5, 64]
0.054598328 -0.0832776 -0.0044470336 -0.032364953 -0.033026244 -0.05915695 -0.11352685 0.0068232617
0.0038722644 -0.014458849 -0.10390184 0.07818324 0.077202715 0.038082458 -0.07903594 -0.05703424
0.029528737 -0.081384726 -0.04642457 0.0835805 0.05567957 -0.088233635 -0.017272525 0.037124205
-0.07636015 -0.046900004 -0.049908772 0.042152885 0.011900259 -0.080552086 0.016718809 0.05272864
0.061042797 0.038558383 -0.01590149 0.06288833 0.053184416 -0.055731837 0.09724187 -0.047313742
-0.09808071 0.0676218 0.08829367 -0.048372608 -0.0030716856 0.018060962 -0.0577499 0.0118041765
-0.05141153 -0.056134146 0.023592524 0.083246015 0.046980098 -0.007848905 0.062178038 -0.11664661
-0.08933249 0.019568015 0.008511489 0.044514496 0.019895568 -0.056247145 0.053967465 -0.04149114
0.008530391 0.010138241 0.013831539 -0.020701824 0.040341306 0.00856637 0.008502527 0.020091886
-0.052311033 0.021193711 -0.009294297 -0.016527005 0.0004965144 -0.034608174 -0.028911138 -0.0019149965
-0.010797009 0.022567969 0.012820591 0.033566114 0.030272676 -0.069569565 0.07445546 0.065755114
-0.04380042 0.03259201 0.041559707 -0.04742148 -0.015401047 -0.023831084 0.066792145 -0.027345376
-0.006634104 0.0013361227 -0.0053206393 -0.002533148 0.0070484485 -0.015161328 -0.005194061 0.0057483413
0.0316949 0.014771446 0.0028587463 -0.0053044427 0.007092141 -0.013812408 -0.049421843 -0.0038268801
-0.025214836 0.015575384 -0.017207155 -0.0072497064 -0.044429965 0.010713517 -0.009410204 -0.018030407
-0.040040333 -0.04224452 0.027961588 0.045386218 -0.016185084 -0.03671521 -0.027304297 0.0067580417
0.167992 -0.015518718 0.03735964 0.16025324 0.15527065 0.04211593 -0.04798406 -0.039341748
0.0013404208 0.11103684 0.051963367 0.046683557 0.10589584 -0.11641824 -0.015930967 -0.006069386
-0.05176683 0.08900236 0.1399883 -0.091102086 0.12907998 -0.005547953 0.15261371 0.0052339635
-0.20405582 -0.018931555 0.16560972 -0.008216158 0.07226601 0.0398347 0.028120443 0.018450048
-0.05864496 0.12608495 0.04636512 0.23144726 0.005576044 0.16946484 -0.11514632 -0.10834205
-0.0024829556 -0.15619577 0.03547955 -0.067507856 -0.022807684 0.15178291 -0.18203087 -0.11419558
0.09762799 -0.030238286 -0.030764937 -0.12759504 0.062215492 -0.01918767 -0.1315014 -0.17663378
-0.11581427 0.008359979 0.1147289 0.19374557 0.064371176 0.010493829 0.06609402 0.113351725
0.12760878 0.06791118 -0.212125 0.26793346 0.21796611 -0.041007057 -0.16646412 -0.08141441
-0.09842502 0.12981962 -0.11549626 -0.20453064 0.104810655 -0.056844622 -0.23886111 0.30152273
0.00057937135 0.062711164 0.24550033 0.006504701 0.22765777 -0.29912496 0.22532076 0.03640593
-0.3051284 0.071538374 0.19311313 -0.100441724 -0.111247376 0.08805225 0.23607774 -0.15671484
-0.22501889 0.051965542 -0.16420463 0.4211562 -0.18219428 0.051980015 0.012585977 0.10778635
-0.14783603 -0.3783239 0.073876046 0.06311256 -0.08816694 0.07527513 -0.3023818 0.05002228
-0.13549624 0.08786023 0.04880781 -0.09108962 0.06300103 0.21439597 -0.10043916 -0.2379219
0.09751435 -0.15812698 -0.033802405 0.34543946 -0.061177727 -0.1638674 -0.07033818 0.2485643
00000000: 7fa2 5f3d 728d aabd 6cb8 91bb 1d91 04bd
00000010: 8746 07bd 8f4e 72bd c480 e8bd ab95 df3b
00000020: d1c5 7d3b cfe4 6cbc 7dca d4bd 891e a03d
00000030: 751c 9e3d 5afc 1b3d 98dd a1bd bc9c 69bd
00000040: 40e6 f13c 09ad a6bd b127 3ebd 412c ab3d
00000050: 4310 643d d6b3 b4bd 1c7f 8dbc 8d0f 183d
00000060: b662 9cbd 381a 40bd 246d 4cbd 81a8 2c3d
00000070: 4ef9 423c 7ef8 a4bd e2f5 883c fdf9 573d
00000080: 0308 7a3d 65ef 1d3d d743 82bc 99cb 803d
00000090: e7d7 593d 1147 64bd bf26 c73d 0ecc 41bd
000000a0: 8ade c8bd 4c7d 8a3d 50d3 b43d 5b22 46bd
000000b0: 554e 49bb 95f4 933c 298b 6cbd 4e66 413c
000000c0: e594 52bd ebec 65bd 1c45 c13c e37c aa3d
000000d0: 346e 403d b298 00bc 66ae 7e3d 6be4 eebd
000000e0: f4f3 b6bd 1a4d a03c c673 0b3c d554 363d
000000f0: 08fc a23c 6863 66bd fd0c 5d3d 9df2 29bd
00000100: 0ec3 0b3c dd1a 263c ae9d 623c df96 a9bc
00000110: ed3c 253d f659 0c3c 2f4e 0b3c bd97 a43c
00000120: 1844 56bd 6f9e ad3c 1b47 18bc a463 87bc
00000130: 8428 023a 4dc1 0dbd 0dd7 ecbc 9f00 fbba
00000140: f0e5 30bc 76e0 b83c 750d 523c 9f7c 093d
00000150: 67fe f73c 7d7a 8ebd 1b7c 983d 9eaa 863d
00000160: 1268 33bd 337f 053d 833a 2a3d 073d 42bd
00000170: ac54 7cbc 6839 c3bc 52ca 883d 6903 e0bc
00000180: e662 d9bb d720 af3a c258 aebb 2c03 26bb
00000190: acf6 e63b 3867 78bc f132 aabb 955c bc3b
000001a0: 83d2 013d ef03 723c ce59 3b3b e4d0 adbb
000001b0: 3165 e83b 704d 62bc 8f6e 4abd 65cc 7abb
000001c0: 588f cebc e52f 7f3c 05f6 8cbc f28e edbb
000001d0: 32fc 35bd bf87 2f3c 422d 1abc 81b4 93bc
000001e0: 5501 24bd 9708 2dbd b30f e53c e6e6 393d
000001f0: 9596 84bc b062 16bd 43ad dfbc 9072 dd3b
00000200: 1806 2c3e 3942 7ebc 6c06 193d 6d19 243e
00000210: 45ff 1e3e c181 2c3d ef8a 44bd d024 21bd
00000220: 0fb1 af3a 4867 e33d 8ad7 543d 4237 3f3d
00000230: ebdf d83d b06c eebd a981 82bc b3e1 c6bb
00000240: 7509 54bd df46 b63d 1859 0f3e bb93 babd
00000250: 8b2d 043e 9acb b5bb c546 1c3e ab81 ab3b
00000260: 02f4 50be 5916 9bbc 9895 293e 109d 06bc
00000270: 3400 943d b629 233d d85c e63c 8e24 973c
00000280: b335 70bd 6a1c 013e 5ae9 3d3d 8300 6d3e
00000290: 3fb7 b63b 3188 2d3e d5d1 ebbd 70e2 ddbd
000002a0: 15b9 22bb c9f1 1fbe 0153 113d 8f41 8abd
000002b0: 2ed7 babc fb6c 1b3e 4d66 3abe 5fdf e9bd
000002c0: 2ff1 c73d 48b6 f7bc c006 fcbc 46a8 02be
000002d0: acd5 7e3d 762f 9dbc 4ea8 06be 7cdf 34be
000002e0: 0830 edbd 4bf8 083c fcf6 ea3d 3d65 463e
000002f0: 09d5 833d 4fee 2b3c 4d5c 873d f324 e83d
00000300: e0ab 023e 0415 8b3d 4c37 59be 932e 893e
00000310: 8232 5f3e 04f7 27bd 9275 2abe 99bc a6bd
00000320: 0f93 c9bd 6fef 043e 4e89 ecbd 7b70 51be
00000330: f8a6 d63d e8d5 68bd 0298 74be 3061 9a3e
00000340: f4e0 173a b66e 803d 7064 7b3e 6325 d53b
00000350: 1e1f 693e e826 99be 7cba 663e 621e 153d
00000360: ca39 9cbe b682 923d 73bf 453e 64b4 cdbd
00000370: aad5 e3bd bd54 b43d 5dbe 713e db79 20be
00000380: 5a6b 66be d2d9 543d 4225 28be c9a1 d73e
00000390: 2391 3abe ffe8 543d 6a35 4e3c 17bf dc3d
000003a0: 5462 17be acb3 c1be 534c 973d 2841 813d
000003b0: de90 b4bd d929 9a3d cad1 9abe 2ae4 4c3d
000003c0: 87bf 0abe 10f0 b33d b3ea 473d 328d babd
000003d0: af06 813d 9e8a 5b3e 0cb3 cdbd cca1 73be
000003e0: 9bb5 c73d 0aec 21be 6474 0abd 71dd b03e
000003f0: 7f95 7abd dbcc 27be 770d 90bd a487 7e3e

linear_final.bias f4 [5]
0.025675897 0.08449587 -0.59875834 -1.0375369 -0.13538028
00000000: 4256 d23c 2c0c ad3d 3a48 19bf 02ce 84bf
00000010: 21a1 0abe
