results1_checkpoint/hotel/val_best.pth (torch_old, 57359 bytes, 12 tensors)

gcn.gc1.weight f4 [2, 64]
00000000: e2f9 ebb8 72fe 523a 9af9 a03b cb41 9fba
00000010: 5023 7fbb 3fd0 80bb cb73 3f3a 186b 7739
00000020: 5a86 95bb 6ef8 533b 8268 84bb 56e4 e5bb
00000030: 446d c63a 4fd3 f4ba c020 4a3a 176e 183b
00000040: afbd 873a ecd6 af3b a7db 663b e286 c2bb
00000050: 1e79 7abb 4fd0 e139 b9bb a8bb 09cf b5ba
00000060: c35c 1f3c 9876 e83b 710e c2ba e379 9bb8
00000070: ddfd 8dbb 9fe0 c43b 9549 bb3b c8f8 043b
00000080: e89d bbbb 7f7d 583b 7b7b 8abb 267a 98bb
00000090: 97c3 9fbb 4a96 db3b 1c9a 1a38 a559 a0ba
000000a0: 110f 94bb 6800 50bb 3aff 263b 8213 533b
000000b0: df61 8c3a 1033 51bb bf29 adb7 4ca8 ca3a
000000c0: b032 9fba 6547 9438 e4d3 813b 618d 13bb
000000d0: b8ab c0bb 7c87 003c 65cf ab3b 87b3 1dbb
000000e0: 9162 62bb b45c 75bb da03 b7ba b966 ccba
000000f0: c780 b2ba 1794 cb38 186a 8fbb 46cc b339
00000100: 1e96 ceb9 b23f 8a3a 5c06 2f3b 00ed 58bb
00000110: a607 97bb e6eb e338 186c bb3a 1e5d aa3b
00000120: 3bc5 09ba 8e74 cfbb 1714 a5bb 84b1 2b3a
00000130: 1fbb 013b 1ad8 f6ba 1943 8839 1abf 063b
00000140: 51c6 cfbb 05ad 38ba b01e f2ba 6bc1 36bb
00000150: d01c 883a 1751 cf3a 6f12 12bb 52ae c23b
00000160: d543 58bb a5a7 9aba e5b8 aabb e390 ad3a
00000170: b2b7 793b 73ec 7a3b 992e 623b d7e5 13ba
00000180: fe81 c3ba edd4 393b 2aa7 ec39 57a1 233b
00000190: 88c6 423b 1419 9bbb f96f 51bb e067 d5ba
000001a0: 2d15 353b 62c3 9d3b 3836 4bb9 6e02 703b
000001b0: 5419 39bb f149 9a3a c8e7 f73a 027d 21bb
000001c0: 1ccf 883a 1ddc 06bb 7a06 533b a1be f8bb
000001d0: 471e 3c3b 7bd2 b5ba fd55 3eba 9b6f 45bb
000001e0: 784b b13a 6c93 8abb 5946 d93a be40 af39
000001f0: c81f 823b 021f 223b bc8d e9b9 9bbb 1bba
-0.000112522175 0.00080487796 0.0049125673 -0.0012150345 -0.003893096 -0.003931075 0.0007303326 0.00023595651
-0.004563135 0.003234412 -0.0040407786 -0.007015745 0.0015138765 -0.0018678698 0.00077105686 0.0023258978
0.0010356213 0.005366197 0.0035226138 -0.0059364894 -0.0038219164 0.00043070546 -0.0051493314 -0.0013870905
0.009726706 0.0070942156 -0.0014805329 -7.413679e-05 -0.0043332414 0.0060082222 0.005715559 0.0020289887
-0.005725611 0.0033033786 -0.004226146 -0.004653233 -0.004875611 0.0067012655 3.6859987e-05 -0.0012233747
-0.0045183976 -0.0031738523 0.0025481717 0.0032207672 0.001071032 -0.0031921305 -2.0642647e-05 0.0015461533
-0.0012145843 7.070488e-05 0.003962027 -0.0022514688 -0.0058798455 0.007844802 0.005243229 -0.0024063305
-0.0034543613 -0.0037439289 -0.001396294 -0.0015594579 -0.0013618701 9.707378e-05 -0.004376661 0.00034293736
-0.00039403228 0.0010547547 0.0026706671 -0.0033100247 -0.004609066 0.00010868143 0.0014299182 0.0051990887
-0.0005255525 -0.006331033 -0.0050377953 0.0006549584 0.001979537 -0.0018832714 0.00025989933 0.0020560683
-0.00634078 -0.0007044825 -0.001847228 -0.0027886282 0.0010384563 0.0015817013 -0.002228882 0.0059411908
-0.0032999415 -0.001179923 -0.0052100294 0.0013242032 0.0038103876 0.0038287907 0.0034512638 -0.0005641854
-0.001491606 0.0028355673 0.00045137975 0.0024967992 0.0029720385 -0.004733214 -0.003195761 -0.0016281568
0.002763103 0.004814551 -0.00019379787 0.0036622542 -0.0028243857 0.0011771304 0.0018913681 -0.002464116
0.00104377 -0.0020577975 0.0032199905 -0.007591084 0.002870457 -0.0013871932 -0.0007260738 -0.0030126336
0.001352652 -0.004229 0.0016576751 0.00033426838 0.003971074 0.002473772 -0.00044546823 -0.0005940736

gcn.gc1.bias f4 [64]
00000000: ce11 2938 ed57 c838 f3fd a9b8 f8db 99b9
00000010: 30a2 c839 b9ae 8038 75e3 3a37 0352 1238
00000020: 125e 2ab8 8aff 7a38 835b c738 0ada ee38
00000030: 656e 5eb8 9c38 0c39 34b8 c438 0c95 c238
00000040: 336e 5ab8 27d7 d8b7 a41d f5b7 c695 0639
00000050: 602c bc37 b033 1b39 550b 8e38 4c97 a5b7
00000060: e531 0bb8 1e1f a0b7 0fe2 86b8 164b 2f38
00000070: 9875 76b9 6d59 71b8 06e6 5339 e241 9337
00000080: 038d e3b7 5e11 1e39 418a b037 6714 5bb9
00000090: f886 1339 115f 8438 1d63 2039 20fc ba38
000000a0: 4c34 8839 8c45 e538 f253 0d38 1fc6 fd37
000000b0: 5eca 5139 52f9 8038 b721 00b9 8ac0 9cb8
000000c0: 6c72 c738 4094 17b9 b8b1 cbb8 613c 7bb7
000000d0: 0618 15b9 9830 b4b7 2243 52b6 5a5d 02b9
000000e0: c3fe bc38 5172 8bb9 d658 b538 c88f 5538
000000f0: 3c50 0639 c516 27b9 11f8 a4b8 48e1 7cb7
4.030932e-05 9.5531206e-05 -8.10585e-05 -0.00029346324 0.00038267812 6.13606e-05 1.1139423e-05 3.4885492e-05
-4.061877e-05 5.9842634e-05 9.506105e-05 0.00011389337 -5.3031737e-05 0.00013372529 9.380319e-05 9.278403e-05
-5.207788e-05 -2.5849395e-05 -2.9220078e-05 0.00012835031 2.243201e-05 0.00014801207 6.7731984e-05 -1.9739986e-05
-3.318665e-05 -1.9087976e-05 -6.4317246e-05 4.179318e-05 -0.00023504195 -5.754216e-05 0.00020208218 1.7554445e-05
-2.7126172e-05 0.00015074524 2.1045214e-05 -0.00020893068 0.00014069292 6.311958e-05 0.00015295712 8.916133e-05
0.00025978906 0.00010932525 3.36952e-05 3.0252208e-05 0.00020007181 6.149955e-05 -0.00012219591 -7.474523e-05
9.510372e-05 -0.0001445571 -9.712897e-05 -1.4974824e-05 -0.00014218697 -2.14803e-05 -3.1331515e-06 -0.00012432542
9.011992e-05 -0.00026597318 8.6472995e-05 5.0917064e-05 0.00012809125 -0.00015934843 -7.866335e-05 -1.5072823e-05

gcn.gc2.weight f4 [64, 2]
00000000: 4484 41bb c3b0 9ebb aa64 17bb de09 1b3b
00000010: 9070 643b e6cd d6ba f945 393b ecb0 9d3b
00000020: 7ad6 f539 470b 43bc efc8 84bb 366d 883a
00000030: c450 e33a 35a1 e83a 37be c4ba 5fee 5cba
00000040: 34fc 3c3b af19 96ba b1b0 06b9 9610 07bb
00000050: 0e5f be38 eee7 1fbb 8a8e 02bb 23d3 bdbb
00000060: cd9d bf3a a11d 21ba 2311 90bb b319 89bb
00000070: 33bc 11bc 7ae9 193b 6987 8bbb 7793 3b3a
00000080: cd93 e3ba 4f71 223a 57b4 b63b 5aa3 6aba
00000090: c862 c73a e2df 423b abb7 83bb 0051 48bb
000000a0: 034f 5eba a2e3 9db8 7de0 efbb aa66 413a
000000b0: 5a2b 583b 95bb 89bb a74c 76ba c3a3 30bb
000000c0: ed34 f83b eb4a 8b3b 0062 8cba b003 c13b
000000d0: 0b50 a2ba a5b2 913a 6c71 aeba 2e93 b0b8
000000e0: b510 ba3b eca4 dbba f316 b83b a5ab 893a
000000f0: 7e62 bbbb db0f 033c 0ddc 963b 0aae 89bb
00000100: d628 f9b9 e18e b43a 7437 0bbb b747 b93b
00000110: 86b9 e239 fa74 1abb 2564 9a3b 4f5c 823b
00000120: 1a30 a4bb 06c7 4b3a 161a 0a3b d7c6 70bb
00000130: 6a55 b23b b45d 1cba a78a 50bb a8a1 48bb
00000140: db85 19bc b931 cdba 19b6 1bbb fc24 0e3b
00000150: 6f59 cabb dc2b e839 810a 2a3b 0e08 593b
00000160: 0aaa 5b3b 2642 a2bb cc3f 81bb 389b 9c3b
00000170: 1c4e b33a fcef 2fbb fbe9 e5ba 4839 123b
00000180: ec8c 68bb e89c 2a3a b1b3 fab9 a1c7 353b
00000190: 676a 8a3a ee7d 80bb 6545 60bb 276b 41b9
000001a0: 36fe 8e3b a432 ac39 e065 e83b 1b68 05bb
000001b0: b35d 78ba ccd7 113b a6db 41bb b81f 663b
000001c0: 712b 6ebb 8fc9 303a e60a 943b 2064 903b
000001d0: d892 f7ba 7784 823b c6db 4fbb 6312 b23a
000001e0: 2c15 883a 3f9c f23b 85b6 e13a b80d 67bb
000001f0: 2f44 413b 270a 6e3a 2c21 3f39 0335 063a
-0.00295283 -0.004842849 -0.0023100772 0.0023657004 0.0034857132 -0.0016388267 0.0028270467 0.0048123505
0.0004688984 -0.011904544 -0.0040522735 0.0010408524 0.0017342796 0.0017748239 -0.0015010302 -0.0008427854
0.0028836848 -0.0011451746 -0.00012845059 -0.0020609251 9.077611e-05 -0.0024399715 -0.0019921386 -0.0057929917
0.0014619172 -0.00061460776 -0.004396574 -0.004183972 -0.008894968 0.002348511 -0.0042580855 0.0007155458
-0.0017362774 0.0006196694 0.0055756974 -0.0008950733 0.0015211934 0.0029735495 -0.0040196977 -0.0030565858
-0.00084804016 -7.528743e-05 -0.0073204623 0.0007377664 0.0032984824 -0.0042032697 -0.00093955774 -0.0026953078
0.0075746686 0.0042508743 -0.0010710359 0.005890332 -0.0012383474 0.0011115862 -0.0013308949 -8.419748e-05
0.005678261 -0.0016757525 0.00561797 0.0010503425 -0.0057185283 0.007999386 0.004603869 -0.0042016553
-0.00047523406 0.0013775491 -0.002124277 0.005654301 0.00043244305 -0.0023568259 0.004711645 0.003978289
-0.005010617 0.0007773492 0.0021072677 -0.0036739612 0.005442311 -0.00059648906 -0.0031820924 -0.0030613933
-0.009370293 -0.0015655077 -0.0023759662 0.0021689525 -0.006175212 0.00044283166 0.0025946202 0.0033116373
0.00335181 -0.004951733 -0.0039443728 0.0047792457 0.0013679895 -0.0026845923 -0.0017541045 0.0022311974
-0.0035484387 0.0006508366 -0.00047817596 0.0027737396 0.0010560275 -0.003921262 -0.003422105 -0.00018445832
0.0043638004 0.00032844127 0.0070922226 -0.002035624 -0.00094744115 0.002225387 -0.0029580384 0.003511412
-0.003634181 0.0006743902 0.0045179008 0.004406467 -0.0018888367 0.003983076 -0.0031716689 0.0013585802
0.0010382286 0.00740388 0.0017220533 -0.003525598 0.0029490103 0.00090804923 0.00018227537 0.00051195937

gcn.gc2.bias f4 [2]
00000000: c337 01bb a394 0c3b
-0.0019717074 0.00214509

grucell.weight_ih f4 [192, 2]
00000000: ba21 c7bd bfa7 9939 9cd1 92bd bd43 153d
00000010: fff7 81bd a95a 97bd dbc8 643d fca4 993d
00000020: e24f 86bd 9903 873d 56c8 8f3d e4ab c83d
00000030: e1e4 88bd 2068 d93d e997 2abd e7f6 fdbd
00000040: 8a96 203b faaa 09bd f47a 063d 3c72 ec3c
00000050: 5224 c73d 80aa 8cbd 0289 ac3c 1eb8 923d
00000060: b0a3 5f3d 132d ad3d 2780 c23d 6532 a93d
00000070: a5fe acbd fe83 6a3d 4a05 973d ad90 ee3d
00000080: 1522 e3bd 872f cabd 25cc d8bb 149f d53d
00000090: f3ea 7f3d 9e5f 8abd 1a6d fdbc 292e d0bc
000000a0: fac7 7a3d 5be7 1b3d 309c e03b 7d88 86bd
000000b0: 6993 4e3b b238 343d b8c7 7dbc 28a1 c43d
000000c0: c8fb 0dbd 37ef 9ebd a6e1 a2bc c527 dd3c
000000d0: 45e1 703d b25c a53d a803 57bc 2d6c 3ebd
000000e0: 3f6d a23d 76eb 85bd 2bad 62bd 9fb8 b1bd
000000f0: baa8 8cbd c6f5 94bd 38dd 65bd eb57 54bb
00000100: 4b2f d0bd 0064 05bd 5ce3 823c 319a 96bd
00000110: 1d8f d73d 16fc 2c3d 481e 043d 0c0d b6bc
00000120: 70ab 9c3c bfe1 eebd 48fd 633d d026 e1bb
00000130: c51d 7cbd 31e7 90bd 6a0c a03d 5973 823d
00000140: 07da af3d 7c12 9d3d 2171 af3d 0f39 30bd
00000150: 4fd5 e5bd 386f cbbd 8f7b f73d 3278 843d
00000160: 0685 423d 9a35 a33d c9d7 92bc 71af ea3d
00000170: 8e29 e93d c33b 71bd 5451 a03d 608d ef3d
00000180: 165b f4bd f660 a1bd c191 4a3c 753d d33d
00000190: 8446 c3bc d5a1 3cbc 5956 cabd 8d5e 3e3c
000001a0: 6468 f0bd f4c9 5dbd f2d2 e03d aaf5 f13d
000001b0: 63aa cdbc e786 193d 1bd4 b6bc 3469 43bd
000001c0: 9d93 dbbb ca1e d4bb c61a a6bd 53c9 ebbd
000001d0: fca5 b33d 238d f93d fc08 9fbd 88fc 83bd
000001e0: 8960 cbbd e7f2 b53c 7275 073d e831 74bc
000001f0: d130 cf3d 3bdb 783c 216e 3f3d 9be1 1c3d
00000200: e107 a7bd 1395 eabd a9e3 67bd 2327 64bd
00000210: d6f2 f7bd a544 7b3d 2a79 803d 1e18 dc3d
00000220: 28fa ec3d 23d1 debd e02b eb3d f5c8 91bd
00000230: 338a 2dbc 971e 84bd aa1b 823d dba5 be3d
00000240: 8250 e5bd aa1f cb3d f9bb 8b3d ff55 91bd
00000250: 871b d83d 76aa 913d 8fa9 483d 4613 0a3c
00000260: 4d4e cd3c ff8d a0bd 9ef9 e4bd 3a41 e53d
00000270: 6f4c 243d e1a1 a1bd 7275 b2bd c03f cfbd
00000280: 5d72 b5bd 5e40 e13d 115b e6bd ef3e 04bc
00000290: 986b 8cbd 746e d23d b99f a1bd 05d8 4dbd
000002a0: 613b a6bd 48d7 b73d a85d d53d 8247 7d3c
000002b0: 2a70 e6bd 8379 8fb9 70df 84bd d4d7 c83d
000002c0: 97a3 1dbd d041 6f3c 44cf a93d 416e 5abd
000002d0: f057 033d f6d5 83bd d1a1 493d 6db3 80bc
000002e0: 6fec cebd 304a b23d 7f86 eabd 0f61 cf3d
000002f0: ebf3 a2bb 8f4e d03b fdde 843c 42a6 28bd
00000300: 218b eabd be7b cf3d b5f9 33bb 9556 cdbd
00000310: 51ab 75bc 92ba e4bd 4ac9 c33d 4cbd b03c
00000320: bc92 51bc 4b7a 4fbd 9f9a 9f3d 18f4 1c3d
00000330: e479 f63d f088 913d 073a c5bd bb42 c93d
00000340: d52d df3d 09b2 803d 9d95 cbbd 0a88 0b3d
00000350: d5fd bfbb f046 c6bd b96a 0abc f21f 053c
00000360: 4602 fd3d 25a7 84bc 35ae 223a 3c82 f0bd
00000370: f44f 8bbd 981a cfbd 3eed dfbd 2812 783d
00000380: f718 363d 9740 8bbc 6820 b33d a376 8a3d
00000390: aea9 67bd a74d a83d 25d8 edbc 21a7 dd3c
000003a0: 34ce c23c 46a7 03bd 90a8 9b3d c385 523d
000003b0: 59e3 1fbd ab93 183d 5550 cd3c 8752 9bbc
000003c0: f5d3 343d ae53 f33d 931b fdbd 56fb bb3d
000003d0: 0b91 a5bd 8eb5 e0bd 9fe0 25bb d2d5 92bc
000003e0: 6f99 aa3d d688 6e3d 586f 853d 299c e6bd
000003f0: 6e01 e0bc 62f7 d2bd df5f 113d 3259 e4bd
-0.0972323 0.00029307415 -0.07168886 0.036441553 -0.063461296 -0.07390339 0.055855613 0.075021714
-0.06558205 0.06592483 0.07020633 0.097984105 -0.0668428 0.106155634 -0.04164878 -0.124006085
0.002450379 -0.03361032 0.0328321 0.028863065 0.097237244 -0.06868458 0.021061424 0.07164024
0.054599464 0.08455863 0.09497099 0.08261565 -0.08447007 0.057254784 0.07374056 0.116486885
-0.11090485 -0.09872346 -0.006616133 0.10430732 0.062479924 -0.06756519 -0.030935813 -0.025412636
0.06122587 0.038062435 0.0068545565 -0.06569002 0.0031520969 0.04399938 -0.015489511 0.096010506
-0.034663945 -0.0776047 -0.019882988 0.026996503 0.058808584 0.08074321 -0.01312343 -0.046489883
0.07930993 -0.06539051 -0.055340927 -0.08677792 -0.068681195 -0.0727344 -0.056119174 -0.0032401036
-0.101652704 -0.03256607 0.015977554 -0.073536284 0.105253436 0.042232595 0.03225544 -0.022223018
0.019124717 -0.116641514 0.05566147 -0.006871082 -0.061551828 -0.07075346 0.07814868 0.06369657
0.08586507 0.07669541 0.085664995 -0.043023165 -0.11222326 -0.09933323 0.12084114 0.06468238
0.047490142 0.07969208 -0.01792516 0.11459244 0.11384879 -0.058894884 0.07828012 0.11696887
-0.11931436 -0.07879822 0.012363852 0.103144564 -0.023837335 -0.011513193 -0.09879751 0.011619222
-0.11738661 -0.054147676 0.109777346 0.11814435 -0.02510566 0.03748217 -0.022317937 -0.04770775
-0.0067009465 -0.006473397 -0.081105754 -0.11513009 0.087718934 0.12185123 -0.077653855 -0.06444651
-0.09930522 0.022210551 0.03307099 -0.014904477 0.10116733 0.015188987 0.046735886 0.03830109
-0.081558 -0.11454215 -0.056613598 -0.055701386 -0.12106864 0.06134476 0.0627311 0.107467875
0.11571151 -0.108797334 0.11482978 -0.07118408 -0.010592031 -0.06451147 0.06352933 0.09308978
-0.11196996 0.09918149 0.06822962 -0.070964806 0.105521254 0.07112591 0.04898983 0.008427447
0.02506175 -0.078395836 -0.11180423 0.111940816 0.040111955 -0.07892204 -0.08713807 -0.10119581
-0.08859704 0.10998605 -0.11247838 -0.008071645 -0.068564594 0.102749735 -0.07891793 -0.05025484
-0.081167944 0.089766085 0.10418254 0.015458943 -0.11251862 -0.0002736562 -0.0648793 0.09806791
-0.03848609 0.014603093 0.08291486 -0.053327803 0.032066286 -0.06437294 0.049226586 -0.015710557
-0.1010369 0.087055564 -0.11451434 0.10125934 -0.004972925 0.006357021 0.01621961 -0.04117418
-0.11452318 0.10131024 -0.002746207 -0.1002628 -0.014994458 -0.11168398 0.09559877 0.021574639
-0.012791332 -0.050653737 0.077931635 0.038318723 0.120349675 0.07106197 -0.096302085 0.09827181
0.10897414 0.062839575 -0.09940646 0.034065284 -0.0058591166 -0.09681499 -0.008448296 0.008125292
0.12353949 -0.016192982 0.00062057684 -0.1174359 -0.06802359 -0.10112494 -0.10933922 0.06056419
0.044457402 -0.016998572 0.087464154 0.067609094 -0.056558304 0.08217936 -0.02903373 0.027057232
0.023779966 -0.032141946 0.0760051 0.051397096 -0.039035175 0.037250202 0.02506272 -0.01896025
0.04414745 0.11881195 -0.12358775 0.09178798 -0.080843054 -0.10972129 -0.0025310887 -0.017924223
0.083300464 0.058235966 0.06515378 -0.11260254 -0.027344432 -0.10301091 0.03549182 -0.11149825

grucell.weight_hh f4 [192, 64]
00000000: 2df2 7cbd 8c61 3bbc c4da a93c 7ee1 a4bd
00000010: 6784 edbd 2df1 d03d 15fa 06bd 0b27 a8bd
00000020: 0a6a af3d 9226 f23d 39d7 85bd fe9a 40bd
00000030: 06f3 953d d200 00be d0aa d5bd c6ff 07bd
00000040: f7d5 9cbd 6f66 57bd 37a9 bebd 82fb dcbc
00000050: 0ed3 b5bd 618e 4b3d 053f aa3d 7c87 32bd
00000060: aba6 10bd 42db 3e3d 375c 44bd ee5a b7bd
00000070: 71e1 0e3d e426 f9bc ecbf 44bd d1d9 413d
00000080: e65a e0bd 37d7 483d acd8 913d eabd 83bc
00000090: 7eb6 c7bd 38e5 babd 6a95 48bd 52ee 1fbd
000000a0: 3f91 d3bb 1e7c 793c 07d7 a0bc 6bf1 2ebd
000000b0: b6c7 a2bd e816 cfbd 048b 9cbd 4363 4fbc
000000c0: 58e9 373d ac76 3c3c e9ee a8bd 33a3 46bd
000000d0: 627a 463d 6a2a a4bd 0298 98bd 94bb a9bd
000000e0: 470f 5dbb 7b96 7abd ff39 9fbd cb07 bf3d
000000f0: ee23 a8bd 674c d4bd af8f ca3d 29ff 91bd
00000100: d3a0 b2bd e857 fd3d 4813 f8bd bd48 4abd
00000110: b002 403d 994d d0bc fb50 f73d 4c13 34bd
00000120: 51d3 2cbd d681 84bd d3f8 32bd a62a 083c
00000130: e33b 7bbd a6f0 f9bd 9c01 d2bd 5774 dfbd
00000140: bdb2 2abd 73ed a13d 1b6a ab3d 59ba 86bd
00000150: b36b a13d d6b2 b63d 0389 963d dcdc 97ba
00000160: 8b16 0cbc 7ed8 8abb 21d7 503d 9bd0 823d
00000170: 4340 d3bb c400 ec3d f137 c5bd 692f 92bd
00000180: 7e18 15bc f79b 5c3c b91e b03d 1314 33bd
00000190: b7eb 573c 2fab 9cbd 4e41 98bd af78 f2bc
000001a0: 78c5 58bc 2b5d a93d 5cf4 66bd add5 813a
000001b0: 4ede a93c b9ef 383d caf4 143d f93d 68bd
000001c0: 30cd d73d c729 b4bd db6b 41bd 3bcf 7d3c
000001d0: 4470 063d 411f e4bc 354b 473d 6a87 88bd
000001e0: c5b7 aabb a210 9c3d b77f ccbd 2247 423c
000001f0: 2002 d63d 8a8c 39b9 9f71 f33d 7e2a ec3d
00000200: 71d6 ca3d 104a 2bbd 9418 d83c 860d ebbc
00000210: c632 b1bd 74d7 f23c c947 a6bd b243 e3bd
00000220: 5d0f 68bd a6e5 2bbc 6a2b f8bc 0fba a83c
00000230: e966 b33a 7bf0 35bd 73ba b13d 8588 68bd
00000240: 6115 723d 3544 e23d fb24 f93d 56cf a7bc
00000250: 2aea 923d 161a 563b 5257 afbd 5c31 6fbd
00000260: 1136 bfbd f5eb e7ba 9feb acbd a972 c2bd
00000270: ff3c 74bd 8fa9 fcbd 1efe 2ebd 092a ffbd
00000280: ce0b 913d 27bd 853d 2909 0bbd 13a1 d7bd
00000290: c4df 133d e890 bcbd 3123 b33d 3f4b 87bd
000002a0: 08d6 9dbd 8a0c 5a3b 7a69 413d 3a94 a73d
000002b0: 6f3e 193d f5d2 cb3d 1765 1a3d a06b 33bd
000002c0: abb0 ecbc b3ac 893d de92 333d ae17 53bd
000002d0: 8765 75bd bb35 b3bd 9354 4e3c c16f 8b3d
000002e0: 18dd 8a3d 0810 e0bd bb9f a1bd 6a0f 383c
000002f0: 462b b03c aa92 a0bb 63ca 96bb d026 933d
00000300: 2c3d 24bd 5a26 973d 3641 e93d 2fa3 debd
00000310: 9693 4c3c 8994 c6bc 5247 bd3d 97ed 6d3d
00000320: 7495 f83d 299c 23bd 1699 79bd fffa 04bd
00000330: 8198 b13d ab33 e23d d4d2 153d 743a 363d
00000340: b2ec 953d 4f1e bd3d e73c b1bd ba7e acbd
00000350: 614c 1d3c 1b0d bb3d 8e0a e2bd a28e b6bd
00000360: 6878 723d d61f 5f3c 5dd6 2bbd 04c0 463c
00000370: 12fb 783c f152 6bbd 0be0 dcbd b4a9 46bb
00000380: e211 6bbd 2f59 ea3d 9457 823d 2d5c c8bc
00000390: 0a58 9a3d 9ddc f73d e7f6 dd3d 041e 6e3d
000003a0: f230 ee3b bd6b f2bd 7bab 9bbd e472 b73d
000003b0: 6370 eabd 3881 f2bc 2a4f e6bb 8fa5 84bd
000003c0: 268c d73b b3b8 1c3d 081d c83d 13aa 71bd
000003d0: 2cf3 ce3d 08b4 f1bc 9550 ed3d c7ab c13d
000003e0: 9fb9 d8bd 6b25 ca3d 064d 28bd 0122 c7bd
000003f0: e8b5 94bd 0c4d e33d ebfe 90bd a0f4 7ebd
-0.061754394 -0.011436831 0.020734198 -0.08050822 -0.11597519 0.10202251 -0.03295334 -0.08210572
0.08565147 0.11823763 -0.06535191 -0.047022812 0.07321744 -0.12500313 -0.104329705 -0.03320291
-0.07657998 -0.052587923 -0.09309619 -0.026975397 -0.08878146 0.04969633 0.08312801 -0.04358624
-0.035315197 0.04659582 -0.047939505 -0.0895289 0.034882966 -0.030414052 -0.048034593 0.047326867
-0.109548375 0.04903337 0.07121405 -0.016081769 -0.097516045 -0.09125751 -0.048970617 -0.03904564
-0.0064565237 0.015227346 -0.019633783 -0.042710703 -0.07948248 -0.10111791 -0.076437026 -0.012657943
0.04490027 0.011502903 -0.082486935 -0.048495483 0.048456557 -0.08015902 -0.07450868 -0.08287731
-0.003373103 -0.061178666 -0.07774734 0.09327658 -0.08209978 -0.10366135 0.09890687 -0.07128746
-0.08722081 0.123702824 -0.121130526 -0.049385775 0.046877563 -0.025427626 0.12075993 -0.043963715
-0.042193715 -0.06470077 -0.04369433 0.008310949 -0.06133641 -0.12204103 -0.10254213 -0.10910862
-0.041674364 0.07906618 0.083698474 -0.06578512 0.0788187 0.08920829 0.07350352 -0.0011586207
-0.008550297 -0.0042372337 0.050986413 0.063874446 -0.0064468696 0.115235835 -0.096298106 -0.07137949
-0.009100078 0.013464919 0.0859961 -0.043720316 0.013178757 -0.07649838 -0.07434331 -0.029598562
-0.013230674 0.082697235 -0.056385383 0.0009905599 0.020735886 0.045150492 0.03636626 -0.056699727
0.10537183 -0.08797031 -0.047222 0.015491302 0.03282191 -0.027846934 0.048655707 -0.06666453
-0.0052098953 0.0762036 -0.09985297 0.01185778 0.10449624 -0.0001769533 0.11886906 0.11531542
0.09904183 -0.04181868 0.026378907 -0.028692972 -0.086522624 0.029643752 -0.08119161 -0.11096896
-0.056655277 -0.010491764 -0.030294139 0.020596532 0.0013687286 -0.044418793 0.086781405 -0.05677082
0.05910242 0.11048166 0.121652566 -0.020484608 0.071735695 0.0032669357 -0.08561577 -0.058396682
-0.09336484 -0.0017694222 -0.08443379 -0.09494526 -0.059628483 -0.12337028 -0.042722814 -0.124591894
0.0708233 0.065302186 -0.033944283 -0.10528769 0.03610207 -0.09207326 0.087469466 -0.06606149
-0.07706839 0.0033271634 0.04721973 0.08182569 0.037413057 0.09952346 0.037694063 -0.04380381
-0.028892836 0.06722393 0.043841235 -0.051536255 -0.059911277 -0.08750483 0.012593406 0.06808425
0.067804515 -0.10940558 -0.07891794 0.011234144 0.02150501 -0.004900296 -0.004601763 0.07185137
-0.0400974 0.07380362 0.11389391 -0.108709686 0.012486359 -0.024240749 0.09242119 0.05808791
0.12137881 -0.039943848 -0.06093701 -0.03246593 0.08671666 0.11045011 0.036578014 0.04448934
0.07320537 0.092342965 -0.08654194 -0.08422609 0.00960073 0.09133359 -0.110371694 -0.08913924
0.05919686 0.01361843 -0.04195248 0.012130741 0.015196579 -0.057452146 -0.1078492 -0.0030313553
-0.0573901 0.11442792 0.063643605 -0.024458015 0.07536323 0.121026255 0.108381085 0.058134094
0.0072690183 -0.11836956 -0.07601067 0.089574605 -0.11447217 -0.029602632 -0.00702848 -0.0647689
0.0065779863 0.03826208 0.09771162 -0.059000086 0.10104975 -0.02950479 0.115876354 0.09456592
-0.105822794 0.09870418 -0.04108908 -0.097232826 -0.07261258 0.1109868 -0.07079872 -0.06224501

grucell.bias_ih f4 [192]
00000000: 2b39 37bd 87c1 b1bd 4b6b 18bd 8bfc 98bd
00000010: eec7 8bbb 282d ea3d 83c6 763d a57e 36bd
00000020: ca81 f6bd b081 593d 8b63 c2bc 95f7 c93d
00000030: 7094 1bbd 2046 f4bd 690c c53d 0474 a43d
00000040: 9ddc 8f3d b153 bebc 189b cf3d e1d3 c23d
00000050: 2b5b 533c fe2e f73c 8d20 e73d 45fe af3d
00000060: 8301 ddbb e5ee e0bb 8608 6b3d df4c fdbd
00000070: 6d9f 0fbd 34f7 903d 0a05 dfbd 8e69 83bd
00000080: 25f0 af3d 7115 ab3c 205a cc3d 95cc 6dbc
00000090: 32ad 5d3d ff4e c73d 5736 c73d 27b1 c43d
000000a0: 5030 ae3d d132 c53d ab11 b2bd d6cb 7bbd
000000b0: 6580 c7bd d5e3 a73a 28e7 c2bd 38b4 f73c
000000c0: f9e4 733d 9d8d bebd b328 443d 91ab bdbd
000000d0: a487 87bd e4b1 a5bd bcd2 263d 8568 d13d
000000e0: 992c 5c3d 33ca d0bd 8207 50bd 0d39 97bd
000000f0: 16fc c9bd ef54 ddbd 4842 aebd 22ec f83b
00000100: fd83 6e3d af6e eabd b3a8 433d 167d d2bc
00000110: be0a 8a3d 1ecb eebd e3e6 863d 6f54 823d
00000120: ddb1 5e3b cc21 3f3d a553 c23b 30f2 dabd
00000130: 0222 a0bd 6ef3 633d d3d3 ce3c f4f8 abbc
00000140: a3ca ecbd b6a5 1c3c 82ec c73d 6a91 573d
00000150: c3c7 0bbd fa61 ff3a 5540 f53d 8d14 8cbb
00000160: dc1c 5cbd 2325 11bd e0be a03d 61a8 c93d
00000170: 1420 34bd e817 cebd f148 0e3d 2c4f 5ebd
00000180: 892f e43b 2c71 45bd 06aa a4bc dfa5 5c3d
00000190: 8934 6c3d b8ed 17bd 941b 7b3d f0de 683d
000001a0: ae50 d9bc 5535 c13c 9d06 f4bd 04d5 fdbd
000001b0: f18a c3bb 143f e63d 448f 1cbd f266 6f3c
000001c0: 62e1 94bd 1187 96bd 9797 da3d 5f5c 2c3d
000001d0: 2f61 ca3d ab3b 863d b5bb 86bc fa80 213d
000001e0: 3af5 a03d afc0 f03d 53af aebd ca59 8fbd
000001f0: bf5d 20bd aef1 89bd 4b17 db3d f269 a4bc
00000200: 86ca debd 200f 8ebd bc1a 123e 0fcf 2cbe
00000210: 1520 b6bd 1424 133b f2bd d73c 97a1 df3d
00000220: e1dd b43d 219d e7bd 1c70 efbc 1eb7 c73d
00000230: ec7f 853b d2b0 933d 15e6 f03d 2255 0cbe
00000240: 722e 403d a87f edbd 0ddf 01be f920 433d
00000250: 8fa7 bebd 5144 263e 94e1 fcbd 47ea 8f3d
00000260: d6e1 073e 69ba a7bd 1957 f5bd 19da 243b
00000270: e5dd c63c 1b15 323d a2e3 c7bd 859c 283d
00000280: a34b 2ebb eb34 02bd d2ef a83d 9189 86be
00000290: 2d61 113e de86 1fbd 9a37 d03a 4a24 d2bc
000002a0: 4a35 453d 7fa7 f83d 7f65 94bd 2f18 c43c
000002b0: 367b af3d c07a 48bd d83d c33d 3ed0 34bd
000002c0: e84f 9fbd 3865 7dbd 4d61 ddbc 556d 803d
000002d0: d567 6ebc a335 a9bd 73bd 153d 9989 163e
000002e0: 429b 8cbd 2985 d3bc 0a05 323d 5133 21be
000002f0: 8270 42bb 190a 8b3d 6d18 ddbc 2a01 13be
-0.044732254 -0.086794905 -0.037211698 -0.07470044 -0.004265777 0.11434394 0.06024791 -0.04455437
-0.12036474 0.053102195 -0.023729106 0.09861676 -0.037983358 -0.11927438 0.09621508 0.08029941
0.070245005 -0.023233267 0.10137004 0.09513069 0.012900154 0.030173775 0.112855054 0.0859342
-0.006744565 -0.006864416 0.057381175 -0.123681776 -0.03506415 0.070784 -0.10889633 -0.06416617
0.08590726 0.020884247 0.099781275 -0.014514108 0.05412025 0.09731864 0.097271614 0.09604102
0.08505309 0.09628833 -0.08694776 -0.06147369 -0.09741286 0.0012808988 -0.09516746 0.030237302
0.059544537 -0.09304354 0.047890376 -0.09261239 -0.06617668 -0.080905706 0.040728316 0.10225014
0.05375347 -0.101948164 -0.05078841 -0.073839284 -0.09862535 -0.108072154 -0.08508736 0.0075965086
0.058231343 -0.114468925 0.047768306 -0.025694411 0.0674033 -0.11659835 0.06587007 0.06363761
0.0033980526 0.04666309 0.0059303814 -0.10690725 -0.078189865 0.055652075 0.02524749 -0.020992734
-0.115620874 0.009560993 0.09761907 0.052628912 -0.034126054 0.0019484155 0.11975161 -0.004274911
-0.05373846 -0.035435807 0.078489065 0.09846569 -0.043975905 -0.100631535 0.03473753 -0.054274723
0.0069636744 -0.048203632 -0.020100605 0.053869125 0.05766729 -0.03709194 0.061305597 0.056853235
-0.026527729 0.023585001 -0.11915324 -0.12394145 -0.005967491 0.112425 -0.038222566 0.014611946
-0.07269551 -0.073499806 0.10673445 0.04208028 0.098818175 0.065543495 -0.016446928 0.039429642
0.07859273 0.117555015 -0.08529534 -0.06999548 -0.039151903 -0.0673555 0.10697802 -0.02007005
-0.10878472 -0.069364786 0.14268011 -0.16875862 -0.08892838 0.0022451924 0.02633569 0.10919493
0.088313825 -0.11309267 -0.029228263 0.09751724 0.0040740874 0.0721146 0.11762635 -0.1370435
0.046919294 -0.11596614 -0.12682743 0.047638867 -0.09309303 0.16236998 -0.12347713 0.07027107
0.13269743 -0.08189852 -0.11979503 0.002515441 0.02427573 0.04347716 -0.097602144 0.041164894
-0.0026595376 -0.031788748 0.08248867 -0.2627683 0.14197226 -0.03894698 0.0015885711 -0.02565207
0.048146524 0.12141322 -0.07245921 0.023937313 0.085684225 -0.04894519 0.0953328 -0.044143908
-0.07778913 -0.061864108 -0.027023936 0.062708534 -0.014551123 -0.082621835 0.036557626 0.14700927
-0.068655506 -0.025820332 0.043461837 -0.15742232 -0.002966911 0.06789035 -0.026989186 -0.14355913

grucell.bias_hh f4 [192]
00000000: 25db 1e3d f545 eb3d 0be6 6abd b6f4 bebb
00000010: ecaf f03c 3385 32bd 393c a8bd 9d83 96bd
00000020: 8893 9f3d 204e 74bd 7ad0 813d 5337 ab3d
00000030: 5216 c0bd 1305 773d 7d1b b7bd 3efa 2b3d
00000040: 139f 09bd 2878 57bd 1d31 983b a1b6 fc3d
00000050: 89da a3bc 9986 f4bd 4abb 7c3d 6dca c4bd
00000060: 103b f4bd 778c f4bd 89dd 9d3d b89a 3ebd
00000070: bfea 6d3d 4436 efbd 8402 b43d a58d a4bc
00000080: 14be 943a 97c9 bcbc 33c8 61bd f9bb 433d
00000090: b19c 83bd 9912 0e3d 74bf 6b3d d345 cc3d
000000a0: 68bd 5bbb 5bc3 dd3d db40 2ebd f95c c63d
000000b0: 4178 a7bd b8a1 89bd 3466 58bd 0dc0 0cbd
000000c0: 25f6 3c3d 952a 70bc 1f60 453d 5950 3abd
000000d0: ab03 5c3d ac49 1bbd 1a33 da3d 4e2c 76bc
000000e0: 827d d9bc b522 f53d bcd6 173c 32d4 a4bb
000000f0: 702a 833d 3f2f debd 32e7 b43d da97 0abd
00000100: 0be5 dcbd 4a8b 5abd 132f f7bd b0df 10bc
00000110: e019 b1bd b442 a23d 944a 6dbc ea73 c83c
00000120: 6b73 68bd 1f8b da3c ed53 873d 1b09 d2bc
00000130: 88af cc3d 910a 9d3d c62a 1b3b 65ae f73d
00000140: efb3 ef3d 4c99 1cbd 3b37 403d b2fe 67bd
00000150: ab5a eabd 5aef cabd b930 9a3d 3eaf 8fbc
00000160: f09b a93d 9b84 2ebd 5259 bcbd 89fa 6abb
00000170: 3401 753d 4d3a a33c cc04 a3bd 68b2 87bb
00000180: eeda 67bd 2029 343d e3d0 56bd 76a7 af3d
00000190: 985f dabd 4dfe 4ebc 84ca 313d 7080 5d3d
000001a0: f04d d13d 9c46 7b3d 8395 ccbd 94a0 9dbd
000001b0: a17c acbd 6fb9 4b3d 30fc de3d ce7f 093d
000001c0: 18b9 d63c d9bd 1d3c 4612 0e3d d373 293d
000001d0: 3394 e03d 3b15 dfbd 4579 9abc f0a3 a13b
000001e0: 8eb6 a23d 21b7 f6bc 593e 11bd dcea fdbd
000001f0: 7822 cdbd 82d6 9bbd ba41 083d f154 993d
00000200: 445c 8f3d 5e18 c03c 6717 89bd ae09 ecbd
00000210: 02d9 13bd fa07 54bd f256 e83c 1ca8 eebd
00000220: a7c0 c1bd b781 293d fe8c a93c 0fbc e53d
00000230: db9d 94bc 3a21 6c3b 3535 d93d 7884 a1bd
00000240: 6edb d6bd ef04 973c 1ed6 82bd ebd5 88bd
00000250: 4739 09bd 2c9f 32bd 3ad2 c6bd 396f 6b3d
00000260: c39e 203e f4d8 e7bc ef9e babd 13f4 0b3e
00000270: 2390 063d 9275 c6bd 4e2c 09be f493 57bd
00000280: 9e2e 103e c1db d1bd 38ac 9a3d dff0 14be
00000290: ab3f 59bd 59af e4bd 4514 093e a22c 733d
000002a0: fef2 043e c1f9 003e 6cfe 1dbc 9a7f b6bd
000002b0: 0011 47bd 897e 05bc 285b 923d d61e d63d
000002c0: 242c 0b3e 62e3 90bd 2999 86bc e0be d13c
000002d0: 4e45 a6bd 2901 22bd a9e9 253c 5a3d 783c
000002e0: bbfc c3bc a4af e63d e1ad 25bd d8bb 1abe
000002f0: 8d53 553c 6615 8f3d fa7e 213d 5af5 cebd
0.03878321 0.114879526 -0.057348292 -0.0058275117 0.029380761 -0.04358406 -0.082146116 -0.07349322
0.07791811 -0.05964482 0.06338592 0.08360162 -0.09379257 0.060307574 -0.0894079 0.041986696
-0.03359897 -0.052604824 0.0046445266 0.12339521 -0.020001667 -0.11939735 0.06170205 -0.09608922
-0.11925328 -0.11940854 0.0770827 -0.04653427 0.0580852 -0.11680272 0.08789542 -0.020087073
0.0011348152 -0.023045344 -0.055122565 0.047786687 -0.06426371 0.034685705 0.05755563 0.099742554
-0.0033529643 0.10828277 -0.04254232 0.09685702 -0.081772335 -0.067202985 -0.052831843 -0.03436284
0.04613318 -0.01465859 0.04818737 -0.04548678 0.053714436 -0.037912056 0.10654278 -0.0150252115
-0.026549105 0.119695105 0.009267505 -0.0050301785 0.06404579 -0.10848855 0.088331595 -0.033836223
-0.10785874 -0.053355493 -0.120695256 -0.008842394 -0.086475134 0.07922879 -0.014483113 0.024469335
-0.056750696 0.026677666 0.066078044 -0.025639107 0.099944174 0.07668031 0.0023676618 0.1209381
0.117042415 -0.038232133 0.046927672 -0.05663938 -0.11443075 -0.09908934 0.07528824 -0.017539617
0.08281696 -0.04260693 -0.09196724 -0.0035854897 0.0598156 0.01992526 -0.07959899 -0.0041411407
-0.056605272 0.043984532 -0.052445304 0.085768625 -0.10662764 -0.012633872 0.043406025 0.054077566
0.102199435 0.061346635 -0.099894546 -0.076966435 -0.084222086 0.04973739 0.10887945 0.03356915
0.026211306 0.009627783 0.034685396 0.041370224 0.10965767 -0.10892721 -0.018856654 0.004932873
0.07944976 -0.03011662 -0.03545985 -0.123983115 -0.1001634 -0.076092735 0.033265807 0.074869044
0.0700002 0.02344912 -0.06693917 -0.11525284 -0.036095627 -0.05176542 0.028361771 -0.11653158
-0.09460574 0.04138347 0.020697113 0.1121751 -0.018141678 0.0036030547 0.106058516 -0.078865945
-0.10491072 0.01843497 -0.06388496 -0.066814266 -0.03350189 -0.04360883 -0.09708066 0.057479117
0.15685563 -0.028301693 -0.091123454 0.13667326 0.032852303 -0.096903935 -0.13395807 -0.052631333
0.14080283 -0.10246993 0.07552379 -0.1454501 -0.053039234 -0.111662574 0.13386638 0.059368737
0.12983319 0.12595274 -0.009643178 -0.08911057 -0.048600197 -0.008147844 0.07146293 0.104551
0.13591057 -0.0707462 -0.016430454 0.025603712 -0.081186876 -0.039551888 0.01012651 0.015151346
-0.023924222 0.112639695 -0.040449027 -0.15110719 0.013020408 0.06986503 0.039427735 -0.10105391

linear.weight f4 [2, 64]
00000000: 3de7 c33d d269 9dbd 1ddf 6b3d 6605 b63d
00000010: 1963 91bd eb0f 60ba 5e9c eb3d 833e a03d
00000020: 2333 d1bd 34d3 de3d af1c 2e3b b814 ac3d
00000030: 867f 8bbd 9928 a63b 3b15 8abd 97c1 383d
00000040: cf52 2abd 4608 143d 0142 783d 1ae7 f7bc
00000050: e385 a4bc 9f94 6c3d 48cc b2bd cad7 f93c
00000060: 7e58 c7bd 9b28 d1bd 7c04 8b3d 172c 5a3d
00000070: 69a3 8b3d 8221 39bd 9d63 763d 4464 edbc
00000080: 8c7c bcbc ea66 bf3d 4ee5 c33d e37c 19bb
00000090: 5be9 d6bd e302 d1bd 997c a0bd 4967 00bd
000000a0: 97b7 e9bd 0a60 0cbc 0daa a93d 078e 73bd
000000b0: 8240 a9bb 259c 00be c6fd 9cbd 4430 cdbd
000000c0: c779 b23d e20f 4abc 8c67 cdbd ed07 d13d
000000d0: 28dd eebd 17f9 23bd b41f dc3a 5121 963c
000000e0: 0f37 f3bb 2c19 f3bc 54a9 883d 1f9f 73bd
000000f0: 44b5 a7bd d5cf 843c 47d1 bd3d 6a51 e23c
00000100: e790 8c3d 7f79 f1bc 0053 b3bd a6d1 2339
00000110: 7b8b 43bc 21f0 63bd 451c a03d a634 ebbd
00000120: 6975 9bbd 4c8e 8b3d d309 dcbd c580 fcbd
00000130: 3dcf b0bc d826 ba3d d517 4c3d 9c6e 773d
00000140: f5e0 ccbc a325 05bd 9765 253d 05cd dcbd
00000150: fd46 c5bb b5b1 81bc e58f 9abd 224e 21bc
00000160: c4e9 7c3b ef82 b5bd 79a6 b63d bbe4 e4bd
00000170: 32ba 6a3d 415e d2bc 1cd2 0b3c 67a8 ef3d
00000180: bc1e f83b f8db ef3c 3623 7dbd 2e6b 66bd
00000190: 4557 683d 1110 583d 1969 f73b 58b2 cf3d
000001a0: bb20 1b3c dc49 31bb e5c4 9abd 22dc 3ebd
000001b0: 56e2 fdbd af88 53bd 7f6a d73d 7597 8abd
000001c0: dc89 1bbc 8323 413d bb6d 40bd b1d2 aebc
000001d0: 8cb0 3bbb 727a a43d f066 7b3d 9ae6 5a3d
000001e0: 30a0 c43d 7816 01be 757d 973c a414 bbbd
000001f0: e6fa 67bd 9870 35bd 9c27 e33d edb6 283c
0.095655896 -0.07686199 0.057585824 0.088877484 -0.070989795 -0.0008547294 0.11504434 0.07824423
-0.10214832 0.108801275 0.002656739 0.08402389 -0.068114325 0.0050707576 -0.06742331 0.045106497
-0.04158288 0.036140703 0.06060982 -0.030261565 -0.020083373 0.057758924 -0.0873037 0.030498404
-0.097336754 -0.10212823 0.06787965 0.053264704 0.068182774 -0.04519797 0.060153592 -0.028978474
-0.023008607 0.09345801 0.09565221 -0.0023420386 -0.10493728 -0.10205629 -0.07836265 -0.0313485
-0.1141197 -0.008567819 0.08284388 -0.05946162 -0.0051651606 -0.12559564 -0.07665591 -0.100189716
0.087146334 -0.012332888 -0.100295156 0.1020659 -0.11663276 -0.040032472 0.0016794116 0.018326433
-0.007422335 -0.029675089 0.06672922 -0.05947792 -0.081888705 0.016212383 0.09268432 0.027626712
0.068635754 -0.02947688 -0.08756065 0.00015622991 -0.01193511 -0.055648927 0.07817892 -0.11484651
-0.075907536 0.0681425 -0.10744061 -0.12329248 -0.021583194 0.0908944 0.049827415 0.06040822
-0.025009612 -0.032506596 0.040380087 -0.10781292 -0.0060204254 -0.015831808 -0.07546977 -0.0098452885
0.0038591484 -0.08862864 0.08918471 -0.111764394 0.057306476 -0.02567971 0.008533981 0.11702042
0.007572023 0.029279694 -0.061801158 -0.05625456 0.05672385 0.052749697 0.0075503704 0.10141438
0.009468253 -0.002705208 -0.07557086 -0.046596654 -0.12396686 -0.051644024 0.105183594 -0.067671694
-0.009493317 0.047153007 -0.046979647 -0.0213407 -0.0028639166 0.08031167 0.061377466 0.053442575
0.09600866 -0.12606227 0.01849244 -0.09134796 -0.05663576 -0.04429683 0.11091539 0.010297519

linear.bias f4 [2]
00000000: 8ff2 ef3d baab 723d
0.11716186 0.059245802

linear_final.weight f4 [5, 64]
00000000: 2365 7f3d e01a babd a87f 8bb9 b628 19bd
00000010: 4293 20bd 42a2 7dbd 88f1 efbd ec65 df3b
00000020: 37c0 083c 8928 8ebc 5ec8 e1bd b36d aa3d
00000030: ab52 ab3d 8ff0 2b3d fb8c a9bd 03e7 8abd
00000040: e567 eb3c ee01 a5bd 4d57 47bd 7c87 b43d
00000050: 4222 793d 553e bfbd b3e3 53bc be5c 223d
00000060: 46f3 a8bd 350c 57bd 1c29 62bd 1d7a 363d
00000070: 248a 353c 01f2 b9bd b52f 793c b714 7a3d
00000080: 17fa 943d 21c6 163d 1ac3 13bc 56f8 793d
00000090: 22dc 813d df4b 70bd 5459 d63d 5797 59bd
000000a0: 9b08 d8bd 3ca3 a23d 9c74 c33d 15ab 47bd
000000b0: 41bc 60bb 6f3f 843c 19bd 69bd b09b a23c
000000c0: 607f 68bd 7330 7fbd 3c2d a83c 4b1b bb3d
000000d0: 295f 4f3d 5aaf 41bc 269a 953d 7dbb f7bd
000000e0: cda7 c8bd 8dc4 db3c 2962 2b3c 503c 473d
000000f0: 7779 ca3c 5567 7ebd 3f73 7b3d 0751 4fbd
00000100: 5687 ad3b 58d5 6b3c 3a8b c43c 15ce 4bbd
00000110: f5ce d83c 8f3a d23c 7cac 003d 07ed 173d
00000120: c11f 8ebd 20c5 413c 947a 1dbc 4f8e 12bc
00000130: 8314 c5bc 0bb6 0cbd 3c57 bdbc 7b0c cfbc
00000140: 2209 27bc 7834 9b3c 664e 9abc c8db 213d
00000150: 7629 223d 4315 a1bd a7f9 ab3d 4412 b03d
00000160: 7af5 33bd 1ce4 013d 8b9f e43c d36a 61bd
00000170: 0060 9dbc d266 10bd 6c82 833d e16d d8bc
00000180: 6023 f5b9 d881 c2bb 531c 8db9 8593 26bd
00000190: 37de 033d c982 e7bc a566 babc c903 5d3b
000001a0: c995 5f3d 41fb 393d b3cf 723b fe90 a2bc
000001b0: 1525 9b3c 62a4 11bd 87de 59bd efe0 43bc
000001c0: 274d 85bc 3fe9 cf3c 621d 1cbd d486 11bc
000001d0: 00ab 85bd 5698 203c 8f80 b0ba b3ce 39bc
000001e0: 9ddc 53bd 20a1 18bd f122 1e3d 16f9 063d
000001f0: 6a20 9bbc fdd2 47bd 29ec d2bc 9e58 9abb
00000200: e8bb 253e c2d0 95bc cfbe 213d 7d2b 173e
00000210: 29fe 193e a96f 3c3d 5b2d 5bbd 963b 0abd
00000220: 6139 163b fb50 d33d bf46 583d 989c 633d
00000230: 425b d93d 5162 e4bd ef62 a0bb 58b9 54bc
00000240: 7b44 44bd 0d40 a93d df25 003e 6f42 c0bd
00000250: d1c8 033e 011b 653b 8714 113e af60 463c
00000260: 14e9 4abe 30b0 aebc f689 1f3e cc63 c1bb
00000270: 2db8 953d 65f7 2e3d 46f0 9f3c 0ef9 853c
00000280: e037 76bd e8af f43d 8f60 443d d78e 613e
00000290: 51cf 403c 3015 2b3e ad92 e3bd 87aa dfbd
000002a0: a5f0 333b cd7c 1fbe 4717 f53c c972 8abd
000002b0: 1322 b0bc 800a 173e 031d 35be 889a fabd
000002c0: a330 c63d b367 04bd 7f24 04bd 7c93 03be
000002d0: b223 833d a6bb c4bc dd8c 03be dcd8 30be
000002e0: 1a01 edbd 5c82 313c 7e30 f03d ff0a 393e
000002f0: 6392 783d 286e 873c 23e6 863d 185e d63d
00000300: adc6 e53d aafb 863d 1963 52be 88a9 773e
00000310: 2f13 573e aa64 17bd cdb5 26be 2186 94bd
00000320: 8bdf c5bd ea8f f83d 0d7d e8bd 0f26 46be
00000330: ccfb d03d 558a 46bd 76ed 5ebe 0b15 933e
00000340: e2e3 d43b 2019 583d 08a8 653e 1daf 133c
00000350: ce73 5b3e 7729 90be c820 523e ac4d 433d
00000360: 992b 90be 0707 903d c039 333e b757 c3bd
00000370: 1e96 dbbd 577f b83d ff3b 613e a101 20be
00000380: 37fa 5dbe e83b 2c3d ff1b 21be 4b41 c63e
00000390: 71b8 34be b5a9 1f3d 2c88 b73c 8db9 d53d
000003a0: a11e 0bbe 96c4 b5be eecb 8a3d 395e 843d
000003b0: ff06 aabd 5007 883d d607 91be fb13 463d
000003c0: 34c5 0fbe 63a8 ab3d 7148 573d aa58 a6bd
000003d0: 399b 563d 2007 4f3e fb3b c0bd 7f2f 5cbe
000003e0: 4ac2 bc3d 9e71 22be d978 02bd f772 a23e
000003f0: 9c87 7cbd 767d 1dbe 2491 9abd 14a2 6d3e
0.06235231 -0.09087157 -0.00026607257 -0.03739234 -0.039202936 -0.06192232 -0.1171599 0.00681757
0.008346609 -0.017353313 -0.11024545 0.08321705 0.08365377 0.04197746 -0.08278843 -0.06782343
0.028736064 -0.08057009 -0.04866724 0.08814904 0.060823686 -0.09338061 -0.012932706 0.039639227
-0.08249526 -0.052501876 -0.055214986 0.04455005 0.011080299 -0.09079362 0.015209128 0.06105491
0.07274263 0.036810044 -0.009018684 0.061027847 0.06340815 -0.058666106 0.10466257 -0.053122845
-0.10548516 0.07941291 0.09543726 -0.04874714 -0.0034291896 0.016143529 -0.057065103 0.019849628
-0.0567621 -0.062302064 0.020529382 0.09136065 0.05062786 -0.011821592 0.07304792 -0.120963074
-0.097976305 0.026827121 0.010460415 0.048641503 0.024716122 -0.062110264 0.061389204 -0.050614383
0.0052956743 0.014394127 0.02399217 -0.049757082 0.026465872 0.025662689 0.031414494 0.03709128
-0.0693965 0.011826783 -0.009611744 -0.008945062 -0.024057632 -0.034353297 -0.023112886 -0.025274506
-0.0101950485 0.018945917 -0.018836211 0.03951624 0.03959032 -0.078653835 0.08397227 0.08597234
-0.043935277 0.031711683 0.027908107 -0.055033516 -0.019210815 -0.035254307 0.064213604 -0.026419582
-0.00046756398 -0.0059358887 -0.0002691472 -0.04066803 0.032194342 -0.028260605 -0.022754023 0.003372418
0.054586206 0.04540563 0.0037050068 -0.019844528 0.01893858 -0.03555716 -0.053190734 -0.011955484
-0.01627214 0.025379775 -0.03811396 -0.008882243 -0.06526756 0.009801945 -0.0013466048 -0.011340785
-0.051724065 -0.037263036 0.03860754 0.03295239 -0.018936355 -0.0487852 -0.025747376 -0.004710271
0.16184962 -0.01828802 0.03948861 0.14762683 0.1503836 0.046004925 -0.05351005 -0.03374823
0.0022922384 0.1031818 0.052801844 0.05556926 0.10613109 -0.11151565 -0.0048946063 -0.0129836425
-0.04791687 0.0826417 0.12514447 -0.09387671 0.12869574 0.0034958723 0.14167987 0.012108012
-0.19815475 -0.021324247 0.15579972 -0.0059017893 0.07310519 0.042716403 0.019523751 0.01635411
-0.06011188 0.11947614 0.047943648 0.22027145 0.011768178 0.16707301 -0.111119606 -0.109211974
0.0027456668 -0.15574951 0.029918326 -0.06760175 -0.021500623 0.14750099 -0.17686848 -0.12236506
0.096772455 -0.032325458 -0.032261368 -0.1284923 0.06403293 -0.024015259 -0.12846704 -0.17270225
-0.11572476 0.010834303 0.11727999 0.18070601 0.06068648 0.016532019 0.06586864 0.10467166
0.11219535 0.0659097 -0.20545615 0.24185765 0.21003412 -0.036961235 -0.16280289 -0.072521456
-0.09661778 0.121368244 -0.113519765 -0.19350456 0.102042764 -0.048471767 -0.21770272 0.28726992
0.0064968923 0.052758336 0.2242738 0.009013918 0.21430895 -0.28156635 0.20520318 0.047681496
-0.28158262 0.0703259 0.17502499 -0.09538215 -0.10721992 0.09008663 0.21995543 -0.15625621
-0.2167748 0.04204932 -0.15733336 0.3872169 -0.17648484 0.038980205 0.022403799 0.10435782
-0.13585903 -0.35501546 0.06777178 0.06463284 -0.08302116 0.0664202 -0.2832629 0.0483589
-0.14040071 0.083817266 0.05255932 -0.0812238 0.052394126 0.20217562 -0.0938644 -0.21502493
0.09216745 -0.15863654 -0.03185353 0.31728336 -0.061652765 -0.15379891 -0.075472146 0.23206359

linear_final.bias f4 [5]
00000000: 686c 0a3d 0328 443d f53e 08bf c1a0 5fbf
00000010: efaf e5bd
0.03379479 0.04788972 -0.53221065 -0.87354666 -0.11215197
