results1_checkpoint/zara2/latest.pth (torch_old, 57359 bytes, 12 tensors)

gcn.gc1.weight f4 [2, 64]
000000 2f 86 07 3b 4b cf 34 3b d8 0b b7 bb 77 b0 40 bb
       0.0020679345 0.0027589377 -0.0055861287 -0.0029402056
000010 0b 30 e3 3a ee 00 a9 bb c9 c5 14 3c 21 85 a9 3a
       0.0017333044 -0.0051575815 0.009080359 0.0012933352
000020 0f a4 49 bb 39 f4 50 3a 89 f9 03 b9 81 99 85 bb
       -0.0030767953 0.00079709623 -0.00012586093 -0.004077137
000030 fa 01 db ba e7 78 3c b9 b5 02 df b9 27 38 a9 ba
       -0.0016708963 -0.00017974117 -0.0004253589 -0.0012910411
000040 da 1f 3b 3b ce 68 ad bb d5 92 09 bb 47 80 b9 3b
       0.002855292 -0.0052920347 -0.002099206 0.005661044
000050 39 c7 2b 3b bb ec 05 bb 87 26 d2 ba 55 9f 25 bc
       0.0026211275 -0.0020435292 -0.001603321 -0.0101087885
000060 86 98 86 ba d8 e3 9b 3a 5b 16 95 3b a2 e1 11 3b
       -0.0010268844 0.0011893464 0.004549784 0.0022259732
000070 bd 80 1a bb ea 2a 8a bb bf b6 59 3b 88 90 e6 bb
       -0.002357527 -0.0042165415 0.0033220497 -0.0070362724
000080 a2 9a 83 bb 97 02 84 3a 9c c6 26 ba a1 ca 11 3b
       -0.0040162364 0.0010071573 -0.00063619926 0.002224602
000090 7a d9 81 3b 19 9e 10 3b 32 c6 4d b8 04 e1 0b bb
       0.003962693 0.002206689 -4.9060392e-05 -0.0021343837
0000a0 62 da 2c 3b 96 8c 02 ba b5 77 f9 3a e1 9a 78 ba
       0.0026375283 -0.00049800554 0.0019032868 -0.0009483528
0000b0 5d 8c 9c 3b 95 eb 4f b9 db af 69 bb 6e a3 17 bb
       0.004777475 -0.0001982882 -0.0035657797 -0.0023138183
0000c0 e8 10 af 3a 34 40 80 3a d8 22 0e 3a 65 1a 93 3b
       0.0013356479 0.0009784759 0.0005422062 0.0044892305
0000d0 f3 7b be ba 2f 8b 9e 3b e3 9f 2f 3a 6f 2b 78 3b
       -0.0014532789 0.0048383693 0.0006699545 0.0037867685
0000e0 7b f1 cc b9 58 b9 13 bb b9 85 fd b9 b0 34 b4 ba
       -0.0003908983 -0.0022540893 -0.00048355552 -0.0013748612
0000f0 fd 19 19 3b ef ac 1f 3b 74 2d bf bb 26 cf 9f bb
       0.0023361437 0.002436455 -0.005834276 -0.004876989
000100 6a c9 cd 39 04 43 78 3a 15 18 f3 3b 72 ae 1c bb
       0.00039250712 0.00094704353 0.0074186423 -0.0023907688
000110 66 be 2a 3c e8 df 84 ba 71 ff 02 3b ba 40 a2 bb
       0.010421371 -0.001013753 0.001998868 -0.0049515637
000120 1d 91 48 39 67 73 a4 3a c2 19 6e 3b e5 e6 be 3b
       0.00019127545 0.00125466 0.003633127 0.0058258646
000130 96 7b fe ba 28 5f 4c 3b 20 8d 0a 3b 06 1c 87 39
       -0.0019415494 0.0031184647 0.0021141246 0.00025770086
000140 5d e6 48 bb 5e 6f a0 3a 63 f3 30 3b 10 9d a6 ba
       -0.0030654885 0.0012240221 0.0027000539 -0.0012711603
000150 5d 66 75 ba 6f 8c 71 3a 41 8f c2 ba 02 32 75 bb
       -0.00093612616 0.00092143466 -0.0014843718 -0.003741384
000160 52 94 bb bb 3b ce 60 bb c0 34 cb 3b 82 c8 b8 3b
       -0.0057244683 -0.003430261 0.0062013566 0.005639137
000170 40 76 98 ba 0d 50 e7 bb c3 1e 2b 3b 56 b5 9f 3b
       -0.0011631921 -0.0070591033 0.0026110865 0.004873912
000180 fa d7 d2 3a c4 1f a7 bb 6c 8a f1 b9 29 08 e9 3b
       0.0016086095 -0.0051002223 -0.00046070234 0.0071115685
000190 eb 61 cc b9 e0 e7 db 3b 19 7e 82 3b 22 40 9c b7
       -0.00038982867 0.0067109913 0.003982317 -1.8626513e-05
0001a0 6f e3 d7 39 05 7b 09 3c 06 63 f7 39 75 18 82 3a
       0.00041177447 0.008391147 0.0004718529 0.0009925502
0001b0 b4 a8 fb b6 b1 52 65 bb 77 4c ba bb 01 b6 29 3b
       -7.5000225e-06 -0.0034991915 -0.005685385 0.0025895836
0001c0 a0 2e 1d 3b c2 e1 80 3b 3a a2 14 3c 22 c6 02 ba
       0.002398409 0.0039331624 0.009071881 -0.00049886305
0001d0 d6 f4 1c 3b 65 9c 0f 3b 21 1a 49 3b 60 e0 06 3b
       0.0023949645 0.0021913287 0.003068574 0.0020580515
0001e0 84 8e 10 bb c6 2e 33 3b 1d 22 85 ba 95 a6 82 bb
       -0.0022057602 0.0027341112 -0.0010157261 -0.0039871433
0001f0 82 23 91 38 d7 e3 0b bb 02 7a ce bb 1b 0d 02 bb
       6.920753e-05 -0.002134552 -0.0063011656 -0.0019844237

gcn.gc1.bias f4 [64]
000000 e4 db 07 b8 3a 92 30 38 a5 81 a8 38 33 01 91 37
       -3.2391297e-05 4.2097854e-05 8.0350124e-05 1.7285905e-05
000010 f6 e0 c4 37 90 59 0f 38 6c 4f 98 b8 74 01 40 b7
       2.3469776e-05 3.417727e-05 -7.262718e-05 -1.144443e-05
000020 c3 40 5e 38 54 9f bd 36 4d 1c 01 b8 9d 5c 9d 38
       5.298924e-05 5.651187e-06 -3.0782354e-05 7.503594e-05
000030 55 5d 96 35 25 73 90 37 e1 0a 76 36 0f a5 e9 38
       1.1203034e-06 1.7219756e-05 3.666319e-06 0.0001114105
000040 6c 7c a0 b7 59 71 da b7 f3 8e 91 37 50 29 ed 36
       -1.9131425e-05 -2.6040407e-05 1.7351913e-05 7.06796e-06
000050 fc db 0d 39 4e 11 82 b5 18 6d e8 37 e1 21 a5 b8
       0.00013528758 -9.690791e-07 2.7707356e-05 -7.8741235e-05
000060 01 8f 22 37 89 89 86 b8 04 a9 06 38 fe c5 7f 36
       9.689248e-06 -6.415236e-05 3.2105498e-05 3.8113208e-06
000070 f7 26 13 b8 54 1a 66 b7 d9 a4 b8 b7 23 15 3b 38
       -3.508382e-05 -1.3715198e-05 -2.2011272e-05 4.460396e-05
000080 9e 27 4f 38 d9 41 62 37 8e 35 2b 38 1c 7e 8b 37
       4.9389542e-05 1.3485981e-05 4.0819454e-05 1.6628816e-05
000090 ce d4 c5 b7 79 2b 92 35 d9 d1 f4 b7 eb 55 1e b7
       -2.3583325e-05 1.08905e-06 -2.9184785e-05 -9.437538e-06
0000a0 71 c0 12 38 6b 77 cf b7 7d 83 3f b8 88 dc 8b b7
       3.4988338e-05 -2.4731931e-05 -4.5660407e-05 -1.6672784e-05
0000b0 1d 92 68 37 18 b7 40 b7 80 7a 29 b7 2a 74 83 b5
       1.3862297e-05 -1.1486722e-05 -1.0101707e-05 -9.794069e-07
0000c0 6b 43 ab b7 54 72 06 b8 cd c3 74 35 66 0e 70 37
       -2.0416182e-05 -3.2054566e-05 9.118201e-07 1.4308467e-05
0000d0 7b 40 a3 b8 78 f0 93 37 49 8d f1 36 46 56 28 b7
       -7.784456e-05 1.7635743e-05 7.1988075e-06 -1.0033667e-05
0000e0 ac 44 df b6 c6 a6 32 38 07 a6 1f b7 db f8 96 b6
       -6.6539124e-06 4.2593827e-05 -9.515795e-06 -4.499319e-06
0000f0 1b a6 e6 b7 29 b3 a3 b7 9d 0b 1a b7 b1 dc a4 38
       -2.7495485e-05 -1.9514542e-05 -9.181819e-06 7.8612364e-05

gcn.gc2.weight f4 [64, 2]
000000 2c 3f 80 ba eb 2e 31 bb a5 c9 5c 3a ac d9 7a 3b
       -0.0009784452 -0.0027036022 0.00084223814 0.0038276715
000010 03 6d 6f 3b 0c d6 ca bb 0e 44 a5 39 d1 36 f4 ba
       0.0036533482 -0.006190067 0.00031521957 -0.0018632059
000020 3a 55 97 3b 75 19 81 bb 95 dc 71 ba d0 46 0b bb
       0.004618314 -0.0039398023 -0.00092262897 -0.0021251924
000030 9c f1 fb bb fe bd 24 bb 26 11 02 3c 0b ce 8f bb
       -0.007688714 -0.0025137658 0.007938659 -0.004388576
000040 fc 6a 09 bb 66 d3 37 bb 1b 02 19 bb 33 7e 8a 3b
       -0.0020968309 -0.0028049587 -0.0023347202 0.00422647
000050 11 7d 35 ba 4c 70 47 3b fd e9 62 39 78 89 9a bb
       -0.00069232384 0.0030431924 0.00021640207 -0.0047160946
000060 2e 33 13 bb d2 31 83 3a e8 df f1 3b ab d0 1f bb
       -0.0022460925 0.0010009354 0.007381428 -0.002438585
000070 b0 02 70 ba d2 cb bf b8 54 a5 b5 bb 33 7c ce bb
       -0.0009155674 -9.145554e-05 -0.0055433903 -0.006301427
000080 da 7e e3 bb 1d 32 03 3b 21 d2 a6 bb 1e 66 6b 3b
       -0.006942612 0.0020018884 -0.0050909673 0.003591902
000090 18 30 61 3a d7 db ae ba 74 cb cb ba 65 93 bd 3a
       0.00085902354 -0.0013340664 -0.0015548305 0.0014463483
0000a0 62 03 da 3b 3b bd e0 3b a0 08 4f 3b 32 05 86 ba
       0.0066532353 0.0068584955 0.0031590834 -0.0010224937
0000b0 22 65 95 bb 42 07 53 ba 5f 93 fd 3a 1b e2 b2 3b
       -0.004559175 -0.0008050093 0.0019346288 0.005459083
0000c0 1a ea dc bb 53 fd 38 3a aa 67 5c ba eb ab b9 bb
       -0.0067417743 0.0007056791 -0.0008407781 -0.005666246
0000d0 36 75 39 3b 7c 45 78 3b 6f 68 87 ba 59 7b 85 3b
       0.0028298623 0.0037883213 -0.0010330806 0.004073542
0000e0 51 3f 06 3a 75 c4 31 3b 0f 36 2a ba 2b 12 0b 3b
       0.0005121129 0.0027125154 -0.0006493041 0.0021220546
0000f0 b4 a5 27 bb 81 3b 8e ba 77 62 04 3b f8 78 5a bb
       -0.0025580944 -0.0010851474 0.0020200291 -0.0033336263
000100 22 7e 02 bb 65 2a 16 bb 95 60 9b ba bd 63 ef 3a
       -0.0019911607 -0.0022913453 -0.0011854345 0.0018263977
000110 18 37 f4 3a 95 57 a7 bb e9 9f 92 3b df 05 7f ba
       0.0018632142 -0.005106876 0.004474629 -0.0009728353
000120 d4 69 97 b9 b8 ff f7 ba f9 25 2b 3a 6f 8e 1c bb
       -0.00028879812 -0.0018920815 0.00065287907 -0.0023888608
000130 15 bd 49 bb 00 27 48 3b 26 65 96 3a e4 2f 4a 39
       -0.0030782868 0.0030540824 0.0011474236 0.00019282062
000140 03 29 08 bb 15 5e 8e 3b 91 03 5c ba 3e d6 1d 3b
       -0.0020776398 0.0043447115 -0.00083928654 0.0024083997
000150 47 32 56 bc ca d8 73 3b 0d c0 28 3b 97 8a 46 39
       -0.0130735105 0.0037208074 0.0025749237 0.0001893438
000160 61 02 1f ba 34 76 cf 3a ae 2d 4f ba a4 62 71 bb
       -0.0006065723 0.0015828074 -0.000790323 -0.0036832476
000170 bb 51 44 3b e0 1b e5 b8 67 9a 75 ba a7 0c b6 39
       0.0029955942 -0.00010924763 -0.0009369016 0.00034723172
000180 83 66 4c b6 3a c5 d7 bb 14 15 0e bc 5e 7c 9e 3a
       -3.0458039e-06 -0.0065847905 -0.008672018 0.0012091508
000190 f7 9f a0 bb 44 c3 72 ba b3 9a 58 3b 5d a3 4a ba
       -0.004901882 -0.0009260664 0.0033051192 -0.00077300315
0001a0 98 4f 21 3a 35 3b 93 3b dd 60 2c 3a 22 61 d1 3a
       0.0006153523 0.004493142 0.0006575713 0.0015974382
0001b0 56 52 aa b8 13 d9 a4 bb 0b a1 9b 3b 1c cb 9e bb
       -8.121568e-05 -0.00503076 0.0047494224 -0.00484599
0001c0 e8 f7 06 3b df c4 19 3b e1 d8 14 ba 60 90 20 bb
       0.002059454 0.0023463292 -0.00056780694 -0.0024500117
0001d0 f7 47 92 bb dc e9 7a 3b b4 27 79 39 c4 b7 52 3a
       -0.0044641453 0.0038286364 0.00023761281 0.00080382475
0001e0 2d 67 cd 3a 1c ff 6b bb 2a f0 e0 3a 03 73 1d bb
       0.0015671008 -0.0036010211 0.0017161418 -0.002402485
0001f0 65 01 58 3b 06 57 20 ba 2b 9e ff 3a 8c 80 ec bb
       0.0032959816 -0.0006116483 0.0019502094 -0.0072174724

gcn.gc2.bias f4 [2]
000000 e8 19 97 bb 38 20 61 bb
       -0.0046112426 -0.003435148

grucell.weight_ih f4 [192, 2]
000000 15 fc 1c bd e5 b6 c1 3d b3 ab d3 3d 13 12 77 bd
       -0.03832634 0.094587125 0.103354834 -0.06031997
000010 5f e2 b0 3d e9 fe 8a 3d d8 8d 8b bc 82 5d fe 3d
       0.08636927 0.067869015 -0.01703541 0.12420179
000020 8e d0 5b bd 27 62 52 bd a1 e4 a3 3c 94 39 0c 3d
       -0.05366569 -0.051363137 0.02000648 0.0342346
000030 cb 89 96 bb 1d 57 b3 3c a4 26 6e bd b8 2e dd bd
       -0.004594063 0.021892125 -0.05814232 -0.107999265
000040 8b 18 9b bd bb b6 08 3d 70 87 a1 3d 8d e2 b7 bd
       -0.075730406 0.03337739 0.07887161 -0.08978758
000050 31 ec 32 bd fc 51 3e bd 26 29 c1 bd a2 eb 85 bc
       -0.04368228 -0.046464905 -0.094316766 -0.01634771
000060 fb 8d f9 3d 6a 8d 58 bd 93 c9 74 bd da 48 51 bc
       0.12185284 -0.052869238 -0.05976255 -0.012773717
000070 0e 35 f3 bc 03 ea a9 bc f1 8a fa 3d 42 38 c2 3d
       -0.029688384 -0.020741468 0.12233532 0.094833866
000080 ae d3 0b bc af 3c 04 bb 05 11 bb 3d 1b 2e 98 bd
       -0.008534355 -0.0020177772 0.091341056 -0.07430669
000090 be 32 f5 bd d7 f9 56 bb 5c 13 d9 ba e1 f5 f4 bd
       -0.11972569 -0.0032802725 -0.0016561556 -0.1196096
0000a0 c6 18 cc 3d be 20 4e bc f9 82 1c 3d 18 65 e1 bd
       0.09965663 -0.0125810485 0.038210843 -0.1100561
0000b0 8a 82 4b 3d 41 b1 e9 3d 63 ed e6 bd 99 4d c2 3d
       0.04968504 0.114107616 -0.11275747 0.09487457
0000c0 ce 11 ce 3d 1e 46 22 3d 92 e9 9a bd 1b 34 f6 3d
       0.1006199 0.03961765 -0.07564081 0.12021657
0000d0 c3 0f 95 bd e7 73 fc bd 8b 62 f1 bc e0 40 2d bc
       -0.07278397 -0.12326794 -0.029465934 -0.010574549
0000e0 ec c1 5b 3b 20 6a e6 bd e9 87 31 3d 15 9d 75 3d
       0.0033532334 -0.112507105 0.043342505 0.05996426
0000f0 ea 9d 3e 3b 43 ec 5d bd 99 ee ca 3d 94 f6 d1 3d
       0.0029085823 -0.054180395 0.0990879 0.10252109
000100 68 e0 0b 3d 5a 45 a1 3c 0d 01 19 bd 35 24 9b b9
       0.034149557 0.01968639 -0.037354518 -0.0002959088
000110 dc bd 11 3d 01 5e 0c 3d e1 b6 99 3d 38 27 8b bd
       0.035581455 0.034269337 0.075055845 -0.0679459
000120 65 be 05 bd c7 e1 96 bd a1 fb d6 bd 5c 87 b5 3d
       -0.032652277 -0.07367282 -0.10497213 0.088637084
000130 a6 cc 40 bd 14 d6 f2 3b cb 3e 5e bd 1d 11 e4 3d
       -0.047070168 0.007410774 -0.054259103 0.111360766
000140 7e 7b 95 3d f9 71 2a bd f0 1b d6 3c b9 a8 4b bd
       0.07298945 -0.0416126 0.026136369 -0.049721453
000150 4e 76 26 3b 5d 3d 82 3d db bc a2 bc f0 11 20 3d
       0.0025400105 0.0635936 -0.019865444 0.039079607
000160 91 c1 45 3d 28 d1 bf 3d 13 7e f1 bd 5b 2c dd bd
       0.048280302 0.09366065 -0.11791625 -0.10799476
000170 bd c0 a6 bd 6e 23 f0 3d 60 da 8c 3d d2 87 73 3d
       -0.08142231 0.11725508 0.06877589 0.0594557
000180 cb 75 d6 bd 51 5f e5 3d e4 d7 9b 3d b4 ec 95 bd
       -0.10471686 0.11199821 0.07609537 -0.07320538
000190 6f 5c 92 bc 45 50 dd 3d 59 22 1e 3c a2 72 27 3d
       -0.017866341 0.10806326 0.009651744 0.040880807
0001a0 5c d0 06 bd 89 6f b5 bd e9 53 bf 3d 93 93 63 3d
       -0.03291355 -0.08859164 0.093421765 0.05556066
0001b0 3d a7 99 3d 5d 7e 21 3d 70 76 57 3d a0 c9 2a 3c
       0.07502601 0.03942715 0.052603185 0.010424048
0001c0 d0 67 a3 3d 86 34 f3 3d 2a 02 50 bc fe 04 b2 3d
       0.07978785 0.118752524 -0.012695828 0.086923584
0001d0 98 a6 0a 3b 35 ac de 3d 4a a3 c1 bd 1a 50 fd 3d
       0.0021156427 0.1087269 -0.09454973 0.12368794
0001e0 6b 33 1e bd 79 2a b3 3d e7 6a da bd bf 7f 65 bc
       -0.038623255 0.087483354 -0.10664921 -0.014007508
0001f0 ec 99 eb 3d 15 1f 58 bd 0a 88 47 3d 39 2f ce 3d
       0.11503968 -0.052764017 0.04871372 0.10067601
000200 d2 4d 04 3d 22 fb ce 3c 8e a9 9b bc 2b 2a aa 3d
       0.032300778 0.025266234 -0.019001748 0.08308824
000210 6e 68 ae bd 01 c9 24 3d 6d 24 87 3c e9 17 81 3d
       -0.08516012 0.040230755 0.016496861 0.063033886
000220 6c 58 cc 3a 08 fc 55 bd 68 af aa bd 3b 6a ec bc
       0.0015590317 -0.05224231 -0.08334237 -0.028859248
000230 7a b6 ac 3d ab d1 36 3d e7 72 20 3c a8 78 13 3b
       0.08433242 0.04463355 0.00979302 0.0022502337
000240 9a 67 ce bd 6c 00 b1 3d 1d d6 93 3d 11 78 38 3d
       -0.10078354 0.086426586 0.07218573 0.04503638
000250 48 1d 21 3c 84 db 3b 3c da 3f 12 bc f5 80 96 3d
       0.009833641 0.011465911 -0.008926356 0.07348815
000260 1b 28 ce 3d 25 3a 08 3d be d6 9d 3d 7a 90 a5 bd
       0.10066243 0.033258576 0.077069744 -0.08084197
000270 e0 29 31 3d d4 ef cb bc dd ce e3 3d 2e 80 8e 3c
       0.043252826 -0.024894632 0.111234404 0.017395105
000280 55 9b 4e bd d9 c4 b6 3c 8c 88 89 3d df eb 31 bd
       -0.050441105 0.022310661 0.067154974 -0.043437835
000290 e7 eb 25 3c 63 c9 dc 3d a4 90 ac bd f3 9f e7 bd
       0.010127044 0.10780599 -0.084260255 -0.11309805
0002a0 e5 ca 9f 3c b7 7c e9 3b 6c 68 f8 bd 2f a0 97 3d
       0.019505927 0.007125463 -0.12129292 0.074035995
0002b0 d1 74 cb 3b ef b2 9c bd f5 b7 7f 3d bd c5 ed 3d
       0.006208994 -0.076513164 0.062431294 0.11609981
0002c0 b5 b3 a6 3d 18 7b 84 bd 75 96 27 bb e3 64 c0 3d
       0.08139745 -0.06468791 -0.0025571857 0.093942426
0002d0 20 6d 90 3d 5b e3 d4 bc 7b 70 95 bd 28 c2 a7 3d
       0.07052064 -0.025987318 -0.072968446 0.08191329
0002e0 19 9f 59 3d 6a 60 c0 bd f3 58 f9 bd ce ec 6a bd
       0.053130243 -0.093933895 -0.12175169 -0.05735474
0002f0 d7 2a 80 bc 63 22 b8 bd 10 1b d2 3d 8d 48 b9 bd
       -0.015645428 -0.08990934 0.10259068 -0.09047041
000300 d9 25 44 bc 24 a3 ef bd 3d 45 cf bd 63 87 ca bd
       -0.011971914 -0.117010385 -0.10120628 -0.09889104
000310 f8 ac 57 bc ad a0 f7 bc ea a1 c6 3d a8 9d 95 3d
       -0.013163798 -0.030227983 0.096988514 0.07305461
000320 55 d6 fa 3d 15 98 de bd 80 0c 8e 3c 70 28 66 3d
       0.12247912 -0.10868851 0.017339945 0.056190908
000330 4a bf ac bd 8e 2c cc bd 3b 7b 4b bc 02 a9 0a 3d
       -0.08434923 -0.09969436 -0.012419517 0.033852585
000340 e7 8b d7 3d 82 4c 9e 3d da ba e4 3d 27 9d 24 3d
       0.10524731 0.077294365 0.111684516 0.040188935
000350 40 32 04 bc 39 17 dc bd bc 7b a3 3d 22 11 65 3d
       -0.008068621 -0.10746617 0.07982585 0.055924542
000360 7d c2 8c 3d 11 ae fb 3c fa fd 38 3d b0 d2 e2 3d
       0.06873033 0.03072265 0.045164086 0.11075342
000370 aa 2f 9a 3d c7 31 f9 bc eb 1b bc bd 67 36 73 bd
       0.075286224 -0.030419243 -0.091850124 -0.059378054
000380 34 e9 d3 bd 1b 45 fd bd 69 e6 8f bd ae e6 8b 3d
       -0.10347214 -0.123666964 -0.07026369 0.06831108
000390 f7 2e c8 3d 4e 56 dd 3d 6c c3 c1 3c e1 6f 6b bd
       0.09774583 0.10807477 0.023652755 -0.057479743
0003a0 7c 65 82 3d 02 3f 2f 3d d2 ae c8 3d 0b d8 e3 3d
       0.06367013 0.0427847 0.09798969 0.11125191
0003b0 ec 30 ad bd df f2 8e bd 9b f6 ec bc 83 ff dc 3d
       -0.08456597 -0.06979918 -0.028926184 0.107909225
0003c0 33 dc 14 bc c8 63 35 3d 24 21 39 3d 47 5a be 3d
       -0.009085703 0.044284612 0.04519762 0.09294563
0003d0 2c 75 68 3d 3e 1d b2 3d f5 16 e2 3c 00 b0 82 3b
       0.05675237 0.08696984 0.027598837 0.003988266
0003e0 66 69 a4 3d dd 1d eb bd 8c 05 9c bd 52 a4 bb 3d
       0.08027916 -0.11480305 -0.076182455 0.09162201
0003f0 77 ef a7 3d a4 2a 33 bd 62 26 5c bd 53 fc 52 3d
       0.08199971 -0.043741837 -0.053747542 0.051510166

grucell.weight_hh f4 [192, 64]
000000 27 30 fe bc 34 81 cf bc d1 a7 0d 3c f2 8a a9 3d
       -0.03102882 -0.025330164 0.008645968 0.08278455
000010 ee cc a2 bd d9 4b 73 bd 25 a9 14 3c 5a d7 8d 3d
       -0.079492435 -0.059398506 0.00907353 0.06925841
000020 56 75 90 3d 6a e9 3d bd e0 6b 2d bd 27 b0 2a 3d
       0.0705363 -0.04636518 -0.042339206 0.0416719
000030 fd 53 d0 3c 97 8d 17 3c 17 ef f4 3d 2b 5b 18 bd
       0.025430674 0.009250066 0.11959665 -0.03719632
000040 7e b4 07 3d 9f e0 89 bc 55 0f ee 3c 2f 6e c2 bd
       0.033131115 -0.01683074 0.029060045 -0.09493672
000050 af 9f b0 bc 48 b3 01 3d dc b3 9e 3d 07 16 c8 bd
       -0.021560518 0.031665117 0.07749149 -0.097698264
000060 ab 6c fa 3d bd 8b 8c bd 1a 23 96 bc 5b e1 bb bc
       0.12227758 -0.068625905 -0.018327285 -0.022934606
000070 12 ed bd bd 42 56 12 bd 1b bb f2 bd 4c 8d 8b 3d
       -0.09273733 -0.035726793 -0.11852094 0.068140596
000080 f2 fa c8 bd 02 b2 df 3d 33 d8 bf 3d 59 3a e3 3c
       -0.09813489 0.10922624 0.093674086 0.027737783
000090 35 16 77 3d 40 d9 c4 bd 16 92 ff 3d 69 0b f2 3d
       0.060323913 -0.0961175 0.124790356 0.118185826
0000a0 80 b1 a0 bd 12 ce 02 3d e5 9b a0 bd 95 22 79 3d
       -0.078463554 0.031934805 -0.078422345 0.060823996
0000b0 b6 ea 3b bd 24 0b c5 3d 9a 5a b0 bd df fc 05 3d
       -0.045878135 0.096212655 -0.08611031 0.03271186
0000c0 78 0a 19 3d 2a 91 b6 bd 28 0c a9 3d 60 81 9a 3d
       0.0373635 -0.089144066 0.08254272 0.075442076
0000d0 7e d5 65 3d 23 7d ac bd 51 f3 c9 bc 15 50 ec bd
       0.056111805 -0.084223054 -0.024652155 -0.11538712
0000e0 03 62 f6 bd 4d 1d eb 3b da 66 35 bd 8f a2 c0 bd
       -0.12030413 0.007175124 -0.04428754 -0.094060056
0000f0 2f 1d b4 3d cf e6 e3 bd 6f 12 6a bd 19 14 19 3d
       0.08794629 -0.111280076 -0.057146486 0.037372682
000100 b3 2d 00 bd 8b 75 76 bd f6 41 5d 3b a5 be b0 bb
       -0.031293582 -0.06017069 0.003376124 -0.0053938203
000110 15 60 49 bd 4c 94 75 bd 09 29 d0 3d 26 24 af 3d
       -0.049163897 -0.05995588 0.10164077 0.08551817
000120 28 2d be 3d 05 af 9f bd 5f 40 0b bc 9f f5 06 3d
       0.092859566 -0.07797054 -0.008499234 0.032949086
000130 46 59 2a bd 5a b5 ea 3d b5 9e 78 bd 77 56 8e bd
       -0.041589044 0.11460371 -0.06069823 -0.069500856
000140 80 d7 a8 3c d3 1a e4 3d 6f 33 e9 3d c2 b5 da 3d
       0.02061057 0.11137929 0.11386763 0.10679199
000150 98 d8 01 3d 54 75 c7 38 17 38 05 3d e8 64 d6 3d
       0.0317007 9.5109135e-05 0.032524195 0.10468465
000160 13 d2 84 3d 59 ae dd 3d fc 18 5e bd 9d 88 e7 bd
       0.06485381 0.1082427 -0.054223046 -0.11305354
000170 cf a1 6b 3d 4f 0a de 3b 55 0c b5 3c df fb f2 bd
       0.05752736 0.006776131 0.022100607 -0.11864447
000180 71 7a 8b 3d 0c 49 9a 3d 9c 6d 7c bc bb 65 8d 3d
       0.06810463 0.07533464 -0.015406992 0.06904169
000190 d2 d9 49 bd 27 ea 71 3d 26 86 27 bc f4 60 47 3b
       -0.049279995 0.059061196 -0.010224855 0.0030422779
0001a0 15 be 93 bd 62 7c 06 bd d2 12 ae 3d 91 e7 a2 3d
       -0.0721399 -0.032833464 0.084996834 0.07954324
0001b0 8b 22 99 3d ca 1f 89 bc 17 11 f4 bd 65 58 24 bd
       0.07477292 -0.016738791 -0.11917322 -0.040123362
0001c0 2e 4b c4 bc ff 6f a7 3d 23 aa ff bd a2 e8 88 bd
       -0.02396163 0.081756584 -0.12483623 -0.06684996
0001d0 4f ba f8 bd 7c 53 de 3d 74 63 8f bd 6c 9d b0 3d
       -0.121449105 0.10855767 -0.07001391 0.08623776
0001e0 b7 41 3e bc 36 59 87 3d fe 38 71 bc d2 39 8d 3d
       -0.011612347 0.066088125 -0.014723061 0.06895794
0001f0 b1 9d 8c 3d 7b 01 c5 3c 08 c5 9f bc f1 ac da bd
       0.06866015 0.024048558 -0.019503132 -0.10677517
000200 91 1a 76 bd 67 37 09 bd ba 53 35 3d 95 89 ad bd
       -0.06008393 -0.0335001 0.0442693 -0.08473507
000210 18 44 08 3d 71 ed f0 3b af e1 fe bd cb 9c 5e bc
       0.033268064 0.007352524 -0.124453895 -0.013587187
000220 09 d7 78 3d 8a 57 80 bd ba d2 82 bd a1 4a bd bd
       0.06075195 -0.06266697 -0.06387849 -0.0924275
000230 bd 5e b3 bd db 12 ba bd 8a 13 a7 3c 6f bb 25 3c
       -0.08758304 -0.09085628 0.02039506 0.010115488
000240 61 75 b7 3c ad 7d 96 bd f4 61 f8 bc 42 1c 8f bc
       0.022394838 -0.073481895 -0.030320145 -0.017469529
000250 a7 ae 8d 3d 69 f3 16 3d f7 be e9 3d c0 b7 ab 3d
       0.06918078 0.036853228 0.11413377 0.08384657
000260 1a 22 5a 3d 98 5a ae 3d dc 9c 64 3d ea 6d 30 bd
       0.053255178 0.08513373 0.055813655 -0.043073572
000270 d0 85 c8 bd ee 2c 3f bd cd 4a f6 3d 8a 2d 8f 3d
       -0.09791148 -0.046673708 0.12025986 0.06991108
000280 65 74 f8 3d 49 7e 46 bd a7 74 8b 3d a6 54 93 3d
       0.121315755 -0.04846028 0.06809359 0.0719388
000290 af 7e 2a bd 74 25 ea bc f6 86 18 bd 4b 46 f1 bd
       -0.04162472 -0.028582312 -0.037238084 -0.117809854
0002a0 5c 6a 6a 3d be 4b 88 3c 7b 02 0c 3d 98 29 88 bd
       0.05723034 0.01663768 0.034182053 -0.066485584
0002b0 a5 21 00 3d 8a 81 4c bd 15 e0 9d 3d 1c 2c eb bd
       0.031282086 -0.049928226 0.07708756 -0.114830226
0002c0 0a a1 86 bd 22 ad f2 bd 55 68 eb 3d f1 c1 36 3c
       -0.065736845 -0.11849429 0.11494509 0.011154638
0002d0 9d a4 e0 3d b3 ca 85 3d 79 2c 55 3d 21 62 80 bd
       0.109688975 0.065328024 0.052044366 -0.062687166
0002e0 f1 3f 27 bc 3d 0b c3 3b 87 c5 fb bc cc e2 a9 3d
       -0.010208116 0.0059522674 -0.030733837 0.08295211
0002f0 9b cf 86 3d 6c 3b 31 3d 05 c4 e4 bd 81 73 db 3d
       0.06582566 0.04326956 -0.111702 0.1071539
000300 0c 47 9b bd 1d dd b3 3d 3e 90 a8 3d e7 40 f8 bc
       -0.075819105 0.087824084 0.08230637 -0.030304385
000310 85 28 e9 3d 56 81 bd bd 53 0e 0f bd 70 b4 9c bd
       0.113846816 -0.092531845 -0.03492577 -0.07651603
000320 11 c6 be 3c ab 01 4b 3d 15 56 fe 3d 00 53 e5 3b
       0.023287805 0.049562138 0.124187626 0.0069984198
000330 53 76 b8 bd bb 47 00 3c 11 34 8e bd b6 23 31 3d
       -0.090069436 0.007829602 -0.06943525 0.043246947
000340 6a f1 24 3d f2 03 35 3c eb 7f 6b bd 9d 17 15 3d
       0.040269293 0.011048304 -0.05749504 0.036399473
000350 f9 c7 d1 bd a1 f5 86 3d 1a 3b 8a 3d 64 0e cf bc
       -0.1024322 0.06589819 0.06749554 -0.025275417
000360 30 f2 fc bb e3 0f dc bd 62 76 87 bd e0 ad 6a 3d
       -0.0077193007 -0.10745218 -0.066143766 0.057294726
000370 f2 82 67 3d f2 46 07 bd 6e ec 9c 3d f2 b7 3a 3d
       0.056521364 -0.033026643 0.07662283 0.04558558
000380 20 09 61 bd c3 34 30 bd df fc a3 3d ed 79 84 3a
       -0.054940343 -0.043019067 0.08007216 0.0010107137
000390 02 45 3a bd 47 5d 3c bc 2c 3b 9e bd 63 f9 c1 bd
       -0.045475967 -0.011496848 -0.0772613 -0.09471395
0003a0 18 d2 b8 3d dc 23 4f 3d 21 ec 33 bd bf 1e f3 3d
       0.09024447 0.050571308 -0.043926362 0.11871099
0003b0 3b 9a 0f bd ee 6d 6d 3d 30 4e 5d bd 5c 59 7d bd
       -0.035059195 0.057966165 -0.054029644 -0.061852798
0003c0 1f 88 d0 3d 2e 30 eb bd ae e6 da bd 06 f0 ad bd
       0.10182213 -0.11483799 -0.1068853 -0.084930465
0003d0 d3 17 f4 bc 26 e1 87 bd 8f 2a 09 3c 27 23 0e bd
       -0.029796517 -0.066347405 0.008371963 -0.034701493
0003e0 d9 c8 fc 3b de 9b 33 3d 72 a3 fc bc 59 9b 1c 3c
       0.0077143726 0.04384982 -0.030839656 0.009558522
0003f0 56 93 57 bd c7 20 2f bb 66 23 2c bd 1e ea 11 3c
       -0.052630745 -0.0026722418 -0.042025946 0.008905916

grucell.bias_ih f4 [192]
000000 5b b0 da bd c8 1e cc 3c 20 86 1d 3c 8d 8e 95 3c
       -0.106781684 0.024917021 0.009614497 0.01825645
000010 12 98 de 3d 75 fa a1 3d 07 8b 3a bd 9e 64 65 3c
       0.10868849 0.07909099 -0.045542743 0.01400104
000020 6a 56 02 3c 39 40 db 3d 7a b2 44 3d 75 d2 42 3c
       0.007955173 0.10705609 0.04802177 0.011890997
000030 d7 42 ca bd 57 16 8f bd d9 39 db bd 61 61 dd bd
       -0.0987603 -0.06986683 -0.10704393 -0.10809589
000040 14 2d 1e bd 13 de a8 3d 19 88 b0 bd 77 9b 83 bd
       -0.03861721 0.08245482 -0.086197086 -0.06426137
000050 bc 37 d6 bb 90 25 17 bc 31 bb ed bd 8d b3 8b 3d
       -0.006537406 -0.009225264 -0.116079696 0.06821356
000060 96 e2 ab 3c 5d fe bd 3d 19 d6 e4 bc 5d 62 dc 3d
       0.020982068 0.092770316 -0.027934121 0.10760949
000070 dd 46 8a ba 5f 6d 2d 3d 64 a8 a5 bd 8a d1 a9 3d
       -0.0010549683 0.042340633 -0.080887586 0.082919195
000080 50 4e 06 3d 4c 25 c0 bd 0c 35 f2 bd 86 0e 09 bd
       0.03278953 -0.09382114 -0.11826524 -0.033461116
000090 e3 54 73 3a da 26 be bd 30 e2 f1 bd 63 c4 ad bd
       0.00092823635 -0.09284754 -0.1181072 -0.084847234
0000a0 73 81 8f 3d 1b 4b a2 3d 95 05 fa bd 3a 17 19 bd
       0.07007112 0.079244815 -0.12208096 -0.037375666
0000b0 f6 bd 62 bd 1b a9 5c 3d 99 ab dc bd df b1 8d bd
       -0.055356942 0.05387221 -0.10774917 -0.06918692
0000c0 4a 33 bb bd bd 1a 0d ba 5d 17 90 3d b0 e0 37 bd
       -0.09140642 -0.00053827075 0.07035706 -0.044892013
0000d0 64 46 b3 bd 67 01 62 3d 61 fd ec 3d 39 43 22 3c
       -0.0875366 0.05517712 0.11571766 0.009903722
0000e0 e3 f3 13 bd ad a1 84 bd f9 24 c4 3d 92 6f 96 bd
       -0.03612126 -0.0647615 0.095773645 -0.07345499
0000f0 81 be 17 bd 3e 77 6b 3d e3 0f ee 3c bb e8 c9 3b
       -0.037046913 0.057486765 0.02906031 0.006161777
000100 02 bf aa bd 25 66 88 3d 37 59 43 bc f0 63 98 3d
       -0.08337213 0.066601075 -0.011923126 0.074409366
000110 2a 33 27 bd ac a4 e2 bd cf aa 33 bd 96 b9 f4 bd
       -0.04082028 -0.11066565 -0.043864068 -0.1194946
000120 36 a1 cb bc d0 c3 d0 bc f4 b2 3e 3d 07 f6 ab bd
       -0.024857145 -0.025483996 0.04655738 -0.08396535
000130 60 de bd 3c 26 f1 3e 38 3a 36 e2 3d db 15 81 3c
       0.023177326 4.5524117e-05 0.11045499 0.015757492
000140 b9 b3 de bd 90 85 c8 3d 01 81 87 bd 61 57 a4 3d
       -0.10874123 0.097911 -0.066164024 0.08024479
000150 ff 55 f9 bd 66 bf 3b bd bb a6 1d 3d 3d 7d 51 bd
       -0.121746056 -0.04583683 0.038489085 -0.051144827
000160 7e dc 56 bd 5b 49 ba bd 92 54 ae bc e3 b5 dd bc
       -0.05245637 -0.09096023 -0.02128056 -0.02706427
000170 a7 8e 66 bc 29 8f bb bc 57 83 cc bd c5 5f e4 bd
       -0.014072097 -0.022895413 -0.099859886 -0.11151079
000180 25 57 ef bd 49 d0 cd bd 93 fa 00 be 77 45 54 3d
       -0.116865434 -0.10049493 -0.12595586 0.05182406
000190 3f c8 bd 3c ed f4 81 bd 64 ab c9 3c d8 fe af bc
       0.023166774 -0.06345544 0.024617858 -0.021483824
0001a0 c4 47 af 3c ad 27 9f bd 87 2a 99 3c c3 c7 f3 bd
       0.021396525 -0.077712394 0.018697036 -0.11903336
0001b0 c3 16 3c bd 75 c4 80 bd 78 b7 b1 3c c6 12 86 3d
       -0.045920145 -0.06287471 0.02169393 0.065465495
0001c0 c4 d8 15 bd aa 98 99 3d 7e 00 f4 3c 16 fb e1 3a
       -0.036583677 0.074998215 0.029785391 0.0017240967
0001d0 0b 32 e8 3d 3e c9 f0 3d 7b da c3 bd a2 d8 a9 3d
       0.1133767 0.11757134 -0.09563156 0.082932726
0001e0 30 68 b2 3d 91 04 ba 3c 7c e2 64 bd 16 20 c2 bc
       0.087112784 0.022707256 -0.055880055 -0.02369694
0001f0 24 48 fd 3b bc a2 85 bd fd 9f ac 3c c5 f9 05 3c
       0.007729547 -0.0652518 0.021072382 0.0081772255
000200 09 09 2e bd cd 0b c0 bc 36 30 f6 3c e0 8f 44 bd
       -0.042489085 -0.023443127 0.030052286 -0.047988772
000210 b8 12 07 3d 2d 61 90 bd 7f 9e 33 bd 86 b1 9b 3d
       0.032976836 -0.07049785 -0.043852326 0.07602219
000220 e6 48 5b 3d 1d 63 91 bd c4 00 62 3e ca c8 04 3e
       0.05353632 -0.070989825 0.22070605 0.1296722
000230 97 99 ee 3d bf 3c 7b bb 73 f1 b7 3d 75 21 ae bd
       0.11650389 -0.0038335768 0.089816 -0.08502475
000240 77 f6 0a be 5f 73 95 bd 0d c7 ad bd bd c5 b5 bd
       -0.13570581 -0.07297396 -0.084852315 -0.08875606
000250 76 c8 2c 3e b4 fe a0 bc ed fc 2a 3e b8 f5 52 3e
       0.16873345 -0.019652702 0.16698046 0.20601547
000260 d4 91 82 3d 87 82 c1 3d c8 da 17 be 34 e6 f5 bd
       0.06375471 0.09448724 -0.14829552 -0.120067984
000270 0c 9a 2d be 71 29 24 3e 65 07 03 be e0 1c ac 3c
       -0.16953295 0.16031434 -0.1279579 0.021009862
000280 33 c8 a0 3d 63 f6 db 3d 85 e9 1b 3e 0f 17 b7 bd
       0.07850685 0.10740354 0.152258 -0.08939945
000290 96 b4 ec bc 51 c4 df bd 1b 63 3f bb 38 ac c4 3b
       -0.028894704 -0.10926116 -0.0029203359 0.0060019754
0002a0 46 f1 ef bb 2f f0 04 3e cd f6 9d 3a 95 4c 73 3e
       -0.007322463 0.12982248 0.0012051702 0.23759682
0002b0 f3 53 7a bc eb 28 3c bd 77 ad 85 bc 7e 34 be bd
       -0.015278804 -0.04593746 -0.016318066 -0.09287356
0002c0 cb 00 78 bb e9 68 8e bd 33 e9 03 3e cc 1d c7 3c
       -0.003784227 -0.06953604 0.12881927 0.0243062
0002d0 f7 8e c4 3d f8 17 80 bd 88 5d b2 3c ad 2b b9 bd
       0.09597581 -0.06254572 0.021773115 -0.090415336
0002e0 ae 29 1e bd 70 41 e1 bd fc 92 48 bd cc 73 04 3d
       -0.038613968 -0.10998809 -0.0489683 0.032336995
0002f0 e2 79 77 3d a7 bc ab 3c b2 90 1f 3e a1 fb a0 bd
       0.06041897 0.02096398 0.1558254 -0.078604944

grucell.bias_hh f4 [192]
000000 33 e2 86 3c 64 55 56 bc a0 8b 37 bc 76 19 7a 3d
       0.016465282 -0.013081882 -0.011202723 0.061059438
000010 d1 de ec 3c 5f f2 95 bd 3f 2c 6a bd 99 d6 dd bd
       0.02891484 -0.07321619 -0.057171103 -0.10831947
000020 93 4d f6 bd 69 2d 84 bd 16 2d e2 bd a2 21 a2 3d
       -0.12026515 -0.06453974 -0.11043756 0.07916571
000030 c7 53 eb ba 41 51 6e bd c9 78 ce bd e3 52 0b 3c
       -0.0017954045 -0.05818296 -0.10081632 0.008503648
000040 ff c1 88 3d e9 1e 8f bd f1 43 69 3a 43 ee c2 3b
       0.06677627 -0.069883175 0.00088983687 0.005948813
000050 4d 21 06 bd c8 0a 79 3d e7 c2 a8 bd e5 26 d1 3d
       -0.0327466 0.060801297 -0.082403 0.10212497
000060 ca a4 d7 ba 21 d4 80 bc 20 be 83 3d b7 55 7e bb
       -0.0016452309 -0.015726151 0.06432748 -0.0038808414
000070 9a 81 28 bd 62 e1 d9 bd 75 b2 56 3c d8 e6 8f 3d
       -0.041139223 -0.106386915 0.013104071 0.07026452
000080 88 39 4b 3d 83 60 70 bd 70 bf 1c 3d 11 8f a9 bc
       0.049615413 -0.05868579 0.038268507 -0.020698102
000090 d8 11 ca bd ed 5e 9c bc bd 56 18 3d 29 1a 9f ba
       -0.09866685 -0.019088233 0.037192095 -0.0012138534
0000a0 57 44 bf bd 27 88 e1 bd ca 9b 63 bd be 8f 3c 3d
       -0.09339207 -0.11012297 -0.055568494 0.04603552
0000b0 e8 ea cf 3c 20 13 b2 3c 1d 98 6d bd a7 28 a9 bd
       0.025380567 0.021737635 -0.058006395 -0.08259707
0000c0 a9 bf d1 3c 68 47 aa 3d 87 8e 4b bd 3e e7 de bd
       0.025604086 0.08314401 -0.04969647 -0.1088395
0000d0 2c f7 f0 3d 28 0b c3 3d 3c 24 78 bd 97 c2 d8 bd
       0.11765894 0.09523612 -0.06058143 -0.1058399
0000e0 b0 04 8a 3d 5d 37 cf 3d 9b c5 f9 3d b2 da 83 bd
       0.06739175 0.101179816 0.121958934 -0.06438197
0000f0 c7 d1 da bd 32 51 39 3d 08 2d 68 bb 51 82 e0 bd
       -0.10684543 0.04524345 -0.0035427231 -0.10962356
000100 ac 22 d7 bd 79 18 eb 3d ae 28 91 bd 3c 4c ce bd
       -0.1050466 0.11479277 -0.07087837 -0.10073134
000110 76 a5 da 3d f9 bf 9b bc 66 97 ff 3d f0 61 1f 3c
       0.106760904 -0.019012438 0.12480049 0.00972794
000120 a4 24 ff bd 68 e2 97 3c 58 22 58 3d 80 2a 11 bc
       -0.124581605 0.018540576 0.052767128 -0.00886023
000130 53 40 4f bd 48 1c b5 3d 42 7e 38 3d d8 77 a4 bd
       -0.050598454 0.08843285 0.045042284 -0.08030671
000140 eb d9 9d 3d 7e dc 9e 3d a4 b4 a1 3c 83 e5 a5 3d
       0.0770758 0.07756899 0.019739456 0.081004165
000150 99 6b aa 3d 61 09 55 3b 49 e6 da bd 2c 4d f7 3c
       0.08321304 0.003250681 -0.10688455 0.030188166
000160 65 47 f6 3d bb 93 d2 bd 2d 69 19 bd ef 6b f5 bd
       0.12025336 -0.102820836 -0.03745382 -0.11983477
000170 24 6f 8c 3b 37 af ab 3c 5c 63 21 3d 8d 57 6f bd
       0.00428571 0.020957572 0.039401397 -0.058433104
000180 4f be 4a bd a5 fb 95 bd db 70 e7 bd 9b 84 4e bc
       -0.0494979 -0.07323388 -0.11300822 -0.012604858
000190 e2 14 a7 bd 01 fd bb 3c cb cf c6 3d 6d ff af bd
       -0.0815828 0.02294779 0.09707602 -0.085936405
0001a0 d9 56 b1 bd 0e ce 51 bd 1e 11 70 bd 06 18 81 3c
       -0.08659143 -0.0512219 -0.058610074 0.015758526
0001b0 3b 65 ad 3d 8d 24 96 3d c8 ab d7 bd e2 e0 f4 3c
       0.08466574 0.0733119 -0.105308115 0.029892389
0001c0 a8 95 7e 3d 20 ad 98 3d bd 70 88 3c 5d 67 c9 bc
       0.062154442 0.07454896 0.01665532 -0.02458542
0001d0 37 14 1c bc 58 ad b0 3d f9 25 b7 3d 8c dd 90 bd
       -0.009526304 0.08626813 0.089427896 -0.07073507
0001e0 da 9a ca bd c7 1a 97 bc 5c e5 cf bd 0f fd 6a bd
       -0.09892817 -0.018445386 -0.10151169 -0.05737024
0001f0 9c 86 91 bd 30 3c e1 3d 3a 2e f4 bd 10 57 bb bd
       -0.07105753 0.10997808 -0.119228795 -0.09147465
000200 4a d6 1e be 74 1e 7e bc 3c 7c 57 3d 3b 55 f3 3b
       -0.15511432 -0.01551019 0.052608714 0.0074259317
000210 ec dc ac bd 29 c8 c0 bd 6b f1 4c 3d 47 48 02 be
       -0.08440575 -0.094131775 0.05003492 -0.12722884
000220 63 15 9e 3d 8f 9b 21 be ef 6c fd 3c 09 87 7a bd
       0.07718923 -0.15781997 0.030935733 -0.061163936
000230 c7 1c 20 3d ea 93 63 3d 47 58 e8 3d 06 c5 c0 3d
       0.039089944 0.055560984 0.113449626 0.09412579
000240 65 ce a0 3b ee 98 c5 bd 37 41 9a 3d 46 88 fb 3c
       0.0049074166 -0.0964831 0.0753197 0.030704629
000250 d1 11 2e bc fd 69 ab 3d 38 69 bc 3c 0a e9 e7 3c
       -0.010624365 0.08369825 0.022999391 0.028309364
000260 81 f8 e9 bc c1 62 41 3d e8 ec fa bd 4f cd 35 be
       -0.028560879 0.04721332 -0.122522175 -0.177541
000270 91 20 cf bc cb 7b c7 3d a8 d0 4e bd 8d 1f 43 bd
       -0.025284084 0.097404085 -0.05049196 -0.04763751
000280 29 ae 5d bc 4e 2f 67 3c 6e d5 38 3d 20 72 24 be
       -0.013530293 0.014110399 0.045125417 -0.1605916
000290 fb 63 d9 3d 85 e3 ac 3d ae f7 1b 3d 4c ff 03 3e
       0.10614773 0.084418334 0.038078003 0.12890357
0002a0 4c 4a 0e bc e2 95 19 3e c2 bb b6 bd dc 4e 94 bc
       -0.008684706 0.14998582 -0.08922531 -0.01810401
0002b0 a9 6e 4b bd 07 5e 86 3d f2 6a 10 bd 89 bb 10 be
       -0.04966608 0.06560903 -0.03525824 -0.14134039
0002c0 3f 98 de bc 79 7c 87 bd 2a 3e df 3d f3 9a 87 3b
       -0.027172206 -0.06615538 0.10900529 0.0041383444
0002d0 59 d6 a4 bd c8 08 0b be 82 21 2b 3d e8 f8 dc 3d
       -0.08048696 -0.13577569 0.041780002 0.107896626
0002e0 d0 7f 9c bd 52 4c f6 3b 9c d8 07 3d 61 2f cf bd
       -0.07641566 0.0075164223 0.03316556 -0.10116459
0002f0 c7 01 a7 bd f8 07 ff 3d d3 2a 31 3d c5 28 32 3d
       -0.08154636 0.12452692 0.04325373 0.043495912

linear.weight f4 [2, 64]
000000 6a 12 9d 3d c5 ed b2 3c 7a 91 0a bc aa 46 98 bd
       0.07669528 0.021841893 -0.008457536 -0.07435353
000010 5c a0 db 3d 17 2f e9 3d 27 29 b7 3d 46 a1 82 3d
       0.107239455 0.11385935 0.08943396 0.06378417
000020 da b6 70 3c 9f ba 77 bc e3 bd 18 bd c5 e8 2a bd
       0.014692033 -0.0151201775 -0.037290465 -0.041725893
000030 b0 0b 32 bd 4c 14 f3 3d ed ad be bc 9c a5 80 3d
       -0.043468177 0.11869106 -0.023276294 0.062815875
000040 39 d2 cf 3c 46 e2 11 3c fa 4f a6 3c 02 5f 9a bc
       0.025368797 0.008904045 0.020301808 -0.018844131
000050 84 a3 a7 3d 5a 6c 62 3d 32 4b b1 3d bf 19 bb bc
       0.08185485 0.055279113 0.086569205 -0.022839425
000060 73 e9 0d bd 91 1a 18 3d 7a 32 97 3c 10 50 cf bd
       -0.034646463 0.03713471 0.018456686 -0.101226926
000070 c0 8b 8c bd 22 45 b3 3d ac f1 eb 3d 0a df 91 bc
       -0.06862593 0.087534204 0.115207046 -0.017806549
000080 a2 5d fe bd 17 38 bb bd dd 02 7e bc 55 f7 97 3d
       -0.12420203 -0.09141558 -0.015503612 0.07420222
000090 0c d8 eb 3d 95 ab 94 3d 0d 35 d6 3d 25 55 9e 3d
       0.11515817 0.07259289 0.104593374 0.07731084
0000a0 97 d0 a1 bd ad d8 d6 3d ad 57 96 bd 24 28 30 3d
       -0.079011135 0.104905464 -0.073409416 0.04300703
0000b0 e7 d5 9d bd 3e 3d a5 bd c4 38 b1 3c 21 2e 2c bd
       -0.07706814 -0.08068322 0.021633513 -0.04203618
0000c0 57 4b fb bc a8 f5 ce bd dd 16 14 3d ca 8f 83 bd
       -0.030675573 -0.10105449 0.036154617 -0.0642391
0000d0 dd 43 ad 3d b8 11 9e bc 17 43 ef 3d 26 18 e5 3d
       0.084602095 -0.019295558 0.11682718 0.111862466
0000e0 c5 7f ca bd d8 e2 7d 3d 02 b3 d6 3d 29 ff bb bd
       -0.09887651 0.061983913 0.10483362 -0.09179527
0000f0 ec 34 15 3d 2e c9 b4 3b 1c 56 6e 3d ab 41 88 bd
       0.036427423 0.0055171466 0.05818759 -0.0665315
000100 41 f9 22 bd e5 92 9b bd 74 b1 28 bc 0d fc dc bc
       -0.03978849 -0.07596377 -0.010296214 -0.026975656
000110 ee 85 af bd e0 0a b5 3c f5 30 5d bd 23 99 ad 3d
       -0.08570467 0.022099912 -0.054001767 0.08476474
000120 d9 1a df bc 93 6d 12 3d 60 ea fd bd cb b5 10 bd
       -0.027234482 0.03574903 -0.12398219 -0.03532962
000130 68 ea f7 bc 02 67 91 bc 18 83 45 ba 23 e9 8b 3c
       -0.03026314 -0.017749313 -0.0007534488 0.017078942
000140 60 24 93 3d 87 27 8f ba 79 fc ab bc 2b 56 39 bd
       0.07184672 -0.0010921814 -0.020994412 -0.04524819
000150 b3 dc 0f bb e8 10 e9 bd d2 e1 ce bc bd 79 cb 3c
       -0.0021951615 -0.11380178 -0.025254164 0.024838323
000160 24 20 42 bd b0 4c 74 bd bd 4a 96 bc c9 aa b4 3d
       -0.047393933 -0.059643447 -0.018346185 0.08821637
000170 30 f9 86 bd 7d a9 33 3d 5b ac 9b 3d 47 5b ca 3d
       -0.065904975 0.04386281 0.076012336 0.09880691
000180 15 e8 9a 3d 1e 66 0c 3d 3e dd 88 bc 07 6e 71 3d
       0.075637974 0.034277074 -0.016707059 0.05894282
000190 87 3f f3 bd 1f f3 a2 bd 3c 3d fb 3d 54 34 a2 bd
       -0.11877351 -0.07956528 0.12267539 -0.07920137
0001a0 c6 c0 2f 3d e7 1a 36 3d c2 3f b7 bc db 88 ad bd
       0.042908452 0.04445925 -0.02236927 -0.08473369
0001b0 6f 77 d9 bd 6b 56 8e 3d 25 3e c0 3c ad ba d6 bc
       -0.10618483 0.06950077 0.023467133 -0.02621206
0001c0 fa 65 bc bc 3e d4 b3 3d 94 f4 5e bd f7 05 cc bd
       -0.022997845 0.08780716 -0.054432467 -0.09962075
0001d0 3e b5 7b bd fa e9 dd 3b 96 3b d9 bd de 60 67 bd
       -0.061452143 0.006772277 -0.10607068 -0.056488864
0001e0 b9 20 fb bd 1b a3 c4 3d 5e 85 d2 3c ef 42 3a 3d
       -0.12262101 0.096014224 0.02569836 0.04547399
0001f0 f4 80 ea bd 8d 7f db 3d 5c 3b 12 bd d5 72 93 3d
       -0.11450377 0.10717688 -0.03570114 0.07199637

linear.bias f4 [2]
000000 1e f5 82 bc aa 97 7c 3d
       -0.015986022 0.061668076

linear_final.weight f4 [5, 64]
000000 79 ca 83 3d 55 40 5d bd a8 05 2d 3a 52 dd 8e 3c
       0.06435103 -0.05401643 0.0006600269 0.017439518
000010 36 b2 1d bc 7f 30 93 3d 8e c9 8f bc 9a 99 c9 bd
       -0.009625008 0.07186984 -0.017552163 -0.0984375
000020 94 0c 45 3d 3f c4 93 bd 40 0a 92 bd 60 a3 12 bd
       0.0481077 -0.07215165 -0.07130861 -0.035800338
000030 7a 1a b8 3d 1e 78 ae 3b ee 3b cf 3d 00 b8 f9 3c
       0.08989425 0.0053243777 0.101188526 0.030483246
000040 eb f9 0b bc fc 04 82 3c 47 58 c9 bd f8 9c 0e 3d
       -0.008543472 0.015871517 -0.09831291 0.034817666
000050 de d6 96 bd e2 2f e4 3c d9 cb 84 bc 54 79 21 bd
       -0.073652014 0.027854864 -0.016210483 -0.03942235
000060 44 1e 42 3d e9 81 ab bb 35 a1 b4 3d 97 05 e7 3d
       0.047392145 -0.0052339924 0.0881981 0.11280363
000070 67 b3 d8 3b 3f 13 aa 3d e7 c4 18 3d bb f3 87 bd
       0.0066131833 0.08304452 0.037297156 -0.06638285
000080 5f 9a 74 bd 54 f8 59 3d 1e b8 6a bd 38 6d 5d bb
       -0.059717532 0.05321534 -0.057304494 -0.0033787023
000090 7e 69 82 3d d5 8b 8d 3d 1b 9e cf 3d 60 a5 ef 3d
       0.06367777 0.069114365 0.10137578 0.11701465
0000a0 2b 66 d5 bd 8b 10 e2 3d 8a 61 8f bd 61 8c c0 bd
       -0.104198776 0.110383116 -0.07001026 -0.09401775
0000b0 19 23 f3 bc ba d5 ea bc 53 8a b2 3d 37 dc 28 bd
       -0.029679822 -0.028666366 0.087177895 -0.04122564
0000c0 4d 71 88 3d b3 c4 90 3d ef 12 8a bd 65 6f cc 3d
       0.066622354 0.070687674 -0.067418925 0.09982184
0000d0 76 de 02 bd d9 c3 c9 bd b3 ef 92 3d a5 c5 ae bd
       -0.031950437 -0.09851808 0.07174625 -0.085337915
0000e0 0b c4 de bc 3f 92 d4 3c f4 f7 c2 bb 2b 9c 77 3c
       -0.02719309 0.025948642 -0.0059499685 0.015112917
0000f0 5b c3 93 bd ff 0d 8e bd 8b 58 a1 3d d8 bf d1 3d
       -0.072149955 -0.06936263 0.07878216 0.102416694
000100 58 71 03 3d 6e ca 94 bd 2c 84 be bc 61 b9 92 3d
       0.032090515 -0.07265173 -0.023256384 0.071642645
000110 fc d8 8a bd 36 a7 95 bd 28 b2 ce bc 0b b1 c2 bd
       -0.06779668 -0.073072836 -0.025231436 -0.095064245
000120 1d fd 19 3d bd 9d f2 3c 12 37 ac 3d 1c 47 9d 3d
       0.037594903 0.029616231 0.08408941 0.07679579
000130 8f 3c 94 bd f7 d2 8b bc b8 db 90 bd 7f 9a 62 3d
       -0.07238113 -0.01706837 -0.07073158 0.05532312
000140 53 7a b0 bc 67 ea 80 3c 0f 99 19 3d 4a a3 c2 3d
       -0.021542704 0.015736772 0.037499484 0.09503801
000150 ef 82 38 bd a8 6e 90 3c 11 e4 97 3d 1d 63 7a bc
       -0.045046743 0.01763089 0.07416547 -0.0152824195
000160 33 11 2b bd f3 7d 6b 3d 44 74 5e 3c 3a a3 e3 3c
       -0.04176445 0.05749316 0.013577525 0.027787793
000170 51 50 5e 3d 89 53 9b 3d d1 1b b6 3d f3 fa 9a 3c
       0.054275814 0.075842924 0.08892024 0.01891849
000180 8a d4 11 bc 0c 44 dc ba bf 2b f8 bb 0e 0f 90 bd
       -0.008900771 -0.0016804948 -0.0075735743 -0.070341215
000190 ea 9a 8a 3d 8b 24 4c 3d d9 6a 7f 3d 92 fb 3c 3d
       0.06767829 0.049839538 0.062357757 0.046138354
0001a0 02 f1 7f bb 76 48 42 bd 04 c0 a4 bd e7 06 6f 3d
       -0.0039053564 -0.047432385 -0.080444366 0.058356192
0001b0 24 f9 7f ba 0d d0 11 3d ed a7 ab bd d0 96 5b 3d
       -0.0009764603 0.035598803 -0.08381639 0.053610623
0001c0 74 2f ca 3d 73 75 99 3d 24 a0 76 3d 46 06 a6 bd
       0.09872332 0.07493105 0.060211316 -0.08106665
0001d0 6c f1 95 3c fa 9a 86 bd 88 5e c9 3c 8c 03 98 bd
       0.018303595 -0.06572528 0.024581209 -0.074225515
0001e0 16 38 12 3c cd 3b a4 3c 62 27 80 3c 9a c5 1c bd
       0.008924505 0.020048046 0.01564378 -0.038274385
0001f0 99 f3 4b 3d 84 52 1f bc 28 ba 41 3a 93 bc b4 bc
       0.04979286 -0.009724263 0.0007390105 -0.022062575
000200 5e b9 b3 3d ed 89 9f bd ea 1f 31 3c 49 29 16 3e
       0.0877559 -0.07789979 0.010810832 0.14664187
000210 b5 37 03 bd 64 a2 e8 3d 78 8a 9a 3d 4a ac 15 3d
       -0.03203555 0.113590986 0.07545942 0.03654126
000220 8f 9c 83 bc fd 92 ee 3d dc 7b 53 be ed 28 57 bd
       -0.016065864 0.116491295 -0.20652717 -0.052529264
000230 5f d0 ee bd 5b 30 a9 bd eb 7d 30 be e3 c4 43 3d
       -0.116608374 -0.08261176 -0.17235534 0.047795188
000240 7b 6c d8 3d cb 18 65 bd 47 f8 fe 3d 6e 16 06 3e
       0.10567566 -0.055931848 0.12449699 0.13094494
000250 64 8c a0 bd c0 1e 61 bd ca cc 01 be f5 78 17 be
       -0.078392774 -0.054960966 -0.12675777 -0.14792235
000260 64 6d 0d be 44 9a df bd 43 d0 53 3e e1 41 05 3e
       -0.1381126 -0.10918096 0.20684914 0.13013412
000270 ad f0 51 3e 46 7e fd bd 53 c6 d5 3c 55 c2 5f 3b
       0.20501967 -0.123776 0.026095545 0.003414293
000280 85 90 36 3d 27 bd 02 be 37 0c 18 bb b0 e2 f3 3d
       0.04457142 -0.12767468 -0.002320064 0.119084716
000290 f7 da 72 bb 38 c3 13 3d d3 54 95 3c b8 56 a7 bd
       -0.0037056783 0.036074847 0.018228924 -0.08170837
0002a0 2c 72 c1 bd 7f 93 cb bd 91 39 94 bd 1a c4 1d be
       -0.09445605 -0.09940242 -0.072375424 -0.15406838
0002b0 be f1 ac bd ca 91 c5 3c 1a 85 85 3d e3 b6 3e bc
       -0.08444546 0.02411737 0.06519528 -0.011640283
0002c0 9a e7 69 3d 05 03 8f 3d f6 31 2d be 41 d0 64 bd
       0.057105638 0.06982998 -0.1691359 -0.05586267
0002d0 a3 a2 0d bd 62 f7 93 3c 01 5e 66 3c 19 09 6c 3c
       -0.03457893 0.018062297 0.014060498 0.014406466
0002e0 1f 80 4b bd 24 ac 15 3d 02 be bb 3d 6a 6e 26 bd
       -0.049682733 0.03654112 0.091671005 -0.040632643
0002f0 ab 2a e2 bd 77 4d 70 3d c5 47 ac bd ea e7 b2 3c
       -0.110432945 0.058667626 -0.084121265 0.0218391
000300 35 a3 1b 3e 01 ec 05 bd 7a a6 cd bd 85 9f f1 3c
       0.15198977 -0.032695774 -0.100415185 0.02949501
000310 bd 3a 8e bd cd bb 89 3d 4e c4 33 bd 4b f6 c4 bd
       -0.06944797 0.06725273 -0.043888383 -0.09617289
000320 d9 d4 c6 bd 02 d4 e7 3d 62 5e 95 be 1d fc a7 bc
       -0.09708566 0.11319734 -0.2917357 -0.02050596
000330 e1 93 47 be 92 f1 a3 3d 14 3d 50 be 79 55 85 3d
       -0.19490005 0.0800506 -0.203358 0.06510443
000340 ee 0d 31 3e 65 67 41 3d dc 16 85 3d da cb aa 3d
       0.1729047 0.047217745 0.06498501 0.08339663
000350 b6 01 27 be bc b6 2c 3d ca ec 17 be 5c 05 81 be
       -0.16309246 0.042166457 -0.14836422 -0.251994
000360 6c f5 be bc 08 31 cd bd 3e 8c 64 3e de 41 40 3e
       -0.023310386 -0.100191176 0.22319123 0.18775126
000370 ad 54 81 3e 43 7e 53 be 0a 1e 84 3e 18 3b 72 3d
       0.25259915 -0.20653634 0.25804168 0.059138387
000380 35 35 9c bc a1 93 94 bd 8a f7 56 be c7 f8 64 3e
       -0.01906834 -0.072547205 -0.20992866 0.22360526
000390 ae be bb bd 61 e9 d9 3d 14 6a 89 3d c7 a5 48 be
       -0.09167229 0.106402166 0.06709686 -0.19594489
0003a0 ea bc 3b 3d fd e9 62 be 33 66 93 3c 6b 87 83 be
       0.04583446 -0.22159572 0.017993068 -0.25689253
0003b0 42 4d 53 3d ec 44 17 3b 95 54 54 3d 41 e5 67 3e
       0.05158735 0.0023081852 0.051838476 0.22646047
0003c0 d5 39 72 3c a2 ed a9 3d ae a4 3d be f7 29 8f bd
       0.014784296 0.08297278 -0.18519852 -0.06990426
0003d0 fe 97 ee bc 81 18 3e 3e 14 46 aa 3a 18 c1 de 3c
       -0.02912521 0.18564035 0.0012990856 0.027191684
0003e0 2c b7 cb 3d b2 45 48 3e 34 38 c4 3d 92 d2 0a 3d
       0.09947047 0.19557837 0.095810324 0.03389222
0003f0 a9 e0 87 3b 68 dc fc bd 7c 3f 45 be 3a ef 07 3e
       0.0041466546 -0.12346727 -0.19262499 0.13274851

linear_final.bias f4 [5]
000000 59 df 25 3d 42 ac e2 3c a7 ac d5 be e8 37 33 bf
       0.040496204 0.02767003 -0.41733286 -0.7000718
000010 27 fe 7f 3c
       0.0156245595
