model_checkpoint/eth/latest.pth (torch_old, 55823 bytes, 10 tensors)

gcn.gc1.weight f4 [2, 2]
00000000: 13ce 913f 5b93 d2be a8c3 613f 6d07 e63f
1.1391014 -0.41128048 0.8818917 1.7971016

gcn.gc1.bias f4 [2]
00000000: 98ee acbe 3ace 05be
-0.33775783 -0.1306695

grucell.weight_ih f4 [192, 2]
00000000: 693f c8bc 4113 d2bd 5d76 9c3d 8ceb 843e
00000010: 2692 c53d 3f71 6ebe 42bb 7ebe 69fd 6bbd
00000020: ea12 733c d2e5 a93d c61f adbc 96ae ba3b
00000030: df1e 503c b01c f93b cfc1 90bd da04 0c3e
00000040: 3239 e0bd c561 57be 0ea1 ecbd 3b3e 8bbd
00000050: 6037 debd 1446 333e 7f1c b43d 64e7 973d
00000060: ede2 d33d 72d8 a33d 0cda 7ebc 6081 d03d
00000070: 4bd0 72be 10fe d33c dd7a 043e 70ff f1bd
00000080: aa91 c8be f5cc 0bbd 3a2c 14bd 368d 843d
00000090: 385b ea3c 3ae1 64bd 5f19 b53d 67eb 04be
000000a0: 7573 a63d 9da4 c8bd 4b72 84be 421a b83d
000000b0: df00 cbbc c046 dabc ce85 93bd 5f7a f0bd
000000c0: acfa bcbd c334 093c 0fcc 7e3c b2e4 093e
000000d0: 9d93 c5bd 0317 eabd a4fc f23b 18f8 afbd
000000e0: 4fb0 e7bd 667b 92bd 5914 b93d ed5e f73d
000000f0: 4187 02be 8bfd 6d3e db3d dcbd 70d0 aabd
00000100: 8013 54be cbd1 613e cad6 45bd ceec 0cbe
00000110: c4ca 373d 78ca 4fbe 16fc 003d 7ceb a63d
00000120: 9c89 f2bd 0979 b5bd 5a07 23be 06f6 7a3e
00000130: de7f dabd 299c 4fbc 2812 1e3c 6687 e5bd
00000140: 8603 0abe 344d e23d 6f80 6fbe 6f16 4bbd
00000150: eadd d43d bf2e 103b ebe4 08be ce24 c33d
00000160: 449c 533e 185c 893c 95b8 26be f1a7 d03c
00000170: a2e2 293e a6d8 1ebe ce49 83bd 4df1 49be
00000180: 7909 ad3d 8152 0dbe c473 55be 5515 1b3d
00000190: 2866 183e 2b27 a2bd aebb dd3d 31de 9ebd
000001a0: 64a6 a63c 8768 d33d 8600 e7bd bdec 923d
000001b0: f30c aebd 5a73 c03c b196 e83d da3a 16be
000001c0: 3ca1 143e 9f50 483d 4f6a 37bd d777 a8bc
000001d0: 6c8e b9bd 2664 0a3e b977 72be 5aba 973e
000001e0: 7c7f cdbd 7f32 09be a974 32bc d88d 2d3e
000001f0: abac efbc dec5 b3bc 048b 9e3d ce57 3d3d
00000200: e91b 153e 5ec8 543e 62f6 34bf d74f 9f3e
00000210: e63a 9dbe 4600 9d3e f9bb 5fbd 269a 3c3e
00000220: 1786 d3bd ac1a 833e 0dd2 89bd 338c 2e3e
00000230: 5c9e 83be c00b a9bc b7ef fcbd dade 1c3e
00000240: a281 7fbe ff7b 9abe 1de8 643e 2159 28be
00000250: 59e6 32bb 2fe8 17be bc74 523e 095c a23c
00000260: 0fdb 8a3d a0c3 663b 4eeb d9bd 73b8 783d
00000270: 197e df3d f17a 5cbd 5ef5 89bc 4daf d53e
00000280: 9109 2cbe 85b5 603e d0cd 75be 892f 123e
00000290: 875c a4bd de7e d13d 5edd 103e 6c10 bb3c
000002a0: 09c2 333e e5d3 4e3d 6bac d83d b8e1 2abc
000002b0: 567f 2bbd c311 b03d c67c 1dbd f558 db3d
000002c0: 02d7 84be b7c2 5b3d ed17 9dbe b80e c63d
000002d0: 214f 943c 0701 813c 890c 86be fc0b 27be
000002e0: 51e1 173e 6f16 123e f7c4 58bd 838b 04bd
000002f0: 218c debd 7d70 893b 02b2 d0bc 4459 67be
00000300: 496c 563d 6b16 50be 3914 093d 26e8 873d
00000310: 203d ab3c b634 50be b30c 293e 135a c43e
00000320: b2fe 8d3e 292c 413b 008b 38bf b86d 9e3e
00000330: 0338 4f3e 08ef 203c ec1c ad3e 1df6 cd3e
00000340: e08e 873d d395 5bbe 1f06 523d c751 4c3e
00000350: 8069 18be fb15 acbd 96f6 093e 5164 c9bd
00000360: ea22 3bbe dd4c a13e 6352 563d 5b96 11bd
00000370: 1851 3bbe 6147 483e ee9c ca3c 83d6 8dbc
00000380: e551 bfbd 404a 9dbc 7bfa 523e f5f7 5b3e
00000390: 964c 20bd a01a ab3d 2c37 f43d 22bc 8fbd
000003a0: 97db bbbe b816 b43e 4f08 8a3c 9ce5 9fbd
000003b0: 2497 93bc 6708 b5bd fbbd 8cbe fd38 c53c
000003c0: e5b9 50be ea34 c1bd 0f11 093e d5f7 07be
000003d0: a46f 1b3d 68cb 893e 48f9 aebe 0321 bbbc
000003e0: d891 6b3e bf55 09be 23f2 753e fb31 743e
000003f0: c1c8 a83e ebac c23e 44b4 f7bd f699 a43d
-0.024444299 -0.10257579 0.076397635 0.25960958 0.09647016 -0.23285387 -0.2487612 -0.057614718
0.014836052 0.08295788 -0.021133315 0.005697082 0.012702673 0.007602297 -0.07068216 0.13673726
-0.10948409 -0.2103339 -0.11554156 -0.06798979 -0.10850406 0.17507201 0.08794498 0.07417181
0.10346017 0.08000268 -0.015554916 0.10180926 -0.2371227 0.025877982 0.12937494 -0.11816299
-0.39173633 -0.03413101 -0.03617499 0.06472246 0.02860795 -0.055878855 0.0884273 -0.12980424
0.081274904 -0.097970225 -0.2586845 0.08989383 -0.024780689 -0.026645064 -0.072032556 -0.117420904
-0.09227499 0.008374396 0.015551581 0.13466147 -0.096472956 -0.114301704 0.007415371 -0.08592242
-0.11312925 -0.07152443 0.09037084 0.120786525 -0.12746908 0.2324125 -0.107539855 -0.083405375
-0.20710564 0.22052686 -0.048300542 -0.13762209 0.044871107 -0.2029208 0.031490408 0.08150384
-0.11842653 -0.08860976 -0.15920773 0.24507913 -0.1066892 -0.012671509 0.0096478835 -0.11207466
-0.13477907 0.110498816 -0.23388837 -0.04958194 0.10393889 0.002200052 -0.13368575 0.09528504
0.2066508 0.016767547 -0.1628135 0.025470706 0.1659036 -0.15512332 -0.064105615 -0.19720955
0.084490724 -0.13801004 -0.20844942 0.03786214 0.1488272 -0.07917627 0.10826813 -0.077572234
0.020343013 0.103226714 -0.11279397 0.071740605 -0.084985636 0.023492504 0.11356867 -0.14670888
0.14514631 0.04890501 -0.04477912 -0.020564957 -0.09060368 0.13514766 -0.23678483 0.29634362
-0.10034081 -0.13398169 -0.010892072 0.1694864 -0.02925714 -0.021944936 0.07741359 0.046226315
0.14561428 0.20779559 -0.7068845 0.311156 -0.30708998 0.3066427 -0.054622624 0.18418178
-0.1032831 0.25606287 -0.06729517 0.1704567 -0.25706756 -0.020635486 -0.123504095 0.15319386
-0.24951795 -0.30172727 0.22354169 -0.1644025 -0.0027297942 -0.14834665 0.20552343 0.019819276
0.06780063 0.0035211816 -0.10640584 0.06072278 0.10912723 -0.053828184 -0.016840633 0.41735306
-0.16800524 0.21944244 -0.24004292 0.14275946 -0.08025461 0.10229276 0.14146945 0.022834979
0.17554487 0.050495047 0.10579761 -0.010429792 -0.041869484 0.08597138 -0.03844907 0.107103266
-0.25945288 0.05365249 -0.30682316 0.09670776 0.018104138 0.01574756 -0.2618144 -0.16313165
0.14832045 0.1426637 -0.052922215 -0.03235961 -0.10866571 0.004194318 -0.025475506 -0.22592646
0.052349363 -0.20321052 0.03346655 0.06636076 0.02090317 -0.20332608 0.1650875 0.3834997
0.2773338 0.0029475784 -0.720871 0.30943084 0.2023621 0.0098226145 0.33811128 0.40226832
0.06619048 -0.21443872 0.05127537 0.1995307 -0.14883995 -0.0840263 0.13472971 -0.09833587
-0.18275037 0.31503955 0.052324664 -0.03554378 -0.18292654 0.19558479 0.024733033 -0.017314201
-0.09341792 -0.019200444 0.20603363 0.21481307 -0.039135538 0.08354688 0.11924586 -0.07018305
-0.3669097 0.35173583 0.016849665 -0.078074664 -0.018016405 -0.08839493 -0.27488694 0.024075026
-0.20383413 -0.09433921 0.13385414 -0.13278134 0.037948266 0.26913 -0.34174562 -0.02284289
0.23004854 -0.13411616 0.24018149 0.23847191 0.32965663 0.3802255 -0.1209493 0.08037178

grucell.weight_hh f4 [192, 64]
00000000: 08b8 b43c 1fb2 a53b 163f 7e3d d72f b23d
00000010: 3f15 d93d 1743 a03d 74d6 b9bc 6402 813d
00000020: 6980 a6bd e16e 783d 8b8a 963d 9fc2 b53d
00000030: 1f7f 09be ce1f c1bb 45b7 a03d 3138 b1bd
00000040: 20c4 16be c4d9 3c3c 6c0e 9bbd b779 f63d
00000050: 9229 eebd 52c8 4d3d dbb5 b43d 8f13 0e3c
00000060: c7da 8dbd 58d4 763d ec7a dd3d 94e9 2e3d
00000070: 17f5 923c b943 2bbc 076d 063e c636 e83d
00000080: 41d1 953d a324 d23c 9bfa 233d 92fb 77bd
00000090: 19a7 e9bc 0f93 96bd e462 063d 5300 d23c
000000a0: e877 a6bd 0b29 a2bd 62ad e63c 1a72 3fbd
000000b0: 693c d63c af50 e23c 5578 d83d d49f 033e
000000c0: c840 57ba 04c0 7f3d 2eae 053d 83f9 653d
000000d0: 4887 683d c476 a83d b6dd 06be a559 eabc
000000e0: fda7 d8bb 2e47 a8bb 8f12 103d ff72 6a3c
000000f0: f280 efbc 3ccc 503d a1b3 103c b0be 9bbd
00000100: 00e5 40be adb8 38bd a5f9 e9bd cc5e 8c3d
00000110: bf84 293b 4fe8 88bc b409 dbbd 3681 e4bd
00000120: 7249 0abe 0314 b93d 9889 4a3d 4073 813d
00000130: 996e 003b 7601 fdbc 6e25 e7bb 5260 19be
00000140: 0e7c d1bc 9dda bbbc fd15 b33c 910d 073e
00000150: 2e37 f23d 3525 f43c ca44 34be fc2d a7bd
00000160: e3c3 cc3d 2616 573e 5719 2abb 8c6c 163c
00000170: 1bfa b0bc d6c6 a13c 0ac1 b53d f96e 0f3e
00000180: 76fe 293e dc98 143e c509 1ebe a995 e0bc
00000190: d95d 88bc e005 54be 00ad fe3d 01ae b53d
000001a0: 242a e53d 6e56 913d 474a 09b9 6db1 0cbe
000001b0: 3de3 4fbe 8162 fabd 2e3b 9fbd 4a01 26be
000001c0: db7e 16bc 2b6e ab3c 285c d4bd cf06 373d
000001d0: d3db 053e 9793 403e f117 75bc 2b9d bc3d
000001e0: 6026 46be d622 023d 3af3 1ebe 7ea7 15bd
000001f0: a24f 3abd 24e7 1f3e 57d6 e8bd fe6a 28be
00000200: 19fa 2ebe fde9 213d 5909 a0bc e4eb d8bd
00000210: a9b2 1bbe f97f 8c3d f554 753d 0bb3 a23d
00000220: 6ea9 3f3d ee16 debd c34f e33d 0f2b 123e
00000230: 2d06 0ebe 60a4 2a3e c396 213e 50fb 8a3c
00000240: 9400 05be d5f2 713d 9c3e 5cbc 016a cdbd
00000250: ba3b a1bd fbe2 abbd f0d3 563b a5dc e3bd
00000260: cd5c f43d 256f f4bd 184f 913c 5cae 05bd
00000270: 2c93 b93c bd8a 2dbb 347b f0bd 271c 7bbd
00000280: 2ac7 903d 49db 15bd 2040 613e fe98 623d
00000290: 3ab2 f03d 73bc 08be 7a76 aa3d 547d 4e3d
000002a0: 07e7 953d dda1 efbd 9dca 23be 9abe 123e
000002b0: 21b5 b23b 62cc 16bd 9a6c a7bd a055 eb3d
000002c0: 2628 19bd ea34 723d 96e3 893d 1eff 643d
000002d0: ab0a a1bd a155 d03c 8fa4 dabc f937 813b
000002e0: 294b eabd 3c41 4cbe 1b46 dcbd dee8 b23d
000002f0: 0c46 7f3d cfdc fb3d 5000 e6bd a951 6c3d
00000300: 5543 15be 8dc0 1cbe f7e5 fe3d f351 523d
00000310: 63d6 d6bc 6777 b2bd 9513 9e3d 46e9 bcbb
00000320: a40b 623c 9782 abbb f0a5 86bd 11ea 9bbb
00000330: e155 f2bd 52a9 19bb a7e5 c83d 2eb5 ee3d
00000340: 0869 003e 3d35 923d 568c 85bd 74a1 833d
00000350: 978a b33d f946 b1bd 8498 fabd 2f45 94bd
00000360: 4031 b73d 068f c03d 3b5c b7bd ce1d 473d
00000370: 6f36 55bc 8305 c2bd 91cc b7bd 9781 9b3d
00000380: 0d5c e1bd 737e f73d a66b 153e 2a6e 35bd
00000390: e824 b1bd 98de 8cbc c2d1 12be c626 2ebe
000003a0: b0be 983d 6ab5 ddbd cf91 7cbc 544a b53d
000003b0: 17a5 6f3b 7a29 e6bc cbb6 a6bd 0d62 27bd
000003c0: a1f8 033c 0d83 bdbd 35ec a83d 8f4f d7bd
000003d0: f829 d03d 9800 c43c 282b 063e e3e9 46bd
000003e0: 8680 893c b206 0fbe adec e7bb 229f d9bd
000003f0: f201 5dbc cfd3 45bc 5263 9d3d 6990 c93d
0.02206041 0.005056634 0.062071882 0.08700531 0.105997555 0.07825296 -0.022685267 0.06299284
-0.08129961 0.060652617 0.07350644 0.08875012 -0.13427399 -0.005893684 0.07847456 -0.08653296
-0.14723253 0.011526529 -0.0757111 0.12034934 -0.11629023 0.05023987 0.08823749 0.008671655
-0.06926494 0.0602611 0.10814461 0.042703226 0.017939134 -0.010453158 0.13127528 0.11338572
0.07315303 0.025652235 0.040033918 -0.06054265 -0.028522061 -0.07352268 0.032809153 0.02563492
-0.08128339 -0.079179846 0.028158847 -0.046739675 0.026151853 0.027626364 0.105698265 0.12853938
-0.0008211252 0.06243898 0.032636814 0.056146156 0.05676964 0.08225778 -0.13170514 -0.028607199
-0.0066118226 -0.0051354384 0.03517395 0.014309644 -0.02923629 0.050976023 0.008831889 -0.0760473
-0.18837357 -0.045097996 -0.11424569 0.068540186 0.0025866476 -0.016712336 -0.1069521 -0.111574575
-0.1350458 0.0903702 0.049447626 0.0632081 0.0019597171 -0.030884486 -0.0070540225 -0.1497815
-0.02557185 -0.022931391 0.02186107 0.13188769 0.11826931 0.029802898 -0.17604366 -0.08163068
0.099983 0.21004543 -0.0025955045 0.009181153 -0.021603635 0.019748133 0.0887471 0.14007176
0.16600975 0.14511436 -0.15433414 -0.027415114 -0.016646313 -0.20705366 0.12435341 0.08871079
0.11189678 0.07096563 -0.00013093009 -0.13739558 -0.20301528 -0.122258194 -0.077749595 -0.16211429
-0.009185518 0.020926556 -0.1036914 0.044684228 0.13072138 0.18806301 -0.014959321 0.09209665
-0.19350576 0.031771503 -0.15522471 -0.036536686 -0.0454861 0.15615517 -0.11369007 -0.16447064
-0.17087592 0.03952979 -0.019535707 -0.105918676 -0.15204872 0.06860346 0.059895474 0.07944306
0.04679244 -0.10844217 0.11099198 0.14274238 -0.13869543 0.16664267 0.15780167 0.016965538
-0.12988502 0.059069473 -0.013442662 -0.10029984 -0.0787272 -0.083929025 0.0032780133 -0.11126069
0.11931763 -0.11935262 0.01773791 -0.032636985 0.022653185 -0.00264804 -0.11742249 -0.061306145
0.070692375 -0.03658608 0.21997118 0.055321686 0.11752744 -0.13353138 0.08323379 0.05041249
0.073194556 -0.11700795 -0.1599526 0.14330521 0.005453721 -0.03681601 -0.08175011 0.11490941
-0.037391804 0.059132494 0.06732862 0.05590736 -0.07863363 0.025431456 -0.026689796 0.00394344
-0.11440117 -0.1994676 -0.10755559 0.08735822 0.06232266 0.12297975 -0.11230528 0.057695065
-0.14576466 -0.15307827 0.12446206 0.051347684 -0.026225274 -0.087141804 0.07718579 -0.005765113
0.013796721 -0.0052340734 -0.06574619 -0.0047581275 -0.11832786 -0.002344687 0.09809428 0.11655651
0.12540066 0.07139061 -0.065209076 0.06427279 0.08766668 -0.08656115 -0.12236121 -0.07239758
0.089449406 0.094022796 -0.089531384 0.04861241 -0.013013466 -0.094737075 -0.08974565 0.07593077
-0.110038854 0.12084665 0.14591846 -0.044294514 -0.086496174 -0.017195985 -0.14337829 -0.17006978
0.07458246 -0.108256176 -0.015415623 0.088520676 0.0036566907 -0.02809595 -0.08140334 -0.040864993
0.008054883 -0.092535116 0.08248178 -0.105132215 0.10164255 0.023926064 0.131024 -0.048562896
0.016784918 -0.13967398 -0.0070777745 -0.10626055 -0.013489233 -0.012074425 0.076849595 0.09841997

grucell.bias_ih f4 [192]
00000000: 0970 c03c 3062 3ebe 775e 28bc 1da9 40bd
00000010: 634c 0bbd 730a 0a3e 0e61 92ba 17b4 8dbc
00000020: 3e64 af3d 0f8c fabd f9cc e53d a954 85bd
00000030: 4428 90bc bc3b ba3d 2cb9 123c be7c c6bd
00000040: 356f e73c 089c 8ebb 7008 90bd 5a10 e5bc
00000050: e8c8 743d ced3 8a3d c154 103e d29c 383d
00000060: 2f76 143e 56fc 1d3e d448 c13d 41af ae3d
00000070: bdef 32bc 487c 40bb c987 4e3d b24f b1bd
00000080: 2bf9 ddbc f96c e7bb bd47 97bd bcd1 4cbc
00000090: 5121 0d3d aea4 323b c111 e93c 896e 9a3d
000000a0: 73ef 28bd 0510 f03d 13ed aa3c fbe5 b13d
000000b0: 8986 1cbd 9950 da3c 1e19 da3d 9126 da3d
000000c0: 2370 8abd d103 92bd f9f4 8039 c121 ee3d
000000d0: 91ce d03d 4dcf c2bd 87b9 a6bc de13 fa3c
000000e0: 3a84 2c3d 24ff 32bd 07e6 993d 5063 f43d
000000f0: 2ba2 0b3e 80f1 d93d a840 e3bd 0832 bd3d
00000100: 3793 af3d c862 c03e ad1e e63d 7ed3 ae3d
00000110: 3199 8dbc fbf0 eabc 9512 643d daa5 c93d
00000120: b6c5 c13d d324 563d 079b 3f3d 0cbc 17bd
00000130: ab50 bb3c 466d efbd dab2 753e 2983 403e
00000140: f428 a53e a5c6 8a3e 2426 c53d 59d9 9d3e
00000150: aea9 ac3e baf2 173e c9bd c83e 7b07 253d
00000160: 0824 f13a 2989 14bb 8b22 c3bc f2df 333e
00000170: bc46 8b3e 720b 893d aafa 773e c832 45be
00000180: 43a8 eb3d bbce 673d 898b d63d 0418 743e
00000190: 1f84 023e 7bea b33e eef8 c53d f745 13bc
000001a0: b16c 21bc 2e6a a3bd c608 913e 7b97 183e
000001b0: b89f 4d3e 8811 d93d 1b2c 40bd 281f 113d
000001c0: 43ac 0b3e c744 373d c2c0 acbc 2097 b0bd
000001d0: 75d8 1d3d 3e4b babd bac7 d5bd 0673 dc3d
000001e0: de4d 93bd 5980 793e a8d5 693d 3481 133e
000001f0: 0291 d2bc e72f f13c 0d6b bcbc 9e20 593d
00000200: 8ebe ddbc eca7 0dbd cf6d 7abe 03f0 59ba
00000210: e849 f43c 3ddd b83c 0d3e 113d d4d0 233e
00000220: 225f fabd 81a3 99bc 9a77 8f3d acfa aa3c
00000230: 7dd5 04ba 9fa7 41bd 270c f0bd c8f8 10bd
00000240: 7ea2 bcbd 0564 163e 1031 96bd 7662 f8bd
00000250: e24b 06be 72b1 8bbd 1742 5ebd 94cc 263d
00000260: 089c 82bd 7944 8e3b 3ee8 a4bd 7455 1bbb
00000270: 1542 a33d c5df 68bd a35f 39bc cc78 5d3c
00000280: 0a9c 01be 6339 383d 4516 dcbd bdb3 2d3e
00000290: bf5b 5e3d 294c 0d3b c462 c1bc 4980 1a3d
000002a0: 40fa 1d3d 09d8 78bc 42e9 803c 92fe 7abd
000002b0: df43 24bd cfc7 263c af0b bc3d c2ac b73b
000002c0: b070 9c3d 2158 79bc bcfc 94bc 1217 7c3b
000002d0: fe3f 173d 4bbd de3b 600b 37be 870e 19bd
000002e0: 50bc 8f3d d185 e1bd eeed 5abe 84e8 86bc
000002f0: 57b6 023d c5ba 98bd ed3b 0cbd c733 c43c
0.023490923 -0.18592143 -0.010276428 -0.04703628 -0.034008395 0.13480549 -0.001116784 -0.017297788
0.085640416 -0.12233745 0.11220736 -0.06510288 -0.017597325 0.09093425 0.008955281 -0.096917614
0.02825127 -0.0043520965 -0.07032859 -0.027961899 0.05976191 0.0677868 0.14094831 0.04507143
0.14498208 0.1542829 0.09437719 0.08529521 -0.010921416 -0.0029370952 0.050422464 -0.08657779
-0.027096352 -0.007062551 -0.0738673 -0.012501176 0.0344556 0.0027258801 0.028450849 0.07540614
-0.04124398 0.117218055 0.020864999 0.086864434 -0.03821424 0.02664976 0.10649322 0.10651887
-0.0675967 -0.07129634 0.0002459658 0.11627532 0.101956494 -0.09512196 -0.020352138 0.030527052
0.04211829 -0.043700352 0.07514577 0.11933005 0.13636081 0.106417656 -0.110963166 0.09238058
0.08573001 0.37575364 0.1123632 0.08536433 -0.017284961 -0.028679362 0.055681784 0.09846087
0.094615385 0.052281212 0.046778705 -0.03704457 0.022865614 -0.11690764 0.23994008 0.18800034
0.32257807 0.2710468 0.09626415 0.30829886 0.33723205 0.14838687 0.39207295 0.040290337
0.0018397579 -0.0022664762 -0.023820182 0.17565897 0.27202404 0.06691636 0.24216715 -0.19257653
0.11506703 0.056593638 0.10475833 0.23837286 0.12745713 0.35139832 0.0966662 -0.008988849
-0.009852574 -0.079792365 0.28327006 0.14901535 0.20080459 0.10599047 -0.046917062 0.035430104
0.13639931 0.044743326 -0.021088008 -0.08622575 0.038536508 -0.090963826 -0.104384854 0.107641265
-0.07192586 0.24365367 0.057088524 0.14404756 -0.02570391 0.029441787 -0.023000265 0.05300962
-0.027068403 -0.03458397 -0.24455951 -0.00083136576 0.029820397 0.022566432 0.035459567 0.1599763
-0.122251764 -0.018754723 0.07005234 0.020871483 -0.00050672126 -0.047278997 -0.11721068 -0.035393506
-0.092106804 0.14686592 -0.07333577 -0.12128155 -0.13114884 -0.068209544 -0.054262247 0.040722445
-0.06377417 0.0043416587 -0.08052109 -0.0023702057 0.079715885 -0.05685403 -0.0113143055 0.01351757
-0.1265718 0.044976603 -0.10746435 0.16963096 0.054286715 0.0021560288 -0.023606665 0.03772
0.038568735 -0.015188226 0.015736226 -0.061277933 -0.04010379 0.010179474 0.09181916 0.005605311
0.07638681 -0.0152187655 -0.01818692 0.00384659 0.036926262 0.006797468 -0.17875433 -0.03736737
0.0701834 -0.110118516 -0.21379825 -0.016468294 0.031912174 -0.074574985 -0.034236837 0.02395047

grucell.bias_hh f4 [192]
00000000: 6521 973d 062d 6dbd 9842 b43c 3364 2c3d
00000010: 1226 ccbd 0c48 17bc 7d17 8c3d 4970 2dbd
00000020: fcf4 87bd 5f9a fa3c 3f57 a43d 2dd0 fb3d
00000030: 6e7e 843d 1a40 aa3c e11f 653b ee18 b43d
00000040: 9bcc ec3d e8b4 053e 10a0 78bd ee44 e9bd
00000050: 889b 2c3c 741e e13d a589 0d3c 25a4 0bbd
00000060: cf11 be3d 46a4 c33d 9981 4d3c cbb9 a1bd
00000070: 3b71 99bd fd1f f1bc 8453 1a3b d226 a0bd
00000080: 56fa ae3d 4ce5 183d 23c1 273d e97a 4fbd
00000090: 0256 9c3d f146 473d 7c57 b73d 8aa2 143d
000000a0: 012a 84bd da42 03be 7a61 183b e105 61bd
000000b0: f929 a23b 882f dc3d e09c 96bd 775a 3b3b
000000c0: 0cc7 94bd bd4e 413d d5b5 5abc 2ecd 31bd
000000d0: 2e5f 80bc 3f83 dfbd db01 573e 9268 bd3d
000000e0: 10a8 9b3d 988e b33d f880 73bd 1e03 093c
000000f0: ff04 27bd 794b 30bc e07e 953d 3c45 013e
00000100: 0bd3 2ebd 0b3a b03e fdee 253e 80a2 c9bd
00000110: 19a8 513d 226b 0d3d 4e1e c63d d193 b83d
00000120: f130 2d3e 1333 da3c 3836 f73d dfac 283e
00000130: 1f7d 0ebd c4d4 f9bd ea1b 633e 350f 113c
00000140: 5ec4 c63e 0dac 713e 4ae3 073e cad2 e13d
00000150: 4720 903e 5b84 88bd acf5 ce3e 01eb c13d
00000160: 4972 3039 4199 09be 5b6c 5e3d 7a84 c63d
00000170: 3015 ca3e e60d bf3b 683a 133d 25ab 23be
00000180: 5c72 693c c01e 03bd 7aaf c8ba d9a2 663d
00000190: a0fd 193c c3bd 913e dabb 8c3d a4af 25bd
000001a0: 89e9 bbbc 0468 c5bd 9c89 6c3e a3cd 1b3d
000001b0: 5f08 2dbc 2cac b4bd afbd 313e 0170 f73d
000001c0: b9a6 143e 586f 1b3d 9508 73bc 39ff 0dbd
000001d0: f155 2f3e 14db d5bc e453 b6bd aaa2 4c3b
000001e0: 9c6c febc 8f4c a73c 65c8 273d 2f44 993d
000001f0: f328 78bd 3370 f63d fa96 a13d bf43 2abe
00000200: 8cb4 013e f966 a4bb a76c b93d 770b 18be
00000210: cef3 14bc 92a0 2a3d 37b1 a03d c5a4 02bd
00000220: 10c7 883d d980 b43b 27f6 abbd a9e4 c8bd
00000230: 02f4 423d 75ce e73c 0618 9d3c dd84 63bd
00000240: 0c5a 54be 12c2 0b3c e662 2cbd 62a3 1a3c
00000250: a64e b4bd a892 6c3c beef 203d d06f c6bd
00000260: 010a 19bd 44ad 9a3d c207 973d cead 9e3d
00000270: e4ba cc3d 7486 113c e4b7 16be 44af 31bd
00000280: 8ff1 2dbe 4dd5 e4bc e573 c9bd 202e a43d
00000290: c5b2 efbd 95a8 2dbc 74bd 4b3c df82 8c3d
000002a0: 2737 113d ebc9 a63d d0ee b6bd 1556 343d
000002b0: 7c44 d53d dd99 8b3c 103b 8bbd 04c0 183d
000002c0: 8021 85bd f9c1 843c 3fda a43d e05c 2fbd
000002d0: b78d b33c aef4 dfbb e241 cebc c278 bdbc
000002e0: 411d 1bbd f9a4 2cbe 3d57 cebd a937 963d
000002f0: 8b5a bd3c 7748 0dbb 5505 123d a7ef 4dbd
0.073794164 -0.057904266 0.02200441 0.042087745 -0.09968199 -0.009233486 0.068404175 -0.04234341
-0.06638524 0.030591188 0.08024453 0.12295566 0.06469427 0.02078252 0.0034961628 0.087938175
0.11562463 0.13057292 -0.060699522 -0.113901004 0.010535128 0.109921366 0.008638774 -0.034092087
0.092807405 0.09552817 0.0125431055 -0.07896765 -0.074923 -0.029434199 0.0023548314 -0.078199044
0.085438415 0.03732805 0.040955674 -0.050654326 0.07633592 0.04865164 0.08952233 0.03628782
-0.06453324 -0.1281847 0.002325146 -0.054937247 0.004948851 0.10751253 -0.0735414 0.0028587857
-0.07264528 0.04719423 -0.013349016 -0.043408565 -0.015670385 -0.10913705 0.20996802 0.09248461
0.07600415 0.08767432 -0.059449166 0.00836256 -0.04077625 -0.010760182 0.0729959 0.12624067
-0.042681735 0.34419283 0.16204448 -0.098454475 0.0511857 0.034525998 0.09673749 0.09012569
0.16913201 0.026635682 0.12070888 0.16472195 -0.034787294 -0.12198785 0.22178617 0.008853723
0.3882169 0.23600788 0.13270298 0.11026533 0.28149626 -0.0666587 0.40421808 0.094686516
0.00016827243 -0.13437368 0.054302555 0.09693237 0.3946929 0.0058305142 0.035944372 -0.15983255
0.014248457 -0.032011747 -0.0015311085 0.056307647 0.009398848 0.2846509 0.06871767 -0.040450707
-0.022938507 -0.0963898 0.23099369 0.038037907 -0.010561078 -0.08821902 0.17357515 0.1208191
0.14516725 0.037947983 -0.014833589 -0.034667227 0.17122628 -0.026105441 -0.089027196 0.0031224885
-0.031057648 0.020422248 0.040962595 0.07483708 -0.060585927 0.12033119 0.078901246 -0.16627406
0.1266653 -0.005017158 0.09053927 -0.14848123 -0.009091331 0.041657038 0.07846301 -0.031895418
0.06678593 0.005508524 -0.08396559 -0.098092385 0.047595985 0.028296689 0.019176494 -0.05554663
-0.20737475 0.008530157 -0.042086504 0.009438368 -0.088040635 0.014439262 0.039291136 -0.09689295
-0.037363056 0.07552579 0.073745266 0.07747994 0.09996584 0.008882154 -0.14718586 -0.043380037
-0.16986679 -0.027933741 -0.09836558 0.0801661 -0.117040195 -0.010599275 0.012435306 0.06860899
0.035452988 0.081439815 -0.089322686 0.044027407 0.10413453 0.017041141 -0.06798375 0.037292495
-0.0650053 0.016205775 0.0804944 -0.042813182 0.02191816 -0.006834588 -0.0251779 -0.02312887
-0.037869696 -0.16859807 -0.10075233 0.07334835 0.023114463 -0.0021558085 0.035649616 -0.05027738

linear.weight f4 [2, 64]
00000000: d68d 1bbc 7a6b b7bb 49b1 40bd 3f5d ce3d
00000010: 904c 013d c9e7 4e3c 3ff0 923e b83e cfbb
00000020: 2a19 13be b2fd 2dbe 5e6a b3bb 751a 6abd
00000030: 16df 76bd c481 1e3e 3dda e83d e5eb 28bc
00000040: c887 fdbc a044 683e f59e 00be c275 8cbc
00000050: db78 e83d 7d0f 483d ed1c 04be be4e 773d
00000060: 404f 88bc cafa 09be d67d 5bbc c397 d8bd
00000070: 6a1f b2bd 95f0 98bc 7406 b0ba 3ec3 51be
00000080: 7861 583e ca84 93bd 9e6a 593d 73fb 95bd
00000090: 1d1d 2a3d bbf7 abba 85e3 5ebc 039a 48be
000000a0: 711d 213e 1451 f2ba 8f5e a93d c05c 11bd
000000b0: baee a5bd cf07 113e 83a3 123e fd6f adbd
000000c0: dcca 73bd 6033 00bd c1b8 433d b69f 66bd
000000d0: ab28 d3bd bbb6 bc3d 2c35 583e 07af 1c3e
000000e0: 7afc eb3d 6542 193c 1822 453e 26c7 183e
000000f0: 870e 3ebe e4c6 67bd a7bd fa3b 8616 483e
00000100: ae67 d13e d308 41be 15e1 62be 470d 503d
00000110: dc7f 1ebd 32a2 3ebe 280d 24bd d28a 2b3e
00000120: d88c 033e bd44 a3bb f95c 00bc 1357 663d
00000130: f5d0 a63d 6ae1 a5be e892 cd3d ea24 8dbd
00000140: 73f2 78bd 6eb4 9dbd e85d 823d 616d 7fbe
00000150: 1a87 d03d b673 223e a91f 803c 5bf1 7f3e
00000160: bd6f 803d 4dcd 9bbd 5bd7 6c3e 4562 0ebc
00000170: dc10 edbc b57d 0f3e d260 a13d 3c81 a43d
00000180: e264 be3d f879 9b3b 99a4 c4be 1bee 24be
00000190: 7cf9 d83d b8f8 b83d 625d 563d 0af4 ec3d
000001a0: 1ca5 02be 3e92 ccbd 1600 083e 3691 b0bd
000001b0: 977a 3bbd 53b9 0a3e 9fc4 003d 1df3 41bb
000001c0: 4c13 2b3e 9b6d ccbd 8e26 d93c 523a bebc
000001d0: 6922 c4be 999c 60be ce25 bbbd 9cb4 86bc
000001e0: 8805 5e3c 9578 b43c f1b5 65be 21eb febd
000001f0: 6484 29be a94c de3c b1ca 8dbb c8e6 a13d
-0.009494266 -0.005597529 -0.047044072 0.10076379 0.031567156 0.012628504 0.28698918 -0.0063246153
-0.14365068 -0.16991308 -0.0054753264 -0.057154138 -0.060271345 0.15479189 0.11369751 -0.010310148
-0.030948535 0.22682428 -0.12560637 -0.017145995 0.11351176 0.048842896 -0.1290166 0.06037783
-0.016639352 -0.13474575 -0.013396701 -0.10575821 -0.08697398 -0.018669406 -0.0013429658 -0.20484635
0.21130931 -0.07203062 0.053080194 -0.07323351 0.04153167 -0.0013120094 -0.01360405 -0.19590001
0.15733887 -0.0018487298 0.08269989 -0.035488844 -0.08102174 0.14163135 0.14320187 -0.08468626
-0.059519634 -0.031298995 0.047783617 -0.056304656 -0.10310491 0.092145406 0.21114033 0.15301143
0.115227655 0.009354209 0.19251287 0.14919719 -0.18560229 -0.05658616 0.007652003 0.19539842
0.40899414 -0.18851022 -0.22156174 0.050793912 -0.038696155 -0.1861656 -0.04005161 0.16752174
0.12846696 -0.0049825595 -0.007834666 0.056235384 0.08145324 -0.3239854 0.10037786 -0.068918064
-0.060778093 -0.0770043 0.063655674 -0.24944068 0.101820186 0.15864453 0.015640097 0.24994414
0.062713124 -0.076075174 0.23129027 -0.0086904215 -0.028938703 0.14012797 0.07879795 0.08032462
0.092965856 0.0047447644 -0.38406828 -0.16106455 0.1059446 0.09031814 0.05233515 0.11569984
-0.12758297 -0.09988831 0.13281283 -0.08621447 -0.045771208 0.13547258 0.031437512 -0.002959437
0.1670658 -0.09981843 0.026507642 -0.023221169 -0.38307503 -0.21934737 -0.0913807 -0.016443543
0.013551123 0.022030154 -0.22432686 -0.12447191 -0.1655441 0.027136164 -0.004327141 0.07905346

linear.bias f4 [2]
00000000: 9b69 51be c21f 8abe
-0.20450442 -0.26977354

linear_final.weight f4 [5, 64]
00000000: ce3d 5d3c 2d33 6cbb 79c1 8b3d c771 04bd
00000010: 7cac b93c 49d5 4bbc df0e 6dbd fe99 30bc
00000020: d5b1 bebd ced9 e4bc 29e4 a33c 6a76 97bc
00000030: 1906 e2bb 4f19 12bd 3b0f 7cbb e519 d73c
00000040: 9e37 283e 56e0 3dbd 5b5d 423d 23b5 353d
00000050: fc1e a6bc 9afe bbbc f3b4 f8bd e35a a43c
00000060: e429 5b3d c410 f93d 20ec dd3b 6cb9 8e3d
00000070: eb69 373d 427b 083d e202 abbd 6d3a 73bc
00000080: 978d cebc 80b8 0cbd c6b1 c23d ebfd 3cbd
00000090: 98c4 14bb eaa1 fabb 340f 5fbc a872 8abd
000000a0: 22ee aabc 7edd 23bd f3ab 913d 9a96 9cbd
000000b0: 481d 8bbc 4541 f6bb 8370 68bc a1bc b33d
000000c0: eb09 7abd b9aa 283d 3bcb 9f3c 8d74 cd3c
000000d0: f65a 7f3d 7b4b 5cbd 79ba 79bd 6c57 66bb
000000e0: 9487 7cbd 4338 91bd 0351 1fbe a463 61bd
000000f0: fcda 2c3d 3bc9 863d b955 513c 565e 353d
00000100: d61c 43bb 91c5 47be c75f 94bb 8d5c a73c
00000110: 5c7e c0bc 17aa c23d cc1e 133d 50d4 5cbd
00000120: fa16 19bb 0b51 b4bc 60c8 00bc bd16 85bc
00000130: 86ea 333d 7061 b4bc 6c88 6fbd 9e28 c5bc
00000140: b42f 58bd aeb0 3b3d 43e7 b23c 0f14 70bd
00000150: c1d1 483d f7a3 54bd 73d3 95ba 6cff d7bb
00000160: af12 08bc fa03 86bb e53a c23c b171 723b
00000170: 1f3f 833d 6ec7 823a 0e95 9a3d cb01 873c
00000180: da28 b23c 1fcd 093d 2e74 3c3c 336f 2cbc
00000190: b61f 6abc 1016 2d3e 05e0 a0bc 8f7e d43c
000001a0: fe45 4d3c 9a3c d33c e601 143d bfbd 423b
000001b0: 09df 8f3c 1fb5 f83c bcc0 5f3c ef55 d5bb
000001c0: efc5 88bc cdeb 92bc 284b b9bc 81a8 07bc
000001d0: 27c7 333c 7559 e0bc 73c9 13bc d8e6 083d
000001e0: 368f d33c e738 1e3c f8af 4e3d 9469 9c3c
000001f0: 02c7 9f3c 8e8d d23c d161 a2bc 23b2 e2bc
00000200: f7fe 09be 683d f3bc f7fa 803e 9147 1cbb
00000210: e898 5c3e d790 9fbc 99c3 8ebe ca08 84be
00000220: a1c0 463e 7864 23be ec8c 7abe 1118 ba3c
00000230: 7016 6dbe 5cc1 1d3e c1d8 433e 31ca 463e
00000240: 4eb8 a7be 615c 75be f30d 893e 3902 e93d
00000250: eb9f 8cbe 299e 413e 01b3 813e 81f4 48bd
00000260: aabf 86bd 689c 8ebe 6f90 87bc 6278 85be
00000270: ed46 9d3e d319 3a3e 7a6e 143e f324 ec3c
00000280: 2cd8 6e3e 0394 a8bd 8974 26be cf0a b5be
00000290: 2edc 27be 8e25 7abc 57ed 453e 25a5 363b
000002a0: ee5a 183c 3344 07be 2101 20bd 6939 0d3d
000002b0: 2bc5 67bd 7de2 06bd 5d32 b53d 26d3 e73e
000002c0: acba 243e 189d 353d f91d 8bbe 9da7 8c3e
000002d0: e954 093e bbfa 09be 61ee 233e 2e3e a73d
000002e0: 28a9 503e 5054 9ebe 9c38 08be 014f 0b3e
000002f0: 7301 91bd e334 3f3d a4b9 263e e53f bf3d
00000300: 452d 693e 45fe 5cbe 462b 1ebe f251 ba3d
00000310: ed8c 87bd 5dc6 89bd 6abc 16be 76de 96be
00000320: 7e1b 063e ba60 c73d 84bb 3c3e 8b03 803d
00000330: fa40 ef3c 1587 203e de71 69bd 2882 323e
00000340: 60bf 06bc cc8c d7be 8a38 183e 6e77 173f
00000350: 515c b3be 68fa 473e 81f1 b43a 9b14 58bd
00000360: 0e55 f1bd 1e15 0b3e 57f6 713e a6c9 e9be
00000370: 8e74 60be b6ab 7cbd 8e4e a03e 1c44 c53d
00000380: c5db db3e f70d a5bc 254f 013e 56d3 aabe
00000390: 4e64 86bd d9a5 323e 0840 4b3b 1002 9c3c
000003a0: bb0f 1dbd 3ee2 783d 2bc2 b8be 05ff 04be
000003b0: 1124 b7be 6e37 27bc 323e f4bc c4ac bc3d
000003c0: a0c7 fd3c 11be cebd bcb2 153d 105f ef3e
000003d0: b91b acbe d1e3 f2bd cd2d 2b3d 2ee1 6c3e
000003e0: 97f0 7abc 3921 e4bd 145b 8fbe 40b4 003e
000003f0: 3bad 05be fbbd 7a3e 7732 3d3e 25ee 843d
0.013503505 -0.0036041245 0.06824011 -0.03233507 0.022665255 -0.012440988 -0.05787551 -0.010778902
-0.093112625 -0.027935889 0.020006256 -0.018489081 -0.0068976996 -0.035668667 -0.0038461227 0.026257465
0.16427466 -0.04635652 0.047452312 0.0443622 -0.020278446 -0.022948552 -0.12143888 0.02006287
0.053506747 0.12161401 0.006772533 0.0696896 0.044778746 0.033320673 -0.08350159 -0.014845473
-0.025214 -0.03435564 0.09506564 -0.046140593 -0.0022700187 -0.007648696 -0.013614465 -0.0676015
-0.020865504 -0.040006153 0.07112875 -0.076459125 -0.016981736 -0.007515105 -0.014186981 0.087762125
-0.061044615 0.04117844 0.019506088 0.02507999 0.062342606 -0.05378292 -0.06096885 -0.0035147322
-0.061652735 -0.07090809 -0.15558247 -0.055026665 0.042201027 0.065813504 0.0127767855 0.04427942
-0.0029771826 -0.1950896 -0.004528019 0.020429874 -0.023497753 0.09505098 0.035918042 -0.053913414
-0.0023359642 -0.0220113 -0.007860273 -0.016246194 0.04392483 -0.022019118 -0.05847971 -0.02406722
-0.05277987 0.04582279 0.02183879 -0.05861288 0.049028162 -0.05191418 -0.0011430815 -0.006591728
-0.008305236 -0.0040898295 0.023709724 0.0036994035 0.06408524 0.0009977648 0.07547961 0.016480347
0.021747995 0.033642884 0.011502309 -0.010524559 -0.014289787 0.16902947 -0.01963807 0.025939254
0.0125288945 0.025785733 0.036134623 0.0029715148 0.017562406 0.030359803 0.013656791 -0.006510488
-0.016695945 -0.017934704 -0.022618845 -0.008279921 0.010972775 -0.027386406 -0.009020197 0.033423275
0.025825124 0.009657121 0.050460786 0.019093312 0.019504074 0.025702264 -0.019822033 -0.027672833
-0.13476168 -0.029692367 0.2519147 -0.0023846368 0.21542704 -0.019478245 -0.27883604 -0.25787956
0.1940942 -0.15956295 -0.2446782 0.022716554 -0.2315309 0.15405792 0.19125654 0.19413067
-0.327578 -0.23961021 0.26768455 0.11377377 -0.27465758 0.1890799 0.25331882 -0.049061302
-0.06579526 -0.27853703 -0.016548363 -0.26068407 0.30718175 0.18173914 0.14495268 0.028826213
0.2332465 -0.08231356 -0.16255392 -0.3535981 -0.16392586 -0.015267743 0.19328819 0.002786943
0.009299023 -0.1320961 -0.039063577 0.03447858 -0.05658452 -0.03293084 0.08847497 0.4527828
0.16086835 0.04433927 -0.27171305 0.2747163 0.13411297 -0.13474552 0.16008903 0.08166157
0.20377028 -0.309237 -0.13302845 0.13604356 -0.070803545 0.046681296 0.16281754 0.09338359
0.22771175 -0.21581371 -0.15446195 0.09097661 -0.06618676 -0.06727288 -0.14720312 -0.294666
0.13096425 0.09735246 0.18430907 0.06250676 0.029205788 0.1567653 -0.056993358 0.17432463
-0.008224338 -0.42099607 0.14865318 0.5916661 -0.3503137 0.19529116 0.0013804884 -0.052754026
-0.11783801 0.13582274 0.23629127 -0.45661658 -0.21919462 -0.061687194 0.31309932 0.096321315
0.42941108 -0.02014826 0.12627847 -0.33364362 -0.065621 0.17446078 0.0031013507 0.019043952
-0.03834508 0.060762636 -0.36085638 -0.12987907 -0.35769704 -0.010206087 -0.029814813 0.0921264
0.030978978 -0.10094846 0.036547408 0.46752214 -0.336149 -0.11859859 0.041791726 0.23132774
-0.01531615 -0.11139149 -0.27999175 0.1256876 -0.13054363 0.24486534 0.18476282 0.06490735

linear_final.bias f4 [5]
00000000: 0703 debc bd59 41bb 5044 a6bf 4a86 e9bf
00000010: f711 83be
-0.027101053 -0.002950295 -1.2989597 -1.8244107 -0.25599644
