model_checkpoint/eth/val_best.pth (torch_old, 55823 bytes, 10 tensors)

gcn.gc1.weight f4 [2, 2]
1.1731375 -0.43656725 0.8321315 1.551495
00000000: 5f29 963f be85 dfbe 9206 553f 6397 c63f

gcn.gc1.bias f4 [2]
-0.23106012 -0.10326254
00000000: 069b 6cbe 507b d3bd

grucell.weight_ih f4 [192, 2]
0.011012216 -0.042888142 0.036357302 0.17687993 0.062347766 -0.20188968 -0.22652805 -0.03248001
0.017525101 0.08004832 -0.011233605 -0.0041194023 0.008235298 0.03205048 -0.03616412 0.09287599
-0.10301618 -0.16573085 -0.1179068 -0.062802136 -0.09338374 0.0682321 0.06844829 0.05691158
0.100933306 0.0696637 -0.013256798 0.0873553 -0.188782 0.005576121 0.091932684 -0.089626096
-0.35154766 -0.045290023 -0.04896811 0.032028764 0.027310312 -0.070278846 0.073709324 -0.115501046
0.04274915 -0.10298787 -0.20998506 0.05548169 -0.025169922 -0.046587214 -0.04940367 -0.060836703
-0.10285956 0.02979979 0.003620578 0.13837637 -0.09829465 -0.10642222 0.008781904 -0.078286774
-0.07843929 -0.079244696 0.079343684 0.097435355 -0.12604724 0.19069785 -0.103529036 -0.075416245
-0.18405136 0.17199706 -0.02454601 -0.09392101 0.067394756 -0.16367239 0.034894116 0.057735443
-0.04668247 -0.09427178 -0.12679489 0.20342001 -0.062569715 0.032198854 0.0026249331 -0.12097001
-0.071731165 0.07982786 -0.18895714 -0.07707394 0.14743437 -0.05568516 -0.14539789 0.061330184
0.16849808 0.04482726 -0.11428014 -0.0049286895 0.16395414 -0.12099062 -0.051307388 -0.19105835
0.077627756 -0.11420971 -0.18894026 0.02201444 0.09270785 -0.064702325 0.086472444 -0.04423136
0.043538973 0.116350956 -0.11711132 0.076764345 -0.08577989 0.026105734 0.11457699 -0.15102698
0.14319333 0.039607875 -0.07994303 -0.009857521 -0.10653976 0.16316456 -0.19391732 0.23728873
-0.061641403 -0.14908364 -0.027025986 0.1493665 -0.007047698 -0.035432953 0.086319745 0.013462086
0.13635783 0.2287703 -0.60381794 0.2738133 -0.25306925 0.29818577 -0.029616434 0.18025745
-0.066350274 0.23301886 -0.068230234 0.14960217 -0.25535247 -0.047144853 -0.090736434 0.12694407
-0.2038812 -0.26046184 0.19076577 -0.12541923 0.017245227 -0.12414944 0.1673712 -0.0044783037
0.0880515 -0.014686023 -0.09762036 0.060650595 0.09051698 -0.042593744 -0.00043684104 0.35285974
-0.12856594 0.17711455 -0.17764226 0.11205126 -0.04496516 0.13731839 0.15787184 0.00844624
0.14340413 0.052506432 0.11067454 -0.0182105 -0.038879324 0.07789482 -0.025717303 0.08189242
-0.26201913 0.041783817 -0.2845729 0.098508514 0.020118626 0.02170007 -0.22747648 -0.11682196
0.10355531 0.10332555 -0.018788481 -0.04445323 -0.09756696 0.012836555 -0.030199355 -0.21867128
0.039693356 -0.15704207 0.024201583 0.040772114 0.03223094 -0.17265087 0.119062655 0.28149813
0.23683296 0.008021993 -0.6248631 0.2673033 0.17540337 0.010872504 0.22683232 0.2822405
0.08369769 -0.13662462 0.019873766 0.18401212 -0.17887524 -0.121531434 0.13425624 -0.08561294
-0.17010063 0.27514994 0.027409738 -0.024759717 -0.08285145 0.15697007 0.009709036 -0.029466929
-0.07850514 -0.02836641 0.17459276 0.18885261 -0.020854745 0.09781148 0.10322486 -0.054806195
-0.23316875 0.30226547 -0.0012460076 -0.084458314 -0.02060715 -0.076409854 -0.24421759 0.020136183
-0.1882664 -0.08302829 0.1358011 -0.11671495 0.037810706 0.19875228 -0.27978215 -0.0037940838
0.1434865 -0.088865966 0.21512581 0.25567096 0.25737876 0.2941039 -0.10884467 0.07958435
00000000: 956c 343c 7aab 2fbd 65eb 143d 0320 353e
00000010: 5f60 7f3d 2bbc 4ebe f8f6 67be c209 05bd
00000020: cd90 8f3c 60f0 a33d 280d 38bc 0dfc 86bb
00000030: 58ed 063c 5d47 033d d420 14bd c435 be3d
00000040: 26fa d2bd 59b5 29be 1f79 f1bd 689e 80bd
00000050: f93f bfbd 45bd 8b3d 9e2e 8c3d 1e1c 693d
00000060: 1fb6 ce3d d8ab 8e3d 0a33 59bc 56e7 b23d
00000070: 1250 41be e5b7 b63b 3447 bc3d e38d b7bd
00000080: 0efe b3be 0882 39bd c992 48bd 9830 033d
00000090: e0b9 df3c 5bee 8fbd eaf4 963d d08b ecbd
000000a0: bc19 2f3d 4eeb d2bd 5306 57be c540 633d
000000b0: 2731 cebc 3cd2 3ebd 815b 4abd e82f 79bd
000000c0: 08a8 d2bd b01e f43c 3847 6d3b 89b2 0d3e
000000d0: b54e c9bd e5f3 d9bd fae1 0f3c d154 a0bd
000000e0: c7a4 a0bd 0b4b a2bd f17e a23d 308c c73d
000000f0: 8712 01be 4c46 433e 0807 d4bd d573 9abd
00000100: f677 3cbe ff1f 303e b714 c9bc a959 c0bd
00000110: 4306 8a3d bc99 27be 22ed 0e3d 007c 6c3d
00000120: 1e36 3fbd 9011 c1bd 85d6 01be 564d 503e
00000130: 8d24 80bd f2e2 033d 1207 2c3b 20bf f7bd
00000140: cae7 92bd ca7c a33d fb7d 41be f1d8 9dbd
00000150: 09f9 163e 1f16 64bd 2fe3 14be 5c35 7b3d
00000160: c38a 2c3e ca9c 373d b50b eabd d880 a1bb
00000170: 98e3 273e eec9 f7bd b227 52bd cda4 43be
00000180: 4dfb 9e3d c8e6 e9bd 8e79 41be a057 b43c
00000190: 9ddd bd3d a782 84bd 7718 b13d f12b 35bd
000001a0: ec55 323d 6949 ee3d 0fd8 efbd a036 9d3d
000001b0: 5ead afbd b1db d53c 57a7 ea3d d1a6 1abe
000001c0: 46a1 123e de3b 223d 2cb9 a3bd 7181 21bc
000001d0: 8531 dabd 9c14 273e 4392 46be d1fb 723e
000001e0: b27b 7cbd 62a9 18be 9a65 ddbc 88f3 183e
000001f0: 60f0 e6bb 2522 11bd 68c8 b03d 1590 5c3c
00000200: 63a1 0b3e c342 6a3e d093 1abf 4231 8c3e
00000210: 4b92 81be ceab 983e 2a9e f2bc 6995 383e
00000220: a7e2 87bd 7f9c 6e3e 4bbc 8bbd 5031 193e
00000230: 8fbd 82be f61a 41bd 06d4 b9bd a0fd 013e
00000240: 3cc6 50be 415b 85be 1a58 433e e66d 00be
00000250: dd45 8d3c 1042 febd 5b63 2b3e bcbe 92bb
00000260: 5854 b43d a59d 70bc 2fed c7bd c26c 783d
00000270: f760 b93d c776 2ebd d007 e5b9 08aa b43e
00000280: caa6 03be 845d 353e dae7 35be 227b e53d
00000290: 632d 38bd 319d 0c3e 28a9 213e 1962 0a3c
000002a0: 88d8 123e fc10 573d 55a9 e23d 302e 95bc
000002b0: ed3f 1fbd 5287 9f3d 18ad d2bc 37b7 a73d
000002c0: 5f27 86be 8225 2b3d 8ab3 91be d5be c93d
000002d0: d1cf a43c 58c4 b13c 98ef 68be 5a40 efbd
000002e0: ce14 d43d 599c d33d 4dea 99bc 9714 36bd
000002f0: 30d1 c7bd 6a50 523c a364 f7bc 5deb 5fbe
00000300: 8095 223d a3cf 20be 6642 c63c a900 273d
00000310: 9704 043d 64cb 30be 1fd7 f33d 8620 903e
00000320: 5784 723e ad6e 033c 07f7 1fbf fadb 883e
00000330: f19c 333e 9622 323c bb46 683e d481 903e
00000340: b269 ab3d 53e7 0bbe 4fce a23c ac6d 3c3e
00000350: 122b 37be 79e5 f8bd 787a 093e d655 afbd
00000360: dc2e 2ebe 74e0 8c3e 638a e03c e4d4 cabc
00000370: 05ae a9bd c3bc 203e a612 1f3c a164 f1bc
00000380: 4ec7 a0bd ac60 e8bc 72c8 323e 9462 413e
00000390: 92d7 aabc 6351 c83d 8e67 d33d 767c 60bd
000003a0: cac3 6ebe 8ac2 9a3e 1451 a3ba 7bf8 acbd
000003b0: 53d0 a8bc c57c 9cbd 2d14 7abe a3f4 a43c
000003c0: e8c8 40be bc0a aabd 720f 0b3e 3f08 efbd
000003d0: 66df 1a3d b885 4b3e 9b3f 8fbe 2aa6 78bb
000003e0: 20ee 123e 5cff b5bd f149 5c3e 4ee7 823e
000003f0: 26c7 833e c994 963e f4e9 debd 1ffd a23d

grucell.weight_hh f4 [192, 64]
0.018364789 0.016939938 0.06378895 0.089109026 0.111970514 0.08726572 -0.01894719 0.0619437
-0.07733512 0.06433452 0.09014851 0.08205755 -0.12671976 0.0023877614 0.08777313 -0.09000076
-0.14858115 0.015108395 -0.07521339 0.09189447 -0.10793583 0.048788473 0.08997983 0.008060421
-0.05344684 0.073208846 0.109131195 0.052774724 0.018701864 -0.019707553 0.12531403 0.11907153
0.08925572 0.025801022 0.014604403 -0.06504145 -0.020856498 -0.077409334 0.028639369 0.035629064
-0.08167318 -0.0730754 0.032644514 -0.03072344 0.020474313 0.017877012 0.10591452 0.11231237
-0.0015372259 0.049229022 0.03142841 0.05384983 0.07055764 0.08061793 -0.12379023 -0.03108038
-0.005403531 0.02301132 0.064253226 0.0035536594 -0.034598798 0.040643938 -0.0023977337 -0.083719574
-0.13751386 -0.043038372 -0.08963496 0.08573404 0.0053154663 -0.019120328 -0.10902867 -0.11616812
-0.12146179 0.07236441 0.01596252 0.05810209 -0.009137394 -0.065366864 -0.0064975997 -0.15123971
-0.03614823 0.009602889 0.015329495 0.086200476 0.11162482 0.03724445 -0.17331043 -0.060004327
0.08925698 0.19000691 -0.0089514535 0.0102421185 0.030976737 0.022113971 0.05639973 0.1272141
0.13951282 0.12958401 -0.1453412 -0.023831531 -0.025713751 -0.16730915 0.11971812 0.09556174
0.11055127 0.076377004 0.030463194 -0.12002932 -0.13610508 -0.109633826 -0.06231543 -0.14112712
-0.00685116 0.022413518 -0.10419513 0.03490124 0.1328878 0.1543784 0.01026433 0.07361202
-0.15593465 -0.0130141685 -0.13737844 -0.04573811 -0.035487738 0.14765957 -0.11019767 -0.1517397
-0.15244582 0.059816603 -0.03379817 -0.09595398 -0.13044114 0.059349366 0.04963029 0.074091926
0.03946182 -0.107766315 0.09592814 0.14668879 -0.1317308 0.15197356 0.15437074 0.02658838
-0.12603624 0.049785137 -0.009204311 -0.10362264 -0.06700848 -0.07048685 -0.0038143047 -0.09672231
0.10985466 -0.07879978 0.030020427 -0.015297677 0.0324093 0.008292073 -0.09160803 -0.052889947
0.08135092 -0.0346214 0.18470407 0.05824221 0.10444367 -0.11744269 0.09282719 0.08208159
0.07092858 -0.11015168 -0.15979725 0.11613951 -0.011469812 -0.020530742 -0.08968901 0.10305519
-0.023240047 0.07055078 0.09062099 0.046557136 -0.071095236 0.035701104 -0.05423567 0.0064752107
-0.111968644 -0.17819427 -0.09860694 0.08535029 0.07639311 0.1097734 -0.08858834 0.03870366
-0.14891064 -0.15274625 0.12155077 0.04751048 -0.02651746 -0.09067381 0.07112514 -0.009108721
0.018966293 0.0006270965 -0.060366984 -0.005822169 -0.11820617 -0.0011540817 0.094302036 0.121454306
0.1188281 0.06803701 -0.064585276 0.04681566 0.0970232 -0.09283154 -0.10699202 -0.07193523
0.083335854 0.098906726 -0.090396024 0.0529717 -0.010027119 -0.094727054 -0.091323085 0.08196304
-0.10623791 0.11715785 0.13428742 -0.049204383 -0.0885875 -0.020898972 -0.13164161 -0.15128522
0.07472648 -0.09170694 -0.015178739 0.08901029 0.008660945 -0.03140548 -0.08088679 -0.045784805
0.010489559 -0.0788115 0.079753324 -0.10189404 0.10234702 0.02651761 0.1158729 -0.05273827
0.009348357 -0.13362785 -0.012813985 -0.09817525 -0.014337727 -0.0148424 0.08012005 0.09121556
00000000: c171 963c a0c5 8a3c c8a3 823d cb7e b63d
00000010: cc50 e53d 5fb8 b23d 2337 9bbc adb8 7d3d
00000020: e061 9ebd d1c1 833d c89f b83d ca0d a83d
00000030: d3c2 01be fd7b 1c3b 66c2 b33d 5252 b8bd
00000040: a825 18be 3489 773c 7a09 9abd 2b33 bc3d
00000050: 760d ddbd 6cd6 473d 5847 b83d db0f 043c
00000060: 13eb 5abd 85ee 953d 2d80 df3d 4f2a 583d
00000070: a734 993c bc71 a1bc 5252 003e c6db f33d
00000080: b4cb b63d aa5c d33c 4e47 6f3c 7434 85bd
00000090: 3fdb aabc c988 9ebd 1c9d ea3c c8ef 113d
000000a0: 4544 a7bd 8ea8 95bd 41b6 053d b9af fbbc
000000b0: bfb9 a73c d072 923c b6e9 d83d 0704 e63d
000000c0: be7c c9ba 5fa4 493d 14bb 003d a491 5c3d
000000d0: 8680 903d 031b a53d bb85 fdbd 489c febc
000000e0: 1a10 b1bb 3c82 bc3c 3297 833d 83e4 683b
000000f0: 78b7 0dbd 427a 263d 4c23 1dbb 2b75 abbd
00000100: 6fd0 0cbe 0149 30bd 8992 b7bd 5495 af3d
00000110: 5d2d ae3b 3ca2 9cbc 6c4a dfbd 8de9 edbd
00000120: f5c0 f8bd cb33 943d d5c3 823c 75fc 6d3d
00000130: 02b5 15bc 10df 85bd d1e9 d4bb 95de 1abe
00000140: 2b10 14bd 7055 1d3c 9028 7b3c e089 b03d
00000150: 8e9b e43d a38d 183d 4a78 31be 19c7 75bd
00000160: 5dcc b63d 2c91 423e 1ea9 12bc 8fce 273c
00000170: edc2 fd3c 5c28 b53c 6703 673d 6a44 023e
00000180: 73dc 0e3e acb1 043e 53d4 14be 583a c3bc
00000190: a5a5 d2bc 1753 2bbe c62e f53d e0b5 c33d
000001a0: b468 e23d 8c6b 9c3d f38d f93c efd1 f5bd
000001b0: 215f 0bbe b387 e0bd 773e 7fbd a183 10be
000001c0: b27f e0bb 8e9c b73c 4264 d5bd 9af4 0e3d
000001d0: bd13 083e 5f15 1e3e b82b 283c e6c1 963d
000001e0: 55ad 1fbe 6139 55bc efac 0cbe e257 3bbd
000001f0: 975b 11bd 1234 173e 51af e1bd a761 1bbe
00000200: c21a 1cbe 4102 753d f36f 0abd 8583 c4bd
00000210: 5d92 05be 5218 733d 2249 4b3d 82bd 973d
00000220: b8a2 213d 96b4 dcbd f975 c43d 9635 163e
00000230: 70e4 06be f59e 1b3e 5d13 1e3e e0cf d93c
00000240: a50f 01be 80eb 4b3d aecd 16bc 1b38 d4bd
00000250: be3b 89bd 695b 90bd 6af9 79bb 5916 c6bd
00000260: 7bfb e03d c761 a1bd 66ed f53c 1ca3 7abc
00000270: 9dbf 043d 7adb 073c fe9c bbbd 21a3 58bd
00000280: 509b a63d 2bcf 0dbd 1023 3d3e 628f 6e3d
00000290: 90e6 d53d cb85 f0bd 2f1c be3d 651a a83d
000002a0: 0143 913d 3497 e1bd e4a1 23be 8dda ed3d
000002b0: e1eb 3bbc 1630 a8bc dfae b7bd 990e d33d
000002c0: e961 bebc ed7c 903d 7f97 b93d b2b2 3e3d
000002d0: 619a 91bd 523b 123d 3926 5ebd 012e d43b
000002e0: d14f e5bd 8f78 36be 6ff2 c9bd 22cc ae3d
000002f0: fe73 9c3d e0d0 e03d ce6d b5bd bb87 1e3d
00000300: 087c 18be 8369 1cbe 9cef f83d 599a 423d
00000310: 253b d9bc 31b3 b9bd 0faa 913d bf3c 15bc
00000320: 335f 9b3c bc63 243a 5f43 77bd e5c7 bebb
00000330: 1416 f2bd 8e44 97ba 6d21 c13d 09bd f83d
00000340: 265c f33d fd56 8b3d 4945 84bd c7c1 3f3d
00000350: 19b4 c63d 761e bebd a21e dbbd c752 93bd
00000360: fdab aa3d 9c8f ca3d 8d21 b9bd daf8 583d
00000370: c948 24bc 4200 c2bd 9907 bbbd 3ddc a73d
00000380: 4393 d9bd 74f0 ef3d a482 093e 898a 49bd
00000390: 5d6d b5bd 5234 abbc 0fcd 06be 83ea 1abe
000003a0: 320a 993d d9d0 bbbd 3fb0 78bc 074b b63d
000003b0: a3e6 0d3c 08a3 00bd f9a7 a5bd d988 3bbd
000003c0: 66dc 2b3c ec67 a1bd b655 a33d d3ad d0bd
000003d0: 509b d13d 753b d93c c54e ed3d 1604 58bd
000003e0: da29 193c bdd5 08be c0f1 51bc 1b10 c9bd
000003f0: c9e8 6abc 8a2d 73bc fb15 a43d 39cf ba3d

grucell.bias_ih f4 [192]
0.012858272 -0.11516295 0.0058243964 -0.05321037 -0.03815091 0.13206701 -0.0012296141 -0.036134053
0.09996908 -0.11856685 0.08636174 -0.07541009 -0.022042263 0.09183901 -0.0009985876 -0.09222218
0.021450333 -0.038009647 -0.077842616 0.043892022 0.041616227 0.050310433 0.16698515 0.047239628
0.13208662 0.09297927 0.08454397 0.06933616 -0.006007689 -0.015618028 0.031595487 -0.08517316
-0.015222258 -0.010384724 -0.08240205 -0.012250329 0.03550714 0.052503865 0.019981908 0.08822235
-0.053238474 0.12640214 0.0365336 0.085990965 -0.059524287 0.02768072 0.104756825 0.11264027
-0.06446393 -0.06368709 0.007988884 0.10310779 0.082775824 -0.09418187 -0.04696545 0.031309288
0.04991308 -0.045031354 0.10357719 0.122303896 0.12897517 0.08771661 -0.117095254 0.0855871
0.08499641 0.3761868 0.07574404 0.10455246 -0.011148548 -0.029206231 0.02859107 0.06474865
0.062868565 0.06813126 0.048008483 -0.033924516 0.0372823 -0.106653586 0.2197657 0.1558044
0.2488333 0.21733499 0.10664537 0.2710738 0.24409807 0.15749264 0.27589282 0.033044197
0.01027635 0.0537303 -0.037048977 0.12002173 0.20942785 0.059836965 0.2264391 -0.15627122
0.091643244 0.057475533 0.12998559 0.20855877 0.11308518 0.32107598 0.069894575 0.010276158
0.0041891923 -0.07101177 0.21451974 0.11300435 0.17688258 0.10462717 -0.056001402 0.012912591
0.08309483 0.09717111 -0.046269897 -0.09393399 0.030673128 -0.097448595 -0.08187872 0.086123265
-0.078951456 0.22697733 0.0010830343 0.14847538 -0.02446648 0.026915453 -0.017899962 0.077678405
-0.073680766 -0.032521084 -0.17453232 0.009478432 0.022348788 0.035236422 0.05955121 0.15184265
-0.13978074 -0.034983974 0.050947 0.04246734 -0.013798372 -0.035851188 -0.107368015 -0.064150445
-0.08268533 0.13231453 -0.09434964 -0.07068643 -0.014838867 -0.09812512 -0.021622175 0.04128023
-0.032193404 -0.04048023 -0.102820925 0.030258443 0.0882649 -0.025414735 -0.012167739 0.009077657
-0.1486721 0.026068943 -0.038103387 0.16782749 0.036726404 -0.022653323 -0.04830059 0.046950497
0.04961999 -0.03114039 0.07520935 -0.03931329 -0.028207269 0.00555097 0.082646936 0.010294014
0.062293913 0.005407411 -0.031036789 -0.029134788 0.080315046 -0.0036665055 -0.1957024 -0.035949614
0.05480399 -0.08337692 -0.14427015 -0.034296468 0.03952469 -0.06749142 -0.056870688 0.026100775
00000000: 80ab 523c 8dda ebbd 94da be3b 1ef3 59bd
00000010: 2144 1cbd 933c 073e 012b a1ba 4d01 14bd
00000020: 97bc cc3d 2dd3 f2bd 6dde b03d 9b70 9abd
00000030: fa91 b4bc 1716 bc3d 0ae3 82ba fbde bcbd
00000040: 9cb8 af3c 01b0 1bbd f36b 9fbd 1fc8 333d
00000050: c775 2a3d 5012 4e3d 28fe 2a3e 577e 413d
00000060: b741 073e ea6b be3d 6425 ad3d 1e00 8e3d
00000070: 26dc c4bb c2e2 7fbc 456a 013d 446f aebd
00000080: c766 79bc b024 2abc 68c2 a8bd 9bb5 48bc
00000090: ef6f 113d 4b0e 573d 19b1 a33c ebad b43d
000000a0: 9610 5abd 906f 013e 42a4 153d 081c b03d
000000b0: bdcf 73bd adc2 e23c bf8a d63d f1af e63d
000000c0: aa05 84bd 616e 82bd cfe3 023c 2d2a d33d
000000d0: 5f86 a93d 6de2 c0bd d85e 40bd 2b3e 003d
000000e0: a871 4c3d cc72 38bd 4720 d43d 777a fa3d
000000f0: 1112 043e c4a4 b33d a3cf efbd 4a48 af3d
00000100: 9912 ae3d 8e9b c03e b11f 9b3d 9a1f d63d
00000110: 66a8 36bc e841 efbc d237 ea3c f19a 843d
00000120: 3cc1 803d 6788 8b3d 8ba4 443d 6ff4 0abd
00000130: 53b5 183d 326d dabd 420a 613e 308b 1f3e
00000140: 28ce 7e3e 108d 5e3e e368 da3d 2fca 8a3e
00000150: d8f4 793e c045 213e d341 8d3e 5a59 073d
00000160: 235e 283c 4e14 5c3d abc0 17bd f4cd f53d
00000170: 4174 563e 9b17 753d a7df 673e 9005 20be
00000180: 74af bb3d 776b 6b3d f11a 053e 6e90 553e
00000190: 3499 e73d 1264 a43e e324 8f3d 555d 283c
000001a0: 7e45 893b 9e6e 91bd 10ab 5b3e d36e e73d
000001b0: b520 353e c546 d63d ba61 65bd 558f 533c
000001c0: 9f2d aa3d a601 c73d 8185 3dbd 7760 c0bd
000001d0: 3646 fb3c 2193 c7bd 08b0 a7bd 6561 b03d
000001e0: 4db1 a1bd bf6c 683e 9af4 8d3a ee09 183e
000001f0: ed6d c8bc cc7d dc3c f1a2 92bc db15 9f3d
00000200: f1e5 96bd d434 05bd 9ab8 32be 6d4b 1b3c
00000210: ce14 b73c 1154 103d f8eb 733d a47c 1b3e
00000220: af22 0fbe 5b4b 0fbd cdad 503d 3cf2 2d3d
00000230: 9112 62bc b2d8 12bd c3e3 dbbd 4f61 83bd
00000240: ed56 a9bd 767d 073e 623a c1bd 0cc4 90bd
00000250: b81e 73bc d3f5 c8bd fd20 b1bc 7515 293d
00000260: 3bdd 03bd 99ce 25bd c793 d2bd 8ee0 f73c
00000270: 3ac4 b43d 9032 d0bc 325b 47bc 74ba 143c
00000280: 803d 18be 898e d53c 4c12 1cbd f8da 2b3e
00000290: 6d6e 163d 7693 b9bc d7d6 45bd 2a4f 403d
000002a0: 553e 4b3d 221a ffbc 5c07 9a3d f906 21bd
000002b0: ee12 e7bc e9e4 b53b cc42 a93d 39a8 283c
000002c0: e727 7f3d a730 b13b dd40 febc 14ac eebc
000002d0: 377c a43d c149 70bb 3666 48be e73f 13bd
000002e0: 267a 603d 85c1 aabd 8ebb 13be 747a 0cbd
000002f0: a4e4 213d f138 8abd 3df1 68bd 4bd1 d53c

grucell.bias_hh f4 [192]
0.06316002 0.01285515 0.038105372 0.035913654 -0.1038247 -0.011974678 0.068291195 -0.061179664
-0.05205791 0.034361266 0.054397617 0.11264845 0.060249247 0.021688502 -0.0064577498 0.09263361
0.10882475 0.09691638 -0.06821381 -0.042046838 -0.00761006 0.09244475 0.03467462 -0.031923775
0.0799076 0.03422208 0.0027105655 -0.0949267 -0.07000904 -0.042114966 -0.016472718 -0.076794416
0.09731126 0.03400668 0.032421246 -0.050403707 0.07738668 0.098428756 0.08105465 0.049103566
-0.07652729 -0.11900059 0.017993474 -0.05581147 -0.016361007 0.10854479 -0.0752778 0.008980716
-0.06951251 0.0548028 -0.0056061135 -0.05657691 -0.034851205 -0.10819697 0.18335466 0.09326715
0.08379923 0.08634512 -0.03101831 0.01133713 -0.048161536 -0.029461972 0.06686381 0.11944839
-0.043414902 0.34462598 0.12542531 -0.07926634 0.05732241 0.03399985 0.0696487 0.056413338
0.13739069 0.042485118 0.12193851 0.16783829 -0.020370657 -0.111733794 0.20161179 -0.023341686
0.314473 0.18229514 0.14308229 0.07304209 0.1883562 -0.057551038 0.28803796 0.08744008
0.00860489 -0.0783757 0.04107414 0.04129685 0.33209202 -0.001248925 0.020218456 -0.123526745
-0.009175431 -0.03112988 0.023695465 0.026489751 -0.004972896 0.25432855 0.041945115 -0.02118519
-0.008896547 -0.0876092 0.16224508 0.002028494 -0.034484603 -0.08958232 0.16449192 0.09830215
0.09186181 0.09037585 -0.04001554 -0.0423739 0.163363 -0.032589827 -0.06652106 -0.018394293
-0.038082246 0.0037458008 -0.015042786 0.07926195 -0.059348587 0.11780364 0.08400173 -0.14160277
0.091289364 0.0029395581 0.089469515 -0.12675734 -0.0009558611 0.053551853 0.09054157 -0.03248152
0.05319451 -0.010378806 -0.08898881 -0.094546214 0.047328174 0.023857081 0.044182625 -0.06582797
-0.21659343 0.006307656 -0.044110775 0.052626543 -0.0593974 -0.0013892102 0.07399936 -0.100337915
-0.030797556 0.06333704 0.05329586 0.09463225 0.07038919 0.017789802 -0.1282755 -0.033478063
-0.16360079 -0.035009477 -0.09313152 0.07420925 -0.116343856 -0.025868963 0.0022877513 0.076598965
0.037044626 0.07902016 -0.09576153 0.0502746 0.11327775 0.0169852 -0.07960098 0.03138712
-0.07037273 0.014515012 0.08121445 -0.06448819 0.04778496 -0.009300441 -0.02245742 -0.025553767
-0.060468037 -0.13869512 -0.0800196 0.085730985 0.02572997 0.0123664085 0.027332973 -0.040509008
00000000: 0a5a 813d 689e 523c 6114 1c3d 321a 133d
00000010: 0ba2 d4bd 7131 44bc 41dc 8b3d 8797 7abd
00000020: ad3a 55bd 66be 0c3d 09d0 5e3d 3bb4 e63d
00000030: eac7 763d 16ac b13c 889b d3bb b1b6 bd3d
00000040: 83df de3d 187c c63d afb3 8bbd 4e39 2cbd
00000050: cf5d f9bb ac53 bd3d f906 0e3d 81c2 02bd
00000060: 99a6 a33d 742c 0c3d bea3 313b ee68 c2bd
00000070: e660 8fbd be80 2cbd cbf1 86bc 6446 9dbd
00000080: 204b c73d 974a 0b3d 24cc 043d 1e74 4ebd
00000090: e87c 9e3d 0495 c93d fbff a53d d220 493d
000000a0: 57ba 9cbd 95b6 f3bd 0d67 933c 919a 64bd
000000b0: 8507 86bc bb4c de3d 3f2b 9abd da23 133c
000000c0: 935c 8ebd e778 603d 7db3 b7bb 31bd 67bd
000000d0: 23c0 0ebd 5f96 ddbd 53c1 3b3e d902 bf3d
000000e0: ee9e ab3d b6d5 b03d 1c1a febc 5fbf 393c
000000f0: 0845 45bd 3c5a f1bc e5ef 883d 5ca1 f43d
00000100: d3d3 31bd d172 b03e 7e6f 003e 6456 a2bd
00000110: e7ca 6a3d 6d43 0b3d faa3 8e3d ac11 673d
00000120: 25b0 0c3e e004 2e3d e6ba f93d cddd 2b3e
00000130: 5de0 a6bc b0d4 e4bd 5273 4e3e 1037 bfbc
00000140: 9b02 a13e 94ab 3a3e 2a84 123e 1797 953d
00000150: 73e0 403e a3ba 6bbd b679 933e c913 b33d
00000160: 86fb 0c3c 7083 a0bd 5c3d 283d e326 293d
00000170: f707 aa3e f8b2 a3ba 2da1 a53c 97fb fcbd
00000180: 8c54 16bc 1704 ffbc fe1c c23c 0901 d93c
00000190: adf3 a2bb 5a37 823e a4ce 2b3d 908c adbc
000001a0: d3c2 11bc 746c b3bd 9323 263e 7bf0 043b
000001b0: ba3f 0dbd ef76 b7bd 9270 283e a352 c93d
000001c0: 0b22 bc3d f916 b93d 56e7 23bd 4190 2dbd
000001d0: a148 273e e97c 05bd 323c 88bd a1af 96bc
000001e0: 21fc 1bbd 1c7c 753b 0476 76bc 1754 a23d
000001f0: 8117 73bd 0943 f13d 1909 ac3d 5100 11be
00000200: ebf5 ba3d 9aa5 403b cb3b b73d adcc 01be
00000210: c192 7aba 3059 5b3d dc6d b93d 580b 05bd
00000220: 7de2 593d de0b 2abc c43f b6bd 72a1 c1bd
00000230: 30db 413d ed6f c33c d7f8 343d d1d0 86bd
00000240: abca 5dbe 74b0 ce3b 80ad 34bd ee8e 573d
00000250: b04a 73bd 2916 b6ba fa8c 973d f77d cdbd
00000260: 284b fcbc dab6 813d c24c 5a3d 8ece c13d
00000270: 3528 903d ebbb 913c a75a 03be 4b20 09bd
00000280: f786 27be 1966 0fbd bdbb bebd 05fb 973d
00000290: b045 eebd 26eb d3bc 19ee 153b ebdf 9c3d
000002a0: 1bbc 173d 52d5 a13d 9f1e c4bd bdec 4d3d
000002b0: 2afe e73d 8c24 8b3c d705 a3bd c88f 003d
000002c0: 941f 90bd 5fd0 6d3c c353 a63d 6212 84bd
000002d0: 2aba 433d e060 18bc a0f8 b7bc 2256 d1bc
000002e0: 55ad 77bd 1806 0ebe 51e1 a3bd ba93 af3d
000002f0: a8c7 d23c 7a9c 4a3c 66e9 df3c c6ec 25bd

linear.weight f4 [2, 64]
-0.02321116 -0.043271966 0.012148721 0.059208885 0.050488375 0.004024983 0.22869927 0.043573394
-0.142655 -0.12328802 -0.0016308666 -0.08046327 -0.11678215 0.15224698 0.1135025 0.008897072
0.028541557 0.1933349 -0.13481015 0.03336273 0.07316517 0.019792322 -0.077677 0.05814287
-0.047437616 -0.1300927 -0.05928096 -0.110356174 -0.09294035 -0.01900184 -0.0036033317 -0.15134743
0.13976607 -0.069587365 0.02350272 -0.046926804 0.047710802 0.08967478 -0.03347345 -0.18418366
0.1329548 -0.05004007 0.0691705 0.018363392 -0.07414692 0.10983249 0.16628426 -0.00760128
-0.071926855 -0.07852207 0.05035522 -0.057062875 -0.064834945 0.09255579 0.22140998 0.13174039
0.13273865 0.012769871 0.14077638 0.047464736 -0.14469774 0.009454312 0.0499542 0.18317255
0.36709335 -0.20474264 -0.16594508 0.04243962 -0.0018586155 -0.17004232 -0.0626548 0.17364122
0.16560395 0.075402446 0.026014067 0.020999027 0.059844676 -0.29598638 0.048069198 -0.033594966
-0.086935185 -0.026729666 0.00864607 -0.26523802 0.039341133 0.11881442 -0.025853459 0.22040224
0.07034081 -0.13170703 0.19344981 0.027245684 -0.002242962 0.10596551 0.07304197 0.029370219
0.08873616 -0.014243186 -0.37110478 -0.10327483 0.09967254 0.08496812 0.037025873 0.07823125
-0.11464995 -0.039962754 0.10833566 -0.094933785 -0.06787417 0.09216012 0.031285707 -0.025813451
0.15328789 -0.109466664 0.05679423 -0.012522536 -0.34345528 -0.18827012 -0.06453702 -0.058667157
-0.008091023 0.058601584 -0.17228086 -0.08073427 -0.13314886 0.02423437 -0.018336404 0.07610749
00000000: 5525 bebc f23d 31bd 6e0b 473c 0485 723d
00000010: e6cc 4e3d 01e4 833b 2430 6a3e 047a 323d
00000020: 2714 12be 6e7e fcbd cdc2 d5ba edc9 a4bd
00000030: 7b2b efbd a2e6 1b3e 0074 e83d 06c5 113c
00000040: fccf e93c 96f9 453e ac0b 0abe 5ca7 083d
00000050: 9fd7 953d 8223 a23c 1e15 9fbd 3827 6e3d
00000060: f24d 42bd 0537 05be 98d0 72bd 6b02 e2bd
00000070: 8357 bebd bfa9 9bbc e025 6cbb d2fa 1abe
00000080: d61e 0f3e d283 8ebd c788 c03c 5236 40bd
00000090: 676c 433d 69a7 b73d 751b 09bd a49a 3cbe
000000a0: 4e25 083e d1f6 4cbd 43a9 8d3d d36e 963c
000000b0: 57da 97bd dbef e03d 6c46 2a3e 2914 f9bb
000000c0: 634e 93bd 2ed0 a0bd 4641 4e3d c3ba 69bd
000000d0: 2fc8 84bd e48d bd3d 4cb9 623e f4e6 063e
000000e0: a4ec 073e b938 513c af27 103e 626a 423d
000000f0: a52b 14be 42e6 1a3c c69c 4c3d 9691 3b3e
00000100: a9f3 bb3e 0ea8 51be 82ed 29be 2bd5 2d3d
00000110: ca9c f3ba 931f 2ebe 2951 80bd 01cf 313e
00000120: 1594 293e 996c 9a3d 741b d53c 2706 ac3c
00000130: b11f 753d 878b 97be 35e4 443d e09a 09bd
00000140: 130b b2bd 2cf8 dabc 3fa8 0d3c 47cd 87be
00000150: 2b24 213d fa54 f33d a2ca d3bc 20b1 613e
00000160: d80e 903d 35de 06be b517 463e 5732 df3c
00000170: a8fe 12bb 7204 d93d 0797 953d d099 f03c
00000180: 4ebb b53d 415c 69bc 7201 bebe c181 d3bd
00000190: 1e21 cc3d c403 ae3d 71a8 173d b537 a03d
000001a0: 98cd eabd fcaf 23bd 16df dd3d a56c c2bd
000001b0: 9d01 8bbd 72be bc3d 7125 003d bb76 d3bc
000001c0: 80f7 1c3e 0f30 e0bd 11a1 683d 532b 4dbc
000001d0: 5fd9 afbe e2c9 40be fc2b 84bd f94c 70bd
000001e0: 3690 04bc 3708 703d 656a 30be 0258 a5bd
000001f0: 2d58 08be 2887 c63c 3a36 96bc 3ede 9b3d

linear.bias f4 [2]
-0.11040004 -0.18879746
00000000: 6b19 e2bd 1f54 41be

linear_final.weight f4 [5, 64]
0.0023729717 -0.0077030817 0.067585185 -0.029679086 0.031822354 -0.0063304706 -0.06826167 -0.013799583
-0.08848192 -0.035813008 0.04316567 0.012807524 -0.0068619084 -0.04340661 -0.0061111553 0.057916395
0.20835075 -0.06520483 0.01941069 0.07818056 -0.044904664 -0.009370472 -0.1290697 0.012051372
0.04634094 0.12549566 0.009772106 0.052228887 0.05938923 0.03112727 -0.08713241 -0.021382852
-0.009298747 -0.033525568 0.0951539 -0.0457076 -0.01980882 -0.0022831683 -0.026733553 -0.047207013
-0.017989667 -0.037397563 0.08764241 -0.077204786 -0.013065809 0.0077836816 -0.0003982471 0.10106922
-0.04608544 0.06321204 0.0028086212 0.017594563 0.080321416 -0.050682012 -0.0755972 -1.7662089e-05
-0.053697422 -0.07190699 -0.15274496 -0.042318743 0.04885817 0.051124666 0.018029798 0.0681312
0.00069633656 -0.19932076 -0.011825858 0.020450398 -0.011235618 0.10297985 0.020347286 -0.078096665
-0.05449691 -0.017568031 0.0007301592 0.019862777 0.013460542 -0.03296905 -0.052039 -0.0059025204
-0.07993996 0.048049744 -0.02049451 -0.06598018 0.04260484 -0.03294984 -0.0012103079 0.019979116
-0.008785272 -0.017607715 0.030454932 3.493341e-05 0.07763562 0.009233937 0.06899133 0.01665475
0.02385093 0.0029479552 0.016862117 -0.039185498 -0.029545099 0.13594282 -0.025335575 0.025573254
-0.023915732 0.026734723 0.01593114 -0.00312487 0.018855143 0.037135582 -0.011896317 -0.01542771
-0.03654695 -0.012854996 -0.03458871 0.013935127 -0.009171128 -0.016854124 0.002687063 0.027023945
0.043440986 0.0126531245 0.041121077 -0.0047719316 0.013145458 0.029449914 -0.03351436 -0.00551373
-0.09967497 -0.05674235 0.24908851 -0.03730029 0.22408754 -0.028783126 -0.3252181 -0.24036989
0.26095968 -0.137293 -0.23332925 0.017142242 -0.24510458 0.13855767 0.21660924 0.18335813
-0.2859658 -0.23038833 0.26901382 0.15184459 -0.2961021 0.22133744 0.20577142 -0.07757569
-0.064142056 -0.2910005 -0.048514202 -0.2749759 0.3196948 0.16903518 0.11908719 0.01944857
0.2667182 -0.046974506 -0.15712772 -0.34120303 -0.1434361 -0.0655227 0.21208386 0.027482098
0.005921489 -0.088289686 -0.0360007 0.023057425 -0.0067542256 -0.010003168 0.118870094 0.45595744
0.07028717 0.07015833 -0.2451859 0.25294328 0.11633989 -0.14180174 0.21621494 0.11927685
0.17227355 -0.27561656 -0.077750415 0.14965567 -0.040555604 0.004262096 0.15696023 0.109315455
0.16698645 -0.13166796 -0.18955457 0.08530004 -0.039206862 -0.041608576 -0.1353442 -0.32648522
0.09127312 0.047699578 0.20697023 0.02607559 0.00033472606 0.17208137 -0.08536306 0.1600132
-0.069117695 -0.40373906 0.14821085 0.5289658 -0.34710222 0.15962465 0.05008446 -0.07931324
-0.101752415 0.082516834 0.22468841 -0.46591824 -0.20864072 -0.056188583 0.35307583 0.11072919
0.4142087 -0.0022692343 0.14694953 -0.33217528 -0.028738733 0.17373736 0.023988781 0.0970754
-0.027468538 0.034121476 -0.36113563 -0.17187332 -0.39891577 -0.02792265 -0.06457116 0.054334264
0.04470448 -0.09036602 0.010054885 0.43224263 -0.25669688 -0.065246396 -0.01665073 0.24933293
-0.023784012 -0.07405259 -0.269471 0.1244987 -0.12874779 0.20099692 0.18650104 0.024285004
00000000: dc83 1b3b 226a fcbb 1a6a 8a3d 8e21 f3bc
00000010: 2858 023d d66f cfbb c6cc 8bbd a517 62bc
00000020: 0236 b5bd a9b0 12bd 7cce 303d a6d6 513c
00000030: dcd9 e0bb 21cb 31bd 1640 c8bb be39 6d3d
00000040: e659 553e 1c8a 85bd 2b03 9f3c 211d a03d
00000050: f4ed 37bd 9c86 19bc d92a 04be 1e73 453c
00000060: ffcf 3d3d ef81 003e 2f1b 203c f5ed 553d
00000070: 1f42 733d 9efe fe3c 7a72 b2bd 172b afbc
00000080: c659 18bc 1b52 09bd 0ce0 c23d e437 3bbd
00000090: 1b46 a2bc 35a1 15bb 5300 dbbc 245c 41bd
000000a0: 115f 93bc 302e 19bd dd7d b33d 8b1d 9ebd
000000b0: fa11 56bc 410e ff3b d2cb d0b9 61fd ce3d
000000c0: 16c4 3cbd 5075 813d d810 383b 7922 903c
000000d0: 8e7f a43d f197 4fbd b4d2 9abd 0c29 94b7
000000e0: d4f1 5bbd f943 93bd 2d69 1cbe 6b56 2dbd
000000f0: 811f 483d 1968 513d 3ab3 933c 5f88 8b3d
00000100: 5b8a 363a be1a 4cbe 3ec1 41bc 9887 a73c
00000110: 9915 38bc 19e7 d23d 5aaf a63c 25f1 9fbd
00000120: 2738 5fbd d5ea 8fbc 2868 3f3a 43b7 a23c
00000130: 9b89 5c3c 8e0a 07bd d926 55bd ee69 c1bb
00000140: 90b7 a3bd cfcf 443d 1ae4 a7bc 9e20 87bd
00000150: 6a82 2e3d 69f6 06bd 32a3 9eba 3eab a33c
00000160: 1af0 0fbc 0e3e 90bc 9f7c f93c 7785 1238
00000170: 6dff 9e3d f049 173c 544b 8d3d 8b6f 883c
00000180: 0763 c33c 7b32 413b 6c22 8a3c f980 20bd
00000190: 9008 f2bc 9834 0b3e 8d8c cfbc 007f d13c
000001a0: edea c3bc c702 db3c 0682 823c 9eca 4cbb
000001b0: 1a76 9a3c 7b1b 183d c5e8 42bc 81c4 7cbc
000001c0: 41b2 15bd c39d 52bc e4ac 0dbd 2950 643c
000001d0: 8042 16bc a911 8abc 7019 303b 5261 dd3c
000001e0: 2def 313d 0d4f 4f3c 936e 283d dd5d 9cbb
000001f0: 0c60 573c f240 f13c 5b46 09bd 85ac b4bb
00000200: 6422 ccbd ab6a 68bd 0f11 7f3e 30c8 18bd
00000210: 3477 653e 97ca ebbc fd82 a6be 8623 76be
00000220: 829c 853e 8996 0cbe dded 6ebe e36d 8c3c
00000230: b2fc 7abe 10e2 0d3e d0ce 5d3e 3cc2 3b3e
00000240: 1c6a 92be ebea 6bbe 2ebc 893e 267d 1b3e
00000250: b29a 97be 48a6 623e beb5 523e 01e0 9ebd
00000260: e95c 83bd 04fe 94be d4b6 46bd a4c9 8cbe
00000270: 09af a33e 8f17 2d3e fce3 f33d 9c52 9f3c
00000280: 4a8f 883e 5768 40bd 17e6 20be 2ab2 aebe
00000290: eae0 12be c430 86bd 832c 593e 2322 e13c
000002a0: 0d09 c23b 39d1 b4bd 7875 13bd ede2 bc3c
000002b0: 8d52 ddbb 54e4 23bc 2a72 f33d 4173 e93e
000002c0: b8f2 8f3d 2caf 8f3d 0312 7bbe c881 813e
000002d0: 9c43 ee3d 7a34 11be 7367 5d3e 6c47 f43d
000002e0: 7a68 303e 9d1d 8dbe 9c3b 9fbd 563f 193e
000002f0: a21d 26bd 0da9 8b3b 2fba 203e c8e0 df3d
00000300: 7ffe 2a3e f7d3 06be 981a 42be cab1 ae3d
00000310: 6097 20bd c16d 2abd ac97 0abe 1229 a7be
00000320: 67ed ba3d a260 433d 01f0 533e 7a9c d53c
00000330: 2c7e af39 1936 303e d4d2 aebd 80da 233e
00000340: 948d 8dbd e3b6 cebe 96c4 173e 4d6a 073f
00000350: 62b7 b1be a574 233e 5d25 4d3d fb6e a2bd
00000360: 9263 d0bd 96fe a83d b814 663e d68c eebe
00000370: eaa5 55be 0026 66bd 5bc6 b43e fcc5 e23d
00000380: 2a13 d43e 6fb7 14bb f079 163e e112 aabe
00000390: 7e6d ebbc 35e8 313e 1f84 c43c 78cf c63d
000003a0: b305 e1bc f6c2 0b3d c5e6 b8be 8fff 2fbe
000003b0: b03e ccbe 0bbe e4bc e23d 84bd 9b8d 5e3d
000003c0: 0b1c 373d d211 b9bd 3fbd 243c e84e dd3e
000003d0: c66d 83be e79f 85bd 1d67 88bc 2251 7f3e
000003e0: b0d6 c2bc e2a8 97bd 1af8 89be 2df9 fe3d
000003f0: 76d6 03be 23d2 4d3e 21fa 3e3e 58f1 c63c

linear_final.bias f4 [5]
2.8721952e-05 -0.007594044 -1.1501598 -1.673235 -0.21317367
00000000: ecef f037 75d7 f8bb 7038 93bf 912c d6bf
00000010: 334a 5abe
