results1_checkpoint/univ/ade_best.pth (torch_old, 57359 bytes, 12 tensors)

gcn.gc1.weight f4 [2, 64]
-0.0025930586 -0.0036575468 0.0011538013 0.010227927 1.5111618e-05 -0.006051182 0.0069107413 -0.0025551347
0.0057901214 -0.0036505656 0.0011675903 -0.0010537991 0.00046140343 0.001929239 0.00036085478 -0.0016449977
0.002859098 0.0010799003 0.0015887688 -0.0026878526 -0.001263218 0.0068086656 0.0026820002 0.001721111
0.0028923457 0.004660586 0.0012308161 -0.0004095383 -0.0011275192 -0.0021207007 0.001368277 0.0009315632
0.0057112384 0.0021543265 0.0024087715 0.0021320889 -0.0010338675 0.00057275913 0.002765708 0.0028439676
-0.0021066172 -0.0015335052 -0.00025690504 -0.0014921756 0.0030337644 -0.0023565288 -0.0023285314 -0.010180042
-0.0010163812 0.004500688 -0.0003014235 -0.0013663355 -0.00012096621 0.0017847971 0.00036718318 0.00345262
-0.00035487922 -0.0024614143 1.4542409e-05 0.0006759184 -0.0038071778 0.005293708 0.0021630228 -0.003452258
0.003440814 -0.0023149778 -0.009186566 0.0013585674 -0.0033987383 0.0011712891 -0.0014998341 0.0010908981
-0.0034078124 -0.0036172422 0.0020957566 -0.002669009 -0.007892405 0.00096028467 0.0022889462 -0.0032921748
-0.003989068 0.0043586255 -0.007000737 -0.0038366842 -0.003948717 -0.006325123 0.0016067224 0.0026679356
-0.0018281513 0.00030769102 -0.0014181674 -0.00149219 -0.002493794 0.0037266794 -0.0036611226 0.0033448362
-0.0024150612 0.0014921457 0.0034976962 -0.004926821 -0.0070576556 -0.0026221233 -0.0035124978 -0.0034543881
-0.0056504677 0.00394821 -0.0038722141 -0.010220264 0.002370293 -0.0018458056 0.0004766055 -0.003916958
0.00054242037 0.004990318 -0.0013805138 -0.0021702352 0.005930929 -0.008902926 0.0021504937 0.0023206638
-0.0036867773 -0.0021552155 0.0030329172 -0.0042227777 0.0072977184 0.003168569 0.001879609 -0.0001784881
00000000: 4ef0 29bb 74b3 6fbb 263b 973a 0993 273c
00000010: e887 7d37 fe48 c6bb 8073 e23b 0c74 27bb
00000020: 0fbb bd3b 543e 6fbb d409 993a a11f 8aba
00000030: 85e8 f139 85de fc3a 1c31 bd39 f79c d7ba
00000040: b45f 3b3b 718b 8d3a 3c3e d03a af26 30bb
00000050: 9092 a5ba 3a1b df3b 7fc4 2f3b e796 e13a
00000060: 828d 3d3b d4b7 983b 5653 a13a 4db7 d6b9
00000070: 44c9 93ba 74fb 0abb c257 b33a 2634 743a
00000080: 5725 bb3b 9a2f 0d3b 7bdc 1d3b 84ba 0b3b
00000090: d682 87ba 3725 163a e140 353b dc61 3a3b
000000a0: 2c0f 0abb e5ff c8ba 36b1 86b9 1b95 c3ba
000000b0: 1fd2 463b fe6f 1abb 469a 18bb 31ca 26bc
000000c0: 1838 85ba 827a 933b 6108 9eb9 9d16 b3ba
000000d0: 3daf fdb8 daef e93a 7e82 c039 5a45 623b
000000e0: 150f bab9 ae4f 21bb 2cfb 7337 1e30 313a
000000f0: d881 79bb d776 ad3b 80c1 0d3b 473f 62bb
00000100: 487f 613b e2b6 17bb 4083 16bc f511 b23a
00000110: 5ebd 5ebb f185 993a 1596 c4ba 77fc 8e3a
00000120: 9b55 5fbb 410f 6dbb f658 093b 8aea 2ebb
00000130: 254f 01bc 9dbb 7b3a 2502 163b 87c1 57bb
00000140: bab6 82bb cdd2 8e3b 7066 e5bb e170 7bbb
00000150: 3d64 81bb fa42 cfbb a898 d23a 88d8 2e3b
00000160: 949e efba 9751 a139 cde1 b9ba 9695 c3ba
00000170: ec6e 23bb 4e3b 743b 72ef 6fbb 0a35 5b3b
00000180: 0146 1ebb 1a94 c33a 9b39 653b 2c71 a1bb
00000190: e843 e7bb eed7 2bbb ef31 66bb 0463 62bb
000001a0: 8f27 b9bb fc5f 813b f9c4 7dbb e572 27bc
000001b0: eb56 1b3b f5ee f1ba e8e0 f939 d359 80bb
000001c0: 3731 0e3a d285 a33b 5bf2 b4ba 813a 0ebb
000001d0: 3d58 c23b 94dd 11bc 4cef 0c3b 4716 183b
000001e0: dc9d 71bb 843e 0dbb e8c3 463b 3a5f 8abb
000001f0: b321 ef3b c4a7 4f3b 365d f63a 8928 3bb9

gcn.gc1.bias f4 [64]
-7.6542585e-07 -2.5556334e-05 -8.3318946e-07 -5.877256e-06 -8.90536e-06 3.9094857e-06 7.937261e-06 8.219833e-06
-5.484704e-06 -1.3943648e-05 7.005941e-06 -1.2047376e-05 -1.4966252e-05 6.549638e-06 1.9120998e-06 -5.1510283e-06
3.4190094e-07 9.971544e-06 -7.532776e-06 -5.875633e-06 1.347617e-05 -7.3559363e-07 -1.2036504e-05 1.1189897e-05
1.5519436e-06 5.368646e-06 2.6473782e-07 9.891169e-06 9.96796e-06 -1.0264763e-06 5.680751e-07 -9.888638e-06
3.1805657e-06 -7.383231e-06 -7.987356e-06 -1.1213796e-05 -1.2314023e-05 -6.8762097e-06 -4.7715557e-06 -6.827009e-06
1.6155665e-05 -1.7367495e-07 2.385949e-05 -6.0182783e-06 -1.192044e-05 7.220331e-06 1.2440195e-05 -5.5146797e-06
4.7321673e-06 2.580879e-06 -2.497522e-06 1.4392984e-05 8.680093e-06 -1.9311112e-06 -1.7723203e-06 -5.6654867e-06
-1.0499393e-05 9.882228e-06 4.448741e-06 1.0424176e-06 -1.8144646e-06 -1.871897e-05 8.217214e-06 8.990244e-07
00000000: aa77 4db5 cf61 d6b7 58a8 5fb5 3f35 c5b6
00000010: 3b68 15b7 3a2e 8336 472a 0537 eae7 0937
00000020: 4009 b8b6 83ef 69b7 9314 eb36 161f 4ab7
00000030: 9017 7bb7 f6c4 db36 a051 0036 ffd6 acb6
00000040: 828e b734 754b 2737 0ec2 fcb6 4e27 c5b6
00000050: b617 6237 9c75 45b5 64f0 49b7 3ebc 3b37
00000060: 604c d035 5124 b436 4a21 8e34 3ff2 2537
00000070: 103c 2737 75c5 89b5 d37d 1835 60e7 25b7
00000080: b471 5536 79bd f7b6 6f01 06b7 e322 3cb7
00000090: 5398 4eb7 31ba e6b6 5a1b a0b6 9013 e5b6
000000a0: 0786 8737 687b 3ab4 dd25 c837 9ef0 c9b6
000000b0: e6fd 47b7 2c46 f236 3bb6 5037 bd0a b9b6
000000c0: 02c9 9e36 2a33 2d36 1a9b 27b6 6579 7137
000000d0: b7a0 1137 3d98 01b6 76e0 edb5 291a beb6
000000e0: 8d26 30b7 d9cb 2537 6546 9536 32e9 8b35
000000f0: 8788 f3b5 af06 9db7 aadc 0937 7d54 7135

gcn.gc2.weight f4 [64, 2]
0.0072245016 -2.3230423e-05 -0.002768837 0.0059861774 0.0040607248 -0.0012648287 0.0015581361 -0.001948552
0.0015732261 0.0027850387 0.0028834252 -0.0021685755 0.002694863 0.004028686 0.0022434178 -0.004960756
0.0033697956 -0.0032696133 0.0014770309 0.003080195 -0.0013767431 0.001541028 0.005677817 0.0018216325
0.00075148867 0.0051284395 -0.0054465374 2.0487169e-05 -0.0004944552 0.00048441283 -0.009826097 0.003085977
-0.00056280737 0.0003773219 -0.0020927093 0.0024933973 0.002912972 0.0033053616 -0.00846047 0.000772337
-0.0022124264 -0.003039748 0.00011534923 -0.0010330061 -0.0008546328 -0.0035496836 -0.0011657673 0.002518679
-0.0006438972 0.0013183707 0.006494957 0.0021885114 -6.4984924e-05 -0.0026946117 0.0009587334 -0.0022531536
-0.0008036083 -0.0021842588 0.0027673738 0.0021775747 -0.003037863 0.002955406 0.00073996285 -0.0023181685
-0.005268133 -0.0016901541 0.009009165 0.00016000902 0.0015768501 -0.0018144633 0.006008853 0.007596314
-0.001469046 0.0031843728 -0.0022619073 0.006003811 0.0026500113 0.0052828277 0.0055579054 0.00017947283
0.002431378 -0.0035801146 0.00071745116 -0.0030031677 -0.0007278203 -0.00798329 0.0011542928 0.0014923257
0.0010161175 -0.0030488712 0.005442868 -0.0015388975 0.0006783342 -0.0048331316 0.0033253678 0.00090839714
8.062977e-05 -0.0025808683 -0.0029669125 -0.00014767144 0.005644833 0.000116899675 0.000908141 -0.003334683
-0.0013463519 0.004040779 -0.004292715 0.0027585325 0.00946232 0.00146764 -0.0035903743 -0.0024579407
-0.0040923837 0.0029827256 0.0008817976 -0.0022916098 0.0008787223 0.0023069547 0.005609252 -0.0043064966
-0.002949071 0.0063645565 -0.0024935415 -0.005693299 0.00030161024 0.002212149 -0.0051524993 0.0008625959
00000000: 83bb ec3b f4de c2b7 6075 35bb b227 c43b
00000010: d40f 853b 9cc8 a5ba 5f3a cc3a 8e66 ffba
00000020: b534 ce3a 3285 363b d9f7 3c3b a91e 0ebb
00000030: 4c9c 303b 1103 843b 4e06 133b d68d a2bb
00000040: cad7 5c3b 0247 56bb ef98 c13a 19dd 493b
00000050: d573 b4ba 52fc c93a fb0c ba3b d8c3 ee3a
00000060: 8dff 443a 780c a83b de78 b2bb dcdb ab37
00000070: 549e 01ba caf8 fd39 a3fd 20bc 1a3e 4a3b
00000080: 5d89 13ba 4ad3 c539 d625 09bb 4468 233b
00000090: 8fe7 3e3b c49e 583b c89d 0abc a976 4a3a
000000a0: 5bfe 10bb 8236 47bb a5e7 f138 ef65 87ba
000000b0: 7009 60ba cfa1 68bb a9cc 98ba 6c10 253b
000000c0: 36cb 28ba 2ecd ac3a a6d3 d43b 216d 0f3b
000000d0: 8448 88b8 1598 30bb 8253 7b3a a5a9 13bb
000000e0: 3da9 52ba c825 0fbb d45c 353b a4b5 0e3b
000000f0: e216 47bb 7caf 413b 11fa 413a 6aec 17bb
00000100: 4da0 acbb 2988 ddba 2d9b 133c 18c8 2739
00000110: 4fae ce3a 49d3 edba eae5 c43b 80ea f83b
00000120: 018d c0ba e9b0 503b 823c 14bb 9ebb c43b
00000130: d0ab 2d3b 921b ad3b 171f b63b df30 3c39
00000140: c157 1f3b 5ba0 6abb 5513 3c3a cbd0 44bb
00000150: 32cb 3eba 58cc 02bc a44b 973a 249a c33a
00000160: 3f2f 853a 92cf 47bb 165a b23b d5b4 c9ba
00000170: 3dd2 313a 3f5f 9ebb 6aee 593b 8021 6e3a
00000180: c717 a938 c923 29bb 8870 42bb 40d8 1ab9
00000190: 4bf8 b83b 0928 f538 5010 6e3a b28a 5abb
000001a0: 1378 b0ba 8368 843b e7a9 8cbb 7fc8 343b
000001b0: d907 1b3c d45d c03a 7c4c 6bbb 6715 21bb
000001c0: 6719 86bb d579 433b 6f28 673a d52e 16bb
000001d0: 0e5a 663a 4730 173b d1cd b73b 831d 8dbb
000001e0: 3345 41bb c58d d03b af6a 23bb db8e babb
000001f0: 7121 9e39 b4f9 103b 4cd6 a8bb d51f 623a

gcn.gc2.bias f4 [2]
0.00069030764 -0.0014101682
00000000: c3f5 343a 65d5 b8ba

grucell.weight_ih f4 [192, 2]
0.112432085 0.06763848 0.09116868 0.11696856 0.110410035 -0.07151853 0.025395622 0.093650065
-0.04288294 0.009080901 0.07715187 0.018328918 -0.06719913 -0.078466795 -0.04356823 -0.0870267
-0.08434047 -0.040584136 -0.052943323 0.0009210435 -0.08564749 -0.026854422 -0.05903091 -0.11821886
-0.09578495 0.11277332 0.042877235 -0.06089396 -0.096673734 -0.07328682 0.11397703 0.03085043
0.07549477 0.11592527 0.0029153265 -0.032247446 -0.06730952 -0.023893429 -0.012888594 0.050741903
-0.0063551287 -0.04647589 0.0020171816 -0.10115713 0.115754485 -0.12055151 -0.11305004 8.6259075e-05
0.10326613 0.07200313 -0.10264344 0.08828401 0.09099297 -0.10724573 0.066760994 -0.08208368
3.6148882e-05 0.0937823 -0.02437934 -0.03855013 0.0670685 0.0020130288 0.040101677 0.06417284
-0.10602304 0.038457338 0.030832175 0.055778645 -0.08919768 -0.040931568 -0.029576646 -0.082881086
0.08482204 -0.102428764 -0.04918897 -0.015739238 0.032355856 0.0714769 0.039492186 0.04283524
-0.09390802 0.020946667 0.075529754 0.12445244 -0.08055204 -0.035565082 -0.041179426 -0.10062952
0.028488178 0.026031503 -0.11896301 -0.017670836 -0.09797925 -0.08317089 -0.06929116 0.01509716
-0.07265577 0.06592863 0.07192956 -0.028589988 -0.09957422 -0.047895353 0.10019974 -0.0016237985
0.10951284 0.026773933 -0.089645036 -0.095501244 0.12334205 -0.101091295 0.012310034 -0.06237141
0.11827702 -0.05434478 -0.063274845 -0.00027202742 0.08847116 -0.025260324 -0.11175666 0.06226068
0.025202341 -0.101107515 0.03075032 -0.06796953 -0.085017785 -0.11023003 0.119505025 0.04719745
-0.11901175 -0.11507083 0.08161897 -0.03445466 -0.014266643 0.060292095 -0.11778822 -0.046068802
-0.03179413 -0.04976064 0.059027433 -0.08456007 -0.10373033 -0.11097159 0.053363092 0.059604827
-0.08153706 0.04850274 0.11453751 -0.03851795 -0.068948 0.105016224 -0.032518923 0.05410778
0.11513089 -0.11607636 -0.11043611 0.1052529 0.018486485 -0.03524826 -0.06665753 0.036716457
0.06150429 -0.11726194 0.07640508 0.014403609 -0.019291388 -0.07922379 -0.06741218 0.12041013
0.050379056 -0.0037713181 -0.053365264 -0.044084214 -0.07087877 -0.04070277 -0.07392422 -0.032187015
-0.07576558 0.0432306 -0.08210374 -0.0048030713 -0.09721142 -0.06669837 0.10850344 0.040448163
0.1120403 0.094795816 -0.100691885 -0.099186145 -0.05823785 -0.054784708 -0.10626909 -0.034737915
-0.00996226 0.041991334 0.03532989 0.09185694 0.050542034 -0.043772247 0.09427546 -0.058326542
-0.018359644 0.025108922 0.12250488 0.1096581 -0.06863196 0.08339304 0.11598469 -0.07929747
0.03987578 0.000512048 -0.067867 -0.09221965 -0.03145874 0.08255588 0.07701062 -0.017865675
-0.0967603 0.019948028 -0.053160895 0.12340098 -0.12196611 -0.060324725 -0.11844645 -0.10557823
-0.11899993 -0.08309884 0.059017632 -0.06926205 0.029862124 -0.045025826 -0.12421029 -0.051113967
-0.057787124 -0.0022325157 -0.039465297 0.11582274 -0.035141744 0.045200292 0.09322211 0.05338291
-0.028457161 -0.11633532 -0.06954053 0.08828346 0.0042600785 -0.050830755 0.10706307 0.03251765
0.037983358 0.12156388 0.122184716 -0.095462814 -0.01686199 0.10279109 -0.05397292 -0.047200214
00000000: cb42 e63d 0b86 8a3d a5b6 ba3d 368d ef3d
00000010: a81e e23d 4f78 92bd 7b0a d03c 9bcb bf3d
00000020: 06a6 2fbd 0fc8 143c cd01 9e3d 8726 963c
00000030: b39f 89bd 33b3 a0bd 9a74 32bd 0e3b b2bd
00000040: b2ba acbd 8d3b 26bd 19db 58bd 2f72 713a
00000050: f467 afbd cefd dbbc 65ca 71bd bb1c f2bd
00000060: e62a c4bd b3f5 e63d 0aa0 2f3d f26b 79bd
00000070: e1fc c5bd 6617 96bd ca6c e93d 0aba fc3c
00000080: 019d 9a3d 3a6a ed3d 100f 3f3b e615 04bd
00000090: 93d9 89bd 27bc c3bc ae2a 53bc bed6 4f3d
000000a0: af3e d0bb 815d 3ebd b132 043b 782b cfbd
000000b0: b010 ed3d b6e3 f6bd c886 e7bd fde5 b438
000000c0: 317d d33d 6176 933d b936 d2bd 3fce b43d
000000d0: 865a ba3d a6a3 dbbd fdb9 883d 7d1b a8bd
000000e0: 919e 1738 ef10 c03d 2eb7 c7bc bee6 1dbd
000000f0: 365b 893d 05ed 033b a841 243d 0d6d 833d
00000100: 9c22 d9bd 7185 1d3d c293 fc3c 2678 643d
00000110: 46ad b6bd dca7 27bd b94a f2bc 8fbd a9bd
00000120: 2db7 ad3d 2cc6 d1bd 607a 49bd 93ef 80bc
00000130: 9387 043d 7b62 923d 8fc2 213d 0174 2f3d
00000140: d952 c0bd 5898 ab3c 58af 9a3d ece0 fe3d
00000150: 78f8 a4bd b1ac 11bd c2ab 28bd da16 cebd
00000160: 0a60 e93c 0540 d53c e1a2 f3bd 6ec2 90bc
00000170: 58a9 c8bd 8055 aabd 86e8 8dbd 145a 773c
00000180: 8ccc 94bd 9705 873d ce4f 933d 8d35 eabc
00000190: 92ed cbbd eb2d 44bd 8535 cd3d a3d5 d4ba
000001a0: 4548 e03d 0255 db3c d197 b7bd 2896 c3bd
000001b0: c29a fc3d f408 cfbd 06b0 493c 2a79 7fbd
000001c0: 393b f23d a298 5ebd 3e96 81bd e79e 8eb9
000001d0: 5e30 b53d bdee cebc ade0 e4bd 0e05 7f3d
000001e0: 2475 ce3c 7511 cfbd 18e8 fb3c 9c33 8bbd
000001f0: ce1d aebd 48c0 e1bd 0dbf f43d 1d52 413d
00000200: 6fbc f3bd 41aa ebbd d927 a73d 5420 0dbd
00000210: a3be 69bc d8f4 763d f33a f1bd a4b2 3cbd
00000220: 903a 02bd d0d1 4bbd c0c6 713d d42d adbd
00000230: 9170 d4bd 1345 e3bd 4293 5a3d 3124 743d
00000240: e7fc a6bd cfaa 463d a492 ea3d ffc4 1dbd
00000250: 9c34 8dbd bf12 d73d 9032 05bd 1fa0 5d3d
00000260: bec9 eb3d 71b9 edbd 542c e2bd d58e d73d
00000270: f870 973c 7b60 10bd be83 88bd ff63 163d
00000280: eceb 7b3d 0727 f0bd 447a 9c3d 1dfd 6b3c
00000290: f908 9ebc 1540 a2bd 660f 8abd 9699 f63d
000002a0: 455a 4e3d 3828 77bb 8995 5abd a691 34bd
000002b0: e328 91bd f3b7 26bd 9565 97bd 88d6 03bd
000002c0: fc2a 9bbd 9212 313d 0126 a8bd 1563 9dbb
000002d0: c816 c7bd 2899 88bd 0d37 de3d f9ac 253d
000002e0: 6375 e53d 4f24 c23d 8c37 cebd 1b22 cbbd
000002f0: d08a 6ebd ee65 60bd 9ca3 d9bd 5849 0ebd
00000300: bf38 23bc 1bff 2b3d 13b6 103d 7e1f bc3d
00000310: 2a05 4f3d 874a 33bd 7e13 c13d d0e7 6ebd
00000320: f766 96bc 3ab1 cd3c d7e3 fa3d 6d94 e03d
00000330: ea8e 8cbd f8c9 aa3d 6289 ed3d b666 a2bd
00000340: c954 233d f63a 063a dbfd 8abd a8dd bcbd
00000350: e1da 00bd 0f13 a93d beb7 9d3d 095b 92bc
00000360: 442a c6bd 0c6a a33c 3dbf 59bd a7b9 fc3d
00000370: 5ec9 f9bd 0f17 77bd 0d94 f2bd 6639 d8bd
00000380: 3cb6 f3bd ba2f aabd 79bc 713d 43d9 8dbd
00000390: 6aa1 f43c 006d 38bd f761 febd e15c 51bd
000003a0: 31b2 6cbd 664f 12bb 5da6 21bd 7934 ed3d
000003b0: caf0 0fbd f123 393d 3ceb be3d 0aa8 5a3d
000003c0: fe1e e9bc 3641 eebd 446b 8ebd f5cd b43d
000003d0: 2198 8b3b e933 50bd e243 db3d 3a31 053d
000003e0: 7094 1b3d 7cf6 f83d fb3b fa3d 0282 c3bd
000003f0: 2822 8abc 2384 d23d b512 5dbd 0355 41bd

grucell.weight_hh f4 [192, 64]
0.09891428 -0.09916903 -0.09095973 0.10073063 -0.06491163 -0.053947255 0.005056863 0.011022925
-0.10380624 -0.095593035 -0.01547285 0.12244185 -0.019184383 -0.052560437 0.062758364 -0.10981747
-0.02582941 -0.059850786 -0.116331026 -0.080288924 -0.011701551 -0.0039129616 0.068399794 -0.10734383
-0.048325423 0.10305884 0.10658547 0.03601001 -0.094460376 -0.03238699 -0.074912824 0.022553008
0.062479813 -0.0703315 0.04913819 -0.11022255 0.099386305 -0.05362862 -0.06243484 -0.09582675
0.055299215 0.025323363 0.083575256 0.029074857 0.07982808 -0.06209976 -0.11014584 0.024968697
-0.058975823 0.038273025 0.010886671 0.01486208 0.10481629 -0.06367664 -0.02904951 0.10304019
0.028860135 0.10886765 0.06556633 -0.044879336 0.008687063 0.05411746 -0.07323561 0.08889586
0.12084569 0.010298615 0.11244142 -0.04763594 0.010595478 0.040333755 -0.056753833 -0.020920334
-0.07329985 0.079319574 0.01051156 0.0007640307 -0.03116126 0.0089847585 -0.1018499 0.03499164
0.07432864 -0.1176486 0.10287732 -0.0824921 -0.10089084 0.0383823 -0.09170018 0.09125281
-0.120558545 -0.05409224 0.008866408 0.049297273 0.105444804 0.09311962 -0.007511476 0.07697663
-0.019532964 -0.06317394 0.10990232 0.05333456 0.02333162 -0.09347301 0.06998105 0.052884776
-0.008019867 -0.075740695 0.1114844 -0.051481687 0.061903063 0.027153993 0.070685536 0.109328434
0.048298948 0.09923514 -0.046299584 0.08852405 -0.10338048 -0.0038418374 -0.015661076 -0.0081094755
0.013848068 -0.11647941 -0.046101943 0.040271457 -0.042372447 0.024134282 0.032983556 -0.024247803
0.03461309 0.045062695 0.046733093 -0.059629172 -0.07347111 -0.06444557 0.0902196 0.042970642
-0.09798269 -0.09407061 0.017562171 -0.06912888 0.052028175 -0.09841014 0.114151604 -0.027527539
-0.0021801558 -0.015529687 0.087308496 0.08944873 -0.10157851 0.100283846 -0.043028235 -0.12215383
-0.05203291 0.12226463 0.017261837 -0.044147007 -0.006448728 0.039929368 -0.123482704 -0.081992745
0.12069203 0.08353259 0.0042971126 -0.084596135 0.033711836 -0.0822493 -0.046065122 -0.04766442
-0.069572 0.002447547 0.03671899 0.085870914 0.023111586 0.08102288 0.08885964 0.046419214
0.06589301 -0.02975405 -0.041939873 -0.048453767 0.00631745 -0.043334726 -0.074584626 0.007998772
0.09841194 0.025887689 -0.11071446 -0.009332619 -0.09445855 -0.116141275 -0.06968682 -0.110009454
0.014896019 -0.095784254 0.080704086 -0.033451043 0.04892768 0.10102792 -0.05438921 0.0061020968
0.08451664 -0.041013006 0.037474126 -0.061740026 0.11435711 0.038369026 0.09032716 -0.11466964
0.0030247448 -0.0338321 0.07241383 0.11197293 -0.012745231 -0.07198284 0.0640649 0.09911249
0.046838958 0.02837798 -0.11586002 -0.10614407 0.07055777 -0.030643813 0.026149295 -0.023436286
0.003739198 0.112979524 0.04467139 -0.10691211 -0.10477644 0.09207655 0.06674528 -0.035929076
-0.060724497 0.0091116 0.07085048 0.08774031 0.10524768 -0.008725492 -0.11434169 0.04985433
-0.002911561 -0.10221785 -0.012089286 0.101421855 0.05896346 -0.08102477 -0.0043745036 0.11356593
0.032982785 -0.10714015 0.019111069 -0.0581622 -0.038434453 -0.08748605 -0.042065453 -0.026653213
00000000: 9293 ca3d 2219 cbbd 1849 babd dc4b ce3d
00000010: 63f0 84bd ccf7 5cbd 0bb4 a53b 8099 343c
00000020: 5e98 d4bd 48c6 c3bd d681 7dbc cbc2 fa3d
00000030: 9128 9dbc 9d49 57bd 7587 803d fbe7 e0bd
00000040: 3398 d3bc 1926 75bd f63e eebd 856e a4bd
00000050: ddb7 3fbc 4d38 80bb 3115 8c3d 15d7 dbbd
00000060: e1f0 45bd 8310 d33d 7c49 da3d 3b7f 133d
00000070: 7174 c1bd 38a8 04bd e56b 99bd 16c1 b83c
00000080: d5ea 7f3d f609 90bd 2045 493d 5cbc e1bd
00000090: 0c8b cb3d afa9 5bbd adbb 7fbd d140 c4bd
000000a0: 6e81 623d f172 cf3c 8129 ab3d 652e ee3c
000000b0: e87c a33d 515c 7ebd 2494 e1bd 278b cc3c
000000c0: a290 71bd 2dc4 1c3d 025e 323c 1580 733c
000000d0: eca9 d63d e668 82bd 3df9 edbc bc06 d33d
000000e0: 176c ec3c 01f6 de3d a447 863d 65d3 37bd
000000f0: 2f54 0e3c 45aa 5d3d 8dfc 95bd 080f b63d
00000100: f27d f73d 86bb 283c b047 e63d e71d 43bd
00000110: a898 2d3c 0235 253d b576 68bd 1f61 abbc
00000120: 3b1e 96bd 4d72 a23d ae38 2c3c 3b49 483a
00000130: e645 ffbc cf34 133c ae96 d0bd 6553 0f3d
00000140: 9d39 983d c0f1 f0bd 58b1 d23d 9ef1 a8bd
00000150: db9f cebd c236 1d3d 4ecd bbbd c1e2 ba3d
00000160: 66e7 f6bd d38f 5dbd 6944 113c f0eb 493d
00000170: 72f3 d73d 80b5 be3d d422 f6bb eca5 9d3d
00000180: 9803 a0bc 5761 81bd 7814 e13d 5775 5a3d
00000190: f421 bf3c c76e bfbd 3a52 8f3d b59d 583d
000001a0: c365 03bc f01d 9bbd ef51 e43d 76de 52bd
000001b0: 118e 7d3d 0d72 de3c 94c3 903d 96e7 df3d
000001c0: 1ed5 453d cb3b cb3d a2a4 3dbd 194c b53d
000001d0: 25b9 d3bd 56c7 7bbb a84b 80bc 9bdd 04bc
000001e0: 02e3 623c c28c eebd 64d5 3cbd aff3 243d
000001f0: bb8e 2dbd 42b5 c53c c419 073d 54a3 c6bc
00000200: 75c6 0d3d a993 383d 336b 3f3d b83d 74bd
00000210: 0578 96bd 0afc 83bd 0ec5 b83d fc01 303d
00000220: 26ab c8bd 18a8 c0bd 8bde 8f3c 7193 8dbd
00000230: 7f1b 553d 418b c9bd 51c8 e93d 6f81 e1bc
00000240: f2e0 0ebb 3a70 7ebc ccce b23d e530 b73d
00000250: 6508 d0bd 9e61 cd3d 603e 30bd ca2b fabd
00000260: 7620 55bd e165 fa3d b268 8d3c 7ed3 34bd
00000270: da4f d3bb fa8c 233d 80e4 fcbd d0eb a7bd
00000280: 622d f73d 2213 ab3d cbce 8c3b bd40 adbd
00000290: 6c15 0a3d 5272 a8bd c8ae 3cbd c43b 43bd
000002a0: c47b 8ebd 0667 203b a766 163d 17dd af3d
000002b0: 8254 bd3c 53ef a53d 0bfc b53d 1322 3e3d
000002c0: eaf2 863d c4be f3bc 25c9 2bbd 7577 46bd
000002d0: 9d02 cf3b c17f 31bd d3bf 98bd 480d 033c
000002e0: 338c c93d 6b12 d43c 43be e2bd d7e7 18bc
000002f0: 7c73 c1bd 7adb edbd f7b7 8ebd a34c e1bd
00000300: 6f0e 743c 892a c4bd 2f48 a53d f603 09bd
00000310: 6468 483d bae7 ce3d 38c7 5ebd 19f4 c73b
00000320: 0f17 ad3d 41fd 27bd 787e 193d 1ce3 7cbd
00000330: 0f34 ea3d d728 1d3d 72fd b83d ebd7 eabd
00000340: cc3a 463b 8793 0abd b44d 943d 1052 e53d
00000350: 60d1 50bc bd6b 93bd 7534 833d 7dfb ca3d
00000360: 35da 3f3d f078 e83c 0548 edbd 1062 d9bd
00000370: 9880 903d bc08 fbbc 0c37 d63c 74fd bfbc
00000380: 550d 753b cf61 e73d 59f9 363d bcf4 dabd
00000390: 0895 d6bd a192 bc3d c0b1 883d 5e2a 13bd
000003a0: 40ba 78bd d248 153c 0e1a 913d 31b1 b33d
000003b0: 188c d73d 5ef5 0ebc fa2b eabd 0e34 4c3d
000003c0: e3cf 3ebb 9857 d1bd 2412 46bc 43b6 cf3d
000003d0: ab83 713d 51f0 a5bd ff57 8fbb 4195 e83d
000003e0: f518 073d 4c6c dbbd d18e 9c3c 7d3b 6ebd
000003f0: 726d 1dbd e32b b3bd d34c 2cbd d757 dabc

grucell.bias_ih f4 [192]
0.116950765 -0.026811076 0.032358408 -0.024202883 0.10224381 -0.10410153 0.07772465 0.010205784
-0.072043754 0.013788159 0.118372016 -0.026182996 -0.088776946 -0.009521982 0.02204785 0.07224228
0.12177126 0.025605934 0.060097184 -0.08138256 -0.053002194 -0.0036626204 -0.01339212 0.0969375
-0.10769451 0.07835786 -0.11005809 -0.11747369 0.038711015 0.05174303 -0.019731395 0.09821425
0.032132372 -0.046850957 -0.011588682 0.09503665 0.020148486 -0.04402764 -0.026124122 0.04516843
-0.093894616 -0.094875805 -0.06418021 -0.04848584 0.09182173 0.11450874 0.017025298 0.12206383
0.04466583 0.099222034 -0.009591326 -0.111255266 -0.10629416 0.12309635 -0.020398714 -0.04791596
0.060772717 0.12326752 -0.098699585 0.06046889 0.106740534 -0.1042433 -0.048013233 0.01787048
-0.120401114 -0.002434312 0.0596056 -0.10707491 0.07964062 0.06274566 -0.09316813 0.090615004
0.10083787 -0.040754203 -0.044129368 0.010997526 0.023620555 -0.11370606 0.07318074 0.1090217
-0.003844767 0.048534643 0.08811243 -0.10199457 -0.07227487 0.11493661 0.048455384 -0.06525688
0.0025201086 -0.013377182 -0.020853065 0.005573475 -0.09549339 0.008466042 -0.12215217 0.06749574
-0.028745659 -0.085394405 0.024786996 -0.11724845 -0.11632017 0.048230086 -0.034559518 0.07534502
0.02027148 -0.095900126 0.094078936 0.0124492375 0.09072648 0.09202283 0.09468895 -0.09501786
0.03615894 0.06405534 -0.09966525 -0.11885629 0.024089554 0.022334427 -0.038361926 0.042727076
-0.033091206 0.09235276 -0.10406793 0.06544362 -0.03078374 -0.106738284 0.08164584 -0.12282492
0.038975373 -0.20134008 0.13656695 -0.024328843 0.04328453 0.06702321 0.025218423 0.14735147
0.047589358 -0.1278338 -0.029553222 -0.020380834 -0.11351385 -0.27950504 -0.07814129 0.00859709
-0.040731523 -0.028916748 -0.047484722 -0.12175635 -0.020733878 -0.028387876 -0.02111785 -0.03642914
-0.16019101 0.1541096 -0.10950845 0.07741673 0.23563676 -0.022141987 -0.018829267 -0.027775679
-0.14368631 0.23371644 -0.0064098677 -0.024410978 -0.09142705 0.10773336 -0.12250064 -0.010628713
-0.10187548 -0.05435408 -0.11301844 -0.11251385 0.034556206 0.0952461 0.050052974 -0.05371226
-0.061176047 0.16458927 0.092982985 -0.05242771 -0.017614547 -0.001139881 -0.081937246 0.061807368
0.113858685 0.05529327 -0.02157258 -0.16269945 -0.04570723 -0.093603775 0.0033801396 -0.06920571
00000000: e283 ef3d e7a2 dbbc 408a 043d 2045 c6bc
00000010: 3465 d13d 2f33 d5bd 1a2e 9f3d 2936 273c
00000020: ad8b 93bd bbe7 613c 076d f23d b97d d6bc
00000030: b0d0 b5bd 1602 1cbc b19d b43c c3f3 933d
00000040: 3663 f93d 89c3 d13c 7728 763d e6ab a6bd
00000050: d418 59bd 9308 70bb 9f6a 5bbc 2b87 c63d
00000060: f08e dcbd 167a a03d 2366 e1bd 0c96 f0bd
00000070: 718f 1e3d 80f0 533d bca3 a1bc 8d24 c93d
00000080: 3c9d 033d cae6 3fbd 75de 3dbc 93a2 c23d
00000090: 700e a53c 5456 34bd 4102 d6bc 8802 393d
000000a0: d24b c0bd 3f4e c2bd ea70 83bd 1799 46bd
000000b0: 080d bc3d 8f83 ea3d a378 8b3c 9afc f93d
000000c0: 84f3 363d ec34 cb3d f024 1dbc cdd9 e3bd
000000d0: c1b0 d9bd f019 fc3d 341b a7bc 8743 44bd
000000e0: d0ec 783d ae73 fc3d 0223 cabd 3aae 773d
000000f0: c89a da3d 837d d5bd 86a9 44bd 1d65 923c
00000100: dc94 f6bd fa88 1fbb 0025 743d 174a dbbd
00000110: 9f1a a33d cc80 803d efce bebd 5c94 b93d
00000120: 1684 ce3d e1ed 26bd ffc0 34bd f82e 343c
00000130: e57f c13c b9de e8bd c9df 953d c546 df3d
00000140: 7df8 7bbb 43cc 463d 4a74 b43d 87e2 d0bd
00000150: d904 94bd e363 eb3d 2779 463d 66a5 85bd
00000160: 6828 253b f82b 5bbc 0cd4 aabc b2a1 b63b
00000170: 0a92 c3bd 27b5 0a3c eb2a fabd 353b 8a3d
00000180: 047c ebbc 43e3 aebd 190e cb3c f51f f0bd
00000190: 4539 eebd e98c 453d 488e 0dbd 7d4e 9a3d
000001a0: 6010 a63c 4967 c4bd 75ac c03d e3f7 4b3c
000001b0: cece b93d 7776 bc3d 48ec c13d b998 c2bd
000001c0: 661b 143d 722f 833d 4b1d ccbd ed6a f3bd
000001d0: 7557 c53c b0f6 b63c 6521 1dbd 9602 2f3d
000001e0: a58a 07bd 7223 bd3d 9121 d5bd 4e07 863d
000001f0: 2f2e fcbc 9a99 dabd ef35 a73d a28b fbbd
00000200: a4a4 1f3d 182c 4ebe 35d8 0b3e 484d c7bc
00000210: 1f4b 313d 7743 893d de96 ce3c 4ee3 163e
00000220: 0fed 423d dde6 02be 9919 f2bc b5f5 a6bc
00000230: f379 e8bd 491b 8fbe 8a08 a0bd cfda 0c3c
00000240: 19d6 26bd d1e2 ecbc 577f 42bd 655b f9bd
00000250: 18da a9bc b18d e8bc 57ff acbc b936 15bd
00000260: 1d09 24be e8ce 1d3e f745 e0bd aa8c 9e3d
00000270: c34a 713e 1d63 b5bc d63f 9abc d289 e3bc
00000280: 8122 13be 5d53 6f3e de09 d2bb 88f9 c7bc
00000290: 1b3e bbbd 4fa3 dc3d 9ee1 fabd 0e24 2ebc
000002a0: 17a4 d0bd 62a2 5ebd 3676 e7bd a96d e6bd
000002b0: cf8a 0d3d 6310 c33d 5904 4d3d 6301 5cbd
000002c0: bc93 7abd 178a 283e dd6d be3d 70be 56bd
000002d0: 624c 90bc 0f68 95ba b7ce a7bd b929 7d3d
000002e0: be2e e93d 327b 623d fbb8 b0bc af9a 26be
000002f0: 8137 3bbd 56b3 bfbd 5585 5d3b b9bb 8dbd

grucell.bias_hh f4 [192]
-0.1072001 -0.055019915 -0.017812435 0.11648683 0.04342857 0.111565106 0.06471422 0.058991086
0.10651342 -0.11943439 -0.011486332 -0.013360456 -0.047658145 0.06601005 0.11290221 0.074791394
-0.12091735 0.04889571 0.075003654 0.10825357 -0.088581 -0.03498292 -0.11814825 -0.047990065
-0.042041805 0.061178654 -0.022427786 0.08273646 -0.030322434 -0.10204163 -0.086066395 0.072595306
-0.031496763 0.07012047 -0.0391557 0.039803945 0.11023053 0.108199075 -0.06396978 -0.04978931
0.10111345 -0.008434763 -0.11555566 -0.08620237 -0.037125666 -0.071582295 0.03118473 0.038454793
-0.077746645 0.09179576 -0.11028001 0.09699721 -0.07500837 -0.022726983 0.04139264 0.024753504
0.10130825 -0.096827984 0.020059843 -0.110622376 0.06708747 0.10878221 -0.066723414 0.09129159
-0.026855947 0.08740961 -0.094012946 -0.089776866 0.027198486 0.026410505 0.11896687 0.056503173
0.01856009 0.08083409 0.011280707 0.06914096 0.094797835 0.11320519 0.059203368 -0.004612482
0.017683944 0.048440244 0.10262081 -0.08490964 -0.0056685237 -0.034960527 0.112252764 -0.00047381473
-0.046229713 0.0022327441 0.051575825 0.117095776 -0.080423385 0.042693682 0.027471907 -0.0039039827
-0.057098117 -0.018682564 0.076934926 -0.101495735 0.038718846 -0.103074424 -0.08939101 -0.08890014
-0.024827242 0.105201 0.10008205 -0.09925915 0.03858047 0.010970819 -0.06906475 -0.017922325
0.012686824 -0.10486928 0.028351933 0.10096306 -0.021741113 -0.020650312 -0.0027392567 0.0036841196
-0.10363172 -0.091987595 0.058231387 -0.07649137 -0.062564954 0.11273287 -0.065800734 -0.027801964
-0.021200389 0.06355291 -0.079004675 -0.12573825 -0.07679148 0.09890343 0.08960624 0.1424624
0.09524529 0.05367545 -0.05798994 0.093584284 0.035763852 -0.20077893 0.07460948 0.03669241
0.07138397 0.05795568 -0.0021543612 0.03230063 0.059716295 -0.12378969 0.012413806 0.085035466
0.073258445 0.040562056 0.038891077 -0.032671038 -0.013962018 0.047326423 0.09764238 -0.10216162
-0.06225529 0.046526406 0.040120225 -0.021254327 0.017000476 0.14430054 0.032915477 -0.12139552
0.06624657 0.052626416 -0.034472574 -0.09267705 -0.09154498 0.11655775 0.116152346 0.12851538
-0.023079408 -0.009078438 -0.03804888 0.06620625 -0.15210012 0.11585163 -0.15814064 0.06730954
-0.06615013 0.0051865755 -0.024711495 0.016406512 0.122905105 -0.0031097785 0.054981887 -0.06990285
00000000: ba8b dbbd 905c 61bd 62eb 91bc a690 ee3d
00000010: 28e2 313d 3f7c e43d e488 843d a3a0 713d
00000020: b523 da3d 049a f4bd 2b31 3cbc d0e5 5abc
00000030: 3035 43bd 4730 873d 4639 e73d 3b2c 993d
00000040: 84a3 f7bd de46 483d 849b 993d 0cb4 dd3d
00000050: f569 b5bd 404a 0fbd b6f7 f1bd 3b91 44bd
00000060: 0734 2cbd 7896 7a3d 7aba b7bc bc71 a93d
00000070: c166 f8bc 34fb d0bd 9443 b0bd d9ac 943d
00000080: c002 01bd 529b 8f3d ba61 20bd 7609 233d
00000090: 8bc0 e13d 7a97 dd3d 9702 83bd e0ef 4bbd
000000a0: 9214 cf3d f631 0abc 72a8 ecbd de8a b0bd
000000b0: 1511 18bd bd99 92bd 1e77 ff3c c682 1d3d
000000c0: a239 9fbd 6aff bb3d 7cda e1bd 79a6 c63d
000000d0: fd9d 99bd f02d babc 548b 293d dcc7 ca3c
000000e0: b37a cf3d c04d c6bd 8a54 a43c fc8d e2bd
000000f0: 2865 893d 35c9 de3d 49a6 88bd 16f7 ba3d
00000100: 0101 dcbc cf03 b33d dc89 c0bd efdc b7bd
00000110: 5ccf de3c d85a d83c e7a4 f33d df6f 673d
00000120: 540b 983c 588c a53d b7d2 383c c799 8d3d
00000130: 5e25 c23d 1fd8 e73d 3b7f 723d 4e24 97bb
00000140: ebdd 903c 4769 463d dc2a d23d 1be5 adbd
00000150: 06bf b9bb c532 0fbd c7e4 e53d 566a f8b9
00000160: 5e5b 3dbd 3b53 123b 2c41 533d e9cf ef3d
00000170: 04b5 a4bd 92df 2e3d c40c e13c f6d9 7fbb
00000180: b7df 69bd 2d0c 99bc 0f90 9d3d ffdc cfbd
00000190: a797 1e3d af18 d3bd a212 b7bd 4711 b6bd
000001a0: 8062 cbbc 9f73 d73d d1f7 cc3d 6248 cbbd
000001b0: 8e06 1e3d f3be 333c d271 8dbd d7d1 92bc
000001c0: 66dc 4f3c b4c5 d6bd 5042 e83c b9c5 ce3d
000001d0: 6b1a b2bc d82a a9bc 1a85 33bb 4571 713b
000001e0: de3c d4bd fe63 bcbd 0984 6e3d 82a7 9cbd
000001f0: 0e22 80bd 7ee0 e63d 89c2 86bd f2c0 e3bc
00000200: 70ac adbc 0728 823d 34cd a1bd 87c1 00be
00000210: da44 9dbd e28d ca3d 7a83 b73d aae1 113e
00000220: f60f c33d cada 5b3d dc86 6dbd 1ea9 bf3d
00000230: 1e7d 123d fe98 4dbe dbcc 983d c84a 163d
00000240: c231 923d ef62 6d3d 2f30 0dbb aa4d 043d
00000250: 1399 743d 7385 fdbd 4763 4b3c 1327 ae3d
00000260: 8608 963d 6624 263d 404c 1f3d 11d2 05bd
00000270: f3c0 64bc 5ad9 413d baf8 c73d 1d3a d1bd
00000280: 67ff 7ebd 7992 3e3d 1b55 243d 8e1d aebc
00000290: 9544 8b3c 85c3 133e 61d2 063d 379e f8bd
000002a0: 48ac 873d cc8e 573d 1d33 0dbd 77cd bdbd
000002b0: ef7b bbbd d4b5 ee3d 48e1 ed3d 8999 033e
000002c0: 0711 bdbc bbbd 14bc 24d9 1bbd 2497 873d
000002d0: 22c0 1bbe 9f43 ed3d 9fef 21be 96d9 893d
000002e0: b879 87bd 26f4 a93b c36f cabc f366 863c
000002f0: acb5 fb3d 6dcd 4bbb b034 613d 3a29 8fbd

linear.weight f4 [2, 64]
-0.081263795 0.022032216 -0.0047514522 0.013092048 -0.08958738 0.0140624745 -0.048102744 -0.02820273
-0.09668391 0.034642413 0.08282235 0.06579568 -0.017041126 -0.09280104 -0.06564415 -0.03311215
-0.10929089 0.09138132 0.05939245 0.10656101 -0.118223116 -0.09295162 0.03886692 0.119467326
0.0905368 0.0048381793 0.11771369 -0.11370431 0.11070746 -0.026649972 -0.08776906 0.021482598
0.12148968 0.12462743 -0.11561115 0.012135229 0.07614332 -0.022829168 0.11678974 0.085817404
0.07209074 0.046159673 -0.034411106 -0.0123620825 0.10458987 0.10612657 -0.11967756 -0.022314135
-0.024481503 -0.121978685 -0.10541211 -0.08309204 -0.07070582 0.061856735 -0.09665451 -0.06832376
0.05480247 -0.03300449 -0.026880853 -0.08527072 0.063279055 -0.0973056 0.103978746 -0.031954177
-0.03530063 0.08522846 0.11418019 -0.108361006 0.01741939 -0.084388204 0.08369549 0.06815863
0.11715648 0.04647782 0.027756276 0.06318572 -0.056568045 -0.020613028 -0.11225482 -0.023302658
0.0417872 0.02544409 -0.057291765 -0.0030739424 -0.024278803 -0.051321857 0.077049926 0.11793793
0.025557073 0.11554797 0.007919347 0.062010564 -0.028017638 -0.06893851 0.034817494 -0.074704565
-0.02372931 0.008223846 0.025319004 -0.036490925 0.041322093 -0.09414142 0.11511635 -0.079758264
-0.074547105 0.0081907865 -0.07476661 0.06474141 0.11840978 -0.070527 0.040476263 0.0684438
0.027157722 -0.03973797 0.029832821 0.002756961 0.06764235 -0.10163947 0.085831136 0.043104354
-0.07455483 0.012869765 -0.027512414 -0.04583515 0.06580114 -0.06243235 -0.0820712 0.11178935
00000000: a26d a6bd e87c b43c 12b2 9bbb 0780 563c
00000010: 9779 b7bd 4b66 663c 6207 45bd 6909 e7bc
00000020: 3702 c6bd 34e5 0d3d c49e a93d e3bf 863d
00000030: d599 8bbc 790e bebd 7170 86bd 9ba0 07bd
00000040: e7d3 dfbd 2126 bb3d 7f45 733d a93c da3d
00000050: f61e f2bd 6b5d bebd eb32 1f3d 49ab f43d
00000060: 5c6b b93d 9789 9e3b e013 f13d cedd e8bd
00000070: 98ba e23d 0b51 dabc 44c0 b3bd 46fc af3c
00000080: 95cf f83d ab3c ff3d 8ac5 ecbd d7d2 463c
00000090: 07f1 9b3d 3c04 bbbc 762f ef3d 09c1 af3d
000000a0: 4fa4 933d ed11 3d3d a9f2 0cbd 558a 4abc
000000b0: 3733 d63d e358 d93d 8219 f5bd 22cc b6bc
000000c0: 6f8d c8bc f6cf f9bd 4ee2 d7bd 292c aabd
000000d0: 37ce 90bd 7d5d 7d3d cdf2 c5bd 54ed 8bbd
000000e0: 8e78 603d b72f 07bd 3c35 dcbc 6aa2 aebd
000000f0: 7398 813d 2948 c7bd cff2 d43d 62e2 02bd
00000100: 6597 10bd 428c ae3d 4ed7 e93d 60ec ddbd
00000110: 1cb3 8e3c b9d3 acbd 8b68 ab3d c096 8b3d
00000120: bdef ef3d 875f 3e3d 2161 e33c 8467 813d
00000130: e5b3 67bd a7dc a8bc dbe5 e5bd 37e5 bebc
00000140: 0e29 2b3d 2070 d03c c5aa 6abd 3274 49bb
00000150: 57e4 c6bc de36 52bd 5acc 9d3d 7189 f13d
00000160: 115d d13c 6aa4 ec3d 26c0 013c cafe 7d3d
00000170: 3f85 e5bc a22f 8dbd ca9c 0e3d b5fe 98bd
00000180: f863 c2bc 4fbd 063c cd69 cf3c 8277 15bd
00000190: 5b41 293d 38cd c0bd 1fc2 eb3d 4d58 a3bd
000001a0: 27ac 98bd a632 063c 3d1f 99bd 2597 843d
000001b0: d480 f23d 7670 90bd 70ca 253d 432c 8c3d
000001c0: df79 de3c 48c4 22bd f663 f43c 21ae 343b
000001d0: 1388 8a3d 5b28 d0bd 3cc8 af3d 318e 303d
000001e0: 34b0 98bd b5db 523c b761 e1bc a3bd 3bbd
000001f0: c0c2 863d 10b9 7fbd f214 a8bd d1f1 e43d

linear.bias f4 [2]
-0.11164808 0.120997265
00000000: c0a7 e4bd 6acd f73d

linear_final.weight f4 [5, 64]
0.115093306 -0.015520481 -0.00018826041 0.11709505 0.114627056 -0.034046814 -0.12242571 -0.07544689
0.018003376 0.10438491 0.062044714 0.04578797 -0.031175893 -0.050359596 0.08168127 -0.048119586
0.064887784 0.045900278 -0.029623885 0.06677913 0.05735235 -0.038359098 -0.10853405 -0.07292631
-0.095242694 -0.07570834 -0.065740615 -0.013736618 0.099090226 0.097856745 0.035954498 -0.07026311
0.088531226 -0.06626689 -0.11438369 0.07890875 -0.06520616 -0.037751816 0.12274789 -0.08689746
-0.10478327 -0.11184578 0.11740723 0.052259386 -0.08582363 -0.07359602 0.07469303 0.116327174
0.08375745 0.09629071 0.016146045 0.05076748 0.116759926 0.0866297 0.042925432 0.040178638
-0.11241685 0.00013526602 0.051255804 0.07874466 0.008775446 0.033223905 0.053682424 0.0761265
-0.0076824822 0.09869025 -0.017136928 -0.06575769 -0.07564865 0.074310936 -0.0051388303 -0.055162877
-0.033358417 -0.010349867 0.08996404 0.060887065 0.034610186 -0.063955575 -0.03542371 -0.051122822
-0.04470548 -0.013393011 0.049304225 0.008624646 0.0041741375 -0.09261998 0.06064713 -0.03502912
0.09240116 0.09501274 0.049896397 -0.049216785 -0.06475843 0.022107564 -0.04629507 0.043458473
0.08814002 0.08523405 0.03549229 -0.076019295 0.09589522 0.09340239 0.07488217 0.069616355
-0.0021386803 0.009586472 0.06845007 0.06910366 -0.0013791587 -0.03193528 0.091684915 -0.09872151
0.10443954 0.001445178 -0.033296254 -0.09699729 0.057278678 0.059592586 -0.08405516 0.016741892
-0.08327102 0.06276142 0.00083496893 0.06314034 0.0020173695 -0.060444262 0.07698131 0.0004814542
-0.07447486 0.108265445 -0.14631394 0.10968761 -0.123983525 -0.064391166 -0.047177307 -0.005611655
-0.048504885 0.08617372 0.065625615 -0.058382228 -0.06250038 0.294477 -0.096025 0.08491112
-0.019691564 0.05883185 0.0046031373 0.12397975 -0.06720336 -0.07637733 0.10186826 0.032084264
-0.082438484 0.020874677 -0.014568132 0.06667383 -0.18284266 -0.09099957 0.11605335 0.02918834
0.20850445 -0.23024355 0.13393211 0.054844677 0.17606354 -0.06737482 0.15331087 0.028883226
0.13022593 0.020635413 0.026332393 0.17768016 0.060637545 -0.07867888 -0.17397985 -0.11345574
-0.047559746 -0.028900983 -0.035368986 0.06681356 -0.04522162 -0.02952547 0.14242956 0.03921252
-0.049253017 -0.03278871 -0.06419342 0.08820875 0.04160044 0.16759534 0.03707064 -0.016589403
0.07862053 0.19596195 -0.111492604 0.12299979 -0.049651016 -0.076790534 -0.063281536 -0.22125936
-0.19306177 0.13635969 -0.014405939 -0.010565763 0.12163515 0.29754314 0.0007024118 -0.024189185
0.06587185 -0.054116167 0.08475555 -0.020536896 0.10865333 0.14214864 0.050854143 -0.07063306
0.14868858 -0.20850421 0.110034466 -0.100830145 -0.25876036 -0.04208417 -0.016261501 0.028282648
0.09674273 -0.24751014 -0.03112169 -0.0455442 0.0097826915 -0.17890923 0.09750311 0.1680016
-0.034626536 0.07065198 0.08233737 0.15807857 0.08134587 -0.20138878 0.00946203 -0.012451315
0.16451691 -0.22204658 -0.09188896 -0.0212397 0.11225544 -0.10006463 0.17001387 -0.16623193
-0.017033832 -0.08911487 0.09719008 0.22918698 -0.06354026 -0.026605884 -0.052293915 0.11282638
00000000: 0ab6 eb3d 9e49 7ebc c567 45b9 88cf ef3d
00000010: 97c1 ea3d ac74 0bbd 55ba fabd e683 9abd
00000020: d17b 933c c1c7 d53d 9922 7e3d 2b8c 3b3d
00000030: 9664 ffbc dd45 4ebd 8248 a73d 0b19 45bd
00000040: e3e3 843d ee01 3c3d caad f2bc 7fc3 883d
00000050: 4cea 6a3d 6e1e 1dbd 1a47 debd 645a 95bd
00000060: 9a0e c3bd f90c 9bbd 04a3 86bd 8d0f 61bc
00000070: d1ef ca3d 1e69 c83d 0645 133d 1be6 8fbd
00000080: dc4f b53d efb6 87bd ff41 eabd e99a a13d
00000090: cf8a 85bd a6a1 1abd 3f63 fb3d 4cf7 b1bd
000000a0: 9c98 d6bd 660f e5bd 3473 f03d f00d 563d
000000b0: 4dc4 afbd 83b9 96bd a9f8 983d f13c ee3d
000000c0: 0789 ab3d 1034 c53d b644 843c 90f1 4f3d
000000d0: d41f ef3d ea6a b13d 94d2 2f3d 5b92 243d
000000e0: ce3a e6bd 32d6 0d39 9bf1 513d e144 a13d
000000f0: e3c6 0f3c ca15 083d 1ae2 5b3d 36e8 9b3d
00000100: 55bd fbbb 1d1e ca3d be62 8cbc f8ab 86bd
00000110: aeed 9abd 5530 983d a263 a8bb 78f2 61bd
00000120: d6a2 08bd 7d92 29bc 113f b83d b764 793d
00000130: 69c3 0d3d 24fb 82bd 7418 11bd 2a66 51bd
00000140: 181d 37bd 5c6e 5bbc 3af3 493d 634e 0d3c
00000150: 34c7 883b 8baf bdbd 2069 783d b27a 0fbd
00000160: d23c bd3d 0a96 c23d 2a60 4c3d 8a97 49bd
00000170: 11a0 84bd ec1a b53c e69f 3dbd 8301 323d
00000180: c182 b43d 318f ae3d 5d60 113d 01b0 9bbd
00000190: b764 c43d c149 bf3d d35b 993d 0593 8e3d
000001a0: 1a29 0cbb 9410 1d3c 8d2f 8c3d 3886 8d3d
000001b0: e3c4 b4ba 91ce 02bd 4dc5 bb3d 812e cabd
000001c0: 66e4 d53d 206c bd3a a761 08bd 84a6 c6bd
000001d0: 0c9d 6a3d 5b17 743d 1d25 acbd 4b26 893c
000001e0: ff89 aabd 0f89 803d d1e1 5a3a b94f 813d
000001f0: d835 043b 6794 77bd 61a8 9d3d b06b fc39
00000200: 4786 98bd 46ba dd3d 52d3 15be e6a3 e03d
00000210: 13eb fdbd 84df 83bd fe3c 41bd f9e1 b7bb
00000220: 0fad 46bd d97b b03d b966 863d 3422 6fbd
00000230: 3300 80bd b0c5 963e c1a8 c4bd e2e5 ad3d
00000240: 3450 a1bc aaf9 703d ead5 963b 18e9 fd3d
00000250: eaa1 89bd b86b 9cbd 4ea0 d03d ca6a 033d
00000260: 82d5 a8bd 5f01 ab3c 2daf 6ebc 4a8c 883d
00000270: 1b3b 3bbe fc5d babd 61ad ed3d 631c ef3c
00000280: 3182 553e f7c4 6bbe 8025 093e d0a4 603d
00000290: 004a 343e cffb 89bd 86fd 1c3e 849c ec3c
000002a0: f259 053e 990b a93c 08b7 d73c caf1 353e
000002b0: 135f 783d 6522 a1bd c627 32be 7c5b e8bd
000002c0: 02ce 42bd c1c1 ecbc 12df 10bd 8cd5 883d
000002d0: 4e3a 39bd 66df f1bc 0ed9 113e 4f9d 203d
000002e0: 88bd 49bd 744d 06bd d777 83bd caa6 b43d
000002f0: 3965 2a3d 1d9e 2b3e 62d7 173d 80e6 87bc
00000300: cd03 a13d 40aa 483e 3c56 e4bd 50e7 fb3d
00000310: dd5e 4bbd 5b44 9dbd c099 81bd d091 62be
00000320: fcb1 45be e0a1 0b3e e306 6cbc 061c 2dbc
00000330: d91b f93d 9357 983e 0f22 383a 6628 c6bc
00000340: d2e7 863d eaa8 5dbd 5194 ad3d fe3c a8bc
00000350: a385 de3d 6a8f 113e 6f4c 503d 11a8 90bd
00000360: d241 183e 2182 55be c059 e13d 0980 cebd
00000370: 3d7c 84be 7360 2cbd d736 85bc 03b1 e73c
00000380: 0d21 c63d 4c73 7dbe eaf2 febc 8e8c 3abd
00000390: 9547 203c fb33 37be b6af c73d 9d08 2c3e
000003a0: 8ed4 0dbd fcb1 903d 7fa0 a83d 59df 213e
000003b0: aa98 a63d dc38 4ebe a106 1b3c 9a00 4cbc
000003c0: 1f77 283e 2e60 63be 4730 bcbd e1fe adbc
000003d0: 2ee6 e53d afee ccbd 1e18 2e3e b438 2abe
000003e0: 898a 8bbc db81 b6bd 980b c73d feaf 6a3e
000003f0: 6521 82bd 95f4 d9bc 2532 56bd 8411 e73d

linear_final.bias f4 [5]
0.06604101 0.07039618 -0.47286764 -0.9212421 -0.11419028
00000000: 8240 873d df2b 903d b51b f2be 86d6 6bbf
00000010: 98dc e9bd
