results1_checkpoint/univ/val_best.pth (torch_old, 57359 bytes, 12 tensors)

gcn.gc1.weight f4 [2, 64]
000000 84 fe 29 bb c0 ab 6f bb bb 32 97 3a 82 92 27 3c
       -0.0025939057 -0.0036570877 0.0011535505 0.010227801
000010 14 50 7d 37 6a 4b c6 bb c6 70 e2 3b e9 7a 27 bb
       1.509862e-05 -0.0060514705 0.0069104163 -0.0025555438
000020 28 b8 bd 3b 16 3d 6f bb ec 0e 99 3a ab 2e 8a ba
       0.0057897754 -0.0036504916 0.0011677421 -0.0010542473
000030 1c f6 f1 39 47 f3 fc 3a 62 38 bd 39 13 79 d7 ba
       0.00046150468 0.0019298577 0.00036090898 -0.0016439281
000040 4b 60 3b 3b 3b 92 8d 3a 8b 40 d0 3a d8 1b 30 bb
       0.002859133 0.0010801026 0.0015888376 -0.0026872065
000050 c3 91 a5 ba 10 1b df 3b c3 c6 2f 3b 3e 9a e1 3a
       -0.0012631941 0.006808646 0.0026821352 0.0017212105
000060 64 8e 3d 3b f1 b0 98 3b 12 51 a1 3a d5 d0 d6 b9
       0.0028923983 0.004659765 0.0012307486 -0.00040972853
000070 80 ca 93 ba 35 ff 0a bb 7e 61 b3 3a c0 2d 74 3a
       -0.001127556 -0.0021209244 0.0013685671 0.00093146786
000080 77 2a bb 3b 0f 1d 0d 3b 2c da 1d 3b 3f b2 0b 3b
       0.0057118493 0.0021532213 0.002408634 0.002131596
000090 9e 7b 87 ba e7 36 16 3a eb 3d 35 3b a9 5c 3a 3b
       -0.0010336523 0.0005730227 0.0027655314 0.0028436577
0000a0 02 16 0a bb 4d 05 c9 ba f0 ce 86 b9 9d 95 c3 ba
       -0.0021070247 -0.0015336663 -0.00025712652 -0.0014921908
0000b0 62 d0 46 3b 34 7a 1a bb f7 9e 18 bb cd ca 26 bc
       0.0030336608 -0.0023571374 -0.002328811 -0.010180187
0000c0 84 3c 85 ba da 7c 93 3b 4c 44 9e b9 5c 1f b3 ba
       -0.001016513 0.0045009675 -0.00030186994 -0.0013665962
0000d0 da 2e fd b8 28 fa e9 3a b5 01 c0 39 87 4b 62 3b
       -0.00012072707 0.0017851042 0.00036622366 0.003452988
0000e0 f9 e0 b9 b9 b2 52 21 bb 15 60 72 37 5e 11 31 3a
       -0.00035453567 -0.002461594 1.4446695e-05 0.0006754602
0000f0 fb 78 79 bb 7c 79 ad 3b 69 c0 0d 3b 43 3a 62 bb
       -0.0038066495 0.005294023 0.0021629578 -0.003451959
000100 f5 78 61 3b 99 b4 17 bb 90 80 16 bc 6a 0e b2 3a
       0.0034404371 -0.0023148416 -0.009185925 0.0013584618
000110 fe b5 5e bb dc 81 99 3a 6c 8e c4 ba 43 f7 8e 3a
       -0.0033982988 0.0011711675 -0.0014996058 0.001090743
000120 84 53 5f bb 9d 07 6d bb e7 5a 09 3b 5f db 2e bb
       -0.0034076879 -0.0036167868 0.0020958723 -0.0026681048
000130 66 4c 01 bc c7 d4 7b 3a e4 02 16 3b 35 d0 57 bb
       -0.00789175 0.00096065964 0.0022889907 -0.0032930498
000140 3f b7 82 bb 64 d4 8e 3b 20 60 e5 bb ef 7f 7b bb
       -0.00398913 0.004358815 -0.0069999844 -0.0038375815
000150 31 6a 81 bb 83 43 cf bb 9a 9c d2 3a 02 da 2e 3b
       -0.0039494266 -0.0063251867 0.00160684 0.0026680236
000160 df 9d ef ba dd 79 a1 39 82 ee b9 ba 96 97 c3 ba
       -0.0018281302 0.00030799108 -0.0014185461 -0.0014922495
000170 26 73 23 bb b4 38 74 3b dd f2 6f bb 19 34 5b 3b
       -0.002494046 0.0037265243 -0.0036613264 0.00334478
000180 4b 4f 1e bb a1 7f c3 3a d3 37 65 3b 3b 69 a1 bb
       -0.002415615 0.0014915356 0.00349759 -0.0049258745
000190 58 43 e7 bb a5 d4 2b bb 66 23 66 bb 91 56 62 bb
       -0.0070575885 -0.0026219275 -0.0035116314 -0.003453646
0001a0 30 27 b9 bb a7 5f 81 3b 8f d1 7d bb 64 71 27 bc
       -0.0056504235 0.00394817 -0.0038729643 -0.0102199055
0001b0 ac 55 1b 3b 7e d9 f1 ba 70 c2 f9 39 a0 54 80 bb
       0.0023702187 -0.0018451659 0.00047637848 -0.003916338
0001c0 52 2e 0e 3a 70 87 a3 3b 18 d8 b4 ba 02 3d 0e bb
       0.00054237724 0.0049905106 -0.0013797311 -0.0021703844
0001d0 55 59 c2 3b 04 df 11 bc 2a e6 0c 3b 72 19 18 3b
       0.0059310594 -0.008903269 0.0021499493 0.0023208526
0001e0 a3 a3 71 bb 65 3f 0d bb 12 c4 46 3b 73 5b 8a bb
       -0.0036871217 -0.0021552679 0.003032927 -0.0042223274
0001f0 ae 23 ef 3b 30 a7 4f 3b 44 5d f6 3a 68 67 3b b9
       0.0072979545 0.0031685345 0.0018796106 -0.00017872232

gcn.gc1.bias f4 [64]
000000 09 58 bc 35 04 ee e3 b7 5f c0 12 b6 69 62 d8 b6
       1.4032713e-06 -2.7171343e-05 -2.186767e-06 -6.448758e-06
000010 5f 29 20 b7 21 25 9d 36 d3 e5 e7 36 5e a2 19 37
       -9.546376e-06 4.683287e-06 6.9110915e-06 9.157315e-06
000020 ed 84 d6 b6 c6 68 72 b7 3e d9 ff 36 e5 cd 48 b7
       -6.3931716e-06 -1.44487185e-05 7.6248825e-06 -1.19688675e-05
000030 eb b3 89 b7 0d 71 0b 37 eb f0 0a 36 2b 52 11 b7
       -1.6415454e-05 8.311367e-06 2.0703835e-06 -8.661805e-06
000040 8d 16 08 35 16 76 33 37 8e c5 17 b7 bb 72 01 b7
       5.0696764e-07 1.0696725e-05 -9.046298e-06 -7.715712e-06
000050 79 66 71 37 13 b9 2f b5 d8 55 47 b7 26 0b 47 37
       1.4388578e-05 -6.54619e-07 -1.1881311e-05 1.186392e-05
000060 d7 d1 df 35 99 1a aa 36 39 54 51 35 dc dc 30 37
       1.6675866e-06 5.069491e-06 7.798113e-07 1.054184e-05
000070 53 a3 2c 37 9b 5f 19 b4 a3 81 95 35 93 e8 2f b7
       1.0290026e-05 -1.4284016e-07 1.1139094e-06 -1.0484963e-05
000080 d8 71 b1 36 f6 d9 25 b7 ea 0f 10 b7 ef 40 5f b7
       5.288264e-06 -9.885514e-06 -8.586774e-06 -1.3306954e-05
000090 16 a2 5b b7 2c 0b f2 b6 c1 7d d8 b6 b1 01 0d b7
       -1.3091156e-05 -7.2134626e-06 -6.4519413e-06 -8.404649e-06
0000a0 1c 3b 92 37 a9 4c db b3 07 e2 d5 37 af af d9 b6
       1.7432081e-05 -1.02119266e-07 2.549683e-05 -6.487556e-06
0000b0 d9 89 55 b7 3b 8d 13 37 01 89 59 37 82 79 ab b6
       -1.27278845e-05 8.794766e-06 1.2966107e-05 -5.1103425e-06
0000c0 e3 c5 a3 36 65 aa 5b 36 4b 75 18 b6 bb 37 81 37
       4.8808156e-06 3.2732726e-06 -2.2718039e-06 1.540395e-05
0000d0 d4 d4 1a 37 41 b8 b9 b5 2d 79 fc b5 88 74 b0 b6
       9.228668e-06 -1.3837199e-06 -1.881073e-06 -5.2587748e-06
0000e0 c4 aa 38 b7 04 f5 2f 37 69 13 a5 36 15 37 91 34
       -1.1007014e-05 1.048786e-05 4.919643e-06 2.7048432e-07
0000f0 87 4e 0f b6 88 64 9f b7 7a c9 0c 37 7f f3 62 b4
       -2.135437e-06 -1.900109e-05 8.39156e-06 -2.1136474e-07

gcn.gc2.weight f4 [64, 2]
000000 6f bc ec 3b c0 0e c3 b7 77 78 35 bb 27 24 c4 3b
       0.0072246115 -2.325268e-05 -0.002769021 0.005985755
000010 e1 00 85 3b d1 e7 a5 ba f9 19 cc 3a 5a 62 ff ba
       0.0040589427 -0.0012657588 0.0015571705 -0.0019484267
000020 3b 25 ce 3a 9e 80 36 3b f6 fd 3c 3b e9 23 0e bb
       0.0015727648 0.0027847658 0.0028837896 -0.0021688885
000030 bb 8c 30 3b d8 02 84 3b 98 09 13 3b b1 8e a2 bb
       0.002693935 0.0040286593 0.0022436138 -0.004960858
000040 ca c8 5c 3b a0 49 56 bb f4 91 c1 3a 60 d4 49 3b
       0.0033689016 -0.0032697693 0.0014768229 0.0030796751
000050 64 7d b4 ba dd fc c9 3a b6 0a ba 3b 97 ba ee 3a
       -0.001377028 0.0015410442 0.0056775464 0.0018213567
000060 1a 9a 44 3a 31 06 a8 3b 44 7b b2 bb fc e4 ab 37
       0.00074997696 0.005127691 -0.0054468233 2.0491418e-05
000070 07 ad 01 ba 12 f9 fd 39 c7 fe 20 bc 3f 38 4a 3b
       -0.00049467426 0.00048441492 -0.009826369 0.003085628
000080 7d bf 13 ba 5b ae c5 39 30 2d 09 bb c8 68 23 3b
       -0.0005636139 0.00037704673 -0.0020931475 0.002493428
000090 69 d4 3e 3b 98 95 58 3b f7 9e 0a bc 1b 57 4a 3a
       0.0029118306 0.003304815 -0.008460752 0.0007718668
0000a0 86 08 11 bb 9e 3e 47 bb 03 f7 ee 38 09 73 87 ba
       -0.0022130325 -0.0030402313 0.00011394734 -0.0010333966
0000b0 01 2a 60 ba 73 a2 68 bb 15 da 98 ba 0c 10 25 3b
       -0.0008551181 -0.0035497218 -0.0011661673 0.0025186567
0000c0 e2 ea 28 ba 0f c9 ac 3a ce ce d4 3b 18 6d 0f 3b
       -0.00064436917 0.0013182479 0.0064943796 0.0021885093
0000d0 b4 27 89 b8 be 9a 30 bb 4a 4e 7b 3a 78 ab 13 bb
       -6.540064e-05 -0.0026947702 0.0009586556 -0.0022532623
0000e0 74 b7 52 ba ba 29 0f bb a5 5c 35 3b 05 b5 0e 3b
       -0.0008038201 -0.002184494 0.0027673629 0.0021775377
0000f0 df 21 47 bb 98 aa 41 3b 7b eb 41 3a 9e eb 17 bb
       -0.003038518 0.0029551145 0.0007397455 -0.002318121
000100 b9 a7 ac bb 1d 8c dd ba af 99 13 3c 73 c6 27 39
       -0.0052690175 -0.0016902719 0.009008809 0.00016000289
000110 af a0 ce 3a 69 d2 ed ba d8 e0 c4 3b 38 e8 f8 3b
       0.001576444 -0.0018144372 0.006008249 0.007596042
000120 cc c3 c0 ba 79 a0 50 3b 6d 43 14 bb cf b9 c4 3b
       -0.001470679 0.003183393 -0.0022623197 0.0060035954
000130 66 9e 2d 3b 69 19 ad 3b 04 1a b6 3b d8 fc 3b 39
       0.0026492118 0.00528257 0.0055573005 0.00017927901
000140 43 4e 1f 3b d3 a9 6a bb 27 0a 3c 3a d2 d1 44 bb
       0.0024308122 -0.003580679 0.00071731437 -0.003003229
000150 44 ea 3e ba bb cd 02 bc cd 10 97 3a 12 74 c3 3a
       -0.0007282833 -0.00798362 0.0011525393 0.0014911911
000160 f6 20 85 3a 29 cf 47 bb bb 59 b2 3b 45 bd c9 ba
       0.0010156918 -0.0030488467 0.0054428256 -0.001539149
000170 74 da 31 3a 22 60 9e bb 1a f1 59 3b 78 de 6d 3a
       0.0006784566 -0.0048332373 0.003325528 0.0009073983
000180 e3 2c a9 38 91 24 29 bb 65 7d 42 bb 8b d7 1a b9
       8.066909e-05 -0.0025809149 -0.0029676792 -0.0001476688
000190 d0 f6 b8 3b f0 dc f4 38 e2 04 6e 3a 21 8f 5a bb
       0.0056446567 0.000116759795 0.0009079707 -0.0033349472
0001a0 cb 8a b0 ba 74 68 84 3b a7 b4 8c bb 68 bc 34 3b
       -0.0013469098 0.004040772 -0.0042939964 0.002757812
0001b0 1e 07 1b 3c d1 5e c0 3a 5d 54 6b bb 5e 15 21 bb
       0.009462146 0.0014676695 -0.0035908439 -0.0024579386
0001c0 06 1e 86 bb a4 73 43 3b e4 2d 67 3a 90 32 16 bb
       -0.0040929345 0.0029823566 0.0008818789 -0.0022918321
0001d0 8a 52 66 3a 4d 31 17 3b 74 c8 b7 3b 38 20 8d bb
       0.0008786103 0.0023070157 0.0056086127 -0.0043068193
0001e0 71 44 41 bb 7a 8d d0 3b c4 76 23 bb 95 8e ba bb
       -0.0029490257 0.0063645216 -0.0024942616 -0.0056932666
0001f0 9d ed 9d 39 8a f9 10 3b fb d4 a8 bb 34 11 62 3a
       0.0003012241 0.0022121393 -0.0051523424 0.0008623779

gcn.gc2.bias f4 [2]
000000 9c 9d 4b 3a 57 03 c9 ba
       0.0007767321 -0.0015336078

grucell.weight_ih f4 [192, 2]
000000 a1 43 e6 3d 86 8a 8a 3d 26 b6 ba 3d 28 8a ef 3d
       0.11243368 0.067647025 0.09116773 0.11696273
000010 d8 1c e2 3d 6d 7c 92 bd 12 00 d0 3c ca cb bf 3d
       0.11040658 -0.071526386 0.025390659 0.093650416
000020 b6 ae 2f bd 86 a2 14 3c 82 01 9e 3d 46 25 96 3c
       -0.042891227 0.009071952 0.07715131 0.01832832
000030 d0 a3 89 bd e4 b3 a0 bd 02 72 32 bd 69 32 b2 bd
       -0.06720698 -0.078468114 -0.043565758 -0.08701021
000040 16 b5 ac bd 58 25 26 bd 49 e5 58 bd 15 dd 6b 3a
       -0.08432977 -0.040562958 -0.05295304 0.00089974824
000050 d9 6d af bd b2 1c dc bc 5c e5 71 bd 61 2f f2 bd
       -0.08565874 -0.026869152 -0.059056625 -0.11825443
000060 dc 33 c4 bd fa e7 e6 3d 7c 5f 2f 3d 38 95 79 bd
       -0.09580204 0.11274715 0.04281567 -0.06093332
000070 5e 01 c6 bd f9 1d 96 bd b4 6e e9 3d d0 c2 fc 3c
       -0.096682295 -0.073299356 0.11398068 0.030854613
000080 25 9c 9a 3d b0 67 ed 3d 37 de 3f 3b 80 0c 04 bd
       0.075493135 0.115920424 0.0029276737 -0.032238483
000090 b2 e2 89 bd a1 e2 c3 bc 24 09 53 bc 77 de 4f 3d
       -0.06732692 -0.023911776 -0.012880597 0.05074927
0000a0 70 e6 cf bb ac 4f 3e bd 73 bb 03 3b ff 2f cf bd
       -0.006344609 -0.0464627 0.0020100742 -0.101165764
0000b0 43 11 ed 3d cf e2 f6 bd 04 8f e7 bd b0 13 a3 38
       0.11575558 -0.12054979 -0.11306575 7.776113e-05
0000c0 de 7b d3 3d ce 6b 93 3d 5c 3e d2 bd 4c c4 b4 3d
       0.1032636 0.071982965 -0.102658 0.08826503
0000d0 f5 56 ba 3d 91 ac db bd 5a b6 88 3d 32 22 a8 bd
       0.09098617 -0.10726274 0.06675406 -0.08209647
0000e0 1e 3a ec 37 9a 09 c0 3d 1c ce c7 bc 36 ef 1d bd
       2.8160455e-05 0.09376831 -0.024390273 -0.038558207
0000f0 6c 5f 89 3d 75 4b 04 3b 2e 30 24 3d 2f 63 83 3d
       0.067076534 0.0020186577 0.04008501 0.06415402
000100 eb 26 d9 bd 61 81 1d 3d 64 43 fc 3c 35 4a 64 3d
       -0.10603126 0.038453463 0.030793853 0.05573483
000110 37 bb b6 bd f3 c9 27 bd 4d 48 f2 bc 76 bf a9 bd
       -0.08922427 -0.04096408 -0.029575491 -0.082884714
000120 a3 b9 ad 3d aa c4 d1 bd e7 83 49 bd be f7 80 bc
       0.08482673 -0.10242589 -0.049198058 -0.015743133
000130 50 83 04 3d 8a 60 92 3d a8 b4 21 3d c8 75 2f 3d
       0.03235179 0.071473196 0.039478928 0.042836934
000140 e6 4a c0 bd 5e c0 ab 3c 63 af 9a 3d 23 de fe 3d
       -0.09389286 0.020965751 0.075529836 0.12444713
000150 16 f6 a4 bd 71 aa 11 bd 98 b8 28 bd 47 18 ce bd
       -0.0805475 -0.035562936 -0.041191667 -0.10063224
000160 36 4d e9 3c 83 3b d5 3c 79 a3 f3 bd 81 a5 90 bc
       0.0284792 0.026029354 -0.11896414 -0.017657043
000170 f0 c3 c8 bd 89 7b aa bd da ee 8d bd 1a fd 76 3c
       -0.09802997 -0.08324344 -0.06930323 0.015074993
000180 b1 c1 94 bd ff 16 87 3d b8 4d 93 3d 47 46 ea bc
       -0.07263506 0.06596183 0.07192558 -0.028597964
000190 eb ee cb bd 21 32 44 bd 1c 33 cd 3d 91 5d d6 ba
       -0.09957679 -0.04789937 0.10019514 -0.0016354789
0001a0 5d 4e e0 3d 54 80 db 3c 79 aa b7 bd 13 a8 c3 bd
       0.109524466 0.02679459 -0.08968062 -0.09553542
0001b0 e3 8f fc 3d 18 0e cf bd 86 ad 49 3c 4d 72 7f bd
       0.12332132 -0.1011011 0.012309438 -0.062364865
0001c0 1f 3f f2 3d e2 98 5e bd 16 97 81 bd 34 a7 90 b9
       0.11828446 -0.05434502 -0.063276455 -0.00027590396
0001d0 0f 2f b5 3d 66 fb ce bc c8 e3 e4 bd 8f fc 7e 3d
       0.08846866 -0.02526636 -0.11176258 0.062252577
0001e0 37 85 ce 3c a5 0a cf bd 3d 0e fc 3c 80 28 8b bd
       0.025210006 -0.10109452 0.030768508 -0.06794834
0001f0 d9 28 ae bd b1 d0 e1 bd a8 c3 f4 3d 39 5e 41 3d
       -0.08503885 -0.11026133 0.11951381 0.047209
000200 59 bc f3 bd 71 ab eb bd 22 28 a7 3d 2b 1b 0d bd
       -0.11901159 -0.11507309 0.081619516 -0.034449738
000210 f8 c0 69 bc c1 f4 76 3d fd 3a f1 bd 1b b4 3c bd
       -0.014267199 0.06029201 -0.11778829 -0.0460702
000220 f1 38 02 bd 20 c8 4b bd f1 c6 71 3d 09 2d ad bd
       -0.031792585 -0.0497514 0.059027616 -0.084558554
000230 3a 70 d4 bd 1d 45 e3 bd 2b 96 5a 3d af 22 74 3d
       -0.10372968 -0.11097167 0.053365868 0.05960339
000240 a7 ff a6 bd 13 ad 46 3d 28 91 ea 3d 7f c4 1d bd
       -0.081542306 0.0485049 0.114534676 -0.03851747
000250 02 33 8d bd f6 12 d7 3d de 30 05 bd a5 a1 5d 3d
       -0.068944946 0.105016634 -0.032517307 0.054109234
000260 34 ca eb 3d 24 ba ed bd 83 24 e2 bd 80 97 d7 3d
       0.115131766 -0.11607769 -0.1104212 0.10526943
000270 e6 71 97 3c a5 64 10 bd a6 83 88 bd 52 5f 16 3d
       0.018486928 -0.035252232 -0.06665735 0.036712
000280 02 ec 7b 3d ed 25 f0 bd 58 7a 9c 3d 15 f0 6b 3c
       0.06150437 -0.11725984 0.07640523 0.014400502
000290 be fd 9d bc 21 3d a2 bd c3 0f 8a bd ca 98 f6 3d
       -0.019286033 -0.07921816 -0.067412876 0.12040861
0002a0 31 57 4e 3d 5d 1a 77 bb 30 95 5a bd ee 9f 34 bd
       0.05037612 -0.0037704923 -0.053364933 -0.044097833
0002b0 07 28 91 bd c9 bc 26 bd cb 64 97 bd f2 d4 03 bd
       -0.07087713 -0.040707383 -0.073922716 -0.032185502
0002c0 ea 29 9b bd 44 13 31 3d 19 24 a8 bd 06 58 9d bb
       -0.07576354 0.043231264 -0.0821001 -0.004801753
0002d0 b8 16 c7 bd dd 98 88 bd cc 36 de 3d f4 a9 25 3d
       -0.0972113 -0.06669781 0.108502954 0.040445283
0002e0 df 76 e5 3d df 25 c2 3d fc 36 ce bd 16 22 cb bd
       0.112043135 0.094798796 -0.10069081 -0.09918611
0002f0 7e 8a 6e bd ca 67 60 bd 3f a3 d9 bd f1 46 0e bd
       -0.058237545 -0.05478648 -0.1062684 -0.034735624
000300 ea 3a 23 bc c9 00 2c 3d da c3 10 3d 31 27 bc 3d
       -0.009962777 0.041992936 0.03534303 0.09187163
000310 49 07 4f 3d b5 3a 33 bd c2 13 c1 3d 59 e6 6e bd
       0.050544057 -0.04375716 0.09427597 -0.058325145
000320 53 62 96 bc a0 c6 cd 3c bd e4 fa 3d a0 95 e0 3d
       -0.018357432 0.025119126 0.122506596 0.10966039
000330 db 8e 8c bd df c8 aa 3d a9 8a ed 3d ab 64 a2 bd
       -0.06863185 0.08339094 0.11598713 -0.07929357
000340 ac 56 23 3d eb 6f 05 3a c5 fd 8a bd 09 e0 bc bd
       0.03987758 0.00050902244 -0.06786684 -0.09222419
000350 4d df 00 bd a5 13 a9 3d 91 b8 9d 3d 39 54 92 bc
       -0.031462956 0.082557 0.07701219 -0.017862426
000360 f5 29 c6 bd cf 6a a3 3c f1 bf 59 bd 06 bc fc 3d
       -0.096759714 0.019948391 -0.053161565 0.1234055
000370 e7 c6 f9 bd d5 14 77 bd 90 93 f2 bd 9e 3d d8 bd
       -0.12196141 -0.0603226 -0.118445516 -0.105586275
000380 86 b7 f3 bd 33 31 aa bd 09 be 71 3d 5c d7 8d bd
       -0.11900239 -0.08310165 0.059019122 -0.06925842
000390 7e a1 f4 3c ea 6a 38 bd 8e 61 fe bd 20 58 51 bd
       0.029862162 -0.045023836 -0.12420951 -0.051109433
0003a0 29 b1 6c bd f5 55 12 bb 7e a0 21 bd 42 37 ed 3d
       -0.05778614 -0.0022329066 -0.039459698 0.11582805
0003b0 27 f0 0f bd 9e 29 39 3d 13 ed be 3d d8 b6 5a 3d
       -0.035141136 0.045205705 0.09322562 0.05339703
0003c0 54 20 e9 bc 50 3f ee bd 04 6c 8e bd a4 d0 b4 3d
       -0.028457798 -0.1163317 -0.06954196 0.088288575
0003d0 1f 9d 8b 3b 6b 32 50 bd a2 44 db 3d ad 31 05 3d
       0.0042606737 -0.050829332 0.1070645 0.032518078
0003e0 de 94 1b 3d c0 f8 f8 3d 8d 3b fa 3d 8d 82 c3 bd
       0.037983768 0.1215682 0.1221839 -0.09546385
0003f0 6b 1c 8a bc c8 83 d2 3d 9d 13 5d bd d3 55 41 bd
       -0.016859254 0.102790415 -0.053973783 -0.04720099

grucell.weight_hh f4 [192, 64]
000000 b9 94 ca 3d 16 20 cb bd 02 43 ba bd c0 4a ce 3d
       0.09891648 -0.09918229 -0.09094812 0.10072851
000010 96 ef 84 bd fc f2 5c bd 02 c7 a5 3b 11 d3 34 3c
       -0.0649101 -0.053942665 0.005059124 0.01103665
000020 95 91 d4 bd 8b c9 c3 bd 39 a4 7d bc d2 c3 fa 3d
       -0.1037933 -0.09559926 -0.015481048 0.12244381
000030 cd 34 9d bc c1 66 57 bd f9 89 80 3d 14 e9 e0 bd
       -0.019190216 -0.052588228 0.06276316 -0.10981956
000040 39 9a d3 bc ef 26 75 bd be 43 ee bd 0b 71 a4 bd
       -0.025830375 -0.059851583 -0.116340145 -0.08029374
000050 d4 c8 3f bc f3 2e 80 bb 70 10 8c 3d d1 d4 db bd
       -0.011705596 -0.003911847 0.06839073 -0.10733951
000060 6e fa 45 bd 3c 15 d3 3d df 45 da 3d 04 82 13 3d
       -0.04833453 0.103067845 0.10657858 0.036012664
000070 0c 6a c1 bd 33 a7 04 bd 9a 6b 99 bd 0a b3 b8 3c
       -0.09444055 -0.032386016 -0.074912265 0.02254631
000080 02 e0 7f 3d c5 fd 8f bd 46 43 49 3d 32 b9 e1 bd
       0.06246949 -0.070308246 0.049136423 -0.11021651
000090 58 87 cb 3d 85 9e 5b bd 8d c7 7f bd 37 47 c4 bd
       0.09937924 -0.053617973 -0.062446166 -0.09583896
0000a0 31 78 62 3d 42 79 cf 3c f5 23 ab 3d eb 10 ee 3c
       0.055290405 0.025326375 0.08356468 0.029060801
0000b0 56 78 a3 3d 35 4b 7e bd 2a 8f e1 bd 86 a1 cc 3c
       0.07981937 -0.06208344 -0.110136345 0.024979364
0000c0 aa 98 71 bd e8 d3 1c 3d 9e 6e 32 3c 71 85 73 3c
       -0.058983482 0.038288027 0.010890631 0.014863358
0000d0 6e a8 d6 3d c7 63 82 bd 28 16 ee bc 44 0e d3 3d
       0.10481344 -0.06366687 -0.0290633 0.10305455
0000e0 fe 65 ec 3c fa f9 de 3d 05 48 86 3d f2 df 37 bd
       0.028857227 0.10887523 0.065567054 -0.044891305
0000f0 cb 5e 0e 3c ba a8 5d 3d 16 fc 95 bd 7c 0c b6 3d
       0.008689593 0.05411599 -0.07323472 0.088891
000100 92 7e f7 3d 78 d4 28 3c 97 44 e6 3d 1a 1a 43 bd
       0.12084688 0.010304563 0.11243551 -0.047632314
000110 83 93 2d 3c 95 31 25 3d e4 78 68 bd e7 70 ab bc
       0.010594252 0.04033049 -0.056755915 -0.02092786
000120 ea 20 96 bd 77 74 a2 3d 41 43 2c 3c cc b7 47 3a
       -0.073304966 0.0793237 0.010514081 0.00076186354
000130 bd 40 ff bc 73 72 13 3c 9c 96 d0 bd ed 53 0f 3d
       -0.0311588 0.008999455 -0.101849765 0.034992147
000140 37 3a 98 3d 27 f2 f0 bd 00 b3 d2 3d 83 f0 a8 bd
       0.074329786 -0.11764937 0.10288048 -0.08248999
000150 96 9e ce bd f6 39 1d 3d 60 cc bb bd 6a e2 ba 3d
       -0.100888416 0.038385354 -0.09169841 0.09125216
000160 ab e5 f6 bd 64 97 5d bd 46 4e 11 3c 3a e9 49 3d
       -0.120555244 -0.054099455 0.0088687595 0.049294688
000170 b9 ee d7 3d f6 b4 be 3d 0f 1e f6 bb 4f a7 9d 3d
       0.105435796 0.09311859 -0.0075109075 0.07697927
000180 f1 f5 9f bc ef 67 81 bd 07 15 e1 3d 74 76 5a 3d
       -0.019526454 -0.06318652 0.10990339 0.053335622
000190 94 27 bf 3c 78 72 bf bd 3d 55 8f 3d 6f a1 58 3d
       0.023334302 -0.09348005 0.0699868 0.05288833
0001a0 a4 5b 03 bc e6 1d 9b bd 08 54 e4 3d 58 d7 52 bd
       -0.008017454 -0.07574062 0.1114884 -0.0514749
0001b0 e7 8f 7d 3d 29 62 de 3c 0d c1 90 3d d5 e6 df 3d
       0.061904814 0.027146416 0.070680715 0.109326996
0001c0 52 d9 45 3d f6 37 cb 3d bb a7 3d bd 1c 4d b5 3d
       0.048302956 0.09922783 -0.04630254 0.08852598
0001d0 73 b8 d3 bd c1 04 7c bb e6 3d 80 bc 58 f3 04 bc
       -0.10337915 -0.0038454982 -0.015654515 -0.008114658
0001e0 bd e0 62 3c e2 8e ee bd ee d3 3c bd ff fa 24 3d
       0.013847527 -0.116483465 -0.04610055 0.04027843
0001f0 b4 8f 2d bd af bb c5 3c 22 17 07 3d f6 9b c6 bc
       -0.042373374 0.024137346 0.032981046 -0.02424429
000200 e3 c7 0d 3d 51 99 38 3d 57 64 3f 3d 9f 39 74 bd
       0.034614455 0.04506809 0.04672655 -0.059625264
000210 a6 78 96 bd c7 fd 83 bd 2f c4 b8 3d bc f9 2f 3d
       -0.073472306 -0.064448886 0.09021794 0.042962775
000220 d9 ae c8 bd 7c a5 c0 bd a1 e5 8f 3c 39 94 8d bd
       -0.097989745 -0.09406564 0.01756555 -0.06913037
000230 62 1e 55 3d 84 83 c9 bd 02 c8 e9 3d ed 7e e1 bc
       0.05203093 -0.09839538 0.114151016 -0.027526343
000240 ae cf 0e bb a4 73 7e bc e1 d0 b2 3d 22 32 b7 3d
       -0.0021791267 -0.015530501 0.08731247 0.08945109
000250 d8 06 d0 bd 8b 62 cd 3d 25 3b 30 bd c5 2c fa bd
       -0.10157555 0.10028561 -0.043025155 -0.1221557
000260 2d 1c 55 bd e3 61 fa 3d 29 6f 8d 3c ad d6 34 bd
       -0.052028824 0.12225702 0.01726492 -0.044150043
000270 03 a0 d3 bb cc 8b 23 3d 52 e4 fc bd 61 ea a7 bd
       -0.006458284 0.039928243 -0.12348236 -0.08199001
000280 c9 30 f7 3d 85 0c ab 3d e9 d2 8c 3b 06 41 ad bd
       0.12069852 0.08351997 0.0042976034 -0.08459668
000290 d5 17 0a 3d ed 75 a8 bd 3a a8 3c bd 17 36 43 bd
       0.033714134 -0.082256176 -0.04605887 -0.047659006
0002a0 4f 7a 8e bd 2f 5e 20 3b c4 6b 16 3d bb e0 af 3d
       -0.06956922 0.00244702 0.036723867 0.08587786
0002b0 61 5a bd 3c 8f ea a5 3d 15 fa b5 3d 29 1f 3e 3d
       0.023114385 0.08101379 0.0888559 0.046416435
0002c0 8e f5 86 3d 44 cf f3 bc c5 cb 2b bd 24 77 46 bd
       0.065898046 -0.029761918 -0.041942377 -0.048453465
0002d0 bc 14 cf 3b bd 83 31 bd 62 bc 98 bd 7a f2 02 3c
       0.0063196104 -0.043338526 -0.07457806 0.007992381
0002e0 5e 8c c9 3d 48 08 d4 3c 99 bd e2 bd cd c7 18 bc
       0.09841226 0.025882855 -0.11071319 -0.00932498
0002f0 67 74 c1 bd 5b da ed bd ed b8 8e bd 77 4a e1 bd
       -0.0944603 -0.116139136 -0.069688655 -0.11000531
000300 5e 13 74 3c 88 30 c4 bd c8 4a a5 3d ac 01 09 bd
       0.014897196 -0.09579569 0.08070904 -0.03344886
000310 fd 6b 48 3d be e7 ce 3d 57 c4 5e bd 60 4a c8 3b
       0.04893111 0.10102795 -0.054386463 0.006112382
000320 d2 19 ad 3d 12 ff 27 bd 3b 78 19 3d b9 e4 7c bd
       0.084521905 -0.04101474 0.037468176 -0.061741564
000330 a7 31 ea 3d a6 1a 1d 3d 17 ff b8 3d a4 d6 ea bd
       0.11435252 0.038355492 0.090330295 -0.11466721
000340 98 54 46 3b ec 92 0a bd bc 4a 94 3d df 4f e5 3d
       0.0030262824 -0.033831522 0.07240817 0.11196875
000350 54 d3 50 bc db 6a 93 bd d4 32 83 3d c8 fc ca 3d
       -0.012745697 -0.071981154 0.06406179 0.099114954
000360 32 d3 3f 3d 41 7c e8 3c 8d 4a ed bd c2 60 d9 bd
       0.04683227 0.028379561 -0.11586485 -0.10614158
000370 e0 86 90 3d 51 0a fb bc e0 3d d6 3c d5 09 c0 bc
       0.07056975 -0.030644568 0.026152551 -0.023442188
000380 e2 6e 74 3b 5a 66 e7 3d 1a f5 36 3d 3a f3 da bd
       0.0037297537 0.11298819 0.04466734 -0.10690923
000390 c2 98 d6 bd fd 93 bc 3d 55 ad 88 3d 79 31 13 bd
       -0.10478355 0.09207914 0.066736855 -0.035935853
0003a0 c7 bd 78 bd 9a 47 15 3c 7f 16 91 3d 42 ac b3 3d
       -0.06072786 0.009111309 0.07084369 0.0877309
0003b0 39 8a d7 3d 7e d5 0e bc b0 2a ea bd 6c 3a 4c 3d
       0.10524411 -0.008717893 -0.11433923 0.049860403
0003c0 f0 28 3f bb 94 54 d1 bd 16 f8 45 bc 9e b6 cf 3d
       -0.0029168688 -0.1022121 -0.012083074 0.10142253
0003d0 73 7f 71 3d f1 ee a5 bd ac 7d 8f bb 00 98 e8 3d
       0.058959436 -0.08102215 -0.004378995 0.11357117
0003e0 b4 1c 07 3d d0 6c db bd 94 91 9c 3c 5a 43 6e bd
       0.032986358 -0.10714114 0.019112386 -0.0581697
0003f0 02 6d 1d bd 4a 2c b3 bd e7 4f 2c bd 52 5b da bc
       -0.038434036 -0.08748682 -0.04206839 -0.026654873

grucell.bias_ih f4 [192]
000000 da a9 ef 3d 98 ef db bc 5b 68 04 3d f9 d4 c5 bc
       0.117023185 -0.026847646 0.032326084 -0.024149405
000010 d0 59 d1 3d fa 2c d5 bd a5 41 9f 3d 3e 05 2a 3c
       0.102222085 -0.10408969 0.077761926 0.010377226
000020 95 41 93 bd 0d 17 60 3c 60 4f f2 3d 80 46 d7 bc
       -0.07190243 0.013677371 0.11831546 -0.026278734
000030 fd 0f b6 bd 9b b8 18 bc bb 20 b4 3c 5d f9 93 3d
       -0.08889768 -0.009321357 0.021988263 0.07225297
000040 60 50 f9 3d 7c e0 d1 3c c2 07 76 3d ec a2 a6 bd
       0.121735334 0.025619738 0.060065992 -0.08136544
000050 9e e3 58 bd 29 97 6e bb 9a 4c 5b bc 77 94 c6 3d
       -0.052951448 -0.0036406016 -0.013384962 0.09696286
000060 78 db dc bd 6f 78 a0 3d f0 99 e1 bd 0b b2 f0 bd
       -0.10784048 0.07835471 -0.110156894 -0.11752709
000070 d9 60 1e 3d 89 f6 53 3d 99 a4 a1 bc cd 08 c9 3d
       0.03866658 0.051748786 -0.019731807 0.09816132
000080 f1 aa 03 3d f5 03 40 bd 71 bd 3f bc 1d 93 c2 3d
       0.032145444 -0.046878774 -0.011702881 0.09500716
000090 bf 09 a5 3c 05 0c 34 bd 23 19 d6 bc e8 88 39 3d
       0.020146249 -0.043956775 -0.026135033 0.04529658
0000a0 fc 2e c0 bd 9d 67 c2 bd 2e 73 83 bd 6f 55 46 bd
       -0.093839616 -0.09492419 -0.06418453 -0.04842132
0000b0 3b 23 bc 3d 8f d9 ea 3d 83 65 89 3c 04 c2 f9 3d
       0.09186407 0.11467277 0.016772037 0.12195209
0000c0 33 a0 37 3d 50 2b cb 3d 1e 4d 1d bc 7e f8 e3 bd
       0.044830512 0.099203706 -0.009600906 -0.111313805
0000d0 f8 75 d9 bd aa 09 fc 3d a9 6e a6 bc eb db 43 bd
       -0.10618204 0.12306531 -0.020316439 -0.047817152
0000e0 95 d9 78 3d e4 70 fc 3d 7c 33 ca bd 8f a5 77 3d
       0.060754377 0.1232622 -0.09873101 0.060460623
0000f0 67 be da 3d 4f 5d d5 bd 9f fd 44 bd 11 db 92 3c
       0.106808476 -0.10418188 -0.048093434 0.017926725
000100 40 9e f6 bd 21 62 1d bb 51 29 74 3d ae 4d db bd
       -0.120419025 -0.0024014788 0.059609715 -0.107081756
000110 5f 39 a3 3d a2 87 80 3d 51 d1 be bd ce 82 b9 3d
       0.07969927 0.0627587 -0.09317268 0.09058152
000120 d0 a0 ce 3d 6c d5 26 bd b0 ce 34 bd cf 2f 34 3c
       0.10089266 -0.04073088 -0.044142425 0.010997727
000130 0a 61 c1 3c 6b c5 e8 bd 12 ce 95 3d a3 35 df 3d
       0.023605842 -0.113657795 0.073146954 0.10898902
000140 4f f7 7a bb 6c b3 46 3d 07 7b b4 3d 30 e8 d0 bd
       -0.003829438 0.048510954 0.08812528 -0.10200536
000150 85 f8 93 bd b9 27 eb 3d 70 4d 46 3d 51 a3 85 bd
       -0.07225136 0.11482186 0.048413694 -0.06525291
000160 95 be 24 3b 08 65 5b bc 69 ca aa bc 97 f3 b5 3b
       0.002513801 -0.013390787 -0.02084847 0.00555272
000170 dc 8e c3 bd 66 a0 0a 3c a8 32 fa bd cc 41 8a 3d
       -0.09548733 0.0084610935 -0.12216693 0.06750831
000180 24 5d eb bc 9f c8 ae bd 03 e6 cb 3c eb 1b f0 bd
       -0.028730936 -0.08534359 0.024889952 -0.11724075
000190 02 17 ee bd a5 9b 45 3d 6b 9f 0d bd 6e 58 9a 3d
       -0.11625482 0.048244137 -0.03457586 0.07536398
0001a0 00 d2 a5 3c 17 7c c4 bd 04 bf c0 3d 85 36 4c 3c
       0.020241737 -0.09593981 0.09411433 0.01246417
0001b0 27 d0 b9 3d 25 8e bc 3d 4b e7 c1 3d 18 bb c2 bd
       0.09072905 0.092067994 0.09467944 -0.095083416
0001c0 51 13 14 3d 28 3d 83 3d e9 16 cc bd 9f 5b f3 bd
       0.036151234 0.06408149 -0.09965307 -0.1188271
0001d0 84 43 c5 3c 10 0f b7 3c 66 f4 1c bd 6a 66 2f 3d
       0.024080046 0.02234605 -0.038319014 0.04282228
0001e0 7c 67 07 bd d2 3f bd 3d c6 1d d5 bd ea 02 86 3d
       -0.033057675 0.092406884 -0.104060695 0.065435246
0001f0 f1 ea fb bc 46 9a da bd 7b 29 a7 3d 8c 8c fb bd
       -0.030751677 -0.106739566 0.08162209 -0.122826666
000200 f6 4b 15 3d 2e ca 4f be ba ce 0d 3e a9 be e5 bc
       0.036449395 -0.20291969 0.13848391 -0.028045015
000210 85 80 33 3d 49 a1 8f 3d 2c 78 de 3c 69 80 1c 3e
       0.043823738 0.070131846 0.027156912 0.1528336
000220 8a dd 59 3d 32 c0 08 be f0 3b e6 bc ec 1a b1 bc
       0.05318979 -0.13354567 -0.028104752 -0.021619283
000230 63 87 f1 bd 3c 06 92 be ad ec a2 bd 2f 8e 23 3c
       -0.11793401 -0.2852038 -0.079552986 0.00998263
000240 ed a7 2c bd d5 ee e0 bc 87 66 43 bd 37 81 f6 bd
       -0.042152334 -0.027457634 -0.0477052 -0.120363645
000250 96 67 ce bc f3 7e 00 bd 21 da b5 bc af 51 0f bd
       -0.025195878 -0.03137107 -0.022198739 -0.03499001
000260 63 4d 27 be a3 4f 24 3e 99 d2 e8 bd 67 fc a7 3d
       -0.16338114 0.16046004 -0.11368293 0.08202439
000270 e7 e4 75 3e 27 bb b9 bc 75 11 96 bc e2 c3 d4 bc
       0.240131 -0.022672249 -0.018318871 -0.02597231
000280 b7 17 14 be c0 9b 72 3e 11 62 50 bb bf 61 bd bc
       -0.14462171 0.23692226 -0.0031796733 -0.023117898
000290 63 1a b5 bd 0a 80 e6 3d ca a9 fa bd 2f e7 83 bc
       -0.088429235 0.1125489 -0.12239416 -0.016101448
0002a0 bb 54 cc bd ca db 6b bd d8 d8 ee bd 7f 88 ec bd
       -0.099770986 -0.057582654 -0.116624534 -0.11549472
0002b0 ed 1f 04 3d 5d a5 cc 3d f3 49 35 3d 8e 94 62 bd
       0.03225701 0.09992478 0.044259977 -0.055317454
0002c0 14 00 8b bd a5 2f 2d 3e 30 6c c1 3d a8 83 4b bd
       -0.06787124 0.16912706 0.09444463 -0.049686104
0002d0 47 e9 c4 bc 64 eb 80 ba 3f 37 af bd be 3a 88 3d
       -0.024037017 -0.0009835777 -0.08555459 0.06651829
0002e0 8d f8 e8 3d 5b bd 71 3d 1d b1 c4 bc b8 ce 2c be
       0.11375532 0.059018474 -0.024010235 -0.16875732
0002f0 64 f5 2d bd c0 b6 b9 bd d3 1c 7f 3b 74 02 9a bd
       -0.04247035 -0.0906806 0.0038927093 -0.07519999

grucell.bias_hh f4 [192]
000000 c2 65 db bd da 82 61 bd 1f 2f 92 bc b5 ac ee 3d
       -0.10712768 -0.05505643 -0.017844735 0.11654035
000010 5d cb 31 3d 74 82 e4 3d 6f 9c 84 3d 67 54 72 3d
       0.043406833 0.111576945 0.0647515 0.059162524
000020 cd 6d da 3d 08 d4 f4 bd 1b 1e 3d bc 7a 77 5c bc
       0.10665474 -0.11954504 -0.011542822 -0.01345622
000030 ce b3 43 bd 6d 99 87 3d 15 1a e7 3d d5 31 99 3d
       -0.047778897 0.066210605 0.11284272 0.07480208
000040 5a b6 f7 bd 44 55 48 3d 39 8b 99 3d 06 bd dd 3d
       -0.12095328 0.04890944 0.07497258 0.10827069
000050 58 4f b5 bd 15 33 0f bd f2 f3 f1 bd b4 76 44 bd
       -0.08853024 -0.034960825 -0.11814107 -0.047964767
000060 4d cd 2c bd 1a 93 7a 3d e5 89 b8 bc bd 55 a9 3d
       -0.042187978 0.061175443 -0.02252669 0.082683064
000070 d2 c3 f8 bc 39 f8 d0 bd cd 43 b0 bd 19 91 94 3d
       -0.030366812 -0.10203595 -0.08606682 0.07254238
000080 0b f5 00 bd b8 8c 8f 3d 6b d9 20 bd c4 ea 22 3d
       -0.03148369 0.07009262 -0.039269846 0.03977467
000090 5e bf e1 3d aa bc dd 3d 4c 08 83 bd 80 69 4b bd
       0.110228285 0.108270004 -0.06398067 -0.04966116
0000a0 68 31 cf 3d 88 fc 0a bc b6 aa ec bd 0e 69 b0 bd
       0.10116845 -0.00848306 -0.11555998 -0.086137876
0000b0 a9 e4 17 bd bd 43 92 bd fe 63 fd 3c 76 0d 1d 3d
       -0.0370833 -0.07141826 0.030931469 0.038342915
0000c0 4a e3 9e bd ce f5 bb 3d 71 df e1 bd c8 87 c6 3d
       -0.07758196 0.09177743 -0.11028946 0.09693867
0000d0 34 63 99 bd 50 6f ba bc bc e1 29 3d 40 97 cb 3c
       -0.074896246 -0.022758156 0.041475043 0.024852395
0000e0 23 71 cf 3d 8a 50 c6 bd 04 13 a4 3c 4b 92 e2 bd
       0.10129001 -0.0968333 0.020028599 -0.110630594
0000f0 c7 88 89 3d 69 e9 de 3d 41 d0 88 bd a4 14 bb 3d
       0.06715541 0.10884363 -0.06680346 0.09134796
000100 6e 26 dc bc 00 15 b3 3d b6 87 c0 bd 86 e0 b7 bd
       -0.026873793 0.0874424 -0.09400885 -0.08978371
000110 37 4a df 3c 3f 76 d8 3c 85 a2 f3 3d 86 4c 67 3d
       0.027257068 0.026423572 0.118962325 0.056469463
000120 72 7e 98 3c 8a 98 a5 3d 50 9c 38 3c eb 99 8d 3d
       0.018614981 0.08085735 0.011267737 0.06914123
000130 b3 1d c2 3d 6d f1 e7 3d 08 5c 72 3d 7f 37 98 bb
       0.09478321 0.11325345 0.0591698 -0.0046452875
000140 22 fe 90 3c 70 50 46 3d 99 31 d2 3d c4 ea ad bd
       0.017699305 0.048416555 0.10263366 -0.084920436
000150 4b fa b8 bb 2c ab 0f bd fa ce e5 3d 2d 5c f6 b9
       -0.0056450716 -0.03507535 0.11221118 -0.00046989453
000160 04 62 3d bd 1a 6f 11 3b f5 45 53 3d 15 c5 ef 3d
       -0.046236053 0.0022191466 0.051580388 0.11707512
000170 d6 b1 a4 bd 66 da 2e 3d e1 ed e0 3c 04 06 7f bb
       -0.08041732 0.04268875 0.02745718 -0.0038913498
000180 41 d0 69 bd b1 a1 98 bc f0 c5 9d 3d f5 d8 cf bd
       -0.057083372 -0.018631788 0.07703769 -0.10148803
000190 05 dc 1e 3d 55 11 d3 bd 31 1b b7 bd 56 07 b6 bd
       0.038784046 -0.1030604 -0.08940733 -0.08888118
0001a0 e0 a0 cb bc d1 5e d7 3d 60 0a cd 3d 80 40 cb bd
       -0.024856985 0.10516132 0.100117445 -0.09924412
0001b0 0d 09 1e 3d ad 7c 34 3c cf 76 8d bd 83 5b 93 bc
       0.03858285 0.011016053 -0.069074266 -0.017987972
0001c0 46 bc 4f 3c fe b7 d6 bd b6 5b e8 3c 07 d5 ce 3d
       0.012679165 -0.104843125 0.028364044 0.100992255
0001d0 5c 2e b2 bc 78 12 a9 bc 20 b5 30 bb 5a ae 77 3b
       -0.021750621 -0.02063869 -0.0026963428 0.003779313
0001e0 3b 2b d4 bd 9e 47 bc bd a0 8b 6e 3d e6 ab 9c bd
       -0.10359808 -0.091933474 0.058238626 -0.076499745
0001f0 4a 11 80 bd d2 df e6 3d fd ce 86 bd 04 c4 e3 bc
       -0.062532976 0.11273159 -0.06582449 -0.027803428
000200 6f e3 b7 bc 94 b0 80 3d 5c c7 9f bd 0d c6 02 be
       -0.022447316 0.062836796 -0.07801697 -0.12770863
000210 39 96 9c bd 3a cb cd 3d 90 8b b9 3d d7 b3 14 3e
       -0.0764584 0.10048528 0.090598226 0.14521728
000220 8e df c8 3d 00 f5 4f 3d f8 56 6a bd bc 65 be 3d
       0.09808265 0.05077076 -0.057211846 0.09296748
000230 d0 24 0a 3d 33 8e 50 be 66 22 97 3d f7 3c 19 3d
       0.033726513 -0.20366745 0.07379608 0.037411656
000240 48 bc 90 3d 5e 72 70 3d 5d be 16 bb 61 50 07 3d
       0.07067162 0.05870282 -0.002300165 0.03303564
000250 84 ec 6b 3d a7 37 00 be 46 92 42 3c 94 9f af 3d
       0.057598606 -0.1252123 0.011875695 0.08575359
000260 ef f3 92 3d 6a 30 34 3d c9 70 17 3d d6 0e f9 bc
       0.07175433 0.043991484 0.036972795 -0.030402582
000270 53 0e 3f bc 1c f8 40 3d c1 72 c8 3d c3 33 cf bd
       -0.01166113 0.047111616 0.097875126 -0.10117295
000280 b8 5f 80 bd ec 0a 45 3d a9 51 2a 3d 1b 99 a8 bc
       -0.06268257 0.04810612 0.041581783 -0.020580819
000290 f6 c9 98 3c 66 56 16 3e 43 10 07 3d 74 02 fe bd
       0.01865099 0.14681396 0.032974493 -0.12402812
0002a0 51 a8 89 3d 2e 6a 51 3d 5e cf 13 bd ee bf c0 bd
       0.06721557 0.05112665 -0.036086433 -0.09411608
0002b0 95 e8 bd bd 22 b8 f3 3d 5a 11 e8 3d 31 be 02 3e
       -0.09272877 0.11900355 0.113314345 0.12767865
0002c0 ce f7 d6 bc 67 a0 d9 bb a0 20 19 bd e0 3e 8a 3d
       -0.02624121 -0.006641436 -0.03738463 0.06750274
0002d0 08 ab 1e be 55 82 ed 3d ba d4 23 be a0 9d 8e 3d
       -0.1549493 0.115971245 -0.15999117 0.06963658
0002e0 67 9a 87 bd fa 7d e9 3b 57 f5 d2 bc 92 6c 5b 3c
       -0.06621247 0.0071256133 -0.025751753 0.013392584
0002f0 ff 51 ff 3d e6 0b cf ba 93 4b 62 3d c6 d3 95 bd
       0.124668114 -0.0015796393 0.055247854 -0.07315783

linear.weight f4 [2, 64]
000000 aa 6d a6 bd 7f 76 b4 3c bc a2 9b bb cf 7d 56 3c
       -0.081263855 0.02202916 -0.004749624 0.013091519
000010 e2 79 b7 bd 53 69 66 3c 46 06 45 bd 84 03 e7 bc
       -0.08958794 0.014063197 -0.048101686 -0.028199919
000020 19 01 c6 bd ce e3 0d 3d ca 9d a9 3d aa bf 86 3d
       -0.09668178 0.03464108 0.08282049 0.06579526
000030 95 9b 8b bc 07 11 be bd 2a 70 86 bd ab a0 07 bd
       -0.01704196 -0.092805915 -0.06564362 -0.03311221
000040 1b d4 df bd ee 25 bb 3d 12 44 73 3d e1 3b da 3d
       -0.10929128 0.09138094 0.05939109 0.10655952
000050 52 1f f2 bd 15 5d be bd c2 31 1f 3d 83 ab f4 3d
       -0.1182238 -0.09295098 0.038865812 0.11946776
000060 d9 6a b9 3d 1c 94 9e 3b 5f 13 f1 3d 9b dd e8 bd
       0.09053583 0.0048394334 0.11771273 -0.11370393
000070 58 bc e2 3d d8 51 da bc 3c bf b3 bd 1d fa af 3c
       0.1107108 -0.026650354 -0.087767094 0.021481568
000080 2b ce f8 3d bf 3e ff 3d b7 c5 ec bd 0b d5 46 3c
       0.121486984 0.1246314 -0.115611486 0.012135754
000090 50 f0 9b 3d d3 00 bb bc 2e 2e ef 3d 5a c0 af 3d
       0.07614195 -0.022827541 0.1167873 0.0858161
0000a0 9a a3 93 3d b4 12 3d 3d 31 f5 0c bd eb 95 4a bc
       0.07208939 0.046160415 -0.03441352 -0.012364845
0000b0 e8 32 d6 3d 6b 5a d9 3d c4 18 f5 bd b2 c9 b6 bc
       0.10458928 0.10612949 -0.11967614 -0.022312973
0000c0 75 90 c8 bc c6 ce f9 bd c4 e1 d7 bd 57 2c aa bd
       -0.024482945 -0.12197642 -0.10541108 -0.083092384
0000d0 ca ce 90 bd 8c 5e 7d 3d 45 f4 c5 bd 65 ec 8b bd
       -0.07070692 0.061857745 -0.09665731 -0.06832198
0000e0 2a 79 60 3d e0 2e 07 bd 38 35 dc bc 7e a3 ae bd
       0.05480305 -0.033003688 -0.026880845 -0.085272774
0000f0 98 98 81 3d 7b 48 c7 bd 82 f2 d4 3d 57 e3 02 bd
       0.06327933 -0.097306214 0.10397817 -0.03195509
000100 e5 b4 10 bd 36 21 ae 3d b2 00 ea 3d 32 fc dd bd
       -0.035328764 0.08502428 0.11425914 -0.10839118
000110 b9 d4 8e 3c 03 c1 ac bd ca 96 ab 3d d0 f3 8b 3d
       0.017435418 -0.084352516 0.0837837 0.06833613
000120 01 fe ef 3d ad 2f 3e 3d dd 0e e3 3c 8e 72 81 3d
       0.11718369 0.046432186 0.027717048 0.06320678
000130 98 e6 67 bd 26 3f ab bc 45 f3 e5 bd ce 71 be bc
       -0.056616396 -0.020904135 -0.112280406 -0.023247626
000140 fe 19 2b 3d c5 6d d0 3c e2 d9 6a bd 5d 0a 4e bb
       0.041772835 0.025442967 -0.057336695 -0.0031439282
000150 b2 fb c6 bc 0c 8b 52 bd 37 e1 9d 3d 4e 7e f1 3d
       -0.02428994 -0.051402137 0.07708972 0.11791669
000160 49 f8 d0 3c 04 d8 ec 3d ca 33 01 3c d1 19 7e 3d
       0.025509017 0.11564639 0.007885883 0.06203634
000170 02 28 e4 bc d4 32 8d bd f1 b6 0e 3d 18 1e 99 bd
       -0.027851108 -0.0689446 0.034842435 -0.07476443
000180 7a d6 c3 bc d8 76 0a 3c d0 df ce 3c 00 c0 15 bd
       -0.023905981 0.008451186 0.025253206 -0.03656006
000190 bb e9 28 3d aa 97 c0 bd f0 81 eb 3d 3b 52 a3 bd
       0.041238528 -0.094039276 0.11499393 -0.079746686
0001a0 a3 bb 98 bd 4b d1 05 3c 68 4c 99 bd cf 4b 84 3d
       -0.07457664 0.008167575 -0.074852765 0.06459772
0001b0 ca 8c f2 3d d2 38 90 bd 7d 38 26 3d ad 18 8c 3d
       0.1184326 -0.070420876 0.040581215 0.06840644
0001c0 a6 0d de 3c 9a 63 22 bd 32 4c f5 3c c3 ce 2d 3b
       0.027106117 -0.03964577 0.02994356 0.0026520945
0001d0 2e 78 8a 3d 69 13 d0 bd df 84 af 3d a1 b4 30 3d
       0.06761204 -0.10159952 0.08570265 0.04314101
0001e0 ae 78 98 bd ae dd 52 3c 43 76 e1 bc 08 35 3c bd
       -0.07444893 0.012870235 -0.027522212 -0.045949012
0001f0 18 b7 86 3d 7b 0d 80 bd d4 03 a8 bd c0 d7 e4 3d
       0.06577891 -0.06252571 -0.08203855 0.111739635

linear.bias f4 [2]
000000 b5 9e e4 bd 5e 2e fa 3d
       -0.111630835 0.12215875

linear_final.weight f4 [5, 64]
000000 04 2a eb 3d 19 d4 65 bc 7d 2f e4 ba dc 5a f0 3d
       0.11482623 -0.014027619 -0.0017409172 0.1173608
000010 3e 31 e9 3d b7 1d 0e bd 26 2a fb bd 9e 1d 9e bd
       0.11386345 -0.034696307 -0.122638986 -0.07720493
000020 6a c9 88 3c 35 d1 d6 3d bc 35 80 3d 43 3b 38 3d
       0.016697604 0.10489122 0.06260249 0.04497839
000030 a3 2a f8 bc d3 5c 3e bd 09 4f a6 3d d4 69 44 bd
       -0.030293768 -0.046475243 0.081205435 -0.047952488
000040 e3 bf 84 3d 3b be 3a 3d 7b fd e8 bc 5a 48 89 3d
       0.06481912 0.045591574 -0.028441181 0.06703253
000050 a8 ab 6c 3d 57 a0 19 bd db 71 dc bd 7f 42 96 bd
       0.05778089 -0.037506428 -0.10763904 -0.07336902
000060 63 63 c0 bd 3d 8b 9e bd 2a 1e 85 bd 51 06 68 bc
       -0.093939565 -0.07741401 -0.06499894 -0.014161662
000070 8f 74 c5 3d 21 5e c7 3d f4 3b 13 3d 44 eb 8d bd
       0.096413724 0.097347505 0.035945848 -0.06929639
000080 1f 9c b7 3d 78 26 8e bd c4 61 e9 bd de d5 a0 3d
       0.089653246 -0.06940931 -0.113956004 0.07853292
000090 01 5e 83 bd ef 93 21 bd e2 8a fd 3d 3c cc ae bd
       -0.06414414 -0.03944772 0.123800054 -0.08535048
0000a0 78 6c d4 bd 15 bd e4 bd 96 0d f2 3d ea 0a 5d 3d
       -0.10372251 -0.11168877 0.118189976 0.053965487
0000b0 f2 8e ad bd 83 47 9a bd 4b a9 95 3d a7 1a ec 3d
       -0.0847453 -0.07533171 0.07307681 0.11528521
0000c0 5c 57 ad 3d 06 d5 c0 3d 0a c0 7a 3c 26 ac 50 3d
       0.08463928 0.09415631 0.015304575 0.050945424
0000d0 d4 28 ef 3d d3 40 ae 3d 0d aa 36 3d 7a c7 1c 3d
       0.11677709 0.08508458 0.044595767 0.038276173
0000e0 5d 45 e5 bd a8 21 60 ba da e0 51 3d f0 84 a4 3d
       -0.111948706 -0.0008549937 0.051239826 0.08033168
0000f0 b4 13 0d 3c 62 ad 09 3d f3 61 58 3d 8e 67 9d 3d
       0.008610655 0.033612616 0.052827787 0.07685767
000100 5d 49 ed bb 61 1e c7 3d 6f c4 94 bc eb 87 82 bd
       -0.0072414116 0.09722591 -0.018160073 -0.063735805
000110 69 d9 98 bd 6d d1 94 3d f3 fa a3 bb c4 86 5e bd
       -0.07463343 0.07266507 -0.0050042807 -0.05432774
000120 4c 27 08 bd 61 f6 1f bc 80 2a b4 3d 3b 2d 6f 3d
       -0.0332406 -0.009763331 0.08797169 0.058392745
000130 d0 02 0b 3d 3e f9 79 bd a4 10 0c bd 3d 4a 4c bd
       0.03393823 -0.06102871 -0.034195557 -0.049875487
000140 34 5d 32 bd 73 51 58 bc a6 25 47 3d 33 2e f4 3b
       -0.043545917 -0.013203013 0.04861989 0.0074517964
000150 1b a7 a5 3b a9 57 b7 bd b4 a3 76 3d 36 2a 0b bd
       0.005055321 -0.08952267 0.060214713 -0.033975802
000160 ff be ba 3d 2f eb bb 3d 08 d8 47 3d 81 d5 46 bd
       0.09118461 0.09175717 0.048790008 -0.048543457
000170 f4 58 84 bd dc 15 ad 3c 95 f7 36 bd bf 79 2d 3d
       -0.06462279 0.021128587 -0.044669706 0.042352434
000180 8f 8b b1 3d 72 7f a6 3d 8f f5 0c 3d ac 7e 98 bd
       0.08669197 0.08129777 0.03441387 -0.07446036
000190 c1 42 c1 3d 59 36 b9 3d ef 16 96 3d 45 a8 8b 3d
       0.094365604 0.09043569 0.07328593 0.06819204
0001a0 e0 09 d5 ba 1c d2 1b 3c 66 c8 89 3d d3 5c 8c 3d
       -0.0016253553 0.009510543 0.06727676 0.06853642
0001b0 1c 96 c2 ba db e2 03 bd 75 72 b5 3d 35 15 c6 bd
       -0.0014845761 -0.032198768 0.088597216 -0.09672014
0001c0 8b e3 d3 3d a9 3e f5 b9 57 c5 03 bd 6d 91 c2 bd
       0.10346135 -0.00046776727 -0.03217062 -0.09500394
0001d0 3e 5d 62 3d 11 5b 6c 3d 94 03 a7 bd fb fd 7e 3c
       0.055264704 0.057704035 -0.08154979 0.015563483
0001e0 73 82 a6 bd f3 ce 76 3d 66 7c dd 3a 49 9b 80 3d
       -0.0813035 0.060255956 0.0016898036 0.06279618
0001f0 cb 20 0a 3b 26 cc 71 bd 56 52 96 3d e1 18 bb 3a
       0.0021076675 -0.05903258 0.07339923 0.0014274382
000200 f6 f1 97 bd b3 d2 dd 3d 55 a8 15 be 42 cb e0 3d
       -0.07419197 0.10831203 -0.14614995 0.10976268
000210 b3 1c ff bd 2b ac 83 bd 0d 1e 41 bd 47 d1 be bb
       -0.12456646 -0.06429323 -0.0471478 -0.0058232876
000220 9f 38 45 bd 5e 4a b0 3d 55 cf 85 3d 1e a6 6f bd
       -0.0481497 0.086079344 0.06533686 -0.05850803
000230 07 fa 7e bd 60 a7 96 3e 0e ed c3 bd 51 23 ad 3d
       -0.062250163 0.29424572 -0.09566699 0.08454002
000240 da 3d a4 bc 5e 95 6e 3d 86 8e 94 3b 4b 9a fd 3d
       -0.020049024 0.058247916 0.0045335917 0.12382945
000250 21 f3 89 bd e0 c6 9a bd 17 a2 cf 3d f5 ad 03 3d
       -0.06735826 -0.07557464 0.10138338 0.03214832
000260 d8 62 a8 bd 27 49 a9 3c a9 68 6f bc f3 73 87 3d
       -0.08221978 0.020664765 -0.014612355 0.066139124
000270 5a 3d 3b be 9b f9 ba bd 33 73 ed 3d 08 89 f0 3c
       -0.18285123 -0.0912964 0.11594238 0.029362217
000280 f5 ce 55 3e b1 4c 6b be 26 55 09 3e 37 df 62 3d
       0.20879729 -0.22978474 0.13411388 0.055388656
000290 38 78 34 3e dc f1 89 bd 30 1c 1d 3e d1 29 ec 3c
       0.17623985 -0.06735584 0.15342784 0.028828533
0002a0 65 de 04 3e 41 bd ad 3c d5 54 d4 3c 68 d8 35 3e
       0.12975462 0.021208407 0.025919357 0.17758334
0002b0 44 ca 76 3d 20 6e a0 bd 90 c7 31 be 1d 9e e7 bd
       0.06025149 -0.07833505 -0.17361283 -0.113094546
0002c0 99 2f 42 bd 88 bc eb bc ed 16 13 bd 2a f4 88 3d
       -0.047408674 -0.028776422 -0.035910536 0.066871956
0002d0 a5 17 39 bd a2 4f ef bc 8f 2f 11 3e 18 75 22 3d
       -0.045188565 -0.029212777 0.14178298 0.03966245
0002e0 64 11 4c bd 57 ae 04 bd 0e d5 82 bd 89 2c b5 3d
       -0.049821272 -0.032392826 -0.06388293 0.08846385
0002f0 33 3d 2a 3d ed d3 2b 3e 02 28 17 3d c4 57 87 bc
       0.04156227 0.16780062 0.03690339 -0.016521342
000300 68 67 a3 3d a9 d9 50 3e b4 62 f1 bd dd 5b 01 3e
       0.079787076 0.20395531 -0.11786404 0.126327
000310 29 e9 51 bd 05 cd a3 bd 23 72 87 bd 76 e3 6b be
       -0.05124775 -0.07998089 -0.06613567 -0.23035988
000320 63 5a 4b be cd 19 10 3e 0d 00 33 bc 8d 39 4b bc
       -0.19858699 0.14072342 -0.010925305 -0.012403858
000330 db 1f ff 3d e2 c7 a0 3e 26 1d 68 3a d1 44 c7 bc
       0.12457248 0.31402498 0.0008854441 -0.024324806
000340 4d 8e 88 3d 7b b7 5f bd d1 67 b5 3d 8d e9 8d bc
       0.06667767 -0.05461834 0.08857692 -0.01732328
000350 02 a0 e2 3d 0a 6e 14 3e 54 71 57 3d 5e bb 92 bd
       0.11065675 0.14495102 0.052598312 -0.07164644
000360 ac 47 1c 3e b1 d0 5c be fb 48 e7 3d 9d 15 d4 bd
       0.15261716 -0.21563984 0.11293217 -0.10355685
000370 7f cf 89 be 16 61 30 bd 8a 22 85 bc f9 ca 01 3d
       -0.2691612 -0.04306134 -0.016251821 0.03168771
000380 ba 24 d7 3d dd b3 85 be a8 ef ef bc 71 60 36 bd
       0.10505052 -0.26113787 -0.029289082 -0.044525567
000390 2c 2d 5f 3c 4b 50 3e be 1f 3c d6 3d 72 09 30 3e
       0.01362161 -0.18585317 0.10460686 0.17191103
0003a0 61 76 02 bd 28 cf 90 3d ae 28 b3 3d 2a 27 2a 3e
       -0.031851176 0.07070762 0.087479934 0.16616502
0003b0 a2 11 aa 3d fd dd 56 be eb 5d 8f 3b 6e 54 6b bc
       0.083041444 -0.2098312 0.0043752096 -0.014363391
0003c0 81 27 2d 3e ce 1a 6b be 29 5d c4 bd a7 d2 9b bc
       0.16909601 -0.22959444 -0.095880814 -0.019021345
0003d0 22 db e9 3d f6 7d d4 bd 69 54 35 3e eb a8 2f be
       0.114187494 -0.10375588 0.17707981 -0.17154281
0003e0 71 9e 99 bc a1 8d bd bd 2b 55 c9 3d ef b3 72 3e
       -0.018752309 -0.09255529 0.098306976 0.23701452
0003f0 7c b5 83 bd 74 25 bd bc 43 ee 5d bd 3f 65 ee 3d
       -0.064311 -0.023089148 -0.054182302 0.11640405

linear_final.bias f4 [5]
000000 a2 78 6a 3d fb 39 8f 3d ba ef f1 be b9 96 77 bf
       0.05724395 0.06993481 -0.4725321 -0.9671436
000010 69 b0 f9 bd
       -0.12191851
