model_checkpoint/univ/ade_best.pth (torch_old, 55823 bytes, 10 tensors)

gcn.gc1.weight f4 [2, 2]
000000 43 0b 38 3d 4e 04 1a 3e 80 72 02 3e 11 51 eb 3c
       0.044932615 0.15040705 0.12738991 0.028725179

gcn.gc1.bias f4 [2]
000000 3f 1f cb 3b 5d 72 6e 3c
       0.006198793 0.0145536335

grucell.weight_ih f4 [192, 2]
000000 0a 0a a1 bc e5 c9 11 3d 46 f0 ee bc 85 59 69 bd
       -0.019658107 0.035592932 -0.029167306 -0.056970138
000010 ab cf c0 bd 24 1c f5 3d 5c df 81 3d 51 bf f3 bc
       -0.094146095 0.11968258 0.063414305 -0.029754313
000020 fb 6c 9d bd 90 f0 86 bd 10 a1 c5 3d 17 c0 26 bb
       -0.07686802 -0.065888524 0.09649861 -0.0025444084
000030 3e 28 cb 3d d2 39 a3 3d 4c fa 3b bc 8d 0c d6 3d
       0.09919785 0.07970013 -0.01147325 0.104516126
000040 78 20 59 bd f5 79 f1 3d a9 b5 3b 3d 75 f4 85 bc
       -0.05300948 0.117908396 0.04582754 -0.016351918
000050 cc 17 38 3d 6c a7 f4 bc bd a2 1e bd 12 a7 6b bd
       0.04494457 -0.02986499 -0.038729418 -0.057532378
000060 ed 93 ea bd 6c 6c f7 3d 7c 3d d0 3d 92 c1 c1 3d
       -0.11453996 0.12081227 0.10167977 0.09460749
000070 18 2f 88 3d 8f d3 d1 3d 9d 9d a4 bc b3 19 1e 3c
       0.066496074 0.1024543 -0.020094687 0.009649682
000080 cd 27 bb 3c 7e d8 c8 bd ef ca 42 bd 49 57 62 3d
       0.022846127 -0.098069176 -0.047556814 0.055259023
000090 13 2a c5 3d 55 07 9a bb 61 0a bf 3c 95 35 c1 bc
       0.09627166 -0.004700581 0.023320379 -0.02358512
0000a0 e4 b2 d2 3d d4 89 3d 3d 3b 3e c1 3d 2d 1a 96 3d
       0.10288027 0.04627402 0.09435698 0.073292114
0000b0 18 a3 cc bd 4b b0 39 3d c9 9c c4 bd d1 3e e6 bd
       -0.09992045 0.04533414 -0.09600217 -0.1124245
0000c0 3b 2d e6 bd 64 1a c5 3c a2 01 e0 bc d5 1d be bd
       -0.11239096 0.024060436 -0.027344529 -0.09283034
0000d0 3a 32 93 3b 50 8d e5 bd 0c 1e ed 3d 59 e0 0f bc
       0.0044920715 -0.11208594 0.115779966 -0.008781516
0000e0 8a ed e5 bc a7 a9 60 3d cf 75 b3 3d d1 01 82 bd
       -0.028067369 0.054849293 0.087627046 -0.06348003
0000f0 ee ba b0 3d 0e 24 c0 bd 81 a7 58 3c fb 45 c1 bb
       0.08629404 -0.09381877 0.01322353 -0.005898235
000100 4f e1 7f bd be 88 21 3d 3f 99 b6 bd 67 50 ea 3b
       -0.06247073 0.039437048 -0.08915948 0.007150698
000110 b2 be 92 bc ef 75 fb bc e3 3c 21 bd 87 57 cb 3d
       -0.017913196 -0.030695884 -0.039364707 0.09928804
000120 db c6 be 3d 7a 12 9f 3d 2b 42 57 3d 74 e0 f4 bc
       0.093152724 0.07767196 0.052553337 -0.029892184
000130 9f 6b f6 3c d5 51 d7 bd 71 2e 22 bd c9 b6 97 bb
       0.030080615 -0.10513655 -0.03959507 -0.004629944
000140 c2 23 cf 3d 25 41 64 bd 3a ce 35 3d d8 98 33 3d
       0.10114242 -0.05572619 0.044386126 0.043846935
000150 0d 29 6b 3c 44 1b dc ba de 38 cf 3d 8d f5 64 3d
       0.014353049 -0.0016792794 0.101182684 0.055898238
000160 22 51 a7 bd 5e bc 83 3d a3 a4 24 3d f6 61 b6 bd
       -0.08169772 0.064324126 0.040196072 -0.08905403
000170 fb 86 8f 3c 53 51 c1 3c 22 20 e1 bd 28 d3 83 bd
       0.017520418 0.023598349 -0.10992457 -0.06436759
000180 f7 d1 0b bd c7 9d 9c bb 39 6b 0d bd 07 f7 d0 3d
       -0.034135785 -0.0047795507 -0.034526084 0.10203367
000190 e0 fc 4d bb 88 3f a3 bd 06 71 e5 bd 93 07 01 3d
       -0.0031431243 -0.07971102 -0.11203198 0.031501364
0001a0 5f af f4 3d c5 2e 2d bd db 0c 16 bd 23 a1 cb 3d
       0.11947512 -0.04228093 -0.036633354 0.09942844
0001b0 59 66 cd 3d b8 fb ea 3d 0f 4b af 3d 56 5a e5 3c
       0.10029287 0.11473793 0.08559238 0.027997177
0001c0 92 f6 6f bd 07 a2 ee bd ae e4 b8 3d 78 41 6e 3d
       -0.058584757 -0.11651998 0.09027992 0.058167905
0001d0 fa d5 84 3d 9e 8c 9e bb 65 9b 46 3c 7e 09 bb bc
       0.06486125 -0.00483854 0.01212201 -0.022831675
0001e0 f5 7f 25 bd 94 01 b1 3c ff e9 2b 3d 80 c7 9a bd
       -0.040405232 0.021607198 0.041971203 -0.07557583
0001f0 dc 4d cc bd ca c9 31 bd 08 6c 8d bc 28 60 89 bc
       -0.09975788 -0.04340533 -0.017263427 -0.016769484
000200 d6 a1 44 3d a3 14 80 bd a8 b3 d1 3d 46 e4 d7 3c
       0.0480059 -0.06253936 0.10239345 0.026353966
000210 b2 8e 4c 3d d7 01 20 3d 77 a3 bd 3d 74 3f ed 3d
       0.049940772 0.039064255 0.09259694 0.11584368
000220 36 b6 b7 bd 01 67 c0 3d 83 5a 24 bb 6a 49 ae 3c
       -0.08970301 0.093946464 -0.0025078363 0.02127524
000230 2e 94 eb 3d c8 4e ae 3c 0d 4f e2 3d da 29 cf 3d
       0.115028724 0.0212778 0.11050234 0.101154044
000240 96 4c 49 39 ca d3 36 3d 32 40 10 bd 3b f8 6b 3d
       0.00019197384 0.04463557 -0.03521747 0.057609778
000250 55 74 41 bc e2 6e cd bb da 48 8f bd ad c6 d6 bd
       -0.011807521 -0.006269322 -0.06996317 -0.10487113
000260 58 0a 35 bd c2 84 84 bd 26 5f e4 3d 85 8a c5 3d
       -0.044199318 -0.06470634 0.111509606 0.09645561
000270 05 37 b7 3d 1c 7c 95 bd 8c 29 9f 3b 93 58 91 bd
       0.08946041 -0.072990626 0.0048572477 -0.07096972
000280 7e cf fb bd 6f 86 d1 3d 60 08 fc 3d 57 fb a9 3c
       -0.12295435 0.10230719 0.12306285 0.020749731
000290 04 21 54 bd 74 76 c1 3d 1a da a9 bc 1b 18 e1 3c
       -0.0517893 0.09446421 -0.020733882 0.027477315
0002a0 68 6e c4 3c 0d 95 dc bd 96 4f eb bd 19 11 69 bd
       0.023978427 -0.10770617 -0.11489789 -0.05690107
0002b0 aa ee f5 bb 36 36 d7 3d 32 2c 6b 3d 48 34 99 3c
       -0.0075052576 0.10508387 0.057415195 0.018701687
0002c0 6a 92 a8 3d ae 8e 6c 3d 6b 7e ab bd 76 19 ff bd
       0.08231051 0.057753257 -0.08373722 -0.12456028
0002d0 11 40 31 3d e7 64 cc bd 64 bf 09 bc 24 9e a3 bd
       0.04327399 -0.09980183 -0.0084074475 -0.07989147
0002e0 46 62 be 3d 5b 18 82 bb fc 8c f0 bd 29 ed 22 39
       0.09296088 -0.0039701886 -0.11745641 0.00015537873
0002f0 f0 01 07 bd fc f4 bc 3c d6 59 53 3d 5d e5 f2 3d
       -0.032960832 0.023066036 0.051599346 0.11860154
000300 5e d0 9a bc 6e 32 fc 3c 40 bc db 3d c2 99 a0 3d
       -0.018898185 0.030785765 0.10729265 0.07841827
000310 f2 89 a9 bd b2 a0 0e bc 33 f9 f8 bd 60 2f c9 bd
       -0.08278264 -0.008705305 -0.12156906 -0.09823489
000320 90 09 69 bc d1 79 95 bc 76 17 22 bd cd 44 de bd
       -0.014223471 -0.018246563 -0.039573155 -0.108529665
000330 c0 12 e2 3d 1a c3 89 bd cb 49 fe bd 06 16 e7 bd
       0.110387325 -0.06726666 -0.12416419 -0.112834975
000340 98 9d a3 bd dc 0d b3 bd 8e 7e db bc d8 e4 c8 3c
       -0.07989043 -0.08742878 -0.026793744 0.024523184
000350 d7 15 d6 3d e3 57 d3 3d 53 d7 b2 3c 32 fc 88 bd
       0.10453384 0.103194974 0.02183119 -0.066887274
000360 fd 6f cd 3d f3 2b 9e 3c 04 40 dc bd 22 1d fc bd
       0.10031126 0.019308066 -0.107543975 -0.12310244
000370 75 4c 91 bb 25 41 8c 3d 62 a2 05 3d 2b 51 69 3d
       -0.004434163 0.06848363 0.032625563 0.056962173
000380 2a ef aa 3c 00 a1 bd 3c 99 66 49 3c a2 20 fd 3d
       0.020865995 0.02314806 0.012292528 0.1235974
000390 58 21 ac bd af 7d e3 ba 99 78 a4 bd 0b 11 fe 3d
       -0.08404797 -0.0017356182 -0.08030815 0.124055944
0003a0 11 68 4d 3c b6 39 50 3c c5 d5 43 bd 2c 60 1d 3c
       0.012537018 0.012709072 -0.04781129 0.009605449
0003b0 44 a1 e1 bd db 44 f1 3d 0e e2 64 bd 0d 5d 6a bc
       -0.11017087 0.11780711 -0.055879645 -0.014304412
0003c0 3a e3 d2 3d 9f 2b d8 3c 7d da 89 3d 82 f2 83 3d
       0.10297246 0.026387988 0.067311265 0.06442739
0003d0 af b5 cb 3d de cd ae 3d 2e d0 b2 3d a4 03 db bd
       0.09946763 0.0853536 0.087311134 -0.10694054
0003e0 dc 3a 7d 3d 2f c1 c6 3d 4d a9 17 3d ae 1a 6b 3c
       0.06182371 0.097048156 0.037026692 0.014349623
0003f0 05 68 f9 bd 7e 9c 46 bd d5 5b b1 bc 0c 54 b7 3b
       -0.12178043 -0.048489086 -0.021650234 0.005594736

grucell.weight_hh f4 [192, 64]
000000 59 1b c6 3d ca 00 00 3e 6c 5d b3 3d 80 33 90 3d
       0.09673185 0.12500301 0.08758053 0.07041073
000010 d5 7b ae bd f4 aa db 3d 0a cd f1 bd ca a4 fe bd
       -0.08519713 0.10725966 -0.11806686 -0.12433775
000020 54 86 9d 3d 1b 73 5c bb c6 85 ac 3d a8 bf fa bd
       0.07691637 -0.0033637944 0.08423953 -0.12243587
000030 9e 32 55 3d fb 94 95 bc 6d 7f d3 bd a7 e4 9a 3d
       0.052050225 -0.018259516 -0.10327039 0.07563143
000040 60 e4 f8 3d 7e f7 4d bd bf f6 5a 3d 13 9a 88 bd
       0.12152934 -0.050284855 0.05345797 -0.06670012
000050 db 91 a5 3c 8f 22 d0 3d 76 e1 b0 bd 6b 09 b6 bd
       0.02021115 0.101628415 -0.08636753 -0.08888515
000060 e8 c1 bd 3d fe 9f a1 bc cd 89 12 bc 25 22 c5 3d
       0.092655 -0.01972961 -0.008943987 0.09625653
000070 06 f4 26 3c 4f e8 d6 bd ca 42 60 bd b0 2d fe 3c
       0.010190016 -0.10493528 -0.054751195 0.031027645
000080 71 05 2b bd af bc a1 3d 2a 59 9e 3c d9 79 b6 3d
       -0.041753236 0.07897317 0.019329626 0.08909959
000090 a0 5a d8 3d c2 66 14 bd bf 26 90 bd e5 31 82 bd
       0.1056416 -0.03623081 -0.0703864 -0.06357173
0000a0 56 17 ae 3d c4 7f b7 ba 59 ed 88 3c 0c 3b 32 bc
       0.08500545 -0.0013999869 0.016714739 -0.010878336
0000b0 85 2a 92 bd 2e cc 30 bd 31 ef c6 bd 76 89 88 bd
       -0.07137016 -0.04316347 -0.09713591 -0.066668436
0000c0 94 52 ac bd e9 46 20 3d 97 45 5a 3d 6d b5 3a bd
       -0.08414188 0.039130125 0.053289022 -0.045583177
0000d0 54 c1 d8 3c 9a 2f 79 3c f2 29 d6 bd 9e 56 b2 3d
       0.026459374 0.015209103 -0.10457219 0.08707927
0000e0 90 88 c4 bc 23 87 19 bd 3b 87 c2 3d b8 9f 25 3d
       -0.0239909 -0.037482392 0.094984494 0.040435523
0000f0 c0 ba a5 3d 92 8b ba 3d a1 61 9e 3d 05 0a 89 3c
       0.0809226 0.09108652 0.07733465 0.01672841
000100 85 11 8f 3d fd dd 46 bd 43 94 b3 3d 1d 05 fe 3d
       0.069857635 -0.04855155 0.08768513 0.12403319
000110 00 7d f2 3b f1 00 79 bd c4 b2 9b 3d 2f 06 90 3d
       0.007400155 -0.060791913 0.07602456 0.070324294
000120 e9 77 da 3d df f9 d5 bb 06 90 f3 bd 93 25 bd 3c
       0.10667402 -0.006530031 -0.11892705 0.023089206
000130 55 2a 3a bd d8 7c 4d 3d 2b 09 1f 3d 86 62 e3 bd
       -0.045450527 0.05016789 0.038827103 -0.11102776
000140 0d 42 0c bd 4d 84 47 bc de ac 2e 3d e2 b5 94 3b
       -0.03424268 -0.012177539 0.042645328 0.0045382837
000150 01 05 65 3c 2d 99 bc 3d 1c b7 8d 3d 44 76 e1 bc
       0.013978244 0.092089035 0.06919691 -0.027522214
000160 2a 72 05 3d bd cc 3f 3c 10 cc 9a bd 6d e8 94 bd
       0.03257958 0.011706528 -0.07558453 -0.07270894
000170 eb d1 e6 bb 0b 4a fa 3d 4f d1 a8 bd 48 2a d9 bd
       -0.007044067 0.12221154 -0.082430474 -0.10603768
000180 23 b0 20 3d ba be d3 bd 71 f3 6a bd 6b f4 26 bd
       0.039230477 -0.103391126 -0.05736107 -0.04076044
000190 35 eb b4 bd d0 e7 83 3d 0c e7 53 3d 0a fd d6 bd
       -0.08833925 0.06440699 0.051734015 -0.10497482
0001a0 f7 38 47 bc ea 82 fe 3d 7a b0 a2 3b 2d 6d be bd
       -0.012159578 0.124273136 0.0049648853 -0.092981674
0001b0 0a 64 8f 3d dd e7 db 3c 70 59 73 3c 7b a8 4b bd
       0.07001503 0.02684396 0.0148528665 -0.049721222
0001c0 a9 94 5a bd 0f 3a 31 bd bf 74 04 bd 9b 91 33 3c
       -0.05336443 -0.04326826 -0.0323379 0.010960008
0001d0 11 f2 da 3d b7 39 ba 3d 4d 16 d4 bd f1 23 a1 3d
       0.10690702 0.090930395 -0.10355816 0.078681834
0001e0 6c b4 cf bd 27 91 86 bd a7 60 90 bd c3 dd f8 bd
       -0.101418346 -0.06570654 -0.07049685 -0.12151673
0001f0 d7 2f 52 bd 16 5b 68 bd af 4c b3 bd eb 02 8c 3c
       -0.051315155 -0.05672749 -0.087548606 0.017091235
000200 cb 9e 5d bc b9 7d b8 3d ed a3 3b 3d 35 b5 d2 3d
       -0.013526629 0.09008355 0.04581063 0.10288469
000210 d6 86 d8 bd 27 2b 2d bd c4 a3 d2 bd 2c a2 11 bc
       -0.10572593 -0.04227748 -0.10285142 -0.008888762
000220 50 72 30 bb 9c 99 30 3d 52 4c 5f bd e6 1d fa bc
       -0.0026923604 0.043115243 -0.054516144 -0.030531835
000230 c8 09 bc bd de e0 d7 bc 16 ef a1 bc 5a b7 c8 3c
       -0.09181553 -0.026352342 -0.019767325 0.024501491
000240 5d ed 70 bc 8e e9 6f 3d af 91 24 3d 88 5c 8f 3d
       -0.014705029 0.058572344 0.040177997 0.07000071
000250 cf 00 9b bd dc 8c 98 3c 82 0b 46 bd f7 b5 fa 3d
       -0.075685136 0.018621854 -0.04835082 0.12241738
000260 15 54 d7 bd 73 b8 84 3d 8d be d3 3d d4 59 02 bd
       -0.10514084 0.064804934 0.10339079 -0.031823948
000270 5d 23 3d bd ee b7 6b 3d 60 d7 b5 bb 34 6b cb 3d
       -0.046176303 0.057548456 -0.0055493563 0.09932557
000280 6b 60 d5 bd 91 b9 fa 3d b1 c2 b5 bd 5b 5b 04 bd
       -0.10418781 0.12242425 -0.08875025 -0.032313686
000290 f0 59 f9 3d 1f f4 e0 3d 00 3e b1 3d 09 15 a6 bd
       0.12175357 0.109840624 0.08654404 -0.08109481
0002a0 36 83 f2 bd 19 95 3a bd 7a fe ce 3d cf 7d 9a bd
       -0.11841433 -0.045552347 0.10107131 -0.07543527
0002b0 74 49 cf 3c 52 0e d0 3d 97 cd de 3d 04 95 29 bd
       0.02530358 0.101589814 0.10879057 -0.041401878
0002c0 2a e8 e2 bd 2a e2 e0 bc db c3 b7 bc 06 01 a9 bd
       -0.11079438 -0.027451593 -0.022432258 -0.08252148
0002d0 a9 03 b5 bd 1a 3c e1 3d 4d aa 8b bc b9 37 57 bd
       -0.08838589 0.109977916 -0.01704898 -0.052543376
0002e0 ae f8 a5 bd e4 84 ae bd ab 48 f9 3d a1 fd 9c bd
       -0.081040725 -0.085214406 0.121720634 -0.076655634
0002f0 5a 86 ac bd 8c 09 d6 bd ef e7 f6 3d 6c 06 7f bd
       -0.08424063 -0.1045104 0.120559566 -0.062261984
000300 73 4c a8 3d dd 8a b8 ba 8f 9a 93 ba d8 b5 2d 3d
       0.082177065 -0.001407947 -0.0011261272 0.042409748
000310 ce 12 cc bd 54 bf ac 3d 9a a3 67 bd dc 25 92 3d
       -0.09964524 0.084349304 -0.056552507 0.07136127
000320 eb 48 d9 3d 6e 68 df bd ab ce 98 3d 9f bd 88 bc
       0.10609611 -0.1090859 0.07461294 -0.01669198
000330 82 1e c2 3c cb 09 80 3d 4e c4 b6 bd 1f dc fd bc
       0.023696188 0.06251868 -0.08924161 -0.030988751
000340 de 0c 91 bc 75 f8 b5 bd 5c a3 b3 bc a3 60 a2 bc
       -0.01770633 -0.0888528 -0.021928482 -0.01982147
000350 91 80 99 bc 25 e9 0e 3d 37 61 a8 bd cc 03 b0 bd
       -0.018738063 0.034890313 -0.08221667 -0.08594474
000360 63 98 2f 3d ad c9 91 bd 81 8b a3 3c 53 c5 bb 3d
       0.042869937 -0.07118545 0.019963982 0.09168496
000370 0b 06 44 3c 3e d5 36 3c d1 5a e8 bd 53 38 17 3c
       0.011964331 0.011159239 -0.11345447 0.009229737
000380 b7 a8 25 bd 67 0f b6 bd de a5 98 3c 42 9d 91 bc
       -0.040444102 -0.088896565 0.01863378 -0.017775182
000390 51 65 da 3c 59 c4 b5 bd a4 e2 c2 bd 79 92 92 bd
       0.02665964 -0.08875341 -0.095158845 -0.07156844
0003a0 02 83 90 bd a8 9b f4 3a bb b5 8b bd ae 77 89 bd
       -0.07056238 0.0018662112 -0.06821772 -0.0671228
0003b0 45 65 a6 bd 56 9d 7d 3b db 67 4c bc 7b 36 b4 3d
       -0.081247844 0.0038698516 -0.012475933 0.08799454
0003c0 4e dd 95 3d ce 3c 0c 3d 4c 12 51 bd f1 a0 96 3d
       0.07317601 0.034237675 -0.05104284 0.07354916
0003d0 aa af fd 3d 7e 1f 92 3d 53 28 ff 3c 1b 8a fc 3d
       0.12387021 0.07134913 0.031147158 0.12331029
0003e0 34 c0 e1 3d 5e 03 de 3d c2 68 85 3d 70 ad a6 bd
       0.11022988 0.10840486 0.065141216 -0.08138549
0003f0 ce 9a 52 bd 47 86 d3 3a a7 0f 02 bd 35 0f 37 bc
       -0.051417165 0.001613804 -0.03175321 -0.011173059

grucell.bias_ih f4 [192]
000000 28 ef 4c bc 62 c2 e1 3c 40 a0 7f bb 54 19 f2 3c
       -0.012508191 0.02755851 -0.0039005429 0.029553093
000010 9d 8a ae 3d b2 2e 5f bd 1b 23 b8 bd c2 37 a8 3c
       0.08522532 -0.05448789 -0.08991071 0.0205344
000020 d2 4f da bd 4e 88 3f bd db ad fc 3b 3a cc c5 bd
       -0.10659756 -0.04676085 0.007711155 -0.09658094
000030 d5 2b a0 bd e0 0f be 3d bd 8a 03 3e fa ea ab bc
       -0.0782086 0.09280372 0.12845893 -0.020986069
000040 08 31 d1 bd 36 62 0e 3d 1e 2d 82 bd 01 e1 fb bd
       -0.1021443 0.03476163 -0.06356262 -0.122987755
000050 f1 a9 77 3c 40 23 75 ba d6 fe 33 3d fb 49 46 bd
       0.015116201 -0.0009351261 0.043944202 -0.048410397
000060 cb 55 71 bd d2 d4 aa 3d 65 1e 21 3d 58 8d 28 3c
       -0.05891971 0.083413735 0.039335627 0.010287605
000070 bb 18 d0 bd 7c 80 00 bd 22 da a9 3c b7 a4 97 bd
       -0.10160967 -0.031372532 0.020733897 -0.07404464
000080 13 51 19 3d 5c 9d aa 3c 76 50 da 3d 46 50 db bb
       0.037430834 0.020826988 0.10659878 -0.006692919
000090 a4 e3 c6 bd e3 27 a7 3d 96 de 77 bd f6 0e c9 bc
       -0.09711388 0.08161905 -0.06051501 -0.024543267
0000a0 70 46 97 3d 20 6e 8a bd 0c 06 cc bd ad 3f b0 3d
       0.07386482 -0.06759286 -0.09962091 0.08605895
0000b0 68 13 db bd b8 08 0c 3d 9f f9 ac 3c 5c 78 45 bc
       -0.10697061 0.034188002 0.021115122 -0.012052622
0000c0 1f f4 a6 bd a5 dc 29 3d a7 8e cb bd ee 82 7c bd
       -0.08152031 0.04147019 -0.09939318 -0.0616483
0000d0 23 fe 57 ba af d1 62 3c 55 bd 43 3d fc aa 29 bd
       -0.00082394684 0.013843938 0.047787983 -0.04142283
0000e0 c6 cd 94 3d 1f 59 e5 ba 22 1a 70 3d 22 ee 76 bd
       0.07265811 -0.0017497874 0.058618672 -0.060285695
0000f0 11 f7 86 3d 4f 1d 9c bb b7 53 01 bc aa 15 f1 3d
       0.06590093 -0.004764236 -0.007893494 0.1177171
000100 ae 1c c2 3c 03 b2 06 3d a6 44 54 3a 8c 75 a8 3d
       0.023695316 0.03288461 0.00080973876 0.08225545
000110 5a c0 79 bd 39 40 e8 bd ef 0a 43 bd ae 3b a8 bc
       -0.060974456 -0.113403745 -0.04761785 -0.02053627
000120 c3 64 b5 bc d9 1b 94 3d b9 55 0b 3d 71 97 16 bd
       -0.022142773 0.07231874 0.0340173 -0.03676552
000130 de ee 18 bd f4 64 9d 3d 95 a4 38 bd 4c 6e f0 bd
       -0.037337177 0.07685271 -0.045078833 -0.117397875
000140 52 c6 75 3c 05 b5 d1 3d 44 05 53 bd a2 67 80 bd
       0.0150008965 0.10239605 -0.051518694 -0.062697664
000150 6d 63 9b 3c 8f a3 01 3d 30 e3 fb 3d 57 af a5 bd
       0.018968308 0.031650122 0.12299192 -0.08090084
000160 64 31 79 3d d9 9b 7f 3d f7 47 1f 3c db 6c 9d bd
       0.06083812 0.062404487 0.009721748 -0.07686778
000170 a8 b1 99 bd e0 11 fc bd 6c c2 b9 bd f0 33 c6 3d
       -0.07504588 -0.12308097 -0.09070286 0.09677875
000180 a7 b2 75 bd 3a 54 84 3d 47 ad 62 3b a7 ba a6 3d
       -0.05998483 0.064613774 0.0034588145 0.0814107
000190 96 28 f3 bd 23 58 97 3c ec 27 9b bc 1c 75 fb bd
       -0.118729755 0.018474644 -0.018939935 -0.12278196
0001a0 63 e9 2d 3d 9b 62 4f 3d d7 ad 24 bd 92 cd b2 bd
       0.042458903 0.050631147 -0.04020485 -0.08730616
0001b0 ce ff d4 3c 87 45 ea 3c fe 50 f2 bd a4 b1 e8 bd
       0.026000883 0.028597606 -0.11831854 -0.11362007
0001c0 2c 80 25 3c 65 cb df bc a5 89 ca 3c 2b a1 e7 bc
       0.010101359 -0.027318666 0.024723837 -0.028275093
0001d0 5b 50 62 bc 44 61 c7 bc 16 b6 d0 bb 6c 01 fa 3d
       -0.013813104 -0.024338372 -0.0063693626 0.122073025
0001e0 22 79 90 bd 2b 5f b4 3d b9 9f c4 3d 1d 26 2c bd
       -0.07054354 0.08807214 0.09600777 -0.042028535
0001f0 bc bb d6 bc ce 06 a7 3d 32 01 ee 3d 54 54 68 3d
       -0.026212566 0.08155595 0.11621322 0.056721047
000200 0f 71 b6 bd 70 e2 e8 3b 1a f5 86 bd b9 e1 ad 3d
       -0.08908283 0.0071070716 -0.06589718 0.08490319
000210 97 37 7a 3d fc cf d3 bb fc ee 12 be e0 2d a4 bd
       0.06108817 -0.0064640027 -0.14348978 -0.080165625
000220 97 57 ff bc 8c ea 80 3d 93 f6 21 bc 77 a0 ac 3c
       -0.031169696 0.06294736 -0.009885448 0.02107261
000230 79 5d f1 bd be 82 98 bd c9 02 3b be 13 7d aa bd
       -0.117854066 -0.07446812 -0.18262781 -0.08324637
000240 fa c4 a9 bd 93 c8 17 3c 2b 35 19 3e 51 2c 2b 3e
       -0.082895234 0.009264129 0.14961688 0.16716124
000250 3b 81 83 be e0 fb b5 bd b7 fe e1 bd 5c f8 54 3d
       -0.25684533 -0.08885932 -0.11034911 0.051994666
000260 3e 6a 3e be 88 55 00 3e e7 12 83 bc 85 53 18 be
       -0.18595216 0.12532628 -0.016000224 -0.1487561
000270 86 e1 98 3d aa 8c 4a be 34 e4 61 3e 4e 5c 17 3e
       0.0746489 -0.19780222 0.22059709 0.14781305
000280 c3 8d cc bd ca 78 5e 3d 9b 70 f9 bc ae f4 17 3e
       -0.099879764 0.054314412 -0.030449202 0.14839432
000290 dc a9 0b 3e 52 18 83 3e 2d 92 69 be 7b 2a 0f 3e
       0.13639015 0.25604492 -0.22809668 0.13981049
0002a0 22 14 21 3e 33 d1 29 3e c8 7f d0 3b 04 3f 5c 3e
       0.15730336 0.1658371 0.006362889 0.21508414
0002b0 27 20 aa 3d e9 b7 8e bc 3f 66 25 be 13 02 9e 3b
       0.08306914 -0.01742168 -0.16152285 0.0048220246
0002c0 a9 ba 2d 3d 58 aa 34 3e 4c 74 08 3e 82 7a 6e 3e
       0.04241434 0.17643106 0.13325614 0.2328892
0002d0 66 87 05 3d fb e4 70 bd e5 80 2a 3d 2f 55 15 be
       0.03259983 -0.058812123 0.04162683 -0.14583276
0002e0 29 99 e0 bc bd 24 21 ba 01 39 d6 3d b0 68 05 bd
       -0.027416782 -0.0006147137 0.104600914 -0.03257054
0002f0 d7 95 1f be 1b 93 a0 3d f3 47 13 be 7a a1 27 3e
       -0.15584503 0.07840558 -0.14382915 0.16370192

grucell.bias_hh f4 [192]
000000 d4 ae 4e 3d ea 19 b5 3d 93 14 57 bd 1d aa 88 3d
       0.050459698 0.08842833 -0.052509855 0.066730715
000010 75 bf fa 3d 22 65 d6 3d 6f a3 c6 3d 29 02 e5 3d
       0.12243549 0.10468508 0.09699141 0.11182053
000020 45 32 99 bb d6 82 0e bd 47 c3 b5 3d 5c d0 96 bd
       -0.004675182 -0.034792744 0.08875137 -0.0736396
000030 eb 2b 96 bd 83 b7 29 3d 8c e4 63 3c e6 20 eb bd
       -0.073325954 0.041434776 0.01390947 -0.11480884
000040 20 e5 87 bc 6a 1b f5 bd c8 93 ad bd 6e 54 69 bd
       -0.016588748 -0.119681194 -0.08475453 -0.056965284
000050 f8 62 c4 3d 5b cf ee bd 46 7d 06 3d bd 6f ba bc
       0.09589189 -0.11660644 0.032834314 -0.02275836
000060 7f a0 90 bd 9f 7b 49 3d b1 67 08 3d 8c 51 84 3d
       -0.07061862 0.04919016 0.033302013 0.06460866
000070 c9 ca 86 bd 3f b5 f9 3d e4 72 f5 3d a5 c5 f4 3d
       -0.06581647 0.12192773 0.11984804 0.1195176
000080 65 11 c3 bd d1 66 80 3d f8 24 be 3d ea 88 e1 3c
       -0.09524802 0.06269611 0.09284395 0.027531106
000090 76 df b9 3d 9b a8 96 3d 9c d1 81 3c af fe 0c 3a
       0.09075825 0.07356378 0.01584702 0.0005378527
0000a0 42 16 c5 3d 0c 3e a4 bd 11 ff ac 3c dd 0c ca 3d
       0.09623386 -0.08019647 0.021117719 0.09865735
0000b0 06 d4 dc 3c d4 b3 d1 3d 1c 25 de 3d c5 bf a2 bd
       0.02695657 0.102393776 0.10846922 -0.079467334
0000c0 be d6 c4 3c e2 8c ab bd 69 1d b8 3d ce 4f 0c bd
       0.024028178 -0.08376481 0.089899845 -0.034255795
0000d0 11 6a eb 3d f5 ce 1b bb 9a fc 18 bc 94 e5 52 3d
       0.1149484 -0.002377448 -0.009337569 0.051488474
0000e0 32 f6 fb 3d c6 a6 9c 3d 79 00 c0 bd 30 74 0d bd
       0.123028174 0.07648997 -0.0937509 -0.034534633
0000f0 bd 2e cb bd 00 93 73 b9 a7 89 8c bd c4 6a 30 bd
       -0.09921024 -0.00023229048 -0.068621926 -0.04307057
000100 c2 cb ac bd 7c 57 88 3d 1f ff b0 3d 52 c2 cb bc
       -0.08437301 0.06657311 0.086424105 -0.024872933
000110 09 95 9d 3c 25 88 f9 3d 2f 7e b4 3c 2d 67 56 3d
       0.019236105 0.12184171 0.022032825 0.05234449
000120 aa 22 45 3c ec 60 5c bd 48 1d c8 bd c7 35 12 3d
       0.01203219 -0.05380337 -0.0977121 0.035695817
000130 39 80 9d 3d dc ca c4 3d 99 9a 4e bd c2 87 e0 3d
       0.07690472 0.09609005 -0.050440405 0.10963394
000140 9e 4f 5c bc 19 e8 ea bd 23 b6 8c 3d ce 80 3c 3c
       -0.013446717 -0.1147005 0.06870677 0.011505319
000150 20 a8 ff ba 91 69 14 bd ea a3 f7 bd 2d ff ab 3d
       -0.0019505061 -0.03623349 -0.12091811 0.0839828
000160 ed 54 6b bb 01 50 51 3d 96 07 95 3d c9 ad 10 3d
       -0.0035908774 0.05110169 0.072768375 0.035321984
000170 a4 8f 52 3d d3 77 8d 3b cc a2 8c bd e8 66 b0 bd
       0.051406518 0.0043172627 -0.068669885 -0.08613378
000180 8c c1 aa bd ae 36 99 3d 62 12 12 3d b0 5f 5a 3d
       -0.083376974 0.074811324 0.035662062 0.05331391
000190 d2 83 84 3c 2e 29 ad bd cf ba 5f bd 1a ba e2 3d
       0.016176138 -0.0845512 -0.054621514 0.11070652
0001a0 2d 0d 6a bd 31 7b 0d bd d9 6f 0d 3d f6 4c a6 bd
       -0.05714147 -0.034541313 0.034530494 -0.08120148
0001b0 e8 48 1c 3d 33 54 cc 3d b1 e7 3d bd 41 2b b0 bb
       0.038155466 0.09976997 -0.046363536 -0.00537625
0001c0 0d 90 89 bd 1d 67 cd bd 89 46 1b bd 7b 90 01 bd
       -0.06716929 -0.10029433 -0.037909064 -0.031631928
0001d0 72 34 d1 3c 7e 34 91 3d 2a 30 47 3d db c7 0a 3d
       0.025537703 0.0709009 0.048629917 0.033882003
0001e0 0c 2a c7 bd f1 00 9d 3d d9 3b 9f 3d 04 26 ab 3c
       -0.09724817 0.07666195 0.07775087 0.02089215
0001f0 56 37 3d 3d cb 49 48 3d 64 6b a5 bd 75 98 a0 bd
       0.04619535 0.0488985 -0.08077124 -0.07841579
000200 58 54 89 bd 02 0c cc 3d a6 fe b1 bc 49 6f 17 3e
       -0.067055404 0.09963228 -0.021727871 0.14788546
000210 51 48 2a bd 88 40 b0 3c e2 12 0c 3b be 98 e0 bc
       -0.041572873 0.021515146 0.002137356 -0.027416583
000220 45 56 17 be 55 1e 19 be 2e 8b 1d bd 57 16 ce bd
       -0.14779003 -0.14952977 -0.03846281 -0.10062855
000230 4f 70 2d 3c ad 4c 53 3d 11 78 37 be 28 19 4f 3d
       0.0105858585 0.051586796 -0.17916895 0.0505611
000240 ce 25 af 3d 28 d9 3c 3d 54 90 dc 3d 91 9f 3c 3d
       0.085521325 0.046105534 0.10769716 0.046050612
000250 43 8c 3d be 9a b6 fe 3d 5b 00 e3 3d bb 38 a7 bd
       -0.18510537 0.12437172 0.11084052 -0.08165117
000260 3e 37 e0 3b ea 38 5b bd 86 c0 62 bc b6 35 06 be
       0.006842523 -0.053521074 -0.0138398465 -0.13106427
000270 e0 39 cf 3d 98 47 ec 3c c0 e5 e5 3d 54 ea 0b bd
       0.10118461 0.028842732 0.11225462 -0.03415902
000280 10 39 d6 3d 46 3c 21 bd 9b 8d f4 3d 2d ee 10 3e
       0.104601026 -0.03936412 0.119410716 0.14153357
000290 86 55 77 bd 05 37 3c 3e 38 07 0a 3c 20 47 ab 3d
       -0.060384296 0.18380363 0.008424573 0.083631754
0002a0 96 15 0b 3a bd 4a 27 3e bc 91 3f 3d df 6a 27 3d
       0.0005305646 0.16337104 0.046769843 0.040873405
0002b0 ea 0b 30 bd 10 87 a2 bc 02 ec cf bb ae be 16 3d
       -0.042980112 -0.019839793 -0.006345273 0.03680294
0002c0 32 59 cd bd 13 d2 0f 3e b1 4e 89 3d 54 26 19 3e
       -0.10026778 0.1404498 0.06704462 0.14956027
0002d0 ea 2c be 3d e6 9a d5 bd 3e 71 31 3b d8 6d 43 3d
       0.092859104 -0.10429935 0.0027075554 0.047712177
0002e0 6f 67 03 bd 36 b9 c2 3c 26 97 a1 bd fd fc 0f 3e
       -0.032081064 0.023769956 -0.078901574 0.14061351
0002f0 fb 72 95 bd fa e6 a1 bd 09 33 f5 3c b6 b5 8e bd
       -0.072973214 -0.079053834 0.029931562 -0.06968252

linear.weight f4 [2, 64]
000000 c5 9a 03 bd cb d0 a5 3d 95 20 8b bd a5 5d 0d bd
       -0.03213002 0.08096465 -0.06793324 -0.034513135
000010 c2 63 b6 3d 59 ba cb bd b5 86 03 be 53 9d f9 bd
       0.08905746 -0.09947652 -0.12844355 -0.1218821
000020 f4 58 a4 bd 21 78 70 bc b9 0c 9c 3d e5 e0 e9 3d
       -0.08024779 -0.014677078 0.07619614 0.11419848
000030 0a ea d9 3d 81 af 97 3d a0 55 f9 3c a4 0f d7 3d
       0.106403425 0.074065216 0.030436337 0.1050103
000040 da 40 e2 bd 8a ce 57 3b c7 b8 1d 3d ea 84 be bd
       -0.11047526 0.0032929503 0.038506296 -0.09302695
000050 53 e8 a8 bd 9a 52 a8 3d 2e 03 e4 bd 5f ea de bd
       -0.08247437 0.0821888 -0.11133419 -0.108845465
000060 0a 69 c2 bd b3 1b 7c 3d b9 08 b0 bc dd a4 f5 3c
       -0.09492691 0.061549854 -0.021488534 0.02998584
000070 63 f9 c4 bd 37 83 63 3c 9a e4 d2 bd 71 ae 89 bd
       -0.09617879 0.0138862645 -0.102975085 -0.06722725
000080 7b 94 50 bd ab 45 62 bc da 4a cc 3c b8 2d 21 bd
       -0.050922852 -0.013810555 0.024938036 -0.03935024
000090 7d b6 52 bd a4 07 d3 3b 3d 09 a1 bc 95 29 c5 3b
       -0.051443566 0.00644012 -0.019657725 0.00601692
0000a0 5b da 97 3b 72 c3 01 3e 5a 05 50 3d 42 58 e6 3d
       0.0046341843 0.12672213 0.050786354 0.112473026
0000b0 95 98 ce 3b f6 c8 bb bd be 44 78 bd 74 86 ff 3d
       0.0063048103 -0.0916919 -0.060612433 0.12476817
0000c0 65 48 af 3d 16 5f 5f bd 31 31 35 3c 5d 0b de 3c
       0.0855873 -0.05453404 0.011059091 0.027105028
0000d0 9f f2 c4 3b b9 81 d1 3d 42 91 d0 bd a7 4d a0 3d
       0.006010368 0.10229821 -0.10183956 0.07827311
0000e0 32 dd 58 bd b7 99 ba bd ee 45 9e bd 94 6c 54 bd
       -0.052945323 -0.0911135 -0.07728182 -0.05186136
0000f0 90 1a be bd 10 b2 a2 bd 9d a4 be 3d 40 40 77 bd
       -0.0928241 -0.07944119 0.09308741 -0.060364008
000100 3b e7 e9 3c 1a 31 3d 3d c4 47 a9 3d 20 0d 9f 3d
       0.028552642 0.046189405 0.08265641 0.07766175
000110 15 30 6d bd 26 82 e3 3d 43 68 c5 3d 10 fb 91 bd
       -0.057907183 0.11108808 0.09639027 -0.071279645
000120 87 f4 0b 3c 39 9d 9c bd 38 61 e5 bc ef 3c df 3d
       0.008542187 -0.07647175 -0.02800046 0.10900294
000130 6d 3e 88 bd d3 96 61 3b 0e a7 1c bd 9e 3a 1e bd
       -0.06652532 0.0034422174 -0.038245253 -0.03863012
000140 06 d8 e3 3d 1e aa af 3d be 4a b3 3c b6 30 e9 bd
       0.111251876 0.08577369 0.021886226 -0.11386244
000150 53 c9 53 3d 03 2c be bc 0d f1 ba bd 52 31 a5 bd
       0.05170567 -0.023214346 -0.09128008 -0.08066048
000160 1f 79 69 bd 96 19 e2 bd 50 57 e1 bd e7 4d 2d 3d
       -0.057000276 -0.110400364 -0.11002982 0.04231062
000170 86 68 d6 3d 76 39 b4 bd 38 f0 b0 3d 02 86 c4 3d
       0.10469155 -0.08800022 0.08639568 0.095958725
000180 99 ae 6c bd 0d 1c 36 3d 3c 73 dc 3b 71 05 71 3d
       -0.057783697 0.044460345 0.006727604 0.05884308
000190 02 0c f3 bd f8 98 54 bd e2 49 fc bc cb e6 c1 bd
       -0.11867525 -0.051903695 -0.030796949 -0.094678484
0001a0 b9 74 f8 bd bb d4 cb bb e8 b9 62 bd 67 bb e2 bd
       -0.12131638 -0.006220428 -0.055353075 -0.110709004
0001b0 8f cb 6e bd 22 5e d2 3d d9 1a 56 bd ac f6 04 ba
       -0.058299597 0.10271861 -0.052271698 -0.00050721574
0001c0 da bd 98 bd ab 5d fe 3d 44 99 ce bd af d0 7e bd
       -0.07458086 0.124202095 -0.10087827 -0.062210735
0001d0 3c 45 b1 bc 8c b2 92 3d ed 09 a8 3d c7 98 92 ba
       -0.021639459 0.07162961 0.08205018 -0.0011184447
0001e0 f0 2b 0f bd dd b1 d9 3b 46 85 3d 3d 1d 1f a1 3d
       -0.03495401 0.0066435174 0.046269678 0.078672625
0001f0 dc 9c 9e 3d c0 3a 2d 3d 4a 3e b1 3c f9 f6 97 3d
       0.07744762 0.042292356 0.021636147 0.07420153

linear.bias f4 [2]
000000 89 8f e3 bc 77 f6 73 bc
       -0.027778404 -0.014890305

linear_final.weight f4 [5, 64]
000000 4b 80 8d 3c cf 06 e4 3d 31 27 e4 3c e2 6d c5 3d
       0.017273089 0.11134111 0.02785072 0.09640099
000010 cb 52 bb bd 75 49 a4 3d 20 0c 01 be 13 bb f7 3c
       -0.09146651 0.08021823 -0.12602282 0.030240571
000020 14 0d ab bc c9 45 72 bd 24 20 1e 3c 99 3b f6 3d
       -0.02088026 -0.059148584 0.009651218 0.12023086
000030 77 63 1c bd ad cc ae bd 93 b6 dc bc a7 aa e8 3d
       -0.038180795 -0.085351326 -0.026942527 0.11360674
000040 18 f9 7f 3d ef 4c 35 bc 7d 14 1b 3d 16 87 e1 bb
       0.062493414 -0.011065706 0.037861336 -0.0068825586
000050 9d 29 00 be d6 2e ee bd 00 be ee bd c5 60 42 3d
       -0.12515874 -0.11630027 -0.116573334 0.047455568
000060 ad f6 c4 3b b4 62 a6 bb c7 08 4f 3d c7 3d a2 3d
       0.0060108514 -0.0050776843 0.05054548 0.07921939
000070 68 b6 25 3c 4f ae c4 3d 47 dc 97 bd 50 d6 fb 3b
       0.01011429 0.09603559 -0.074150614 0.00768546
000080 4a 80 8d bc 96 5c c4 bd 52 38 0c be d1 73 1e bd
       -0.017273087 -0.09587972 -0.1369336 -0.03868467
000090 62 91 ba bc d8 d4 9d bb e0 f0 9f bd 46 0a d1 3d
       -0.022774402 -0.0048166327 -0.07809615 0.10207038
0000a0 cd 31 03 be 20 3b 15 3d 54 a6 3d bd 6b cb 56 bc
       -0.12811966 0.03643334 -0.0463012 -0.013110022
0000b0 22 49 31 bc 3c 4e 87 bc ff 52 b9 3d 0f 92 ac 3d
       -0.010820659 -0.016516797 0.090490334 0.08426296
0000c0 fd b8 41 3d 9d db 7a bb 20 b1 fd bd 82 94 ba 3d
       0.04729556 -0.0038277872 -0.123872995 0.09110357
0000d0 fb df 2f bd b9 89 94 3d ac 80 de 3d e1 30 2b 3d
       -0.042938214 0.07252831 0.10864386 0.04179466
0000e0 09 a9 00 3e 0e ac ab bd 73 30 00 bc 58 9c b6 3c
       0.12564482 -0.08382426 -0.007824051 0.022291347
0000f0 a1 a0 1f 3c a1 67 c1 bc 65 6e 82 bd 70 e0 3b 3d
       0.009742887 -0.023608984 -0.06368712 0.045868337
000100 91 09 82 bd 48 2c 6e bc f6 61 ee bd 83 87 94 3c
       -0.06349481 -0.014536925 -0.11639778 0.018131023
000110 08 2f f9 3b 80 7d d7 3c 16 bb 55 bd a6 39 89 3d
       0.0076044835 0.02630496 -0.052180372 0.06700449
000120 05 ba a0 bd 43 c1 9f bc d5 6a fe 3d 0c 25 47 3d
       -0.078479804 -0.019501334 0.1242272 0.048619315
000130 8f a0 c4 3c ec 7f ff 3d c3 63 c7 bd eb e1 eb 3d
       0.024002342 0.12475571 -0.09735825 0.115177
000140 4d c4 86 bd 10 7c a5 bc 2c 14 fb bc c4 62 d8 bd
       -0.0658041 -0.02020076 -0.030649267 -0.10565713
000150 46 78 df bc b5 eb eb bd 63 66 bb bc 7d 56 62 3c
       -0.02727903 -0.11519567 -0.02287597 0.013814566
000160 fc cb af 3c 4b a1 4c bc ad f0 17 bd 40 b7 60 bc
       0.021459572 -0.012489627 -0.03709476 -0.013715565
000170 eb 6f 05 3c 50 1c c0 3b 4a 5d b6 bd 46 c2 90 3c
       0.008144359 0.00586275 -0.08904512 0.017670762
000180 5b 80 98 3d eb 15 d8 3d 7b 66 94 bb 4c 3f 19 bd
       0.07446357 0.105510555 -0.004528818 -0.03741388
000190 07 3b dd 3d 1b a7 91 bd d4 b6 bd 3b ae 1e 83 3d
       0.10802274 -0.07111951 0.005789617 0.06402336
0001a0 56 38 3a bd 19 73 22 bd 68 c3 f8 3d 7e f1 90 bb
       -0.045463882 -0.039660547 0.12146646 -0.0044233194
0001b0 8e 9f 8a 3d 41 ca d9 3d fd 2f 1f 3d 0f e1 55 3c
       0.06768714 0.1063428 0.038864125 0.013054146
0001c0 5a eb d1 3d f3 14 ac bd b0 ad d4 3d 33 d4 c2 3d
       0.10249968 -0.08402433 0.10384691 0.0951313
0001d0 ce 73 d3 bd 30 32 b8 bd 44 bb 4a bd 1d 14 e7 3d
       -0.10324822 -0.089939475 -0.049494997 0.11283133
0001e0 aa e5 fe 3d f8 ba 7e 3d 3f 4f b8 3d 42 18 04 3e
       0.12446149 0.062190026 0.0899949 0.12899879
0001f0 e6 bb 59 3b 0d c6 9f 3d 22 0b da bd 0d fc 26 3d
       0.0033223568 0.07801447 -0.10646655 0.040767718
000200 b1 41 01 3e 2b bc eb bc 45 56 a0 3c 55 61 e5 bc
       0.12622716 -0.028776249 0.019572387 -0.028000513
000210 1b 7e 14 3b 26 15 fe 3d a7 8c d4 3d 4d 23 5b bc
       0.0022658173 0.124063775 0.1037839 -0.013375116
000220 a7 f7 45 3d c0 d7 b2 3d 39 99 90 3d f6 a7 f4 bd
       0.048331883 0.08732557 0.07060475 -0.119460985
000230 88 60 32 3c d0 e6 aa 3d 32 a7 16 3e e5 d2 49 3d
       0.010887273 0.08344805 0.14712217 0.04927339
000240 5b 86 a1 bd 1a 17 9c bc ea 1f a7 bd c1 7e 07 bd
       -0.078869544 -0.019053984 -0.08160384 -0.033079866
000250 e5 bd c3 3d ca fb e5 3c f0 c6 30 3b f1 40 7e bb
       0.09557704 0.028074164 0.0026974045 -0.0038796032
000260 9d 1c 03 3e d3 ab a4 bb bc da 88 bd c1 6c 60 bc
       0.12803884 -0.005025366 -0.06682345 -0.013697804
000270 65 20 5d bd f2 99 fe 3d 59 62 2f be 1d 5b de bd
       -0.053985972 0.124317065 -0.1712736 -0.10857222
000280 ac 27 d7 3d 8d 65 e7 3b ab 90 f3 bc 4e 10 06 be
       0.10505614 0.0070616663 -0.029732069 -0.13092157
000290 70 e5 cb bc 72 81 6b be 82 8c 23 3e b7 3c 46 3b
       -0.024889678 -0.22998598 0.15971568 0.0030248591
0002a0 91 c3 b4 bd 89 a1 ed bc 89 2e a6 3d f0 4e a3 bd
       -0.08826364 -0.02900769 0.081143446 -0.079740405
0002b0 48 5e 1c be b1 53 28 bb b6 2b 83 bd e2 94 c0 3d
       -0.1527034 -0.002568465 -0.064048216 0.09403397
0002c0 39 51 50 bc c9 d2 64 bd 7c 2a 79 bd 16 8f d1 bd
       -0.0127146775 -0.055865083 -0.060831532 -0.102323696
0002d0 3a 9f f3 3c 5a 2b a0 3d 09 27 ee bc 31 f9 1d 3e
       0.029739011 0.07820769 -0.029071348 0.1542709
0002e0 1b 05 9e bd 10 83 bd 3d 90 e9 b2 bc a3 84 e2 bc
       -0.077158175 0.09253514 -0.021839887 -0.027651137
0002f0 7c 2b 0e 3e c3 d7 53 bd fa fc 1c 3e 58 74 2a be
       0.13883775 -0.05171944 0.15330878 -0.16645944
000300 47 dd 1b 3e f6 13 66 3c 24 64 a3 bd 49 41 24 be
       0.1522113 0.014042845 -0.07978085 -0.1604053
000310 09 d2 b2 3d 4d fd 0b bd a4 98 2d 3e 0a 04 cb 3d
       0.08731467 -0.034177113 0.16952759 0.0991288
000320 7a 9d e9 3d 3b 79 4d 3d 27 16 2b 3d b7 a9 bb 3c
       0.114069894 0.050164443 0.041769173 0.022908075
000330 5f 36 c0 3b 93 94 80 3d 1c 2c 3a 3e 71 2f c7 3d
       0.0058658565 0.06278338 0.18180889 0.097258456
000340 6b ac b2 3d b4 27 41 bd df f7 1b be a9 a1 23 be
       0.08724292 -0.047157004 -0.15231274 -0.15979637
000350 db 5c 9a 3e f6 63 10 bd a8 a9 b9 3c 20 ab 12 3d
       0.30148968 -0.03525158 0.022663906 0.03580773
000360 c0 9a 2b 3e 6d c0 16 be 98 fb 45 bd 5c 49 41 3e
       0.16758251 -0.14721842 -0.04833564 0.1887564
000370 f4 28 32 bd 6a f3 1d 3e 8a b1 57 be 43 a2 eb ba
       -0.043496087 0.15424886 -0.2106382 -0.0017977435
000380 28 d6 83 3c 4c b0 b2 bc 45 9d f1 bd e0 1a 9e bd
       0.016093329 -0.02181258 -0.11797575 -0.0771997
000390 1e c6 0a be 7c fc 88 be 87 05 5a 3e 0d 06 27 be
       -0.13552138 -0.2675513 0.21291171 -0.16310902
0003a0 74 2a db bd 1e 5c 66 be 6d 1d 92 3c 66 f8 4f be
       -0.10701457 -0.22496077 0.017836297 -0.203096
0003b0 59 e6 98 3d 68 38 e5 bb d2 98 f9 3d 5d 60 85 3c
       0.0746581 -0.0069952495 0.12187351 0.016281301
0003c0 33 8e 8f bc 22 b7 0e be 6e 5f 0a be f9 51 7d be
       -0.01752386 -0.13937047 -0.13512966 -0.24738301
0003d0 e6 4f 13 be 08 8f 73 bd 80 5b 91 bd 84 03 60 3d
       -0.14385948 -0.059462577 -0.0709753 0.054690853
0003e0 66 7b 9c 3d 8b fd b9 bc 3e ce 06 be 7f c7 d3 bd
       0.07640724 -0.022703907 -0.13164613 -0.10340785
0003f0 fd d8 13 3e b5 3f 8b bb 35 84 7a 3c 71 db 58 bd
       0.14438243 -0.004249538 0.01529031 -0.05294365

linear_final.bias f4 [5]
000000 31 e8 56 bd 29 e0 be bc 46 1f bb be d2 cf 21 bf
       -0.05246753 -0.023300247 -0.36547297 -0.63207734
000010 1d ac 3f be
       -0.18718
