model_checkpoint/univ/latest.pth (torch_old, 55823 bytes, 10 tensors)

gcn.gc1.weight f4 [2, 2]
00000000: 8509 f23e 31fb f13e 25ad 793f c111 4bbf
0.47272888 0.47261956 0.9752982 -0.79323965

gcn.gc1.bias f4 [2]
00000000: 78de 84bd c94f 683c
-0.06487745 0.0141791785

grucell.weight_ih f4 [192, 2]
00000000: 3241 09bd 21da 893d 64ad 93bd 490d 1bbe
00000010: 9acf 243d 148e 953e cdd2 143c 5b85 ac3d
00000020: 92e9 80bd c0b2 8a3d a20f 0e3e 9b6d 723c
00000030: 6d93 a93d 6def af3e 1464 13bd 0428 a63d
00000040: 6cc7 1e3d 6778 c63d a4a9 be3c d0e9 30ba
00000050: c6bd 853a ed40 9d3d 6aeb 28bd 6056 45bd
00000060: bc0f 4dbe 33f0 0c3e 290d 103e 0034 ce3e
00000070: 7f0f 9fbd c1ff 473e 6e84 0a3c d5f1 86bc
00000080: bced 53be 52d6 81bd 78cb e5bd 26c5 d73d
00000090: 3b7f c63d f6c9 243d 206a 0cbc 7c29 06be
000000a0: b792 ff3d 26e4 773d 93cd ae3d d4dd ef3d
000000b0: 34e9 b1bd 95e1 e33c 2ce2 b2bc d47c 3cbc
000000c0: 8f09 e6bd 14e9 a83d 4683 00ba 09b0 35bd
000000d0: 7c6f df3d d3d8 a8bd 221a eb3d 6b30 ab3b
000000e0: eca0 1abd 1fdb db3d eb31 77be f895 fa3c
000000f0: 6c3c febd 0f1b 13be 85d9 88bc c574 f4bc
00000100: ab7b d6bd 4d33 e23d 0927 3dbe e759 c73d
00000110: 1f37 17bd d947 363d 10e8 d9ba 1737 493e
00000120: c9c9 e23c b474 053e edf4 983d 5dd0 75bd
00000130: 77b7 103e 2fe1 cbbe 0055 2dbc a7a3 d1bc
00000140: 17f3 023e 1f5d e73d bda8 1d3d 4082 593e
00000150: 0462 f43d 5545 fc3c 0d2e e23d bb38 79bd
00000160: 0150 6cbe ee16 593e 765b bc3c 4ed4 8dbd
00000170: 5756 a6bc b5b2 2b3d 260d fcbd 0e29 bcbc
00000180: 50eb 343d f263 5dbd dc7d c8bc b41d db3d
00000190: ccc7 a93a 4ef9 02be b0c2 f4bd c4c3 3e3e
000001a0: 311b fc3d bf9c 5abd 4005 8abd 3ce8 363e
000001b0: 6e4e 9a3d 8e51 053e 4168 1a3e e7d4 113e
000001c0: 0f8b 163d 260a 28be 39b7 0c3e 7dba 97bd
000001d0: a487 073e 1ff2 473d ffef 3bbb de6b 11bd
000001e0: 3224 67bd a684 a73b 8453 c6bc c8d6 1b3e
000001f0: 8723 48be 8fe0 bb3c 471e e5bc 2c94 c6bc
00000200: 1757 413e 5d4e 043e 7e2d 083e d5d8 443d
00000210: a74f 2fbd af48 38bd 37ff 743e 7f08 9b3e
00000220: bcfe 8c3c 97fa 343e 4c08 3abd bad2 f83c
00000230: 8b2f 2fbe 5549 a5be 5c03 773e 291e e83d
00000240: 0268 d33d d780 e13a ff9a 01bd ad7b fc3d
00000250: 8ebb ddbc 915b 133e b7a7 3cbd bf16 72be
00000260: d4ab 0abd 0a95 8b3e 01ae 283f 301d ec3e
00000270: a057 c03d cdd9 70be 8b50 6d3d f452 04be
00000280: 2b39 62bd dbf2 713e 467e a63d 10fd febc
00000290: 67e4 d4bd b282 bb3d c844 a23d 981f f6bc
000002a0: d7ad c73d fe6f 8ebd 3b27 59be 7d3c 31bd
000002b0: eb0f 243c 6e2c 793d 6fa7 433e 3b4f a23d
000002c0: 46d1 463b 4b56 ad3c e97f d8bd 6b3d 0fbe
000002d0: 698f 2d3d 3f8a 263b 3385 b6bc 48e0 37be
000002e0: 75bc 403d 17c0 42ba a758 74be 845a 9a3d
000002f0: 9537 013d 6a1e e13d 6923 323e 7a91 113e
00000300: 5412 f2bd baf0 053a a932 2d3e fb2c ad3e
00000310: 70b6 8cbd 62b0 633e adb8 1bbd 3676 a9be
00000320: 8a23 44bd 3eff 723c 87d1 fdbd 50ea 6bbe
00000330: 33b2 ba3d becf aa3d 23a0 8ebd 384b 8cbd
00000340: 03cc 8cbe e4ac 66bd c5e3 913c 6adc 883e
00000350: 728a 0e3e d380 1e3f 0c3f 293d 60d6 fdbd
00000360: 4927 373e bbfe 8b3e 3740 adbd a608 14be
00000370: cc17 dc3c 29dd 123e 87a6 ef3d 2a5f d7bc
00000380: 71be 803e fd17 11bc 3fc3 ee3c 1dc4 383e
00000390: 78b7 fbbd 2a0c 823d 1cf4 ed3d 4f7f a13e
000003a0: 6189 cebc da21 153d c41b 283d 1a20 e53b
000003b0: dff1 cebd 18bf 343e 8c8c a9bd 228b 253e
000003c0: 3ad8 793d f747 27bd 3d23 4f3f 2b21 273f
000003d0: 9ca4 cb3e 6d4f 063e 3b76 073e f07c 43bc
000003e0: cb3d b63d d938 243e 02ed aa3d f08d d7bd
000003f0: 2b65 0bbe a474 72be 3cc6 70bd a000 b73c
-0.03350944 0.06731058 -0.07210806 -0.15141787 0.040237047 0.2920996 0.009083462 0.08423873
-0.0629455 0.06772375 0.13873151 0.01479664 0.08280072 0.34362355 -0.035984114 0.08113101
0.038764402 0.09690934 0.02327425 -0.0006748708 0.0010203652 0.07678399 -0.041240133 -0.048178077
-0.20025533 0.13763504 0.1406752 0.40274048 -0.077666275 0.19531156 0.008454425 -0.016472736
-0.20696157 -0.063397065 -0.11220449 0.1053565 0.09692236 0.040231667 -0.008570224 -0.13101763
0.124791555 0.060520314 0.08535304 0.11712232 -0.08687058 0.027817527 -0.021836363 -0.011504371
-0.11232292 0.08247581 -0.0004902374 -0.044357333 0.10909936 -0.08244481 0.11479594 0.0052242777
-0.037751123 0.107351534 -0.24140136 0.030589089 -0.12413868 -0.14365791 -0.016705284 -0.029840836
-0.104728065 0.11044941 -0.18471922 0.097339444 -0.036917802 0.044502113 -0.0016624946 0.19649921
0.02768411 0.130328 0.07468591 -0.060013164 0.14132486 -0.3982024 -0.010579348 -0.02559073
0.12788044 0.11297058 0.038491 0.21241093 0.119327575 0.030794779 0.1104394 -0.060845118
-0.23077394 0.21200153 0.02299283 -0.069252595 -0.020304842 0.041918475 -0.12307195 -0.022968795
0.044169724 -0.054050393 -0.024474077 0.10699025 0.0012953221 -0.12790415 -0.11951196 0.18629366
0.12309874 -0.05337214 -0.067392826 0.17862028 0.075344905 0.13019392 0.15078832 0.14241372
0.03675371 -0.16410121 0.13741769 -0.07408617 0.13235337 0.04881489 -0.0028676984 -0.03550326
-0.056431003 0.0051122485 -0.024209745 0.15218651 -0.19544803 0.022934226 -0.027968539 -0.024240576
0.18880878 0.12920518 0.13298604 0.04805835 -0.04280057 -0.04499119 0.23925482 0.3027992
0.01721131 0.17673717 -0.04541807 0.03037392 -0.1710798 -0.3228251 0.24122375 0.113338776
0.10322572 0.0017204535 -0.031641956 0.12328277 -0.027066972 0.14390399 -0.046058383 -0.2364149
-0.033855274 0.27262145 0.6589051 0.46116018 0.09391713 -0.23520584 0.05793814 -0.12922269
-0.0552303 0.23627798 0.081295535 -0.031126529 -0.10395127 0.091557875 0.07923275 -0.030044362
0.09749954 -0.069549546 -0.21206371 -0.043270577 0.010013561 0.060833387 0.1910684 0.07925268
0.003033714 0.021159312 -0.10571272 -0.13988273 0.042373095 0.002541199 -0.022280311 -0.1795665
0.047054727 -0.00074291363 -0.23861943 0.07536796 0.031547148 0.10992129 0.1739632 0.14215651
-0.11819902 0.00051094184 0.16913857 0.3382338 -0.06870735 0.22235253 -0.038017917 -0.33098
-0.047885455 0.014831362 -0.1239348 -0.23038602 0.0911602 0.08340405 -0.069641374 -0.06850284
-0.274994 -0.056317225 0.017808804 0.26730663 0.1392 0.6191532 0.04131989 -0.123944044
0.1788608 0.2734278 -0.08459514 -0.14456424 0.026866816 0.14342178 0.117016844 -0.026290495
0.25145295 -0.008855817 0.029145835 0.18043561 -0.12290853 0.06349976 0.11618826 0.3154244
-0.025211992 0.036409236 0.041042104 0.006992352 -0.10104727 0.17651021 -0.0827876 0.16166356
0.060997225 -0.040840115 0.80913144 0.65284985 0.39774024 0.13116236 0.13228695 -0.011931643
0.08898505 0.1603731 0.08345987 -0.10525119 -0.13612811 -0.23677307 -0.0587828 0.022339165

grucell.weight_hh f4 [192, 64]
00000000: 7950 9f3d aa4d 1e3e 5f2a a13d b4a1 913d
00000010: c14a b1bd 74fa e03d 6dbe 14be bc45 08be
00000020: bcd8 9e3d f004 e4bc 0ec9 b73d 96d8 dcbd
00000030: fbb4 433d 69f5 0bbd c986 e1bd 8c91 963d
00000040: 3475 cf3d 6545 5dbd 5a65 803d fc00 aabd
00000050: 8ded 8f3c 59c7 fd3d d084 b6bd 5efe b9bd
00000060: 44e7 ad3d 043c f5bb 10b6 0fbb e5c3 cd3d
00000070: d1bb 80ba b72b acbd 6222 a5bd d14e ef3c
00000080: 58f7 01bd d3df d23d 2cdf 563c d3cd d33d
00000090: 7d25 f33d b684 f3bc 6a8b 87bd 02a4 92bd
000000a0: 28ab cf3d 8891 f3bc 94be 643d 308a 4ebc
000000b0: bb96 b6bd b99e 67bd c781 aabd 30ba 7cbd
000000c0: 4858 b4bd 29c9 3d3d 33f8 373d 1952 9cbc
000000d0: 96f0 803c c689 013d 8283 e5bd 25c5 a23d
000000e0: cd6d 29bc a4cb 97bd 0c6b d43d 2905 2e3d
000000f0: 3d63 b53d 5366 e73d d440 8e3d 964c 893c
00000100: ee89 a13d 6a6a 77bd 611b bb3d 8d89 013e
00000110: 3ca6 ba39 0f1e a2bd 8780 513d 3a23 703d
00000120: 86b8 be3d 6d83 733b 378d 0cbe 21ca 043d
00000130: d4b8 0cbd a973 b43d 643e edbb 88b8 eabd
00000140: ba12 4bbd b24e b3bc 2f1c 143d a4a8 50b8
00000150: def9 893c c2d7 903d f7d9 833d 3442 0abd
00000160: 9d97 583c e205 4b3c 3081 8cbd fc04 a2bd
00000170: 8e77 1fbc 44ab 3d3e f943 d1bd f6cf d2bd
00000180: 1faf c83c 08f4 0bbe cd69 74bd ec8c 15bd
00000190: c90e a4bd 6205 a43d 0389 953d fc60 c3bd
000001a0: 8c38 67bc 2056 203e 4d0b 4d3d fe08 bbbd
000001b0: 3f98 b73d 8721 bf3c a50f dd3c c4b7 39bd
000001c0: aa2e 15bd 7f05 14bd 05d4 ddbc 054c 0b3c
000001d0: d730 b63d f6ac e83d 7581 fdbd 7c99 9e3d
000001e0: c1be 89bd dde1 1ebd 4e36 a2bd e40e 10be
000001f0: e297 41bd 39f7 60bd bd61 eabd 2343 023d
00000200: e5fb 02bd b067 e33d e6f7 163e 595b 023e
00000210: fd3f b1bd 7229 49bd dc09 03be ffd2 0dbd
00000220: 527d 03bc cd17 d73c e9c8 70bd 7eb1 df3b
00000230: ac4a 18be af6a 7bbd 1cb5 12bc a75b 983c
00000240: 9470 8abd 0d6c 293d 2e13 663d b0a4 a33c
00000250: c108 4ebd a3ff 0abc 1845 3ebd 3b0e 983d
00000260: 9fa0 1cbe e89e 7c3d f6e4 943d 66d6 9e3a
00000270: 0067 98bd aceb 023d ea3d 09bd 36b1 d43d
00000280: e29d ebbd 78ec b13d edd0 23be 7e79 4e3c
00000290: d961 d13d a59f d93d 01c1 e63d fdbe 9cbd
000002a0: c94e 66be f673 5dbc 9ae9 1cbc b7a2 b5bd
000002b0: 3d5f 133d ea7b 7e3d 6118 283e c55b e1bb
000002c0: 20f1 e5bd d3aa afbc 71e5 4fbd 0362 79bd
000002d0: 3fa3 12be 3bda 1f3e ea52 70bd ac8d a8bd
000002e0: ea67 92bd 7f49 67bd 4eff 2c3e eb82 88bd
000002f0: 87ae 98bd 190e b8bd 734f d33d 51d7 a3bd
00000300: ba1c 913d fd4e b8bb 7494 533a 7177 193d
00000310: efc7 c9bd 9692 ac3d 2cec 39bd cc2e a93d
00000320: 0db9 d83d b9cf eabd 1642 9b3d 3ad8 91bc
00000330: c248 aa3c 8db8 4b3d 4cd4 adbd 7d70 ddbc
00000340: bed9 b2bc bfc6 b0bd 41ed 0bbc 8e99 03bd
00000350: f2dd a5bc 295d 2a3d db61 a8bd c2b7 c9bd
00000360: eb6d 643d 6568 9cbd ce10 173d 96ce bc3d
00000370: 2b41 a73c cafa aebc 479f c4bd 0b30 ac3c
00000380: 1f4f d7bc 939f 7dbd c485 fe3c 59fa 75bc
00000390: fb1b 0a3d ea02 babd 1648 4abd 2c24 adbd
000003a0: ec6a b2bd 34a7 9bbb 73cd b6bd f255 5fbd
000003b0: 7d93 b3bd 4a58 053b 6248 69bc d0c3 bd3d
000003c0: 5394 8c3d f89b 093d 03a0 3dbd f08c a13d
000003d0: d5f6 093e 4c4f 793d 5f56 053d e2a7 fe3d
000003e0: 742a f33d e2d0 b03d 2d29 cd3d 45de b0bd
000003f0: 9bd0 4fbd 2941 743b 710e abbc d2d4 6ebc
0.07779021 0.15459314 0.0786941 0.071109205 -0.08656836 0.1098527 -0.14525767 -0.13307852
0.077561826 -0.027834386 0.08973895 -0.10783498 0.04778002 -0.03416959 -0.11012036 0.073519796
0.101297766 -0.054021258 0.06269331 -0.08300969 0.017569328 0.12391538 -0.08912051 -0.0908172
0.08491376 -0.007483961 -0.0021928586 0.100471295 -0.0009821599 -0.084067754 -0.080631986 0.029212387
-0.031730026 0.10296597 0.013114732 0.10341992 0.11872385 -0.029726367 -0.06618388 -0.07160188
0.10140067 -0.02973248 0.055845812 -0.012606189 -0.08915468 -0.056547854 -0.08325534 -0.061701
-0.08805901 0.04633442 0.044914436 -0.019082116 0.01573972 0.03162553 -0.11206724 0.079477586
-0.01034112 -0.07411888 0.1037198 0.04248539 0.08856819 0.11298814 0.06945959 0.016760152
0.07887636 -0.06040422 0.091360815 0.12650128 0.0003560054 -0.079158895 0.051147964 0.058627345
0.09312539 0.0037157193 -0.13725744 0.032419328 -0.034355953 0.08811123 -0.0072401036 -0.11460978
-0.049578406 -0.02188811 0.03615969 -4.9748123e-05 0.016842779 0.070724025 0.06438058 -0.033754542
0.013219741 0.012391539 -0.06860578 -0.07911107 -0.009733094 0.18522364 -0.10218043 -0.10293572
0.024497567 -0.1366731 -0.059671212 -0.036511347 -0.080106325 0.08008839 0.073015235 -0.09539983
-0.014112603 0.15657854 0.050059605 -0.091325745 0.089645855 0.023331417 0.026984999 -0.04534127
-0.036421455 -0.036138054 -0.027078638 0.008502011 0.08896034 0.11361115 -0.123782076 0.077441186
-0.067258365 -0.03878962 -0.07920514 -0.1406818 -0.047263987 -0.05492327 -0.11444423 0.031802308
-0.031978507 0.11103761 0.14743003 0.12730159 -0.08654783 -0.04911179 -0.1279673 -0.03462505
-0.008025484 0.026256466 -0.058785353 0.0068265786 -0.14872235 -0.06138104 -0.008954313 0.01859839
-0.06759754 0.04136281 0.056170635 0.01997599 -0.050301317 -0.0084838 -0.04645261 0.07424589
-0.15295647 0.061674982 0.07270233 0.0012118339 -0.07441521 0.031963035 -0.03350631 0.10385363
-0.11504723 0.08687681 -0.15997668 0.012602208 0.10223741 0.10626153 0.11267281 -0.076536156
-0.22490992 -0.013516417 -0.009577179 -0.08868926 0.0359795 0.062129892 0.1641555 -0.006877395
-0.112276316 -0.02144376 -0.05075592 -0.060884487 -0.14320086 0.15610592 -0.058672823 -0.08230147
-0.07148726 -0.056466576 0.16894266 -0.066655956 -0.074551634 -0.08987064 0.10317888 -0.08000053
0.07085557 -0.0056246505 0.00080711325 0.037467424 -0.098525874 0.084263965 -0.045391247 0.08260879
0.10582171 -0.11465401 0.07580964 -0.0178033 0.020786647 0.04973655 -0.08487758 -0.027031178
-0.021832343 -0.08631658 -0.008540452 -0.032128863 -0.020247433 0.04159275 -0.082217894 -0.09849502
0.05576889 -0.07637099 0.03688126 0.09219091 0.020416817 -0.02135982 -0.09600692 0.021019002
-0.026282845 -0.06191976 0.031069644 -0.015013301 0.03371809 -0.09082587 -0.049385153 -0.08454165
-0.087118 -0.004750157 -0.08925905 -0.054525323 -0.087683655 0.0020346814 -0.014238449 0.09265864
0.06864228 0.03359601 -0.046295177 0.0788821 0.13473065 0.06086664 0.032553073 0.12434365
0.11873332 0.08633591 0.10017619 -0.086361445 -0.05073605 0.0037270284 -0.02088091 -0.0145771075

grucell.bias_ih f4 [192]
00000000: 71a1 84bc 330d 063d d54e 1cbd e58a 393d
00000010: d5ac d83d c86d ecbc d1ac 18bc 5f56 693c
00000020: f432 c1bd 0830 2cbd 2bb0 e43c 7c10 9bbd
00000030: 7f32 92bd 7e0d 333d d11f 0a3e 5454 073b
00000040: fe42 abbd 66f1 813d 27d7 1cbd 2e91 0fbe
00000050: 6fd3 00bc 1ae8 e63b 808e 4a3d ad2d a2bb
00000060: 1c25 56bd 074f cb3d 0917 e23c b562 fa3c
00000070: be50 8ebd f158 7bbb d545 193d 3c04 80bd
00000080: 997d 293d db78 cd3d 0bf9 023e 3c67 0d3d
00000090: 18d6 b3bd be9f 973d 9568 75be d24c afbc
000000a0: f6e1 053e a359 a5bc 32b8 913d 665b e13d
000000b0: c624 90bd cb48 2d3d 4067 1e3d 7c25 c53b
000000c0: e815 08bd 80f1 2a3d bc70 90bd 8f01 7dbd
000000d0: a9d0 8c3b 929c 033d 70fa 453d 4966 e8bc
000000e0: d379 a53d 83c5 b43c fcea d53d bcc4 50bd
000000f0: 897e 903d e838 78bd 5363 f13b 7c75 eb3d
00000100: 3ff9 883d af29 063e fbfd d53e 1f84 323e
00000110: 559a 64bc 7fbf dbbd cca5 873e 68a1 b63d
00000120: 0373 443d 60d3 693d dfcf 823d 9751 2a3c
00000130: 9e7a 983d b1a9 ed3e 3e66 9b3d 14de dcbd
00000140: 8ba1 563e a4c3 043e 47e0 98bd c460 cf39
00000150: f629 2f3c 7ad1 ab3c 084d 0f3e 2570 5e3c
00000160: 8252 6f3d 376a 943d aae4 e53d 40e6 77bd
00000170: 5106 73bd deea 3cbe 03b5 51bc 8278 073e
00000180: dfaf 27bd 883b 533e f3cd 833e f37b 8c3e
00000190: 00ee 04be a892 6b3c 2563 923d 5073 01be
000001a0: ec08 e23e a6da a03d 806e aa3d a5bf 6fbc
000001b0: 29a4 9d3d d28d ac3d d434 86bd 0ac5 b8bd
000001c0: 226b 283d ea1b 263b 37cd e7bc 7f35 df3d
000001d0: 8524 913d 70f1 c63c a974 443d 28c8 353e
000001e0: 97b0 0fbd 7f9a ec3e 632f 363e 2aa5 cebc
000001f0: 8260 a7bc 1472 883e f2c2 e53d 8ed2 263d
00000200: 166e 7f3c b0ec a8bd e509 1ebe d5a8 8abd
00000210: c7c0 c93d 7539 fabc 511c a7bc 94a7 08bd
00000220: 2145 a43d 26ef 933d b935 0abd 0b95 12bd
00000230: ba3f b3bc 27bf 063e e485 1a3d a869 69bd
00000240: f0eb 69bd 0ac2 6fb8 bbed 543d 57b2 a43d
00000250: dbf7 0dbd 8795 18be d7ba 72bd 3e4d 2e3d
00000260: da2e f9bd af3f a53d bfcf ba3d 7d10 34bd
00000270: dd1c 8b3d 9400 273e 7068 ec3d f675 883d
00000280: 62f1 fbbd 4cb3 17be b29f 48bd 1c18 a3bd
00000290: 3de7 c53d eefb a83d c87a c3be 9652 ef3c
000002a0: 6207 933e 6c2f 173e ca6f 93be 78b9 8b3d
000002b0: 93a8 1c3e b93f 4b3d 870d debd e1ce 99bd
000002c0: 99f5 e53d ad66 273d b72d e23d fefd da3d
000002d0: fe07 993c 52ca 43bc cb5b 093d eb47 27be
000002e0: 9e2c f9bb 32d9 f1bd 44db 13bd 93b2 dbbd
000002f0: 79fe bcbd 8bb9 563d db04 95bd dcec 803d
-0.016190263 0.03272743 -0.038161118 0.045298476 0.1057984 -0.028860942 -0.009318546 0.014241784
-0.09433547 -0.042037994 0.027916035 -0.075715035 -0.071385376 0.04371404 0.134887 0.0020649629
-0.08362387 0.06344871 -0.038291123 -0.14020225 -0.00786291 0.0070467116 0.049452305 -0.0049492926
-0.052281484 0.09927183 0.027598875 0.030564645 -0.06948994 -0.0038352574 0.037420113 -0.06250808
0.041379545 0.10032817 0.12790315 0.03452228 -0.087810695 0.07403515 -0.23965676 -0.021398935
0.13074479 -0.020184344 0.071152106 0.11003761 -0.07038264 0.04230575 0.038672686 0.0060164314
-0.033224016 0.04173422 -0.070527524 -0.061769065 0.004297335 0.03213174 0.04833454 -0.028369086
0.08079877 0.022066837 0.1044521 -0.05096887 0.07055385 -0.060601145 0.0073665767 0.11497018
0.06688165 0.13101839 0.41795334 0.17433213 -0.013952811 -0.10729884 0.2649368 0.089175045
0.047961246 0.05708635 0.063873045 0.010395429 0.07445262 0.46418527 0.075878605 -0.107845455
0.20960061 0.12965256 -0.074646525 0.00039554213 0.010691157 0.02097391 0.13994229 0.013576542
0.058428295 0.072468214 0.11225255 -0.060522318 -0.059332196 -0.1844897 -0.012799504 0.13229564
-0.040939208 0.20628178 0.25743064 0.27438316 -0.12981415 0.014378227 0.071478166 -0.12641644
0.44147432 0.07854204 0.083218575 -0.014633094 0.07697327 0.084254876 -0.06553045 -0.09021957
0.041117795 0.0025346228 -0.028296096 0.108988754 0.07087044 0.024285048 0.04796282 0.17752135
-0.03508052 0.4621162 0.17791514 -0.02522524 -0.02043176 0.26649535 0.112188235 0.040728144
0.015590211 -0.082482696 -0.15433462 -0.067704834 0.098512225 -0.030544976 -0.020399245 -0.03336294
0.08020998 0.07223348 -0.03374264 -0.03578667 -0.021880973 0.13158856 0.037725344 -0.056985527
-0.057109773 -5.7162753e-05 0.05198453 0.08041828 -0.0346602 -0.1490079 -0.059260216 0.042554133
-0.12167139 0.08068787 0.09121656 -0.043961037 0.067926146 0.16308814 0.11543357 0.06663124
-0.123018995 -0.1481449 -0.048980422 -0.07963583 0.09663246 0.08251177 -0.38179612 0.029214185
0.2871657 0.14764184 -0.28796226 0.06822485 0.15298681 0.049621318 -0.10842424 -0.07510162
0.11228485 0.040869404 0.11043876 0.106929764 0.018680569 -0.011950092 0.033534806 -0.16336028
-0.0076041957 -0.11809005 -0.03609778 -0.1072742 -0.09228224 0.05242304 -0.07276317 0.06295177

grucell.bias_hh f4 [192]
00000000: be99 3f3d 3eb1 bf3d 0cb5 b1bd 8fea a83d
00000010: da70 123e e570 053e e4d8 353e 881f d83d
00000020: d8a9 f83b 2b55 f6bc f124 df3d 5527 58bd
00000030: 7732 88bd 40cf fabb d798 a63c d5eb bbbd
00000040: f8f7 fc3a 995a babd 5ba5 73bd 1beb 97bd
00000050: fd52 953d fc77 debd f00c 1d3d 4599 a93c
00000060: 8a07 83bd 9e38 853d 91a9 b03c ccd9 ad3d
00000070: 9606 0abd f30d 193e 0ccf 0b3e eb32 063e
00000080: 6afc babd d59b 113e 1bc8 e93d a2ca 8c3d
00000090: 02ed cc3d 7620 873d 3036 27be 7e4e 713b
000000a0: b0c9 1c3e f34c 06bd c77f 443e 9628 fb3d
000000b0: 5a24 823d 9453 e23d df0d 013e bb7c 7bbd
000000c0: 3620 943d 7401 abbd 543b f33d 59cf 0cbd
000000d0: 53e7 f53d e256 823c 6106 10bc bc2e 843d
000000e0: 4a50 063e 376c cd3d bb44 44bd 5f93 cebc
000000f0: b4a7 c1bd 21a9 65bd 2993 5abd eea9 3bbd
00000100: 1eb2 28bd 7ea8 283e cee9 003f 5aa3 893d
00000110: a4b1 873d 1104 033e c24e ab3e 5ef1 253e
00000120: 3f36 a83d bd61 8dbd 0af9 8abd 13b0 a93d
00000130: 7739 413e 3a83 f73e fe6a 903d fa17 f43d
00000140: a780 393e d115 b3bd b2ae 3a3d 08c7 983d
00000150: e291 27bc 5f24 40bd deee d4bd 32bf 363e
00000160: cea4 c4bb cc89 7a3d 1c82 333e 1ba1 533d
00000170: 1977 893d 38d7 69bd e047 173c 3256 4fbd
00000180: f5be 83bd c8ac 5d3e 964a 943e 7e32 7c3e
00000190: 78ca a63b b08d b5bd 569e 123d 0c47 db3d
000001a0: e30a af3e fa53 d9bb 6ebe 213e bcb7 0bbc
000001b0: 7988 b63d a127 1f3e 1785 d23b 96a5 933c
000001c0: df14 14bd 8643 90bd e039 babd 7855 d83d
000001d0: afbb e13d 7ac8 f43d 51dd d23d 23f3 b63d
000001e0: 9312 7dbd d3c2 e63e 5e7d 233e a065 1a3d
000001f0: 91e4 543d ac74 6f3e a4a9 adbd 8459 c1bd
00000200: e0fb b9bc df90 d33d 2dba c0bd 486b 903d
00000210: c73c a7bc 7f90 953b b229 bd3c 67ad cfbc
00000220: a6af cebd 1a98 21be 7d8a 42bd d71c 0abe
00000230: 5539 823d 5e78 533d 5ce9 7abd 2a32 9e3d
00000240: 40bf 743d cdd3 e43c aa20 993d a564 b1bb
00000250: 97b6 87bd 7523 dd3d ff33 0b3e fb7b b1bd
00000260: 9c73 373d 99b2 80bd 59a4 213d ed0c 72bd
00000270: 6f60 ab3d a19a 7b3e 45df 963c 1edc 91bd
00000280: f90a dd3d b097 0dbe 9eea e63d ac5d f43b
00000290: 82ef 9fbd 599a d93d f52e 47be db5e b63c
000002a0: 5cf1 fe3d 50ee 1a3e 6066 a5bd 0980 29bd
000002b0: 1a41 2bbc 15d3 503c 3841 123d 926e b8bb
000002c0: b696 a1bd e35a 8c3d 0589 5f3d d603 c03d
000002d0: 0c93 ab3d fb14 a1bd 180a 5fbb 5573 9e3d
000002e0: daec 24bc 1808 57bd 9fe5 1fbe bcc0 e13d
000002f0: bee8 3cbd 2441 cebd ca20 8d3d 53a8 fbbd
0.04677748 0.09359978 -0.0867711 0.082478635 0.14300862 0.13031347 0.17758518 0.10552889
0.0075886063 -0.030069908 0.10895718 -0.052771885 -0.066502504 -0.0076541007 0.020336552 -0.09175841
0.0019299975 -0.090993114 -0.059483867 -0.0741789 0.072912194 -0.10862729 0.038342416 0.020702967
-0.06397922 0.065049395 0.02156523 0.08488807 -0.033697687 0.14946727 0.13653201 0.13105361
-0.091301754 0.14219601 0.1141512 0.06874587 0.10006143 0.06597988 -0.16329265 0.0036820467
0.15311313 -0.03278823 0.19189368 0.122636005 0.0635459 0.110510975 0.12602948 -0.06139825
0.07232706 -0.083498865 0.1187655 -0.03437743 0.12007012 0.01591057 -0.008790583 0.064542264
0.13116565 0.10030406 -0.04791711 -0.025216756 -0.09455815 -0.056069497 -0.053363 -0.045816354
-0.04118549 0.16470525 0.5035676 0.0672061 0.06625679 0.1279452 0.33458525 0.16205356
0.082134716 -0.06903408 -0.06785782 0.082855366 0.18869577 0.48342305 0.07051657 0.11918636
0.18115483 -0.087443955 0.04557676 0.07459837 -0.010227652 -0.046909686 -0.10397123 0.17846373
-0.0060010916 0.06116657 0.17530102 0.051667314 0.06712169 -0.057090014 0.009233445 -0.05061931
-0.064329065 0.21647942 0.28963155 0.24628636 0.005090054 -0.08864915 0.035795532 0.107069105
0.34187993 -0.0066323252 0.157953 -0.008527692 0.08912749 0.15542461 0.006424557 0.018023293
-0.036152717 -0.07044129 -0.0909307 0.10563177 0.11022126 0.119523 0.10296119 0.089330934
-0.061785292 0.45070514 0.15965793 0.037694573 0.05197579 0.2338435 -0.08479622 -0.09440902
-0.022703111 0.10330366 -0.0941051 0.07051712 -0.020414723 0.0045643444 0.023091171 -0.02535124
-0.10092096 -0.15780678 -0.047495354 -0.13487564 0.063585915 0.051628463 -0.061257705 0.07724412
0.059752703 0.027933026 0.07476933 -0.005413609 -0.06626623 0.107977785 0.13594054 -0.086662255
0.044787988 -0.06284065 0.039463375 -0.05909436 0.083680026 0.24570705 0.01841701 -0.07122062
0.107931085 -0.13827395 0.112752184 0.0074574556 -0.07809354 0.106251426 -0.19451506 0.022262027
0.124483794 0.15129972 -0.08076167 -0.04138187 -0.010452533 0.012745638 0.03570673 -0.0056284154
-0.07890074 0.06853273 0.05457403 0.09375732 0.08377656 -0.0786533 -0.0034033116 0.077368416
-0.010066235 -0.052497953 -0.15614937 0.11023089 -0.046120398 -0.10071018 0.0689102 -0.12287965

linear.weight f4 [2, 64]
00000000: 21cc 14be 1987 9b3e 58b5 05be a0c9 9f3c
00000010: 41de ef3d ddfc 2cbe e585 d0be 5962 ffbd
00000020: fa0b 953c f59c 99bd dbd3 cd3d 41da 6d3e
00000030: 6d59 bd3c ed22 453e 21b7 e23c 8080 713d
00000040: 56c7 8abe 5ce0 16bd 7fd6 023d 1a91 4bbe
00000050: 7d10 eabd ab25 143e 82de 7cbc 8209 89be
00000060: fd86 22be befe fe3d ddc1 193d 3195 9f3d
00000070: 9d2b 1bbe eccd 943e 4e46 bcbe 28aa 21bd
00000080: f157 06be 3ec3 f63d 64fd c0bd fee0 b23c
00000090: 1745 bcb9 e73d 37bd 501a 043e ab79 5abd
000000a0: 66d7 b33d 2e02 873e d298 973e c8b0 9e3d
000000b0: c081 bebb f8a1 0fbe fec8 393d 296b 613e
000000c0: 01a0 bc3c ca73 6bbd 8d2a b13d 0452 e93d
000000d0: 7b77 a03a 1bf9 853e 13f3 0abe 358f 8abd
000000e0: 6582 1f3e 64fe abbe be65 a63b 792b b6bd
000000f0: f083 363c eb9f cdbc 7fa6 1ebd f612 3bbe
00000100: 7fdb 5dbd 0b57 b43d d3bc c13e 8099 693e
00000110: 16ab cc3b e95c 5e3e b23c a43e db0d 94bc
00000120: 738f 843d a5c8 d1bd fb42 f23c 56f6 c23d
00000130: 50f3 9cbe 8838 a4be d501 ac3c 970f adbd
00000140: 6e51 343e 8108 133d 8afe bc3c 92f8 9cbd
00000150: 2187 a63d ed99 3c3c 8b85 6ebd caae 79be
00000160: b7ae a3bd 980f 4fbe 5bb1 9fbe ec41 753d
00000170: 5901 483d ff70 babe d3de 863e 4b81 eb3d
00000180: e754 8cbd b183 da3d aef8 33be aee1 053e
00000190: bc63 eebd 8408 18be 9051 50be fd00 d0bd
000001a0: 67db b6be cd13 783d d63b 63be 684a 8bbe
000001b0: e69b 04be 8a4e 963d 0419 593d 947e e73d
000001c0: 3a8a 26be 9171 473d 7d94 a8bd d441 f3bd
000001d0: 52da c43c de1c f23d 37b3 b93d 387a 13bd
000001e0: 673b dbbd 1644 023e 6dc0 643e efc5 183e
000001f0: 7a35 8c3d 18a9 bfbb ed85 e13d c6c1 b8bd
-0.14530994 0.3037651 -0.13057458 0.019505322 0.117123134 -0.16893335 -0.40727153 -0.1246993
0.018194187 -0.0750064 0.10050174 0.23227789 0.02311393 0.19251604 0.027675213 0.058960438
-0.27105206 -0.03683506 0.03194284 -0.1987957 -0.11428926 0.14467494 -0.015433909 -0.26765066
-0.15871806 0.12450932 0.037538398 0.07792128 -0.15153356 0.29063356 -0.36772388 -0.039468914
-0.13119484 0.12048958 -0.094233304 0.0218358 -0.0003590963 -0.04473677 0.12900662 -0.053338688
0.08781318 0.2636885 0.2960878 0.07748562 -0.0058138072 -0.1402663 0.045357697 0.22013535
0.023025515 -0.057483472 0.08650694 0.11392596 0.0012242639 0.26166615 -0.13569288 -0.06765596
0.15577085 -0.33592522 0.0050780466 -0.088950105 0.011139855 -0.025100669 -0.038733 -0.18268952
-0.054164406 0.08805665 0.37839374 0.22812462 0.006245981 0.2171513 0.32077557 -0.018073013
0.06472673 -0.10243348 0.029572954 0.09519641 -0.30654383 -0.3207438 0.020996967 -0.08450239
0.17609188 0.03589678 0.023070592 -0.076645985 0.081312425 0.011511308 -0.058232825 -0.24383083
-0.079923086 -0.20220792 -0.3119 0.05987732 0.04882941 -0.36414334 0.26341876 0.1149927
-0.06852131 0.106696494 -0.17575333 0.13074371 -0.116401166 -0.14846998 -0.20343614 -0.101564385
-0.35714266 0.06056576 -0.22190794 -0.27205205 -0.12950096 0.07339199 0.053002372 0.1130344
-0.16263667 0.04869229 -0.08231447 -0.1187779 0.024029884 0.11821912 0.09067386 -0.03600523
-0.107046895 0.12721285 0.2233903 0.14919256 0.06846137 -0.005849015 0.110118724 -0.09021334

linear.bias f4 [2]
00000000: 5c78 f2bc 06f4 383b
-0.029598407 0.0028221621

linear_final.weight f4 [5, 64]
00000000: 8aa2 f3bc 7a30 1e3a ea3b ab3d ca9d 39bd
00000010: e4c2 673d 621a 523c b8e4 85be 27dd c43c
00000020: 7ffc 9cbc ccb8 ab3c a78e 213d 5c66 003d
00000030: 7c49 1b3c 316b b0bd 6d23 75bd ff25 ccbc
00000040: e8d8 483a 89c5 9dbd e5c8 a3bc da04 22bc
00000050: 272d b9bc e454 2a3d c763 0abd 9f9c ab3c
00000060: 17f3 ba3b 1c02 c0bc 853b c83d 005b 9fbc
00000070: 6579 07bd 8dfc f83d 2f38 91bd 3307 5c3d
00000080: 6cb4 87bd 9189 2abe d88f f5bc 159d 86bd
00000090: 6333 dabc 530c e53b 0c2e f23c e56f 4bbd
000000a0: b374 9fbe e638 c3bd 2c33 27bc f738 d53b
000000b0: 4d90 803d 84bd 51b7 7855 38bc a9c5 cb3a
000000c0: 2437 463c 78a7 cb3c c6c5 283d 0624 9f3d
000000d0: 22a4 973c cf0c 093b 7202 083d 60e1 8b3d
000000e0: 4d83 bbbc 33b2 41bd 276a f73d 9b57 5bbd
000000f0: 5150 ff3c 0936 8bbd d88f 02bc ced5 4b3b
00000100: ee1d 7a3c f49d fd3c e95d 583d dfc4 68bd
00000110: 8a2a afbc 1150 9cbc 7886 383d 8911 7f3c
00000120: 9e47 d9bc 195d e1bb f309 d5bc 4e2d 323b
00000130: e929 e03d f3ce 3d3e 3ffb fcbc d287 d93c
00000140: cefd 8a3b 552b 88bc 79c2 30bc ffa5 9cbc
00000150: bc3c 3b3d 613e a539 dee4 36bd 29d9 f2bc
00000160: c8f6 193c 6911 2bbd 1e4b 33bc 4f9b b9bd
00000170: 0eca 5cbc cce7 83bd 285f 07be 89b0 11bc
00000180: 87d0 babc 08ce 9e3c d86e 49bd 9a50 823c
00000190: d1ce 8b3c 07bb b3bd cdb7 7b3e f4df db3c
000001a0: 6844 823d 116f 013b 0623 efbd 544d 9bbc
000001b0: b409 543c 255f cebc e2d6 633d 6cda 993b
000001c0: 9968 3f3d ea01 ffba 63ae 243c 9f2b 683d
000001d0: 6ed6 ad3b 551a 2cbd 0987 113d 14fb fd3c
000001e0: 30d6 733d 7fb9 7bbd 1475 be3d 4903 acb9
000001f0: a1b6 433c 1fd7 b73d 2743 0cbd 9cff 8c3a
00000200: 833b b53e bedd 34be 4d48 02be 7fa8 61be
00000210: 0958 9bbd 9a03 563d dacb e93d 357d cb3c
00000220: 11f9 a5bd 8d45 113e 62e4 41bd 6d58 d2bd
00000230: a87b 5d3e a86f 813e 1e24 e33e 4754 4c3e
00000240: c1e8 49be 38c7 71bd 93ca 5fbe eb1d 49be
00000250: 9394 983e 0a35 8ebe fb89 5fbd a2e2 663e
00000260: 6bd3 903e df78 db3c 7246 b0bd 72b3 1c3d
00000270: 936a 86bd e716 113f 521e eebe 55e3 07be
00000280: dbd7 993e 8aa3 49be 6408 9fbd 7576 88bd
00000290: 480e a6bd b8ab f3be c73d 893e f288 0fbe
000002a0: a38a a8be 8b59 5bbe 9c77 08bf 40a2 1cbe
000002b0: 963e bbbe 3e0c babd 7b7e 963d 35a8 173d
000002c0: 9cdc 26be 834c 95bd c9c2 40be 1816 a4be
000002d0: 90a1 d5bd f588 65bc 9607 e0bd 8fac cc3e
000002e0: 0765 c7bd 96bf 0e3f fca9 d1bd 01b8 73be
000002f0: d5cf 933e 201d 2b3d 892d 863e a1fc 48be
00000300: a653 453e 788c 663d 0dc8 8ebd 27b4 ecbd
00000310: ab87 3b3e b52e a8bd c945 993e 6604 183d
00000320: 0798 053e a7cf 803d f11b f23b 1960 d53d
00000330: 1110 143d 7a65 4ebe d9ac 633e 3a92 e93d
00000340: ae10 643e 1ea8 8bbd 71c2 3dbe 6a05 66be
00000350: 28f6 ca3e 4636 493c 38e1 8b3d f525 51bd
00000360: 58f7 2b3e a4fc e9bd 940e 4b3c a7b9 c73e
00000370: dde4 c4bd 4ee6 d0bd f6ba 81be dbc4 1dbd
00000380: 8dde cebd fe5c 38bd 6b8d 77be 853b 01be
00000390: e507 0abe 33e1 b5be 3369 2c3f 7fc2 3fbe
000003a0: 3915 cfbe 557a efbe 56bf ad3d f6d3 4dbe
000003b0: fb83 c2bd 83c9 003e 4f9a 223e 0feb c23d
000003c0: 1687 3a3e 8d35 5cbe a58c 93be 9fc0 b1be
000003d0: 0c4e 25be 0bbc ea3c 4183 06be 8b2c 72bd
000003e0: 7f74 593e 96af f3be c9d8 9dbe 0a77 46be
000003f0: c4aa 553e 5f18 06be 14d9 c8bc c9ac e7bd
-0.02974059 0.0006034445 0.08361037 -0.045316495 0.056582347 0.012823673 -0.2615106 0.024031235
-0.019163368 0.020962141 0.039442685 0.031347618 0.009477969 -0.08614195 -0.059848238 -0.024920462
0.0007661716 -0.077036925 -0.019993255 -0.009888852 -0.022604538 0.041584864 -0.03378656 0.020948706
0.005705248 -0.023438506 0.097769774 -0.019452572 -0.033074755 0.12157545 -0.07090794 0.053717803
-0.066262096 -0.1665404 -0.029975817 -0.0657293 -0.026635831 0.0069899946 0.029562972 -0.049667258
-0.31143722 -0.09532337 -0.010205071 0.006507035 0.06277523 -1.2501496e-05 -0.011250846 0.0015546578
0.0120981075 0.024860129 0.041204236 0.07770543 0.018510882 0.0020912176 0.033205457 0.06830096
-0.022889758 -0.047289085 0.12080794 -0.053550344 0.031166228 -0.06797416 -0.007968865 0.003110278
0.015265925 0.030959107 0.052823935 -0.056828376 -0.021382589 -0.019081147 0.045050114 0.015568146
-0.026523408 -0.006877553 -0.02600572 0.0027187648 0.10945494 0.18535976 -0.030881522 0.026554022
0.0042416817 -0.016622225 -0.010788553 -0.019122122 0.045712218 0.00031517728 -0.04465186 -0.029644566
0.009397216 -0.04176465 -0.010943202 -0.09062826 -0.013475908 -0.06440696 -0.13219893 -0.008892187
-0.022804512 0.019385353 -0.049177974 0.015907574 0.017066391 -0.08775907 0.24581833 0.026840188
0.06360704 0.0019750039 -0.11676602 -0.018957771 0.0129417665 -0.025191853 0.05562485 0.0046952274
0.04673061 -0.0019455526 0.010051343 0.056682225 0.005305103 -0.0420173 0.03552917 0.031003512
0.059530437 -0.0614562 0.09299675 -0.00032808844 0.011945398 0.08976578 -0.03424373 0.001075733
0.35396966 -0.17662713 -0.12722893 -0.22036932 -0.07585151 0.05224953 0.11415835 0.024839977
-0.08104146 0.14186688 -0.047336943 -0.10270772 0.21629202 0.252805 0.44363493 0.19954024
-0.19717695 -0.05902788 -0.2185462 -0.19640319 0.29800853 -0.2777484 -0.054574948 0.22547391
0.282863 0.026791034 -0.086071864 0.03825707 -0.06563296 0.5667557 -0.46507508 -0.13270314
0.30047497 -0.19691291 -0.07765272 -0.06663219 -0.08108193 -0.47591949 0.26804945 -0.14017084
-0.3291827 -0.21420877 -0.5330751 -0.15296268 -0.36571187 -0.09084366 0.07348343 0.03702565
-0.16295093 -0.07289984 -0.18824305 -0.32048106 -0.10431206 -0.014009704 -0.10938947 0.39975402
-0.09736066 0.55761087 -0.102375 -0.2380066 0.288695 0.041775823 0.26206616 -0.1962762
0.1927019 0.056286305 -0.069717504 -0.11557799 0.18313472 -0.08212034 0.29936054 0.03711357
0.13046275 0.062896065 0.007388585 0.1041872 0.036148135 -0.20155898 0.22233905 0.11404844
0.22271988 -0.06819175 -0.18531205 -0.22463003 0.39640927 0.012281006 0.068300664 -0.05106159
0.16793573 -0.114251405 0.012393612 0.3900883 -0.09613965 -0.10200177 -0.25337952 -0.038517814
-0.10101042 -0.04501056 -0.2417504 -0.12620361 -0.13479574 -0.35523376 0.6734802 -0.18726538
-0.4044588 -0.4677302 0.0848376 -0.20100388 -0.094978295 0.1257687 0.15879177 0.0951749
0.18215594 -0.21504803 -0.2881824 -0.3471727 -0.16143054 0.028654119 -0.13136007 -0.05912451
0.21235846 -0.475949 -0.30829456 -0.19381347 0.20865923 -0.13095234 -0.024517573 -0.11312253

linear_final.bias f4 [5]
00000000: 0563 a5ba 8005 b93d 21be adbf 767a d5bf
00000010: 7a22 65be
-0.0012618011 0.09034252 -1.3573648 -1.6677997 -0.22376433
