model_checkpoint/univ/val_best.pth (torch_old, 55823 bytes, 10 tensors)

gcn.gc1.weight f4 [2, 2]
000000 f8 1a e1 3e 9a 89 eb 3e ca 89 73 3f 24 a7 3e bf
       0.43965888 0.4600342 0.95132124 -0.74473786

gcn.gc1.bias f4 [2]
000000 26 b8 db bd bc 13 d5 bb
       -0.10728483 -0.0065025967

grucell.weight_ih f4 [192, 2]
000000 dd a6 15 bd 6c 91 8f 3d 1c b3 96 bd b1 33 19 be
       -0.036536086 0.07010159 -0.07358381 -0.14961125
000010 4a 79 0a 3d 3c ca 94 3e 5b e4 cf 3c 1c b4 8d 3d
       0.033807077 0.29060543 0.025377443 0.06919119
000020 40 a3 82 bd 7f 81 61 3d 26 f6 09 3e 2d 12 87 3c
       -0.06378794 0.055055138 0.13472804 0.01648816
000030 d2 a5 bb 3d 75 be b2 3e e6 00 d9 bc 77 59 be 3d
       0.09162487 0.34910932 -0.026489686 0.09294408
000040 bf 3e 0d 3d 54 e0 c0 3d 6f 5f d9 3c 6d 84 3e bb
       0.034483667 0.09417787 0.026534764 -0.002907063
000050 f2 42 1c 3c 63 f9 90 3d e6 d8 26 bd 02 c3 4d bd
       0.009537445 0.07078817 -0.040734194 -0.050234802
000060 14 6b 4a be f8 b2 02 3e f2 c7 15 3e 5b 58 d3 3e
       -0.1976741 0.12763584 0.14627054 0.41278347
000070 c3 c7 6f bd f5 69 46 3e 0b f6 16 3c ef aa 29 bc
       -0.058540117 0.19376357 0.009213935 -0.010355695
000080 9b 03 42 be 7c a2 90 bd 9a 4b e0 bd 62 1f cd 3d
       -0.18946688 -0.070622414 -0.1095192 0.100157514
000090 18 e8 c7 3d 59 b2 fa 3c c9 67 9d bb 2e 14 fa bd
       0.09761065 0.03060262 -0.004803632 -0.1221088
0000a0 c5 0d fe 3d f8 5c 7c 3d c3 ae ae 3d fa 9b ec 3d
       0.1240497 0.0616121 0.08529427 0.11553188
0000b0 2e cd b3 bd 8d cb f8 3c 3d ab aa bc 8f c8 b9 bc
       -0.08779369 0.030370498 -0.020833606 -0.022678642
0000c0 9c 26 f2 bd c9 2c 9b 3d c9 23 f0 bb 44 8d 46 bd
       -0.118237704 0.075769015 -0.0073284847 -0.048474565
0000d0 74 c2 d3 3d 59 f9 b1 bd d3 40 d3 3d e4 c5 5d 3b
       0.10339823 -0.086901374 0.103150986 0.0033839876
0000e0 54 40 32 bd d5 1c cd 3d 95 7c 67 be e1 95 69 3c
       -0.04351838 0.10015265 -0.22606118 0.014256925
0000f0 b0 1b ea bd 39 fb 18 be 0b 95 84 bc 3e 6b f4 bc
       -0.11431062 -0.14939584 -0.01618435 -0.029836293
000100 cd 9b d3 bd d7 c2 d9 3d 63 1d 44 be ee b5 bf 3d
       -0.10332451 0.10632866 -0.19151835 0.09360872
000110 06 8e 14 bd e7 ea 18 3d a5 7a ad bb 66 8f 44 3e
       -0.036268257 0.037333395 -0.0052941614 0.19195327
000120 a0 13 d3 3c f7 11 ff 3d 38 ad 95 3d 55 91 8a bd
       0.025766194 0.124545984 0.073084295 -0.06766001
000130 cf 22 19 3e fc 60 c2 be 04 9f 52 bc 93 d6 dd bc
       0.14954685 -0.37964618 -0.012855295 -0.027079856
000140 86 32 02 3e 4c 4c de 3d 73 fe 0d 3d e0 82 36 3e
       0.12714586 0.10854396 0.03466649 0.17823362
000150 df ed fb 3d bc 54 1c 3d a1 fe db 3d 80 e8 73 bd
       0.1230123 0.038166746 0.10741926 -0.0595479
000160 30 2d 53 be b0 2b 4e 3e 87 74 81 3c 8c e2 87 bd
       -0.20622706 0.20133853 0.015802635 -0.06635007
000170 2e b7 96 bc ed a0 33 3d 94 17 f5 bd 89 25 fd bc
       -0.018397894 0.043854643 -0.11967388 -0.030901687
000180 f5 73 3f 3d c9 e2 58 bd d4 68 db bc f9 c8 d4 3d
       0.046741445 -0.052950654 -0.026783384 0.10389895
000190 25 38 1c 3c 6c 9d 03 be a2 a3 f0 bd 68 f9 32 3e
       0.00953487 -0.1285302 -0.117499605 0.17477953
0001a0 df 00 f3 3d 9b c4 64 bd 42 89 8c bd 2e bc 2f 3e
       0.118654005 -0.05585156 -0.06862117 0.17161629
0001b0 cc bd 9b 3d 56 d1 04 3e f5 99 14 3e 7d 55 0c 3e
       0.0760456 0.1297048 0.14511855 0.13704486
0001c0 2a 25 fd 3c 6b 45 26 be ee 52 02 3e a1 fa 95 bd
       0.03090151 -0.16237418 0.12726948 -0.07323194
0001d0 73 38 01 3e f4 7a 30 3d da b2 37 bb 49 0e 16 bd
       0.1261919 0.043086007 -0.0028030188 -0.036634717
0001e0 3d de 73 bd 96 13 6c bb 2d 59 a1 bc 38 09 11 3e
       -0.059538115 -0.0036022416 -0.019695843 0.14163673
0001f0 00 e3 3f be 82 01 95 3c 2b 55 ab bc ec fc 01 bd
       -0.18738937 0.018189196 -0.020914635 -0.031735346
000200 68 8d 3a 3e 32 1a c4 3d d2 02 10 3e ac 57 63 3d
       0.18218005 0.09575309 0.14063576 0.055503532
000210 5a a7 6e bd 85 9b c5 bc b5 0a 73 3e 80 aa 90 3e
       -0.058265068 -0.024122009 0.23734553 0.2825508
000220 32 2a 18 3c de 38 3b 3e 34 bf 3b bd 96 2b f0 3c
       0.009287404 0.18283412 -0.045836642 0.029317658
000230 d2 a3 05 be ae 59 87 be f9 a9 77 3e ac dd e5 3d
       -0.13050774 -0.26435608 0.24185933 0.11223921
000240 a6 00 fd 3d 30 97 db 3c 67 78 82 bc 73 7d 04 3e
       0.12353639 0.02680549 -0.015926553 0.1293848
000250 e9 e6 3d bc 75 5e 09 3e 22 e3 3c bd 48 1d 6d be
       -0.011590698 0.13414939 -0.04611505 -0.23155701
000260 15 19 0e bd 30 ff 86 3e 00 fe 23 3f 41 12 e8 3e
       -0.03469189 0.26366568 0.6405945 0.45326427
000270 5c 97 bc 3d 87 20 6a be 4a 70 5a 3d 2a 14 05 be
       0.09208557 -0.2286397 0.053329743 -0.12995973
000280 36 15 84 bd bf 9f 5c 3e 46 36 b0 3d 75 e7 09 bd
       -0.06449358 0.21545313 0.08604102 -0.033668
000290 d6 7d d4 bd f0 96 c3 3d cf a6 8c 3d 52 bc dc bc
       -0.10375564 0.095502734 0.06867754 -0.026945267
0002a0 72 87 c4 3d 41 34 84 bd 64 6d 52 be b0 be 82 bd
       0.09596147 -0.06455279 -0.20549542 -0.06384027
0002b0 41 2b fd 3b 3f 69 75 3d 59 2a 36 3e 4f 78 78 3d
       0.0077261035 0.059914824 0.17789592 0.06066161
0002c0 aa 3b 0e 3c c2 8f 87 3c 12 62 e2 bd 9e d5 0f be
       0.008681217 0.016548041 -0.11053862 -0.14046332
0002d0 49 2e 11 3d 32 cf 90 bb 6a eb f9 bc 89 84 3d be
       0.03544453 -0.004419231 -0.030507762 -0.1850759
0002e0 26 a2 4f 3d 62 91 30 3b b8 f2 69 be 31 e6 80 3d
       0.050691746 0.0026942124 -0.22846496 0.062939055
0002f0 99 53 e4 3c b6 f8 e3 3d 2f b3 28 3e 66 ee 08 3e
       0.027871894 0.11131422 0.16474603 0.13372192
000300 84 b2 ed bd 1e da 9b bc cc 3c 4a 3e 71 6a ae 3e
       -0.11606315 -0.019024905 0.19749755 0.34065583
000310 8c 66 45 bd f4 56 50 3e 19 b8 22 bd 2c bb a3 be
       -0.0481935 0.2034567 -0.03972635 -0.31978738
000320 6b 24 37 bd c6 db 31 3c a8 2a f5 bd 31 35 6b be
       -0.044712465 0.010855621 -0.11971027 -0.2296951
000330 c1 1f b1 3d 6a f2 82 3d 14 6c 99 bd 4e 85 96 bd
       0.08648635 0.06393893 -0.074913174 -0.073496446
000340 0e 4a 8c be c3 51 ac bd 18 25 48 3c 61 8c 7a 3e
       -0.2740025 -0.08414032 0.012215875 0.24467613
000350 05 ae 1b 3e 9a 6f 18 3f 90 d9 24 3d cb 79 ea bd
       0.15203102 0.5954529 0.040246546 -0.114490114
000360 1b 5f 45 3e 92 10 81 3e 40 f3 ba bd ee a4 1d be
       0.19274561 0.25207955 -0.091284275 -0.15394947
000370 01 d8 8c 3b d3 60 13 3e f8 15 e2 3d 50 76 2e bc
       0.0042982106 0.14392404 0.110393465 -0.010648325
000380 2b a5 57 3e 1d b8 ec 3a c1 8b db 3c d0 90 37 3e
       0.210591 0.0018060241 0.026800038 0.17926335
000390 dc ea 0c be 13 6c 3a 3d 55 d0 ce 3d 7f 63 9e 3e
       -0.13761467 0.045513224 0.1009833 0.30935284
0003a0 4e 84 a5 3c 9f 5d fa 3c 51 e5 be 3c 18 ad 91 3c
       0.02020469 0.03056222 0.023302706 0.017782733
0003b0 25 b5 c2 bd 28 f6 2f 3e ac 16 6c bd 46 f1 13 3e
       -0.09507207 0.17183745 -0.05763881 0.14447507
0003c0 82 ab 87 3d cb 5d 10 bd 49 b4 3d 3f 47 a8 1b 3f
       0.066245094 -0.035245698 0.7410322 0.60803646
0003d0 1d aa af 3e a2 d6 03 3e 1a 7a 02 3e c6 f3 da bc
       0.34309474 0.12874845 0.1274189 -0.026727568
0003e0 f8 d3 be 3d 42 ce 1d 3e e1 9e a4 3d 6f 01 b9 bd
       0.093177736 0.15410712 0.08038116 -0.090334766
0003f0 3f 48 01 be f1 8a 66 be 96 85 62 bd 1f c5 9a 3c
       -0.12625216 -0.2251394 -0.05530318 0.018892823

grucell.weight_hh f4 [192, 64]
000000 7a 3a a0 3d a3 47 1d 3e 16 80 a0 3d 18 df 92 3d
       0.078236535 0.15359358 0.078369305 0.07171458
000010 6a 92 ae bd 02 48 e0 3d c7 4c 12 be 94 ba 08 be
       -0.0852402 0.109512344 -0.142871 -0.13352424
000020 ed ed 9e 3d 87 d2 e5 bc 66 02 b8 3d 6c 47 de bd
       0.077602245 -0.028054489 0.089848325 -0.108534664
000030 d4 a3 47 3d c7 fc 0d bd d6 05 df bd f5 d8 96 3d
       0.048740223 -0.034664895 -0.10889785 0.073656
000040 4b d8 ce 3d 1a 5f 56 bd 0e 3a 82 3d a5 6f a8 bd
       0.10099848 -0.05233679 0.06358729 -0.082244195
000050 68 de 90 3c 2f d1 f9 3d 75 e2 b4 bd 61 dc b9 bd
       0.017684177 0.12198102 -0.08832256 -0.09075237
000060 ce 6e ae 3d c4 5d 03 bc 18 6e 22 bb 48 6c cc 3d
       0.08517228 -0.008017961 -0.002478486 0.099815905
000070 b6 38 b3 39 22 b3 a8 bd 81 08 a3 bd 4e a7 f6 3c
       0.00034183793 -0.08237292 -0.07960606 0.030109074
000080 a3 0c 01 bd 08 46 d0 3d a7 4e 65 3c 41 82 d1 3d
       -0.031506192 0.101696074 0.013995803 0.10229922
000090 a6 4a f3 3d c7 e9 f9 bc b8 6a 85 bd 8c d1 93 bd
       0.118794724 -0.030506982 -0.065144956 -0.07217702
0000a0 35 2c cf 3d fd cb e6 bc f0 fd 66 3d 61 e9 43 bc
       0.10115854 -0.028173441 0.056394517 -0.011957497
0000b0 5f 51 b7 bd dd af 64 bd 73 a8 ac bd 79 f5 7e bd
       -0.08951067 -0.05583178 -0.08430567 -0.06224582
0000c0 33 a2 b2 bd cf ad 37 3d bb 90 3c 3d b6 7d a4 bc
       -0.08722343 0.04484349 0.046036463 -0.020079475
0000d0 c5 78 7d 3c 06 77 fb 3c 15 3c e4 bd 83 58 a1 3d
       0.015470688 0.030696403 -0.11144272 0.078782104
0000e0 0e c7 25 bc d0 9f 94 bd 74 70 d4 3d ad 86 2b 3d
       -0.010118259 -0.07257044 0.10373011 0.041876484
0000f0 2f 6d b7 3d 57 e4 e3 3d f4 d5 91 3d b6 89 82 3c
       0.08956372 0.11127537 0.071208864 0.015934806
000100 ee 04 a1 3d 97 d0 78 bd 4a 30 b6 3d 48 d8 00 3e
       0.078622684 -0.0607458 0.08895929 0.12582505
000110 5e b9 5f 3a 2f 46 a0 bd 84 d8 5e 3d ac 16 72 3d
       0.0008534397 -0.078258865 0.054405704 0.059103653
000120 83 bf be 3d fb 70 48 3b 25 66 0b be 27 7b ff 3c
       0.09313872 0.003058492 -0.13613184 0.031186653
000130 1b 81 0d bd c6 8a b0 3d 11 89 86 bb b3 03 ea bd
       -0.034546953 0.08620219 -0.004105695 -0.11426487
000140 23 cb 49 bd 5f a3 ac bc c0 c5 16 3d c7 b5 2e b9
       -0.049265992 -0.021073995 0.036809683 -0.0001666165
000150 df 1d 89 3c 5b cb 8e 3d 4e 13 85 3d 9e 8d 03 bd
       0.016737876 0.06972381 0.06497823 -0.03211748
000160 5d 3b 6e 3c e9 3a 4c 3c dc 15 8c bd 6e a0 a3 bd
       0.0145405205 0.012465217 -0.06840107 -0.07989584
000170 38 8b 1e bc d6 85 3c 3e 7f 6a ce bd f7 79 d3 bd
       -0.009676747 0.1841043 -0.10078906 -0.10325997
000180 fc f7 d3 3c d7 3a 0b be 1e 13 6f bd 0a 4a 17 bd
       0.025875084 -0.13596664 -0.05836784 -0.036935844
000190 25 37 a2 bd b4 aa a1 3d f1 c4 97 3d 64 32 c5 bd
       -0.07920674 0.07893887 0.074106105 -0.09628752
0001a0 54 30 48 bc 30 57 1e 3e a5 24 48 3d 92 75 b9 bd
       -0.012218554 0.15462947 0.048863072 -0.09055628
0001b0 5d 99 b3 3d d3 d7 c4 3c c2 4b d8 3c 13 3e 3b bd
       0.08769486 0.024028694 0.026403312 -0.045713495
0001c0 e7 ea 16 bd 80 71 16 bd e2 c2 d5 bc f7 51 0e 3c
       -0.036845114 -0.036729336 -0.026093904 0.008686534
0001d0 08 b8 b7 3d 09 c6 e5 3d 8a cc f9 bd 3d 2b a0 3d
       0.08970648 0.11219413 -0.12197216 0.07820747
0001e0 a5 75 8c bd 83 01 25 bd 3e cc a1 bd aa 25 0f be
       -0.068583764 -0.040284645 -0.07900284 -0.13979211
0001f0 be 56 40 bd ca 3d 62 bd 1d e2 e6 bd 9a 97 fb 3c
       -0.046957724 -0.055234708 -0.112735964 0.030711938
000200 f9 a1 0f bd 01 e9 e4 3d 79 11 13 3e 2e fb fe 3d
       -0.03506658 0.111772545 0.14362134 0.124502525
000210 5b 65 b2 bd e3 68 3d bd 59 1d 06 be 26 e1 10 bd
       -0.08710738 -0.046242606 -0.13097133 -0.03537097
000220 a9 4d 16 bc 43 98 d2 3c 8b 12 6a bd bd 1b a0 3b
       -0.009173789 0.02570737 -0.05714659 0.004886119
000230 3a 1a 16 be f1 f7 83 bd 48 88 f0 bb 06 3b 9a 3c
       -0.14658442 -0.064437754 -0.0073404647 0.018826973
000240 ad 03 89 bd 1c 21 2d 3d 4a 1e 66 3d 0e 72 b2 3c
       -0.06690154 0.042267904 0.05618123 0.021782901
000250 10 5f 4d bd 92 c3 5a bb be 40 41 bd ac 42 a4 3d
       -0.050139487 -0.003338073 -0.047180884 0.08020529
000260 c0 de 1a be 4b a9 7b 3d f2 00 95 3d 34 cb 96 39
       -0.15124035 0.061440747 0.07275571 0.00028761628
000270 3a 47 96 bd 33 70 e6 3c 05 5e 0a bd 72 23 ce 3d
       -0.07337804 0.028129673 -0.03378107 0.100653544
000280 12 d3 e5 bd 1a f1 c0 3d 94 bb 1f be 18 f6 39 3c
       -0.11221899 0.094209865 -0.15598899 0.011350177
000290 54 6b ce 3d 2f 1c da 3d ae 45 e3 3d 2e 8c 9b bd
       0.10079065 0.10649907 0.11097275 -0.075950965
0002a0 07 21 61 be c7 b9 b1 bc 86 24 0b bc 0d b7 bb bd
       -0.21985255 -0.02169503 -0.008492595 -0.091657735
0002b0 38 3b fa 3c e4 6d 80 3d 1e ac 24 3e 51 03 13 bc
       0.030545816 0.0627096 0.16081282 -0.008972959
0002c0 55 7d dc bd 89 86 b5 bc 2f 12 57 bd d9 10 76 bd
       -0.10766093 -0.022158878 -0.052507576 -0.06007466
0002d0 4f 9b 0f be 1b 1f 1d 3e 2f 61 6d bd de 34 a2 bd
       -0.1402409 0.15343897 -0.05795401 -0.0792024
0002e0 95 3f 9d bd e3 dd 80 bd e2 e2 29 3e 6d be 80 bd
       -0.07678143 -0.062923215 0.16590455 -0.06286321
0002f0 c9 49 9a bd 68 5a b2 bd d7 dd d6 3d 56 56 9f bd
       -0.07533605 -0.0870865 0.10491531 -0.07780139
000300 36 f7 91 3d 1c bf 72 bb 8f bf 60 3a 81 ff 1a 3d
       0.0712723 -0.003704018 0.00085734663 0.037841324
000310 d2 00 ca bd bf 78 ab 3d 19 13 3d bd 5a d9 a6 3d
       -0.09863438 0.0837264 -0.04616079 0.08146925
000320 c7 a7 d8 3d 63 e7 e9 bd 93 32 9b 3d 0c 11 87 bc
       0.10578876 -0.11421087 0.07578006 -0.01648762
000330 b1 25 a6 3c f2 b2 58 3d 8e b4 b4 bd b0 7a e3 bc
       0.020281645 0.05290503 -0.088235006 -0.027768463
000340 29 28 ab bc e5 fe b2 bd fa 03 45 bc e8 30 fd bc
       -0.020893173 -0.087400235 -0.012024874 -0.03090711
000350 77 ec ac bc b4 6e 2c 3d a6 a9 aa bd 6d cd c5 bd
       -0.021108849 0.042097762 -0.08333139 -0.096583225
000360 5e 13 57 3d 8c bb 99 bd cb a0 0c 3d cf 52 be 3d
       0.052508704 -0.07506475 0.03433303 0.09293138
000370 c9 3b 95 3c 85 2e 8a bc 7b 35 cc bd d4 80 a8 3c
       0.018216984 -0.016867885 -0.09971138 0.020569243
000380 21 29 f9 bc 8d be 81 bd be 9c ed 3c b6 c0 6f bc
       -0.03041512 -0.06335173 0.029005405 -0.014633348
000390 59 ec 08 3d ff 3a b5 bd ee 6b 65 bd ae eb a7 bd
       0.033428524 -0.08849143 -0.056011133 -0.08199249
0003a0 55 d5 a8 bd 3b c0 27 bb b6 b0 b3 bd 21 33 6e bd
       -0.08243815 -0.0025596756 -0.08773939 -0.05815423
0003b0 8a cb ac bd 26 c9 a9 3a 5e 65 4c bc 37 83 bd 3d
       -0.084372595 0.0012953624 -0.01247534 0.09253543
0003c0 6a 71 8e 3d 70 81 10 3d bc a2 42 bd 73 45 a2 3d
       0.06955226 0.03527969 -0.047518477 0.07923403
0003d0 47 e4 07 3e c9 a5 81 3d 29 04 09 3d a2 aa ff 3d
       0.13270675 0.06330449 0.033451233 0.124837175
0003e0 b8 7b f3 3d 7d 77 b6 3d da 85 c0 3d ef 9b ad bd
       0.11888832 0.08909509 0.0940053 -0.084770076
0003f0 72 ee 4e bd ba 2b 65 3b e8 08 c7 bc c4 96 56 bc
       -0.050520368 0.003496869 -0.024296239 -0.013097469

grucell.bias_ih f4 [192]
000000 e0 7a 7f bc 73 9e ff 3c c1 7e 18 bd a0 5a 31 3d
       -0.0155932605 0.031203484 -0.037230257 0.043299317
000010 7a b5 d1 3d 4e 6f 05 bd 1e bd cb bc 51 d0 50 3c
       0.10239692 -0.03257685 -0.024870452 0.012744979
000020 fb 31 c5 bd 7e ae 2d bd 79 14 dd 3c fe 27 a2 bd
       -0.09628674 -0.042402737 0.026987301 -0.07917784
000030 09 89 94 bd 15 a4 4f 3d 29 17 08 3e 0c e9 bc ba
       -0.072527 0.05069359 0.13290085 -0.0014412715
000040 41 c4 ab bd 9c c5 73 3d d5 2d 29 bd a6 92 0f be
       -0.08387042 0.059514627 -0.041303474 -0.14020786
000050 e0 a7 26 bc 7a 3c a9 3b 8a ca 49 3d 3d c0 1b bc
       -0.01017186 0.00516468 0.049265422 -0.009506282
000060 bb 04 68 bd f8 98 c6 3d 63 b6 c8 3c 6c a0 e2 3c
       -0.056645136 0.09697145 0.024501031 0.027664386
000070 7c 38 97 bd a3 eb 97 3b af 9c c4 3c 9e 0f 86 bd
       -0.073838204 0.0046362444 0.024000494 -0.065459475
000080 62 67 1b 3d a7 23 bd 3d 86 1b f9 3d 33 d2 ec 3c
       0.03794039 0.09235316 0.12163453 0.028908825
000090 ff ef b8 bd e0 01 96 3d 01 d8 66 be d6 1c b5 bc
       -0.090301506 0.073245764 -0.22543336 -0.022108477
0000a0 3a 32 00 3e 6b 4e f0 bc 04 eb 81 3d 0b 75 cf 3d
       0.1251916 -0.029334268 0.06343654 0.10129746
0000b0 70 d1 89 bd a1 90 25 3d 59 85 11 3d 5f 4b 2f 3b
       -0.067294 0.040421132 0.03552756 0.0026747806
0000c0 c9 eb 34 bd 33 e4 26 3d 88 d8 96 bd 93 38 78 bd
       -0.044170175 0.04074497 -0.07365519 -0.06060083
0000d0 76 40 5e 3a 1d 32 f1 3c 89 4c 3f 3d 17 cc 0b bd
       0.00084782334 0.029442841 0.04670385 -0.034130182
0000e0 5e 57 a0 3d 46 cd af 3c 8c f9 bd 3d 5e e4 57 bd
       0.07829164 0.021460187 0.09276113 -0.052708022
0000f0 7c 45 8e 3d 0a 6b 85 bd 19 c3 e0 3b a2 d6 e9 3d
       0.06946847 -0.06514557 0.006859195 0.11417891
000100 8e e4 77 3d d4 db 04 3e c6 ec c8 3e dc c5 26 3e
       0.0605207 0.12974483 0.39243144 0.16286415
000110 e7 2c 77 bc 22 f8 db bd 32 60 7d 3e 6c fb a0 3d
       -0.015086389 -0.10740687 0.24743727 0.07860455
000120 d2 6e 3b 3d 9c ce 74 3d ac 89 75 3d 2a af 17 3c
       0.045759983 0.05976735 0.059945747 0.009258071
000130 14 d6 86 3d 59 c6 ec 3e 5f f6 5b 3d 6b c8 e2 bd
       0.06583801 0.46245077 0.053701755 -0.11073383
000140 05 22 52 3e 87 82 ff 3d 4a b0 95 bd 53 dc 36 bb
       0.2052079 0.12476068 -0.07309015 -0.002790232
000150 fa 6e 2c 3c dc de a4 3c f8 9c 0c 3e 68 03 1d 3c
       0.010524506 0.020125799 0.13731754 0.009583332
000160 ba 16 7a 3d df 98 94 3d 59 f1 dd 3d 8d f6 77 bd
       0.06105683 0.0725572 0.10837049 -0.060537864
000170 ef 92 75 bd 25 c7 40 be c9 ab 9d bc c1 61 04 3e
       -0.05995458 -0.18825968 -0.019246953 0.12927915
000180 3e 96 33 bd 02 43 4e 3e d0 07 7f 3e 85 b7 89 3e
       -0.043844454 0.20142749 0.24905324 0.26897827
000190 c9 84 03 be 2a e4 52 3c 14 27 83 3d b9 ae 01 be
       -0.12843622 0.012871781 0.06403938 -0.12664308
0001a0 81 f5 cd 3e 5b 1d a2 3d e8 76 ab 3d d8 f8 c2 bc
       0.40226367 0.07915755 0.08372289 -0.023800299
0001b0 55 7e 9f 3d 7c 65 a5 3d d0 76 8d bd b1 5a ba bd
       0.07787768 0.08075997 -0.06907427 -0.09099329
0001c0 cf 7c 0e 3d 7b 61 9d 3a 6e b6 e3 bc cf 11 d4 3d
       0.034786996 0.0012007201 -0.02779695 0.10354959
0001d0 ab a0 83 3d 2c d7 c8 3c 09 e1 32 3d d6 f0 35 3e
       0.06427129 0.024516664 0.04367164 0.17767653
0001e0 73 4e 0b bd af 38 ee 3e db b6 2a 3e ab 2d e0 bc
       -0.034010362 0.4652762 0.16671316 -0.027365526
0001f0 e1 99 b7 bc 9d d2 82 3e 0e 53 e3 3d b0 4f 1d 3d
       -0.022412242 0.2555131 0.11099826 0.038406074
000200 f0 48 01 3c 89 22 a9 bd 4f d6 1c be 98 97 72 bd
       0.007890925 -0.0825854 -0.15316127 -0.059226602
000210 6a 2b c3 3d 4d 41 0a bd 02 d3 a9 bc 35 9b 06 bd
       0.09529765 -0.033753682 -0.0207305 -0.03286286
000220 c9 6a a1 3d 67 24 8d 3d ab 37 0d bd 56 d6 00 bd
       0.07881696 0.06891709 -0.034476917 -0.031454407
000230 71 28 fa bc 6a 99 ba 3d 68 5b 14 3d 8a 6d 55 bd
       -0.030536862 0.09111293 0.036219984 -0.052106418
000240 a4 24 83 bd c9 86 30 ba d1 78 80 3d 84 56 ab 3d
       -0.06403473 -0.0006733952 0.06273044 0.08366111
000250 85 f3 1c bd 51 53 1f be 9f 37 6f bd c4 31 02 3d
       -0.038318176 -0.15559126 -0.058402654 0.03178574
000260 99 04 fe bd 3e c9 a1 3d ad e1 ad 3d 6d 76 43 bd
       -0.12403221 0.07899712 0.0849031 -0.04772036
000270 23 fe 7f 3d 37 58 08 3e eb 89 da 3d a9 3f 8b 3d
       0.062498223 0.13314901 0.10670837 0.067992516
000280 9c 18 e8 bd 20 e1 03 be bc 76 51 bd dc 77 8d bd
       -0.11332819 -0.12878847 -0.051138625 -0.06907627
000290 71 ab bf 3d 4e 52 a9 3d 0d 7f c6 be 2c 6d 13 3d
       0.09358872 0.082676515 -0.38768807 0.035992786
0002a0 15 db 8a 3e 83 4b 10 3e 30 91 88 be a9 f2 99 3d
       0.2712027 0.14091305 -0.2667327 0.07516987
0002b0 f4 49 17 3e 9e 5a 2f 3d c1 97 d5 bd 9d 6b 91 bd
       0.14774305 0.04281103 -0.104293354 -0.07100604
0002c0 32 86 bc 3d 2e 11 2a 3d ab 23 e0 3d 7f 1a e1 3d
       0.09205283 0.04152029 0.10944303 0.10991382
0002d0 4a bb 90 3c cd 31 e4 bb 50 6c 11 3d 27 58 21 be
       0.017667431 -0.0069639445 0.035503685 -0.15756284
0002e0 6c a6 84 bc e2 a9 0d be 4c 13 76 bb 9a 54 e9 bd
       -0.016192637 -0.13834336 -0.0037548123 -0.113930896
0002f0 28 d8 b4 bd c7 1d 3b 3d 9f 50 a4 bd 63 7a 65 3d
       -0.08830291 0.045682695 -0.0802319 0.05602492

grucell.bias_hh f4 [192]
000000 cf 0b 42 3d 0a 92 bc 3d 9a cc af bd 72 d2 a4 3d
       0.047374543 0.09207542 -0.085839465 0.08047952
000010 59 f5 0e 3e 97 a2 01 3e ee eb 25 3e 6f 0e d5 3d
       0.1396078 0.1265968 0.16203281 0.104031436
000020 61 bd b8 3b bc 51 f9 bc eb 3d dd 3d 44 56 66 bd
       0.00563781 -0.030434482 0.108028255 -0.056234613
000030 01 89 8a bd 21 cb 30 ba ba 54 96 3c fd 19 c3 bd
       -0.06764413 -0.0006744136 0.018350948 -0.09526441
000040 e7 bd dc 3a 61 69 c2 bd 04 fc 7f bd 01 ee 97 bd
       0.0016841263 -0.09492756 -0.0624962 -0.074184425
000050 36 98 90 3d 57 52 e2 bd fa 48 1c 3d 5d 44 84 3c
       0.07060282 -0.11050861 0.038155533 0.01614588
000060 85 f7 8b bd 8f 82 80 3d eb 48 97 3c e1 e8 a7 3d
       -0.0683432 0.06274902 0.018467387 0.08198715
000070 b0 d5 1b bd d5 ba 21 3e d6 22 fc 3d 47 2d 03 3e
       -0.038045585 0.15793927 0.12311332 0.1281024
000080 a1 07 c2 bd 86 71 09 3e cd f1 dc 3d 32 4b 81 3d
       -0.09474111 0.13422212 0.10788307 0.063131705
000090 1b d3 c7 3d 98 82 85 3d 9c a5 18 be b7 ce 42 3b
       0.09757062 0.065190494 -0.14906925 0.0029725262
0000a0 f5 19 17 3e 47 c7 2b bd e7 98 3c 3e 3b 42 e9 3d
       0.14755996 -0.041938093 0.18417703 0.113895856
0000b0 82 77 88 3d 7f 77 de 3d b1 aa fb 3d 7e 96 84 bd
       0.06663419 0.10862636 0.12288416 -0.064740166
0000c0 65 6a 7b 3d 39 08 ad bd 88 d3 ec 3d 98 06 08 bd
       0.061380763 -0.08448834 0.11563784 -0.033209413
0000d0 b0 d6 ee 3d be 9f 58 3c 75 bd 2a bc 79 c4 70 3d
       0.11662042 0.013221679 -0.010421147 0.05878112
0000e0 b4 bf 03 3e 08 2e cc 3d b3 27 74 bd 55 d2 dc bc
       0.12866098 0.09969717 -0.059608173 -0.026955763
0000f0 c1 e0 c3 bd 3d 46 78 bd 1a a7 5c bd f2 e7 3e bd
       -0.09564353 -0.06061386 -0.053870298 -0.04660792
000100 b5 bf 42 bd a3 5a 27 3e 62 c2 f4 3e 03 4e 64 3d
       -0.047546107 0.16343169 0.47804552 0.05573846
000110 d9 5f 85 3d 9d e7 02 3e 02 59 a2 3e 94 1e 1b 3e
       0.06512422 0.12783666 0.31708533 0.15148383
000120 55 b4 a3 3d b5 e3 87 bd 0b 04 93 bd d8 5b a7 3d
       0.0799338 -0.066352285 -0.071785055 0.08171815
000130 e4 66 38 3e e2 9f f6 3e 1f 00 46 3d a3 2d ee 3d
       0.18008 0.48168856 0.04833996 0.11629798
000140 21 01 35 3e 97 1a bd bd f0 0e 41 3d bd 40 92 3d
       0.17676212 -0.09233587 0.047133386 0.07141254
000150 de 4c 2a bc 81 9d 43 bd 16 4e da bd 51 a8 32 3e
       -0.010394303 -0.04775763 -0.10659425 0.1744702
000160 30 07 5d bb ed e7 7a 3d 76 88 2f 3e ce 90 53 3d
       -0.0033726208 0.061256338 0.171419 0.05165177
000170 a8 30 88 3d 0e 48 79 bd 58 94 36 3b 6d b2 5b bd
       0.066499054 -0.060859732 0.0027859416 -0.053636957
000180 84 b2 89 bd 42 b4 58 3e 92 00 90 3e 3a a9 76 3e
       -0.06723502 0.21162513 0.28125435 0.24087992
000190 84 f1 d3 3b 27 a3 b8 bd 02 4d e8 3c c3 d1 da 3d
       0.006468 -0.09015494 0.028357033 0.1068454
0001a0 78 f7 9a 3e 5f 26 c5 bb 6c 42 22 3e 77 f5 90 bc
       0.3026693 -0.006016537 0.1584565 -0.017695172
0001b0 a5 62 b8 3d 7e 93 1b 3e 15 bf 3c 3b a3 4f 8d 3c
       0.0900319 0.15192983 0.0028800417 0.017249888
0001c0 32 03 2e bd 44 fe 92 bd 3f 34 b9 bd c8 31 cd 3d
       -0.042483516 -0.071774036 -0.09043168 0.10019261
0001d0 d5 37 d4 3d f4 41 f5 3d 61 13 ca 3d bd 44 b7 3d
       0.103622116 0.1197547 0.098669775 0.08948658
0001e0 86 b0 78 bd 03 61 e8 3e d6 04 18 3e 62 a1 11 3d
       -0.06071522 0.45386514 0.14845595 0.035554297
0001f0 01 c8 4c 3d d3 34 64 3e 88 19 b0 bd 07 1b c6 bd
       0.049995426 0.22285776 -0.0859862 -0.09673124
000200 5f ef b9 bc c9 57 cd 3d dd e9 b5 bd 67 8e 99 3d
       -0.022697149 0.10026509 -0.088824965 0.07497864
000210 43 d9 cb bc 1c fc 5e 3b e2 9c 90 3c 05 8d c1 bc
       -0.024883872 0.003402478 0.017652933 -0.023626814
000220 0d 62 d2 bd d7 c4 21 be 5b 3b 46 bd 53 57 08 be
       -0.10272608 -0.15797745 -0.04839645 -0.13314562
000230 28 58 65 3d d3 2b 3a 3d e3 f0 80 bd 30 44 a3 3d
       0.055992275 0.04545195 -0.062959455 0.0797199
000240 1d d7 76 3d 61 70 e5 3c 0b 6f a1 3d f0 4d b6 bb
       0.06026374 0.028007688 0.07882508 -0.00556349
000250 af be 89 bd 87 98 d9 3d 74 39 0c 3e 62 59 b6 bd
       -0.06725823 0.106247954 0.13693792 -0.08903767
000260 c6 94 3b 3d e6 6f 84 bd 83 3a 0c 3d 35 6b 73 bd
       0.04579618 -0.064666554 0.03423549 -0.059428412
000270 72 0d a6 3d e5 e9 5b 3e a1 c8 3f 3c c9 36 8e bd
       0.08108033 0.21475942 0.0117055485 -0.06944043
000280 14 2f ea 3d cd b5 ff bd 6d 22 e3 3d ab a5 65 3c
       0.11434761 -0.124858476 0.110905506 0.014016549
000290 9a eb a2 bd 59 d9 d6 3d c6 da 3a be 65 7f c7 3c
       -0.07955094 0.104906745 -0.18247518 0.024352739
0002a0 1d 29 ef 3d 09 fe 12 3e 1e 93 93 bd e2 19 22 bd
       0.116777636 0.14354719 -0.07205795 -0.039575465
0002b0 e9 87 35 bc 7e e5 08 3c 01 ee 15 3d 72 f5 5a bb
       -0.011079767 0.008355496 0.03660393 -0.0033410457
0002c0 14 4f b9 bd 57 5d 90 3d 26 55 61 3d a7 5a c0 3d
       -0.09048286 0.07049053 0.055012845 0.093922906
0002d0 0e 0c a8 3d fa a2 a0 bd d5 65 3e bb 26 fa a0 3d
       0.08205424 -0.07843585 -0.0029052396 0.07860212
0002e0 e5 4e 74 bc e6 59 8d bd 6d 95 0c be c0 cb db 3d
       -0.014911388 -0.069019124 -0.13728876 0.107322216
0002f0 69 41 2e bd 40 f3 c9 bd 33 7d 84 3d 8a bf 01 be
       -0.04254285 -0.098608494 0.06469192 -0.12670723

linear.weight f4 [2, 64]
000000 89 62 02 be e7 61 95 3e 19 f5 05 be 13 4d 8d 3c
       -0.127329 0.29176256 -0.13081779 0.017248666
000010 f0 31 f8 3d 65 f6 27 be 07 fb c0 be 7a 07 00 be
       0.121189 -0.16402586 -0.3769152 -0.12502852
000020 4e 13 29 3c 31 99 b4 bd 77 07 cb 3d 3b ab 66 3e
       0.010319544 -0.088182814 0.09913533 0.22526257
000030 06 09 d7 3c ed 8a 33 3e a8 08 13 3c e1 3c 82 3d
       0.02624942 0.17533465 0.008974232 0.06359268
000040 05 03 8c be 7b ca 1b bd 00 c9 2c 3d c0 82 4a be
       -0.27346054 -0.038034897 0.042183876 -0.1977644
000050 eb a7 ea bd 43 e4 05 3e ce e9 90 bc 7c b3 84 be
       -0.11457809 0.13075356 -0.017689612 -0.25918186
000060 49 73 1f be cd 67 fe 3d ef c3 34 3d 3a d4 8f 3d
       -0.15571322 0.12422142 0.04413217 0.07022901
000070 eb d3 1a be 25 07 99 3e 9a 11 b5 be 44 e9 1d bd
       -0.15119903 0.29888263 -0.3536499 -0.038552538
000080 78 65 f9 bd c8 a7 d7 3d 3c 28 b9 bd b6 ef 95 3c
       -0.12177557 0.105300486 -0.09040877 0.01830278
000090 c2 30 89 ba cf 0c 1a bd 00 09 0d 3e ce fe 49 bd
       -0.0010466801 -0.03760987 0.13772964 -0.049315266
0000a0 ee fd 98 3d 4b 43 80 3e 61 4f 8d 3e 99 d5 a4 3d
       0.07470308 0.2505134 0.27599624 0.08048553
0000b0 7d 9b ea 3a 07 a5 0f be 6f db 3b 3d ae cc 5b 3e
       0.0017899122 -0.14027797 0.045863565 0.21464798
0000c0 dd fb f0 3c 1d ab 88 bd d4 52 a5 3d 05 b3 de 3d
       0.029416973 -0.06673262 0.08072439 0.10873989
0000d0 0e 7b 3a bb db fd 82 3e 8d 86 06 be dc 54 7c bd
       -0.0028454694 0.255843 -0.13137265 -0.061604366
0000e0 2e c6 17 3e e1 81 b0 be 2e 6f 29 bc f7 2c c3 bd
       0.14821693 -0.3447409 -0.010341449 -0.09530061
0000f0 7a da 56 3c 83 37 da bc af 48 29 bd ca 47 39 be
       0.013113612 -0.026637798 -0.041329082 -0.18093792
000100 9c 06 24 bd 63 fd a0 3d 43 c7 b9 3e 2f f7 60 3e
       -0.040045366 0.0786083 0.36284837 0.21969293
000110 01 b2 12 3c 45 20 61 3e 60 14 96 3e fb 1e 85 bc
       0.008953572 0.21984966 0.2931242 -0.016250124
000120 66 f1 99 3d 8d aa e2 bd 7b d4 d5 3c e3 45 c4 3d
       0.07516746 -0.11067686 0.026102295 0.09583642
000130 24 12 96 be a3 c3 9c be 09 f3 96 3c 2a 3e b5 bd
       -0.29310715 -0.3061801 0.018426435 -0.088497475
000140 4b b4 30 3e 8e 70 0a 3d f0 3e 09 3d fe 4c 7a bd
       0.17256276 0.033798747 0.033507288 -0.06110858
000150 6c 89 90 3d 9f 44 ba 3c 18 21 5b bd 67 0d 6c be
       0.07057461 0.0227378 -0.053498358 -0.23051988
000160 2e a6 73 bd a8 e3 49 be 3e bc 9b be 14 64 8c 3d
       -0.059484653 -0.1971575 -0.30417055 0.06855026
000170 9d bc 47 3d fe c7 ae be 6d aa 84 3e 8e 63 e5 3d
       0.04876386 -0.34136957 0.25911275 0.11200629
000180 7c 34 62 bd c3 53 a5 3d 02 a8 2c be 7e 20 f0 3d
       -0.055225834 0.08072617 -0.16860965 0.117249474
000190 83 cc f8 bd 6d e0 0f be cd 2f 55 be 29 31 c8 bd
       -0.121483825 -0.14050455 -0.20819016 -0.097750016
0001a0 96 84 9f be 4a 79 60 3d b7 64 5e be 2c 1f 82 be
       -0.31155843 0.05480317 -0.21718107 -0.25414407
0001b0 97 4f 07 be a0 35 8f 3d 29 27 4c 3d 6e fb e4 3d
       -0.13213955 0.0699265 0.049842034 0.11180769
0001c0 1b 32 17 be d2 18 33 3d 1f 07 b6 bd cf a2 ee bd
       -0.14765207 0.043724842 -0.08888077 -0.11652147
0001d0 cd 84 d5 3c 15 82 e4 3d 0a 8a c4 3d dc a1 4c bd
       0.0260643 0.11157624 0.09596641 -0.04995905
0001e0 d0 e1 d9 bd 02 d4 f4 3d 5c 01 4d 3e c6 09 1e 3e
       -0.106387734 0.119545 0.2002005 0.15433416
0001f0 46 58 a0 3d a0 db a4 bb f1 4d c1 3d d0 79 a6 bd
       0.07829337 -0.005031064 0.09438694 -0.08128703

linear.bias f4 [2]
000000 09 27 78 bc 2e 84 e9 3c
       -0.015146025 0.028505411

linear_final.weight f4 [5, 64]
000000 42 0f b3 bc f5 47 31 bc cf 4b bc 3d 2a 08 4d bd
       -0.021857861 -0.010820379 0.09194147 -0.050056614
000010 74 00 3e 3d 71 a0 87 3b 54 02 91 be 4d bf 84 3c
       0.04638715 0.004138999 -0.2832209 0.0162045
000020 c6 7e dc bc 82 64 bf 3c 96 d6 e0 3c f2 43 a6 3c
       -0.026915919 0.023363356 0.027446073 0.02029607
000030 3d ea a9 3c 3a 1b ba bd 7d 11 87 bd 8e 71 b5 bc
       0.020741576 -0.09087224 -0.065951325 -0.022148874
000040 31 3d 9a bb 16 ee 97 bd d0 2a a8 bc f0 93 b7 bc
       -0.0047070016 -0.07418458 -0.020528227 -0.02240941
000050 a2 80 9e bc b2 9e 2b 3d de dd e4 bc 6b 6a cf 3c
       -0.019348446 0.04189939 -0.027937826 0.025319299
000060 d3 4b 05 3c c8 09 b5 bc 06 71 bb 3d 95 21 b2 bc
       0.008135754 -0.02209939 0.09152417 -0.021744529
000070 cd f8 10 bd 73 ba e9 3d 04 37 73 bd 44 08 3e 3d
       -0.035393525 0.114125155 -0.05937864 0.0463946
000080 e5 ae 65 bd 21 a1 2c be 4a fc 14 bd 6b fa 86 bd
       -0.056074996 -0.16858341 -0.036373414 -0.06590732
000090 3e b7 ec bc 89 88 07 3c 22 4e 11 3d aa 57 63 bd
       -0.02889597 0.008272299 0.035474904 -0.055503525
0000a0 c4 2c 96 be 2c fa c1 bd e8 bb db bc 6e 17 5c 3c
       -0.29331028 -0.094715446 -0.026823 0.01343332
0000b0 65 a9 51 3d 32 98 85 3b 54 a7 52 bc 31 47 01 3c
       0.051186938 0.004076981 -0.012857277 0.0078905085
0000c0 28 5e bb 3c 7f e4 de 3c 40 a5 10 3d 62 c8 97 3d
       0.022872046 0.027208565 0.035313845 0.07411267
0000d0 ad 70 8c 3b c6 8f 60 3b 1f 48 87 3c f1 d1 81 3d
       0.004285893 0.0034265383 0.016513882 0.06338871
0000e0 90 8c 89 bc 8e 0d 2d bd b0 75 ee 3d 18 b1 5e bd
       -0.016790658 -0.042249255 0.11643541 -0.05436811
0000f0 eb 2c 15 3d 6d 2f 71 bd 43 44 8b bc f3 df 42 3c
       0.03641979 -0.05888312 -0.017000323 0.011894214
000100 2c 2e 93 3c e1 1d 18 3d be 0e 57 3d 14 fe 2b bd
       0.017966352 0.03713787 0.052504294 -0.041990355
000110 0b 98 24 bc 16 29 40 bc c5 32 cc 3c 30 c3 b1 3c
       -0.0100460155 -0.011728546 0.024926553 0.021699518
000120 3e fe ad bc 4a 07 79 bc dc 7d 3f bc a0 72 2b bb
       -0.021239396 -0.015199492 -0.011687722 -0.002616085
000130 75 30 d8 3d b7 7f 5a 3e 7e 6c 16 bd bf 64 bb 3c
       0.105561174 0.21337782 -0.03672456 0.022875188
000140 97 eb b8 bc 55 09 49 bc 7e a3 6b bc 6b 51 5b bc
       -0.022573275 -0.012270291 -0.014382241 -0.013386111
000150 f2 5a 28 3d 1c 11 12 3c 48 28 01 bd 05 77 c9 bc
       0.041102357 0.008915212 -0.031532556 -0.024592886
000160 2d ac 43 3c aa fc 45 bd 93 53 4a bc 4c ea a9 bd
       0.011942905 -0.048336662 -0.012349027 -0.08296642
000170 d1 2e 40 bc 38 70 34 bd 4e 41 f3 bd 60 6d 99 bb
       -0.011729912 -0.044052333 -0.1187769 -0.004682228
000180 d4 0b a3 bc 3e 72 c1 3c c9 9b 03 bd f7 bc 1d 3c
       -0.019903101 0.023614045 -0.03213099 0.009627572
000190 31 d8 4e 3c ef 9d aa bd 0e 6c 71 3e eb 8d 13 3c
       0.012624786 -0.08330905 0.23576376 0.009006004
0001a0 31 bc 69 3d 66 37 3e 3b 80 f7 f3 bd b6 ed d9 bc
       0.05706424 0.002902472 -0.11912441 -0.026602607
0001b0 e3 5c 08 3c 65 e6 8a bc 11 2e 43 3d 6f 49 8d 3c
       0.008322927 -0.016955564 0.047651354 0.01724693
0001c0 ec 39 29 3d 46 78 eb ba 23 2c b0 ba 68 5a 6a 3d
       0.041315004 -0.0017964921 -0.0013440888 0.057215124
0001d0 f5 8e 9d bc db 0c ee bc 35 d6 c0 3c fe d2 05 3d
       -0.019233206 -0.029058864 0.023539642 0.03267192
0001e0 c1 50 18 3d f8 9c 89 bd 05 c6 ac 3d dc d7 a3 3b
       0.037186388 -0.067193925 0.08436207 0.0050000977
0001f0 1f a2 b0 3c 85 49 a8 3d 91 00 eb bc 02 6c 9a bb
       0.02156168 0.08217148 -0.028686794 -0.0047125826
000200 4f df b6 3e cd d9 37 be 97 9e fa bd 03 6b 57 be
       0.35717246 -0.17954178 -0.1223728 -0.21036915
000210 12 5e 89 bd 67 2e 4c 3d 5a cb d0 3d a1 c3 ac 3c
       -0.067073956 0.04984894 0.10195036 0.021089377
000220 81 97 a4 bd 55 ab 0b 3e 78 b4 25 bd 52 6f d9 bd
       -0.080367096 0.13639577 -0.04045531 -0.10616936
000230 94 22 54 3e 03 d7 81 3e 8c 18 e3 3e d8 19 40 3e
       0.20716316 0.25359353 0.44354665 0.18759859
000240 91 5c 4c be 29 ca 67 bd 26 29 57 be 9e 4b 48 be
       -0.19957186 -0.05658928 -0.2101179 -0.19560096
000250 ea 49 98 3e 68 d3 88 be 30 ad 55 bd 1b be 5a 3e
       0.29743892 -0.2672379 -0.052167118 0.21361582
000260 b5 9a 8e 3e cb e1 c4 3c 18 eb ab bd bd 3e 0b 3d
       0.27852407 0.024033448 -0.0839445 0.03399538
000270 01 42 7c bd 73 d4 16 3f 2a ef ea be a1 21 05 be
       -0.061586384 0.5891792 -0.45885593 -0.1300111
000280 f4 ac 98 3e 85 08 3b be 3e dd 8a bd f1 26 9b bd
       0.29819453 -0.18264969 -0.0678048 -0.07575787
000290 4a 3b a6 bd db 5d f0 be 59 44 7e 3e 2e 42 0f be
       -0.08116777 -0.46946606 0.2483076 -0.1399009
0002a0 3a e8 a5 be 84 66 54 be 8a 0e 02 bf 4b 31 1d be
       -0.32403737 -0.20742232 -0.50803435 -0.15350835
0002b0 e8 94 b4 be ca 6f b2 bd f4 75 8f 3d f8 6f 16 3d
       -0.35269856 -0.08712728 0.0700492 0.036727875
0002c0 f1 e7 21 be 2e 59 9b bd 6b 67 3c be e0 3e a3 be
       -0.15811135 -0.07585369 -0.18398826 -0.31883907
0002d0 4f 63 d9 bd 1a c7 63 bc 10 54 e6 bd fb fa c6 3e
       -0.10614645 -0.01390245 -0.112465024 0.38863358
0002e0 9f 02 c0 bd f2 b4 10 3f ca 57 c7 bd 8e 81 6d be
       -0.093755 0.565261 -0.09733541 -0.23193952
0002f0 45 21 94 3e ab 80 17 3d 79 70 83 3e c1 89 47 be
       0.28931633 0.03698794 0.25671747 -0.19486143
000300 8b 6e 33 3e 05 2c 90 3d 3b b9 7d bd 64 72 01 be
       0.17522638 0.07039646 -0.061944228 -0.12641293
000310 7f b6 2f 3e e4 d3 ab bd f3 11 94 3e ea e8 22 3d
       0.1715946 -0.08390024 0.28919944 0.039772905
000320 80 79 0a 3e d4 87 60 3d 77 6f 82 3c fb 30 ee 3d
       0.13522911 0.054817036 0.015922291 0.11630436
000330 3e 37 a2 3c d7 49 1d be 85 4b 66 3e 53 80 e1 3d
       0.019801732 -0.15360199 0.22489746 0.11010804
000340 3f ce 4f 3e 0b 4e 8e bd 86 3c 42 be 56 32 7d be
       0.2029352 -0.06948479 -0.189684 -0.24726233
000350 ea ac c2 3e 9d 65 c2 3c 04 4a 8c 3d 28 19 56 bd
       0.38022548 0.023730094 0.06850055 -0.052270085
000360 e5 2a 27 3e 08 c7 06 be 56 a2 32 3c 3c d1 c3 3e
       0.16324957 -0.13161862 0.010902962 0.3824557
000370 c3 8e dd bd ae 16 a1 bd 23 d5 8d be 45 0a 19 bd
       -0.10818245 -0.07865654 -0.27701673 -0.03736331
000380 7d 5f ae bd a5 d3 9e bc 52 f4 70 be b9 20 db bd
       -0.08514307 -0.01938803 -0.23530701 -0.10699601
000390 ce c3 03 be b1 3a b7 be 28 f2 31 3f 29 9f 40 be
       -0.12867662 -0.35786965 0.69510126 -0.18810715
0003a0 ce 01 c3 be 34 9e d7 be ad 84 b6 3d 3d 72 59 be
       -0.38087314 -0.42112887 0.08912025 -0.21234985
0003b0 96 50 91 bd 89 ad d5 3d a3 e8 27 3e 72 b4 d0 3d
       -0.07095449 0.1043349 0.16397338 0.10190667
0003c0 42 88 1c 3e 0a 28 52 be 34 59 92 be 7c 76 ac be
       0.15286353 -0.20523086 -0.28583682 -0.33684146
0003d0 99 85 1d be ae f3 e9 3c 7c cb 06 be 53 2f 58 bd
       -0.15382995 0.028558578 -0.1316356 -0.052779507
0003e0 3c 85 5b 3e 64 7f da be 4b d9 90 be e9 b0 38 be
       0.21437544 -0.42675316 -0.2829078 -0.18036236
0003f0 c7 3d 54 3e 9b 42 d1 bd 8a da c4 bc 93 2b e0 bd
       0.20726691 -0.10217782 -0.024029989 -0.10945811

linear_final.bias f4 [5]
000000 30 49 b2 3b 19 bb b1 3d a1 47 a6 bf a0 f5 d2 bf
       0.0054408535 0.08678264 -1.299061 -1.6481209
000010 b6 ac 7a be
       -0.24479946
