model_checkpoint/zara2/latest.pth (torch_old, 55823 bytes, 10 tensors)

gcn.gc1.weight f4 [2, 2]
000000 76 99 31 3f 98 73 83 bb 23 e4 4c 3d 84 ff b2 3f
       0.6937479 -0.0040115826 0.050022256 1.3984227

gcn.gc1.bias f4 [2]
000000 50 a7 0f be c7 0c 85 be
       -0.14028668 -0.2598631

grucell.weight_ih f4 [192, 2]
000000 33 9c f8 bd f6 b8 eb bd 64 1f 1c be 55 1f 20 3d
       -0.12139168 -0.11509888 -0.1524635 0.03909238
000010 22 35 f0 bd b4 af e6 bb a7 0f 19 be 15 2d c1 be
       -0.11728884 -0.0070399884 -0.14947377 -0.37729707
000020 ba d5 23 3e 7b c1 d5 3c f8 11 42 be 43 d9 09 3d
       0.15999499 0.026093235 -0.18952167 0.033654463
000030 e7 3b 93 3c 48 bc b7 bc e6 13 b0 bd 24 3e f4 bc
       0.0179729 -0.022428647 -0.08597545 -0.029814787
000040 ae 1c 12 be 9c 52 45 bd 43 62 f2 bd 70 36 e6 3d
       -0.14268753 -0.048174486 -0.11835148 0.11240852
000050 eb c4 d4 3c 0b b8 fb bd 90 ba 83 3b e5 0e 6d be
       0.025972804 -0.12290963 0.0040200427 -0.23150213
000060 a5 a9 4a bd 89 ef 8a 3c 99 41 66 bd 0b 00 7c 3d
       -0.049478192 0.016959922 -0.056214903 0.06152348
000070 06 20 d8 3d 41 08 13 be 0c 0d de bc 95 82 54 3d
       0.10552983 -0.14358617 -0.02710583 0.051882345
000080 3c 61 af 3d 29 2b fa bd 1a 18 6a 3d 3e f5 ad 3d
       0.08563468 -0.122152634 0.05715189 0.08494042
000090 de 95 e5 bd a2 02 b6 bd 97 20 fa 3c 53 56 c8 bd
       -0.112102255 -0.08887221 0.030533118 -0.0978209
0000a0 ea 30 10 be 17 9c fd 3c e6 98 5f 3d 24 61 e5 bd
       -0.14081159 0.030958219 0.054589175 -0.11200169
0000b0 81 f5 c4 bd 21 9c a2 3c 20 bc ce 3c e3 fe ae 3e
       -0.09617139 0.019849839 0.02523619 0.34178838
0000c0 a8 1a de bd 50 82 d5 3c 6f 34 cf 3d ee 24 20 3d
       -0.10844928 0.026063114 0.10117423 0.03909772
0000d0 53 da 61 bd 13 1f dd 3c 7b 7e cc bc 0b 1e 3a 3e
       -0.05513985 0.026992356 -0.024962654 0.18175523
0000e0 25 8e c5 bd 20 80 c3 3d 11 37 bb 3d 62 6c d2 bc
       -0.096462525 0.09545922 0.091413625 -0.025686447
0000f0 a3 e7 c4 bc f2 80 14 3e 8e f4 2a 3e 3c 8b ef 3d
       -0.024036234 0.14502314 0.16694853 0.11696479
000100 ac e3 91 3d 8a 58 1d bd b3 9f 48 bd af a7 bd bd
       0.07123503 -0.038414516 -0.048980426 -0.09260499
000110 96 55 05 bb 72 0e b4 3d 93 85 c6 bd fd d9 42 3e
       -0.0020345203 0.08791818 -0.09693446 0.19028468
000120 4d 46 54 be 86 29 0a ba 94 79 da bd 0d 4e 35 3c
       -0.20729943 -0.00052704697 -0.106677204 0.011065972
000130 2a 29 40 be e3 1c 1b 3e 97 64 09 be 42 f6 0c 3e
       -0.18765703 0.15147738 -0.13417278 0.13765815
000140 0e f3 cc bd 13 e2 1c 3e 0c 80 1a be 5e d4 53 3c
       -0.100072965 0.15320615 -0.15087909 0.01292905
000150 ff 54 3c 3d 7c a8 c1 bd 70 10 95 3d cb fe 85 bd
       0.045979496 -0.09455964 0.07278526 -0.065427385
000160 74 82 d4 3b e7 aa d9 bd ec ac 9f bc 28 30 c8 be
       0.006485278 -0.106283 -0.019491635 -0.3909924
000170 4b 27 df bd 95 81 ee 3d 04 34 26 be e2 64 53 be
       -0.108961664 0.116458096 -0.1623078 -0.20643952
000180 82 b1 8f 3e 42 d2 05 bd 6e 5d 36 3e da 65 7b 3c
       0.28065115 -0.03267122 0.17809078 0.0153441075
000190 f3 45 db bd 00 da ef bd 32 c7 06 be cb 6f 87 3c
       -0.10706701 -0.11711502 -0.13161924 0.0165328
0001a0 c1 56 0a be aa e8 e7 3d e3 0c 70 bd 73 e1 cb 3d
       -0.13509656 0.11323674 -0.05860604 0.099551104
0001b0 cc 0d df bc da 7d 75 3d 6e 9a 0d bd fe 9f 31 3e
       -0.027228259 0.059934475 -0.034571104 0.17346188
0001c0 cf 34 95 3d 28 c1 9f 3d 28 f5 12 be 36 f7 87 bc
       0.07285463 0.078005135 -0.14351332 -0.016597372
0001d0 86 e4 76 bb 9e 07 dd 3d 07 5e fa 3d b9 3c a0 bd
       -0.0037672832 0.107924685 0.122249655 -0.07824082
0001e0 9b a3 f3 3d 5a b8 2e 3e 14 b3 15 3d 50 68 0b bc
       0.1189644 0.17062512 0.036547735 -0.008508757
0001f0 89 37 95 be 21 8a 67 be 85 8b 80 be d3 3d b0 3d
       -0.29143932 -0.22611286 -0.25106445 0.08605542
000200 31 a2 97 3d 90 cb 4d bc 1d de 9d 3d a0 7e 0e 3e
       0.074039824 -0.01256074 0.0770838 0.13915491
000210 7c bd d4 bc 55 ea 22 3e f6 46 fb bd bc 65 ec 3c
       -0.02596926 0.15909703 -0.12269394 0.028857104
000220 a5 1a 8f bd af 72 71 bd 8b b8 77 3e fb 61 d0 3e
       -0.06987504 -0.05894726 0.24191491 0.40699753
000230 2a 06 49 3e 17 ff 2a 3d 23 5e 9c 3e 28 aa 17 3e
       0.19631258 0.04174718 0.3054057 0.14811003
000240 a4 3f 72 be 8c f3 03 3e b4 d2 ac 3b 37 4c 9e 3e
       -0.2365709 0.12885875 0.005274141 0.30917522
000250 da fb 43 be d2 fd 95 bd ef cf a9 b8 18 bc 1a 3d
       -0.19139042 -0.07323803 -8.0972786e-05 0.037777036
000260 58 d3 09 be d3 b9 f9 3d 71 cd 7c 3b af f4 f8 bc
       -0.13459527 0.12193646 0.00385746 -0.030390112
000270 c3 87 01 bd b9 f4 31 bd 76 1d 20 3c 3f f6 4d bc
       -0.031623613 -0.043446276 0.009772649 -0.012570917
000280 ac 22 f5 b9 d2 f0 e5 bc e9 c7 5d 3d a6 d5 6d 3d
       -0.00046755874 -0.028068934 0.054145727 0.05806508
000290 71 a6 0c 3e ae 5f 83 3e 4f d7 28 3d c3 ac bf bc
       0.13735367 0.25658935 0.04122096 -0.023397809
0002a0 1f 20 e0 3b a6 84 79 bc 6c 16 cc 3d f7 2c 96 bd
       0.0068397666 -0.01522938 0.09965214 -0.07332795
0002b0 af 17 a4 bd ea 18 81 3c 3e b8 86 be 7a f3 24 be
       -0.0801233 0.01575895 -0.2631244 -0.16108504
0002c0 e6 31 52 3e 09 ab 0b 3e b7 83 4f 3d fb 9d 15 bd
       0.20526847 0.13639463 0.050662722 -0.036527615
0002d0 c3 f0 c6 bc 54 6b 30 3d a0 8b c7 bc fc 46 3e 3e
       -0.024284726 0.043071106 -0.02435857 0.18581766
0002e0 37 88 8e 3e 5e e3 9f 3d 6d 27 f4 3d cc 84 39 be
       0.278383 0.07807039 0.11921582 -0.18117064
0002f0 a2 bc bb 3d b5 0e 18 3d a9 09 e4 3e f0 39 94 bd
       0.09166838 0.0371234 0.4453862 -0.07237613
000300 13 92 36 be df 11 94 3e bd a7 79 be ac 37 2c 3e
       -0.1782916 0.28919885 -0.24380393 0.16818112
000310 73 3a fb bc aa 9a 8e 3e 86 75 85 3d bd 3d 91 3c
       -0.03066752 0.27852374 0.065165564 0.017729634
000320 9d 25 3f be 05 22 d1 be d0 cb f8 3c 33 92 83 be
       -0.18666692 -0.40846267 0.030370623 -0.2569748
000330 29 a0 7e 3e d6 4c f4 bd 8a 9c 06 3c 94 8f 62 3c
       0.24865784 -0.11928718 0.008216033 0.013828177
000340 9d e3 04 3f ec 78 12 3d fe ad 5a 3e c6 5f aa bd
       0.5190981 0.03575985 0.21355435 -0.083190486
000350 34 1a a1 bd 23 b4 97 3d dc 67 33 3e 87 0b 04 3e
       -0.07866326 0.07407405 0.17520088 0.12895022
000360 7a 99 20 3c 7f 95 0d be 09 9c 81 be 0a 2d 3e 3e
       0.009802217 -0.1382656 -0.25314358 0.18571869
000370 6c 14 fd 3d 34 ea 7c 3e 98 ee 0e 3e 29 8f b8 3d
       0.12357411 0.24698716 0.13958204 0.09011681
000380 0a 2d d4 be bb 18 ca be c3 79 af 3b d5 66 ed bd
       -0.41440612 -0.39471993 0.0053550913 -0.11591879
000390 54 8c a3 3e f0 03 df 3a dc a6 e5 be 3b 81 17 bd
       0.31943 0.0017014723 -0.44853866 -0.03698848
0003a0 a1 7e 90 3d 21 04 37 3e 6e 24 58 3e 6b f0 3a bc
       0.070554025 0.17872669 0.21107647 -0.011409859
0003b0 3b 1e 63 bd 55 77 44 bd aa 48 e9 bd f9 d3 81 3d
       -0.055448752 -0.047965366 -0.11390813 0.06339259
0003c0 f0 ea 22 be 24 39 0d 3e d0 7a 51 bd 71 44 dd 3d
       -0.15909934 0.13791329 -0.051142514 0.1080407
0003d0 71 f4 d2 bd 54 eb e1 bd 13 7b 1c 3e 87 92 d9 be
       -0.1030053 -0.110312134 0.15281324 -0.42494604
0003e0 5f d6 e6 3c f2 6b 2d be 9d 7d 86 3d 3c e1 3f 3d
       0.028178392 -0.16935709 0.065669276 0.04684566
0003f0 0c 95 a5 bd c3 af 35 bd 11 53 7e 3e 6d 55 4a bd
       -0.08085069 -0.044357073 0.24836375 -0.049397875

grucell.weight_hh f4 [192, 64]
000000 26 3c ee bd 0a d9 d4 bd d9 21 a6 3d 9f 6e 67 3d
       -0.11632566 -0.103929594 0.08111925 0.05650198
000010 80 9d e7 bb 58 e0 45 3d bb d8 e8 bd 10 a0 b4 bd
       -0.007068336 0.048309654 -0.11369463 -0.08819592
000020 04 47 64 bc bc f3 4f 3c c3 d4 1c 3d 72 29 c7 bb
       -0.013932947 0.012692388 0.038288843 -0.0060779387
000030 e4 d1 16 3d 96 d9 af bd 7d 8c ae 3c 67 cf 8f 3c
       0.03682126 -0.08586423 0.021307224 0.017554952
000040 8b ce cb 3d 19 7a 44 3d 34 55 37 bd 10 d0 cd 3d
       0.09951504 0.047968004 -0.04475899 0.100494504
000050 bb 59 49 bc eb 45 00 be a2 b6 dd 3d e8 7e d5 3d
       -0.01228946 -0.12526672 0.1082585 0.10424596
000060 cc 16 3a bd 6f 33 dd bd ec d7 db bd c2 d8 a5 3d
       -0.045431897 -0.10800826 -0.10734543 0.08097984
000070 77 12 13 bd 04 7d 01 bc aa 2d d0 3d b4 e4 38 3c
       -0.03590628 -0.007903341 0.1016496 0.011284996
000080 1f bc ce bd d6 47 13 3d c4 97 d1 bd 91 8f a3 bd
       -0.10094475 0.03595718 -0.10234025 -0.079863675
000090 ad ee ca 3c be 75 37 bd 69 c7 8b 3d 01 82 60 ba
       0.024772013 -0.044790022 0.06825144 -0.0008564294
0000a0 f0 c1 a3 3d 15 14 ae 3d ba 73 15 3d 49 8c 6c bc
       0.07995975 0.08499924 0.03648732 -0.014437743
0000b0 3d 3d 46 bd 7a 94 8e bd 65 21 4b bd 73 78 d1 3d
       -0.048398245 -0.069619134 -0.049592394 0.10228052
0000c0 bf 3c 38 3d eb c5 f6 bd 13 40 51 bd e0 9f 81 bd
       0.044979807 -0.120494686 -0.051086497 -0.06329322
0000d0 02 76 96 bd 4b 8c 56 3d 83 d2 d8 3d bd bf ec bd
       -0.07346727 0.052379888 0.10587027 -0.11560009
0000e0 81 32 ac bc 3f 35 fd bd 02 f3 94 3d 07 dc b5 3b
       -0.021020176 -0.123636715 0.072729126 0.005549911
0000f0 ae b8 10 3d 73 25 e0 3d 81 a7 da bd ab e2 4c bc
       0.035332374 0.10944643 -0.1067648 -0.012505214
000100 1a 3d 27 3d 41 3f 1c 3e 23 2f 41 ba a7 89 14 3e
       0.040829755 0.15258504 -0.00073693896 0.14505635
000110 2e 16 8d bc 09 02 15 3e b7 39 9f bd 86 dd 0a 3e
       -0.01722249 0.14551558 -0.0777468 0.13561067
000120 3b ed ef bd ef d8 61 3a e0 6c 13 bd 2d cb 34 3e
       -0.1171517 0.00086153945 -0.035992503 0.1765563
000130 ce b8 01 3e 5f 37 86 bd 4b 3c b7 bd 45 0d 10 3e
       0.12668154 -0.0655353 -0.08947047 0.14067562
000140 c4 59 c6 bd 98 43 57 3d 82 1d b1 bd b3 25 8f bd
       -0.0968509 0.052554697 -0.08648206 -0.069896124
000150 f9 0a 81 bd d4 7d 14 be 50 1b cc bd 2d 0b b9 3d
       -0.06300921 -0.14501125 -0.09966147 0.09035335
000160 8d a9 01 be b3 55 44 3e 18 1d 12 be 2e d0 47 3c
       -0.12662335 0.19173317 -0.14268911 0.01219563
000170 52 d7 e5 3d 15 4f 19 bd 40 fc 9a 3d a3 cd f4 3d
       0.1122271 -0.037428934 0.07567644 0.119532846
000180 cd c9 61 3d d6 13 94 bd 91 81 bd bd a3 6e af 3c
       0.055124093 -0.07230346 -0.092532285 0.02141506
000190 0a 6b ee 3d f8 d8 ae bd cc c1 a6 3d 6c 69 11 3c
       0.1164151 -0.08537477 0.081424326 0.008875232
0001a0 8b ba 84 3d af ae 15 be 3c 9a 11 be 35 c8 a9 3d
       0.06480893 -0.14617418 -0.14218992 0.082901396
0001b0 7e cc 49 bd 6f fc 9e bd c9 fa c8 3d 1e 99 ba bd
       -0.049267285 -0.07762992 0.098134585 -0.09111236
0001c0 c7 82 43 3e 17 0e dc 3d d4 1d 11 3e 35 f0 a8 bd
       0.19092856 0.10744875 0.14171535 -0.08248941
0001d0 72 67 16 3e 54 80 b1 bd b1 6b 3c be 4c c4 84 bc
       0.14687899 -0.08667055 -0.18400456 -0.016206883
0001e0 95 8c 6e bd b1 7c 8a 3d e6 24 e5 3c a5 23 76 3d
       -0.05823954 0.06762064 0.027971696 0.060092587
0001f0 0f e5 a9 3d 08 8f b5 3d cd e2 77 3e ab cc 4f 3d
       0.082956426 0.08865172 0.24207611 0.050732296
000200 64 3d c1 bc 5b c5 dd bd 84 d5 a8 bd 5e 4a 02 3d
       -0.023588844 -0.10828658 -0.0824385 0.031809203
000210 0c fa 29 bc 95 93 bb bd 8f 27 d7 bc 58 63 06 3e
       -0.010374557 -0.091590084 -0.02626398 0.13123834
000220 02 b8 7f bd 04 45 0b be 81 0b f0 bc 1e 4d 1a 3e
       -0.062431343 -0.13600546 -0.02930236 0.1506848
000230 4a af be 3d 28 51 bf 3d 0e 50 f5 3d 3b fb b5 bd
       0.093107775 0.09341651 0.1197816 -0.08885809
000240 d2 35 02 be 2d b8 81 bd e7 d1 2b 3d 4c 2b c8 3d
       -0.12715843 -0.06333957 0.041948225 0.09773883
000250 1c 4b e5 3d 66 48 d1 3c 4f 8d cf 3d b4 57 08 be
       0.111959666 0.025547218 0.10134374 -0.13314706
000260 08 57 07 be 1d 55 b8 3d 0d b1 36 ba 45 b7 b0 3d
       -0.13216794 0.09000609 -0.00069691316 0.08628706
000270 35 21 01 3e 56 24 ba bc b2 ac 6f 3d 5d 48 c4 3d
       0.12610324 -0.022722404 0.058514304 0.09584115
000280 44 e6 25 bd 1a bd 34 bc 01 66 03 bd 26 ac 99 bd
       -0.0405028 -0.011031413 -0.0320797 -0.07503538
000290 a5 fa d7 bc 04 cd 0d 3c f4 93 d0 bd 44 41 03 bd
       -0.026364634 0.008654837 -0.1018447 -0.032044664
0002a0 6b b3 ba bc 8e 5c a6 bd 57 c7 db bd 7d c6 1f bd
       -0.022790631 -0.08123122 -0.107313804 -0.039007653
0002b0 bf e6 ad bd 86 98 18 be b2 2c f1 bc 0d 9c fa bc
       -0.08491277 -0.14901933 -0.029440258 -0.030591989
0002c0 99 24 02 bd fb fc 93 bd 53 35 99 bd 4e f3 0d be
       -0.031773183 -0.072259866 -0.07480874 -0.13862345
0002d0 21 22 39 bc 0d 86 a7 bd ac a0 e2 bd 76 da 99 3d
       -0.011299641 -0.08179865 -0.11065802 0.07512371
0002e0 f1 c0 2e 3d b7 69 af bd 09 6b 95 bc 1e 14 53 3b
       0.042664472 -0.085650854 -0.018239515 0.0032208036
0002f0 eb ac f5 3d a7 4a a2 bd 2f 87 1e 3d 3d 64 01 3e
       0.11995872 -0.07924395 0.03870314 0.12635894
000300 c1 50 8e bd b3 83 b8 3d 15 f7 4c 3d dd f0 86 3d
       -0.06948996 0.09009495 0.050040323 0.0658891
000310 43 76 57 be 8e 35 41 3d 39 6f bc b9 f9 73 56 be
       -0.21041207 0.047170214 -0.00035941022 -0.20942678
000320 a9 31 f2 3d 18 e3 23 3e 34 23 df 3d c7 ee 0d 3d
       0.11825878 0.16004598 0.10895386 0.034651544
000330 af 6d 18 3e 58 40 c9 3d 20 11 ba 3d 70 2e a1 3c
       0.14885591 0.09826726 0.090852976 0.019675463
000340 80 0b 34 bd 47 33 20 bd 62 7c 67 3d 83 d6 27 3e
       -0.04395628 -0.039111402 0.056515105 0.16390423
000350 0c 70 13 3d 96 78 94 3c 61 e4 8c bc 3c b0 19 be
       0.035995528 0.018123906 -0.017198743 -0.15008634
000360 d1 38 0e be 44 da 0e 3e af 77 0f 3d 78 e6 1e be
       -0.13888861 0.13950449 0.03502625 -0.15517604
000370 ba c3 a5 bd 39 dc cf bd ff 4c fe 3b 53 8b 7c bd
       -0.080939725 -0.10149426 0.0077606435 -0.061656307
000380 ab d4 90 bd 8c 39 ca 3d 7a 43 6b bd fc dc a7 bd
       -0.07071813 0.098742574 -0.057437398 -0.08196446
000390 fb 78 55 3e d7 8e 13 be f7 03 e3 3b 85 21 80 3d
       0.20846932 -0.14409958 0.006927963 0.06256393
0003a0 86 5b 11 3e ce 22 d4 bc 04 0b ec 3d 7b b8 a4 bd
       0.1419507 -0.025895502 0.115255386 -0.08042999
0003b0 ee 24 28 3e 33 15 da 3d 5a d9 79 bd 8e 15 50 be
       0.16420338 0.10648575 -0.0609983 -0.20320722
0003c0 67 c1 0b 3e f2 59 d8 3d ca d9 55 3c b8 73 e9 bd
       0.13647996 0.10564031 0.013052413 -0.11399025
0003d0 53 22 93 3d 8a 11 7e bd 65 5c 34 3e 21 9b f6 bd
       0.07184281 -0.062028445 0.1761337 -0.12041307
0003e0 8c 7e 29 bd ee 5a 79 bb 33 fd 27 3d e2 79 a9 3d
       -0.04138045 -0.0038048583 0.041012954 0.082752004
0003f0 49 71 b9 bb 20 01 91 bd 1b 7a 7c 3e 7e 19 80 3c
       -0.0056592566 -0.07080293 0.24655955 0.015637156

grucell.bias_ih f4 [192]
000000 d5 c8 c9 3d 4c 3e da bd 68 e7 bf 3d 54 b2 9f 3d
       0.09852759 -0.106564134 0.09370309 0.07797685
000010 ce 4c 0b bc 32 5b b3 bd e7 01 a4 bd 2f 13 06 bd
       -0.008502198 -0.087576285 -0.08008175 -0.03273314
000020 e0 88 5b bd b1 29 a4 bd fa 67 d2 bb 14 99 29 bd
       -0.05359733 -0.080157645 -0.0064210864 -0.041405752
000030 51 06 29 3d 60 2d 8b 3d ba 02 a8 bd 30 3c cd 3c
       0.04126579 0.06795764 -0.08203645 0.025053114
000040 72 5d ab bd 9f 45 4f bd ac f5 99 3d 85 f1 ab bd
       -0.08367433 -0.050603505 0.07517561 -0.083956756
000050 85 df 23 3d 30 00 be bc 08 5b b3 3d 3c 3e d8 bd
       0.040008087 -0.023193449 0.08757597 -0.10558745
000060 e0 0b 21 bc df fd 35 3d 9c a6 2f 3d e5 a8 84 bd
       -0.009829491 0.044431563 0.0428835 -0.064775266
000070 82 cf 9f bd 30 29 b6 bc 42 7e d9 bd b6 b4 3b 3d
       -0.07803251 -0.022236437 -0.10619785 0.045826636
000080 f4 f0 9a bd ac 30 46 3d d2 cb 01 bd 14 23 32 bc
       -0.075654894 0.04838626 -0.03168852 -0.010872621
000090 c4 71 69 3d 43 e9 96 3c b7 1b 36 3e 0b 17 92 bd
       0.05699326 0.018421775 0.1778401 -0.07133301
0000a0 29 52 d2 bb c6 07 99 3c 54 f2 ec bd 67 55 7c 3d
       -0.0064184857 0.018680464 -0.11569658 0.061604884
0000b0 39 a9 81 3d 29 74 63 bd 90 49 97 3d f2 f9 c9 3c
       0.06331105 -0.0555307 0.07387078 0.024655316
0000c0 88 6e f0 3d 22 47 77 bd 66 41 4e 3d 6c a8 69 bd
       0.11739832 -0.060370572 0.050355338 -0.057045385
0000d0 d4 c1 a3 bd a3 e3 76 3c ab d9 26 3e 56 0d b2 3c
       -0.07995954 0.015068921 0.16293971 0.021734875
0000e0 27 00 4f 3d 38 f4 0b 3e 99 08 c9 3d 67 4a 90 3d
       0.050537255 0.13667381 0.09816093 0.07045441
0000f0 b0 c1 3a bd e4 10 54 bd 7f 70 be bd 13 c9 01 3e
       -0.04559487 -0.05177392 -0.09298801 0.1267436
000100 3f f3 ae 3d 46 52 31 3e 0a 8e e5 3b e1 2d 5a 3e
       0.08542489 0.17316541 0.0070054578 0.21306564
000110 25 24 53 3c f5 c3 7c 3e 0f 56 bc 3d 21 1b 4e bc
       0.0128870355 0.24684127 0.09196102 -0.01257971
000120 be b0 e2 3c 1c 61 5b 3d ef 43 09 3e e8 78 26 3e
       0.027672168 0.053559408 0.13404821 0.1625706
000130 d2 23 77 bd 9b df c5 3d 47 ce 45 bd 96 6e be 3d
       -0.060336895 0.0966179 -0.048292425 0.09298436
000140 fb ac 79 3d d7 43 02 bd 29 6e 4e 3d 7a c6 b3 bd
       0.060955983 -0.03180298 0.050398026 -0.08778091
000150 31 a1 c0 bd 51 06 ad bb a3 0e d4 3d 0b 74 8c 3d
       -0.09405745 -0.005280294 0.10354354 0.06858071
000160 f0 ed c1 b8 0f 28 07 be 2d 6b b7 3c 21 2f b3 bc
       -9.2472765e-05 -0.13198875 0.022389973 -0.021873059
000170 2e d7 0f 3e 02 87 7c bc 8b f1 c1 bd 8c 43 80 3e
       0.14046928 -0.015413048 -0.09469899 0.25051534
000180 09 f0 3d 3e 94 c7 0b 3e 0d de f7 bd 57 a4 e3 3d
       0.18548597 0.13650352 -0.121029 0.1111533
000190 66 6b 82 bd c9 71 8d 3d 76 ed d8 3d 69 6f c4 3d
       -0.06368141 0.069064684 0.10592167 0.09591562
0001a0 ee 02 78 3e ae 4e b1 3e 74 a0 45 3b 8f 19 08 3e
       0.24219868 0.3463034 0.0030155452 0.13291
0001b0 4e 3e 9e bc 83 9c dd 3e 2e 5b 37 bd ab 90 92 bc
       -0.019316819 0.4328347 -0.04476469 -0.017891249
0001c0 ee ac 0a 3e 68 b9 a5 3c 4a 36 83 3e 59 e7 3c 3e
       0.1354253 0.02023001 0.25627357 0.18447627
0001d0 b4 38 ba 3d 8e ac a4 bd 81 df 08 be bb 7c 28 3e
       0.090928465 -0.08040725 -0.1336651 0.16453831
0001e0 e2 ac 1f bd a4 01 9a bd 2c 03 cc 3c 69 20 0b 3d
       -0.038983233 -0.07519844 0.024903856 0.033966456
0001f0 b6 a0 27 3e 45 6f 80 bd a6 3b a6 3e d4 a0 26 3e
       0.163699 -0.06271223 0.32467383 0.16272289
000200 c8 1a 9a 3c 67 5d 88 bd 98 a0 99 3c b0 48 51 bd
       0.018811598 -0.0665844 0.018753335 -0.05109471
000210 7a 71 d1 bd 18 c4 74 bd d7 aa 93 bb 8a 58 00 3b
       -0.10226722 -0.059757322 -0.0045064497 0.0019584023
000220 62 b8 e2 bc 1f a5 e4 3a 46 d5 94 bd 26 5d b9 3c
       -0.027675811 0.001744423 -0.07267241 0.022627424
000230 bc 20 4f 3d 9f 46 32 3b 5a 84 1f 3d b3 ef 0b bd
       0.050568327 0.0027202738 0.03894458 -0.034164142
000240 fd 29 92 bc f3 1b 92 3d 16 33 45 bd eb aa 88 3d
       -0.017842287 0.07134237 -0.048144422 0.06673225
000250 90 62 b8 bc 5e 9d 27 bd ef 3b 83 3d 0c 2f c3 bd
       -0.022507936 -0.04092156 0.06407916 -0.09530458
000260 1b e7 69 3d 19 55 69 bd 13 78 12 bb 57 5c 05 3c
       0.057105165 -0.05696592 -0.0022349402 0.008139691
000270 7c 59 a8 bc 93 11 ed 3d 3e 11 65 3d 2f 62 4a be
       -0.020550482 0.11575618 0.055924647 -0.19764017
000280 45 92 e1 3c 51 e2 9a bd b7 be a3 bd 02 5b a2 bd
       0.027535567 -0.07562698 -0.0799536 -0.079275146
000290 36 b9 d0 bd cb b8 21 bd a5 53 8f bd ad 73 2e bd
       -0.10191576 -0.039482873 -0.06998376 -0.042590786
0002a0 73 88 07 bd 2a 9e d3 3d b6 fb 76 3d 55 a1 44 be
       -0.033089112 0.10332902 0.060298644 -0.19202168
0002b0 83 36 ce 3d 76 92 42 be 92 71 25 bd 9b 27 6d bd
       0.10068991 -0.19001183 -0.040391512 -0.0578991
0002c0 b5 d7 75 3d fe c2 9f bd 5a 31 64 be 75 65 2d be
       0.060020167 -0.07800864 -0.22284451 -0.16933234
0002d0 60 fe 2a 3d b6 fd 8e bd f3 60 b6 3d eb 5a 05 3d
       0.041746497 -0.06981985 0.0890521 0.03255741
0002e0 42 a5 81 3d 38 76 21 bd f0 bf 9f 3d a6 f2 02 3d
       0.063303486 -0.039419383 0.07800281 0.03196969
0002f0 7b b7 8d 3c 4e 60 66 3c cb 7d f5 bd e1 c1 d4 3d
       0.017299404 0.014061047 -0.11986884 0.10388542

grucell.bias_hh f4 [192]
000000 9b 42 80 bd 07 c9 98 3c ed 33 6d bd 73 e7 21 bd
       -0.06262704 0.018650545 -0.05791085 -0.039527368
000010 3e 13 17 3c 28 8c b9 3d 7a 1f 06 bd e8 56 94 3d
       0.009220896 0.09059936 -0.032744862 0.072431386
000020 e0 f8 f0 3d 8c 79 78 bc 13 43 8c bd 67 92 c1 3d
       0.11766219 -0.015165698 -0.06848731 0.09451752
000030 1e f7 ec bb 98 fb 80 bd 45 c5 b9 3d 33 aa c1 3d
       -0.007231607 -0.06297988 0.09070829 0.09456291
000040 c8 68 7a 3d 75 0f b3 3d 92 75 ca bd b9 1a 26 bc
       0.061135083 0.087431826 -0.09885706 -0.010138207
000050 86 05 b7 bb 54 ac e2 bd ea 54 e9 3c d4 31 d9 bd
       -0.0055853752 -0.11068025 0.028482873 -0.10605207
000060 c3 39 94 3d 70 25 b0 bd 1c c2 e1 3d 34 7c f1 bc
       0.0723758 -0.08600891 0.110233516 -0.02947817
000070 cc d3 71 3c 31 36 b3 3c 6b 87 9d 3c fb e0 53 3c
       0.014759969 0.021876426 0.019229611 0.0129320575
000080 72 8b cb bd f8 97 03 3d f1 2b a2 3d 5c b7 3d 3d
       -0.099387065 0.03212735 0.079185374 0.046317443
000090 5e ae f1 3c 38 aa c6 3d 28 5d bb 3d b1 92 01 3e
       0.02950209 0.097004354 0.091486275 0.12653615
0000a0 87 d3 63 bd 8c 4b 19 3e 93 81 7d bd 72 48 27 3e
       -0.05562165 0.14970225 -0.06189115 0.1633623
0000b0 48 0d 42 bd 98 a6 0a be 48 fb 45 3d e5 c9 83 3d
       -0.047375947 -0.13540113 0.048335344 0.06434993
0000c0 ad 8f 95 bc 43 fa e3 bd 5a 1e ee bd 48 61 f9 bd
       -0.018256987 -0.11131718 -0.11626883 -0.12176758
0000d0 d2 64 26 bd 03 9c 4c bb 2e e3 a7 3d 9a 4c 1f 3d
       -0.040623493 -0.003122092 0.08197628 0.038891412
0000e0 90 f7 8d 3d 43 85 8d 3c 95 72 fb bd 99 74 63 3d
       0.069319844 0.017275458 -0.12277714 0.055531118
0000f0 ac d7 22 3d f9 0a 9b 3d 68 11 0c 3e 81 aa 8a bd
       0.039756462 0.07570452 0.13678515 -0.06770802
000100 c0 73 8e bd 5a 80 6c 3e 49 47 ee bc 2c ac 87 3e
       -0.06955671 0.23095837 -0.029086726 0.26498544
000110 01 56 79 bd a4 48 6e 3e 08 20 ce 3c 95 d5 18 bd
       -0.060873035 0.23269898 0.025161758 -0.037313063
000120 4b c2 8c 3d db 85 df 3d 70 df af 3d 44 e2 b1 3d
       0.06872996 0.10914203 0.08587539 0.08685735
000130 15 a1 33 bd 37 75 25 3d fa ab a9 bd 0a f6 ba bd
       -0.04385479 0.040394988 -0.08284755 -0.091289595
000140 0b e8 b8 bd d9 f4 25 3d 8e 9a 49 bd 78 96 7c bd
       -0.09028634 0.040516708 -0.04921966 -0.061666936
000150 80 c2 f2 3d 71 e7 d5 bd 12 1b f0 3d 4b 20 0e 3e
       0.11853504 -0.104445346 0.11723913 0.13879506
000160 80 4f b0 bd a8 01 8e bc 1d 98 85 3d eb 32 fc bd
       -0.086089134 -0.017334774 0.06523154 -0.12314399
000170 52 31 00 3e 4c ba da 3b e9 cf 94 3b c2 2a 82 3e
       0.12518814 0.0066750403 0.0045413864 0.25423247
000180 6f 09 86 3d e8 f4 41 3d bf 0a 9a 3d 3b 8f da 3c
       0.06544768 0.0473527 0.07521581 0.026679626
000190 e9 77 17 bc db e4 9e bd 43 b4 27 3d 5b 95 0c 3c
       -0.009244897 -0.077584945 0.040943395 0.008580531
0001a0 e0 78 ed 3d 55 ca c0 3e 61 9b 27 3e 0b b4 5b bd
       0.11595321 0.37654367 0.16367866 -0.0536385
0001b0 ca 38 74 bc 61 c8 d6 3e 00 a0 0d 3e 15 19 f9 3c
       -0.014906118 0.41949752 0.13830566 0.030407468
0001c0 94 9c fa 3d 9f 28 41 3e 80 92 8c 3e d9 d8 d0 3c
       0.12236896 0.18863152 0.2745552 0.025494026
0001d0 ee 7e 95 3d 73 ba 5d bd 5c f0 b7 bd fd 29 54 3e
       0.072996005 -0.05413289 -0.08981392 0.20719142
0001e0 b4 fe 8a 3c 9a e6 ed 3c a3 cb 91 3d 8f f2 7c 3d
       0.016967155 0.029040623 0.07118919 0.06175476
0001f0 63 0b 3e 3e 1e cc 5f bb 8e b3 91 3e ba 34 6d 3d
       0.18559031 -0.0034148763 0.28457302 0.057911612
000200 86 4c 39 3d 45 20 4c be 41 83 5a 3b 1f ab d2 3d
       0.045238994 -0.19934185 0.0033342394 0.10286545
000210 79 96 f8 3c 09 a9 e9 bc a9 38 81 bd eb 19 36 3d
       0.030345188 -0.028522985 -0.06309635 0.04445831
000220 c3 c4 c9 bd 2b 6c 64 bd 7d 96 56 3d b4 9d 2e bd
       -0.098519824 -0.05576722 0.05238961 -0.042630866
000230 82 04 de 3c 0c 9f 3d bd 31 21 49 ba fe 2b 12 bd
       0.027101759 -0.046294257 -0.00076724874 -0.035686485
000240 97 c6 9f 3d 43 a9 d3 39 a0 4a 81 3c aa da 8f bd
       0.0780155 0.00040371166 0.015782654 -0.07024129
000250 a2 3c e1 3d 08 49 38 bd 6f d0 7c 3d e4 3b 39 bd
       0.10997893 -0.044991523 0.061722215 -0.04522313
000260 e3 30 db 3d 10 99 05 bd c5 ac bb bd 83 cc f9 bd
       0.10702684 -0.032616675 -0.091638125 -0.12197211
000270 ec cb c0 3b c3 7e 12 bd c6 ce 6f bd 0e c0 e1 bd
       0.0058836844 -0.03576542 -0.058546804 -0.1102296
000280 77 50 0a be 19 a1 28 bd 6e 9a 66 3d 14 f4 06 3e
       -0.13507257 -0.04116926 0.05629962 0.13179046
000290 15 a7 e3 bc b2 c8 27 3d d5 0e c1 bd a2 fb 93 bd
       -0.027789632 0.040962882 -0.09426657 -0.072257295
0002a0 8d 8a 00 be cd b6 49 bd b5 dd 9d bd d0 0f e4 bd
       -0.12552853 -0.049246598 -0.07708303 -0.111358285
0002b0 75 c6 35 bd e5 c3 5c be 88 ba bf 3d 2b fd 00 bc
       -0.044378716 -0.21559103 0.0936175 -0.00787286
0002c0 a8 62 f0 3d 1e 9f 03 3e 99 21 13 bb 2b 80 81 bb
       0.11737567 0.12853667 -0.0022450446 -0.0039520464
0002d0 fe 8f e2 bd 36 54 bd 3d 7c 35 a2 3d eb 6a 96 bd
       -0.110626206 0.092445776 0.079203576 -0.07344612
0002e0 f9 2e 00 3e ae 18 37 3d ec 3c 81 bd bc a9 f7 3d
       0.12517919 0.04470127 -0.06310448 0.12092921
0002f0 8d f4 88 bd f9 02 dd bd 8a e8 86 bd ad 21 01 bc
       -0.06687269 -0.107915826 -0.06587322 -0.007881564

linear.weight f4 [2, 64]
000000 59 79 50 bd 6f ae aa bd ea 59 8a bd 87 e7 43 be
       -0.050896976 -0.08334052 -0.06755431 -0.1913129
000010 a0 c1 1e 3c e9 a2 7c be 6f 0c f2 3d 29 ad 9a bd
       0.0096897185 -0.2467152 0.11818778 -0.07552559
000020 c0 5d fe bd 2c 45 6e 3e 1f 85 ca 3d e0 b5 10 be
       -0.12420225 0.23268574 0.09888672 -0.1413188
000030 1e de 7e be 5f e9 ad bd a0 27 c3 3d 13 3d e4 bc
       -0.24889418 -0.08491778 0.09529042 -0.027861154
000040 4b 07 24 3d 50 ae 02 be c0 1f b0 3d e7 6a 8a 3d
       0.040046018 -0.12761807 0.08599806 0.06758671
000050 4b c8 2f 3d 0f 29 4b bd e4 a0 05 be 61 c7 9c bd
       0.042915624 -0.049599703 -0.13049656 -0.07655216
000060 a3 92 45 3e d9 44 fd bd a1 44 ac 3d 47 7a f2 3d
       0.19294219 -0.12366647 0.084115274 0.11839729
000070 75 42 4f bd 6f a7 f8 3d d9 50 f3 bd 1d 9c ce bd
       -0.050600488 0.121413104 -0.11880655 -0.1008837
000080 93 3a 0d 3e 37 d7 98 bc 14 6f ad 3d 2a fc bb 3d
       0.13791876 -0.01865731 0.08468452 0.09178956
000090 bc b8 87 3c 92 c5 8f bd 6b c9 2b bd 33 78 5b bd
       0.01656758 -0.070201054 -0.041940134 -0.053581428
0000a0 42 aa 7f 3d 69 5d f8 bc 98 20 23 3e d9 4f 94 bc
       0.06241823 -0.030317979 0.15930402 -0.01810448
0000b0 b3 24 ca 3c ad ae d0 3d 25 16 2d 3e 1d 21 3a 3d
       0.024675703 0.10189567 0.16902979 0.045441736
0000c0 93 a3 6f be c0 64 3d be 4e 02 00 3d 83 57 ab 3d
       -0.23402242 -0.18495464 0.031252198 0.08366301
0000d0 6f 22 22 3d 21 b0 3c 3e b6 2e 98 bd 4d 6d 18 bd
       0.03958362 0.18426563 -0.074307844 -0.037213612
0000e0 0c cc 5d be 88 1b 8f 3c 63 a7 e1 bd b6 34 1f bd
       -0.21659869 0.017469183 -0.110182546 -0.03886863
0000f0 fb 22 ae bd 37 5c 94 bd 77 a3 ff bd 98 bf 87 3d
       -0.08502766 -0.07244151 -0.1248235 0.066283405
000100 22 19 e2 3c 00 7a 1b be 1f 79 26 bd 43 11 98 bd
       0.027599875 -0.15183258 -0.040642854 -0.074251674
000110 41 19 76 3e c0 e6 b9 bd 7c 86 59 3e 62 f2 2a 3e
       0.24033071 -0.09077215 0.21242708 0.16694024
000120 51 ef c3 bd 25 99 70 3e 28 fa 9f 3b 16 a4 ba bd
       -0.0956713 0.2349592 0.004882116 -0.09113328
000130 29 53 05 be 7a 45 e8 3d 6a e5 82 be f9 76 c2 3d
       -0.13020004 0.113413766 -0.25565654 0.094953485
000140 25 f1 ff 3c 0a 66 c6 bc ad 7c 13 3e 7c 68 bb bd
       0.031242916 -0.024218578 0.14403029 -0.09150788
000150 d9 8f 23 be 69 37 d6 bd e6 52 b0 3d dd 3a 36 bc
       -0.15972842 -0.104597874 0.086095616 -0.011122433
000160 77 8a c1 3c aa 49 99 bd 20 c2 5a be 5a d2 bf 3d
       0.023625595 -0.074847534 -0.21363115 0.09366293
000170 d6 3e 27 bc 7d 20 bc 3d 88 09 c4 3d 36 92 97 3e
       -0.010207852 0.09185884 0.095721304 0.29603738
000180 ee fb 06 3e 3f 5b 77 be e7 1d b3 3b b3 a3 8f 3e
       0.13182041 -0.24155901 0.005466211 0.2805458
000190 f9 71 38 be b6 2e e7 3c 12 c3 18 bd 69 f8 a4 3d
       -0.18012227 0.028220516 -0.03729541 0.08055193
0001a0 38 ae 99 be 2d e5 17 be f8 c9 d0 bd 24 67 84 bd
       -0.3001573 -0.14833517 -0.101947725 -0.06464985
0001b0 94 e0 26 bd fb 65 d2 be cf 15 09 be ea e7 2a 3e
       -0.04074152 -0.4109343 -0.13387226 0.1669003
0001c0 a7 13 52 3d 4a e8 97 3b ab 97 c0 bd ac 78 85 bd
       0.051288273 0.0046358453 -0.09403928 -0.06517157
0001d0 ea d2 02 3e 0b 88 be 3c 1f 4e d2 3d 74 e5 b4 3c
       0.1277577 0.02325823 0.10268807 0.022082068
0001e0 ce f7 e5 bd f3 cb c4 3b 70 ae 16 be 49 a7 64 bc
       -0.112289056 0.006005758 -0.1471498 -0.0139558995
0001f0 02 45 70 be 97 a6 1c bd ae cf 17 be 8a d3 b9 bd
       -0.23463824 -0.03824481 -0.14825317 -0.09073551

linear.bias f4 [2]
000000 f8 7a 31 be 53 8c 94 be
       -0.17332065 -0.2901331

linear_final.weight f4 [5, 64]
000000 ff 6c 16 3c 2f 19 07 be 1d 5b 81 3c 3e 2b 34 be
       0.00918126 -0.131932 0.015790517 -0.1759462
000010 fc ee 84 bb 88 60 7e bd 12 8d ff bd c4 3d f5 3c
       -0.0040568095 -0.062103778 -0.12478079 0.029936679
000020 78 37 13 3e 82 4d 59 3d 80 ff 60 3d d0 07 48 bd
       0.14376628 0.053052433 0.054931164 -0.048835576
000030 cf a4 1c bc 6d 8a 6c 3c 18 cb 03 3e 0e 31 97 bb
       -0.009560778 0.0144373 0.12870443 -0.004614002
000040 96 c0 e7 3a d6 ee 70 3c be 42 0b 3b ff d4 5d bc
       0.0017681296 0.01470538 0.0021249498 -0.013539552
000050 0d ef 19 3d 6e 3d 08 3d f5 2b 0f be 9c 40 61 bd
       0.037581492 0.03326171 -0.13981612 -0.054993257
000060 2c ac ae bc d8 fb 33 bd 90 71 ac bc 2a 1a 23 3d
       -0.021322332 -0.04394135 -0.021050245 0.039819874
000070 30 cd e1 bc e9 59 9e 3b 9c 79 e0 3b b5 12 f6 bc
       -0.027563661 0.0048324955 0.0068504345 -0.030038217
000080 4d 21 23 3d 07 60 0c 3b 8e 8f ce 3b 28 4d a5 bd
       0.03982668 0.0021419541 0.006303734 -0.08071357
000090 63 02 62 3d 84 cf 87 3d f2 86 84 bc bd 24 db bd
       0.055178057 0.06631377 -0.016177628 -0.10700367
0000a0 ba 8f 4b bd ed 5f 55 3d 84 9c f1 3c 4a c5 13 bd
       -0.049697615 0.052093435 0.029493578 -0.03607682
0000b0 81 ea b6 3c 7a d5 22 3e 6f c7 a3 bd 57 fa 83 bc
       0.022328617 0.15901747 -0.07997023 -0.016110582
0000c0 dc a8 ce bc bc be 37 bd c3 57 99 bc cb 85 17 3d
       -0.025227003 -0.044859633 -0.018718606 0.03699283
0000d0 04 de 1a 3d 74 91 f2 bb 8f db 77 3d 74 a5 86 3d
       0.037809387 -0.0074025933 0.06051212 0.065745264
0000e0 3b f6 80 3d 01 b5 e8 bc 95 b0 8b 3d 16 cd b3 3d
       0.06296965 -0.028406622 0.0682079 0.087793514
0000f0 4f 4a 52 3d f0 24 40 3b 0e dc 56 be 3a d6 92 3c
       0.051340397 0.0029318891 -0.20982382 0.017924417
000100 80 6f ce bc 4a a4 64 bc a0 5c 5d bd 26 01 f3 3d
       -0.025199652 -0.013955185 -0.054043412 0.118654534
000110 b6 2c b0 bc b2 88 26 bd 8c b9 24 3d b7 0d 05 3c
       -0.021505695 -0.040657707 0.040216014 0.008120946
000120 b9 d6 3f 3d f7 71 3b bc 12 b6 c4 3d 1c 37 34 bd
       0.046835635 -0.011440746 0.0960504 -0.04399787
000130 34 45 e8 bc ab 7f 42 bd 34 db 22 bd 9f fd 54 3d
       -0.028353311 -0.047485035 -0.03975983 0.051999684
000140 29 ae 0d 3c 94 df 1f 3c 21 7e 54 3b 72 ff 87 3d
       0.00864748 0.009757895 0.0032423811 0.06640519
000150 d9 6f 23 bd a1 ab a9 3c a8 2f 65 3c f8 31 9f 3d
       -0.039901588 0.020711722 0.013988413 0.07773203
000160 9d 6a 84 bd 29 0b 05 bd 65 c7 7d 3b 9b 29 9e 3c
       -0.06465647 -0.032481346 0.0038723585 0.019306948
000170 09 b1 ef 3d ac 80 09 bd 50 80 4d bc 4a f5 25 3e
       0.11703689 -0.033569977 -0.012542799 0.16206852
000180 f0 1b 2d bc 4f d2 a1 bc 35 b1 df 3c 04 37 86 3b
       -0.010565743 -0.019753603 0.027306179 0.004095914
000190 f5 7e 36 3c 45 1e 31 3d d8 3b 53 bc a4 f9 9c bc
       0.011138667 0.043241758 -0.012892686 -0.019162007
0001a0 b9 11 0d be 85 20 7e bd ea 82 d9 bd 75 32 ac bb
       -0.13776292 -0.06204273 -0.10620673 -0.0052550384
0001b0 f2 a6 72 3c e6 24 0e 3d 00 54 61 bd c4 26 e9 3b
       0.014810311 0.034703158 -0.05501175 0.007115217
0001c0 30 89 07 3a 1c 71 f0 bb da 42 c2 bd 0e 41 af bc
       0.0005170284 -0.0073377024 -0.09485407 -0.021393325
0001d0 c1 41 96 3d db 9e ee 3b 3b f5 43 bd 44 db 45 3d
       0.0733676 0.0072821206 -0.047841292 0.04830481
0001e0 cf fd fc 38 f7 3f 3d 3d a1 a5 50 3d f7 c0 7c 3c
       0.00012063572 0.04620358 0.050939206 0.015426866
0001f0 54 a9 2e 3d 28 34 a5 bb 57 73 39 3c 5d 95 68 bd
       0.042641953 -0.005041618 0.011319003 -0.05678307
000200 02 3b 09 be 1c 29 48 be 35 bd b0 bd 86 92 e9 3e
       -0.13401416 -0.19546932 -0.086298384 0.456196
000210 f1 0c c5 be 5b c5 64 bb 0a 99 e4 bc d8 ff eb 3b
       -0.38486436 -0.0034907672 -0.027905006 0.00720213
000220 52 9f a8 3e 2e ab ef 3e d0 b3 46 be 01 02 61 3d
       0.32934052 0.46810287 -0.1940453 0.05493355
000230 76 f8 07 3e c6 30 84 3e d7 00 23 be 00 92 3d bc
       0.13278374 0.2581846 -0.15918289 -0.011570454
000240 c4 de 95 3d a7 3a 92 bd 85 39 17 be 07 15 d2 bc
       0.0731788 -0.07140093 -0.14768036 -0.025644792
000250 3d a4 71 be 39 da 99 bc 8c fe 3b bc 32 2f a5 3e
       -0.23597808 -0.018780814 -0.011474263 0.3226257
000260 f9 57 f6 be d4 65 0f 3e 08 f4 97 bd 64 7e 5d 3d
       -0.48113993 0.14003688 -0.07419592 0.054075614
000270 a3 da 8e bd 52 bf b3 bd 44 01 b0 bd 07 16 e9 3c
       -0.069752954 -0.08776726 -0.085939914 0.028452886
000280 e4 4a 1d be b6 db 2b be be 83 b3 3e 60 af 48 3d
       -0.153606 -0.16783032 0.3506145 0.048995376
000290 01 72 d1 3d 90 e9 88 bb 34 75 9c bc 2c da 65 3d
       0.10226823 -0.0041782334 -0.019098856 0.056116268
0002a0 99 6e b4 3e 06 e2 e9 3e a7 b7 1c be 0d be ab 3d
       0.3524063 0.45680255 -0.15304433 0.08385859
0002b0 5b 8f b1 be 07 d0 ae be 34 ec 76 be 13 16 e2 3e
       -0.34679684 -0.34143087 -0.24113542 0.44157466
0002c0 ec 07 21 3d a2 4e 0c 3c 01 1d b4 bd 66 88 a4 3e
       0.039314196 0.008563669 -0.087945946 0.32135314
0002d0 45 4b 44 3c f5 fb 23 3b 8c 19 d2 bd 85 6c 87 3e
       0.011980836 0.0025022004 -0.10258779 0.2644998
0002e0 ca 40 4c be d3 71 05 3d 5a b8 7e be 3c 08 65 be
       -0.1994659 0.032579254 -0.24875012 -0.22366422
0002f0 ae f5 42 be 7c 1e 01 3d f5 af 81 3d 33 c9 75 be
       -0.19039032 0.031523213 0.06332389 -0.24002533
000300 c0 b0 31 3d 00 5a fb be b7 81 81 be 2d 42 8d 3d
       0.043381453 -0.49092102 -0.25294277 0.06897388
000310 d4 2a d8 3c d3 70 c0 bd 9c e4 38 3e e6 c3 05 be
       0.02638761 -0.093965195 0.18055958 -0.1306301
000320 02 93 ab 3d 63 ef ac 3e 3f 25 25 be 7c c2 ff 3d
       0.08377649 0.33776388 -0.1612749 0.12488267
000330 4c 9c 17 3e 81 a3 0b bc c0 31 79 be bb dc 0f 3d
       0.14805716 -0.008522869 -0.24335384 0.035122614
000340 e8 1d 15 be 2e e2 15 3d 4c 06 2c bb 85 36 62 bd
       -0.1456219 0.036592655 -0.002624887 -0.055227775
000350 18 fd 31 be bf e9 7f 3e bf 8d f9 be 9b 83 55 3e
       -0.17381704 0.24991511 -0.48740956 0.20850985
000360 1d 1a ca be 32 99 85 3e 55 83 84 3e a3 51 b4 3d
       -0.39473048 0.2609344 0.25881448 0.088046335
000370 03 57 9a bd 25 dc 16 3d b0 94 57 3d a1 82 fe 3e
       -0.075361274 0.03683104 0.052632034 0.49709037
000380 18 66 08 3d 91 d5 e7 bc 91 5c 15 3e 98 f9 64 3e
       0.03330049 -0.028300079 0.14586093 0.22360837
000390 5e 71 35 3e 17 73 cb bd 72 f0 dd 3b c1 db ba 3e
       0.17719027 -0.09934061 0.006773048 0.36495784
0003a0 2e c4 1a 3e 6c 6c 47 3c d8 76 2c be e9 1a cc 3d
       0.15113899 0.012171846 -0.1684221 0.0996607
0003b0 7f dc 46 be a1 4a 9e 3d c6 fc 70 bd fe 81 ea 3d
       -0.1942005 0.07729078 -0.058834814 0.11450575
0003c0 0f 38 63 bd 51 30 67 3d dd bc 37 3e c0 e8 c8 3d
       -0.055473384 0.056442562 0.1794314 0.098100185
0003d0 51 28 50 be 3d 01 25 3b fe be bf be 21 1c a4 3e
       -0.2032788 0.002517774 -0.37450403 0.3205271
0003e0 d6 49 66 be 47 8b ab 3d f1 32 13 be 59 c6 66 be
       -0.22489104 0.083761744 -0.14374901 -0.22536601
0003f0 5b c3 14 3e 7f d1 fe 3c ca 9d 29 3e eb d5 d1 be
       0.14527647 0.031105755 0.16564098 -0.4098352

linear_final.bias f4 [5]
000000 2a be 83 bd 9d 3f 48 3d 49 df 9c bf 62 4c c6 bf
       -0.06432755 0.04888879 -1.2255641 -1.549206
000010 2c 74 2a be
       -0.16645879
