model_checkpoint/zara2/val_best.pth (torch_old, 55823 bytes, 10 tensors)

gcn.gc1.weight f4 [2, 2]
0	0x3f46a0d2	0.7758914
1	0xbd1dab58	-0.038493484
2	0x3d3b8799	0.045783613
3	0x3f9ed941	1.2410051

gcn.gc1.bias f4 [2]
0	0xbcc2e074	-0.023788668
1	0xbd7e0d2a	-0.062024273

grucell.weight_ih f4 [192, 2]
0	0xbd1e80e0	-0.038697124
1	0xbdcb332a	-0.09921868
2	0xbdc14d73	-0.094386004
3	0x3d2d3363	0.042285334
4	0xbd9469d9	-0.07246751
5	0xbd230e45	-0.03980853
6	0xbdbcb561	-0.09214283
7	0xbe8c7677	-0.27434132
8	0x3e351e82	0.17687419
9	0xbd01c463	-0.03168143
10	0xbde529d1	-0.111896165
11	0x3d25b410	0.040454924
12	0xbb627bf4	-0.0034558745
13	0xbc81d149	-0.015846865
14	0xbdb69f77	-0.08917134
15	0xbc05385d	-0.008131114
16	0xbd91d41e	-0.07120536
17	0xbca4e761	-0.020129861
18	0xbdafbed7	-0.08581322
19	0x3dcfb58a	0.10142048
20	0x3ccaab07	0.024739755
21	0xbdc77e22	-0.09740855
22	0x3d9ad4e8	0.0756014
23	0xbe0c5fd2	-0.13708428
24	0xbd758133	-0.059937667
25	0x3d3bc805	0.04584505
26	0xbd6007dd	-0.054695
27	0xbd138a36	-0.03602048
28	0x3decda05	0.115650214
29	0xbde2b101	-0.11068917
30	0xbd16e044	-0.03683497
31	0x3d273335	0.04082032
32	0x3d443126	0.047898434
33	0xbdd96087	-0.10614114
34	0x3d1c066a	0.038092054
35	0x3d858807	0.06520086
36	0xbdb433b9	-0.08798928
37	0xbd659fe9	-0.056060705
38	0x3d80cc15	0.062889256
39	0xbd8af7a0	-0.06785512
40	0xbdf8b0c7	-0.121430926
41	0xbac78a65	-0.001522374
42	0x3d96abfe	0.07357024
43	0xbdc497f1	-0.09599293
44	0xbd5c90e6	-0.053849123
45	0xbca87548	-0.020563737
46	0x3cbb1eed	0.022841895
47	0x3e2eb947	0.17062865
48	0xbdcc2a3f	-0.09968995
49	0x3cfa25f1	0.03053567
50	0x3dd4358b	0.10361775
51	0x3c512e9f	0.012767463
52	0xbd846340	-0.06464243
53	0x3cdeb4b5	0.027185777
54	0xbd6671ce	-0.056260876
55	0x3dd1aa07	0.10237508
56	0xbd80d011	-0.062896855
57	0x3dc62b33	0.09676208
58	0x3e039def	0.12853216
59	0xbd4b7279	-0.049669717
60	0x3be5def4	0.0070151035
61	0x3dfc773c	0.1232743
62	0x3e1fc1cb	0.1560127
63	0x3dc42a22	0.09578349
64	0x3d7bc423	0.061466347
65	0xbd86ac69	-0.065758534
66	0xbd45a02b	-0.04824845
67	0xbd41186d	-0.047142435
68	0xba7828fe	-0.00094665575
69	0x3d9871d8	0.07443589
70	0xbdada91d	-0.084795214
71	0x3e22c6ae	0.15896103
72	0xbe151a30	-0.14560771
73	0x3d3b300a	0.04570011
74	0xbda8d50b	-0.0824376
75	0x3c9f5f03	0.019454485
76	0xbe0cb8c1	-0.13742353
77	0x3d9d5e6d	0.07684026
78	0xbdcce0bd	-0.10003803
79	0x3dfd6059	0.123718925
80	0xbd907d90	-0.07055199
81	0x3deae398	0.11469191
82	0xbd5bca0a	-0.053659476
83	0xbb27c3d4	-0.00255989
84	0x3d194cc7	0.037426736
85	0xbdba2329	-0.090887375
86	0x3db2fc47	0.08739524
87	0xbd5f1713	-0.054465365
88	0xbc380ada	-0.011233056
89	0xbdbeab34	-0.09309998
90	0x3dacb45a	0.08432837
91	0xbe79d3ab	-0.24397151
92	0xbd163125	-0.03666796
93	0x3db26825	0.0871127
94	0xbdfd4590	-0.123667836
95	0xbe49bf2f	-0.19701837
96	0x3e03c947	0.1286975
97	0x3da95a94	0.082692295
98	0x3dd9fd2d	0.106439926
99	0x3cee0b00	0.02905798
100	0xbdaeb2f1	-0.08530224
101	0xbdf7998b	-0.12089833
102	0xbda22045	-0.07916311
103	0x3c6bc400	0.014389992
104	0xbe0a8354	-0.1352666
105	0x3dd03c49	0.101677485
106	0xbd5b2447	-0.053501394
107	0x3db7c04b	0.08972224
108	0xbcadc1b1	-0.021210523
109	0xbd058c5b	-0.032604557
110	0xbd48348a	-0.04887823
111	0x3dd20f68	0.10256845
112	0x3d40c680	0.047064304
113	0x3d8c6192	0.068545476
114	0xbde3d81b	-0.11125203
115	0x3c2d5d6a	0.010581354
116	0xbba9aa79	-0.0051777926
117	0x3d87f0f8	0.06637758
118	0x3dc7e88b	0.09761151
119	0xbdc134a9	-0.09433872
120	0xbc7e2ae6	-0.0155131575
121	0x3e16f776	0.14742836
122	0x3d0a20ef	0.033722814
123	0x3c8707bd	0.016483182
124	0xbe6a4f56	-0.22881827
125	0xbe029233	-0.12751083
126	0xbe4fbca1	-0.202868
127	0x3d84bc4b	0.064812265
128	0x3d1bc867	0.038032915
129	0xbcb21693	-0.02173928
130	0x3d63de56	0.055631958
131	0x3dc2b28e	0.09506713
132	0xbcc391f5	-0.023873309
133	0x3ddb1b26	0.106985375
134	0xbdbfa29a	-0.09357186
135	0x3bebdb05	0.00719774
136	0xbd2e7537	-0.042592254
137	0xbcc1ee7b	-0.023673287
138	0x3e05519a	0.1301941
139	0x3e2aead9	0.1669115
140	0x3e177ae2	0.1479297
141	0xbcd82412	-0.026384387
142	0x3e269499	0.16267623
143	0x3e05a358	0.13050592
144	0xbe35161f	-0.1768422
145	0x3dd4e67c	0.10395524
146	0xbc210d5b	-0.009829844
147	0x3e646eca	0.22307888
148	0xbe191089	-0.14947714
149	0xbdae8819	-0.08522052
150	0x3cc2ba1a	0.02377038
151	0x3de932d0	0.11386645
152	0xbd53535e	-0.051593177
153	0x3dc665da	0.096873954
154	0xbb994673	-0.0046775877
155	0xbd4b83a5	-0.049686093
156	0xbc835b77	-0.016034825
157	0xbc93d398	-0.018045232
158	0x3d2e48ce	0.0425499
159	0x3b450a41	0.0030065926
160	0x3c3eaa57	0.011637292
161	0xbd81ea16	-0.063434765
162	0x3d7e11b5	0.062028605
163	0x3d62ca6f	0.055368837
164	0x3d126486	0.035740398
165	0x3e1852ed	0.14875384
166	0xbb9e125a	-0.004823965
167	0xbcd46cf6	-0.025930863
168	0x3ce2c86a	0.027683455
169	0xbd8ef5d3	-0.06980481
170	0x3db1b47a	0.08677001
171	0xbd19bce2	-0.03753365
172	0xbdcf37a6	-0.10118036
173	0x3c091c18	0.0083685145
174	0xbe804814	-0.2505499
175	0xbd942056	-0.0723273
176	0x3e3ae098	0.18249738
177	0x3df5c386	0.12000184
178	0x3bc6d40a	0.0060677575
179	0xbc827a82	-0.015927557
180	0xbc72d953	-0.014822322
181	0x3ace5c07	0.0015743979
182	0xbc08ab6b	-0.0083416505
183	0x3e1578f8	0.14596927
184	0x3e4f48e2	0.20242646
185	0x3d902726	0.07038717
186	0x3e04c559	0.12965907
187	0xbdedf271	-0.11618508
188	0x3daf4cda	0.0855958
189	0x3d643dde	0.055723064
190	0x3e8d6cd9	0.27622107
191	0xbe19fe52	-0.15038422
192	0xbdd97049	-0.1061712
193	0x3dda9440	0.10672808
194	0xbe316955	-0.17325337
195	0x3e20ee83	0.15715985
196	0xbc21e273	-0.00988065
197	0x3e234067	0.15942536
198	0x3db9a775	0.09065143
199	0xbbcb419c	-0.0062028896
200	0xbda311cb	-0.07962378
201	0xbe466b49	-0.19376864
202	0x3cbca3ff	0.023027418
203	0xbe261808	-0.16220105
204	0x3e090644	0.13381296
205	0xbdc95314	-0.09830299
206	0xbba9a926	-0.005177635
207	0x3d08f4de	0.03343665
208	0x3eaddebb	0.33958992
209	0x3d4489db	0.04798303
210	0x3de93b02	0.11388208
211	0xbd3e88c3	-0.046517145
212	0xbdbbeedc	-0.09176418
213	0x3d7ab217	0.061204996
214	0x3e032358	0.12806451
215	0x3d9353d1	0.07193721
216	0x3def584d	0.11686764
217	0xbd7c21c0	-0.061555624
218	0xbe58ed6f	-0.21184324
219	0x3e2601d4	0.16211635
220	0x3e1ace60	0.15117788
221	0x3e0c9649	0.13729204
222	0x3e02e50d	0.12782688
223	0x3d793133	0.060837936
224	0xbe6013d9	-0.21882571
225	0xbe650332	-0.223645
226	0xbbbe3f0d	-0.005805856
227	0xbdc0e122	-0.09417941
228	0x3e727941	0.23679067
229	0x3d2379c9	0.039911065
230	0xbe43b919	-0.19113578
231	0x3ce4956c	0.027903281
232	0x3d0654c4	0.032795683
233	0x3da171e7	0.07883053
234	0x3dca5964	0.09880331
235	0x3e142826	0.1446844
236	0xbd102b64	-0.03519763
237	0xbd190c21	-0.037365083
238	0xbe0a645a	-0.13514844
239	0x3ddfe45c	0.10932228
240	0xbdf3a9d4	-0.118976265
241	0x3da5eaa2	0.08101393
242	0xbd64099b	-0.055673223
243	0x3dd8b3a6	0.1058114
244	0xbdc3c273	-0.095585726
245	0xbdef4cbf	-0.1168456
246	0xbbf05c23	-0.0073352023
247	0xbde37776	-0.1110677
248	0x3d3f7889	0.04674581
249	0xbde23722	-0.11045672
250	0x3d30c549	0.043156896
251	0x3d49c698	0.04926166
252	0xbce7ce73	-0.028296685
253	0xbde390af	-0.111115806
254	0x3e4c6c16	0.19963107
255	0xbd95d5cc	-0.07316169

grucell.weight_hh f4 [192, 64]
0	0xbde04022	-0.10949732
1	0xbdd516de	-0.10404752
2	0x3da75c34	0.08171883
3	0x3d331a73	0.043726396
4	0xbc2408d3	-0.0100118695
5	0x3d273719	0.04082403
6	0xbdea11f6	-0.11429207
7	0xbdc458a4	-0.09587219
8	0xbc2ba58b	-0.01047648
9	0x3c47182d	0.01215176
10	0x3d359faa	0.04434172
11	0xbc2c8b8f	-0.01053132
12	0x3d119489	0.035542045
13	0xbdb2d810	-0.08732617
14	0x3c242275	0.010017981
15	0x3c9bc968	0.019016936
16	0x3dcc6924	0.099809915
17	0x3d3225d2	0.0434931
18	0xbd275454	-0.040851906
19	0x3dce4592	0.10071863
20	0xbcad1b39	-0.021131145
21	0xbdf40c4a	-0.119164065
22	0x3de2daac	0.110768646
23	0x3dce873f	0.1008439
24	0xbd1b61e1	-0.03793514
25	0xbdec38a8	-0.11534244
26	0xbdd17ee2	-0.10229279
27	0x3d9db80e	0.07701121
28	0xbd1e3078	-0.038620442
29	0xbc313e86	-0.010818129
30	0x3dcd9735	0.10038606
31	0x3c50593e	0.0127165895
32	0xbdd62c38	-0.10457653
33	0x3d178143	0.036988508
34	0xbdc210fa	-0.09475894
35	0xbd9b08ce	-0.07570039
36	0x3ce04441	0.027376296
37	0xbd202150	-0.03909427
38	0x3d94210d	0.072328664
39	0xbb8400d4	-0.004028419
40	0x3dab5d43	0.08367398
41	0x3db8d97c	0.09025857
42	0x3d11a5f8	0.03555867
43	0xbc920a70	-0.017827243
44	0xbd59cb9c	-0.053172693
45	0xbd8a8e0b	-0.06765374
46	0xbd7491e9	-0.059709463
47	0x3ddb1453	0.10697236
48	0x3d205451	0.03914291
49	0xbddca28b	-0.1077319
50	0xbd49d78b	-0.049277823
51	0xbd743fc0	-0.05963111
52	0xbda1c683	-0.07899191
53	0x3d5b4700	0.053534508
54	0x3dd9b1b8	0.106296
55	0xbde280d0	-0.11059725
56	0xbca3bc16	-0.019987147
57	0xbdfcbb7f	-0.123404495
58	0x3d91e8a9	0.071244545
59	0x3ae0cfa5	0.0017151727
60	0x3d43fd32	0.047848888
61	0x3ddba5cf	0.10724985
62	0xbded23be	-0.11579083
63	0xbc89ba66	-0.016812515
64	0x3d7d72e3	0.061877143
65	0x3ddee759	0.1088397
66	0xbae92307	-0.0017786928
67	0x3d5683b3	0.052371692
68	0xbd1badae	-0.03800743
69	0x3e0541d7	0.13013397
70	0xbd93a4c3	-0.0720916
71	0x3dfdcba4	0.12392357
72	0xbddad739	-0.10685582
73	0x3c6a6d28	0.014308251
74	0x3c05c337	0.008164219
75	0x3e2119ac	0.1573245
76	0x3de83398	0.11337966
77	0xbdb1aa86	-0.08675103
78	0xbdf3576c	-0.11881909
79	0x3e0b8a54	0.13626987
80	0xbdb0b8f3	-0.08629026
81	0x3d0f7f3f	0.03503346
82	0xbd8edb1b	-0.06975385
83	0xbd4bed49	-0.04978684
84	0xbd9e727a	-0.077366784
85	0xbe0626f0	-0.13100791
86	0xbdc25da2	-0.09490515
87	0x3d855283	0.065098785
88	0xbdb1819a	-0.08667298
89	0x3e1050bb	0.14093296
90	0xbdec5e56	-0.11541431
91	0x3bf65bc8	0.0075182654
92	0x3dc28678	0.09498304
93	0xbd41586e	-0.047203474
94	0x3d775049	0.0603793
95	0x3e1adc63	0.15123133
96	0x3d641d37	0.055691924
97	0xbd76e431	-0.060276214
98	0xbdd77651	-0.10520614
99	0x3c9d6c74	0.019216754
100	0x3dc4e91a	0.09614773
101	0xbd3d939e	-0.046283357
102	0x3d95bcf6	0.07311432
103	0xbc2dee50	-0.0106159
104	0x3e15f540	0.14644337
105	0xbe126527	-0.14296399
106	0xbe04dd69	-0.12975086
107	0x3d393423	0.045215737
108	0xbd7265ac	-0.059178993
109	0xbd9d979b	-0.07694932
110	0x3e0252e7	0.12726937
111	0xbdd417b1	-0.10356081
112	0x3dc2a429	0.09503967
113	0x3e05a199	0.13049926
114	0x3e17fa26	0.14841518
115	0xbd95709f	-0.072968714
116	0x3e1b9e50	0.1519711
117	0xbd622f61	-0.055220965
118	0xbe0953c7	-0.13410865
119	0xbd381059	-0.044937465
120	0xbda299c3	-0.07939484
121	0x3d7cd1b6	0.061723433
122	0x3d3c6cd3	0.04600222
123	0x3ca8bbac	0.020597301
124	0x3dd081e2	0.10181023
125	0x3da4c568	0.08045465
126	0x3e338cae	0.17534134
127	0x3d91ecfe	0.07125281
128	0xbc808aa5	-0.01569111
129	0xbdc78fd1	-0.09744228
130	0xbd958b2f	-0.07301938
131	0x3b70635e	0.0036680321
132	0xba814997	-0.000986385
133	0xbdca3685	-0.0987368
134	0xbd069655	-0.03285821
135	0x3e043663	0.12911372
136	0xbd758319	-0.059939478
137	0xbe07fc07	-0.13279735
138	0xbcf97456	-0.030450981
139	0x3e0876ba	0.1332654
140	0x3da4054a	0.08008821
141	0x3db99880	0.0906229
142	0x3dda91bb	0.10672327
143	0xbdb50f03	-0.08840754
144	0xbdf42e36	-0.119228765
145	0xbd9009c2	-0.07033111
146	0x3d65cf3e	0.056105845
147	0x3dd7010d	0.10498247
148	0x3dd6fe5f	0.10497736
149	0x3ce2b087	0.027672065
150	0x3dd9e16c	0.10638699
151	0xbe0219d3	-0.12705164
152	0xbdee99d4	-0.11650434
153	0x3da07a98	0.07835883
154	0x3b29088a	0.0025792443
155	0x3daf74d1	0.08567203
156	0x3decac20	0.11556268
157	0xbc9c86e9	-0.019107299
158	0x3d694907	0.05695441
159	0x3dab70f2	0.08371152
160	0xbd26e9ff	-0.0407505
161	0x3c98c3fb	0.018648138
162	0xbcbd87c3	-0.023136025
163	0xbd8c66ae	-0.06855522
164	0xbcc21b3d	-0.023694629
165	0x3c40fd01	0.011779071
166	0xbdda3325	-0.10654286
167	0xbd2909e8	-0.041269213
168	0xbcc56e1a	-0.024100352
169	0xbd88ad65	-0.066736974
170	0xbdd15767	-0.10221749
171	0xbd55d40d	-0.05220418
172	0xbdb8944b	-0.0901266
173	0xbe0ca268	-0.13733828
174	0xbcfc9aae	-0.030835476
175	0xbcd29654	-0.025706448
176	0xbd63b3f4	-0.05559154
177	0xbd8e1f81	-0.06939603
178	0xbda62818	-0.08113116
179	0xbe00f3dd	-0.12593026
180	0xbc92abfa	-0.01790427
181	0xbda9a74a	-0.08283861
182	0xbdc6a94b	-0.09700259
183	0x3d8df78c	0.069319814
184	0x3ce43fb8	0.027862415
185	0xbdbe8bd1	-0.093040116
186	0xbcb6d002	-0.022315983
187	0x3924ea70	0.00015727594
188	0x3df499f0	0.11943424
189	0xbdbb7a51	-0.091541894
190	0x3aa3ea5c	0.0012505758
191	0x3df9d2e2	0.12198426
192	0xbdbb5d2f	-0.09148633
193	0x3d966ba3	0.07344749
194	0x3cf5cd8a	0.030005235
195	0x3d1fb01d	0.038986314
196	0xbdd94564	-0.10608938
197	0x3da72ddf	0.08163046
198	0x3d34c8cb	0.044136804
199	0xbe314421	-0.17311145
200	0xbc5841fd	-0.013199327
201	0x3dca29ba	0.0987124
202	0x3df08819	0.117447086
203	0x3d22b962	0.039727576
204	0x3dd1e03a	0.10247846
205	0x3db5fbeb	0.0888594
206	0x3b516661	0.0031951892
207	0x3d36a690	0.04459244
208	0xbbe6c9f5	-0.007043118
209	0xbd4df602	-0.05028344
210	0x3db07170	0.086153865
211	0x3e26d6fa	0.16292945
212	0x3d094e58	0.03352198
213	0x3cd056bf	0.025431989
214	0x3d0943e7	0.033512022
215	0xbe04f131	-0.12982632
216	0xbdaf8d5c	-0.08571884
217	0x3dfc0a61	0.12306667
218	0x3cd467f4	0.025928475
219	0xbe0cb8ae	-0.13742325
220	0xbd67d450	-0.05659896
221	0xbdc3c54d	-0.095591165
222	0xbb38d6c2	-0.0028204178
223	0xbc8f2f43	-0.01747859
224	0xbda92172	-0.08258332
225	0x3dceb68f	0.10093414
226	0xbda772c2	-0.08176185
227	0xbd137b65	-0.03600635
228	0x3e1f1780	0.15536308
229	0xbdeaf305	-0.114721335
230	0x3cb4c61b	0.02206712
231	0x3cfde1c4	0.030991443
232	0x3de07768	0.10960275
233	0xbc275262	-0.010212513
234	0x3ddad2eb	0.10684761
235	0xbd834d6a	-0.0641125
236	0x3e23a926	0.15982494
237	0x3dbcc09f	0.09216427
238	0xbd537a35	-0.051630218
239	0xbe3ab579	-0.18233289
240	0x3d0672c4	0.032824293
241	0x3d51ad65	0.051190753
242	0x3cb1d475	0.021707753
243	0xbdb7a4a7	-0.08966952
244	0x3daff7a2	0.08592154
245	0xbce959cb	-0.0284852
246	0x3e2d7d77	0.16942392
247	0xbe0bd5ad	-0.1365573
248	0xbcc0c8b9	-0.023533212
249	0xbc895066	-0.01676197
250	0x3db92652	0.09040512
251	0x3cb1dc53	0.021711504
252	0x3c049f35	0.008094599
253	0xbdba1042	-0.09085132
254	0x3e03cd2a	0.12871233
255	0x3d6b3ef1	0.057433072

grucell.bias_ih f4 [192]
0	0x3da63210	0.081150174
1	0xbc2812e7	-0.010258413
2	0x3dd35121	0.103182085
3	0x3dcbe041	0.099548824
4	0xbb0949d1	-0.002094854
5	0xbda71a40	-0.08159304
6	0xbdbd37fc	-0.09239194
7	0xbd57130a	-0.05250839
8	0xbd00964a	-0.031393327
9	0xbcb99b6f	-0.022657124
10	0xbb8c55bd	-0.0042826817
11	0xbd30fd5e	-0.04321038
12	0x3d3bb0e4	0.045822993
13	0x3d78b7a8	0.060722023
14	0xbd715e9c	-0.058928117
15	0x3ca9f669	0.02074738
16	0xbda2efb1	-0.07955874
17	0xbd82de4c	-0.06390056
18	0x3d8e3f98	0.06945723
19	0xbdbc2161	-0.09186054
20	0x3d45499c	0.048165902
21	0xbcc71709	-0.024302976
22	0x3d9ae7a5	0.07563714
23	0xbdb18a6a	-0.086689785
24	0xbc11a7f7	-0.008890144
25	0x3cc29077	0.023750527
26	0x3ca45e70	0.020064563
27	0xbd973997	-0.07384031
28	0xbdb68aee	-0.089132175
29	0xbd4ba270	-0.04971546
30	0xbded2806	-0.115798995
31	0x3dc5d343	0.096594356
32	0xbdb451cf	-0.08804666
33	0x3d47d92c	0.048791096
34	0xbd2de287	-0.04245236
35	0x3b29ad69	0.0025890714
36	0x3d70cf22	0.058791287
37	0x3c0b4162	0.008499475
38	0x3e1b54a5	0.15169008
39	0xbd60206e	-0.054718427
40	0xbcc5e872	-0.02415869
41	0xbd5da14d	-0.054108907
42	0xbde9874f	-0.11402761
43	0x3d254768	0.0403513
44	0x3d616a38	0.05503294
45	0x3bdb69f3	0.0066959797
46	0x3d85c166	0.065310284
47	0x3d04d8d7	0.032433357
48	0x3def2faf	0.11679017
49	0xbd8bc6f7	-0.06825059
50	0x3dc24a53	0.094868325
51	0xbd394681	-0.045233253
52	0xbdc211b5	-0.094760336
53	0x3bb306a2	0.005463437
54	0x3e0276a8	0.12740576
55	0x3b73d925	0.0037208286
56	0x3ceac70b	0.028659364
57	0x3e03d7b7	0.12875257
58	0x3de9adb1	0.11410082
59	0x3d912e25	0.070888795
60	0xbd59ca1d	-0.053171266
61	0xbd78f117	-0.060776796
62	0xbd8baf8e	-0.06820594
63	0x3dfe4101	0.12414742
64	0x3d81b036	0.06332438
65	0x3db6c0f0	0.08923519
66	0xbd1af2e3	-0.03782929
67	0x3e517396	0.20454249
68	0x3ce98018	0.028503463
69	0x3e14409f	0.14477776
70	0x3d3d8363	0.04626788
71	0xbcb3de04	-0.021956451
72	0xbbd2058b	-0.006409352
73	0x3cf58d78	0.029974684
74	0x3dc7facb	0.09764632
75	0x3db82ab8	0.08992523
76	0xbda6d441	-0.08145953
77	0x3dc103a6	0.09424524
78	0xbd58b3c0	-0.052905798
79	0x3db5565a	0.08854361
80	0x3d80104b	0.06253108
81	0xbd3f417b	-0.046693306
82	0x3cb893cb	0.02253141
83	0xbdbe2c6c	-0.092858166
84	0xbdb43156	-0.087984726
85	0x3c4afcc6	0.012389367
86	0x3d1b7d51	0.037961308
87	0x3d70aea8	0.058760315
88	0xbbf7fdf3	-0.007568115
89	0xbdd861eb	-0.10565551
90	0x3c1acbb6	0.009447983
91	0xbc8ef3bf	-0.017450212
92	0x3dc49164	0.095980436
93	0xbbe0a680	-0.006855786
94	0xbdc36298	-0.0954029
95	0x3e1a4aac	0.15067548
96	0x3df31f10	0.11871159
97	0x3e0782cd	0.1323349
98	0xbdef2fe5	-0.11679057
99	0x3dcf2643	0.1011472
100	0xbdde34a8	-0.10849887
101	0x3d95a149	0.07306153
102	0x3dce9d9f	0.100886576
103	0x3dd7cf48	0.10537583
104	0x3e44b8f4	0.19211179
105	0x3e7020e1	0.23450042
106	0xbcf37a59	-0.029721426
107	0x3da60588	0.08106524
108	0xbcb59f22	-0.022170607
109	0x3eca706e	0.39538902
110	0xbdb04577	-0.08606999
111	0xbbe4342d	-0.0069642277
112	0x3d853a63	0.06505277
113	0xbd425574	-0.047444776
114	0x3e55b4c3	0.20869736
115	0x3dfd7cd8	0.12377328
116	0x3da16c66	0.078820035
117	0xbd956ee4	-0.07296541
118	0xbdcd90ae	-0.10037361
119	0x3dd36af2	0.103231326
120	0xbd5ddfa7	-0.05416837
121	0xbdc11b23	-0.09429004
122	0xbc48068e	-0.012208594
123	0xbc27a614	-0.010232467
124	0x3d609a33	0.054834556
125	0xbd2566e9	-0.040381346
126	0x3e1750b5	0.14776881
127	0x3e191dc1	0.14952756
128	0x3d6ce8ef	0.05783933
129	0xbc2fc685	-0.010728483
130	0x3d3c862b	0.04602639
131	0xbcf0afeb	-0.02938076
132	0xbdcee8da	-0.10103007
133	0x3b209328	0.0024501774
134	0x3c918d19	0.017767476
135	0x3cfe2193	0.031021869
136	0x3ddb980c	0.1072236
137	0x3c23d41b	0.0099993
138	0xbcc15fc7	-0.02360524
139	0xbd2aa6ed	-0.0416631
140	0x3cf4a660	0.02986449
141	0xbcd1f407	-0.025629057
142	0x3da6e6ec	0.081495136
143	0xbb975b57	-0.004619043
144	0x3d1052a6	0.03523507
145	0x3d67f4b3	0.056629848
146	0xbd3c051c	-0.04590331
147	0x3da49372	0.080359355
148	0x3c5ecf9f	0.013599305
149	0xbd8e8796	-0.06959455
150	0x3d95b069	0.07309038
151	0xbdb67c56	-0.08910434
152	0x3d866043	0.06561329
153	0xbd9086d8	-0.070569694
154	0xbd3f1fae	-0.04666107
155	0x3ae9ab93	0.0017827622
156	0x3c77d308	0.015125997
157	0x3dbaa4d8	0.09113473
158	0x3d34b730	0.044120014
159	0xbe0cd73b	-0.13753979
160	0x3da1c655	0.07899157
161	0xbd6e3098	-0.05815181
162	0xbe20e602	-0.15712741
163	0xbe045ef8	-0.12926853
164	0xbdbd0bf9	-0.09230799
165	0xbce34b44	-0.02774585
166	0xbd07b4eb	-0.03313152
167	0xbde9cddd	-0.114162184
168	0x3d7432dc	0.059618816
169	0x3dc0c687	0.09412866
170	0x3d8da3c3	0.06916001
171	0xbe15f0f1	-0.14642693
172	0x3e234e4f	0.15947841
173	0xbe27a601	-0.16371919
174	0x3cf48468	0.029848292
175	0xbdd0598b	-0.10173329
176	0x3d64c05c	0.05584751
177	0xbd93cff4	-0.07217398
178	0xbe2f290b	-0.171055
179	0xbe3fc44a	-0.18727222
180	0x3d8ca39c	0.068671435
181	0xbd4a7757	-0.049430218
182	0x3db0db11	0.086355336
183	0xbcf8234a	-0.030290265
184	0x3da77fdd	0.08178685
185	0xbd3bc717	-0.045844164
186	0x3dcce762	0.1000507
187	0x3d010821	0.031501893
188	0xbbf67ed1	-0.007522442
189	0x3d2ad5c7	0.04170778
190	0xbd8dd532	-0.069254294
191	0x3e0eb9e2	0.13938096

grucell.bias_hh f4 [192]
0	0xbda3d960	-0.08000445
1	0x3deb6da9	0.114955254
2	0xbd46606f	-0.04843181
3	0xbc93169c	-0.017955117
4	0x3c800691	0.015628131
5	0x3dc5cd1a	0.09658261
6	0xbd388999	-0.0450531
7	0x3d57ac83	0.052654754
8	0x3e0f39aa	0.13986841
9	0x3d2d6740	0.042334795
10	0xbd87e20a	-0.066349104
11	0x3dbde0a9	0.09271366
12	0xbb2f3fbb	-0.0026740867
13	0xbd8fcd5e	-0.070215926
14	0x3de918b9	0.113816686
15	0x3db8d9a3	0.09025886
16	0x3d85a22f	0.06525075
17	0x3d97d3f3	0.07413473
18	0xbdd62ba6	-0.10457544
19	0xbc93ce84	-0.01804281
20	0x3b2889fa	0.0025717006
21	0xbde4f197	-0.11178892
22	0x3c878509	0.016542928
23	0xbdb27e02	-0.0871544
24	0x3d96261d	0.07331488
25	0xbdda8048	-0.10668999
26	0x3db30675	0.08741466
27	0xbd1ddfb7	-0.03854343
28	0x3b6ff557	0.003661474
29	0xbbb791fa	-0.0056021186
30	0x3c1dbd64	0.009627674
31	0x3d8274d7	0.06369942
32	0xbde4ec4d	-0.11177883
33	0x3d054078	0.032532185
34	0x3d8c2153	0.068422936
35	0x3d74dacb	0.05977897
36	0x3d0034fa	0.031300522
37	0x3db258d9	0.087083526
38	0x3d85cfff	0.06533813
39	0x3e1295c6	0.14314947
40	0xbd963e71	-0.073361285
41	0x3d9d839c	0.07691118
42	0xbd76aa6a	-0.060221113
43	0x3e1184aa	0.14210764
44	0xbd63f5fa	-0.055654503
45	0xbd95dc0e	-0.07317363
46	0x3d22ea5d	0.039774287
47	0x3d93b708	0.07212645
48	0xbc9a8bd6	-0.018865507
49	0xbdf41dc1	-0.119197376
50	0xbd92f527	-0.07175665
51	0xbde1308e	-0.10995589
52	0xbd6303c9	-0.05542353
53	0xbc508719	-0.012727522
54	0x3d3e3a35	0.04644223
55	0x3cab06d6	0.020877283
56	0x3d4254b6	0.047444068
57	0x3c194581	0.00935495
58	0xbddacd7d	-0.10683725
59	0x3d653ceb	0.0559663
60	0x3d03cf3f	0.032180067
61	0x3d889b70	0.06670272
62	0x3e2571ec	0.16156739
63	0xbd8ffb7e	-0.0703039
64	0xbdbbb6c9	-0.09165723
65	0x3e168e8a	0.14702812
66	0xbd976403	-0.073921226
67	0x3e834f01	0.25646213
68	0xbd395f43	-0.045256864
69	0x3e05c54e	0.13063547
70	0xbca830d5	-0.020531097
71	0xbd3f3d45	-0.04668929
72	0x3d0deac6	0.034647726
73	0x3daf38a8	0.08555728
74	0x3d4aa482	0.049473293
75	0x3c68dcc5	0.014212792
76	0xbd85135c	-0.06497833
77	0x3d1bbe29	0.038023148
78	0xbdb31efd	-0.08746145
79	0xbdc40e46	-0.09573035
80	0xbdb5ae9b	-0.08871194
81	0x3cd1eef4	0.025626637
82	0xbd9ddf50	-0.07708609
83	0xbd88b180	-0.066744804
84	0x3dff325b	0.124607764
85	0xbdb1b756	-0.08677547
86	0x3d539602	0.05165673
87	0x3e0412b3	0.12897758
88	0xbdbf9eec	-0.09356484
89	0x3c1372e5	0.008999561
90	0x3d562dc6	0.052289747
91	0xbdf32307	-0.11871915
92	0x3da54569	0.080698796
93	0x3c7990e4	0.0152322985
94	0x3b7b80fc	0.0038376441
95	0x3e1e1910	0.15439248
96	0xbaadf682	-0.0013272318
97	0x3d30e097	0.043182936
98	0x3da2b8e7	0.079454236
99	0x3c88934c	0.0166718
100	0xbd5d6f80	-0.054061413
101	0xbd96b55b	-0.073588096
102	0x3d1314eb	0.03590862
103	0x3c93cd8a	0.018042345
104	0x3d86e488	0.065865576
105	0x3e878c03	0.26474008
106	0x3e0614e6	0.1309391
107	0xbdd807ae	-0.1054834
108	0xbc917d77	-0.017760022
109	0x3ec39c4c	0.38205183
110	0x3dc6a861	0.097000845
111	0x3d294e85	0.041334648
112	0x3d54fb27	0.05199733
113	0x3df7b828	0.12095672
114	0x3e686c4b	0.2269756
115	0xbd1030a3	-0.035202634
116	0x3d796549	0.06088761
117	0xbd3f4029	-0.046692047
118	0xbd67839d	-0.056522
119	0x3e1562bf	0.1458845
120	0x3ae98acc	0.0017817854
121	0x3c230290	0.009949341
122	0x3d0b9465	0.034077067
123	0x3c8fd117	0.017555756
124	0x3d9d21dc	0.07672474
125	0x3c9af6e0	0.018916547
126	0x3ddc812e	0.107668266
127	0x3d37284a	0.044716157
128	0x3d93ef14	0.07223335
129	0xbd801ee3	-0.06255891
130	0x3c8ac2bd	0.016938562
131	0x3d8f9087	0.07009988
132	0x3ce2b810	0.027675658
133	0x3c1ce7f2	0.009576784
134	0xbd68767c	-0.05675362
135	0x3d42ee2e	0.047590427
136	0xbd7a2730	-0.06107253
137	0xbda322a2	-0.0796559
138	0x3d99d6d6	0.0751168
139	0xbd8bae2f	-0.06820332
140	0x3c941167	0.018074704
141	0xbd6f5d09	-0.058438335
142	0x3d755974	0.059899762
143	0xbcbbb804	-0.022914894
144	0x3dc2d825	0.095138825
145	0xb9d18e6e	-0.00039969705
146	0x3ca2810e	0.019836929
147	0xbd807b34	-0.06273499
148	0x3e03f684	0.12887007
149	0xbd65d34c	-0.05610971
150	0x3d842787	0.06452852
151	0xbd845b5a	-0.064627364
152	0x3de31d32	0.11089553
153	0xbd1d1df8	-0.03835866
154	0xbdd8c160	-0.10583758
155	0xbe04a3d8	-0.12953126
156	0x3d20617a	0.03915546
157	0xbd07a427	-0.033115532
158	0xbd57bf0b	-0.052672427
159	0xbd847b8b	-0.064688765
160	0xbde34918	-0.11097926
161	0xbd192be9	-0.03739539
162	0x3ca3cff5	0.019996623
163	0x3dd78be9	0.105247326
164	0xbc99d35b	-0.01877754
165	0x3d577941	0.05260587
166	0xbd86077c	-0.06544396
167	0xbdec2f98	-0.11532515
168	0xbdbf8d63	-0.09353139
169	0xbd0bee43	-0.03416277
170	0xbd878245	-0.06616644
171	0xbdb4b6e5	-0.08823947
172	0xbc561838	-0.013067298
173	0xbdc6fe7a	-0.09716506
174	0x3e0dbb41	0.13840963
175	0xbd4de27a	-0.050264813
176	0x3ddc9a3a	0.10771604
177	0x3ddd25bc	0.10798213
178	0x3d1699d2	0.03676779
179	0xbc1627d4	-0.009164769
180	0xbdb3b4d6	-0.08774726
181	0x3dd30bac	0.103049606
182	0x3da42112	0.0801412
183	0xbdbbaf6f	-0.09164321
184	0x3e08fac7	0.13376914
185	0x3d8c8cfc	0.06862828
186	0xbcf9a08d	-0.030472064
187	0x3dd8bc7e	0.10582827
188	0xbd9e2012	-0.07720961
189	0xbdb77cf2	-0.08959378
190	0xbcbaeeb9	-0.02281891
191	0x3c84c7bc	0.016208522

linear.weight f4 [2, 64]
0	0xbd548d76	-0.05189272
1	0xbd1a620e	-0.03769117
2	0xbd93a1c6	-0.0720859
3	0xbe2f3ec3	-0.17113785
4	0x3da04f79	0.07827658
5	0xbe41ddd8	-0.18932283
6	0x3d229fdf	0.039703246
7	0xbd6adef5	-0.057341535
8	0xbd861592	-0.06547083
9	0x3dd4234a	0.10358293
10	0x3db5b79e	0.08872913
11	0xbe054f39	-0.13018502
12	0xbe1fae13	-0.15593748
13	0xbda0f875	-0.078598894
14	0x3e20b1ea	0.15692869
15	0xbd95d8da	-0.07316752
16	0x3e1a5a4b	0.15073507
17	0xbdac9a57	-0.084278755
18	0x3dd9e5c5	0.10639528
19	0x3dbe0d76	0.09279911
20	0x3cdd1ee4	0.026992269
21	0xbd4c4ba0	-0.04987681
22	0xbd4657a0	-0.04842341
23	0xbd944c0f	-0.072410695
24	0x3de0b200	0.10971451
25	0xbdfa90ee	-0.122346744
26	0x3e108238	0.14112175
27	0x3c9aadd4	0.018881716
28	0x3bee67a5	0.007275539
29	0x3dcedf93	0.10101237
30	0xbd754622	-0.059881337
31	0xbdb970de	-0.09054731
32	0x3db80703	0.089857124
33	0xbc5241c5	-0.0128330635
34	0x3d7c09ef	0.06153291
35	0x3ceb7917	0.028744264
36	0xbd0493dd	-0.032367576
37	0xbdb7c635	-0.08973352
38	0xbda24b0a	-0.07924469
39	0xbddf06e7	-0.108899884
40	0xbdffc362	-0.12488438
41	0xbd1fe314	-0.039034918
42	0x3e14c786	0.14529237
43	0xbd73b907	-0.059502628
44	0x3d866b50	0.06563437
45	0x3e65e13f	0.22449206
46	0x3d6f3ad4	0.058405712
47	0x3d4c1a12	0.04982955
48	0xbe2b8a73	-0.16752033
49	0xbe280faa	-0.16412225
50	0xbc1d7427	-0.009610212
51	0x3b8a7272	0.0042250687
52	0xbc426dac	-0.011866968
53	0x3ddb594c	0.107103914
54	0xbda96d92	-0.08272852
55	0xbc988730	-0.01861915
56	0xbde8b9ae	-0.113635406
57	0xbd04ced6	-0.032423817
58	0xbcb0da04	-0.021588333
59	0x3d1c29a6	0.038125657
60	0xbd5f87d4	-0.054572895
61	0xbdd70502	-0.10499002
62	0xbe0a11ed	-0.134834
63	0x3da00311	0.07813085
64	0x3d47369f	0.048636075
65	0xbe4b07ad	-0.19827147
66	0xbd9706de	-0.07374357
67	0xbbd17411	-0.00639201
68	0x3e99ce1b	0.30040058
69	0xbd7b0ee2	-0.06129349
70	0x3e4cad6b	0.19988029
71	0x3e471d01	0.19444658
72	0xbe596c5a	-0.21232739
73	0x3d24006a	0.040039457
74	0x3c0e2c2f	0.008677526
75	0xbdd04b66	-0.10170631
76	0xbdd5366a	-0.10410769
77	0x3de4534c	0.111487
78	0xbe274dfc	-0.16338342
79	0x3e10f235	0.14154895
80	0x3cf44ace	0.029820826
81	0xbd57f821	-0.05272687
82	0x3d97ee1f	0.07418465
83	0xbdc8de89	-0.0980807
84	0xbe076418	-0.13221776
85	0xbdc8f998	-0.09813231
86	0x3dbc5866	0.09196548
87	0xbd45ad1c	-0.048260793
88	0xbb0bf4df	-0.0021355671
89	0xbd918371	-0.071051486
90	0xbe27e737	-0.16396795
91	0x3d8a0bdc	0.06740543
92	0x3d55847b	0.052128296
93	0x3d65cb39	0.05610201
94	0x3d8a5102	0.06753732
95	0x3e53b082	0.20672801
96	0x3d3e4f18	0.04646215
97	0xbe31b68b	-0.17354791
98	0xbd3608c9	-0.044441972
99	0x3e3035ae	0.17207977
100	0xbe188571	-0.14894654
101	0x3c1ccccf	0.009570315
102	0xbc779d0c	-0.0151131265
103	0x3d54d3e3	0.051959883
104	0xbed05c0f	-0.40695235
105	0xbe5c6ee9	-0.21526684
106	0xbdc8bd53	-0.09801736
107	0xbe018067	-0.12646638
108	0x3d37c116	0.044861875
109	0xbe67689e	-0.22598502
110	0xbdd95c49	-0.10613305
111	0x3e01f386	0.12690553
112	0x3cb66c8d	0.022268558
113	0x3d556681	0.05209971
114	0xbd51b7a8	-0.05120054
115	0xbda2a9cf	-0.07942545
116	0x3e03678a	0.12832466
117	0x3d86c4bc	0.06580493
118	0x3cdcb6cf	0.026942639
119	0x3d3eccbe	0.046581976
120	0xbd142499	-0.036167715
121	0xbd2ea978	-0.042642087
122	0xbdb3fb9f	-0.08788227
123	0xbc5f8e68	-0.013644792
124	0xbdf61573	-0.1201581
125	0xbd078b3c	-0.03309177
126	0xbd9f717d	-0.07785318
127	0xbd1d73bb	-0.038440447

linear.bias f4 [2]
0	0x3c86c988	0.01645352
1	0xbe31030a	-0.17286316

linear_final.weight f4 [5, 64]
0	0xbd0b6c16	-0.034038626
1	0xbdbb5ae0	-0.091481924
2	0xbb911d9f	-0.00442858
3	0xbe06d1f8	-0.13166034
4	0xbd2d127b	-0.042253952
5	0x3cf8e58c	0.030382894
6	0xbd9677b8	-0.07347053
7	0x3cb80b73	0.022466397
8	0x3dba2a47	0.09090095
9	0x3cb6c0e4	0.022308774
10	0x3d73fbb0	0.0595662
11	0xbd52286c	-0.05130808
12	0x3ce7f5df	0.028315483
13	0x3d3f9da4	0.046781197
14	0x3e160343	0.14649682
15	0x3bcf1c00	0.0063204765
16	0xb9dfde11	-0.00042699327
17	0xbc15395e	-0.009107916
18	0x3d475e72	0.048674054
19	0xbc977050	-0.018486172
20	0x3cbef501	0.023310186
21	0x3cf06b5b	0.029348066
22	0xbd65bfe4	-0.056091204
23	0xbc885402	-0.01664162
24	0x3c1fdfe2	0.009757968
25	0xbdcd4fcc	-0.10024986
26	0x3af4e99e	0.0018685346
27	0x3d0a931a	0.033831693
28	0xbda513ee	-0.08060442
29	0xbd1eaf72	-0.038741536
30	0x3c3e5d65	0.011618947
31	0xbc79e863	-0.015253159
32	0x3c5774dc	0.01315042
33	0x3d535cae	0.051602058
34	0xba617219	-0.0008600071
35	0xbd0c0dc7	-0.034192827
36	0x3d8e7340	0.06955576
37	0x3da521eb	0.0806311
38	0x3ba47fe1	0.005020127
39	0xbdcc661f	-0.099804156
40	0xbd67e0dd	-0.05661093
41	0x3d99c975	0.07509128
42	0xbb953926	-0.0045539318
43	0x3d1bc36b	0.038028162
44	0xbce60583	-0.0280788
45	0x3e2c1fc9	0.16809
46	0xbd259d9a	-0.040433504
47	0xbc219a78	-0.009863488
48	0x3cb64c80	0.022253275
49	0xbbe7eb5a	-0.0070776166
50	0xbdde434f	-0.10852682
51	0xbb98077c	-0.004639564
52	0x3dc23f7f	0.09484767
53	0x3cc9c63d	0.02463066
54	0x3dbb6d40	0.09151697
55	0x3db0cd4a	0.08632906
56	0x3bf8b2c2	0.007589669
57	0xbc907a1a	-0.017636348
58	0x3d3907fc	0.04517363
59	0x3cfadeb1	0.030623766
60	0x3d1527f5	0.03641506
61	0x3d0aec77	0.033916917
62	0xbe3278d9	-0.17428912
63	0x3b8c3097	0.0042782533
64	0xbcf002c6	-0.029298197
65	0x3d2bbfed	0.04193108
66	0xbd2b261f	-0.041784402
67	0x3e23cc97	0.15996014
68	0xbcffb25c	-0.031212978
69	0xbd880620	-0.06641793
70	0x3d564ab1	0.052317325
71	0xbca3a197	-0.019974513
72	0x3c7e2aac	0.015513103
73	0x3d025884	0.031822696
74	0x3cd40ce6	0.025885057
75	0x3ba0b60d	0.0049045146
76	0x3c785457	0.015156827
77	0xbb265cdc	-0.0025384938
78	0xbcfb4f44	-0.030677445
79	0x3d51a584	0.05118324
80	0xbc350cad	-0.011050385
81	0xbbbe35bd	-0.005804746
82	0x3d1a35c5	0.037648935
83	0x3d0803a9	0.033206616
84	0xbc674391	-0.01411523
85	0x3c175c65	0.009238337
86	0x3c932e9f	0.017966567
87	0x3d7e2bfd	0.06205367
88	0xbd3ebd97	-0.046567526
89	0xbc0a5dd2	-0.00844522
90	0xbd0cfb58	-0.034419388
91	0x3d27104a	0.04078702
92	0x3dbe5b7c	0.09294793
93	0xbc778606	-0.015107637
94	0x3b0cc431	0.0021479244
95	0x3e053222	0.13007405
96	0xbd182798	-0.037147135
97	0xbd546349	-0.0518525
98	0xb9ed320b	-0.00045241448
99	0x3d01ff1d	0.031737436
100	0xbb8107c6	-0.0039376942
101	0x3d5212d9	0.051287506
102	0x3d452da4	0.04813923
103	0xbca3ade5	-0.01998038
104	0xbdf390ba	-0.11892839
105	0xbcc74344	-0.024324067
106	0xbd345bcd	-0.04403286
107	0xbc75b045	-0.014995639
108	0x3d11c91a	0.035592176
109	0x3d939710	0.07206547
110	0xbd613c23	-0.05498899
111	0xba85014a	-0.0010147479
112	0xbc08e365	-0.008354996
113	0xbc4bda23	-0.012442145
114	0xbdc1275d	-0.09431336
115	0x3d35a838	0.04434988
116	0x3d8c3ba0	0.0684731
117	0x3caf2578	0.021380171
118	0xbd70354e	-0.058644585
119	0x3da3da71	0.08000649
120	0x3c9465ee	0.01811501
121	0x3c7b5ffe	0.015342711
122	0x3d4d1581	0.050069336
123	0x3d6eada7	0.058271077
124	0x3d49f519	0.04930601
125	0xbd036047	-0.03207424
126	0xbd8142f8	-0.063116014
127	0xbcdc4562	-0.026888553
128	0xbd535caa	-0.051602043
129	0xbdafe5cd	-0.08588753
130	0xbd9571df	-0.0729711
131	0x3ebf854f	0.37406394
132	0xbea73341	-0.3265629
133	0xbd2ba5aa	-0.041906036
134	0xbd548dbb	-0.051892977
135	0xbb943f5e	-0.0045241555
136	0x3e8cc048	0.2749045
137	0x3ecc4198	0.39893794
138	0xbe369e66	-0.17833862
139	0x3dae58eb	0.085130535
140	0x3dbe8bce	0.093040094
141	0x3e3648c4	0.17801195
142	0xbe063cd6	-0.13109145
143	0x3d6e0b8c	0.05811648
144	0x3da3c81d	0.07997153
145	0x3b0c8c8d	0.002144608
146	0xbd93ebd7	-0.07222717
147	0xbdaecd5c	-0.08535263
148	0xbe779b32	-0.24180296
149	0xbd41d05c	-0.047317848
150	0x3c612da3	0.013743791
151	0x3e84884a	0.2588523
152	0xbeb78066	-0.35840148
153	0x3e050513	0.12990217
154	0xbdaafe02	-0.083492294
155	0x3d85f1cd	0.065402605
156	0xbd82499c	-0.06361696
157	0xbdd39316	-0.10330789
158	0xbd77e7e2	-0.060523875
159	0xbe099973	-0.13437442
160	0xbda96252	-0.08270706
161	0xbded03e7	-0.1157301
162	0x3e9b3168	0.3031113
163	0x3d402e35	0.046919066
164	0x3e0439f8	0.12912738
165	0xbc85d00f	-0.016334562
166	0xbd2e6733	-0.042578887
167	0x3d1272e7	0.03575411
168	0x3ea3cba4	0.31991303
169	0x3ec9218e	0.39283413
170	0xbe160d76	-0.14653572
171	0x3de010bb	0.10940691
172	0xbeb9a77c	-0.36260593
173	0xbed586e0	-0.41704464
174	0xbe8ca410	-0.2746892
175	0x3ee0b94b	0.43891367
176	0x3d70549f	0.05867445
177	0x3d656a6e	0.056009702
178	0xbe03eccb	-0.12883298
179	0x3e81e9ca	0.2537368
180	0x3a954f43	0.001139142
181	0xbd54a509	-0.051915202
182	0xbdb61984	-0.088915855
183	0x3e7f5b2d	0.24937125
184	0xbe3725df	-0.1788554
185	0x3d21aa68	0.039469153
186	0xbe8ea135	-0.27857366
187	0xbe26a1d5	-0.16272672
188	0xbe3a70eb	-0.18207137
189	0xbc86d11e	-0.016457137
190	0xbda248a8	-0.07924014
191	0xbe5df58f	-0.21675704
192	0x3c85e9bd	0.016346807
193	0xbef04c70	-0.46933317
194	0xbe8a8f1f	-0.27062318
195	0xbc8286c3	-0.0159334
196	0xbc8bab45	-0.017049441
197	0xbde26edf	-0.11056303
198	0x3e0be410	0.13661218
199	0xbe00da4a	-0.1258327
200	0x3c8a540d	0.016885782
201	0x3e97eeeb	0.29674467
202	0xbdcf9e94	-0.10137668
203	0x3d8f89a9	0.070086785
204	0x3e39d4ce	0.18147585
205	0x3cf3993a	0.02973615
206	0xbe6de952	-0.23233536
207	0x3c13e89c	0.009027626
208	0xbe38cdcb	-0.18047254
209	0x3ccfc3cc	0.025361918
210	0xbcb679e4	-0.022274919
211	0xbd113bc7	-0.0354574
212	0xbe1f8235	-0.15577014
213	0x3e7a4d08	0.24443448
214	0xbece7356	-0.4032237
215	0x3e9617c8	0.2931502
216	0xbebecf2d	-0.37267438
217	0x3e8a2deb	0.26988158
218	0x3e3d4b3d	0.18485732
219	0x3dddbc71	0.10826958
220	0xbd9f3a8f	-0.07774841
221	0x3da53580	0.08066845
222	0x3d9087eb	0.07057174
223	0x3eefe555	0.46854654
224	0xbc829c38	-0.015943632
225	0xbda1aaa4	-0.07893875
226	0x3e4c3861	0.19943382
227	0x3e86999a	0.26289064
228	0x3e2bc7ec	0.16775483
229	0xbdb0066e	-0.08594976
230	0x3c79d310	0.015248075
231	0x3eadf627	0.33976862
232	0x3e1fd6cc	0.15609282
233	0x3da1c556	0.07898967
234	0xbe3d802e	-0.18505928
235	0x3dd69739	0.10478062
236	0xbe4201ee	-0.18946049
237	0x3d2d3e09	0.04229549
238	0xbdf5c661	-0.120007284
239	0x3deb890e	0.115007505
240	0xbc9bb43d	-0.019006843
241	0x3d292515	0.04129513
242	0x3dc7bfdb	0.097533904
243	0x3e250d59	0.16118373
244	0xbe364ace	-0.17801973
245	0x3d4cb6ac	0.049978897
246	0xbebb740d	-0.36611977
247	0x3eacdfbc	0.33764446
248	0xbe170c0e	-0.14750692
249	0x3da47b5f	0.08031344
250	0xbdd5f96e	-0.104479656
251	0xbe6c6899	-0.23086776
252	0x3e1eb38f	0.15498184
253	0x3d1e05de	0.038579814
254	0x3e0395ea	0.12850156
255	0xbed01ffa	-0.40649396

linear_final.bias f4 [5]
0	0xbdb67ff4	-0.08911124
1	0x3d526e9f	0.051375028
2	0xbf843b1f	-1.0330542
3	0xbf954e64	-1.1664548
4	0xbdd64e55	-0.104641594
