results2_checkpoint/eth/latest.pth (torch_old, 55823 bytes, 10 tensors)

gcn.gc1.weight f4 [2, 2]
00000000: 17ad 06c0 84ab 19bf 894b fdbe 1938 0340
-2.1043146 -0.6002734 -0.4947169 2.050299

gcn.gc1.bias f4 [2]
00000000: 1397 123d 2cf8 ff3c
0.035788607 0.031246267

grucell.weight_ih f4 [192, 2]
00000000: 713f f63d a1c2 13bd e3aa babd a9b4 fcbd
00000010: 6371 d9bd c3c7 4dbd d36c 103e aec7 79bd
00000020: 7bd9 a83c f65c 1fbd e8c6 ecbd 5569 90bd
00000030: ad8e 7c3d 8ada 15bd 5c85 ecbc b711 cebd
00000040: 5490 9fbc 92eb e23d 736e 43bd b775 20bd
00000050: 227e f1bc c292 bdbd bdf5 3f3d f8da 8d3c
00000060: ab2c fb3c 6a73 d53c 844c d4bc 742d ef3c
00000070: 6eba e63c 13a1 0d3c d7ab bb3c 2e71 a4bd
00000080: d5a4 f4bc 181b 003e 6b1f 053e 0582 1f3d
00000090: 2460 3cbd 859e e4bd 91ff 7fbd 391b cdbd
000000a0: 0b53 34bd 3dd4 133c cd15 943d 0a29 b3bd
000000b0: 0f65 0abd cb29 943d f15e df3c fe17 47bd
000000c0: a5d1 c83c eab2 81bd 7607 aa3d aadb 893c
000000d0: e718 bbbd e889 853d d632 3b3d e8e9 153d
000000e0: cf1d 3bbd d02c 933d 2a21 593d 4ae3 e2bd
000000f0: 7b82 aa3d ddf3 95bd 71ee 943d abe9 543c
00000100: f309 bb3d 3acc 293d 7ab7 143c 31ef 2dbd
00000110: 4dc9 52bd e0b7 443d 2799 f8bd 8086 83bd
00000120: 9d81 6d3d 6d23 443d eed6 883d ed07 1bbd
00000130: 64e6 703d ebd4 c6bd 7634 883d 6957 943d
00000140: 652d e63d d491 b73d 1378 b93d f963 8dbd
00000150: 8b70 e23d db4b 8a3d 080a b8bd d0a8 1ebd
00000160: 31f8 5bbd 6d1b abbd 89ff 533d d50f 75bd
00000170: d6ba 4e3d f784 723d 722d 07bd d2ff 80bd
00000180: 3d21 963d 69a7 6b3d 7e36 b83c b0a1 be3d
00000190: b178 903d 0c76 7bbd a0a3 c83c 1f0c 9fbc
000001a0: db35 05bd dff9 173c 5ac4 1dbd 01f3 c73d
000001b0: f151 fc3d b7db c5bd 553f 9a39 150c f3bd
000001c0: 4c3c c03d 930b 603d dc72 1abd e4ba 65bd
000001d0: c0f7 cbbd acc2 aa3d 70d8 45bd 7826 af3d
000001e0: 6fb5 85bd 4e06 cb3d 78c0 bd3c bf3a a1bd
000001f0: 5ad1 16bd e83e b2bd ebfb 93bc c233 b53d
00000200: c39f a13d d55c 99bd 4181 f93b ddcf 093d
00000210: 3d4a 41bd a965 a83b a391 dbbd 73c2 083c
00000220: 03e7 d3bd 2a7b be3c dbe6 233d e455 083d
00000230: 01e5 d8bc 82e7 78bc d920 ea3b c37a b93d
00000240: fb40 7b3c a2a0 043d c94c f63c 06f2 91bd
00000250: 6aef ce3d 64dd ee3c 9fbe bf3d 3684 e13d
00000260: 5ce9 fbbd d43f b6bc e63c f23d ca19 823c
00000270: 6273 87bd 7fd5 1a3c 2a3f d4bc 7a2d 363d
00000280: 2c3a 85bb f2a6 b3bd bb6f dd3d c4f7 8bbb
00000290: d5d0 8ebd 6fab 943d bbe9 23bd f3c4 02be
000002a0: 49c5 98bd 2bc0 83bd b153 dc3c 8952 b5bd
000002b0: 3d2f 4d3d 52fe d43b 6850 ed3d 13a8 58bc
000002c0: 2f11 c93d 13ba e73d b9cc d23b 811d a4bd
000002d0: b224 9b3d 0d35 b53d fbb7 f7bd de5d 513d
000002e0: 5959 ddbd 913f b8bc 2ce1 44bd ec3f f6bd
000002f0: 8e1d ce3d c141 863d 6c48 9dbd 5aa2 ffbd
00000300: 8773 b5bd 0df2 94bd 91fa 5bbd 32ab 003e
00000310: 514b 87bc 2069 403b f51d ef3d 9338 da3d
00000320: a09a a7bd bb64 213d dd29 453d 8ecc 3bbc
00000330: f3ec dbbd 1a0a a23d 83aa cf3c 458d fabd
00000340: 365b 203b 22da f8bb ca1e 3b3d da05 bf3d
00000350: a5e7 8b3d 3819 d8bd 47dc 4f3d 7bf9 a2bd
00000360: 6c7d 42bc ec52 0fbd 0da6 c7bd 85fd b53d
00000370: b8c3 92bd 03ed 2cbd f697 4b3c 8e1b 82bd
00000380: 6f50 d1bd 5f5b da3c 45b7 853d 7ac2 193d
00000390: 7ff8 f03c a75e aebd 3736 913d 2504 edbc
000003a0: 8174 e8bc debe 06bc 3c27 de3d 64c1 463d
000003b0: db8a ed3d 9c27 b93d eadc 89bc 6579 86bd
000003c0: 4890 b6bd ea3e fe3c 3487 01bd 6341 a83d
000003d0: 7177 323d 1067 e1bd 1aea d53c cd7a 68bd
000003e0: 2b99 843c 5c82 83bc d7fe a13d cdd9 463c
000003f0: fba1 bcbd 263a d4bd c742 573d 1852 813c
0.12023819 -0.036074284 -0.09114625 -0.12339146 -0.1061733 -0.050239336 0.14104013 -0.060981445
0.020611515 -0.038907014 -0.11561376 -0.070513405 0.061659504 -0.03658537 -0.028872184 -0.100619726
-0.019478 0.11080088 -0.047712754 -0.03917476 -0.02947909 -0.092565075 0.046865214 0.017316326
0.030660948 0.02605601 -0.025915392 0.029196478 0.028165068 0.00864436 0.022909088 -0.080294
-0.029863754 0.12510335 0.13000266 0.038942356 -0.045990124 -0.11163048 -0.062499586 -0.10014958
-0.04402451 0.0090227695 0.07230721 -0.08748062 -0.033787783 0.07234534 0.027266951 -0.048606865
0.024514029 -0.06332953 0.08302204 0.016828377 -0.09135609 0.06520444 0.045702778 0.036600024
-0.045682725 0.07186282 0.053010143 -0.11078508 0.083256684 -0.07321904 0.072720416 0.012995164
0.09132757 0.04145453 0.009076947 -0.04246444 -0.051461507 0.04802692 -0.121385865 -0.06422138
0.057984937 0.047885347 0.066816196 -0.037849355 0.058813468 -0.0970858 0.06650631 0.07243235
0.11239127 0.089633614 0.090561055 -0.06903834 0.11056622 0.067527495 -0.08986288 -0.03873521
-0.05370349 -0.083548404 0.05175737 -0.05982955 0.05047115 0.059208836 -0.033002324 -0.06298794
0.073305584 0.0575327 0.022486921 0.09308183 0.0705427 -0.061391875 0.024492085 -0.01941496
-0.032522064 0.0092758825 -0.038517334 0.09763146 0.123203166 -0.09661048 0.00029420355 -0.11867539
0.09386501 0.054698538 -0.037707195 -0.056086436 -0.09959364 0.08337912 -0.048302114 0.08552259
-0.06528746 0.09913312 0.023163065 -0.07872533 -0.036820747 -0.08703405 -0.01806446 0.08847763
0.078918 -0.074884094 0.007614285 0.0336455 -0.04718994 0.005139072 -0.107211374 0.008347142
-0.10346796 0.023252089 0.040015083 0.033285037 -0.026476385 -0.0151919145 0.007145029 0.09056618
0.015335317 0.032379754 0.03006591 -0.071262404 0.10104258 0.029158302 0.0936253 0.11011545
-0.12300369 -0.022247232 0.11828022 0.015881438 -0.066138044 0.0094503155 -0.025909025 0.044476964
-0.0040657725 -0.08772077 0.108123265 -0.0042714793 -0.06973425 0.07259261 -0.040017825 -0.12770443
-0.07459504 -0.064331375 0.026895376 -0.08853633 0.050093878 0.006500044 0.11587602 -0.013223666
0.09817731 0.11314788 0.0064330962 -0.0801344 0.075753585 0.08848009 -0.12095638 0.05111491
-0.10808057 -0.022491248 -0.048066303 -0.12023911 0.10064231 0.0655551 -0.07679829 -0.12482138
-0.08859926 -0.0727273 -0.053705756 0.12565306 -0.016515406 0.0029359534 0.11675636 0.10655322
-0.08183789 0.039402705 0.048135627 -0.011462344 -0.10738554 0.07912083 0.025349861 -0.12233976
0.0024468428 -0.007594363 0.04568366 0.09327288 0.06831292 -0.10551685 0.050747182 -0.07957741
-0.011870723 -0.03499119 -0.097484685 0.08886246 -0.07166237 -0.04221822 0.012426367 -0.06352912
-0.102204196 0.026654897 0.065290965 0.037538983 0.029415367 -0.08514147 0.07090419 -0.02893264
-0.028375866 -0.008224217 0.10847327 0.048524275 0.1159875 0.09040758 -0.016828973 -0.06566123
-0.08914238 0.03103586 -0.03162308 0.082155965 0.04357094 -0.11005986 0.026112605 -0.056757737
0.016186317 -0.016053371 0.07909935 0.012136889 -0.09210583 -0.103626534 0.05255392 0.015786216

grucell.weight_hh f4 [192, 64]
00000000: 0dfd 01be 0fbc dc3d a9ed a2bd 3f9a 9abd
00000010: 0e8a 543d 79c5 ebbd 6e35 8bbd 1e08 4b3b
00000020: 7fd7 43bc 31b5 963c 432f 4b3d db46 c2bd
00000030: 469b 33bd 7a58 743c 7f81 fdbd b5b0 e6bb
00000040: c631 83bd f162 dcbc fb8f 693c 281e 283d
00000050: d716 bebd 79a9 afbd 532f 8d3d 6ab6 633d
00000060: 425b 803d e26f c0bd 5974 253d b237 b83c
00000070: 9a0b 843d 0ed5 c63d 2ce8 b2bd 951b 893c
00000080: f7b3 3f3d f676 ff3d f070 adbd c495 633c
00000090: bcd4 0cbe 325e e03d 1734 823d 9dd9 983b
000000a0: cb57 a03c 4e81 c13c 9157 8dbd 2311 833d
000000b0: dc26 1d3d a26d 23bd 2490 d23d 3fc5 a13d
000000c0: abf2 2e3c d80a 483d 6771 d8bd 3ac8 54bd
000000d0: 3d94 ea3d 8664 e83d d7ec 31bc 35aa 95bb
000000e0: 42a8 0dbe 86ce f73c db74 2b3d 7a60 0dbd
000000f0: 3951 b7bd b07a d6bd 0faf 1c3c 21ce f03c
00000100: ed6b cf3d 6db2 893d 9c94 e33d ebfc c4bd
00000110: 34f3 5cbd f13b 04be 143f 4fba 92c1 963d
00000120: b62a dabd 7d4b bc3d b291 bf3d 7180 743d
00000130: e470 d8bd c0d4 d4bd 3a09 193e aef5 703d
00000140: 15c1 abbd e1f4 c2bd ffc9 dabd d169 2cbd
00000150: e62b 023e 720a 223c 4cbf 423d 1b17 9c3c
00000160: 0bbf e4bc f0ca bebd 1dee 89bd cfef 0cbc
00000170: 1f49 d1bd c8c4 9cbd 18ed 163c c808 dbbd
00000180: 1ad4 14be 14ed 0d3d 1719 ed3d 84d9 08bd
00000190: ca0a 583d f113 a03c 2a54 afbd 18ac 49bd
000001a0: ef4d 623d b6ee cebb 1894 c0bd 27b4 483b
000001b0: 6d47 e9bd e2b2 cf3d 5621 7f3d e223 12bd
000001c0: 12ce c83d f174 d33d 7d5a d03d e6ff 22bd
000001d0: eea4 8fbd beb4 a5bd f1f6 8dbd c014 403d
000001e0: c8c2 873c 0df9 adbd f79d 903d e359 193d
000001f0: c27f c0bd 8ca8 66bc 20cf b13d 1e36 f2bc
00000200: 5387 873c eb8b fabb fc8c 03bc cef9 80bd
00000210: 51cf 563d d82c 12bc da38 39bc 8d8e 5d3c
00000220: f0a6 e3bd 0aaf 933d 4075 fcbd f749 11bd
00000230: 3bd3 903b c256 883d f145 ee3c 6bf4 26bd
00000240: 16f2 d7bd 11b4 793c 0ffb 9e3d 98e1 bf3d
00000250: 7c8b c0bd 20c8 afbd 8029 93bc d1ba 95bd
00000260: 019c 1dbd 05cc a03c dff3 e93d 2c11 b7bd
00000270: 695f ecbb cc7c abbc 6e17 e43d 204b b03d
00000280: 01a8 b73d 6552 033d 7681 b1bd 5795 abbc
00000290: 54c2 b43d 86b9 f1bd 78b3 b13d 8959 2abc
000002a0: 584e b5bc ccba f43d 2f6c 373d e4dd a2bc
000002b0: 4c7a b1bd 54ca b93d b082 5fbd 6629 10be
000002c0: 1fb1 9abd e23a 153e d903 833c d2aa b7bd
000002d0: 76df 2a39 c288 aa3d c268 bbbd 7ff8 e3bd
000002e0: 032f 8f3b fad0 a33d 1c5c 8c3d bd25 01be
000002f0: 7f97 abba 7d17 7abb 7a2e 8f3c c55c 38ba
00000300: c2ee 82bd f2dc 3dbe 8597 8b3d a9c9 ff3d
00000310: a8a2 923c d6db 65bc c686 b3bd beba 4cbd
00000320: c7eb b23d 5555 a5bd e128 b2bd 07af 003d
00000330: 5908 ca3d 99e3 a23d cece 64bd 76f4 a03d
00000340: 9e97 9fbd 32ec 35bd 88f3 e4bc 5dde 813d
00000350: dc43 733d 1cbd 3c3d 7704 5c3d cf6c bdbd
00000360: 00eb cc3d 0596 7c3c b0ea 873d b2e6 ca3d
00000370: 7c52 0bbe 0cfb 12ba 8833 61bd 55d3 fc3c
00000380: 3312 0a3e 854b 3f3d 1562 1dbd 3681 b93d
00000390: 27d4 dbbd 02d7 dcbd 0c2a e2bd 721f 4cbd
000003a0: a0c3 0abe 3dfd 0e3d a960 903d e6f2 733d
000003b0: 6d95 913d d8c5 e0bd 5d66 6d3d fbc3 6ebd
000003c0: 48ca 59bd e46a 073e 4766 cfbd 702b 42bd
000003d0: 38ee 8cbd 9dc8 13bd fadf 8bba b307 97bd
000003e0: 3605 f1bd 8784 be3d 4dea 953d 9c00 223d
000003f0: b4a6 fdbd bf55 8bbd ba65 7cbb 606b ca3d
-0.12694187 0.10778057 -0.07955486 -0.07548951 0.05188947 -0.11512274 -0.067973 0.003098018
-0.011953234 0.018396946 0.04960562 -0.09486171 -0.043849252 0.014913673 -0.12378215 -0.007040108
-0.06405978 -0.026902648 0.014255519 0.041044384 -0.092817 -0.08577246 0.06893792 0.055593885
0.06267406 -0.0939634 0.04039416 0.022487495 0.06447525 0.09708606 -0.087356895 0.016736785
0.046802487 0.12473862 -0.08468807 0.013890687 -0.13753027 0.10955466 0.063575916 0.0046646134
0.019573113 0.023621228 -0.069014676 0.06399753 0.038367137 -0.039899476 0.10281399 0.0789895
0.010677974 0.048838466 -0.10568505 -0.051948763 0.114540555 0.11347298 -0.01085969 -0.0045674094
-0.13833717 0.030249845 0.04185949 -0.034515835 -0.08951039 -0.104726195 0.009563222 0.029395165
0.10128007 0.06723485 0.11112329 -0.09618553 -0.053942874 -0.12913491 -0.0007905823 0.07361139
-0.10652678 0.09194086 0.09353961 0.059692804 -0.10568407 -0.10392141 0.14944926 0.05882805
-0.08386437 -0.09519363 -0.10683059 -0.042093102 0.12712058 0.009890186 0.047545716 0.019053986
-0.027923128 -0.09316051 -0.0673487 -0.008602097 -0.10219025 -0.076547205 0.009211801 -0.10695034
-0.14534035 0.034649923 0.11577051 -0.033410564 0.052744664 0.019540759 -0.08560975 -0.049236387
0.055250105 -0.0063150777 -0.09403247 0.0030624957 -0.113905765 0.10141541 0.06228765 -0.03567875
0.0980493 0.10325039 0.10173509 -0.039794825 -0.0701388 -0.080911145 -0.06931866 0.04689479
0.016572371 -0.08494768 0.070613794 0.03743924 -0.09399368 -0.014078271 0.08682084 -0.02956682
0.01654402 -0.007646074 -0.008029219 -0.062976465 0.052443806 -0.008921824 -0.011305058 0.013522756
-0.11115825 0.072111204 -0.12327051 -0.03547093 0.004419712 0.06657173 0.029086085 -0.04076044
-0.10544221 0.015240685 0.077627294 0.093692005 -0.094016045 -0.08583093 -0.017964125 -0.07311023
-0.038478855 0.019628534 0.11423468 -0.08938822 -0.007213522 -0.020933531 0.11137281 0.08608079
0.08967591 0.032061 -0.08667271 -0.020945234 0.08826128 -0.11802964 0.08676809 -0.010397323
-0.022132084 0.11949691 0.044780906 -0.019881196 -0.086659044 0.09071794 -0.054567993 -0.14078292
-0.075533144 0.14573243 0.015993046 -0.08968128 0.00016295709 0.08326866 -0.0915084 -0.11131381
0.004369618 0.079988435 0.06853506 -0.12612052 -0.0013091414 -0.0038160973 0.017478216 -0.00070328667
-0.06393196 -0.18541315 0.068160094 0.124896355 0.017899826 -0.014029464 -0.0876594 -0.04998278
0.08736377 -0.080729164 -0.08699203 0.03141692 0.098648734 0.07953567 -0.055861287 0.07859127
-0.077925906 -0.044414707 -0.027948156 0.063412406 0.059390888 0.046078786 0.053715196 -0.09249269
0.1000576 0.015416627 0.0663656 0.09907283 -0.13605684 -0.0005606867 -0.054980785 0.03086249
0.13483505 0.04670288 -0.038423616 0.09057848 -0.10733824 -0.10783197 -0.11043176 -0.049834676
-0.13551188 0.034909476 0.070496865 0.059557818 0.07108579 -0.10975236 0.05795895 -0.05829237
-0.053171426 0.1322437 -0.1012693 -0.047404706 -0.06881374 -0.03607999 -0.0010671609 -0.073745154
-0.11768572 0.09302621 0.0732008 0.039551362 -0.12385312 -0.06803464 -0.0038512782 0.098837614

grucell.bias_ih f4 [192]
00000000: b647 733d 0640 d73b 6559 bb3d 7e7e 3ebd
00000010: 4a65 b43d f064 c8bc 89db f03c 81ee be3d
00000020: 2ddb b13c de27 e0bd 5f84 aebd 3609 bb3d
00000030: 4257 a43d 841e c83d 3352 423e 2156 f33d
00000040: b0d9 e6bd 2041 333d 683d b53d bdf3 cc3d
00000050: 7bea fd3d 1571 f3bd 64ce 953c 77ab c43d
00000060: 3159 20bd 3c0a 253d 8bd6 893d 7c2c a2bd
00000070: 3b84 1ebc 8fd3 02bd 28d4 0b3d 8fab d8bd
00000080: c26e cbbd eb8e eebd 3869 edbd fc57 85bd
00000090: 6bf9 e2bd e2b6 9abd 3a61 edbd 07fb 073b
000000a0: d7f7 b4bc b499 f83d c87f f83c 0b8a 173d
000000b0: d40d 9dbd 1745 b7bd 66f8 c53d 35d1 293d
000000c0: a700 493c bff3 1e3e 6fb0 f93c 0485 d13d
000000d0: 9a6a b93d 0a62 fe3d 9105 153d e268 4d3d
000000e0: 22bf a5bd 1fc0 193d 645b e63d 6ce8 323d
000000f0: 23c8 933d efd5 f2bd 32f1 373d 4b3e 3bbd
00000100: 594b c73d e727 9fbd f8d7 e93d 62ae 88bd
00000110: 5e7e 903d 77e2 313d 54fe f53d 0699 303d
00000120: 685f a2bd e10f a1bd 8e59 913d 274c 8f3d
00000130: 4dc7 6c3d 1fd3 873d 04c8 f8bd 3cd8 8c3c
00000140: 1fcf c73d cf84 a93c 15d4 e7bd 26a9 133e
00000150: 2e4f f53b 04e3 b7bd d801 aebd b524 053c
00000160: 5fb2 963d c2a4 ca3d 24ae 73bd 246c c8bd
00000170: c910 e23c aa4f aebd dd6e 2f3d 3bba d43d
00000180: 816a 9cbd 2691 f93b a9f5 98bd 948f ccbd
00000190: 9bc2 0c3d eb6e bebd 2b6b 67bd 7ca0 a03d
000001a0: 3817 a0bc 6ff8 023d dcf7 c93d 946b f1bd
000001b0: 57d1 4fbd 338a b2bd 084a c23c 6e45 b2bd
000001c0: 87ad cbbd 9c22 ba3d 27fe a83d a682 5a3d
000001d0: 18fb bd3d a570 7dbd 0a97 17bd 9715 f83c
000001e0: 19bc b93c 19a9 cfbd 717c 3ebd 9392 0d3d
000001f0: 0b53 7cbd 9c0e a03c 0354 f8bd 2a09 f7bd
00000200: 5274 abbc f389 63bd 0585 67bd d989 4fbb
00000210: 4754 793d d66f 5dbd 4ca0 4cbd 927a 293d
00000220: 5b9d 6f3d aa5e 0bbd 3ebf 493d 41c0 a8bc
00000230: 3b16 133d be6f 963c 7cdd a1bb 3ae0 80bb
00000240: c119 54bd 8ab5 19bd fead 37bd 452a bdbd
00000250: ba1b 973d eec3 1cbd 6fa0 ccbc 3f2f 48bb
00000260: 9eeb 5cbc 02dc c1bd f587 a43b 9952 7c3c
00000270: 05fe 20bc 97b4 4dbd 81ad 373d 486c 263d
00000280: ff73 5fbd 3cf3 ee3c 9ec9 f63c f903 763c
00000290: 77bc c33c 0d6a 18bd 6dba 0a3d 68c7 523d
000002a0: df9a 8dbc ed95 973d 522c 99bc 778c 793d
000002b0: 9119 07bc 54ec 363d 2daf 2fbd 82ce b33d
000002c0: 571a 5ebc 0782 923c e5b7 3bbc c295 1fbb
000002d0: 835c 88ba da0e f3bc 62aa ac3d 608d 8b3c
000002e0: b334 b53c 06f7 48bc e158 ce3d a452 303c
000002f0: d155 9ebc b5d3 a33c 9033 ccbc 815c b2bd
0.05939456 0.0065689115 0.0914791 -0.04650735 0.08808382 -0.024462193 0.029401558 0.09322835
0.021710956 -0.10945104 -0.085213415 0.09132616 0.080244556 0.097714454 0.18976669 0.11881662
-0.11271989 0.04376328 0.08849603 0.10007427 0.12398239 -0.11886803 0.018286891 0.09603017
-0.03914756 0.040292963 0.06730374 -0.07918641 -0.009675081 -0.03194004 0.034137875 -0.10579597
-0.09933235 -0.11648353 -0.115923345 -0.06510922 -0.11082729 -0.075544134 -0.1159081 0.002074899
-0.022090835 0.121386915 0.030334368 0.036996882 -0.07668653 -0.08948725 0.09666519 0.04145928
0.012268222 0.1552267 0.030479638 0.10230449 0.09053536 0.12421043 0.03638226 0.050148852
-0.08093096 0.037536737 0.112479 0.043678686 0.072159074 -0.11857211 0.044907756 -0.045713704
0.09731168 -0.07771283 0.11418146 -0.06673886 0.07055353 0.043428864 0.120114 0.043114685
-0.079283535 -0.07864357 0.07097159 0.06996947 0.057807256 0.06632065 -0.12147525 0.017192952
0.09756302 0.02069321 -0.11319748 0.14419994 0.0074862456 -0.08978847 -0.084964454 0.008126427
0.0735824 0.09894706 -0.059492245 -0.09786251 0.027595894 -0.085112885 0.042830337 0.10387083
-0.076375015 0.00761618 -0.07468731 -0.09988323 0.034365278 -0.092985 -0.056498688 0.0784311
-0.019542322 0.031975206 0.098617285 -0.11788097 -0.05073675 -0.08717766 0.023716941 -0.08704649
-0.09945207 0.090886325 0.08251601 0.053347252 0.09276408 -0.061875004 -0.037009276 0.030283732
0.0226727 -0.10139675 -0.046505395 0.034563612 -0.061602633 0.019538216 -0.12125399 -0.12062295
-0.02092949 -0.05555148 -0.05652334 -0.0031667857 0.06087139 -0.054061733 -0.04995756 0.041376658
0.058499675 -0.034025826 0.04925465 -0.020599486 0.035909873 0.01836383 -0.004939733 -0.00393298
-0.051782373 -0.037526645 -0.044843666 -0.09236578 0.07378335 -0.03827279 -0.024978844 -0.003054574
-0.01348391 -0.09465791 0.00502109 0.015400552 -0.009826188 -0.050221052 0.0448432 0.04063061
-0.054553982 0.029168718 0.030125435 0.015015596 0.023893578 -0.037210513 0.033869196 0.0514597
-0.017285762 0.07401643 -0.018697891 0.060924973 -0.008245842 0.044658974 -0.04289167 0.087796226
-0.013556085 0.017884267 -0.011457418 -0.0024350737 -0.0010403547 -0.029670168 0.084309354 0.017035186
0.022119856 -0.012265926 0.10075546 0.010761891 -0.01932803 0.01999841 -0.02492693 -0.0870905

grucell.bias_hh f4 [192]
00000000: ce53 123d 6eaa 453e 08d8 aa3c 803f 373d
00000010: abe3 4ebc 9ea5 9fbc cd44 c53d 25a7 e43d
00000020: 45d6 423d 781e a6bd 009b a3bc e0c6 8e3d
00000030: ee42 f5bd 90e7 79bd aec4 543d 1b25 b7bd
00000040: d273 8a3d 0ad4 02bd cc9d 1fbd 6cbe 6cbd
00000050: 9eb8 8bbd f55e cd3d a0ac 483b bfa6 a73b
00000060: 3d10 863d caaa c0bc cd8d aebd 4c60 be3c
00000070: 1a06 7fbd 0ba3 943d dd6a 9dbc 7b0c 4b3c
00000080: a037 7abd 5b12 8dbd b539 7cbd 1708 ffbd
00000090: dcdf 2dbd ae09 a7bc 76e2 433d 751c 983d
000000a0: 8d06 603d bd68 153e 5041 12bd 89b0 85bd
000000b0: beb2 3c3d 95a3 5c3a 5ed3 ff3d 7810 bd3d
000000c0: 4bc8 b73c bea1 153e cb0d a73d 8198 8cbc
000000d0: 2b85 0f3d 5546 81bd 4f24 8c3d 2b76 d93d
000000e0: 42d7 3d3d bdf5 b03d fcc1 93bd e422 443d
000000f0: 8535 b63d e6d0 c33d 654e fc3d 34b3 fe3d
00000100: 211c 9ebd 3646 0cbd a4ea 183e 1ac8 b63d
00000110: 7f57 f53d a1d7 d6bd d1e2 ca3b b464 033d
00000120: fd66 38bd 9943 75bc cef3 a43d 9c91 ad3b
00000130: 473e 4cbd 67d7 f43d 457f d43c c994 023e
00000140: 590d 023e c62b c63c e545 013d 5e98 b83d
00000150: 597c 7f3d 3951 7fbd c2bf 333c 924e 703c
00000160: 5dd9 023d 52fd 933d 1c9e 24bd 90aa 473d
00000170: 0ec8 a7bb 7edf 37b9 08a6 af3d 7bb8 7b3d
00000180: d9df 963d 6e69 dd3c 0f84 4d3d 9699 f5bd
00000190: d0b5 573d 9f1d e7bd 5b85 38bd a48b a6bd
000001a0: 0068 5b3c a8b2 cc3c b0ea 0e3c 1090 5abb
000001b0: 8aa7 e13d 15da 4b3d 691f 643c a958 f43d
000001c0: 9bf3 a8bd cbf4 08bd e9d1 413d 2af7 49bd
000001d0: f983 d1bc fb12 ee3d d214 3dbd e8af 03bc
000001e0: ab0f ea3d a24e 60bc 4d85 8d3c 04a6 ed3d
000001f0: cf1a 1d3d eeb1 d33d 50f9 99bd 588b 233b
00000200: d465 be3c 5d85 e63d 71b8 e33d eaf2 1dbc
00000210: b7c2 ae3b 75d4 ee3c a626 28be d545 ffbc
00000220: aa74 c4bd 113d 033d acf1 b9bd 3028 c2bc
00000230: 16bf 50bc 675c c53c d729 c73c cd33 8739
00000240: 31fa 193d 4101 02bd 65d1 d13d 0e4e 8f3c
00000250: 1498 bdbd 9dbf d03d fa32 123d 1813 413d
00000260: 6f02 45bc f438 e93d 9861 143d aafa 4ebd
00000270: 2a5a e03c 53c2 583d 860e 77bd 9c2a efbd
00000280: ad78 5fbd 03ba a23c 06fa 633d 64e3 fbbd
00000290: 06c4 ce3b 7b8b 9e3d 1d1a 79bc b2a4 e1bd
000002a0: 1210 aa3d be3d c2bd 6166 bdbd 9a11 d2bd
000002b0: edb4 87ba 3fcc 7bbd 8208 9a3d 5677 15bd
000002c0: 0205 5f3d 7f08 9a3d 5787 59bd 1bc2 e8b9
000002d0: 5ab6 d7bc 987e 753d 0443 9fbc bd99 6ebd
000002e0: 8dbb 5abd e40a 963d b0c9 0cbe 4f7c bb3d
000002f0: 3486 893d e07c ab3c c3f3 c53c 7fb1 af3d
0.035724454 0.19303295 0.020854965 0.044738293 -0.012627522 -0.019488152 0.09632263 0.11164693
0.047567625 -0.0811128 -0.01997137 0.06971526 -0.119756564 -0.06101185 0.05194538 -0.08942624
0.06760372 -0.031940497 -0.038968846 -0.057798788 -0.06822322 0.10027877 0.003062047 0.005116313
0.06546066 -0.023518939 -0.0852314 0.023239277 -0.06226168 0.072576605 -0.019215995 0.012393112
-0.061088204 -0.06888267 -0.06157847 -0.12452715 -0.042449817 -0.020390358 0.04782339 0.07427303
0.054693747 0.14590736 -0.035706818 -0.06527812 0.0460689 0.00084167096 0.12491487 0.09231657
0.022434374 0.14612481 0.08156928 -0.017162563 0.03503911 -0.06312243 0.06842863 0.10618242
0.046347864 0.08640621 -0.07214734 0.047884837 0.08896927 0.095613286 0.1231964 0.12436524
-0.07720209 -0.034246646 0.14933258 0.08924885 0.11979579 -0.10490347 0.0061915894 0.03207846
-0.045020092 -0.01496973 0.080543146 0.005296899 -0.04986408 0.11955147 0.025939593 0.1275207
0.12700404 0.024190795 0.031560797 0.09013437 0.062374447 -0.06233332 0.010971012 0.01466717
0.031945575 0.072260514 -0.040189847 0.048746645 -0.005120284 -0.00017535497 0.0857659 0.06145523
0.07366914 0.027027812 0.05017477 -0.11992185 0.052663624 -0.11284947 -0.045049053 -0.08132103
0.013391495 0.024987534 0.008722946 -0.0033350028 0.11018284 0.049768526 0.013923504 0.11930973
-0.08249589 -0.033436578 0.047319327 -0.04930798 -0.025575625 0.11624714 -0.046162434 -0.008037545
0.1142877 -0.0136906225 0.017275477 0.116039306 0.038355645 0.10336672 -0.07518256 0.0024954882
0.023241915 0.11255906 0.11119164 -0.009640435 0.0053332704 0.029154042 -0.16420993 -0.031161228
-0.095925644 0.03204066 -0.090792984 -0.023700804 -0.012740871 0.024091912 0.024311943 0.000257878
0.037592117 -0.031739477 0.10245017 0.017493274 -0.09257522 0.10192797 0.035693146 0.04713735
-0.012024506 0.11387816 0.036225885 -0.05053202 0.027386744 0.052919697 -0.060316585 -0.11678049
-0.054558445 0.019864088 0.055658363 -0.12299231 0.006309989 0.077414475 -0.01520398 -0.11017741
0.083038464 -0.09484433 -0.09248043 -0.102572635 -0.0010353603 -0.06147408 0.07521154 -0.03649076
0.054448135 0.07521152 -0.053107586 -0.00044395108 -0.02633207 0.059935182 -0.019441135 -0.058252085
-0.05340152 0.07326296 -0.13748813 0.09154569 0.0671505 0.020933568 0.024164086 0.085787766

linear.weight f4 [2, 64]
00000000: f916 a8bd 91d7 f2bc 2b3a 4abd 9544 0f3c
00000010: d36d 78bd df3e 6b3d 0f71 8a3d 57c9 923d
00000020: 2d68 523d 9834 c93d f3f0 d6bd 5a6a 07bd
00000030: aabf c03c b13a 3f3d e031 9b3d 3807 d43d
00000040: 16b7 b8bd 5b63 8f3d a4bc e83d 10e4 1d3d
00000050: 88ac 86bd 4f39 f03b 08f6 f63d f536 d23d
00000060: 5e64 a83d 7965 953c ebb8 dd3b e430 723d
00000070: eff9 b43d 8b67 d23d cb95 e83d d271 b5bd
00000080: cee8 f3bd 7eb7 c73d 19e4 d83d 116b ccbd
00000090: 01a8 59bd 21a9 50bc b2cc a8bd 538e 7bbd
000000a0: 3047 ca3b 1533 663c f815 e13b 9f44 b7bd
000000b0: 3ac4 383d 35de 203e 2a1a 5abd bddb 95bc
000000c0: 017c bbbd 99e4 f0bb 4aa7 2dbd e20f 05be
000000d0: 73da a33d d167 2c3d 87b6 b0bb 456e a6bd
000000e0: 8a8e 0cbe 0b9c 7d3d 39e3 d43d 3c7f a3bb
000000f0: 425f 4a3c 36e6 353d 3773 973d d942 b8bd
00000100: 5e90 06bc cf04 9cbd dd18 ea3d 75db 2cbe
00000110: 103e cfbb 616c b2bd 10a2 d1bd 0eb3 c23c
00000120: 6998 3e3a bee1 c9bd b758 5d3c 9b44 bebc
00000130: b3a1 03be 6552 6c3c bce8 82bd 337b 0abe
00000140: 1cd6 11bd 9baf f13d 4f7f babd bad9 ccbd
00000150: be3c 3d3e 4ee6 b4bd baf7 e0bd 48ec 44bd
00000160: 9af3 f6bd fb53 2e3d 70f4 0cbe 26ac 213d
00000170: cd8f 62bd d3d5 31bd 0265 1f3d 22bc bbbd
00000180: 388f 893c 406a ee3c 98ab 4e3b fe65 ecbb
00000190: 917d eabc d2d0 5f3d 89da 0a3e f3e6 5dbd
000001a0: 03a1 b1bc 05ef 353c 3f90 1f3d d9f3 cfbc
000001b0: 18ad f73b b4f2 8dbb d0a3 8cbd e8da 24bd
000001c0: 3033 b33d c8b5 00be 7da7 ea3d c151 263d
000001d0: 6dc2 90bd b4c8 aa3d 4f9f 50bd b049 5ebd
000001e0: 9372 a73b a4c2 e1bd 9c0e f0bd 9d98 a43d
000001f0: 3339 b23d 9dbc 313d a531 ba3d e76d fb3d
-0.08207507 -0.029643806 -0.04937188 0.008744379 -0.06065161 0.057433005 0.067598455 0.07167309
0.05136888 0.098244846 -0.10495176 -0.03306041 0.023528893 0.04668683 0.07577872 0.10352939
-0.09019296 0.070013724 0.11364105 0.038547575 -0.065758765 0.0073310505 0.120586455 0.102643885
0.082222685 0.018236862 0.0067664287 0.059128657 0.088367335 0.102736555 0.11356696 -0.088596
-0.11909638 0.09751795 0.10590381 -0.09981359 -0.053138737 -0.012735636 -0.082421675 -0.061415028
0.006173037 0.014050265 0.006869074 -0.08948635 0.04510901 0.15709765 -0.05324761 -0.018293256
-0.09154511 -0.0073514697 -0.042395867 -0.1299434 0.0800065 0.042091195 -0.0053928527 -0.08126501
-0.1372625 0.061916392 0.10394902 -0.0049895328 0.012351813 0.044409 0.07395022 -0.08997125
-0.008213131 -0.07618105 0.114305235 -0.16880591 -0.006324537 -0.08712078 -0.10235989 0.02376702
0.00072706357 -0.0985751 0.013509921 -0.023226073 -0.12854652 0.014423941 -0.06392047 -0.1352356
-0.03560458 0.11801072 -0.091063134 -0.100024655 0.18480203 -0.0883299 -0.1098475 -0.048076898
-0.12058182 0.04256056 -0.1376512 0.039470814 -0.05531292 -0.04341681 0.038914688 -0.09166743
0.016791925 0.029103398 0.0031535383 -0.007214307 -0.028624328 0.054642506 0.13559927 -0.05417533
-0.021683222 0.01110435 0.038955923 -0.02538483 0.007558476 -0.004331911 -0.06867182 -0.040247828
0.087499976 -0.12569344 0.11457727 0.04060531 -0.07068334 0.08339062 -0.05093318 -0.054269493
0.005110094 -0.11023453 -0.117215365 0.08036921 0.08702316 0.043392766 0.090915 0.122768216

linear.bias f4 [2]
00000000: 66d4 dc3a 5592 6abd
0.0016847968 -0.05726846

linear_final.weight f4 [5, 64]
00000000: eacd 32bc 6c04 bb3d f905 823d 6ee4 9dbc
00000010: 167e ecbc 4326 383d f3fc 043e 366a 9f3d
00000020: 69df 35bc 4527 35bd 7a7f f33c 8ad7 b23a
00000030: dd4b 86bc 9c4d 7c3d 66b7 563d 6165 6e3c
00000040: ae96 833a d89e 283d dc57 6bbd 5f53 01bd
00000050: 32a2 d6bb 9a80 8fbc 4efd 8abc e1f8 ab3a
00000060: 56ea fd3c b666 e03d 3876 c7bd ec5d ce3c
00000070: ec87 2c3d 86cb f03b dade 1b3d 1016 70bd
00000080: 8c9d 62bc 7b7b 673d 8166 8a3d 42d0 8d3d
00000090: dda2 f63b d05d 983d 8361 afbd 2878 233d
000000a0: 1def 91bd 8808 b1bd 2fd1 49bd 302c ccbc
000000b0: 471e 723d 37d5 04bd 4897 20bd be5f 20bc
000000c0: c332 ac3b 0e48 1fbe 4389 063d 85c2 883d
000000d0: 9ae4 623d d1d5 503d 03b4 82bd b502 833c
000000e0: e0a6 36bd 07d1 3abd d8e2 adbd 0ecb 93bd
000000f0: 4feb 823d 3553 75bc 5aab 833c 2a50 b6bc
00000100: f9ed 163d fb51 533c 14d4 603b b6ab 603c
00000110: baba c0bd a1b8 e13d 6375 4abd 4d7c 0cbc
00000120: 42d3 85b8 1996 013d 6cae 1e3d 9f33 903d
00000130: f5b8 b8bc f54e c43d e302 623c e1db ed3a
00000140: 1c62 b03d 4e69 293d 3300 973c 4382 2cbd
00000150: 942e 213c 9b6c f03c 11b1 eebc 722e e83c
00000160: b5c0 753d 4e4f 91bc a845 0cbd e19c 1f3d
00000170: f54b 82bd 2837 34bc 4534 8cbd cd08 073b
00000180: b2a1 b7bb 06cd 86bd f944 1fbd f8ab 1dbd
00000190: 613c 823d b8c7 8dbc 906b 24bc 3e4c 35bd
000001a0: fed5 c0bc a230 cb3b a3df f83d 8399 673d
000001b0: a2e0 123d 5240 423b 43be 8a3d de17 0a3d
000001c0: 2f56 8c3d 83ad c63d 63bd 0bbd 468d fb3b
000001d0: 81f7 e2bb 2118 9fbd 02e6 27bd e158 ddbd
000001e0: af75 b43d 88d2 c5bc d3b4 383d 8e4f efbb
000001f0: 2f4d 35bd 5b5c 223c 121d aebc 6ffd 69bd
00000200: 4fd2 323c 009e 2c3d ebce 863d be98 5ebe
00000210: 6603 2abe 7b8d 763e 7daa a0bd 9705 b7bd
00000220: 649d c63c e122 6b3a 776e b9bd e149 58bc
00000230: cca3 74bd 6906 27be 2196 a13d 8ec4 ae3d
00000240: e76b 9b3d d498 103d aae8 40bc 2f70 77be
00000250: 5cd5 e4bd e412 3b3c a4e5 023e 4f23 40be
00000260: 0c39 1c3e d962 3abd b353 0dbd 6ea1 623c
00000270: 7486 393c e5b3 5c3d e3fb 163d 0658 c7bc
00000280: 312a 8a3d c1a7 0dbe a166 53be 1b76 80be
00000290: ff2c 993d 915c f73d e89c 183d 9d62 4cbe
000002a0: 70e5 b53c 171b 7fbd 508d 313e d268 00be
000002b0: e73c 8f3e 0a9a 693e 6a50 013d 07f4 0e3d
000002c0: a4eb 383e 3694 363d 592a 003e 27f3 19bd
000002d0: ee9f 8cbd 3d3c 0ebe be67 43be 16e4 103e
000002e0: 909e a3bc 57e8 aabc a7cb 523d b679 36be
000002f0: f88a 5abe 975b bfbe b283 22bd ec33 9f3e
00000300: 4653 803d 789b 65be 98d5 833e bb0a 65be
00000310: 92cf 34be af35 683e bd9d ba3e 0908 653d
00000320: 8ca7 e8bc 3dd7 2e3d ef4b 23bd 8b22 ca3d
00000330: 5a97 ebbd 2043 01be 35ab 8bbe 7079 943d
00000340: 7b97 b83d 7b34 2f3e 81c4 92bc 08eb cc3d
00000350: ba51 85bd b0f2 253d cb92 18be c0f6 ea3a
00000360: 4607 103e 3871 513e cbdb 34be 1fed 5b3d
00000370: bcc8 813c 350c eb3d 41e9 d5bc 3434 febc
00000380: a13b a53e cd75 3ebe 20e1 ecbd fbc9 4a3e
00000390: a374 07be f9b2 bbbd 83cd bdbc 9748 cbbd
000003a0: 3a2a 03be 4961 51bd a6af b13e 295b 823b
000003b0: 846e a53d b19d 35bd 046e 1a3e 9904 67be
000003c0: b0c6 ecbd 2b3d 5cbe b0b8 843e 94a6 983d
000003d0: 102c 0c3d 8645 7dbd 831d c0be dc57 5b3e
000003e0: 2e69 c13d 162d 2abe 5cad 02be e3c2 48be
000003f0: d2ea dcbd 86a4 8fbe 7ce2 113e 4b26 863e
-0.010913352 0.09131703 0.063487954 -0.019273963 -0.028868716 0.044958364 0.12987117 0.0778393
-0.011100628 -0.044226903 0.029723871 0.0013644558 -0.016393596 0.06159745 0.052420996 0.014550538
0.0010039413 0.04116711 -0.057456836 -0.03157365 -0.006550097 -0.017517377 -0.016966488 0.0013120436
0.03099553 0.109570906 -0.09739345 0.02519127 0.042121813 0.0073484806 0.038054325 -0.05861479
-0.013831507 0.056514245 0.06757832 0.06924488 0.007526739 0.07439768 -0.08563521 0.03990951
-0.07125685 -0.08644205 -0.04927176 -0.024923414 0.059110906 -0.0324299 -0.039206773 -0.009788452
0.0052550747 -0.1555483 0.032845747 0.06677727 0.055393793 0.05098516 -0.06381991 0.015992502
-0.04459274 -0.0456095 -0.08490533 -0.07216464 0.06392538 -0.014973451 0.016072918 -0.022255022
0.036848042 0.012897964 0.0034306096 0.013712814 -0.09410615 0.11021543 -0.049428355 -0.0085745575
-6.381284e-05 0.031637285 0.03874056 0.07041096 -0.022549132 0.09585372 0.013794634 0.0018147194
0.08612463 0.041360192 0.018432712 -0.042116415 0.009837765 0.029348662 -0.029137166 0.02834246
0.059998233 -0.01773801 -0.034246117 0.03896797 -0.06362144 -0.010999478 -0.06845907 0.002060461
-0.0056039924 -0.06582074 -0.038884137 -0.03849408 0.063591726 -0.017307147 -0.0100354105 -0.044262163
-0.02353954 0.006200866 0.1215203 0.056542885 0.035858758 0.0029640389 0.06774571 0.033714168
0.06852376 0.097010635 -0.03411616 0.007676753 -0.0069264774 -0.07768274 -0.040990837 -0.10807968
0.08811509 -0.02414824 0.045094322 -0.007303185 -0.04426306 0.009909715 -0.021254096 -0.05712646
0.010914399 0.042142868 0.06582435 -0.21737954 -0.16602859 0.24077408 -0.07845018 -0.08936613
0.024244972 0.0008969736 -0.090542726 -0.013201208 -0.05972652 -0.16311039 0.07889963 0.085335836
0.0758894 0.035302 -0.011774221 -0.24163888 -0.111735076 0.011418078 0.12782913 -0.18763469
0.15256137 -0.045504425 -0.03450365 0.013832433 0.01132356 0.0538825 0.03686131 -0.024333965
0.067463286 -0.13833524 -0.20644619 -0.25090107 0.074792854 0.120782025 0.037259012 -0.19959493
0.02220413 -0.062281694 0.17339063 -0.12539986 0.27976152 0.22812667 0.03157083 0.03490069
0.1805864 0.04457494 0.12516154 -0.037585404 -0.06866442 -0.13890167 -0.19082543 0.14149508
-0.01997307 -0.020862741 0.05146375 -0.17819867 -0.21342075 -0.37374565 -0.039676376 0.310943
0.06265883 -0.22422588 0.25748897 -0.22367375 -0.17657307 0.22676729 0.3644847 0.055915866
-0.028400205 0.042685736 -0.039867338 0.0986987 -0.115034774 -0.12623262 -0.27279058 0.07249725
0.090132676 0.17109863 -0.017915966 0.10005766 -0.06509729 0.040514648 -0.14899747 0.001792632
0.14065275 0.20453346 -0.1766197 0.053692933 0.015842788 0.11476938 -0.0261122 -0.031030752
0.32272056 -0.18599625 -0.11566377 0.19803612 -0.13228087 -0.09164996 -0.023169285 -0.09925955
-0.12809077 -0.05111817 0.34704322 0.0039781523 0.0807772 -0.04433984 0.1508103 -0.22560348
-0.11561334 -0.21507709 0.25922155 0.07453647 0.03422171 -0.06183388 -0.37522516 0.21420234
0.094438896 -0.16618761 -0.12761444 -0.19605593 -0.10786976 -0.2805521 0.14246553 0.2620109

linear_final.bias f4 [5]
00000000: da9f 323d 750d 293a 4b88 9dbf e9fe eabf
00000010: de2b 2ebe
0.043609478 0.00064488436 -1.2307218 -1.8359042 -0.17008922
