results2_checkpoint/eth/val_best.pth (torch_old, 55823 bytes, 10 tensors)

gcn.gc1.weight f4 [2, 2]
-2.1002877 -0.59729326 -0.49387982 2.0420127
00000000: 1d6b 06c0 36e8 18bf d1dd fcbe 56b0 0240

gcn.gc1.bias f4 [2]
0.03585857 0.033573404
00000000: 70e0 123d 4484 093d

grucell.weight_ih f4 [192, 2]
0.120040394 -0.036035445 -0.09074883 -0.12305236 -0.10650999 -0.050203145 0.14093436 -0.060865685
0.020427749 -0.038920805 -0.11563532 -0.070585355 0.06049698 -0.036262855 -0.028935345 -0.10040805
-0.01929395 0.110801846 -0.048018757 -0.039132234 -0.029574431 -0.092476435 0.046907034 0.01729138
0.030681616 0.026075583 -0.025970632 0.029206429 0.02858332 0.008998463 0.022889948 -0.080394916
-0.029770587 0.12504824 0.12982185 0.03884799 -0.046055175 -0.111620165 -0.062558085 -0.10019287
-0.04409583 0.009125512 0.072257064 -0.087470904 -0.033895273 0.07241954 0.027269574 -0.0485009
0.02437463 -0.06340161 0.08313915 0.016675021 -0.09159646 0.06507248 0.045678467 0.03661073
-0.0457204 0.07181646 0.052902963 -0.1106796 0.08329972 -0.07326384 0.072849385 0.013370745
0.09146736 0.041349843 0.008862871 -0.04234819 -0.051533595 0.04805737 -0.12134373 -0.06425175
0.0577147 0.048027415 0.06686866 -0.037777234 0.05888363 -0.09699261 0.06637121 0.07216674
0.11227629 0.08967219 0.08977188 -0.06893741 0.11047365 0.06755789 -0.08981997 -0.038704265
-0.05389526 -0.083253324 0.051654667 -0.059890818 0.050179467 0.058933526 -0.033323474 -0.062656485
0.07295833 0.05788531 0.022706551 0.092914335 0.07036825 -0.06165992 0.02437744 -0.019366425
-0.03241697 0.009311287 -0.03876903 0.09780213 0.12302397 -0.096677795 -0.00015444394 -0.11896606
0.09354093 0.05483903 -0.03772128 -0.056090828 -0.099516444 0.083087906 -0.048323046 0.08552766
-0.065226026 0.09904503 0.022845823 -0.07911412 -0.036781058 -0.08708072 -0.017876543 0.08910338
0.078747384 -0.074772835 0.0078115114 0.033569183 -0.04726287 0.0051155617 -0.10722425 0.008378208
-0.10370496 0.02347583 0.04004134 0.03330696 -0.026443219 -0.01525601 0.007113608 0.09058283
0.015291895 0.03234779 0.03006344 -0.07121286 0.10101924 0.029104749 0.09360309 0.11010925
-0.12304335 -0.02223918 0.11833344 0.015883705 -0.06610287 0.009453488 -0.025934432 0.044552207
-0.0041354825 -0.08777786 0.10794028 -0.0041546007 -0.069721654 0.07257244 -0.039976615 -0.12759669
-0.074745506 -0.06432117 0.026933964 -0.0885436 0.050078835 0.0065673594 0.11585288 -0.013227497
0.098167755 0.11322873 0.0064586806 -0.08011579 0.075500034 0.0886595 -0.120964594 0.051108506
-0.108160816 -0.022522185 -0.04809152 -0.12035535 0.10060382 0.06552802 -0.076936655 -0.12484814
-0.08862866 -0.07246605 -0.05376608 0.12560444 -0.01646044 0.0029137994 0.11692189 0.10673942
-0.08175572 0.039290454 0.048125483 -0.011462248 -0.10742448 0.079074174 0.025374267 -0.12228157
0.002365921 -0.007500862 0.04543186 0.09376937 0.06829908 -0.105569534 0.050650433 -0.07964119
-0.012038159 -0.035008308 -0.09750514 0.08876441 -0.07157798 -0.04214522 0.012566856 -0.06363872
-0.102194205 0.026652439 0.06532811 0.03735078 0.029384999 -0.08500474 0.07096069 -0.02900804
-0.028369192 -0.008359381 0.10856395 0.04841182 0.11602793 0.09045935 -0.016929563 -0.065625794
-0.08920778 0.030931333 -0.031658504 0.08218159 0.043599244 -0.110068254 0.02607143 -0.05683137
0.016151102 -0.016054979 0.079150416 0.012246357 -0.0920849 -0.10356699 0.052679352 0.015923949
00000000: bdd7 f53d e799 13bd 86da b9bd e002 fcbd
00000010: e921 dabd d0a1 4dbd 1951 103e 4c4e 79bd
00000020: 1858 a73c 6c6b 1fbd 36d2 ecbd 0e8f 90bd
00000030: aecb 773d 5c88 14bd d109 edbc bca2 cdbd
00000040: 590e 9ebc 14ec e23d 51af 44bd 1f49 20bd
00000050: 1446 f2bc 4964 bdbd 9721 403d a7a6 8d3c
00000060: 0358 fb3c 769c d53c 5dc0 d4bc 5242 ef3c
00000070: 9127 ea3c 4a6e 133c b383 bb3c 17a6 a4bd
00000080: 72e1 f3bc a50c 003e 05f0 043e 121f 1f3d
00000090: 5aa4 3cbd 1d99 e4bd 741e 80bd eb31 cdbd
000000a0: d49d 34bd 2c83 153c 83fb 933d f223 b3bd
000000b0: c5d5 0abd b250 943d 7164 df3c e1a8 46bd
000000c0: 4ead c73c b4d8 81bd dc44 aa3d 0e9a 883c
000000d0: ed96 bbbd b844 853d 5819 3b3d 22f5 153d
000000e0: 5045 3bbd 8214 933d c7b0 583d fcab e2bd
000000f0: 0b99 aa3d 5a0b 96bd 0f32 953d f810 5b3c
00000100: 3d53 bb3d 745e 293d 9335 113c 4c75 2dbd
00000110: e414 53bd ced7 443d 1083 f8bd 6c96 83bd
00000120: 4066 6c3d 65b8 443d 70f2 883d 4dbc 1abd
00000130: f62f 713d 10a4 c6bd a1ed 873d 28cc 933d
00000140: 1df1 e53d 0ea6 b73d 52da b73d 0f2f 8dbd
00000150: 0240 e23d cb5b 8a3d 88f3 b7bd 5d88 1ebd
00000160: 47c1 5cbd b880 aabd d893 533d 1350 75bd
00000170: fc88 4d3d 4864 713d 327e 08bd 0b52 80bd
00000180: 2d6b 953d 2619 6d3d 1703 ba3c df49 be3d
00000190: 3b1d 903d 1d8f 7cbd 32b3 c73c 56a6 9ebc
000001a0: a8c7 04bd 5e8e 183c 46cc 1ebd 7c4c c83d
000001b0: fef3 fb3d 02ff c5bd 3bf2 21b9 7aa4 f3bd
000001c0: 6392 bf3d e49e 603d a181 1abd 7fbf 65bd
000001d0: 47cf cbbd fe29 aa3d 63ee 45bd 2029 af3d
000001e0: 3995 85bd 1fd8 ca3d 2a27 bb3c 9506 a2bd
000001f0: bca7 16bd 6057 b2bd d471 92bc d57b b63d
00000200: 4f46 a13d 8022 99bd b5f7 ff3b d77f 093d
00000210: b696 41bd 71a0 a73b 6398 dbbd c044 093c
00000220: 4463 d4bd 6250 c03c 6302 243d e16c 083d
00000230: 739f d8bc 58f4 79bc 4519 e93b 7e83 b93d
00000240: db8a 7a3c 1e7f 043d 9a47 f63c 0cd8 91bd
00000250: 2de3 ce3d 156d ee3c fab2 bf3d f580 e13d
00000260: 27fe fbbd f12e b6bc cd58 f23d 8b1e 823c
00000270: f160 87bd cde2 1a3c 7274 d4bc 607c 363d
00000280: f182 87bb e1c4 b3bd cb0f dd3d 5123 88bb
00000290: 3aca 8ebd dca0 943d 85be 23bd b5a8 02be
000002a0: 2c14 99bd d1ba 83bd 9ea4 dc3c 5956 b5bd
000002b0: 771f 4d3d 0133 d73b 4644 ed3d 25b8 58bc
000002c0: 2d0c c93d 77e4 e73d 57a3 d33b bf13 a4bd
000002d0: c39f 9a3d 1d93 b53d 49bc f7bd 2757 513d
000002e0: 6b83 ddbd 7280 b8bc 9dfb 44bd de7c f6bd
000002f0: 6009 ce3d 8e33 863d f790 9dbd 62b0 ffbd
00000300: f182 b5bd 1569 94bd d239 5cbd 739e 003e
00000310: 0bd8 86bc 71f5 3e3b be74 ef3d 329a da3d
00000320: 8b6f a7bd 07ef 203d 3a1f 453d 27cc 3bbc
00000330: 5e01 dcbd a4f1 a13d b2dd cf3c c36e fabd
00000340: 910d 1b3b cac9 f5bb c216 3a3d 280a c03d
00000350: 63e0 8b3d d734 d8bd d476 4f3d ec1a a3bd
00000360: b33b 45bc df64 0fbd c6b0 c7bd 1dca b53d
00000370: 7a97 92bd 77a0 2cbd 37e5 4d3c 0455 82bd
00000380: 324b d1bd 3756 da3c beca 853d 22fd 183d
00000390: cfb8 f03c f716 aebd d753 913d 45a2 edbc
000003a0: 8266 e8bc c9f5 08bc c756 de3d 794b 463d
000003b0: 0da0 ed3d c042 b93d deaf 8abc d166 86bd
000003c0: 92b2 b6bd b563 fd3c 59ac 01bd d24e a83d
000003d0: 1f95 323d 776b e1bd c093 d53c 03c8 68bd
000003e0: 514f 843c bb85 83bc 9d19 a23d f2a4 483c
000003f0: 0297 bcbd ee1a d4bd 4ec6 573d f172 823c

grucell.weight_hh f4 [192, 64]
-0.12689331 0.10815708 -0.07947848 -0.07569421 0.05186649 -0.115112655 -0.06800863 0.003165482
-0.0117929075 0.018353712 0.04965931 -0.094888926 -0.043845907 0.014958181 -0.12342522 -0.0071410662
-0.064052135 -0.026830735 0.014160113 0.040874396 -0.09267314 -0.08571048 0.06886645 0.05562064
0.06267686 -0.09388008 0.040343054 0.022493793 0.064486295 0.0968763 -0.08730581 0.016585449
0.04682123 0.12465887 -0.084763154 0.013897271 -0.13738784 0.10959805 0.06367428 0.0046557207
0.019585934 0.023604117 -0.06897238 0.063968465 0.038352422 -0.04007264 0.10288155 0.07913329
0.0107525615 0.048469607 -0.10541911 -0.051776715 0.11480286 0.11339646 -0.010920167 -0.004545113
-0.13817741 0.030279014 0.04165352 -0.03443407 -0.08940136 -0.10484246 0.009440613 0.029253693
0.101682946 0.06595951 0.110993505 -0.09575289 -0.054180883 -0.1291758 -0.0008312603 0.073515564
-0.10685833 0.092137076 0.093356304 0.059684787 -0.105772704 -0.10417339 0.14808804 0.058779515
-0.083905555 -0.09476453 -0.10687446 -0.04143517 0.12706941 0.009728692 0.04742217 0.018850643
-0.028132653 -0.09299888 -0.06775526 -0.008546134 -0.10236307 -0.076327674 0.009136383 -0.10659754
-0.14491254 0.03452997 0.116019644 -0.0330337 0.052515596 0.01935788 -0.08576363 -0.04891132
0.054722376 -0.005488875 -0.09399849 0.0031949843 -0.11349306 0.10157095 0.061901815 -0.035943095
0.09812217 0.10370011 0.101663746 -0.03989273 -0.07084315 -0.08079195 -0.069497265 0.046667263
0.01650474 -0.0850318 0.07066264 0.037363436 -0.09417669 -0.013956583 0.087371804 -0.028615536
0.016897595 -0.007794649 -0.0084136585 -0.0628949 0.05213856 -0.008951023 -0.01192891 0.013231965
-0.111271545 0.07234058 -0.12326145 -0.03540939 0.0044484003 0.06666513 0.028988194 -0.040919002
-0.105374485 0.015345446 0.0775546 0.09383855 -0.09392327 -0.08582766 -0.017744493 -0.07347194
-0.038592827 0.019575948 0.11401499 -0.08928511 -0.007414474 -0.020995071 0.111175254 0.086217806
0.08989504 0.031786647 -0.08685409 -0.021119207 0.08855114 -0.11795077 0.08674117 -0.010213846
-0.022357246 0.12001859 0.04463694 -0.019766273 -0.08627481 0.09079628 -0.05494824 -0.1404432
-0.07507357 0.1457371 0.016276116 -0.08961556 1.3044519e-06 0.08291919 -0.091292985 -0.111575715
0.004447081 0.07995186 0.06845071 -0.12601912 -0.0011933929 -0.0036116168 0.017600695 -0.000410488
-0.06394283 -0.18556571 0.06799531 0.12497076 0.01776224 -0.014010448 -0.08763947 -0.050167315
0.087171696 -0.080655426 -0.087037146 0.031513054 0.098588236 0.07958106 -0.05602367 0.07861195
-0.07783628 -0.04453065 -0.027834713 0.06336061 0.059273336 0.046015628 0.05392765 -0.09275574
0.099990755 0.015278485 0.06631169 0.09911999 -0.13621649 -0.00033842475 -0.05516518 0.031045001
0.13490519 0.046594784 -0.038508024 0.09042113 -0.10740536 -0.107881665 -0.11045332 -0.04993154
-0.1355327 0.03460561 0.07036225 0.05970411 0.07145514 -0.10939949 0.057728183 -0.058318924
-0.05306833 0.13262199 -0.10135974 -0.047526885 -0.06913545 -0.03611733 -0.0009159685 -0.073794164
-0.11783678 0.09298879 0.07339831 0.039528087 -0.12395387 -0.067927234 -0.003645643 0.09914898
00000000: 52f0 01be 7681 dd3d 9dc5 a2bd 9105 9bbd
00000010: f571 543d 2fc0 ebbd 1c48 8bbd fa73 4f3b
00000020: 0a37 41bc 865a 963c 9067 4b3d 2055 c2bd
00000030: c497 33bd 2913 753c 5dc6 fcbd 9bff e9bb
00000040: c42d 83bd 21cc dbbc d2ff 673c e96b 273d
00000050: 6acb bdbd fa88 afbd da09 8d3d 78d2 633d
00000060: ba5c 803d 3344 c0bd c23e 253d e744 b83c
00000070: 6411 843d 1567 c63d 63cd b2bd 35de 873c
00000080: 9ec7 3f3d 264d ff3d 4e98 adbd 61b1 633c
00000090: 66af 0cbe f174 e03d a967 823d 048f 983b
000000a0: ae72 a03c 6c5d c13c 6441 8dbd e601 833d
000000b0: 6e17 1d3d 3523 24bd 90b3 d23d a210 a23d
000000c0: 832b 303c 1188 463d f9e5 d7bd d213 54bd
000000d0: c31d eb3d 673c e83d 80ea 32bc 2cef 94bb
000000e0: 617e 0dbe b20b f83c e29c 2a3d bd0a 0dbd
000000f0: 0f18 b7bd a5b7 d6bd cdac 1a3c 71a5 ef3c
00000100: 263f d03d c815 873d 9050 e33d 171a c4bd
00000110: c6ec 5dbd a946 04be efe8 59ba 548f 963d
00000120: 8ad8 dabd 5db2 bc3d 9731 bf3d 0978 743d
00000130: 5c9f d8bd dc58 d5bd 64a4 173e cac2 703d
00000140: add6 abbd e813 c2bd ffe0 dabd edb7 29bd
00000150: 7c1e 023e 1765 1f3c c03d 423d aa6c 9a3c
00000160: 7376 e6bc 3276 bebd 45c3 8abd 1605 0cbc
00000170: bba3 d1bd af51 9cbd c5b0 153c d04f dabd
00000180: f463 14be 4c6f 0d3d b59b ed3d 584e 07bd
00000190: 981a 573d 6b94 9e3c d8a4 afbd 3c57 48bd
000001a0: 9224 603d 05dc b3bb 4882 c0bd f162 513b
000001b0: 0d6f e8bd 6e04 d03d c28c 7d3d 1139 13bd
000001c0: 47f4 c83d b960 d43d 1535 d03d 8f66 23bd
000001d0: 3716 91bd 4076 a5bd 9554 8ebd 2c26 3f3d
000001e0: f334 873c 2725 aebd 93b7 903d 670a 193d
000001f0: b5df c0bd 27aa 64bc fdef b23d 216b eabc
00000200: d36c 8a3c 416a ffbb 71d9 09bc 0bcf 80bd
00000210: 3e8f 553d 50a7 12bc 7a71 43bc e2ca 583c
00000220: 56e2 e3bd 4c27 943d 8070 fcbd 7009 11bd
00000230: e3c3 913b ba87 883d a678 ed3c af9a 27bd
00000240: 94ce d7bd 776b 7b3c f2d4 9e3d 6d2e c03d
00000250: d85a c0bd 6ac6 afbd e65c 91bc 7578 96bd
00000260: 8313 1ebd bd5d a03c b180 e93d 1ddb b6bd
00000270: 1ef5 f2bb dbfd abbc daaf e33d f692 b03d
00000280: e41a b83d b732 023d 8fe0 b1bd 3002 adbc
00000290: 4d5a b53d 2c90 f1bd 5ba5 b13d fa57 27bc
000002a0: 8b26 b7bc 4ecc f53d 39d5 363d e1ec a1bc
000002b0: d9b0 b0bd 66f3 b93d 6811 61bd 58d0 0fbe
000002c0: 2cc0 99bd 1b3c 153e 7d55 853c 5d88 b7bd
000002d0: a014 af35 89d1 a93d d1f7 babd cf81 e4bd
000002e0: d2b8 913b cdbd a33d e32f 8c3d 280b 01be
000002f0: 9f6b 9cba e0b0 6cbb 552f 903c c436 d7b9
00000300: 75f4 82bd f004 3ebe 2041 8b3d abf0 ff3d
00000310: 1e82 913c 148c 65bc 537c b3bd 3e7c 4dbd
00000320: 1387 b23d ac2e a5bd 8840 b2bd d513 013d
00000330: a1e8 c93d 65fb a23d 1379 65bd 4dff a03d
00000340: a168 9fbd c565 36bd a005 e4bc 35c3 813d
00000350: 99c8 723d e27a 3c3d 3de3 5c3d b9f6 bdbd
00000360: f4c7 cc3d 9c52 7a3c 6cce 873d 6cff ca3d
00000370: 567c 0bbe 9a6e b1b9 e2f4 61bd 1652 fe3c
00000380: 9624 0a3e 2cda 3e3d 97ba 1dbd b72e b93d
00000390: 57f7 dbbd 10f1 dcbd 5a35 e2bd 0485 4cbd
000003a0: 16c9 0abe 9dbe 0d3d 151a 903d 4c8c 743d
000003b0: 1357 923d d70c e0bd 6374 6c3d d3df 6ebd
000003c0: 2d5e 59bd 0fce 073e b295 cfbd 8dab 42bd
000003d0: e396 8dbd c4ef 13bd 9b1d 70ba 6521 97bd
000003e0: 6954 f1bd e870 be3d da51 963d 34e8 213d
000003f0: 87db fdbd 6f1d 8bbd bdeb 6ebb 9f0e cb3d

grucell.bias_ih f4 [192]
0.059261084 0.005511945 0.09095374 -0.046559017 0.08819627 -0.024557356 0.030485304 0.093265854
0.021504553 -0.10963558 -0.08522946 0.09119072 0.0802127 0.09743229 0.18784209 0.11881801
-0.11285284 0.04376611 0.08837984 0.09975749 0.12415847 -0.1188988 0.01820706 0.09587066
-0.039126124 0.040139887 0.06733481 -0.079240866 -0.009728034 -0.03182246 0.033988632 -0.10576882
-0.09958759 -0.11654315 -0.115886375 -0.06512785 -0.11095652 -0.075572446 -0.11598374 0.001718434
-0.022549132 0.12114442 0.029990038 0.036895484 -0.07700679 -0.0892752 0.09607421 0.0415015
0.012331987 0.15492536 0.030241543 0.102494 0.09030592 0.12418711 0.036179233 0.050185446
-0.080691926 0.037338916 0.112540625 0.043866806 0.072117895 -0.11855805 0.044843346 -0.046847846
0.09746487 -0.07735413 0.113964446 -0.066754885 0.070827335 0.04362753 0.121093735 0.04329043
-0.07930021 -0.07861105 0.07127599 0.06987188 0.057848755 0.06658679 -0.12090104 0.017276023
0.09757773 0.020966442 -0.11318464 0.1445522 0.008058393 -0.089702345 -0.08460978 0.008232294
0.07383635 0.09895941 -0.058921915 -0.09784752 0.027694922 -0.08473147 0.042697676 0.10401704
-0.07566769 0.00786586 -0.07456441 -0.09894079 0.03459323 -0.092828 -0.056557387 0.07821556
-0.019283675 0.03282496 0.09845368 -0.11790333 -0.050372764 -0.086969905 0.023589099 -0.08663831
-0.09911077 0.090607174 0.083318524 0.053586736 0.092912205 -0.061675485 -0.03701475 0.030404009
0.02353545 -0.10123433 -0.04648806 0.03469472 -0.06155214 0.019593624 -0.12084332 -0.11959445
-0.01868598 -0.055032663 -0.05837898 -0.00040466315 0.05846211 -0.05437592 -0.04836135 0.04034889
0.057544626 -0.032435652 0.048808325 -0.020965016 0.036353372 0.018169627 -0.0045575486 -0.0042850412
-0.05109339 -0.035604853 -0.044915102 -0.089150175 0.07322312 -0.038393114 -0.025208825 -0.0033650214
-0.013962931 -0.09436827 0.0031270094 0.015819537 -0.010796322 -0.050285753 0.04441284 0.042045794
-0.051482253 0.028014103 0.030349893 0.01672467 0.023694968 -0.038025483 0.032504942 0.05256801
-0.018784003 0.07552175 -0.019031454 0.06096507 -0.007632553 0.044503216 -0.04457971 0.087242484
-0.014426179 0.016195517 -0.011221498 -0.0028416135 -0.0021821999 -0.029165803 0.08409364 0.015879678
0.02217958 -0.010973419 0.100534745 0.010334816 -0.01928711 0.021430613 -0.024767794 -0.0864449
00000000: c0bb 723d 8c9d b43b f445 ba3d abb4 3ebd
00000010: 3fa0 b43d 822c c9bc 51bc f93c 2b02 bf3d
00000020: 512a b03c 9e88 e0bd c88c aebd 33c2 ba3d
00000030: 8e46 a43d 958a c73d ad59 403e db56 f33d
00000040: 641f e7bd 1844 333d 7d00 b53d a84d cc3d
00000050: cc46 fe3d 3781 f3bd f926 953c d657 c43d
00000060: b742 20bd b969 243d d5e6 893d 0949 a2bd
00000070: 5562 1fbc 4558 02bd aa37 0b3d 539d d8bd
00000080: 94f4 cbbd 2dae eebd d655 edbd c061 85bd
00000090: 2c3d e3bd bac5 9abd e288 edbd 143d e13a
000000a0: f5b8 b8bc 911a f83d abad f53c b81f 173d
000000b0: bcb5 9dbd ebd5 b6bd 8ec2 c43d 7afd 293d
000000c0: 1a0c 4a3c c1a4 1e3e 1dbd f73c 60e8 d13d
000000d0: 4ff2 b83d d055 fe3d ad30 143d 418f 4d3d
000000e0: cf41 a5bd b1f0 183d b37b e63d aead 333d
000000f0: 8cb2 933d 90ce f2bd a8ad 373d 87e3 3fbd
00000100: a99b c73d d86b 9ebd 3166 e93d c9b6 88bd
00000110: ec0d 913d c8b2 323d feff f73d 4e51 313d
00000120: 2668 a2bd d5fe a0bd 25f9 913d fd18 8f3d
00000130: d1f2 6c3d a85e 883d f79a f7bd 7286 8d3c
00000140: d5d6 c73d d1c1 ab3c 59cd e7bd 7e05 143e
00000150: 5a07 043c ddb5 b7bd e447 adbd bee0 063c
00000160: 8337 973d 3bab ca3d 1b58 71bd 4864 c8bd
00000170: 76e0 e23c b187 adbd c2e3 2e3d e306 d53d
00000180: a9f7 9abd cfdf 003c 3ab5 98bd 78a1 cabd
00000190: a1b1 0d3d 9b1c bebd b8a8 67bd 7b2f a03d
000001a0: ccf8 9dbc 7773 063d 15a2 c93d 4d77 f1bd
000001b0: ac53 4ebd 471d b2bd ed3d c13c 6d6f b1bd
000001c0: 96fa cabd 4190 b93d e7a2 aa3d c47d 5b3d
000001d0: c148 be3d 6f9f 7cbd c79c 17bd d411 f93c
000001e0: 6bcd c03c f253 cfbd 446a 3ebd 0d1c 0e3d
000001f0: 191e 7cbd cf82 a03c b47c f7bd efed f4bd
00000200: 5713 99bc ee69 61bd cc1e 6fbd f828 d4b9
00000210: f775 6f3d 49b9 5ebd 8d16 46bd e144 253d
00000220: eab3 6b3d 3fdb 04bd 3deb 473d d3be abbc
00000230: 46e7 143d 78d8 943c 7d57 95bb 8869 8cbb
00000240: 4d47 51bd 65d6 11bd e6f8 37bd 5e94 b6bd
00000250: 01f6 953d 1942 1dbd bd82 cebc b187 5cbb
00000260: c7c4 64bc 2744 c1bd 83ee 4c3b f997 813c
00000270: 0ee3 30bc 6ff8 4dbd 3dea 353d 3638 2c3d
00000280: 0edf 52bd d57d e53c 57a0 f83c 2d02 893c
00000290: f31b c23c 9cc0 1bbd e723 053d 8e51 573d
000002a0: e9e0 99bc 26ab 9a3d dae7 9bbc 82b6 793d
000002b0: 7f1a fabb 0149 363d 3799 36bd 30ac b23d
000002c0: c85b 6cbc 76ac 843c 60da 37bc 5d3a 3abb
000002d0: 3d03 0fbb 1fed eebc 4939 ac3d 1916 823c
000002e0: f3b1 b53c dbc9 33bc 29e5 cd3d 5c53 293c
000002f0: 0000 9ebc 418f af3c d4e5 cabc 060a b1bd

grucell.bias_hh f4 [192]
0.035590976 0.19197555 0.02033023 0.044686627 -0.012514488 -0.019583315 0.097405545 0.111684434
0.047361255 -0.08129734 -0.019987902 0.06957982 -0.11978842 -0.061294924 0.050020505 -0.089424856
0.067470774 -0.031937666 -0.03908367 -0.058115624 -0.06804714 0.100248 0.002982167 0.0049579246
0.06548006 -0.02367146 -0.08520033 0.023186233 -0.062314846 0.07269255 -0.019365499 0.012419461
-0.061344113 -0.068942286 -0.061541513 -0.124545775 -0.042577203 -0.020417815 0.0477471 0.0739176
0.054235693 0.14566469 -0.03605145 -0.065379895 0.04574837 0.0010541406 0.12432389 0.092358805
0.022498533 0.14582348 0.08133069 -0.016973296 0.034808777 -0.06314575 0.068225525 0.1062188
0.046587702 0.086207755 -0.072085716 0.048072957 0.08892809 0.095627345 0.12313453 0.123230405
-0.077048905 -0.033889737 0.14910781 0.089232825 0.1200696 -0.10469935 0.0071717924 0.032254204
-0.04503705 -0.014939452 0.08084754 0.00519809 -0.04982258 0.119817615 0.026513081 0.12761812
0.12703834 0.024464026 0.03157172 0.09049141 0.06294502 -0.062247902 0.011323197 0.014773036
0.032201596 0.07227286 -0.039619517 0.048764367 -0.00502145 0.00020812146 0.085636 0.06160006
0.07437647 0.027277295 0.05029327 -0.11897941 0.052891575 -0.11269247 -0.045107752 -0.08153657
0.013649894 0.025836693 0.00855543 -0.0033557434 0.11054362 0.049977005 0.013795491 0.11971791
-0.08215459 -0.03371524 0.04811876 -0.049068496 -0.025427638 0.11644307 -0.046167906 -0.007917151
0.1151501 -0.013524805 0.017293349 0.11617172 0.038406137 0.10342029 -0.07477189 0.0035235928
0.024509178 0.1126499 0.11026393 -0.008274124 0.0041446956 0.028979497 -0.16276321 -0.03165285
-0.09635535 0.032769274 -0.09099384 -0.023744771 -0.012550044 0.024126219 0.024322541 0.000104935665
0.037844483 -0.030936271 0.10235413 0.018876271 -0.0927642 0.10184925 0.035620745 0.046992842
-0.012277433 0.11399573 0.03537755 -0.0503469 0.027044622 0.05285434 -0.060538176 -0.116091706
-0.05320743 0.01951287 0.05570714 -0.122228436 0.006309815 0.07706435 -0.015729398 -0.10961018
0.08220643 -0.09421641 -0.09264188 -0.1025028 -0.00077424437 -0.06174253 0.07428719 -0.0368557
0.053972546 0.07430054 -0.052934825 -0.0008156643 -0.02699642 0.060227703 -0.019783372 -0.058518656
-0.05341362 0.07388803 -0.13753685 0.09120545 0.06714662 0.021722576 0.024266226 0.086813934
00000000: d8c7 113d 3d95 443e 958b a63c 5309 373d
00000010: 9109 4dbc 306d a0bc 8f7c c73d cfba e43d
00000020: e0fd 413d 387f a6bd abbd a3bc dd7f 8e3d
00000030: a253 f5bd 6310 7bbd 4de2 4c3d 6124 b7bd
00000040: 1e2e 8a3d 12d1 02bd 3316 20bd a60a 6ebd
00000050: 4d5c 8bbd d34e cd3d 7670 433b 1676 a23b
00000060: 691a 863d a6ea c1bc 837d aebd 0ef1 bd3c
00000070: da3d 7fbd d5df 943d 65a4 9ebc ff7a 4b3c
00000080: f743 7bbd 9d31 8dbd f412 7cbd db11 ffbd
00000090: 6f65 2ebd 4343 a7bc 7792 433d 1c62 973d
000000a0: 3f26 5e3d 2029 153e afaa 13bd e5e5 85bd
000000b0: a562 3b3d 172b 8a3a 869d fe3d 9d26 bd3d
000000c0: d84e b83c c052 153e b490 a63d 950b 8bbc
000000d0: a693 0e3d 8f52 81bd d3b9 8b3d 3e89 d93d
000000e0: bfd2 3e3d b18d b03d ada1 93bd 26e8 443d
000000f0: ee1f b63d 45d8 c33d f52d fc3d 3960 fc3d
00000100: d1cb 9dbd f7cf 0abd b8af 183e b3bf b63d
00000110: 0de7 f53d 9d6c d6bd 5b01 eb3b fc1c 043d
00000120: c578 38bd 9ac4 74bc 6593 a53d bd54 aa3b
00000130: c312 4cbd f062 f53d f631 d93c 53ae 023e
00000140: 5716 023e c868 c83c 5951 013d 8f53 b93d
00000150: 52e9 803d a8f7 7ebd ee84 393c 9b0a 723c
00000160: d2e5 033d cb03 943d 1348 22bd 25bd 473d
00000170: fa8a a4bb 2e3b 5a39 ed61 af3d 5850 7c3d
00000180: b152 983d a274 df3c 5100 4e3d 7aab f3bd
00000190: d6a4 583d 4fcb e6bd e8c2 38bd a5fc a6bd
000001a0: cea3 5f3c 79a7 d33c 132c 0c3c 08ec 5bbb
000001b0: b264 e23d b0b4 4c3d 7c06 623c aa2e f53d
000001c0: aa40 a8bd fe18 0abd 2d18 453d 0cfc 48bd
000001d0: 9f4d d0bc b479 ee3d 8f1a 3dbd f0b6 01bc
000001e0: d1d3 eb3d 2597 5dbc c8aa 8d3c 70eb ed3d
000001f0: c14f 1d3d 04ce d33d 0122 99bd 14ec 663b
00000200: 79c7 c83c feb4 e63d 0ed2 e13d 3190 07bc
00000210: 3ad0 873b 6966 ed3c 66ab 26be 6ba6 01bd
00000220: f455 c5bd 1339 063d fa5a babd 6584 c2bc
00000230: b39e 4dbc 59a4 c53c 1140 c73c e810 dc38
00000240: d102 1b3d 106e fdbc 0b9f d13d 69a2 9a3c
00000250: 28fb bdbd 5796 d03d 0fe7 113d 917b 403d
00000260: 4927 49bc 9876 e93d 0de8 103d 8d38 4ebd
00000270: af8c dd3c cb7d 583d e1f6 77bd 7dc1 edbd
00000280: 09f0 59bd 74d9 9f3c 2c2d 643d e752 fabd
00000290: 91c2 ce3b ead3 9d3d f0da 80bc 4d7b e0bd
000002a0: d85b a83d 88f4 c0bd 07bb bdbd fdec d1bd
000002b0: a9f6 4aba bce5 7cbd e223 983d 01f6 16bd
000002c0: 5112 5d3d e22a 983d 30d2 58bd 4ed2 55ba
000002d0: 9927 ddbc 53b1 763d bd10 a2bc 42b1 6fbd
000002e0: 3dc8 5abd 9c52 973d 76d6 0cbe ecc9 ba3d
000002f0: 2b84 893d 8bf3 b13c f7c9 c63c 81cb b13d

linear.weight f4 [2, 64]
-0.08263983 -0.03101875 -0.04935875 0.009493476 -0.061418686 0.05737055 0.06772654 0.0716517
0.051348668 0.09819141 -0.10304998 -0.031890154 0.023074474 0.04887126 0.074726924 0.10380915
-0.088590324 0.06888051 0.11335979 0.03915277 -0.06436436 0.008134618 0.12108762 0.10257713
0.081684776 0.017479569 0.006534581 0.059581988 0.08780227 0.10196857 0.11307065 -0.08909737
-0.11985664 0.0975535 0.10456559 -0.10133163 -0.05219697 -0.012339527 -0.08231528 -0.06143077
0.007357394 0.01390281 0.007963738 -0.088950336 0.04444563 0.15641017 -0.052811716 -0.018066004
-0.09325844 -0.0061489563 -0.041941803 -0.12892227 0.079514645 0.04060913 -0.004247985 -0.08110701
-0.13542011 0.061114848 0.10424125 -0.0044591953 0.012324076 0.045836214 0.07410461 -0.0919845
-0.005858032 -0.07215566 0.11222844 -0.16852817 -0.0065541468 -0.08660898 -0.10418834 0.021734744
0.0022053262 -0.09789486 0.0111112315 -0.024448412 -0.12674461 0.013230537 -0.06087794 -0.13630506
-0.038150165 0.11827179 -0.09269045 -0.100046515 0.18423988 -0.08840596 -0.1084929 -0.05087886
-0.11917123 0.043762177 -0.13777186 0.040352248 -0.054934092 -0.043131832 0.0388522 -0.09126123
0.018753106 0.027405737 0.0019754393 -0.008967674 -0.027378887 0.05687412 0.136127 -0.053069253
-0.023970095 0.016026825 0.036710754 -0.026634857 0.011643787 -0.0037656978 -0.07113087 -0.037782542
0.09185641 -0.12752283 0.11521494 0.040401403 -0.06950038 0.08278707 -0.050159477 -0.055232886
0.0034125051 -0.108097404 -0.120083846 0.08045576 0.08882646 0.042058278 0.08931998 0.123272955
00000000: 123f a9bd 091b febc 672c 4abd 868a 1b3c
00000010: 2992 7bbd 62fd 6a3d 36b4 8a3d 20be 923d
00000020: fb52 523d 9418 c93d de0b d3bd 409f 02bd
00000030: ae06 bd3c 3b2d 483d 6e0a 993d e499 d43d
00000040: d86e b5bd 3a11 8d3d 2d29 e83d a85e 203d
00000050: 76d1 83bd 1047 053c c9fc f73d f513 d23d
00000060: 594a a73d 5031 8f3c 0a20 d63b 3e0c 743d
00000070: add1 b33d e6d4 d03d 9691 e73d af78 b6bd
00000080: 6677 f5bd 21ca c73d 7c26 d63d f586 cfbd
00000090: 7dcc 55bd ba2b 4abc ea94 a8bd d59e 7bbd
000000a0: 4b16 f13b 9dc8 633c 577a 023c 982b b6bd
000000b0: 9f0c 363d fd29 203e 1951 58bd 28ff 93bc
000000c0: 48fe bebd 2f7d c9bb 2bcb 2bbd 3304 04be
000000d0: 93d8 a23d c255 263d ae32 8bbb 6f1b a6bd
000000e0: 92ab 0abe 9053 7a3d 707c d53d 711e 92bb
000000f0: ecea 493c c1be 3b3d 28c4 973d 5f62 bcbd
00000100: bcf4 bfbb 59c6 93bd 06d8 e53d a692 2cbe
00000110: 2bc4 d6bb 0d60 b1bd b260 d5bd 100d b23c
00000120: 3c87 103b 1a7d c8bd e20b 363c 0948 c8bc
00000130: 57c9 01be e5c4 583c 265b 79bd 8e93 0bbe
00000140: 5943 1cbd 7b38 f23d 7ed4 bdbd 30e5 ccbd
00000150: 61a9 3c3e 2f0e b5bd 8731 debd 5a66 50bd
00000160: 0c10 f4bd f83f 333d 1114 0dbe 6648 253d
00000170: 9202 61bd 01ab 30bd 7c23 1f3d 2be7 babd
00000180: 1da0 993c ff81 e03c 5f76 013b 27ed 12bc
00000190: b049 e0bc d6f4 683d e064 0b3e 255f 59bd
000001a0: ef5c c4bc b04a 833c 045e 163d 5831 dabc
000001b0: 95c5 3e3c edc9 76bb 10ad 91bd dec1 1abd
000001c0: 371f bc3d 5895 02be cff5 eb3d f17b 253d
000001d0: 3756 8ebd 448c a93d 0674 4dbd e13b 62bd
000001e0: 56a4 5f3b 2c62 ddbd 85ee f5bd fdc5 a43d
000001f0: a6ea b53d 4d45 2c3d 65ed b63d 8876 fc3d

linear.bias f4 [2]
0.0018966151 -0.06318233
00000000: d897 f83a bd65 81bd

linear_final.weight f4 [5, 64]
-0.01023806 0.09222849 0.06393719 -0.020125799 -0.028691906 0.044613305 0.12878618 0.07801799
-0.0108110495 -0.04404145 0.028256858 0.00015416324 -0.016830835 0.05980481 0.053617235 0.013624689
0.00028670146 0.042195454 -0.05680011 -0.03205436 -0.007942027 -0.01877353 -0.01882557 0.001797322
0.03104136 0.11063735 -0.09739505 0.02476698 0.042484067 0.008605573 0.038575325 -0.058235414
-0.012306938 0.055964958 0.06932416 0.07228188 0.0062327124 0.07295858 -0.08552323 0.040294856
-0.071619086 -0.08213449 -0.048796628 -0.025097957 0.05841015 -0.032027002 -0.03905561 -0.010789884
0.00629748 -0.15467098 0.032212473 0.06542523 0.056988418 0.05231946 -0.06629529 0.016149273
-0.04617233 -0.046528596 -0.085047424 -0.072944656 0.06478424 -0.016824983 0.015871866 -0.021756366
0.03759971 0.0115657 0.004196145 0.014637902 -0.0893857 0.10956446 -0.045447677 -0.009513101
0.0028497193 0.030952007 0.033660144 0.0661755 -0.019392673 0.087149546 0.011680128 0.00050415564
0.07781124 0.03983072 0.016825784 -0.040605724 0.008726072 0.027460294 -0.02664365 0.026701696
0.061310664 -0.01383487 -0.032173753 0.038205303 -0.059107654 -0.009736861 -0.06499943 0.0004995489
-0.0048567858 -0.063446015 -0.03778215 -0.038115077 0.06181562 -0.014684122 -0.011030933 -0.04202839
-0.024026612 0.015152113 0.11693828 0.05121925 0.035686944 0.0018197246 0.06653773 0.03328087
0.068715155 0.091065586 -0.033243228 0.006185107 -0.004327006 -0.07378896 -0.040567424 -0.105077766
0.082982324 -0.018488035 0.039292086 -0.008795385 -0.04087495 0.004789562 -0.023473622 -0.052984934
0.009893476 0.04070778 0.0657024 -0.21806447 -0.1661578 0.23973487 -0.07532092 -0.088959664
0.023320973 0.0010796867 -0.08911502 -0.013048119 -0.06005494 -0.16176328 0.07850874 0.08473428
0.07693552 0.035049222 -0.011578608 -0.2395873 -0.1107268 0.011842898 0.12731005 -0.18640108
0.15153934 -0.04502143 -0.03499057 0.013455374 0.011482221 0.053956572 0.03689007 -0.024915058
0.067746565 -0.13797373 -0.2067993 -0.249383 0.074467085 0.12006087 0.036751006 -0.19918646
0.02330588 -0.06639755 0.17404498 -0.12500001 0.27710953 0.22761501 0.03175275 0.033650856
0.1775445 0.04407451 0.12656097 -0.03761863 -0.06899437 -0.13900721 -0.19065 0.14238566
-0.018889867 -0.022138182 0.051012974 -0.17822026 -0.21274905 -0.3720666 -0.038928114 0.30911154
0.062150545 -0.21963416 0.25528577 -0.22140546 -0.17513496 0.22767988 0.3612554 0.05495314
-0.028286703 0.04285902 -0.04123897 0.09862085 -0.11448522 -0.12735829 -0.26799324 0.073019035
0.08921924 0.17008863 -0.01674173 0.09981449 -0.06752155 0.039929736 -0.14639856 0.000849451
0.14161322 0.20322421 -0.17436013 0.05412689 0.016233196 0.11592017 -0.027118 -0.031388965
0.32052156 -0.18541746 -0.11611557 0.19561072 -0.13192844 -0.090680346 -0.023705093 -0.09857508
-0.1280709 -0.05132411 0.34517857 0.0032977934 0.08037819 -0.042746007 0.14923196 -0.22424728
-0.11404493 -0.21257743 0.25635675 0.073599 0.033840794 -0.062063295 -0.37297994 0.21325749
0.092154875 -0.16442947 -0.12556186 -0.1960945 -0.10871762 -0.27994725 0.1409278 0.26041508
00000000: 89bd 27bc 4ae2 bc3d 80f1 823d dcde a4bc
00000010: 4a0b ebbc 71bc 363d 86e0 033e e5c7 9f3d
00000020: d420 31bc cf64 34bd ed7a e73c e1a6 2139
00000030: d2e0 89bc e3f5 743d bf9d 5b3d 163a 5f3c
00000040: 6b50 9639 24d5 2c3d 3ba7 68bd 6f4b 03bd
00000050: 471f 02bc f2ca 99bc 1538 9abc 1e94 eb3a
00000060: 734a fe3c d695 e23d 0e77 c7bd 1fe4 ca3c
00000070: c603 2e3d 64fe 0c3c 2901 1e3d 4288 6ebd
00000080: 0aa3 49bc 833b 653d d3f9 8d3d 8608 943d
00000090: c83b cc3b 4f6b 953d ce26 afbd 380c 253d
000000a0: 07ad 92bd 2136 a8bd f9de 47bd 3b9a cdbc
000000b0: 7b3f 6f3d bf2e 03bd c6f8 1fbd 0ec8 30bc
000000c0: 175b ce3b 1262 1ebe 3af1 033d aafd 853d
000000d0: b06c 693d ee4c 563d d3c5 87bd 7b4b 843c
000000e0: 321f 3dbd c594 3ebd 582d aebd 0264 95bd
000000f0: 9aad 843d 8cd4 89bc b705 823c 683a b2bc
00000100: 2702 1a3d 107e 3d3c d17f 893b d0d3 6f3c
00000110: da0f b7bd 5563 e03d 5827 3abd d6dc 1bbc
00000120: 5bc2 3a3b 108f fd3c 38df 093d 0587 873d
00000130: 62dd 9ebc 767b b23d 025e 3f3c 5029 043a
00000140: 805b 9f3d 8925 233d 3ad6 893c 3052 26bd
00000150: ccf7 0e3c 69f4 e03c c943 dabc 84bd da3c
00000160: e420 7b3d a7ab 62bc a0c8 03bd 2a7d 1c3d
00000170: de1a 72bd 5b87 1fbc 6c1e 85bd 29f4 023a
00000180: ac25 9fbb fcef 81bd 75c1 1abd 8e1e 1cbd
00000190: 6032 7d3d ac95 70bc 16bb 34bc f625 2cbd
000001a0: 75d3 c4bc 9140 783c 567d ef3d 47cb 513d
000001b0: 792c 123d d383 ee3a ef44 883d 8651 083d
000001c0: 88ba 8c3d 9880 ba3d 0d2a 08bd 70ac ca3b
000001d0: 8fc9 8dbb ab1e 97bd 072a 26bd 0333 d7bd
000001e0: a3f2 a93d 3874 97bc bdf0 203d 851a 10bc
000001f0: 7e6c 27bd c2f1 9c3b c14b c0bc bb06 59bd
00000200: 3f18 223c 33bd 263d fb8e 863d 4b4c 5fbe
00000210: 4525 2abe 0f7d 753e db41 9abd 7c30 b6bd
00000220: a00b bf3c 4684 8d3a f081 b6bd c7c7 55bc
00000230: 2bfc 75bd 46a5 25be 31c9 a03d 2b89 ad3d
00000240: 5f90 9d3d c68f 0f3d 34b4 3dbc 6056 75be
00000250: bcc4 e2bd b708 423c 915d 023e eddf 3ebe
00000260: 212d 1b3e 6468 38bd 4652 0fbd ee73 5c3c
00000270: ed1f 3c3c 9101 5d3d 0b1a 173d aa1a ccbc
00000280: b6be 8a3d fc48 0dbe 32c3 53be 425e 7fbe
00000290: 3382 983d 79e2 f53d 3988 163d 89f7 4bbe
000002a0: f9eb be3c 70fb 87bd d938 323e 0100 00be
000002b0: 4de1 8d3e e913 693e 2c0f 023d 7bd5 093d
000002c0: 3ace 353e 7987 343d 3399 013e fe15 1abd
000002d0: ec4c 8dbd e857 0ebe c139 43be 8ccd 113e
000002e0: ecbe 9abc 225b b5bc fbf2 503d 5f7f 36be
000002f0: e3da 59be 837f bebe 1673 1fbd de43 9e3e
00000300: 9291 7e3d c7e7 60be d1b4 823e 1db8 62be
00000310: 9456 33be ea24 693e 78f6 b83e 8b16 613d
00000320: 84b9 e7bc f18c 2f3d 32ea 28bd baf9 c93d
00000330: 3a77 eabd 366a 02be 6936 89be 018b 953d
00000340: 94b8 b63d b72b 2e3e f425 89bc 8a6b cc3d
00000350: bd48 8abd 5d8d 233d 81e9 15be b1ad 5e3a
00000360: 0e03 113e 021a 503e 768b 32be 28b4 5d3d
00000370: 7bfb 843c 8e67 ed3d 9126 debc b791 00bd
00000380: 671b a43e 13de 3dbe 00ce edbd 2d4e 483e
00000390: 4018 07be 9eb6 b9bd 2f31 c2bc bbe1 c9bd
000003a0: 0525 03be 3b39 52bd 3fbb b03e cb1f 583b
000003b0: 529d a43d 7016 2fbd 43d0 183e 14a1 65be
000003c0: 6390 e9bd e6ad 59be 3141 833e 13bb 963d
000003d0: a59c 0a3d 1536 7ebd 3af7 bebe 2c60 5a3e
000003e0: b2bb bc3d 3360 28be 4a93 00be ffcc 48be
000003f0: 58a7 debd 3f55 8fbe 614f 103e 2055 853e

linear_final.bias f4 [5]
0.040598214 0.0007069847 -1.2285929 -1.8362776 -0.16996107
00000000: 504a 263d f154 393a 8842 9dbf 250b ebbf
00000010: 460a 2ebe
