results2_checkpoint/zara2/latest.pth (torch_old, 55823 bytes, 10 tensors)

gcn.gc1.weight f4 [2, 2]
00000000: 04af 9c3d c455 8abb 353b 58bb 101d b53d
0.07650569 -0.00422165 -0.0032994275 0.08843434

gcn.gc1.bias f4 [2]
00000000: c873 363c 1f26 eb3b
0.011136003 0.0071761752

grucell.weight_ih f4 [192, 2]
00000000: 0f6e 34bd 0006 c1bd 97cd 833c e3ee 2fbd
00000010: 1492 b8bd e9ae 48bd d0e3 9abd f6f0 dabb
00000020: ef64 f5bc f518 2f3c 85bf 8a3b fc3e f0bd
00000030: ecd9 923d b2f4 ad3d d003 c13d 2a90 bf3c
00000040: 59c8 e3bd 8224 9e3d 486b bf3d 92e8 a53d
00000050: 62f0 903d c480 683d d9b3 3cbd a612 233c
00000060: 84e3 a4bc 63f6 bbbd 013b 983b 1588 0fbd
00000070: 1735 ec3d 103f fbbd 1eb9 a13d 53f1 ba3d
00000080: 65b4 8abc 83b2 75bd 5b23 c33d a994 bd3d
00000090: e501 c63d 1ddc 46bd 3a9a e9bd 4e90 e83d
000000a0: be9e be3d d13c 62bd 506c f13d f36b e5bc
000000b0: 04b7 823d 04f4 27bd 2159 cdbd 3b0c 623d
000000c0: 27be 8e3d fb7c 85bd 3c9a b4bc e2b4 7ebd
000000d0: 8854 5a3d 5b3e db3d a959 c2bd cf1c e43d
000000e0: a8b9 b63d 8685 92bc 0ca9 46bd 04ab 8b3d
000000f0: b13b d7bd bbd7 fdbd 4244 82bd 5284 e13d
00000100: bb68 5bbd c41c b1bc 8dd8 a73c ae2f 91bb
00000110: 6070 f33d 6ce5 e93d 56ef 64bd 5c87 8fbd
00000120: 890e a93d 7840 343d 54cf a8bd e881 3bbd
00000130: 0209 a9bd 3921 96bd 1ad6 ffbd 7566 86bd
00000140: e765 a7bc a72b e9bd a739 ecbd 5f6c 06bd
00000150: becf eabd 49f1 bfbd 804e 78bb 019d 57bc
00000160: 9793 983d d617 2bbd fb6a 77bc 7aed 91bd
00000170: 7c8b 673b d0df 45bd 3064 82bc 7ab7 36bd
00000180: b06c b03c 7ff5 c83d 4bd8 ea3c 200b 193d
00000190: 5b1e 3cbd 4434 e63d 9c38 9ebc a83b eabd
000001a0: 119f bf3d e774 cabd 4f75 14bd 2b19 263d
000001b0: 6ef6 773c 271f 053d 9e95 f03d 258e 623d
000001c0: e87f b93d 2107 b1bd 679b 96bd f3d0 bc3d
000001d0: 4c6d 27bd 84b6 f43c 1761 6dbd ab64 31bd
000001e0: 768d 7cbc 432b ffbd 69c1 e4bd 4cf6 70bd
000001f0: a3db ef3d 8592 a2bc 8237 923c 02e4 98bc
00000200: e128 81bc cb79 673d 74c9 a8bd 7f0e 71bd
00000210: 3393 04bd cdb7 60bd d42b aebd f797 4c3d
00000220: 81c3 fe3d f9d5 243d f1b5 283d ee05 33bd
00000230: b5a7 933c 56c6 e83d b9e4 7abd ac0f ddbd
00000240: 3619 febd 0967 eb3d 4a6f e5bd b2a6 e5bd
00000250: ab95 263d a384 83bb 883b 4ebd f51c 86bd
00000260: d3d2 cd3d 76ec ccbd d54c e8bd d0bf fa3d
00000270: 0502 e63d ae9b 2bbd cff1 68bd 2629 df3d
00000280: a809 e53d 5212 e23d ab1d b33d 071d df3b
00000290: 19f5 c33d 429e 5c3d e67f 923d 3ac8 983d
000002a0: 5438 ac3d 0f62 9e3d d3e7 3c3d b763 383d
000002b0: cc81 8cbc 9a5b bb3d fff7 ae3d 122f d43d
000002c0: c3e0 623c 30bd e7bd 98de ce3d 591d c0bc
000002d0: ef7d 013d 95ce 823d eb9a d4bd f3fb 6a3d
000002e0: 0306 d43c 969b b73d fa20 2ebd a731 903c
000002f0: 4582 ee3d 1422 f53c d788 b6bd 28ac f53d
00000300: 4a0c 113a 5e96 583d 9a60 1cbd d99b f0bd
00000310: 5474 40bd 70f2 dabd 4421 a43d 2907 64bd
00000320: 570f 80bd 9714 7fbd 3cba a43d fd88 b5bd
00000330: 1b9b d13d 384e f13b f2b5 bd3d 7057 c1bd
00000340: 05d6 1c3d 92a8 2cbd 27a6 3cbd 3992 c9bc
00000350: 66ca dd3b 1d1c 55bd a2af dc3c 7d6a 773d
00000360: 01a0 7e3c 7e95 eb3d d0ea 2b3c cfc1 d33d
00000370: 1e11 8a3c 9a42 e2bc 56fd d03d bb42 aebc
00000380: c5e9 93bd 60ad cdbd 15fd 333d 0ff4 f2bd
00000390: e960 b6bb afe1 6f3c 06c7 50bd 0828 d43d
000003a0: 03ea 953d 6f2c a2bd b77a 9bbc 8155 933d
000003b0: e3c0 9c3c e1b9 c3bc b8c1 bd3d dafc debd
000003c0: bca3 4fbd ddae 69bd 7043 1bbc 3083 b33d
000003d0: 977b 363d 38c7 c93d 06d3 063d bdf6 abbd
000003e0: ec57 2b3c 740f f2bd f310 8f3d ef37 dcbd
000003f0: 33ef a13c 5523 71bd 69cd d53d e017 453c
-0.044050273 -0.094249725 0.016089244 -0.04295243 -0.09012237 -0.048994932 -0.07562983 -0.006681557
-0.029955355 0.010687103 0.0042342567 -0.11730763 0.071704715 0.084939376 0.09424555 0.023384172
-0.11122198 0.07721807 0.09346634 0.08101 0.070770994 0.056763425 -0.046069954 0.009953177
-0.02012802 -0.09177854 0.0046457057 -0.035041887 0.115335636 -0.122678876 0.078966364 0.0912806
-0.016931722 -0.059984695 0.09528228 0.0925687 0.0966833 -0.04854976 -0.114063695 0.11355649
0.093076214 -0.05523378 0.11788237 -0.028005576 0.06382564 -0.041004196 -0.100267656 0.055187445
0.069698624 -0.06517979 -0.0220462 -0.062184222 0.05330327 0.10705253 -0.094897576 0.11138307
0.0892213 -0.017885935 -0.04850106 0.06819728 -0.10509432 -0.12394663 -0.063606754 0.11011566
-0.053566676 -0.021620162 0.020489002 -0.0044307327 0.11886668 0.11420712 -0.05589231 -0.070082396
0.082547255 0.044006795 -0.0824267 -0.045778185 -0.08253671 -0.073305555 -0.124920085 -0.06562511
-0.020434333 -0.11385279 -0.11534434 -0.032818194 -0.11465405 -0.09372193 -0.0037888587 -0.013159991
0.074500255 -0.04177078 -0.01510119 -0.07125373 0.0035330942 -0.048309147 -0.015916914 -0.04460857
0.021536201 0.0981245 0.02866759 0.037364125 -0.045927387 0.112404376 -0.019314103 -0.1143716
0.093565114 -0.098855786 -0.036244687 0.040551346 0.015134437 0.032500412 0.11747287 0.05531134
0.09057599 -0.08643938 -0.073538594 0.092195414 -0.040875718 0.029872186 -0.05795392 -0.043308895
-0.015414586 -0.124594234 -0.111697026 -0.058828637 0.11711814 -0.019845257 0.017848734 -0.01866341
-0.015766563 0.056512635 -0.08241549 -0.058851715 -0.032366943 -0.054862786 -0.08504453 0.049949612
0.12439633 0.040243123 0.041189138 -0.043706827 0.018024305 0.113659546 -0.061253283 -0.10794005
-0.12407152 0.11494262 -0.11202867 -0.11213435 0.04067008 -0.0040136143 -0.050349742 -0.06548492
0.10049977 -0.10006039 -0.113427795 0.122436166 0.11230854 -0.041896515 -0.05687123 0.1089652
0.111834824 0.110386506 0.08745893 0.0068088803 0.09568233 0.053861864 0.07153301 0.07460065
0.08409181 0.07733547 0.046119522 0.04501697 -0.017151736 0.09148331 0.08543395 0.103605404
0.013847533 -0.113153815 0.1010105 -0.023451494 0.03161424 0.06387059 -0.10381111 0.057369184
0.025881773 0.089652225 -0.042511918 0.017601801 0.11645941 0.029923476 -0.08912819 0.11995727
0.0005533142 0.052877776 -0.038178064 -0.117484756 -0.04698594 -0.106907725 0.080141574 -0.05567089
-0.06252926 -0.062275495 0.08043334 -0.08864019 0.10234662 0.0073640607 0.09263219 -0.094405055
0.038290042 -0.04215295 -0.046056893 -0.024605857 0.0067685125 -0.052028764 0.026939217 0.06040429
0.015541078 0.11503123 0.010492995 0.103397004 0.016853865 -0.027619649 0.1020457 -0.021272054
-0.072223224 -0.10042834 0.04394253 -0.11862957 -0.005565752 0.0146412095 -0.050971054 0.10359198
0.07320025 -0.07918631 -0.018979413 0.07194043 0.019134944 -0.023892345 0.092654645 -0.10888071
-0.05069326 -0.05705153 -0.009476528 0.087652564 0.04455146 0.09852451 0.03291609 -0.08396671
0.010457974 -0.11819354 0.06985655 -0.10752856 0.01976738 -0.058871586 0.104395695 0.012029618

grucell.weight_hh f4 [192, 64]
00000000: d95b 7abd 1d91 7ebb 5860 423d 4f31 d03d
00000010: ddd5 ec3d 7773 6bbd 8df8 133d 7787 7bbc
00000020: 491d 86bb 6179 863d 2d77 cabd fb33 b9bd
00000030: b0a7 f2bd cefd eabd 2ad5 3cbd bad2 fc3d
00000040: 778f f33d d28e c63d ddc0 80bd 9d5e 15bc
00000050: 33b5 6cbd 669a f73b 5e59 cd3d fd8e a63b
00000060: 2d30 b1bd 4775 7a3c 9f47 c73d 2039 183d
00000070: 2c95 adbd 2ac4 63bd ace4 91bd 1313 f83c
00000080: db8d bc3b 7771 ddbd 2a1f 60bc 11ed d33d
00000090: 68e9 edbc 403c 90bd 765c a9bc 9e84 273d
000000a0: 7fc8 8c3c 8c3c d83d 0999 c6bd f881 fc3d
000000b0: d9bb d7bc a46b 8a3d 6837 b7bb 6a93 5e3d
000000c0: 6654 7b3c 5d56 60bc 732b 4abc 8844 22bd
000000d0: b9a6 5d3d 37c8 e7bd 1873 b0bd 2b5b efbd
000000e0: 71bd c7bc cf5a 14bd f771 c1bd 5eb9 283d
000000f0: 85c5 e53d 5d34 b8bc d8f9 713d faba b1bd
00000100: 608b 5fbd 100e bb3a a2c9 493d cb6e e0bd
00000110: 4bb9 f83d 6bcd a7bd 63ac bc3d 7432 afbd
00000120: 3f8a 903d ad84 3c3d 71c4 803d 7eac f5bd
00000130: dc55 fdbd 654a 973d 501f 75bd 06e1 6d3d
00000140: 6b2d d03d a16a e7bd 6fa7 a63c 7623 e33d
00000150: 5990 aabd 7fad 09bc cb3d 3b3d 6bb6 ee3d
00000160: 3fbc a6bd 1715 f8bd 0a37 ccbd 776e bbbd
00000170: f42e f6bd 5f34 1cbd 2cbe ce3d 7e4a c23d
00000180: 665f 5abd a593 a7bd 8012 d63d 06b4 893d
00000190: 0d79 10bc 2ab6 aeba 913a 88bd 56f3 f93d
000001a0: 4af3 f6bd 253b 7bbd 9d9b 333d 9b6e b8bd
000001b0: 9c98 e93d 68ed cc3d 4028 88bd 7904 a33d
000001c0: 79c5 2f3d 20e4 f8bd 9288 713d 4581 1c3d
000001d0: 2521 29bc 51e6 7f3d 959b 16bb f32a aabd
000001e0: ed18 8f3d 57d9 8d3d 1733 29bd d096 893c
000001f0: 0155 c3bd 5a43 aa3d fc32 5cbb 2c32 253d
00000200: 6225 e6bd 9224 8fbd a2ef 2fbd 1031 a03d
00000210: 2fbc 1c3d acd7 d4bd 53d1 9cbd 5c8e 62bd
00000220: 3c41 41bb 56f7 cfbd 0d23 9cbd 5ae7 23bd
00000230: 2ac7 c8bd b26c 1bbd 770e 75bd ca44 de3d
00000240: e587 35bd be55 093c 807a 08bd c929 413d
00000250: 21e5 7bbd 997a 9a3b f047 963d 3336 e13d
00000260: 5d79 553d 55b9 04bd c511 f0bd 8769 8bbd
00000270: 06bd c63d 9ca8 8e38 a22c de3d cf55 a73d
00000280: 6d61 febc e9cd cb3c 2e1e b0bd 3b75 a63c
00000290: ab66 8abd 82f1 5d3d cfa8 e73d 6b37 43bc
000002a0: a9f5 9cbd 0184 cabd 87d5 263d c3f3 bcbd
000002b0: 27c8 dabd ff7c 35bd ae55 24bc 70ac 603c
000002c0: 3add c0bd 3af7 153c 64b3 60bd 3f6e c53d
000002d0: 1279 b4bd 4601 803d 400c b9bb 6eac 62bd
000002e0: c0eb d3bd 86b3 3cbd 9ae3 163d 09e4 fcbd
000002f0: 1a51 1a3d b012 dfbd 940d 7bbc aef8 fbbd
00000300: 2c21 74bd f678 3d3d 3cf0 763d baee 3abd
00000310: 74ae 0cbd 6b72 513d c084 cbbd bba9 2f3b
00000320: 37e8 ea3d fc3f d53d e33f d03d 053c bc3c
00000330: a188 cc3d 027a 783c 1573 893d e6b8 26bd
00000340: 375b 0b3d fa3a c1bc 8bf6 b73c fc33 ad3d
00000350: 6e58 8c3d 8596 843d 93c9 edbd c42a f5bb
00000360: cf0e 9b3d e38c ea3b b4be e1bd 21ef d2bd
00000370: 43b7 92bc cba5 afbd 4fa3 cebd 8c38 cabd
00000380: 8e7c 63bd ffc7 893d 63a6 c539 f788 a8bd
00000390: b6fb 453d 1573 cc3d 8515 1fbc 6697 5c3d
000003a0: 5826 d23d 5d21 7c3d d790 20bc b3c1 c73d
000003b0: 366b cbbd ffc2 5c3c 7e56 d1bd 7449 eaba
000003c0: 079c b03c cbec d9bd ba2b f6bd 956f 9e3d
000003d0: 2d62 51bd d20c a7bd f719 dfbd bf9c d9bd
000003e0: f172 6e3d 7fb9 9b3d d760 e4bd 17b8 9d3c
000003f0: a3d3 d7bd 59da 9f3d 0efe e8bd 6b27 de3c
-0.06112275 -0.0038843818 0.04745516 0.10165655 0.11564229 -0.057483163 0.03612571 -0.015352122
-0.0040928465 0.0656612 -0.09886012 -0.090431176 -0.1184839 -0.11474191 -0.046101727 0.123448804
0.11892598 0.096952096 -0.06286786 -0.009116796 -0.057789993 0.0075562475 0.10026811 0.0050829635
-0.08651767 0.01528675 0.097304575 0.037163854 -0.08475718 -0.055607 -0.07123694 0.030282533
0.005754215 -0.10812657 -0.013679305 0.10347951 -0.02904196 -0.07042742 -0.020673972 0.040897958
0.017185448 0.105584234 -0.09697158 0.12329477 -0.02633469 0.06758812 -0.0055913217 0.054339804
0.015339946 -0.013692466 -0.012339461 -0.039616138 0.054114077 -0.11317485 -0.086157024 -0.11687311
-0.024382325 -0.036219414 -0.09445565 0.041192405 0.112193145 -0.022485906 0.05907616 -0.08678241
-0.054576278 0.0014271159 0.049264558 -0.10958632 0.12144717 -0.08193477 0.09212568 -0.08554545
0.07057618 0.046024967 0.06287468 -0.11995791 -0.12369892 0.073872365 -0.059844315 0.058075927
0.10164913 -0.11299635 0.02034351 0.11090748 -0.083283134 -0.008403181 0.045713227 0.11655887
-0.08141374 -0.121133976 -0.09971435 -0.09151929 -0.12020674 -0.038135882 0.10094866 0.094868645
-0.053313635 -0.08182458 0.10452747 0.0672379 -0.008817923 -0.0013329436 -0.06651796 0.12204616
-0.120581225 -0.0613357 0.043849576 -0.09005471 0.11406061 0.10006219 -0.06648302 0.079598375
0.042912934 -0.121528864 0.058968134 0.03820922 -0.010322844 0.062475506 -0.0022980918 -0.08308973
0.06987176 0.0692622 -0.04130849 0.016795546 -0.095376976 0.083136275 -0.0033599725 0.04033105
-0.11237599 -0.06989397 -0.04295314 0.07821858 0.038265403 -0.10392699 -0.07657113 -0.055311546
-0.0029488346 -0.101545975 -0.07623873 -0.040015556 -0.098036125 -0.037945457 -0.059828248 0.10852964
-0.044319052 0.008382259 -0.03331995 0.04715899 -0.06149781 0.004714322 0.0733794 0.10996666
0.052117694 -0.03240331 -0.11722139 -0.06807237 0.09704022 6.8024936e-05 0.10848357 0.081706636
-0.031052316 0.024878459 -0.08599506 0.020319572 -0.067578636 0.054185398 0.113114946 -0.011915068
-0.076640435 -0.09888459 0.04073098 -0.09226181 -0.10682707 -0.04430866 -0.010030193 0.013712987
-0.094171956 0.009153182 -0.05485858 0.096401684 -0.08812155 0.06250243 -0.0056472123 -0.055340223
-0.103477 -0.046069644 0.03683815 -0.12348182 0.037675 -0.10892236 -0.0153230615 -0.12303291
-0.059601948 0.046257935 0.0602877 -0.045637824 -0.03434606 0.051134508 -0.099374294 0.0026804048
0.11470073 0.10412595 0.101684354 0.022977838 0.099869974 0.015165808 0.06711403 -0.040703677
0.034022536 -0.023587693 0.022456428 0.08457181 0.06852804 0.06474022 -0.11610713 -0.0074819047
0.07571184 0.0071579083 -0.11022702 -0.102995165 -0.017909652 -0.085765444 -0.100897424 -0.09874067
-0.055538706 0.06727599 0.00037698736 -0.08229249 0.048335753 0.09982888 -0.0097097205 0.053855322
0.1026122 0.061555255 -0.0098001575 0.09753742 -0.09932558 0.013474225 -0.10221575 -0.0017874674
0.021558775 -0.10640868 -0.12020059 0.07736126 -0.05111902 -0.08156742 -0.10893624 -0.106256
0.058215085 0.0760374 -0.11151283 0.01925282 -0.105384134 0.078053184 -0.11376582 0.027118405

grucell.bias_ih f4 [192]
00000000: db44 283c 4627 cebd 0783 ae3d 5e05 a7bd
00000010: 34e5 5c3d 059b 163d 8fd1 24bd 6406 cf3d
00000020: 9190 c43d 4952 843b 4485 24bd 3f1f 9dbd
00000030: e8ad 8ebd b3e6 6bbc 594d 343d 8357 ad3d
00000040: 41e8 db3d 5358 203c 47c7 e2bc 2de5 ca3d
00000050: a129 503d c261 9e3d 2822 d43c c1e4 b63c
00000060: ad86 f6bc 2f1a 7ebd 352e f4bd 948f 8bbd
00000070: e5e1 0e3c cec9 28bd 8c5f f23d 72a6 953b
00000080: fa92 7abd af22 743c 0375 ec3c d2e7 06bd
00000090: bb8c eebd 78b6 7e3d c060 3f3d beb1 bc3d
000000a0: e4f2 1ebd d997 573d e1ee eab8 8a9d b3bc
000000b0: 70c6 743d 0817 a8bd 454a 98bd 6491 96bd
000000c0: 2b80 c43d 071c 673d b2eb b3bc 5467 d53d
000000d0: dea4 b43d d5a3 edbd 355a 0dbd 25f9 b3bd
000000e0: 9d31 4cbd 683b 8ebd 1bef 1a3c f53a cf3c
000000f0: 6634 553b bc99 0fbd 7701 3cbd cd5c 2d3d
00000100: cb89 583c b26d 933c b9b7 46bd b48d 8e3d
00000110: 0792 843c d5fe dcbc 9076 66bc b5f3 d13d
00000120: ed11 e13d 425a ccbd 974a e73d 8f49 ff3b
00000130: d624 ba3d 3e57 87bd fffc debd 14a4 c13d
00000140: ca01 5f3b d691 b9bc 1a56 b43d 105e acbd
00000150: 68aa 51bc c84c f03d b82d 843d 5cd4 cb3d
00000160: ccd2 fbbd e0ad 67bd ec5c 073d ae18 d23c
00000170: 963e babd 6fc5 6fbd e015 b3bd 1798 be3d
00000180: d36d d63c c4f1 ce3c 624d 34bd 736f 2e3d
00000190: 99e9 87bd e8ed f53b 0129 6ebd ba6c fcb8
000001a0: 60d6 f63d 911e 593d 8012 abbd 3135 44bd
000001b0: 2b98 833c 4910 ae3d fd25 9dbd 6679 cd3d
000001c0: b6ae 63bd 95ed a13d a70d 973d 90fd eabd
000001d0: ef28 64bd ad9f 57bd 5f7c 09bd 5ab8 a63d
000001e0: 1f17 aabd 5c10 d73d 282b cebd e081 a0bd
000001f0: 5245 473d 69f3 c43d 66ff c63b 96d0 61bd
00000200: 0754 0f3d e3dd 0ebe 0e17 073d 4fdf c03c
00000210: a17f 863d 05a8 84bc 4757 cdbd 947f 853c
00000220: 6b6d 03be 3faa e7bd 0ad6 393e ce02 2f3e
00000230: b147 6d3c ef8b 2b3d c51c 5c3d f824 033d
00000240: 6693 133e 4108 97bd 61e3 d3bc 7161 31bb
00000250: 98cf 4e3e 8907 de3c 173e 743d 6652 70bd
00000260: e3db debc 1645 9c3b be05 a33c b614 52be
00000270: 2672 32bd b588 cfbd 168e 17bd 19d7 95bc
00000280: 546c b9bd e954 c0bd 31bd 163d d279 81bd
00000290: 5f9c adbd b86a c03d bb9c 1c3d 508d 1c3d
000002a0: 3603 d03c eb53 12bd 5d93 313e 9bb5 333c
000002b0: 96de a7bd f335 f83d b1e7 cfbd fd76 a13d
000002c0: 1729 ce3d 567b 9bbd 1803 3bbd fe83 7f3d
000002d0: d037 173e 3962 193e 0adc 5c3c 6553 e9bc
000002e0: 217e 0a3d 0ebc 353c 007d 6ebd e215 ec3d
000002f0: 3e4c c4bd 9c1f d23d 9f1a 963b b969 d43d
0.010270323 -0.100660846 0.08521085 -0.081553206 0.053929523 0.036768932 -0.040238913 0.10108641
0.09597886 0.0040381295 -0.040166155 -0.07671975 -0.06966764 -0.014398265 0.044019077 0.08463957
0.10737658 0.009786683 -0.027682913 0.09906993 0.05082095 0.077334896 0.025895193 0.022325875
-0.030093515 -0.06203669 -0.11922876 -0.06814495 0.00872085 -0.04120808 0.1183463 0.004566961
-0.061175324 0.014900847 0.02886439 -0.032935925 -0.11647936 0.062185735 0.046723127 0.09213589
-0.038805857 0.052635048 -0.00011202484 -0.021925706 0.059759557 -0.08207518 -0.07436041 -0.0735195
0.095947586 0.056423213 -0.021962974 0.10420099 0.088205084 -0.11603514 -0.034509856 -0.08787755
-0.049852002 -0.069449246 0.009456421 0.025296668 0.0032532453 -0.035058722 -0.045899834 0.04232483
0.013216446 0.017996643 -0.048515055 0.069606215 0.016182913 -0.026976982 -0.014066353 0.102515616
0.10989747 -0.09978153 0.11293524 0.0077907513 0.09089057 -0.06608437 -0.10888099 0.094551235
0.0034028166 -0.022652548 0.08805485 -0.084163785 -0.012796976 0.11733395 0.06454033 0.09952614
-0.12296066 -0.056562304 0.0330476 0.025646534 -0.090939686 -0.058537897 -0.08744407 0.093063526
0.026175415 0.025261767 -0.04401911 0.042586755 -0.06636352 0.0075051673 -0.058144573 -0.00012036548
0.120526075 0.053007666 -0.08353138 -0.04790229 0.01606377 0.084992 -0.07673261 0.100329205
-0.05558654 0.07906643 0.07375651 -0.114741445 -0.0557031 -0.052642513 -0.033565875 0.08140631
-0.08305191 0.10501167 -0.10066825 -0.07837272 0.048650093 0.09616739 0.0060729263 -0.055130564
0.034992244 -0.1395183 0.03298097 0.023543982 0.06567312 -0.0161934 -0.100264125 0.016296186
-0.12834708 -0.11311769 0.18148056 0.17090914 0.014482425 0.041881498 0.053738374 0.032017678
0.14411697 -0.07374621 -0.025865259 -0.0027066136 0.20196378 0.027103202 0.059629526 -0.05867233
-0.02720446 0.004768978 0.019900199 -0.20515713 -0.04356589 -0.10133497 -0.037000738 -0.018291043
-0.09053865 -0.09391195 0.03680152 -0.063220635 -0.08477091 0.09395355 0.038235407 0.038220704
0.025392156 -0.03572456 0.17341371 0.010968591 -0.08196752 0.12119665 -0.101516135 0.07884023
0.10066431 -0.07591884 -0.045657247 0.062381737 0.14767385 0.14978875 0.013480196 -0.028482148
0.033811692 0.011092199 -0.058224678 0.11527611 -0.095848545 0.10259935 0.00458081 0.103717275

grucell.bias_hh f4 [192]
00000000: 12df f73d 7231 acbc 6850 053c 7836 e13d
00000010: 1893 a5bd 2909 ba3d eb75 53bd 17da ddbc
00000020: 64b5 a63c f460 9eba f37c 8fba d198 79bd
00000030: 6520 13bd f2cb bc3d ed94 c6bc aef4 473d
00000040: 1145 a1bd 8128 943a 5fef 94bc d9a4 ef3d
00000050: eb6a 9abd c481 97bd f8a9 e53d 1338 633c
00000060: ffbb 8d3b 49f4 7a3d 33f7 d3bc 4274 2c3d
00000070: eb5e 77bc 91bd bd3d 37f5 4a3d 36f2 8cbd
00000080: 6c8e 363b 42aa 07bd 06d4 a5bd f27f 37bd
00000090: cbab f23d 824b 9a3d 779a 8a3d e86e b8bd
000000a0: 704b 053d 9fdd d43a ae37 373c 0a09 fbbd
000000b0: 40f4 c83d d803 753b 52a5 38bc 84d1 f1bd
000000c0: 1d89 e5bd e9da 963d e6bf a2bd a74f 33bd
000000d0: 5c6a e9bd 690b 5c3d 528e d3bd 352d cebd
000000e0: 5145 f63d 849c 72bd da7d 55bd ade9 e43c
000000f0: 9371 3a3d 813f 88bd 3127 263d 337b d93d
00000100: b6fa c73c c0ed 763d ed56 9cbd c27d aa3d
00000110: 0681 d2bd 7bed 613d 7982 c73d e169 28bd
00000120: 0f82 cebd 967b 513d eb13 cc3d 9abd 3fbc
00000130: db8e 6fbc 8639 853d fa0f aabb 0b35 3d3d
00000140: 0238 f03d 3e51 0f3d fecc 9ebd 7e67 84bd
00000150: c8e6 65bc 3689 753d fb89 283d 142e bcbd
00000160: fbab 973c f37e 90bd 4cda 0bbd 860f 433d
00000170: 66d8 9bbd 4739 b03d 0f5e b0bb f7d4 513d
00000180: 36d6 163d f4a4 90bc 274a d8bd 1cf0 2dbc
00000190: db61 bdbd 56a2 bfbd 63be 893c c9b1 8cbd
000001a0: 5cd9 b8bd 3103 493d d28d bb3d e328 aebc
000001b0: 9df5 a7bc f085 7ebd 4a86 613d 64da c3bd
000001c0: ece5 a13c dc79 003e 579b eabd 42a7 37bd
000001d0: 5d81 813d 5824 b4bd 42f2 81bd f6e0 623c
000001e0: 9e90 ed39 6d7b c1bc 404b f03d 7d8b 253d
000001f0: 09bd 87bd 69e9 1f3c f9f1 bc3d 2628 77bd
00000200: 0356 013e 5d61 e33c 597b e9ba 8bac 9f3d
00000210: da4f f6bd a779 c13d 8c89 8dbd 69c3 52bd
00000220: 2378 a9bd 0949 e6bd 6505 1a3e d548 8f3d
00000230: c76c e13d 8981 2b3d df4c 4cbd 0d7c 70bd
00000240: cbfa 0c3e a2d2 9d3c 2418 9a3d 4aae 083d
00000250: e028 263e 652a 9ebd 4ff7 4ebd c5cf b0bd
00000260: a500 1ebd fdc9 203d c004 babd 1451 e6bd
00000270: 0f44 653d 266a 86bd 1b9b 85bd 9841 8fbd
00000280: 25bc 28be 2f7d 14bd e5cb 143e 944e d93c
00000290: 9171 9ebd 623c b5bd dbba 16be b358 a83d
000002a0: 8081 013e 6abf 40bd 0932 91bd 6f9d 923d
000002b0: e66c b73d e713 b2bd 38e8 b0bd 3572 d73c
000002c0: f94d bd3d 0539 2c3c e848 1bbe eef6 b6bd
000002d0: b29e 9dbb 1fab 003d bb37 783c 5a87 583d
000002e0: 23e4 e9bd efe8 b3bc a796 9f3c 37b9 bdbd
000002f0: b9f4 0dbd 461d 3cbd c4b0 793d c469 a5bc
0.12103094 -0.021019671 0.008136846 0.10996717 -0.080846965 0.090837784 -0.051626127 -0.027081532
0.020350166 -0.0012083338 -0.0010947272 -0.060936753 -0.035919566 0.09218587 -0.024240935 0.04881733
-0.078745015 0.0011303575 -0.018180547 0.11701364 -0.07539924 -0.07397798 0.112140596 0.01386835
0.0043253894 0.061268125 -0.02587471 0.04210306 -0.015098314 0.092646725 0.04955026 -0.068821356
0.0027855886 -0.033121355 -0.08097081 -0.044799753 0.11849173 0.07533933 0.06767743 -0.09005529
0.032542646 0.0016240365 0.011182709 -0.122575834 0.09812212 0.0037386324 -0.011269884 -0.1180754
-0.11207793 0.073659725 -0.07946758 -0.043777134 -0.113972396 0.05372182 -0.1032988 -0.10067216
0.1202494 -0.059231296 -0.052121975 0.027943457 0.04551847 -0.066527374 0.04056472 0.106192015
0.02441154 0.06028533 -0.07633767 0.08324768 -0.102785155 0.05515812 0.097416826 -0.0411166
-0.100834005 0.05114325 0.099647366 -0.011702919 -0.014621462 0.06505112 -0.005189893 0.046193164
0.11729433 0.034989588 -0.07753943 -0.06465052 -0.014032073 0.059945308 0.041147213 -0.09188476
0.018514624 -0.07055464 -0.03414373 0.047622226 -0.07609634 0.08604675 -0.0053823064 0.05122849
0.03682538 -0.01765678 -0.105610184 -0.010616329 -0.0924718 -0.09357135 0.016814416 -0.06869847
-0.09025833 0.04907531 0.091579095 -0.02125973 -0.02050286 -0.06213945 0.05505971 -0.09563139
0.019762956 0.12546486 -0.1145541 -0.044837244 0.06323502 -0.087959945 -0.06345035 0.01384758
0.0004531191 -0.023618424 0.11733103 0.04041623 -0.066278525 0.009760239 0.0922584 -0.060341023
0.12630467 0.027756387 -0.001781325 0.07796582 -0.12026949 0.094470315 -0.069110006 -0.05145589
-0.082748674 -0.11244399 0.1504112 0.069963135 0.11007076 0.04187158 -0.049877997 -0.058712054
0.13767545 0.019265477 0.07524136 0.03336934 0.1622653 -0.0772293 -0.05052882 -0.08633379
-0.038574833 0.03925513 -0.09082937 -0.11245933 0.05597311 -0.06563215 -0.06523725 -0.06994933
-0.16478021 -0.036252197 0.14530905 0.026526727 -0.07736505 -0.08849408 -0.14719717 0.08220043
0.12647057 -0.047057547 -0.070896216 0.07158934 0.089563176 -0.08695202 -0.08638042 0.026299575
0.09243388 0.010511641 -0.1516453 -0.08933817 -0.0048101777 0.031413194 0.015150006 0.052863456
-0.11420467 -0.021961657 0.019481016 -0.092638426 -0.034657214 -0.045926355 0.060959592 -0.020192035

linear.weight f4 [2, 64]
00000000: 39b6 c0bd 2cf6 f9bc 34a1 71bd d876 24bd
00000010: 8cd0 ccbc b54c c43d 0634 423b 46ce cbbd
00000020: 0664 793c a9e0 39bd 0822 313d b6c4 74bd
00000030: 19d3 7bbd 86d1 bd3d 2ad9 503d 3606 293d
00000040: 32a3 023d c446 043d eac7 9dbc fbf3 5e3d
00000050: 0566 b43d b27d de3c eeae c7bd 4508 b23d
00000060: c085 b43b 72e7 993d 1c20 bc3c b6d5 4b3d
00000070: dda3 5ebd 2f4f d73c 7e5f a23d 065d 7e3d
00000080: 6e88 f5bd 4c38 2d3c 7ace f7bd 4672 c9bd
00000090: 92ba d13d fb0a 803d 8744 9d3d 3a75 b03d
000000a0: 35de 5abd f0b2 4e3c 2547 86bd 1d8f aabd
000000b0: cf69 3fbc 5992 cc3c 99d8 c13d 5fec 1abd
000000c0: 9f30 4e3d 7fa3 b53d b594 06bd 0864 d03d
000000d0: 1437 373d 9fa2 cebb 48e3 5b3d 8a40 9d3c
000000e0: a239 523d 54de f83d ff8b 7fbd f56d 00be
000000f0: 1ef0 6c3d 93b5 ff3c 74dc d4bd b832 833d
00000100: 9a18 9ebd 48ec a7bd 551c fd3d a2a3 afbd
00000110: 79a4 6f3d 44db cc3d 2ea4 f33d bb1a e23d
00000120: a661 f33d 2c2f 58bb 3ddb 07be a695 81bb
00000130: f4db e1bd 97ed 85bd d1b7 893b 270d ef3d
00000140: 07e5 e33d 366c a0bd 68ea c33c 6c13 8bbd
00000150: ab8f 20bb 3571 62bd 0519 f0bd 5320 873d
00000160: 822d 9b3d 6485 44bd ce72 1a3c 34f1 9dbc
00000170: ece9 90bd 4ee7 07bd def1 e4bd 7a48 ba3d
00000180: 047d 063d 02ad 7fbd 4828 403d 4cdd 98bd
00000190: 4521 c4bd e8cc 9fbd f681 90bd b7ac 003c
000001a0: a69c fdbd 5e32 d5bd 4c5e 003c 7ee3 283d
000001b0: 95ed 653d 0bab 933d 6ee5 66bd 30ef 853d
000001c0: 00e5 a73d e650 bdbd eed2 f4bb 15c2 843d
000001d0: 6b34 093c 430d f9bd 6a36 e6bd cdd6 95bb
000001e0: 437b c8bb c4c5 a3bd 80ff 193c a4b1 d5bd
000001f0: 47f5 c33c 0507 633d b184 21ba e2eb ddb9
-0.09409756 -0.030512892 -0.058991626 -0.0401524 -0.025001787 0.09584943 0.002963306 -0.09951453
0.015221601 -0.04538027 0.043245345 -0.05975791 -0.061480615 0.09268479 0.050988354 0.04126569
0.031893916 0.03229405 -0.019260366 0.054431897 0.08808521 0.027159546 -0.09750162 0.086929835
0.0055091083 0.07514848 0.02296453 0.049764358 -0.05435549 0.026282875 0.0792837 0.062100433
-0.119889125 0.010572504 -0.12099929 -0.09836249 0.102406636 0.06252094 0.07679086 0.08616109
-0.05343457 0.012615904 -0.065565385 -0.08328078 -0.011682942 0.024972128 0.09465141 -0.037823077
0.050339337 0.08869075 -0.03285666 0.101753294 0.04473026 -0.006306007 0.05368355 0.019195814
0.051324494 0.12151781 -0.06238937 -0.12541945 0.05784618 0.031214511 -0.103936106 0.06406158
-0.07719536 -0.08199364 0.123589195 -0.08576132 0.058506463 0.10002759 0.11896549 0.11040255
0.11883859 -0.00329871 -0.13267227 -0.003954607 -0.11028281 -0.06539457 0.004202821 0.116724305
0.11127668 -0.078331396 0.023915485 -0.06790814 -0.0024499695 -0.055283744 -0.11723522 0.06597962
0.07577039 -0.047978774 0.009426786 -0.019280054 -0.07075867 -0.033179574 -0.11178945 0.09095855
0.032834068 -0.062420852 0.046913415 -0.07464084 -0.09576658 -0.07802755 -0.07056038 0.007853678
-0.12383394 -0.104099974 0.007834982 0.04123258 0.05613478 0.07210358 -0.056371145 0.06539762
0.08197975 -0.09243946 -0.007471434 0.06482331 0.008374314 -0.121607326 -0.112408474 -0.0045727254
-0.0061182096 -0.07996705 0.009399295 -0.10434273 0.023920668 0.055426616 -0.0006161435 -0.0004232815

linear.bias f4 [2]
00000000: 18c5 d2bc 604a 333c
-0.025728747 0.010943025

linear_final.weight f4 [5, 64]
00000000: fc7c 553d f317 f3bc 0cb2 d3bd 8dd9 85bd
00000010: 8796 433d b934 d1bd f34c 6f3c 0fdd 863d
00000020: af84 78bc 3574 31bc a158 15bd cab2 bd3d
00000030: 116d a3bd 453c 28bc 24a2 3c3d f989 34bd
00000040: 7b55 83bd 2395 93bd d0b4 c73d bc2a b63d
00000050: 2e5c 263d 0350 3dbd cb3b 02bc 174a 27bd
00000060: 6888 ae3d cd89 adbd 1707 633d db91 a33d
00000070: a168 0c3d b0fa 803d 0456 c13d 5e2d 1d3d
00000080: ed23 d0bd 358b c7bd 4706 a23c 3290 323d
00000090: c110 ba3d c02f 3bbd ae54 8c3c cdaa 6d3d
000000a0: 71d0 833d 64a2 ef3b 0a34 7bbc af7b a03b
000000b0: 3fce e23d 1187 37bd 7080 c4bd 3f3b 54bd
000000c0: be1c d33c ab60 a03c 87e5 abbc 18e1 c3bd
000000d0: 8233 a4bd ba6f 743d bc19 ffbc 485f b63c
000000e0: 26c7 b33c 77c8 af3d 187b 423d eafb d03d
000000f0: 7cf2 633d 8e69 52bc ec72 84bd 1c18 9f3d
00000100: 3812 19bd d73b 25bd f324 713d c71f c5bd
00000110: e5c7 a2bc 5493 38bd 65f0 b7ba e589 1dbc
00000120: 8832 a9bd e866 8b3d e9d9 20bb ab41 ca3a
00000130: 7bc0 4a3d 7d03 e2bc 4e3b 653d f10a 8dbc
00000140: b37b 20bc 159a 703d f169 b6bc fc4a 063d
00000150: 0f6b 7cbd 744a 08bd 7f61 b13d 91c8 47bd
00000160: bb53 753c 07cf 9b3a 54de 063d 3019 87bd
00000170: 5699 a7bd 18be 6fbd deaf 45bc 3292 9fbd
00000180: 88bc a93d 4065 a63c a964 76bd ebad 623c
00000190: 1015 933d 77a9 17bc 0371 8d3b 9933 7abb
000001a0: 0e3e 18bd 7d2b 84bc 9fc5 32bd 5ce6 38bd
000001b0: aa11 d3bc 627a 903d 5566 a6bd e8d5 bb3c
000001c0: 2558 3dbc afe0 c43d dae8 89bc 971a 49bd
000001d0: c196 c737 880b 303d 9f8f 1bbd 98e8 0b3d
000001e0: 6ba5 8cbd 90d0 733d c23c 273d bb24 76bd
000001f0: cfd2 7fbd 6097 3dbd e7b5 b8bd 1e56 35bd
00000200: fb07 ecbd 8e19 083e e4e7 18bd 7bc5 dbbd
00000210: 3f35 cbbd a7e8 e7bb 8bb8 c53d 0ca7 cabd
00000220: ba04 dd3d 73b6 19bc f4b8 34be 845e 15be
00000230: f554 b0bd ca39 f5bd 147e 9fbc b699 0b3c
00000240: 2774 2cbe 02d7 cf3c b5d4 d43d 8ad2 d73d
00000250: bbae 40be b37e e03d dc8d 5abd effc 0b3b
00000260: 5e74 3a3d 5b34 12bd fc9b 9f3d 5e14 593e
00000270: d27b 2e3d 0232 933d a9a7 fb3d 3b24 e63d
00000280: e485 3d3e 6c22 5a3d 9cee 1ebe 4a12 b73d
00000290: f725 a93d 9aee 763d c241 acbb 8664 92bd
000002a0: b4b3 8dbc 9189 03bd 1ad6 30be e7db 02be
000002b0: ae15 ce3d 31ed 81bd 63de 933d 9df7 03be
000002c0: a06d 41bb 31cc cd3d 6c90 263e 6f8d d8bc
000002d0: fcb6 35be f9f4 66bc 0e57 87bd 0ceb ef3c
000002e0: bb1b 1ebd c0de 6e3d bdc4 1abc 6ca9 81bb
000002f0: d14e 2a3e 92d5 a73d 1661 eabd 7359 97bd
00000300: 9ae6 19be 73bc 0c3e 00c0 15bc 4b47 2dbe
00000310: afca 103d dd31 823d 9ad5 f53d cb79 a23c
00000320: c664 093e cba5 6c3e cb44 a8be 4d4d 9ebe
00000330: 4853 203d 5aaa 003d 1415 8fbd 1e1d 753d
00000340: 89d1 53be 388e 013e d79a aa3c bb89 153d
00000350: 587c 9ebe 1dd5 a4bd 9721 293d 5941 0a3e
00000360: 48c0 283c 3dff f43b 61bd 363d 1600 963e
00000370: d818 fb3c 28a0 cc3d 2b29 bb3d cfec cf3d
00000380: 86f4 693e 1538 aa3d df64 63be 11ad c63c
00000390: 6d55 353e 0863 9cbd 2cd0 f73d 701b c1bc
000003a0: 9934 aabd 01d7 0c3e 3e68 5abe 5ac0 2bbe
000003b0: 9aee 143d 741f c6bd 6def b33d abf1 31be
000003c0: 1405 70be aa42 0d3e 14a5 453e 3d79 b33d
000003d0: 543f 17be 0587 5ebe 641b 63bc 5a64 d43d
000003e0: df0a 49bd 5451 ea3c b853 b53d 1f4a acbd
000003f0: 540b 2e3e 1a33 febd 32a8 13be 63f9 f4bd
0.052121148 -0.029674506 -0.10336694 -0.06535635 0.047750976 -0.10215134 0.0146057485 0.06585132
-0.015168353 -0.010830929 -0.036461476 0.09262617 -0.07979787 -0.010268276 0.046053067 -0.044076893
-0.064127885 -0.0720618 0.09751284 0.0889487 0.040615253 -0.046218883 -0.007948826 -0.040842142
0.08522111 -0.08473549 0.055426683 0.07986804 0.03427947 0.06297815 0.09440234 0.038373344
-0.10163102 -0.097433485 0.019778384 0.043594547 0.09085227 -0.045699835 0.017130222 0.058024216
0.064362414 0.0073130596 -0.015332231 0.0048975567 0.110744946 -0.044806544 -0.0959481 -0.051814314
0.025770541 0.019577345 -0.02098347 -0.095644176 -0.08017637 0.059676863 -0.0311402 0.02226223
0.021945547 0.085831575 0.047480673 0.10204299 0.055651173 -0.012842549 -0.06467232 0.077682704
-0.03737089 -0.04034027 0.05887313 -0.09625202 -0.019870708 -0.045062378 -0.0014033435 -0.009615396
-0.08261591 0.06806737 -0.0024543947 0.0015430948 0.04949997 -0.027589554 0.05596476 -0.017217131
-0.009795117 0.058740694 -0.022267314 0.032786354 -0.061625537 -0.03327413 0.08661174 -0.04877526
0.014973576 0.001188726 0.032926872 -0.06596601 -0.081835434 -0.058530897 -0.012065856 -0.077915564
0.082879126 0.020311952 -0.06015459 0.013835411 0.07181752 -0.009256712 0.0043164506 -0.0038177727
-0.037168555 -0.016134018 -0.043645497 -0.045141563 -0.025765259 0.07054593 -0.08124987 0.022929147
-0.01155666 0.096131675 -0.016834665 -0.049097624 2.3792849e-05 0.042979747 -0.037978765 0.034157366
-0.068674885 0.059525073 0.040829428 -0.060093623 -0.062456902 -0.04628694 -0.0901907 -0.04427158
-0.1152496 0.13290998 -0.037330523 -0.10731026 -0.09922265 -0.007077295 0.096543394 -0.09895143
0.10791917 -0.009381878 -0.17648679 -0.14586836 -0.08609954 -0.11973913 -0.019469298 0.008520534
-0.16841184 0.025371078 0.10392133 0.10538204 -0.18816654 0.10961666 -0.053357944 0.0021360477
0.045521133 -0.03569446 0.077934235 0.21199176 0.042598553 0.071872726 0.12287838 0.11237379
0.18508106 0.053255484 -0.1552071 0.08939035 0.08259194 0.060286142 -0.0052568624 -0.071480796
-0.017297603 -0.032113615 -0.17269173 -0.12779199 0.10062729 -0.06344069 0.07220151 -0.12887426
-0.0029514804 0.10048712 0.1626603 -0.026434628 -0.17745584 -0.014096492 -0.06608401 0.029286884
-0.038600665 0.0583179 -0.00944632 -0.0039569642 0.16631629 0.08195032 -0.11444299 -0.07390108
-0.15029374 0.13743763 -0.009140015 -0.16921727 0.035349544 0.06357167 0.12003632 0.019833466
0.13417348 0.2311012 -0.32864985 -0.3091835 0.039141923 0.03141246 -0.06986442 0.05984222
-0.206854 0.12651908 0.020825787 0.036508303 -0.30954242 -0.08048461 0.0412918 0.1350149
0.01029975 0.007476716 0.0446142 0.2929694 0.030651495 0.09991485 0.091387115 0.101525895
0.22847185 0.08311478 -0.22206448 0.024252446 0.17708369 -0.07636076 0.121002525 -0.023572654
-0.083108135 0.13753892 -0.21328828 -0.16772595 0.03636036 -0.09673968 0.08785901 -0.17377345
-0.23439437 0.13794962 0.19301254 0.08763359 -0.14770252 -0.21731193 -0.013861511 0.10370703
-0.049082633 0.028603233 0.08853859 -0.08412575 0.16996509 -0.124120906 -0.1441963 -0.11961629

linear_final.bias f4 [5]
00000000: 1ce1 2dbc 6e05 3a3d 4053 f2be e26c 4dbf
00000010: 432d 9dbd
-0.010612752 0.045415334 -0.4732914 -0.80244267 -0.076746486
