results2_checkpoint/zara2/val_best.pth (torch_old, 55823 bytes, 10 tensors)

gcn.gc1.weight f4 [2, 2]
0.05727103 -0.0059858696 -0.00084902294 0.064548105
00000000: 0795 6a3d 1d25 c4bb f790 5eba cc31 843d

gcn.gc1.bias f4 [2]
0.009117746 0.0045369556
00000000: 9962 153c beaa 943b

grucell.weight_ih f4 [192, 2]
-0.044099025 -0.0941947 0.016075999 -0.042950284 -0.090123214 -0.048977498 -0.07561466 -0.006504414
-0.029937442 0.010683078 0.004195706 -0.11730975 0.071704715 0.0849388 0.094245836 0.023383606
-0.11121825 0.077222735 0.09347384 0.08105628 0.07086282 0.056789827 -0.04608694 0.009945524
-0.020124992 -0.091778666 0.004630877 -0.035025652 0.1153349 -0.12268266 0.07896817 0.09128637
-0.016930541 -0.059995294 0.09526518 0.09256953 0.09667585 -0.048552595 -0.114025526 0.113594174
0.09303872 -0.055129793 0.1178684 -0.028000798 0.06385312 -0.040962163 -0.10028531 0.05518149
0.069714405 -0.06516011 -0.02203822 -0.062182996 0.053291295 0.107051834 -0.09487629 0.111361526
0.08922133 -0.01788551 -0.048489433 0.068197936 -0.105092555 -0.12394281 -0.06359154 0.1101256
-0.05369645 -0.021511076 0.020491157 -0.0044320812 0.11894183 0.11436101 -0.05590708 -0.070064545
0.082551785 0.04400475 -0.08243296 -0.045780834 -0.0825485 -0.07325146 -0.12492754 -0.06563323
-0.020458635 -0.11384045 -0.11534089 -0.032778777 -0.11465477 -0.0937262 -0.0037973728 -0.013077456
0.074498214 -0.04177286 -0.015111295 -0.07124789 0.0035392218 -0.04830638 -0.015933521 -0.044609964
0.021473426 0.098210655 0.028666496 0.03737376 -0.0459954 0.11241855 -0.019430961 -0.11441417
0.09356867 -0.09885003 -0.036249198 0.04055793 0.015161352 0.032521147 0.1174729 0.05531355
0.09057699 -0.08643924 -0.073538624 0.09219549 -0.040870782 0.029902587 -0.057910636 -0.043354735
-0.015400466 -0.12461758 -0.111704946 -0.05884484 0.117165014 -0.019657025 0.017848767 -0.018665027
-0.015765132 0.056511212 -0.08241655 -0.058857612 -0.032366972 -0.054863308 -0.085045725 0.049930163
0.12439636 0.040243123 0.04119975 -0.04370515 0.018022437 0.11365883 -0.061253283 -0.10794005
-0.124073476 0.11494128 -0.11202918 -0.11213486 0.040642742 -0.004017948 -0.050353844 -0.06548858
0.10050152 -0.100060746 -0.11342836 0.12243519 0.11230853 -0.04189654 -0.05687142 0.10896528
0.111827895 0.110385 0.08746144 0.0068117413 0.09568233 0.053861864 0.07152712 0.07459766
0.084084034 0.077321135 0.04611953 0.04501698 -0.017154263 0.091482945 0.08543408 0.103605404
0.013846597 -0.11315389 0.1010105 -0.023451494 0.03161424 0.06387059 -0.10382162 0.057359938
0.02588144 0.089652225 -0.04251536 0.017600764 0.11645941 0.029923476 -0.08912906 0.119956486
0.0005698528 0.052868076 -0.038178064 -0.117484756 -0.04699335 -0.10691597 0.08014157 -0.055671062
-0.06252926 -0.062275413 0.08043334 -0.08864019 0.10234595 0.0073611136 0.09263158 -0.09440491
0.038290065 -0.04215295 -0.04605981 -0.02461196 0.0067747477 -0.052037153 0.02693785 0.060398318
0.015541339 0.115031235 0.01049099 0.103396945 0.016853696 -0.027619755 0.10204353 -0.02127255
-0.07222384 -0.10043253 0.04394208 -0.118631534 -0.005560374 0.014641069 -0.050968815 0.10359203
0.07319474 -0.07918952 -0.018978065 0.07193955 0.019134082 -0.023892982 0.09265462 -0.108880594
-0.05069267 -0.05705158 -0.009476416 0.087652564 0.044551637 0.09852274 0.032915905 -0.083967224
0.01045456 -0.11819356 0.06985493 -0.10752963 0.019764392 -0.058883373 0.104395695 0.012029484
00000000: 2ea1 34bd 27e9 c0bd d0b1 833c a3ec 2fbd
00000010: 8592 b8bd a19c 48bd dcdb 9abd fb22 d5bb
00000020: 5e3f f5bc 1408 2f3c 227c 893b 1840 f0bd
00000030: ecd9 923d 65f4 ad3d f603 c13d fa8e bf3c
00000040: 65c6 e3bd f426 9e3d 366f bf3d d600 a63d
00000050: 8720 913d 739c 683d a9c5 3cbd 8df2 223c
00000060: 2bdd a4bc 74f6 bbbd 9dbe 973b 0f77 0fbd
00000070: b434 ec3d 0c41 fbbd 10ba a13d 59f4 ba3d
00000080: ebb1 8abc a0bd 75bd 641a c33d 1895 bd3d
00000090: fdfd c53d 16df 46bd 3786 e9bd 10a4 e83d
000000a0: 168b be3d c7cf 61bd fd64 f13d ee61 e5bc
000000b0: 6dc5 823d f1c7 27bd 6262 cdbd fc05 623d
000000c0: 6dc6 8e3d aa72 85bd 7f89 b4bc 99b3 7ebd
000000d0: f947 5a3d fe3d db3d 804e c2bd 8311 e43d
000000e0: acb9 b63d a284 92bc db9c 46bd 5cab 8b3d
000000f0: c43a d7bd bad5 fdbd 483c 82bd 8889 e13d
00000100: cff0 5bbd ff37 b0bc 12dd a73c fe3a 91bb
00000110: c697 f33d 1b36 ea3d d3fe 64bd 007e 8fbd
00000120: e910 a93d 533e 343d 9dd2 a8bd af84 3bbd
00000130: 300f a9bd dd04 96bd 03da ffbd b76a 86bd
00000140: de98 a7bc 2f25 e9bd d837 ecbd 0a43 06bd
00000150: 1fd0 eabd 86f3 bfbd 58dd 78bb d342 56bc
00000160: 8592 983d 051a 2bbd 5d95 77bc 6aea 91bd
00000170: 4af2 673b e9dc 45bd 0487 82bc f0b8 36bd
00000180: 0ae9 af3c ab22 c93d 00d6 ea3c 3a15 193d
00000190: ac65 3cbd b23b e63d ae2d 9fbc fa51 eabd
000001a0: eea0 bf3d e271 cabd 0a7a 14bd 1220 263d
000001b0: 5267 783c e534 053d a295 f03d 7690 623d
000001c0: 6e80 b93d 0e07 b1bd 6b9b 96bd fdd0 bc3d
000001d0: 1f68 27bd 45f6 f43c b433 6dbd bc94 31bd
000001e0: 3c52 7cbc 8037 ffbd 90c5 e4bd 4907 71bd
000001f0: 36f4 ef3d c507 a1bc 9437 923c 66e7 98bc
00000200: e125 81bc 4d78 673d 02ca a8bd ae14 71bd
00000210: 3b93 04bd 59b8 60bd 742c aebd 9283 4c3d
00000220: 85c3 fe3d f9d5 243d 12c1 283d 2c04 33bd
00000230: caa3 933c f6c5 e83d b9e4 7abd ac0f ddbd
00000240: 3c1a febd 5566 eb3d 8e6f e5bd f6a6 e5bd
00000250: 0179 263d fea8 83bb d53f 4ebd e01e 86bd
00000260: bed3 cd3d a6ec ccbd 214d e8bd 4dbf fa3d
00000270: 0402 e63d b59b 2bbd 02f2 68bd 3029 df3d
00000280: 0606 e53d 8811 e23d fc1e b33d 0735 df3b
00000290: 19f5 c33d 429e 5c3d d07c 923d a8c6 983d
000002a0: 4034 ac3d 8b5a 9e3d d5e7 3c3d ba63 383d
000002b0: 1987 8cbc 695b bb3d 10f8 ae3d 122f d43d
000002c0: d6dc 623c 3abd e7bd 98de ce3d 591d c0bc
000002d0: ef7d 013d 95ce 823d 6ea0 d4bd 41f2 6a3d
000002e0: 5005 d43c 969b b73d 9624 2ebd 7a2f 903c
000002f0: 4582 ee3d 1422 f53c 4c89 b6bd bfab f53d
00000300: 2d62 153a 328c 583d 9a60 1cbd d99b f0bd
00000310: 197c 40bd c3f6 dabd 4321 a43d 5707 64bd
00000320: 570f 80bd 8114 7fbd 3cba a43d fd88 b5bd
00000330: c19a d13d 7f35 f13b a0b5 bd3d 5d57 c1bd
00000340: 0bd6 1c3d 92a8 2cbd 36a9 3cbd 059f c9bc
00000350: b4fe dd3b e924 55bd c4ac dc3c 3a64 773d
00000360: 1aa1 7e3c 7f95 eb3d 67e2 2b3c c7c1 d33d
00000370: c310 8a3c d342 e2bc 33fc d03d c543 aebc
00000380: 18ea 93bd 92af cdbd 9cfc 333d 17f5 f2bd
00000390: cc33 b6bb 18e1 6f3c adc4 50bd 0f28 d43d
000003a0: 20e7 953d 1d2e a2bd e377 9bbc 0b55 933d
000003b0: 14bf 9c3c 37bb c3bc b5c1 bd3d cafc debd
000003c0: 1ea3 4fbd ebae 69bd f842 1bbc 3083 b33d
000003d0: c77b 363d 4ac6 c93d d4d2 063d 02f7 abbd
000003e0: 9a49 2b3c 770f f2bd 1a10 8f3d 7f38 dcbd
000003f0: efe8 a13c b12f 71bd 69cd d53d 5017 453c

grucell.weight_hh f4 [192, 64]
-0.06102807 -0.0039323033 0.04744837 0.10176624 0.11565566 -0.057525147 0.036014758 -0.015349686
-0.0041418523 0.065474555 -0.09875967 -0.090231724 -0.11848607 -0.114744514 -0.046068266 0.123426534
0.11909098 0.09683105 -0.06288212 -0.009135656 -0.05770457 0.0075692683 0.100232966 0.0050350665
-0.08654146 0.0153131895 0.09730032 0.03707211 -0.084777035 -0.05569835 -0.0712972 0.030245248
0.005694387 -0.10818478 -0.0136110885 0.10347292 -0.029076377 -0.070396736 -0.020733848 0.040957626
0.0172439 0.10551214 -0.096795104 0.12344473 -0.026385793 0.0677006 -0.005612677 0.054406922
0.015396352 -0.013731134 -0.012378138 -0.039631587 0.05420402 -0.11301525 -0.08607705 -0.11688382
-0.024339134 -0.03620437 -0.094532385 0.04126889 0.11204063 -0.02243903 0.05917264 -0.086695276
-0.05452746 0.0013843402 0.049244754 -0.1095354 0.1214793 -0.08198607 0.092085585 -0.08551008
0.0705082 0.045951765 0.06301033 -0.11984299 -0.123688936 0.07387241 -0.05982667 0.0580484
0.101735346 -0.11304566 0.020337196 0.11086608 -0.0831497 -0.008402006 0.045692507 0.11650889
-0.08145045 -0.121109255 -0.09972573 -0.09165999 -0.12024991 -0.038189854 0.100924626 0.09483571
-0.053400908 -0.081854016 0.10461366 0.067227 -0.008865983 -0.0013170219 -0.06655498 0.12207316
-0.120550044 -0.061373126 0.043923445 -0.08998707 0.11402142 0.10010372 -0.066530146 0.07966089
0.042990364 -0.12156273 0.05889457 0.038181905 -0.010257585 0.0625557 -0.0022715346 -0.08313368
0.0699046 0.06929721 -0.04135078 0.016823646 -0.095444456 0.08316283 -0.0033227052 0.04037017
-0.1123893 -0.06986796 -0.042941652 0.07819618 0.038261 -0.10390256 -0.076582305 -0.055312473
-0.002943649 -0.101542704 -0.07629264 -0.04001526 -0.09804287 -0.037941683 -0.05983312 0.10853567
-0.044349637 0.0083762165 -0.03330868 0.04718102 -0.06152168 0.0047223186 0.07338122 0.10997292
0.052131042 -0.032399848 -0.1172078 -0.06802968 0.097060725 7.599387e-05 0.10848477 0.08172375
-0.031040173 0.024898779 -0.0860216 0.020315794 -0.0675677 0.054174323 0.11311795 -0.011934182
-0.07662627 -0.098858744 0.04071824 -0.092272475 -0.10682867 -0.044306427 -0.010025308 0.013703039
-0.09419541 0.009161365 -0.05482679 0.09642234 -0.08813232 0.06247943 -0.0056400686 -0.05531619
-0.103474945 -0.046074204 0.036857314 -0.12346978 0.037687875 -0.10892533 -0.015327754 -0.12303516
-0.05953957 0.046184182 0.060268372 -0.045589104 -0.034280337 0.051154304 -0.099450395 0.0026490625
0.11462872 0.103999004 0.10172891 0.0230191 0.09984802 0.0151822325 0.06714804 -0.040695384
0.034028243 -0.023642305 0.022414798 0.08454552 0.068590656 0.06477965 -0.116142966 -0.007454961
0.0756799 0.0071564466 -0.11018586 -0.10304282 -0.01791499 -0.08578174 -0.10090652 -0.09875435
-0.05552241 0.06727613 0.00036612464 -0.08229043 0.04824631 0.09983013 -0.009731313 0.053891703
0.10264148 0.061492015 -0.009739527 0.097602256 -0.09935507 0.013494656 -0.10223865 -0.0017396085
0.021599682 -0.10645113 -0.1202575 0.077416666 -0.05106084 -0.081507936 -0.10892589 -0.106274016
0.05824938 0.07605563 -0.111523926 0.019318208 -0.10549903 0.07809597 -0.1137349 0.027177094
00000000: 92f8 79bd 8dda 80bb 3959 423d d26a d03d
00000010: e0dc ec3d 7d9f 6bbd 3684 133d 407d 7bbc
00000020: 60b8 87bb 8617 863d 8342 cabd 69cb b8bd
00000030: d3a8 f2bd 2cff eabd 14b2 3cbd 0dc7 fc3d
00000040: f9e5 f33d 5c4f c63d 57c8 80bd b8ad 15bc
00000050: a15b 6cbd a007 f83b f146 cd3d 33fd a43b
00000060: a63c b1bd 2ce4 7a3c 6445 c73d edd8 173d
00000070: 959f adbd f423 64bd 4404 92bd e2c4 f73c
00000080: fb97 ba3b fb8f ddbd 0b01 5fbc 9ce9 d33d
00000090: 9531 eebc 2a2c 90bd 08da a9bc 2fc3 273d
000000a0: 1443 8d3c c016 d83d 833c c6bd 97d0 fc3d
000000b0: 0527 d8bc 9da6 8a3d 8cea b7bb cbd9 5e3d
000000c0: fb40 7c3c 8df8 60bc accd 4abc bb54 22bd
000000d0: 0905 5e3d 8a74 e7bd 2a49 b0bd c960 efbd
000000e0: dd62 c7bc 094b 14bd 329a c1bd 9109 293d
000000f0: 8f75 e53d 0fd2 b7bc 035f 723d 4b8d b1bd
00000100: 3058 5fbd c072 b53a deb4 493d 1954 e0bd
00000110: 24ca f83d 50e8 a7bd 5e97 bc3d e91f afbd
00000120: 9a66 903d eb37 3c3d 8f0b 813d 3e70 f5bd
00000130: a050 fdbd 6b4a 973d cf0c 75bd 29c4 6d3d
00000140: 9f5a d03d 7c84 e7bd 319a a63c c10d e33d
00000150: 644a aabd 91a8 09bc 1128 3b3d 379c ee3d
00000160: 7ecf a6bd 2108 f8bd 013d ccbd 3cb8 bbbd
00000170: 9645 f6bd f76c 1cbd 92b1 ce3d 3a39 c23d
00000180: e9ba 5abd 14a3 a7bd b03f d63d 4fae 893d
00000190: a142 11bc ec9f acba fa4d 88bd 7e01 fa3d
000001a0: f1e2 f6bd 6362 7bbd 12e9 333d 244b b8bd
000001b0: 1084 e93d 2e03 cd3d f540 88bd 4025 a33d
000001c0: aa16 303d e1f5 f8bd 6f3b 713d a164 1c3d
000001d0: 6e0f 28bc 341d 803d 07de 14bb fe41 aabd
000001e0: 252a 8f3d b2eb 8d3d 6f5f 29bd bed1 893c
000001f0: 6278 c3bd 4651 aa3d bec1 59bb 315b 253d
00000200: 5c2c e6bd ef16 8fbd 96e3 2fbd 5225 a03d
00000210: 91b7 1c3d deca d4bd 2fd7 9cbd 558f 62bd
00000220: 3cea 40bb 9ff5 cfbd 513f 9cbd 0be7 23bd
00000230: b3ca c8bd bd68 1bbd 9313 75bd f347 de3d
00000240: f7a7 35bd 663c 093c af6e 08bd e340 413d
00000250: 28fe 7bbd aebd 9a3b e548 963d 7b39 e13d
00000260: 5c87 553d b4b5 04bd a50a f0bd 2553 8bbd
00000270: c6c7 c63d e65e 9f38 432d de3d c85e a73d
00000280: f647 febc 86f8 cb3c 182c b0bd 4f6d a63c
00000290: ef60 8abd e5e5 5d3d 62aa e73d 9687 43bc
000002a0: 3cee 9cbd 7476 cabd 2bc8 263d 5af9 bcbd
000002b0: fdc8 dabd a87a 35bd 3041 24bc b682 603c
000002c0: 86e9 c0bd 8d19 163c 0e92 60bd 1379 c53d
000002d0: b87e b4bd 6eea 7f3d 53d0 b8bb 3b93 62bd
000002e0: acea d3bd 4eb8 3cbd b2f7 163d b9dd fcbd
000002f0: 9a5e 1a3d 3e14 dfbd 4321 7bbc dcf9 fbbd
00000300: c4df 73bd a02b 3d3d f8db 763d a4bb 3abd
00000310: 8a69 0cbd 2d87 513d a6ac cbbd e59b 2d3b
00000320: 76c2 ea3d 6efd d43d 3f57 d03d 8d92 bc3c
00000330: 1e7d cc3d e6be 783c e984 893d 34b0 26bd
00000340: 3361 0b3d 82ad c1bc 3d9f b73c 3426 ad3d
00000350: 4279 8c3d 31ab 843d 5ddc edbd bf48 f4bb
00000360: 10fe 9a3d a080 ea3b 20a9 e1bd 1d08 d3bd
00000370: 75c2 92bc 56ae afbd 14a8 cebd b83f cabd
00000380: 776b 63bd 11c8 893d 6bf4 bf39 e387 a8bd
00000390: ec9d 453d bd73 cc3d 1670 1fbc 8cbd 5c3d
000003a0: b235 d23d 0ddf 7b3d 8992 1fbc b1e3 c73d
000003b0: ac7a cbbd b118 5d3c 7f62 d1bd 9303 e4ba
000003c0: d1f1 b03c 0d03 dabd 9049 f6bd a18c 9e3d
000003d0: 2c25 51bd a2ed a6bd 8914 dfbd 31a6 d9bd
000003e0: e796 6e3d 0ec3 9b3d a866 e4bd 3841 9e3c
000003f0: e00f d8bd c8f0 9f3d d8ed e8bd 7fa2 de3c

grucell.bias_ih f4 [192]
0.010497095 -0.1002057 0.08520369 -0.08148847 0.053846177 0.03717215 -0.04024357 0.10114751
0.096275836 0.004455778 -0.038976796 -0.075907685 -0.06956926 -0.014230549 0.044111002 0.0848487
0.10774895 0.009837193 -0.027512815 0.09917068 0.051875427 0.07742228 0.025956152 0.022644155
-0.029892981 -0.06192585 -0.11928777 -0.06669304 0.00877049 -0.04099062 0.11848249 0.004883858
-0.060623717 0.014950192 0.029848391 -0.03288556 -0.11624061 0.06206882 0.047058813 0.09237784
-0.03872361 0.052924335 0.0001243506 -0.021344796 0.05977237 -0.08212156 -0.07417085 -0.07300454
0.096578255 0.056554474 -0.021558302 0.104420505 0.088582136 -0.11567664 -0.03453251 -0.08773407
-0.049915876 -0.069409676 0.009460018 0.025232557 0.003775052 -0.035040263 -0.045719765 0.042316042
0.013190235 0.01782632 -0.048711836 0.06948905 0.016096914 -0.027043564 -0.01406102 0.10255508
0.10986093 -0.099640846 0.11311831 0.007921903 0.09082984 -0.06605435 -0.108951114 0.09456815
0.0034286685 -0.022644602 0.08817234 -0.0842382 -0.012857883 0.117371194 0.06451233 0.099594004
-0.12301519 -0.05666944 0.03295709 0.025860159 -0.09085974 -0.058578406 -0.08747236 0.09307032
0.025972573 0.025125597 -0.04413641 0.04254847 -0.066182286 0.0074685197 -0.058133632 -0.00022010556
0.12059299 0.053046394 -0.08342262 -0.047873374 0.01589615 0.08477429 -0.07681251 0.10030955
-0.0556388 0.07890322 0.07378414 -0.11454381 -0.055817343 -0.05257433 -0.033695105 0.08136656
-0.08297934 0.10491989 -0.10079229 -0.07830029 0.04849965 0.09617132 0.0057989443 -0.05511715
0.039269336 -0.1488393 0.031433377 0.024905104 0.0677704 -0.019493371 -0.1072284 0.015919704
-0.13963121 -0.12093908 0.19524106 0.18088757 0.014496239 0.039721116 0.057873998 0.030585907
0.15617374 -0.07610993 -0.025547147 -0.004973877 0.21566957 0.026200835 0.05989914 -0.064473316
-0.032079067 0.004908449 0.021805244 -0.22027563 -0.04892785 -0.11012718 -0.040924326 -0.022102224
-0.09708504 -0.09946875 0.044334278 -0.060131434 -0.08775067 0.09817006 0.03359706 0.046091232
0.027259702 -0.041876137 0.1820014 0.016603874 -0.08476974 0.13047452 -0.107578866 0.087278485
0.110779375 -0.07869911 -0.050585985 0.06164991 0.15688626 0.16028188 0.014688705 -0.029212844
0.03267978 0.015034474 -0.06263784 0.11895686 -0.10475774 0.10966989 0.0073061786 0.10579116
00000000: 02fc 2b3c a538 cdbd 467f ae3d 6de3 a6bd
00000010: cf8d 5c3d d341 183d 71d6 24bd 6d26 cf3d
00000020: 442c c53d c601 923b 22a6 1fbd 7d75 9bbd
00000030: 547a 8ebd 4027 69bc bdad 343d 28c5 ad3d
00000040: 7bab dc3d 2e2c 213c 8e62 e1bc ff19 cb3d
00000050: 547b 543d 938f 9e3d ffa1 d43c 3c80 b93c
00000060: 20e2 f4bc f6a5 7dbd 254d f4bd 5c96 88bd
00000070: 1ab2 0f3c c8e5 27bd f3a6 f23d c508 a03b
00000080: 9350 78bd a6f1 743c 9d84 f43c 02b3 06bd
00000090: 8f0f eebd e03b 7e3d bec0 403d 9830 bd3d
000000a0: a69c 1ebd 30c7 583d 1c64 0239 48db aebc
000000b0: dfd3 743d 592f a8bd e3e6 97bd 6783 95bd
000000c0: d2ca c53d aaa5 673d 099b b0bc 6bda d53d
000000d0: 8d6a b53d e0e7 ecbd f671 0dbd ecad b3bd
000000e0: 9774 4cbd a926 8ebd 31fe 1a3c 82b4 ce3c
000000f0: dd66 773b 6186 0fbd a644 3bbd 9653 2d3d
00000100: db1b 583c 8108 923c 1086 47bd 4650 8e3d
00000110: addd 833c 778a ddbc 3160 66bc 6608 d23d
00000120: c4fe e03d 8010 ccbd 93aa e73d dfca 013c
00000130: ff04 ba3d 8147 87bd c321 dfbd f2ac c13d
00000140: 83b3 603b 2c81 b9bc b393 b43d 1485 acbd
00000150: dfa9 52bc 4f60 f03d 0a1f 843d f1f7 cb3d
00000160: 63ef fbbd 371e 68bd 03fe 063d afd8 d33c
00000170: ac14 babd e9ef 6fbd b524 b3bd a79b be3d
00000180: 6fc4 d43c 32d4 cd3c 61c8 34bd 4e47 2e3d
00000190: 948a 87bd 7cba f43b 881d 6ebd 23cc 66b9
000001a0: 75f9 f63d 2d47 593d 7bd9 aabd df16 44bd
000001b0: a538 823c 259e ad3d e14f 9dbd 186f cd3d
000001c0: 83e5 63bd 0398 a13d 241c 973d f295 eabd
000001d0: baa0 64bd 2e58 57bd e103 0abd 83a3 a63d
000001e0: 12f1 a9bd 3de0 d63d 306c cebd e75b a0bd
000001f0: 92a7 463d 78f5 c43d 1205 be3b 85c2 61bd
00000200: e2d8 203d 5469 18be 49c0 003d ca05 cc3c
00000210: 35cb 8a3d 90b0 9fbc 909a dbbd 0a6a 823c
00000220: 7cfb 0ebe e9ae f7bd 46ed 473e 973a 393e
00000230: a281 6d3c 9cb2 223d 490d 6d3d 4c8f fa3c
00000240: 02ec 1f3e 86df 9bbd 4048 d1bc e8fb a2bb
00000250: 7cd8 5c3e 22a3 d63c cd58 753d 960a 84bd
00000260: 5765 03bd 0ed7 a03b e9a0 b23c ef8f 61be
00000270: 9268 48bd 5c8a e1bd 44a0 27bd b90f b5bc
00000280: 85d4 c6bd 46b6 cbbd dc97 353d 614c 76bd
00000290: a0b6 b3bd 620d c93d 129d 093d 29ca 3c3d
000002a0: bd4f df3c 5086 2bbd 935e 3a3e d904 883c
000002b0: c29b adbd 1d9b 053e 4f52 dcbd 10bf b23d
000002c0: 4ce0 e23d 002d a1bd 4033 4fbd 9e84 7c3d
000002d0: cba6 203e ef20 243e e5a8 703c c64f efbc
000002e0: 3cdb 053d 2853 763c 4548 80bd a79f f33d
000002f0: 3a8b d6bd 9b9a e03d ab68 ef3b 09a9 d83d

grucell.bias_hh f4 [192]
0.12124949 -0.020764776 0.008134344 0.11003191 -0.08098385 0.091276094 -0.051630784 -0.027025247
0.020630106 -0.0007909687 7.4744436e-05 -0.060117234 -0.035830986 0.092309415 -0.0241379 0.048927948
-0.07837265 0.001181784 -0.018010449 0.11711439 -0.074359775 -0.07389059 0.11218438 0.014193228
0.0045211674 0.061378963 -0.025915902 0.043563034 -0.015048673 0.093007386 0.049549665 -0.06844344
0.0033337828 -0.033108555 -0.080001354 -0.044749387 0.11873048 0.07527252 0.06800383 -0.08981334
0.032624893 0.0019242808 0.0114191845 -0.122029394 0.09802982 0.0037082315 -0.011226142 -0.11756044
-0.11144726 0.07379623 -0.079060815 -0.043572973 -0.113595344 0.054033797 -0.10328503 -0.10052869
0.1201649 -0.059203085 -0.052103437 0.027879346 0.04603746 -0.0666769 0.04074479 0.10619126
0.024385132 0.06011635 -0.07652437 0.08313051 -0.1028589 0.055085797 0.09740451 -0.04107812
-0.10087055 0.05127941 0.09983044 -0.011591301 -0.0146915 0.06508114 -0.005253871 0.046210498
0.1172986 0.034996655 -0.07742194 -0.06472494 -0.014092981 0.059982166 0.041110426 -0.091816895
0.018466596 -0.070642754 -0.034234244 0.04779878 -0.0760164 0.08599857 -0.0054367576 0.051233914
0.036620025 -0.017792951 -0.10572203 -0.010650244 -0.092290565 -0.09359117 0.016823376 -0.06879552
-0.09019142 0.049114037 0.09168785 -0.021228326 -0.02067048 -0.062358737 0.054974463 -0.095651045
0.019702971 0.12527677 -0.114526466 -0.04463324 0.063131265 -0.087894134 -0.06357595 0.013826093
0.00052336464 -0.023709292 0.11720699 0.040493205 -0.066425934 0.009784334 0.09198989 -0.06032761
0.12850364 0.02321054 -0.0025256034 0.07864306 -0.11921712 0.09261406 -0.072620764 -0.05174742
-0.088894464 -0.11647226 0.15825574 0.07469973 0.11014923 0.040954463 -0.047766272 -0.059581783
0.14389326 0.01807281 0.07538115 0.03211816 0.16843742 -0.0775599 -0.05039227 -0.08960133
-0.0409528 0.03929293 -0.08988023 -0.11942081 0.05333098 -0.069942735 -0.06718418 -0.07161042
-0.16811088 -0.038618308 0.1488376 0.028089961 -0.0788247 -0.08619698 -0.14996627 0.08630626
0.12752765 -0.050235845 -0.06647208 0.074458934 0.088166356 -0.08266011 -0.08926104 0.030083707
0.098106004 0.008926458 -0.1540077 -0.08986058 -0.0001242159 0.036479395 0.015736474 0.05254062
-0.1147939 -0.020167666 0.017133974 -0.09076503 -0.039236978 -0.042433243 0.062443234 -0.019104486
00000000: a751 f83d e41a aabc e945 053c 6958 e13d
00000010: dcda a5bd f6ee ba3d cd7a 53bd 0d64 ddbc
00000020: 7800 a93c 0359 4fba 1dc0 9c38 7d3d 76bd
00000030: 83c3 12bd b80c bd3d d8bc c5bc ac68 483d
00000040: d781 a0bd 17e6 9a3a a68a 93bc abd9 ef3d
00000050: f049 98bd f353 97bd edc0 e53d b78a 683c
00000060: 4d26 943b 8268 7b3d 964d d4bc 276f 323d
00000070: b68e 76bc a87a be3d 97f4 4a3d 132c 8cbd
00000080: 987b 5a3b d69c 07bd c0d7 a3bd 224b 37bd
00000090: f728 f33d 7b28 9a3d 9845 8b3d 0ef0 b7bd
000000a0: aea1 053d 2638 fc3a 8817 3b3c 8cea f9bd
000000b0: dcc3 c83d cd05 733b daed 37bc 87c3 f0bd
000000c0: 763e e4bd 7a22 973d a3ea a1bd 9379 32bd
000000d0: ada4 e8bd 8b52 5d3d 1a87 d3bd fce1 cdbd
000000e0: 0419 f63d ef7e 72bd 6a6a 55bd 3a63 e43c
000000f0: c791 3c3d e68d 88bd 02e4 263d ce7a d93d
00000100: 54c3 c73c 903c 763d cfb8 9cbd 5440 aa3d
00000110: b0a7 d2bd a5a1 613d 047c c73d 8841 28bd
00000120: 3895 cebd 5c0a 523d e773 cc3d 71e9 3dbc
00000130: 9eb4 70bc 4349 853d aa28 acbb 3847 3d3d
00000140: 403a f03d a758 0f3d 658f 9ebd 828e 84bd
00000150: 3fe6 66bc dcaf 753d 6863 283d 7f0a bcbd
00000160: 4247 973c 26ad 90bd 3539 0cbd a7c8 433d
00000170: 7cae 9bbd 0520 b03d d426 b2bb a7da 513d
00000180: e1fe 153d 86c2 91bc cb84 d8bd 5c7e 2ebc
00000190: d602 bdbd baac bfbd 2dd1 893c aae4 8cbd
000001a0: 47b6 b8bd cd2b 493d d7c6 bb3d 07e7 adbc
000001b0: 2355 a9bc e06b 7fbd e72c 613d b2e4 c3bd
000001c0: 2068 a13c 8e48 003e da8c eabd 58d1 36bd
000001d0: f74a 813d d701 b4bd 1c34 82bd d686 623c
000001e0: 6832 093a fd39 c2bc 380a f03d 34dc 253d
000001f0: 520a 88bd 794e 203c 3265 bc3d 151a 77bd
00000200: 7596 033e 0824 be3c 9884 25bb 9d0f a13d
00000210: 1b28 f4bd 71ac bd3d 32ba 94bd 1af5 53bd
00000220: 4d0e b6bd 0289 eebd cb0d 223e 2cfc 983d
00000230: eb95 e13d debf 273d 91a6 43bd 070c 74bd
00000240: c158 133e 6e0d 943c 6f61 9a3d 558e 033d
00000250: dc7a 2c3e bad7 9ebd 2068 4ebd e780 b7bd
00000260: 20be 27bd a0f1 203d 2013 b8bd e692 f4bd
00000270: 9671 5a3d 233e 8fbd dc97 89bd 7ca8 92bd
00000280: 4225 2cbe 3b2e 1ebd e268 183e eb1c e63c
00000290: d86e a1bd 0b88 b0bd c290 19be 56c1 b03d
000002a0: 9c96 023e 1ac4 4dbd 8422 88bd ed7d 983d
000002b0: 9090 b43d b449 a9bd 7ece b6bd 1b72 f63c
000002c0: cdeb c83d 4740 123c 32b4 1dbe d308 b8bd
000002d0: f43f 02b9 6b6b 153d c7e9 803c d534 573d
000002e0: 1019 ebbd a936 a5bc 8c5c 8c3c 04e3 b9bd
000002f0: f4b6 20bd 7bce 2dbd 7ac4 7f3d 0381 9cbc

linear.weight f4 [2, 64]
-0.09409136 -0.030519264 -0.05899315 -0.04014515 -0.025001004 0.095839895 0.0029553168 -0.09951161
0.01521187 -0.04539087 0.043260615 -0.05974142 -0.06147647 0.092683926 0.050993 0.04126229
0.03190569 0.03228558 -0.019258989 0.054428816 0.08810584 0.027159426 -0.097507685 0.08691988
0.0055063698 0.07515476 0.022961969 0.049747527 -0.05435611 0.026275003 0.07927572 0.06209119
-0.11990243 0.010566966 -0.12098126 -0.09836718 0.10240241 0.06252519 0.0767795 0.08616267
-0.053428467 0.012613434 -0.06554702 -0.08326953 -0.011686648 0.024980647 0.09464501 -0.037814297
0.050349597 0.088686034 -0.032866362 0.10174367 0.04474359 -0.006295168 0.05369177 0.019193785
0.05133202 0.12151893 -0.062397845 -0.12539996 0.057834297 0.031221457 -0.103927344 0.06406722
-0.077207126 -0.08204362 0.12351227 -0.08556684 0.058296207 0.099628985 0.11906709 0.11051378
0.118553445 -0.0032070717 -0.1320993 -0.0037785931 -0.11013697 -0.0655311 0.0043121413 0.1165342
0.11150401 -0.07827571 0.024020134 -0.068177484 -0.0020497094 -0.055466488 -0.11714734 0.065657154
0.07563 -0.04799003 0.009149944 -0.019810533 -0.07089202 -0.033455547 -0.111907385 0.09066684
0.032450806 -0.0627309 0.047312465 -0.07467358 -0.09565188 -0.07782466 -0.07058983 0.0080060745
-0.12385695 -0.10416203 0.007816415 0.0412968 0.056001987 0.07213588 -0.056530315 0.06542006
0.08210418 -0.092622615 -0.00784046 0.06433205 0.008426004 -0.12129978 -0.11225629 -0.004810265
-0.0061243046 -0.0799745 0.0090561 -0.104541734 0.023845855 0.05544546 -0.0003999623 -0.0005617729
00000000: f9b2 c0bd 8903 fabc cda2 71bd 3e6f 24bd
00000010: e8ce ccbc b547 c43d fdad 413b becc cbbd
00000020: 353b 793c c7eb 39bd 0b32 313d 6bb3 74bd
00000030: c0ce 7bbd 12d1 bd3d 09de 503d a602 293d
00000040: 8aaf 023d e23d 043d 07c5 9dbc c0f0 5e3d
00000050: d670 b43d 727d de3c 1cb2 c7bd 0d03 b23d
00000060: c76e b43b bdea 993d bd1a bc3c 10c4 4b3d
00000070: 83a4 5ebd ad3e d73c 4f5b a23d 5553 7e3d
00000080: 688f f5bd 1121 2d3c 06c5 f7bd bb74 c9bd
00000090: 5bb8 d13d 350d 803d 923e 9d3d 0e76 b03d
000000a0: cfd7 5abd 94a8 4e3c 843d 86bd 3789 aabd
000000b0: 5b79 3fbc 37a4 cc3c 3ed5 c13d 2ae3 1abd
000000c0: 613b 4e3d 06a1 b53d e19e 06bd fc5e d03d
000000d0: 0e45 373d b247 cebb e7eb 5b3d 493c 9d3c
000000e0: 8641 523d ebde f83d e294 7fbd d968 00be
000000f0: a8e3 6c3d 24c4 ff3c dcd7 d4bd ad35 833d
00000100: c51e 9ebd 7c06 a8bd 00f4 fc3d ab3d afbd
00000110: 01c8 6e3d 480a cc3d 72d9 f33d 0c55 e23d
00000120: 26cc f23d bc2d 52bb 0a45 07be 46a2 77bb
00000130: 7e8f e1bd 2b35 86bd dd4c 8d3b 7ca9 ee3d
00000140: 375c e43d 044f a0bd dfc5 c43c a3a0 8bbd
00000150: 6b54 06bb d430 63bd f2ea efbd 4277 863d
00000160: e7e3 9a3d 3291 44bd a6e9 153c b349 a2bc
00000170: d62f 91bd af08 09bd b32f e5bd 89af b93d
00000180: 23eb 043d 0f79 80bd b7ca 413d 76ee 98bd
00000190: 22e5 c3bd 8962 9fbd 6791 90bd e92b 033c
000001a0: b6a8 fdbd e752 d5bd 6c10 003c d526 293d
000001b0: 5762 653d fabb 933d 558c 67bd f4fa 853d
000001c0: 3c26 a83d edb0 bdbd 4675 00bc 86c0 833d
000001d0: 390d 0a3c 056c f8bd a0e6 e5bd 6d9f 9dbb
000001e0: 64ae c8bb acc9 a3bd 0960 143c fa19 d6bd
000001f0: 6258 c33c c71a 633d 08b2 d1b9 f143 13ba

linear.bias f4 [2]
-0.025671912 0.01190908
00000000: e74d d2bc 4d1e 433c

linear_final.weight f4 [5, 64]
0.051316798 -0.026869202 -0.102239706 -0.067633905 0.044754524 -0.10396559 0.0121870935 0.068186104
-0.016602103 -0.009715271 -0.039130546 0.09348152 -0.0804423 -0.0123876 0.046140645 -0.045203328
-0.064261734 -0.071782514 0.102054775 0.090894684 0.03886653 -0.046572644 -0.0077125384 -0.04407065
0.08727582 -0.08538978 0.05553166 0.081098504 0.0360813 0.06303241 0.09378485 0.039295465
-0.10284733 -0.09857871 0.020028768 0.04270097 0.09534709 -0.04577089 0.016619433 0.055634256
0.06750146 0.0122368345 -0.016571596 0.005808678 0.110171676 -0.042475235 -0.09580883 -0.05472811
0.024519736 0.019897487 -0.020192556 -0.098401725 -0.080391884 0.060463466 -0.027796328 0.025927208
0.022951266 0.08631825 0.047016785 0.10273799 0.056194272 -0.012694443 -0.06466857 0.07579899
-0.03741866 -0.045242697 0.058392607 -0.09442051 -0.023562208 -0.05473581 -0.0011345203 -0.009657338
-0.09070764 0.06914896 0.0098457625 0.0070318077 0.050996717 -0.031812828 0.062442176 -0.022376355
-0.003792111 0.058842145 -0.022767687 0.02928929 -0.05565375 -0.0360458 0.08959117 -0.05719197
0.014445121 0.0005240032 0.030430507 -0.07919247 -0.08719978 -0.06627926 -0.013985025 -0.08541542
0.07757438 0.015992945 -0.05446534 0.014481003 0.073473625 -0.0053491904 0.0022132923 0.0013413513
-0.037680667 -0.019285802 -0.043107368 -0.043634243 -0.028400583 0.07495946 -0.086432554 0.028230935
-0.007863023 0.09500238 -0.023945384 -0.060306847 0.003830453 0.049598616 -0.036884192 0.030678445
-0.068431236 0.062240545 0.036661103 -0.062778674 -0.06933596 -0.045648128 -0.08864392 -0.046369687
-0.114117436 0.13107254 -0.037473943 -0.10571675 -0.09928883 -0.007906858 0.095304266 -0.09930472
0.10609768 -0.0118331965 -0.17298599 -0.14269319 -0.086072415 -0.12019469 -0.019040795 0.008036412
-0.16628885 0.023817431 0.10415889 0.10497666 -0.18476652 0.10988491 -0.05389035 0.000503384
0.044994637 -0.03555866 0.0779347 0.20850095 0.042126626 0.07038982 0.1222141 0.111388475
0.18287633 0.052265625 -0.15311952 0.0892657 0.081314184 0.06111319 -0.0061024963 -0.07068922
-0.016584344 -0.033260565 -0.17093395 -0.12628824 0.100178614 -0.062080726 0.07090686 -0.12753175
-0.000561377 0.09954405 0.16079879 -0.027018288 -0.17583665 -0.01190081 -0.065223455 0.028912248
-0.038250457 0.0586179 -0.010785497 -0.003220845 0.16444239 0.083201244 -0.11341432 -0.07291688
-0.15003607 0.13823776 -0.008046357 -0.17106514 0.03648139 0.06697823 0.12039599 0.020851726
0.13434504 0.23174001 -0.32918164 -0.3096052 0.04141399 0.0339511 -0.07108712 0.061101735
-0.20677236 0.1270578 0.021225898 0.03835557 -0.3092355 -0.08128218 0.042671982 0.13589716
0.010276085 0.008311372 0.043719284 0.29374108 0.031224074 0.100060575 0.0906958 0.10247442
0.22829188 0.08257476 -0.2242082 0.022429863 0.17731555 -0.07659205 0.12328794 -0.022947138
-0.082587376 0.13911854 -0.21459723 -0.16975756 0.035946257 -0.09783582 0.086543866 -0.1749261
-0.23570998 0.13914366 0.19290073 0.089581214 -0.14821993 -0.21837027 -0.014387484 0.104886554
-0.050108362 0.027407106 0.08909328 -0.08475543 0.17077208 -0.12566797 -0.14520413 -0.11937621
00000000: 9031 523d cd1c dcbc 0d63 d1bd a583 8abd
00000010: 8550 373d e9eb d4bd 60ac 473c 28a5 8b3d
00000020: 2201 88bc cd2c 1fbc 5a47 20bd 3d73 bf3d
00000030: efbe a4bd 5cf5 4abc f9fd 3c3d 2027 39bd
00000040: a89b 83bd b602 93bd 1802 d13d fe26 ba3d
00000050: 8332 1f3d f5c2 3ebd 76b9 fcbb 6d83 34bd
00000060: aabd b23d d6e0 aebd 2a75 633d f916 a63d
00000070: fcc9 133d 2317 813d 4512 c03d 48f4 203d
00000080: 9fa1 d2bd a2e3 c9bd 5f13 a43c 36e7 2e3d
00000090: 5645 c33d 427a 3bbd 7a25 883c bfe0 633d
000000a0: 353e 8a3d 017d 483c 28c1 87bc b956 be3b
000000b0: b0a1 e13d 83fa 2dbd 6b37 c4bd 952a 60bd
000000c0: 9ddd c83c 0e00 a33c dc6a a5bc d886 c9bd
000000d0: 80a4 a4bd 8aa8 773d 20b5 e3bc 4c65 d43c
000000e0: 4b04 bc3c 9fc7 b03d ac94 403d 4c68 d23d
000000f0: f72b 663d 5afc 4fbc f570 84bd 803c 9b3d
00000100: 4f44 19bd 6850 39bd 162d 6f3d 8a5f c1bd
00000110: 8805 c1bc a832 60bd 2fb4 94ba d039 1ebc
00000120: edc4 b9bd f89d 8d3d 1f50 213c 146b e63b
00000130: efe1 503d 2b4e 02bd 5ec3 7f3d 9e4e b7bc
00000140: 1185 78bb 7604 713d 4d83 babc 18f0 ef3c
00000150: 30f5 63bd c3a4 13bd 937b b73d 2142 6abd
00000160: 3bab 6c3c 425d 093a 6649 f93c a92f a2bd
00000170: cc95 b2bd 6cbd 87bd 7221 65bc 48ee aebd
00000180: 51df 9e3d a303 833c 0c17 5fbd bb41 6d3c
00000190: 5779 963d 4348 afbb e20c 113b 48d0 af3a
000001a0: 0b57 1abd 42fd 9dbc 5a91 30bd d2b9 32bd
000001b0: 57a8 e8bc 5884 993d 8d03 b1bd 9044 e73c
000001c0: e9d3 00bc 9c90 c23d 1c29 c4bc 5004 77bd
000001d0: 5608 7b3b eb27 4b3d e113 17bd 5d51 fb3c
000001e0: ad25 8cbd f1ef 7e3d f429 163d 1b92 80bd
000001f0: 0300 8ebd 88f9 3abd f28a b5bd 24ee 3dbd
00000200: 67b6 e9bd e137 063e 477e 19bd 0682 d8bd
00000210: f157 cbbd c48b 01bc e22e c33d 4660 cbbd
00000220: be49 d93d 06e0 41bc 3d23 31be 2a1e 12be
00000230: bc46 b0bd a228 f6bd 71fb 9bbc 28ab 033c
00000240: a047 2abe c61c c33c 4251 d53d 01fe d63d
00000250: 6f33 3dbe 570b e13d 21bc 5cbd 87f5 033a
00000260: 4c4c 383d f5a5 11bd 3a9c 9f3d 4681 553e
00000270: f88c 2c3d 8a28 903d 634b fa3d a41f e43d
00000280: ef43 3b3e 7b14 563d 5dcb 1cbe efd0 b63d
00000290: 0d88 a63d d351 7a3d 73f7 c7bb 83c5 90bd
000002a0: e4db 87bc 3b3c 08bd 4f09 2fbe b451 01be
000002b0: 722a cd3d 5c48 7ebd 9e37 913d af97 02be
000002c0: 5f29 13ba c0dd cb3d 70a8 243e 7555 ddbc
000002d0: 860e 34be 9dfb 42bc e093 85bd 61d9 ec3c
000002e0: 83ac 1cbd 5319 703d a7b5 30bc d014 53bb
000002f0: 9663 283e 6a65 aa3d c445 e8bd 7255 95bd
00000300: 0ea3 19be 338e 0d3e ded4 03bc b32b 2fbe
00000310: 836d 153d e22b 893d 2c92 f63d 3dd1 aa3c
00000320: bf91 093e 414d 6d3e 7f8a a8be 9384 9ebe
00000330: b7a1 293d 4f10 0b3d 2096 91bd d045 7a3d
00000340: 22bc 53be 711b 023e efe1 ad3c bb1a 1d3d
00000350: 1e54 9ebe 4677 a6bd d1c8 2e3d a028 0b3e
00000360: 065d 283c 6c2c 083c fe12 333d 3b65 963e
00000370: a1c9 ff3c 8fec cc3d b8be b93d 1cde d13d
00000380: 59c5 693e f51c a93d d696 65be d5be b73c
00000390: 3592 353e 4bdc 9cbd 637e fc3d a3fb bbbc
000003a0: 9223 a9bd 1775 0e3e 60bf 5bbe edd4 2dbe
000003b0: 623c 133d 255e c8bd e93d b13d d41f 33be
000003c0: f55d 71be ad7b 0e3e c587 453e 5b76 b73d
000003d0: f7c6 17be 759c 5fbe 7bb9 6bbc c3ce d63d
000003e0: 6d3e 4dbd de84 e03c 8a76 b63d 4194 adbd
000003f0: e0de 2e3e 1baf 00be 64b0 14be 847b f4bd

linear_final.bias f4 [5]
-0.012492247 0.057301693 -0.46079174 -0.786366 -0.06917729
00000000: 48ac 4cbc 2eb5 6a3d e5ec ebbe 484f 49bf
00000010: d3ac 8dbd
