model_checkpoint/hotel/latest.pth (torch_old, 55823 bytes, 10 tensors)

gcn.gc1.weight f4 [2, 2]
00000000: 4a32 923e 7fcb 1e3f fede db3f 3b1c b7be
0.28553993 0.6202926 1.7177427 -0.35763726

gcn.gc1.bias f4 [2]
00000000: 41d1 d1bd 252e abbe
-0.1024499 -0.33433643

grucell.weight_ih f4 [192, 2]
00000000: a456 203e c7f6 a3bd 6706 09bc 7075 083e
00000010: 7a08 853d fbb2 993d f294 283d 38ac 97bd
00000020: fec9 0b3e 0649 5fbc f80f c93c 5bbd 163b
00000030: 7edb fabd 06d7 8e3c 4baa b6bd b3a6 003e
00000040: b42b 81bd d7f6 4fbe 23df 70be 8ecc 98bd
00000050: 80ff 34be 348b 35be bc65 6a3d 853a 073e
00000060: 091b b03d d26b 5fbe 6d46 6dbd a690 933d
00000070: 5dc0 89bb 8118 52bd 478e 11be 0f5d 49bc
00000080: 9a1d 793d ce4b 3dbe 6849 d43d 8cb6 4e3e
00000090: 52e3 afbd 876d 0cbd c20f dcbc 0bd6 e0bd
000000a0: 51fe cc3d eb57 5fbe d9af 813c c486 8f3d
000000b0: 0011 b7bc 6da7 0ebe 8226 9ebd 4570 293d
000000c0: e3df 09be 35b1 03be 80a0 bcbd cfaa d93d
000000d0: 5223 08be 7873 1abd 6d80 943d b90c 4ebd
000000e0: 2a48 683d e0a2 4a3d f85e 573c df89 463d
000000f0: 9dea 05be fc0e 313e ab70 ba3c 4bde 5d3e
00000100: a28a 56be b4ed f33d 7a60 f3bd 98f9 1ebe
00000110: 3d5c a6bd 3657 b6be a1ec f1bd fbd6 86bd
00000120: ea51 103e 28c7 293c 3e83 b33d d6ab 3dbe
00000130: 41a6 0cbd 8212 183d 4cc6 5dbe 1ac4 c73d
00000140: 3dca e13c 3741 ca3d f0d9 ba3d 89df b73c
00000150: 777c 4c3d 219f 00be 2381 fcbc 6b8d a5bd
00000160: 589d 57bd d37f acbd 4bf7 ca3d c7af 943c
00000170: 0ae5 99bd 00c9 033e 78a0 10be dcee c3bd
00000180: 04d1 c8bd 72ed aabb 443c 99bd cfb5 1bbd
00000190: 9443 93bb fa53 0b3e 0571 44be 50b6 ecbc
000001a0: 9202 22be 3ceb 8abd e31a 27be 5901 febd
000001b0: 780e 973d d3d6 3dbe 74b2 593d 9029 b8bd
000001c0: 28dd 123e e80b c13b 2e87 9abc 2ef7 f73c
000001d0: a981 893c 91e6 8c3d 5349 133e 08b0 8abb
000001e0: 118a b7bb 211d babd 82a8 fc3d 77c2 ad3d
000001f0: 1579 323d 24f4 d4ba 334c b7bc 9f6c cdbc
00000200: f519 68bd 4337 93be 9a30 f43d ff28 5b3d
00000210: 62bb b6bc 14a3 0fbe d99b cf3d ceb7 38bc
00000220: e4b1 c9bc 748c 00bd 8fa8 a23d 64d2 3ebd
00000230: 84e2 263d 51e9 70bd ef59 803d 3b0b 95bd
00000240: ebb1 16bd 4960 5dbe 406f aebe f282 b63e
00000250: f95f a3be 4d85 8fbe b057 813b f731 21bd
00000260: 16a2 90bc f9cd 62bd bb6c a93e 33d6 99bc
00000270: cbc5 4ebc 00ec 24bd c6bd c83d 5579 973e
00000280: 9495 a73d 9176 a3bd 7a34 b03c c0a6 5dbe
00000290: eed3 c0bc f231 42be 811f ddbc 4570 433e
000002a0: 3ca3 cc3e d1b4 31be a5d3 f7bd 96de cabe
000002b0: ad63 7e3d 702e f13d 6d12 c53d c1ac a53d
000002c0: b42f 00be a6db 8c3d 73ba 723c b602 60bc
000002d0: e40f 1c3d da60 3a3d efbe 223e dd4f 283e
000002e0: 305f 4e3d 61ed c73d 8e30 9d3d 667c d53d
000002f0: b9f3 b2bb 391a 3bbe d314 8abd 7410 b73c
00000300: 3928 e7bc 203f a5bd fb07 12be 486d d1bd
00000310: cfee e83d f4f0 3b3e 2de0 bdbd 1313 a83d
00000320: 946c 2d3b 8e41 debd 3c9a d63d 2919 2d3e
00000330: fe52 0bbf bb4a 6fbd 5efc 8fbe 6829 adbe
00000340: 7f0d b0bd c988 6abd f6ce 78bb f3c9 0b3e
00000350: c43c a33d e818 693e 8921 683e e107 0cbe
00000360: cf39 563e bdee 9b3d 9974 793d 7d33 43bd
00000370: c46c 4e3d 6cd8 953e e1d3 60be 9e0b 843e
00000380: ff73 2f3e 712a f4bd 66c0 49be e983 083e
00000390: 3339 66bd 70dd ccbe e638 f23d 6a14 833e
000003a0: 696f 103e 8fe2 623e 70dd b3bd 70fa 86be
000003b0: a5fd 16be 0a91 a5be 5f1c 35bd a1a4 0bbe
000003c0: 6144 793d d036 9abd d193 23be fb5a 8ebd
000003d0: 21a6 5c3e ee71 343e afae dd3d 1fda 253e
000003e0: 8b79 cb3e b75b de3c 4ecc e2bd ecdd 39be
000003f0: e46c 993d 7054 85bd e338 ed3d 0467 f0bd
0.15658051 -0.080060534 -0.008363343 0.13326049 0.064957574 0.07504841 0.04115767 -0.07405895
0.13651273 -0.01362825 0.024543747 0.0023001048 -0.12248896 0.017436516 -0.089191996 0.1256359
-0.06307164 -0.20309006 -0.2352262 -0.07460891 -0.1767559 -0.17728883 0.057225928 0.13205917
0.085989065 -0.21818474 -0.05792849 0.07205324 -0.0042038397 -0.0512929 -0.14214431 -0.012290253
0.060819246 -0.18485948 0.10365564 0.20186824 -0.0858828 -0.03428414 -0.026862983 -0.109783255
0.100094445 -0.21810882 0.015830921 0.070081264 -0.022346973 -0.13931055 -0.077221885 0.041366834
-0.13464312 -0.12860568 -0.092103004 0.10628282 -0.13294724 -0.037707776 0.07251058 -0.050305102
0.056709446 0.049471736 0.013145201 0.048471328 -0.13077779 0.17290872 0.022758802 0.2166683
-0.20951322 0.11910573 -0.11883636 -0.155249 -0.08123062 -0.35613412 -0.118127115 -0.06583973
0.14093748 0.010362424 0.08765267 -0.18522581 -0.03433824 0.037127025 -0.21657676 0.097542
0.027562255 0.0987572 0.091235995 0.022445457 0.049923386 -0.12560703 -0.030823296 -0.08083614
-0.05264029 -0.08422818 0.09910449 0.018150223 -0.07514389 0.12869644 -0.14123714 -0.09567043
-0.098054916 -0.005216294 -0.07482198 -0.038015183 -0.00449414 0.13606253 -0.19183739 -0.028895527
-0.15821293 -0.06783149 -0.1631885 -0.12402601 0.073758066 -0.1853898 0.0531487 -0.089923024
0.14342177 0.005891312 -0.018863287 0.030269232 0.01678546 0.068799146 0.1438344 -0.0042324103
-0.0056011756 -0.09087587 0.12336828 0.08484357 0.043572504 -0.0016247076 -0.022375202 -0.025076209
-0.05666538 -0.287531 0.119233325 0.053505894 -0.022306148 -0.14027053 0.101371475 -0.011274291
-0.024620958 -0.031383947 0.07942306 -0.046587363 0.040743366 -0.058816258 0.062671535 -0.07277533
-0.03679077 -0.21618761 -0.34069252 0.35646778 -0.3190916 -0.28031388 0.0039472207 -0.03935429
-0.017655414 -0.055372212 0.33090767 -0.018778896 -0.0126204 -0.04026413 0.098018214 0.29584756
0.08182827 -0.07981599 0.021509398 -0.21645641 -0.023538556 -0.18964365 -0.026992561 0.19085796
0.39968288 -0.17354132 -0.12100915 -0.39622945 0.062106777 0.117764354 0.09622655 0.08089591
-0.12518197 0.06877832 0.014814961 -0.013672521 0.038101092 0.04550252 0.15893148 0.16436715
0.050383747 0.09762073 0.07675277 0.10424118 -0.005461183 -0.18271722 -0.06742253 0.022346713
-0.028217422 -0.08068681 -0.14260857 -0.10225922 0.11373674 0.18353635 -0.09271274 0.08206763
0.0026462423 -0.10852347 0.104786366 0.16904129 -0.5442351 -0.058420878 -0.28122228 -0.33820653
-0.08596324 -0.057259355 -0.0037965155 0.13651256 0.079705745 0.22763407 0.22669043 -0.1367488
0.2092049 0.07613895 0.06090221 -0.047656525 0.050396696 0.2926668 -0.21955825 0.25790113
0.17134093 -0.119221576 -0.197023 0.1333157 -0.056206893 -0.40012693 0.11827259 0.25601512
0.14105 0.22156738 -0.0878247 -0.26362944 -0.14745195 -0.3233722 -0.04421651 -0.1363702
0.060856227 -0.07529986 -0.15974356 -0.06950947 0.21547748 0.17621586 0.10824334 0.16196488
0.39741167 0.027143342 -0.11074124 -0.18151063 0.07491472 -0.06510246 0.11583116 -0.11738399

grucell.weight_hh f4 [192, 64]
00000000: 9047 143d e25c 3c3d 97e2 8fbd 48fa 05be
00000010: db61 b9bd fa43 b1bd 1d41 083e 7289 c83b
00000020: abdc c03c b37b 8cbd d2fb 073d e374 03bc
00000030: 8024 9ebd 5738 8bbc c51a d4bd 1ad0 b43d
00000040: 7e16 7ebd 6c6b dbbd ddae cd3d 69f6 843d
00000050: cd4c a2bd 8af7 ae3d 92e1 e1bd de0d 883d
00000060: 777f 593b d9e7 fabd 288f 58bc 4759 403d
00000070: 54d6 ee3d 5c66 27bd 518b 79bd 9594 d83d
00000080: 1407 683c d1d3 6abd b291 813d 9434 203c
00000090: 2c65 303d 2883 8e3d 72fd debd a544 19bc
000000a0: c9fb 48bd 457d b73d e7af aabd 159d 9d3c
000000b0: c760 cabd 6918 223c 8292 a43d 995f 3abd
000000c0: cf2f 153c 970c e1bc 5ff4 083d f106 d3bd
000000d0: 7944 60bc 588d 453c 09bf 333d 66a4 14be
000000e0: 56c0 17bd 95e4 433d e8ed 2dbc 5a1d 05bc
000000f0: 997b e13d 72dc 40bd 4faa 5c3d d8ad c53d
00000100: e589 6cbd 34d3 39bd 1c3e d6bd 7d9a 37bd
00000110: 1498 37bd 7e93 b7bd 0c4e 183d 28ba ab3d
00000120: e582 8c3c c3e1 aebb 23a2 893d 3aa5 3e3d
00000130: 5b8f 0c3e 94ab 62bd eafc 8cbd 0424 313d
00000140: b16b c5bb e3bf a83d 0cb7 6e3d a72e 09be
00000150: dd6d c0bd 8aa9 09be b642 dd3d 8a0f f2bd
00000160: 146d 663c ebeb 3c3d 4905 5cbd 8e01 8cbd
00000170: 547a f3bc 89b5 adbd 856c 81bd 4a07 dbbd
00000180: 0fcc e9bc a0ce cbbd bada 8f3d 8e64 833d
00000190: be84 593d a0ea 063c 53c7 ddbd b14a c23c
000001a0: dfbd 1fbe f968 17bd 3a39 93bd 8d4f 44bd
000001b0: b657 bdbc 59b6 103d c439 7e3d e255 1ebd
000001c0: 72da 943d 91bf a5bc 6196 3ebd 57e7 adbd
000001d0: 6c9d 323d 1fca c5bc 7d07 56bc 2930 9cbb
000001e0: df2f 2b3d 8661 00be ca14 91bd 9960 38bd
000001f0: 7a42 aabc a984 213d b925 16be 889e f0bd
00000200: 9ce3 b1bb 775d 543d b83a 6b3d 7d37 a8bd
00000210: 4cda 843d 5741 98bd 1ead 7ebd 55c9 33bd
00000220: 2ce6 ad3b f7c6 bd3c adab ddbd d1d0 f7bd
00000230: 55ec 64bd 54bb 0bbd decc e6bd 0d9a 893d
00000240: 52f6 7bbd 9477 0b3d cbd4 01bc fd19 7f3d
00000250: 1711 033e 7eba 61bc 1422 b93d 90e9 b4bd
00000260: 2ef1 523d c9e8 d13d 6dbd 63bd f5d7 dbbd
00000270: 81ba 8ebd c4b2 c3bd f5fc afbd c5eb 0b3d
00000280: 29f6 8a3d 99ce c8bd c7af 19bd f497 dcbd
00000290: c73a f5bd 4e5a 83bd 0046 cfbd c6fd f7bc
000002a0: 1e10 8fbd b570 eabd d423 803d e2dc af3d
000002b0: 7099 e5bc aaae f5bd ac2d 7ebc 5d7d f13d
000002c0: fa87 00be 6b9c e23d 2b7d b8bd 5917 fcbd
000002d0: f297 bc3d 6308 78bd 1bb5 6d3d de33 c4bd
000002e0: 9c99 9ebc bb5a 03be 258d 0e3c 2447 443d
000002f0: 0f3a ebbd 4e20 0d3e 0d87 0f3d b1d2 683d
00000300: 288a e73d 7c20 a23d a345 cb3d d89b f63c
00000310: 1f72 493d d9af 92bc c318 c53d f066 ec3d
00000320: 52e5 0e3d be65 b9bd d6d9 e63d 9684 5abc
00000330: 0a53 06bd 4896 6c3d a0a7 c83d c2fb a2bd
00000340: c296 9f3d bbe7 d2bc 83c6 6abd fb01 afbd
00000350: 9159 ccbd 628d 42bd 2b8f b63d 74ba 6f3c
00000360: 459d f83d f443 d4bd 8c9c cb3d 3b4c 59bd
00000370: 0687 d4bd c1c0 043c 0290 ea3d fa83 423d
00000380: 612c 0bbc 501b 9dbc b537 aebc d953 463c
00000390: f344 9bbc 869a 50bd a9da 9abd 7fa2 a53d
000003a0: 2864 393d 079d 703d f9ac e4bc 7837 c93c
000003b0: 4b69 c6bd f464 06bc db0d e239 6647 21bc
000003c0: 0de4 c73d ebf2 26bd bb68 233d 3863 ba3d
000003d0: 0c49 e3bd cf24 1cbd f676 31bc 7a49 8f3d
000003e0: 1e05 a4bc a390 e83d 5052 a2bd bd5a 7e3d
000003f0: e19b 9b39 8f76 9abd d7bb 30bd 1195 d3bd
0.03620106 0.045987017 -0.070256405 -0.13083756 -0.090518676 -0.086555436 0.13306089 0.0061199004
0.023542723 -0.06859531 0.03319914 -0.008023473 -0.077218056 -0.016994638 -0.103566684 0.08828755
-0.06203317 -0.107138485 0.10043118 0.064923115 -0.07924805 0.08543308 -0.11029352 0.0664327
0.0033187547 -0.12251253 -0.013217725 0.04696014 0.116619736 -0.040869102 -0.060923878 0.10575215
0.014161844 -0.05733091 0.06326617 0.009778161 0.043065235 0.0695861 -0.108881846 -0.009354745
-0.049068246 0.0895944 -0.08334332 0.019239942 -0.0988174 0.009893515 0.08035757 -0.045501325
0.009105637 -0.027471824 0.033436175 -0.10304058 -0.0136882 0.012057625 0.043883357 -0.14515838
-0.03704866 0.047825415 -0.010615803 -0.008124674 0.110099025 -0.047085233 0.053873356 0.09652299
-0.057748694 -0.045367435 -0.10461065 -0.044825066 -0.044822767 -0.08963679 0.037183806 0.08385116
0.01715226 -0.0053369715 0.06720378 0.04654429 0.13726561 -0.05533941 -0.06884177 0.043247238
-0.0060248007 0.082397245 0.058280036 -0.13396703 -0.09395955 -0.1344358 0.1080374 -0.1181937
0.014064092 0.046123426 -0.053715978 -0.06836234 -0.029721417 -0.08481891 -0.063195266 -0.1069475
-0.028539686 -0.0995152 0.07024141 0.06415664 0.05310511 0.00823465 -0.10829034 0.023717256
-0.15599774 -0.036965344 -0.071886495 -0.047927428 -0.023113113 0.03533015 0.06206681 -0.038656123
0.07268228 -0.020232948 -0.04653013 -0.0849139 0.04360716 -0.02414423 -0.013063309 -0.0047664833
0.0417937 -0.12537202 -0.07084043 -0.045013998 -0.020783652 0.039433155 -0.14662828 -0.117489874
-0.0054287445 0.051846948 0.057429045 -0.082137085 0.06486949 -0.074343376 -0.062176816 -0.043893177
0.0053069796 0.023166163 -0.1082376 -0.121003754 -0.055889446 -0.034114197 -0.11269544 0.06718836
-0.061514206 0.034049585 -0.007924269 0.062280644 0.12799488 -0.013777373 0.09039703 -0.08833611
0.051499538 0.10249478 -0.055600572 -0.1073455 -0.069691665 -0.09555581 -0.085931696 0.034160394
0.067852326 -0.098050304 -0.03752115 -0.1077117 -0.119741015 -0.064137086 -0.10120773 -0.030272376
-0.06985496 -0.114472784 0.06256834 0.08587052 -0.028027266 -0.11996205 -0.015513819 0.11791489
-0.12551871 0.110649906 -0.09008249 -0.12309141 0.09208669 -0.060554873 0.058034044 -0.095802054
-0.019360356 -0.1282758 0.008700644 0.047919407 -0.11485683 0.13781855 0.035040904 0.056841556
0.11305648 0.07916352 0.099253915 0.030103609 0.0491811 -0.017906116 0.096238635 0.11543071
0.034886666 -0.09052609 0.11272018 -0.013337275 -0.032794036 0.057760507 0.09797597 -0.07958175
0.07792427 -0.025745263 -0.05731822 -0.085452996 -0.09978021 -0.047498114 0.08914026 0.014631856
0.12139372 -0.103645235 0.09941968 -0.053051215 -0.10377316 0.008102597 0.114532486 0.047489144
-0.0084944675 -0.019178063 -0.021266798 0.012104952 -0.018953776 -0.050928615 -0.07561237 0.08087634
0.045261532 0.058743503 -0.027914511 0.024562582 -0.09688052 -0.00820278 0.00043116402 -0.009843683
0.09760294 -0.04075901 0.0398948 0.09100956 -0.11097917 -0.03812104 -0.010831585 0.069964364
-0.020021971 0.11355712 -0.07925856 0.062098254 0.00029680043 -0.075421445 -0.043147888 -0.103311665

grucell.bias_ih f4 [192]
00000000: 6f62 0f3e 95a1 383d 58fb 9d3d 03cc 1bbd
00000010: 832f 96bd 4d88 b53d d99c 9dbc 8139 c5bc
00000020: 0d9b 6bbc b6be 843c 49f3 2b3d d885 3cbd
00000030: f896 a93d 0e75 f0bd 0af7 9f3d 75e4 d0bd
00000040: 8106 373e 59df 8ebc 3a65 6f3c a4a3 b43d
00000050: d6e6 b33d 6c3f 39bd eb25 ad3c f085 3ebd
00000060: 1369 4a3d 4786 c0bd 3b31 bdbd 66c8 54bc
00000070: 2914 bb3d 83c3 c83d 874c 1b3e c1a1 6abd
00000080: a33c ab3d 2808 ed3d b2dc a8bd 2817 0bbe
00000090: 08b0 f9bb 1061 cfbd 2be3 0bbd c4e4 0f3e
000000a0: 5231 c1bd c277 e33d 6fd9 933d 1f93 97bd
000000b0: cf9e 173c 835b 54bc 0874 0d3d b08c 65bd
000000c0: 363b 893d 7e33 113e 6d87 9d3c 5e4d ed3d
000000d0: e6f7 b63c e924 223c d4b3 593d 491b 093e
000000e0: c2fe 0f3e 5ee6 a9bd 28be 20bd b399 693c
000000f0: dd6f a1bd dcc7 d63d 04d0 313e cf07 9c3d
00000100: 634b 473e 87bf 42bc 7bd2 1e3e eec1 3b3c
00000110: 9e55 1f3e 7994 79bc 043a 4e3d 0e20 6d3c
00000120: 4f0c 2a3e ffa4 193e 0c4f be3c 67b0 f73d
00000130: 09d4 f13d 6840 173e c2e0 5bbd 599b dc3d
00000140: ca33 643e 49d2 973d 54fe ee3d fde8 89bc
00000150: df37 29bc 3b3d aa3d 1bcc 113e 3e48 35bc
00000160: 56c5 603e 2e11 ea3d a9ce 62bd 300d fc3d
00000170: 9b2d 80bd ae1b 673c 82c4 053e 8488 8ebd
00000180: 437d 4d3e 1e83 47bc dea6 493e 513b 613d
00000190: d948 1d3e 2f82 183e a551 093e 204e 803e
000001a0: 3efd e23c 1504 5d3d 9e4a 243e 89da e5bd
000001b0: 0945 31bd 7a5f 5bbd b078 023e 74e7 4b3e
000001c0: 3cd2 7a3d 8adb d5bd 16d5 7b3e cb48 d0bc
000001d0: a887 063f 1923 b33d 1dfa 32bd f312 0dbc
000001e0: 03f0 873d 3e03 343e 0b06 583e dbe5 913d
000001f0: a7fc 933d 4103 debd 5e42 e23d e823 3e3d
00000200: 0fe5 22bc dc7e 98ba 41cf 3b3d 09d3 f7bc
00000210: 3a3b a2bd 4af4 ce3c c5b9 103d ae63 a23d
00000220: e1c8 53bc 7586 1cbd b068 54bd 3d44 9f3d
00000230: 33b4 28bd 4356 d2bd 35ba 17be 1582 df3d
00000240: 2089 6e3d e912 063e 4a1f 883d 7661 2a3e
00000250: 9691 573d 794b c43d 2293 b7bb 56ab 3b3b
00000260: a26b 63bb 6d8a 88bd 16bf d7bd 0c02 78bd
00000270: bbb1 a43d 85f4 3039 4bde 44bc 78bf 993d
00000280: aeb2 69bd 5ab4 1d3c 288e cf3d e4ba 8a3d
00000290: 18b5 b23c 4e5d bebc 3af3 5a3c 5200 80bd
000002a0: e895 193e 8e79 34bc 86ea 01be cfc3 3fbd
000002b0: d6c9 a63d 0a09 5cbd adb8 74bd f5a7 e4bd
000002c0: 42cb 23bc 8da5 32be f7be 743e e06c 8cbd
000002d0: 47c8 f53d 82fd 60bd 73e0 463e 089e 1b3e
000002e0: e17e a43b 7c19 e3bc 2885 8d3d 1bc4 fbbd
000002f0: 709d 56bd f85e a03d a045 aa3d 8d1c 7bbd
0.14002393 0.04507597 0.07713956 -0.038036358 -0.07333281 0.08863888 -0.01923983 -0.024075272
-0.014380229 0.01620422 0.04198006 -0.04602608 0.08280748 -0.117410764 0.07810791 -0.10199825
0.17873575 -0.017440485 0.014611537 0.088202745 0.08784263 -0.0452265 0.021136245 -0.04651445
0.049416613 -0.09400611 -0.092379056 -0.012987232 0.091347046 0.09802916 0.15165912 -0.057283167
0.08361175 0.11573821 -0.08245219 -0.13583052 -0.0076198615 -0.10125935 -0.03415219 0.14052111
-0.09433235 0.11106826 0.072192065 -0.07401108 0.0092541715 -0.012961271 0.034534484 -0.056042373
0.06700747 0.14179799 0.019229615 0.11587022 0.022335004 0.009896495 0.053150013 0.13389315
0.14062026 -0.08295892 -0.039243847 0.014257836 -0.07882664 0.10487339 0.17364508 0.07618677
0.19462352 -0.011886484 0.1550998 0.011459811 0.15560004 -0.015233153 0.050348297 0.014472974
0.16606258 0.15004347 0.023231052 0.12094193 0.118080206 0.14770663 -0.053681143 0.10771818
0.22285381 0.074131556 0.11669603 -0.01683473 -0.010328262 0.0831246 0.14238016 -0.011064587
0.21950278 0.11429058 -0.055372868 0.12307203 -0.062586986 0.01410572 0.13063243 -0.06959632
0.20067315 -0.012177257 0.19692561 0.05498821 0.1535982 0.14893411 0.13410051 0.25059605
0.027708646 0.05395897 0.16044089 -0.11223323 -0.043278728 -0.05355785 0.12741351 0.19912511
0.06123565 -0.104422644 0.24593005 -0.025425335 0.52550745 0.08746929 -0.043695558 -0.008610475
0.066375755 0.17579362 0.21096055 0.071239196 0.07225924 -0.108404644 0.11047815 0.04642096
-0.009942307 -0.0011634487 0.04585195 -0.030251997 -0.07921453 0.02526297 0.035333414 0.07929169
-0.012926311 -0.038214166 -0.05185765 0.07776687 -0.041187476 -0.10270359 -0.14817126 0.10913483
0.05823624 0.13093151 0.06646593 0.16638741 0.052629076 0.09584708 -0.0056022564 0.002863606
-0.0034701605 -0.066670276 -0.105344936 -0.060548827 0.08041712 0.00016875759 -0.012015889 0.07507223
-0.057055168 0.009625519 0.10134536 0.06773928 0.021814868 -0.02323785 0.013363654 -0.06250061
0.14998591 -0.011015309 -0.1268712 -0.046817597 0.08143966 -0.053719558 -0.059746433 -0.11164848
-0.009997191 -0.17445965 0.23900972 -0.06856704 0.120010905 -0.054929264 0.19421558 0.15197003
0.005020008 -0.027722113 0.06910163 -0.122932635 -0.052396238 0.07830614 0.08314061 -0.061306525

grucell.bias_hh f4 [192]
00000000: c3a7 983d 9aff 893c 80c7 d83d 684b 61bd
00000010: 51e1 88bc 875f c43a e7b3 c5bc 1c50 26bd
00000020: 2d83 18bd 13de b23d 8e45 0cbd e6f2 0d3e
00000030: 44f3 31bd 9a8f a5bd bc1e 803d 9693 813b
00000040: beb9 1f3d 36f0 e9bd cfdf 993d f2fd e0bd
00000050: 5c7a 28bd db07 c3bd f47f 833a 1400 69bb
00000060: 47e6 c23d 3315 ed3d 958e 8c3c 0e06 dabd
00000070: ca14 7abc b76d b1bd 0243 813b bfaa 403e
00000080: 2bfe edbd 7260 a03d 529d 973d a89e e1bd
00000090: 7d1d 193d 14a9 33bd 7eb6 4c3d c14b 253e
000000a0: 8203 d53d bad7 cc3d 7968 593c 254d a0bd
000000b0: ca9f 0b3e 60c1 9ebd 3df7 d53a a555 e33c
000000c0: 0ea1 093c 1181 dcbc 43d5 213e bd87 c9bb
000000d0: e499 bb3d b8b2 42bc e278 c0bc 33e4 cebc
000000e0: 2834 c13d d1f2 a33d c1b4 72bc b389 923b
000000f0: 9d63 a7bd f7a0 2f3d 0daa 173e 10ea 4d3a
00000100: 3669 433d 2605 c13d 7d4b c43d 6fed 143d
00000110: 1c88 88bd 4502 de3d c48f e3bd 6191 e53d
00000120: c9ef ae3e 7c7b d33d c465 b9bc 6e7d c4bb
00000130: 82ea 113c 470c 1c3e 82a1 803d 48be 183e
00000140: ab66 8f3e 5d66 fa3d f71c 933d 3a45 ca3d
00000150: 950a b13d 6b99 f23d 0fd0 643d deec ffbc
00000160: 3c80 b43c ac69 47bd a71d ae3d d67f 92bd
00000170: 80ec 263e 728d 66bb 048d 9dbc eac0 91bd
00000180: e3f6 853e 7eb7 033d 6631 8e3e d768 7c3c
00000190: b8f7 363e 064a 293c 5280 0d3e efd6 2e3e
000001a0: dcc7 893c c788 253e 434f 363e 6bf8 b3bc
000001b0: 9a77 28bd e95d 3e3d 7770 c3bd df2a 503e
000001c0: 8674 8c3d a485 8abd a562 a73e 653f 02bd
000001d0: 39b7 d23e 8da4 2b3c f1f4 c23c 09a0 253e
000001e0: 67c7 85bd 80c7 b53d c22b bc3d ce34 5a3e
000001f0: 4fc0 b5bd 950a a8bd 5331 493e f9ce 1a3e
00000200: e53f 003e 12e5 6f3d f86f 99bd dcd2 9abc
00000210: 1620 cebd cdce 79bd 7ee7 fe3d 94b7 113d
00000220: 1c05 61bd 7006 223d f41d d33a 83ce 6bbc
00000230: 0cb7 a5bc 909f a83d bddb e23c c5a3 f53d
00000240: 86bf 05be cd46 04be d8d0 3abc 7c1e e73d
00000250: 4d9e b93d 821f 7abd 979b 8bbd 3037 a33d
00000260: 585e 1e3e 4831 f93c fb16 d1bd c133 6c3d
00000270: 6433 87bd eeb1 a2bd bae2 053e 5a21 f1bc
00000280: 8526 923d ca21 c0bd 2896 0e3e 9707 e9bd
00000290: 83ce d5bd 67c7 933d f3eb 8a3d 97df 1fbe
000002a0: 70b7 7b3d 5b13 563d f507 0fbd 694e a4bd
000002b0: 0ec4 82bd e78e f53d b6ca 08bc 9239 38bc
000002c0: 381c 3a3d af9d 033d 9bb9 1f3e d1bd aebd
000002d0: 7a62 163e 5087 04bd 96a2 75bd 9411 a1bd
000002e0: 4749 493b dc16 edbd 6d2d 54bd dfb7 a8bd
000002f0: fd9f cf3d ec42 9bbd 8fff 3a3e 2165 8e3d
0.07453873 0.016845513 0.105849266 -0.055003554 -0.016709002 0.0014982083 -0.024133636 -0.040603742
-0.037234474 0.087337635 -0.03424602 0.1386219 -0.043444887 -0.080840304 0.06255862 0.003954361
0.038995497 -0.1142277 0.07513391 -0.10985936 -0.041132316 -0.09522983 0.001003264 -0.0035553025
0.09516578 0.11576309 0.017157832 -0.10645686 -0.015263746 -0.086635046 0.0039447555 0.18815134
-0.11620744 0.078308955 0.07403053 -0.110165894 0.037381638 -0.043862417 0.049978726 0.16142179
0.1040106 0.10002084 0.013269537 -0.07827214 0.13635173 -0.07751727 0.0016324293 0.0277508
0.008400215 -0.026917012 0.15804009 -0.0061502145 0.09160212 -0.01188343 -0.023495141 -0.025255298
0.09433776 0.08005298 -0.014813603 0.0044719814 -0.081732966 0.042878117 0.14810963 0.00078550074
0.04770776 0.0942481 0.09584711 0.036359247 -0.06666586 0.10840277 -0.111114055 0.112093695
0.34167317 0.10326287 -0.022631533 -0.0059963977 0.008906009 0.15239058 0.06280805 0.14916337
0.28008017 0.122265555 0.07183259 0.09876485 0.086445965 0.118456684 0.055862483 -0.031240877
0.022033803 -0.04868476 0.085017495 -0.07153289 0.16301155 -0.0035179523 -0.01923228 -0.071168736
0.26164922 0.032157414 0.27772063 0.015405855 0.17867935 0.01033259 0.13818482 0.17074178
0.016818933 0.16165458 0.17803673 -0.02196904 -0.041129686 0.04647628 -0.09542935 0.20328854
0.068581626 -0.06763771 0.32692447 -0.03179874 0.41155413 0.010476244 0.023798438 0.1617433
-0.065321736 0.08875942 0.09188034 0.21309206 -0.088745706 -0.08205143 0.19647722 0.15118016
0.12524374 0.058568068 -0.074920595 -0.018899374 -0.10064714 -0.060988236 0.124464974 0.035575464
-0.054936513 0.03955692 0.0016106949 -0.014392498 -0.020228885 0.08233559 0.02769267 0.11994127
-0.13061342 -0.12917633 -0.011402331 0.11285111 0.090633966 -0.061065204 -0.06816786 0.079695106
0.15465677 0.030419007 -0.10209461 0.057666544 -0.06601599 -0.07944094 0.1307477 -0.029434849
0.07136253 -0.09381445 0.13924468 -0.11378401 -0.104397796 0.07215767 0.06783285 -0.15612637
0.061454237 0.052264553 -0.034919698 -0.08022768 -0.06385051 0.11990147 -0.008349111 -0.011244195
0.045437068 0.0321328 0.15598147 -0.08532298 0.14686003 -0.032355607 -0.059969507 -0.07864681
0.0030713843 -0.11576626 -0.051801134 -0.08238196 0.10137937 -0.07581124 0.1826155 0.069528826

linear.weight f4 [2, 64]
00000000: 91a5 973d 615c 8a3d 8430 c2bb 5c00 36bc
00000010: a3c6 c5bd 410b 8fbd 6993 293d 123c 78be
00000020: 4dae 9e3d ddcb a33e 94dd b23c f055 363d
00000030: d35d b13c 6853 933d 96ad 18bd 00b6 933d
00000040: 54c1 97be e7dc 7b3e a4bd 24bd bd07 8b3d
00000050: bbe0 64bc 4688 1d3e ce0e bebd 440a ebbd
00000060: f08c dfbd d088 e7bd 5ccd d5bd b99f 36bd
00000070: 08df b5bd 65cf 0bbe abaa 453e e25b 4abc
00000080: cb6a 163e 787a 64bc a70a 043e 34eb 383a
00000090: 89d2 28be 6184 a0bd 4d0d ae3d ebdf 2f3d
000000a0: b380 f23d 5105 903d fd31 973d 72d1 07be
000000b0: c857 babc 80c2 9abd 95e1 52bd 2095 0cbd
000000c0: 53a8 993d f4ed 363e 3cdd 6d3e 5af6 a8bc
000000d0: a176 4dbc cd0b f3ba 0350 c0bd bee4 7b3d
000000e0: 20cd 483b 29c8 75bc 8a10 733d ad16 473e
000000f0: 3adc ba3d 224e 0a3e 7667 4dbd f567 953d
00000100: 40bb a93d 658f 06be 11ef d1bd 1321 f13c
00000110: 6971 133e 62ce 1cbe 4ff6 df3b 9c76 08be
00000120: de1f 04be b3bb 433e 41a3 9f3d 8aa0 b4bd
00000130: 883a 213d 4f48 ac3d ad72 c13d 08a2 46bc
00000140: 9bb6 6f3e d5c7 543d dcd7 b1bd 1d71 34be
00000150: 75f5 5f3d 7990 c0bd 1b12 c7bc 6046 d43c
00000160: ce40 563e fc77 ff3b 3c89 f7bd a9c0 0b3e
00000170: 7728 a13d 5e4a 98bd 626e a73c 781a 993d
00000180: cb49 d5bd 0f3a a0bc 3e8f 80bd ff50 f23d
00000190: e2ec 94ba 294e 96bd c0b4 1fbe 2936 19be
000001a0: f337 84bd 4b21 ac3c c47c e03c 0270 6bbc
000001b0: 1e86 72bd 2e38 0a3e 35c2 33be ff59 003e
000001c0: 92ee 0dbe 9519 51bc 92d5 193d 6676 a8bd
000001d0: c642 54be 2c79 bb3c 5c48 043d a973 d43d
000001e0: 250b c13d 5177 a7bd ff8e 90bd 88e9 af3d
000001f0: c5ff 7b3d 714e ad3c 6c1e 003c 5034 27be
0.07404626 0.06755901 -0.0059261937 -0.011108484 -0.096570276 -0.069845684 0.041400347 -0.24241665
0.07748089 0.31991473 0.021834172 0.04451555 0.021651184 0.07193643 -0.03727492 0.07212448
-0.29639685 0.24595986 -0.040219918 0.06788585 -0.013969596 0.15384015 -0.092801675 -0.114765674
-0.109155536 -0.11305392 -0.1043956 -0.044585917 -0.088804305 -0.13653333 0.19303386 -0.012351008
0.14689176 -0.013945214 0.12894689 0.0007054091 -0.16486563 -0.07837749 0.08498631 0.042938154
0.11840954 0.07032264 0.073825814 -0.13263491 -0.022746935 -0.07556629 -0.051484663 -0.034321904
0.075028084 0.1786421 0.23228925 -0.020625282 -0.01254049 -0.0018542946 -0.09390261 0.061497442
0.0030639842 -0.015001335 0.059341945 0.19442244 0.09124036 0.13506368 -0.050147496 0.07295219
0.08287668 -0.13140638 -0.102506764 0.029434716 0.14398731 -0.15313104 0.006834782 -0.13326496
-0.12902781 0.1911457 0.0779481 -0.08819683 0.03936246 0.08412229 0.09445701 -0.012123592
0.23409502 0.051948387 -0.0868375 -0.17621274 0.054677445 -0.09402556 -0.024300626 0.025912464
0.20923159 0.0077962857 -0.12086722 0.13647713 0.07869046 -0.074360594 0.020438377 0.07475752
-0.104144655 -0.019558934 -0.06277321 0.11831855 -0.00113621 -0.073391266 -0.15596294 -0.14962067
-0.06455984 0.02101197 0.027403243 -0.014369966 -0.059209935 0.13497993 -0.17554553 0.12534331
-0.13860539 -0.012762447 0.037557192 -0.08225708 -0.20728597 0.022884928 0.03229557 0.10373623
0.09425954 -0.08177055 -0.07058524 0.085894644 0.061523218 0.021155568 0.007819753 -0.1632855

linear.bias f4 [2]
00000000: d305 19bd 2a5a 28bd
-0.03735907 -0.041101612

linear_final.weight f4 [5, 64]
00000000: 38eb 8b3d 9a58 20bb eb9a 223d 9408 3abd
00000010: 9743 e03b fb63 293d a590 48bc bed9 bc3d
00000020: f76e 2f3d 5eb4 c7bd 67db c2bd f872 10bd
00000030: c1f0 dcbc a38c 40bd 1138 3abd f76e 0ebd
00000040: c8d1 94bd 8a6f 0dbe 7ae1 cf3b 7cb9 8cbc
00000050: 428c 99bd 18ea e8bc 5265 1b3b 1afa 41bc
00000060: 8377 db3c 5746 de3d 52d7 23bd b12f ae3d
00000070: c36d 703d 4f53 ce3b ab2a 36bd f109 0b3d
00000080: fa91 b9bd 4d02 65bd 257c 6abc e17c 183d
00000090: 82e0 533b 1b96 e23d cd2b 83bd fd2f b73d
000000a0: 3cfb 9c3c 1108 e63c fa40 17bd 1d38 d2bc
000000b0: 56df 27bd 13b7 aebb d0ab 1f3d e29b cebd
000000c0: 4b2c d1bc cc61 733d 1b07 d0bd db85 f0bc
000000d0: 2403 863e 6b29 833c c9e7 37bd 0458 adbb
000000e0: 9130 e0bc 471a cc3c 7d27 9d3d 7c7d 35bd
000000f0: 3511 bbbd 36a9 adbc d1b0 2f3d abb8 0ebd
00000100: 3821 833c 3bf9 e33b fd9a f83c 86e9 46ba
00000110: df95 933c bc03 a0bc 5b43 4abd 3ef4 42bd
00000120: 9e02 083d b468 8f3c 1c21 89bc 8ce6 04bb
00000130: d692 0a3c c335 efbb c169 0dbd 7b77 05bd
00000140: a19f 183b dc1d 4bbc c2e0 01bd ff4d 06bd
00000150: f689 053d 9781 febc 0065 123c e0e4 54bc
00000160: 3cb9 57bc 08e5 85bd f8e4 043d 34f8 07bd
00000170: afe2 653d be18 b4bb 332e 073b f0bc 80bc
00000180: 8986 52bd c81e 50bb 2295 6e3c d076 9bbd
00000190: 4f49 7dba 73c5 5f3c f292 803c 86d5 263d
000001a0: 5899 3fbc 0fcb ad3d 59a5 b4bb 67b6 1d3d
000001b0: dc69 f8bc 20cb cc3b d3f0 76bb 678f ec3c
000001c0: 019b 033d 469a 45bc abff f5bc 64bd 2f3d
000001d0: 4379 67bd 1f35 56bc 91fe 06bd 28ba adbc
000001e0: 8f0e ba3c 8cce 923c da7d 9b3d b27d 41bc
000001f0: f94f 7abc 4a4e 1cbd 7e0b c33c e903 35bc
00000200: 0425 44be fe51 67be 23c6 c63c 5742 ed3d
00000210: e45c 2e3e c837 99bd eb2e 0b3d 931a a0be
00000220: 21ca 243e f469 913c 75df 793e 1ed7 313b
00000230: 847a 9a3e 5ece 8d3d 3a51 ff3d e529 cbbe
00000240: 34d4 bdbe fc0b d7be a015 8ebe 8cc9 c7be
00000250: 37f7 81be d5d7 1c3d a181 053e 12aa 483d
00000260: aab6 9d3c 1c03 e83d 096d ef3d ac34 8bbe
00000270: 57ae 52bd b0e8 e13d 43dc aebd 9af0 873e
00000280: 5b33 0e3d 4f22 3bbd 8edd d03e e1eb b5bc
00000290: c46d 9d3e 4eb4 18be 2e96 913e d802 09bc
000002a0: 5dcd 63bc f950 6e3d d6dc 05be b30d 893e
000002b0: 5d56 373c c9b1 4abe 4628 4cbe 06a3 18be
000002c0: 491c de3d 7bf4 8b3d edff 233e bddc c93e
000002d0: 3258 83be 47ff 57be 1b5b 9e3c 3062 2a3e
000002e0: 5af3 03be 9627 353e ae8d 7f3d f1d6 d23d
000002f0: a773 9e3d d119 2ebd 1878 883e 6c3c 773d
00000300: bd4b 0d3e 207b e0be ffc6 0cbe d3e2 0dbb
00000310: b28a ac3e 634a 36bd 45d3 a3bd fa6e 80be
00000320: f517 cf3e e35d 5c3d b43f e13d d9e8 0cbe
00000330: c6ad a63e 0ca6 9e3e f153 533e c653 53be
00000340: 08f2 b5bd 780d bbbe 30d2 59be 1124 04bf
00000350: 9f1c e7be 1c40 c3bd abac 6b3e afc9 18be
00000360: 4231 a3bd 8a52 c8bd 47c7 183e 192c d33b
00000370: 6b5f 483e ca58 1e3e 9bf1 8dbd 8eb1 66be
00000380: a4c7 a43e ad2e 32be 4009 5e3e 34af 4ebe
00000390: d9c2 303e 95f7 503d 11cc 913e 5ccf 45be
000003a0: f85a 1cbe 85cb 48be c164 993d 03db 113e
000003b0: bac1 65bd 7dcc 513c 4b89 06bd 3b8f 053e
000003c0: 523e f2bd 36a3 e73d 6ed1 90bd e358 81bd
000003d0: f093 e0bd ae58 1ebe 5a14 5ebe 8927 bd3d
000003e0: 0f86 8f3b 6194 4b3e a99b 4e3e e56b d83d
000003f0: 5cf6 9b3e b082 b8be b8d6 f63d f6c2 553e
0.06831974 -0.0024466873 0.039698523 -0.045418337 0.006843995 0.041355114 -0.012241517 0.092212185
0.042830434 -0.09751199 -0.09514504 -0.035265893 -0.02697027 -0.04700912 -0.045463625 -0.034773793
-0.07266575 -0.1381208 0.0063440176 -0.01717829 -0.07497455 -0.028431937 0.0023711515 -0.011839414
0.026790386 0.1085326 -0.040000267 0.0850519 0.058698427 0.0062965523 -0.044474285 0.033945028
-0.09061046 -0.055910397 -0.014311825 0.03722847 0.0032329862 0.110637866 -0.06404839 0.089447
0.019162767 0.028080018 -0.0369272 -0.025661523 -0.040984474 -0.0053318827 0.038982213 -0.10088326
-0.025533816 0.05941944 -0.10157605 -0.029360702 0.2617427 0.01601096 -0.044898782 -0.0052900333
-0.027366908 0.024914874 0.076735474 -0.044309124 -0.09134141 -0.02119885 0.042893235 -0.03484408
0.01600705 0.006957201 0.030347342 -0.0007587898 0.0180158 -0.01953303 -0.04938064 -0.04759621
0.03320562 0.017505981 -0.01673942 -0.0020279018 0.00845786 -0.00730011 -0.034524683 -0.03258465
0.0023288506 -0.012397256 -0.031708486 -0.032789227 0.032602273 -0.031067653 0.008935213 -0.012994021
-0.013166722 -0.06537825 0.032444924 -0.03319569 0.056124385 -0.0054961136 0.0020626902 -0.015715092
-0.051397834 -0.0031756628 0.014561923 -0.07591021 -0.0009662108 0.013657915 0.015695069 0.040730976
-0.011694275 0.08485996 -0.005512875 0.03850403 -0.030323915 0.0062498003 -0.0037680164 0.028876973
0.032130245 -0.012060707 -0.030029139 0.042905226 -0.05651213 -0.0130741885 -0.032957617 -0.02120693
0.02271202 0.017920755 0.07592364 -0.011809753 -0.015277856 -0.0381606 0.02380919 -0.011048296
-0.19154745 -0.22589871 0.0242644 0.11584919 0.17027622 -0.074813426 0.03398029 -0.31270275
0.16092731 0.017750718 0.24401648 0.0027136276 0.30171597 0.06924127 0.124666646 -0.396804
-0.3707596 -0.4200133 -0.27750874 -0.39020956 -0.25383922 0.03829177 0.13037731 0.048990317
0.01925214 0.11328718 0.11690719 -0.27188623 -0.051435795 0.1103071 -0.08538105 0.26550752
0.034716945 -0.045687016 0.40794033 -0.022207202 0.30747807 -0.14912531 0.2843489 -0.008362494
-0.013903943 0.05818269 -0.13072523 0.26768264 0.011190024 -0.19794382 -0.19937238 -0.14905939
0.10845239 0.0683374 0.16015597 0.39426222 -0.25653225 -0.21093474 0.019330552 0.16639018
-0.128858 0.17690882 0.062390976 0.10294903 0.07736903 -0.04250509 0.26654124 0.060360357
0.13798423 -0.43843937 -0.13747786 -0.002165009 0.33699566 -0.044504534 -0.07999281 -0.25084668
0.40447965 0.053800475 0.109984785 -0.137607 0.32554454 0.3098606 0.2063749 -0.20637426
-0.088840544 -0.36533713 -0.21271586 -0.5161753 -0.45139024 -0.09533712 0.23015086 -0.14920686
-0.079683796 -0.09781368 0.14919768 0.006444466 0.19567649 0.15463558 -0.06930848 -0.22528669
0.32183564 -0.17400618 0.21683216 -0.20184022 0.17261828 0.051017363 0.28476003 -0.19317383
-0.15269077 -0.19608887 0.074899204 0.14243703 -0.056092955 0.012805101 -0.032845777 0.1304292
-0.11828293 0.11310427 -0.070711955 -0.06315782 -0.10965717 -0.15463516 -0.21687451 0.09236056
0.0043799947 0.19880821 0.20176567 0.10567454 0.30461395 -0.36037207 0.12052673 0.20875153

linear_final.bias f4 [5]
00000000: b439 4bbc 628d 1a3d ac60 8dbf e97f dabf
00000010: 2af2 38be
-0.012403894 0.03773249 -1.1045127 -1.7070285 -0.18061128
