results1_checkpoint/zara1/latest.pth (torch_old, 57359 bytes, 12 tensors)

gcn.gc1.weight f4 [2, 64]
-0.004115816 -0.0046537262 0.0030224915 0.0034307246 0.0051613757 0.0006003693 -0.007236635 0.0005376949
-0.0018046355 -0.0022757254 -0.0012238913 -0.0062458846 -0.0031102845 -0.0041756253 -0.0038170489 0.0077065933
-0.0037963716 0.0023314878 0.0024052584 -0.0005507502 -0.00020487647 0.0005003437 0.0027567225 8.089429e-05
0.00036708362 0.008676235 -0.0006553896 -0.0033529252 -0.002715158 -0.0034957812 0.0072983583 -0.0018503063
-0.0046346965 -0.0045973295 0.0014742594 0.003817533 0.005104334 0.0029897867 0.0059549212 -0.0033451263
0.0041277483 -0.005145546 0.00033384687 0.006151514 0.0010359229 0.0020457976 0.0010999575 0.0014509308
0.0026974317 0.008077114 0.0056150374 0.002028427 -0.00022576752 -0.0011812879 -0.009353985 0.0026896212
-0.00023242063 0.0017154113 0.004930245 -0.0028775355 0.004075866 0.0016792355 0.0019551222 -0.00028407032
0.0010112441 -0.003463573 -0.0025316714 -0.0010071822 0.00190302 0.0006911127 0.0005804122 -0.0040797987
0.0035692987 0.00028774163 0.0047497978 -0.004608317 0.003006441 -0.0027959421 0.0009753409 0.009900947
0.0017336694 -0.006525764 0.00049598975 -0.0002582351 0.0015384083 0.0075446577 0.0037545604 0.0041309414
0.0013138491 -0.0030281097 -0.00040929674 0.0085916575 0.0002853629 -0.003191684 -0.0038103512 0.0029998831
-0.0066701258 0.005784273 0.0042607477 -0.00430224 0.008120129 -0.00035017525 0.0061011887 0.0026728257
0.0006995241 0.0006109297 0.006545417 0.0016898591 -0.0038578953 0.002140282 0.002811221 0.0069065224
-0.008809276 0.0021248837 -0.00045640187 0.00044007 0.00026986765 0.0036250541 0.0015384316 -0.0004219723
-0.0013202426 0.0015393405 -0.0017944889 0.0033462064 -0.002339272 0.004838477 -0.00446253 0.0023838556
00000000: f8dd 86bb 497e 98bb fe14 463b 02d6 603b
00000010: c220 a93b 1a62 1d3a 4b21 edbb 18f4 0c3a
00000020: 8589 ecba 5624 15bb fa6a a0ba 47aa ccbb
00000030: ead5 4bbb afd3 88bb 7427 7abb 9787 fc3b
00000040: 8ccc 78bb e0cb 183b 8aa1 1d3b 3860 10ba
00000050: 1cd4 56b9 7f29 033a 21aa 343b cba5 a938
00000060: 2175 c039 c426 0e3c 74ce 2bba c0bc 5bbb
00000070: cbf0 31bb 7a19 65bb 1127 ef3b fa85 f2ba
00000080: a7de 97bb 32a5 96bb f03b c13a 932f 7a3b
00000090: 4242 a73b 4cf0 433b 8021 c33b e839 5bbb
000000a0: 1042 873b f89b a8bb 2b08 af39 a492 c93b
000000b0: cec7 873a ca12 063b 732c 903a 292d be3a
000000c0: 65c7 303b df55 043c 59fe b73b 5cef 043b
000000d0: 02bc 6cb9 72d5 9aba 7541 19bc 5b44 303b
000000e0: f0b5 73b9 a7d7 e03a e58d a13b 0995 3cbb
000000f0: d88e 853b cb19 dc3a 8221 003b 46ef 94b9
00000100: b98b 843a 1dfd 62bb 66ea 25bb 6d03 84ba
00000110: c16e f93a ca2b 353a ce26 183a d5af 85bb
00000120: e5ea 693b 07dc 9639 31a4 9b3b 5d01 97bb
00000130: b607 453b 203c 37bb 05ae 7f3a 9537 223c
00000140: 4b3c e33a 13d6 d5bb 4f05 023a ba63 87b9
00000150: 6ba4 c93a 2d39 f73b 120f 763b d95c 873b
00000160: 7635 ac3a 4073 46bb e196 d6b9 06c4 0c3c
00000170: c39c 9539 922b 51bb 16b7 79bb b099 443b
00000180: 1291 dabb 008a bd3b be9d 8b3b cef9 8cbb
00000190: 4a0a 053c ba97 b7b9 7bec c73b 932a 2f3b
000001a0: 4560 373a cc26 203a f07a d63b 437e dd3a
000001b0: bed4 7cbb f943 0c3b 763c 383b 1c50 e23b
000001c0: c854 10bc a241 0b3b 3949 efb9 32b9 e639
000001d0: 067d 8d39 5192 6d3b 33a5 c93a 2a3c ddb9
000001e0: fe0b adba b2c3 c93a 0e35 ebba 074c 5b3b
000001f0: 794e 19bb 168c 9e3b 6a3a 92bb 763a 1c3b

gcn.gc1.bias f4 [64]
2.0380037e-07 1.8252991e-05 9.007521e-05 1.6053826e-05 5.9975464e-05 6.639176e-05 -1.1499439e-05 -7.4924945e-05
-0.0002197933 0.00012410861 0.00020792945 6.4654237e-06 0.00027138882 9.961425e-06 -2.9691371e-05 0.00014171854
-0.00026801074 6.24044e-05 2.8491551e-05 -7.8936464e-05 5.7498064e-06 -0.00017446006 -7.91702e-05 8.125515e-05
7.511403e-05 5.4699343e-05 -4.2133623e-05 -0.00012754966 -6.9713984e-05 -1.0200561e-05 -6.6427914e-05 0.0001037809
-5.1304738e-05 -5.8094305e-05 -5.1523504e-05 -0.00012374706 -1.3436981e-05 -3.186936e-05 -1.4406767e-05 -0.00019669154
-1.3033602e-05 3.8155067e-05 0.0001245169 -1.8028903e-05 -6.623157e-05 -6.6552225e-06 -5.7881713e-05 7.658339e-06
6.211857e-06 1.7107628e-05 0.000113456656 -2.9173685e-05 -9.8745186e-05 -5.7339894e-05 4.4492886e-06 5.9953934e-05
0.00014944708 8.588894e-05 -7.668075e-05 0.00023844789 -5.0495186e-05 -1.3031778e-05 -0.00020367866 -4.5841534e-05
00000000: 38d4 5a34 001e 9937 c3e6 bc38 54ab 8637
00000010: 2a8e 7b38 ce3b 8b38 b7ed 40b7 0621 9db8
00000020: 5178 66b9 2723 0239 a307 5a39 91f1 d836
00000030: 3149 8e39 ff1f 2737 bc11 f9b7 489a 1439
00000040: cb83 8cb9 1bdf 8238 2401 ef37 b18a a5b8
00000050: 76ee c036 44ef 36b9 2d08 a6b8 8767 aa38
00000060: 8a86 9d38 f96c 6538 a2b8 30b8 dabe 05b9
00000070: 6933 92b8 1323 2bb7 374f 8bb8 f2a4 d938
00000080: 0b30 57b8 49aa 73b8 f11a 58b8 19c2 01b9
00000090: 656f 61b7 77ab 05b8 98b4 71b7 fc3e 4eb9
000000a0: e5aa 5ab7 b108 2038 c090 0239 c63c 97b7
000000b0: cee5 8ab8 ed4f dfb6 04c6 72b8 517c 0037
000000c0: 726f d036 5a82 8f37 94ef ed38 03ba f4b7
000000d0: 6b15 cfb8 3e80 70b8 194b 9536 0c77 7b38
000000e0: e5b4 1c39 461f b438 aacf a0b8 de07 7a39
000000f0: cbca 53b8 0fa3 5ab7 9392 55b9 f945 40b8

gcn.gc2.weight f4 [64, 2]
-0.00015652174 -0.0005952652 0.002232408 -0.0014959192 -0.0012868533 0.005415444 -0.0004851523 -0.0003671224
-0.0011414328 -0.0030616182 -5.115912e-05 -0.0038951484 -0.0009132264 -0.0017840709 0.0028242862 0.0007074224
-0.005288004 0.001286928 0.0042980346 -0.0012286395 0.006798404 0.0007914151 -0.00084392406 0.0024827842
0.009174952 0.00281329 -0.00060239783 0.0025845647 -0.003175155 -0.0065828613 -0.0016686538 -0.0048243143
-0.010038579 -0.003879558 -0.00050146907 0.0024752754 0.0007443615 -0.0051549803 -0.0041354382 0.0017032997
-0.0031806757 -0.0033607387 0.00167109 0.005264013 -0.0013230322 0.0030623607 0.0027686774 -0.0005546923
0.003774034 -0.0022473244 -0.0016690303 -0.001461306 -0.0026202002 0.00045232757 -0.0022730539 0.0014403381
-0.00195721 0.0012311027 -0.0010021974 0.00015331342 0.0017571594 -0.0012015045 0.0005618658 -0.003697227
-0.0004921645 -0.0035337203 0.0014096006 0.004509215 0.0029525876 0.0016577768 0.0027824522 -0.002758336
0.0021686098 -4.1654977e-05 0.0011748248 -0.0013912888 -0.002057128 0.001485426 -0.0051588644 0.000751934
0.0017150176 -0.0029333995 0.002181279 0.0029917615 0.00020468203 -0.0036173358 -0.00029664504 0.0018088646
-0.0014697724 -0.007159225 0.0022181678 -0.00070736196 0.001331846 0.0017256831 0.0015547323 0.00019473847
-0.0009603496 -0.0014961414 0.0036219743 -0.0088368105 -0.0035393105 -0.0036595885 0.003677613 -0.0045270356
-0.004275969 0.00022969418 0.0019490152 0.0040219226 2.5342142e-05 -0.00054034236 -0.0022357118 0.004855983
0.0018596608 0.006211915 -0.0033050533 -0.0020788729 0.0022894973 -0.00043552418 0.006928096 6.1462e-05
0.0017554743 0.0034002913 -0.006667429 -0.00011891193 0.0051935352 -0.0016103574 0.0047236443 0.0050088847
00000000: fc1f 24b9 920b 1cba 974d 123b b812 c4ba
00000010: a2ab a8ba 0974 b13b 0a5c feb9 567a c0b9
00000020: 219c 95ba 6ea5 48bb b093 56b8 bf45 7fbb
00000030: 9665 6fba 7cd7 e9ba a917 393b 5072 393a
00000040: fe46 adbb 23ae a83a 87d6 8c3b 4d0a a1ba
00000050: 25c5 de3b f876 4f3a c93a 5dba 35b6 223b
00000060: 8a52 163c 2d5f 383b 3cea 1dba cd61 293b
00000070: 4316 50bb 0bb5 d7bb bbb6 daba 4815 9ebb
00000080: da78 24bc 2f40 7ebb 0575 03ba 3b38 223b
00000090: 4121 433a 1ceb a8bb 9282 87bb 4141 df3a
000000a0: e272 50bb d73f 5cbb 7a08 db3a be7d ac3b
000000b0: 9869 adba e3b1 483b b372 353b c568 11ba
000000c0: c955 773b d947 13bb 5dc3 daba 4b89 bfba
000000d0: aab7 2bbb 6126 ed39 84f7 14bb bac9 bc3a
000000e0: 8944 00bb f45c a13a 2a5c 83ba c2c2 2039
000000f0: 7c50 e63a cd7b 9dba 2d4a 133a 2d4d 72bb
00000100: 9a04 01ba fd95 67bb 59c2 b83a 09c2 933b
00000110: 3380 413b c249 d93a cd59 363b 33c5 34bb
00000120: 3c1f 0e3b b1b6 2eb8 94fc 993a e85b b6ba
00000130: e1d0 06bb a0b2 c23a b10b a9bb 701d 453a
00000140: 71ca e03a 473e 40bb caf3 0e3b 6e11 443b
00000150: ea9f 5639 d310 6dbb 0687 9bb9 6d17 ed3a
00000160: 61a5 c0ba ef97 eabb ae5e 113b 426e 39ba
00000170: 5691 ae3a 5130 e23a 29c8 cb3a b632 4c39
00000180: f8bf 7bba 2d1a c4ba a55e 6d3b 45c8 10bc
00000190: c7f3 67bb b5d5 6fbb 1c04 713b 8757 94bb
000001a0: 6e1d 8cbb 10da 7039 1976 ff3a 55ca 833b
000001b0: d695 d437 c3a5 0dba 0585 12bb f01e 9f3b
000001c0: ddbf f33a 528d cb3b 9899 58bb b33d 08bb
000001d0: 640b 163b 1157 e4b9 1505 e33b 29e5 8038
000001e0: f117 e63a 6cd7 5e3b 737a dabb 5b60 f9b8
000001f0: 882e aa3b a112 d3ba cdc8 9a3b 9221 a43b

gcn.gc2.bias f4 [2]
3.591238e-05 0.0007054222
00000000: a0a0 1638 15ec 383a

grucell.weight_ih f4 [192, 2]
0.03204559 -0.05193583 -0.071357496 0.034453124 0.05477854 0.03163211 0.043603294 0.04990771
-0.04409601 -0.02125013 0.03395047 -0.037368968 -0.111103155 -0.04076011 -0.080526955 -0.08281134
-0.03506203 0.058782097 -0.04036515 0.11793515 -0.023144115 0.06111017 0.0852836 0.06518608
0.031620305 0.06841227 0.11641888 -0.012740162 0.09006649 0.09637144 -0.04087028 0.042538784
0.05283231 -0.039908238 0.0787966 0.010901178 0.107071325 0.008438069 -0.088490374 -0.09628216
0.025671594 -0.09513421 0.045393646 -0.013556476 -0.050292615 -0.1055035 0.03566682 0.022680841
-0.038660858 -0.09896389 -0.017510429 0.047174852 -0.07285167 0.046238933 0.03668761 -0.02391351
-0.11528298 -0.09650804 0.12402825 0.10873649 0.025673967 -0.09861141 -0.10309565 -0.039369915
-0.11114089 -0.030823776 -0.07966993 -0.09432603 -0.11414793 -0.048904385 0.07968646 -0.059472807
-0.07413399 0.047669146 -0.11243395 -0.113040455 -0.09803064 -0.065472566 -0.08745371 0.00879834
0.121192865 0.08447178 0.10752285 -0.032752812 -0.11448965 0.014051234 0.054128245 -0.009713212
-0.056906473 -0.081704885 0.02778314 -0.06307467 -0.114805005 0.12190131 0.07390564 -0.11608142
0.08084134 0.02817259 -0.015372487 0.07188139 -0.055503856 -0.049753606 -0.010115711 -0.115095936
-0.019686334 -0.020963222 0.092611566 -0.05578281 -0.0695207 0.08243948 -0.108949706 0.015404108
-0.019466517 -0.053370506 0.05085332 0.11946761 0.07321762 0.0012704756 -0.003471764 -0.038160127
-0.045166295 0.108729064 -0.056141824 0.009458535 0.033581704 0.12049296 0.023665043 0.09762436
0.08919643 -0.075268805 0.027933817 -0.026358508 -0.021904733 0.0055704406 -0.034926083 0.03975423
-0.09125711 0.0915815 -0.0036237638 -0.0986984 0.023012081 -0.05171985 0.08646106 0.06174479
0.022792537 0.047762267 -0.05527556 0.04211519 -0.033280045 -0.00488967 0.058404617 0.07550936
0.0616603 -0.08674607 -0.028235925 0.123198226 0.10280729 -0.103602596 0.06309297 0.07306238
0.079037994 0.030789604 -0.04872011 0.08609625 -0.053384982 -0.031261317 -0.12363452 0.031923823
0.01912358 -0.038025916 0.036491465 -0.060576364 0.038152475 0.121808976 0.09120739 -0.054699432
-0.07408571 -0.011420414 0.040701836 -0.11377029 0.11444804 0.027189886 -0.024575287 0.011261737
0.051524773 0.0121086445 -0.02357008 0.0007196305 -0.11305243 0.113629535 -0.061097305 0.07423254
-0.00663301 0.016062751 -0.078729056 -0.08062459 -0.060965408 0.1122386 -0.0012835356 -0.10596983
0.033812072 -0.0784031 0.0805808 0.0759948 0.10794329 -0.04005529 0.02885304 0.065678634
0.07686712 -0.026256992 -0.011337649 0.0056564966 -0.056782387 0.042129114 0.102242075 -0.063920565
0.04380616 0.12167359 -0.030984584 -0.10592232 0.083958656 0.080379 -0.12353931 -0.07111012
-0.035354674 0.10152825 -0.088999465 -0.057330187 -0.08353194 -0.077870026 -0.058296703 -0.031679753
-0.117507376 0.0156816 0.045229055 0.08002417 -0.009403794 0.026582845 0.09389858 0.11592798
-0.1041448 -0.020785801 -0.08079338 0.11979655 0.049134217 0.014263407 -0.068002015 0.004380836
0.1148639 0.08033501 0.045447502 0.11386875 -0.02086773 -0.08997704 -0.0826649 -0.11269032
00000000: 3d42 033d aaba 54bd e123 92bd b81e 0d3d
00000010: 765f 603d ac90 013d 5e99 323d 076c 4c3d
00000020: 059e 34bd c114 aebc a60f 0b3d 3410 19bd
00000030: 0d8a e3bd 13f4 26bd 51eb a4bd fe98 a9bd
00000040: 349d 0fbd 7fc5 703d ed55 25bd fc87 f13d
00000050: ba98 bdbc a84e 7a3d 2ba9 ae3d 4880 853d
00000060: 4b84 013d bb1b 8c3d 066d ee3d 1dbc 50bc
00000070: c874 b83d 645e c53d 9867 27bd 263d 2e3d
00000080: b166 583d d276 23bd 1d60 a13d db9a 323c
00000090: 3648 db3d d43f 0a3c 713a b5bd 952f c5bd
000000a0: 3c4d d23c bad5 c2bd b0ee 393d fb1b 5ebc
000000b0: a1ff 4dbd 3812 d8bd 5f17 123d 2ccd b93c
000000c0: d95a 1ebd 94ad cabd 0872 8fbc 6b3a 413d
000000d0: 4233 95bd 0965 3d3d bf45 163d 44e6 c3bc
000000e0: 7c19 ecbd 02a6 c5bd 8602 fe3d 3db1 de3d
000000f0: 3652 d23c c7f4 c9bd d023 d3bd 5942 21bd
00000100: d69d e3bd 2582 fcbc fd29 a3bd 012e c1bd
00000110: 64c6 e9bd f74f 48bd a832 a33d c299 73bd
00000120: 90d3 97bd b940 433d c543 e6bd c181 e7bd
00000130: 4ac4 c8bd 7b16 86bd ee1a b3bd ea26 103c
00000140: f733 f83d 8aff ac3d f134 dc3d d027 06bd
00000150: 8d79 eabd 2637 663c 94b5 5d3d 2a24 1fbc
00000160: c316 69bd e454 a7bd 7899 e33c 4b2d 81bd
00000170: e31e ebbd 65a7 f93d d75b 973d 18bc edbd
00000180: 2590 a53d 34ca e63c e2dc 7bbc 8d36 933d
00000190: 0358 63bd 70ca 4bbd 5ebc 25bc 6bb7 ebbd
000001a0: 3c45 a1bc 10bb abbc 22ab bd3d 847c 64bd
000001b0: de60 8ebd 08d6 a83d 0621 dfbd 8361 7c3c
000001c0: 3f78 9fbc 089b 5abd 924b 503d 6fab f43d
000001d0: 1ff3 953d 1686 a63a 8986 63bb cb4d 1cbd
000001e0: 4b00 39bd 58ad de3d f8f4 65bd f9f7 1a3c
000001f0: f88c 093d 03c5 f63d 31dd c13c 48ef c73d
00000200: 9eac b63d 8826 9abd 76d5 e43c cced d7bc
00000210: 8e71 b3bc 3e88 b63b a70e 0fbd 55d5 223d
00000220: 02e5 babd 158f bb3d ab7c 6dbb 6322 cabd
00000230: d583 bc3c 32d8 53bd 7f12 b13d 1be8 7c3d
00000240: 6ab7 ba3c 5ea2 433d a068 62bd fa80 2c3d
00000250: a850 08bd 8639 a0bb ae39 6f3d a7a4 9a3d
00000260: 838f 7c3d eca7 b1bd 074f e7bc 5a4f fc3d
00000270: a18c d23d 992d d4bd e336 813d bba1 953d
00000280: acde a13d 7b3a fc3c bd8e 47bd 3b53 b03d
00000290: 36aa 5abd de0b 00bd 1834 fdbd 8ec2 023d
000002a0: 0ea9 9c3c 10c1 1bbd 1378 153d ec1e 78bd
000002b0: c545 1c3d fc76 f93d f1ca ba3d 830c 60bd
000002c0: 40ba 97bd b01c 3bbc f8b6 263d 6600 e9bd
000002d0: bc63 ea3d 53bd de3c 1d52 c9bc 2683 383c
000002e0: a40b 533d 5663 463c 0a16 c1bc 96a5 3c3a
000002f0: 0888 e7bd 9ab6 e83d 2b41 7abd 3b07 983d
00000300: b959 d9bb 0896 833c b33c a1bd 811e a5bd
00000310: ddb6 79bd 5add e53d 4f3c a8ba b606 d9bd
00000320: 877e 0a3d ce91 a0bd 8c07 a53d 29a3 9b3d
00000330: 5f11 dd3d 0411 24bd 365d ec3c 8582 863d
00000340: 826c 9d3d e718 d7bc 8cc1 39bc 225a b93b
00000350: a694 68bd 948f 2c3d 4b64 d13d c9e8 82bd
00000360: 176e 333d 0130 f93d 62d3 fdbc cded d8bd
00000370: 84f2 ab3d bf9d a43d 2e02 fdbd 2fa2 91bd
00000380: 10d0 10bd 0bee cf3d 5a45 b6bd 0fd3 6abd
00000390: cb12 abbd 527a 9fbd 86c8 6ebd a1c2 01bd
000003a0: b5a7 f0bd b376 803c 1a42 393d b6e3 a33d
000003b0: 5f12 1abc 44c4 d93c e64d c03d a66b ed3d
000003c0: de49 d5bd fc46 aabc 0077 a5bd e557 f53d
000003d0: f640 493d 11b1 693c a444 8bbd 1e8d 8f3b
000003e0: c43d eb3d af86 a43d 2927 3a3d 0534 e93d
000003f0: cdf2 aabc e245 b8bd 374c a9bd 2fca e6bd

grucell.weight_hh f4 [192, 64]
0.019925378 -0.09780293 -0.05603071 -0.031778865 -0.08582794 0.00029570446 -0.0012187974 -0.024807096
0.08138513 0.062055644 -0.025277229 0.047100406 0.009020784 0.09484762 0.012833565 0.054967936
-0.039725784 -0.065874964 0.047807824 0.012334434 -0.048842054 -0.123812 0.0037909753 -0.025822265
-0.049910683 0.11598601 0.0090081 0.029324615 0.052407563 0.10401833 -0.12406947 0.055366755
-0.01952193 -0.07416735 0.05577497 0.049166817 -0.08273679 0.083133124 -0.118643716 -0.068170734
0.033875924 0.045118712 -0.0866445 0.00891947 0.01904328 -0.05369276 -0.06530817 -0.09023773
-0.020662036 -0.10399035 -0.054715976 0.015606908 0.08675281 0.0874125 -0.07178877 0.05310528
-0.008422052 0.069899574 -0.016952842 0.07528991 0.11973188 0.026684998 0.034114044 -0.11256013
-0.06356478 -0.076407626 0.08690828 -0.023845203 0.004704636 -0.052940868 0.10820723 -0.11883023
-0.04377193 -0.11978056 0.057472266 -0.021293793 -0.077603534 -0.056250494 -0.028762432 -0.07163191
0.02775277 0.03125619 0.11790562 0.042070754 -0.10739844 0.038206294 0.06524027 -0.0072041336
0.04650671 0.123158835 0.084528185 0.0633533 -0.02407285 0.08685704 -0.12053683 0.092138976
-0.11849296 -0.084543884 0.09994334 -0.019158512 0.015140983 -0.06439374 -0.09715761 -0.011237037
-0.063682474 -0.060822472 0.108635604 -0.022520851 -0.0097274175 0.058722477 -0.10962634 0.04111879
0.077855945 -0.04517691 -0.06417978 -0.011437165 0.010381265 0.09037686 0.055311963 -0.09323967
-0.004516553 0.09053294 0.030158976 0.0020977445 -0.0402636 0.04548269 0.07329264 0.12104458
0.06670133 -0.056456704 -0.074131794 -0.102992475 -0.07285881 0.062694356 0.110104635 0.11344692
0.0017756018 -0.06295062 0.055638745 -0.045435496 0.015797067 -0.058059737 -0.016558388 0.09839619
0.049469072 -0.057065707 -0.03484929 0.05072075 -0.0077605327 0.00465065 0.06060973 -0.09801691
0.10198499 -0.1025687 -0.09620328 0.0019067699 -0.068148434 0.11326784 0.097071975 -0.003843146
-0.06890508 0.018958312 0.059065633 -0.01757223 0.048833624 0.06494891 0.07864132 0.02883766
-0.07606637 0.053301822 -0.023173617 -0.1030813 0.08930258 0.073140554 0.080088854 0.083155766
0.117351174 0.081698366 0.00042834593 0.03998747 0.083939165 -0.03687255 0.071208194 -0.041284744
-0.10564037 -0.09648153 0.048728295 0.002852586 0.008049111 0.031138964 0.035351835 0.10160708
0.048865326 0.03709939 -0.116798356 0.02629737 0.028711723 -0.0842747 -0.06609561 -0.011626966
0.010723864 0.09058119 -0.011026514 -0.0028992426 -0.123208635 -0.057815026 0.104206234 -0.070606686
-0.116599225 -0.016756471 -0.036282513 0.02807091 -0.04450659 -0.07674877 -0.09726449 0.11911128
0.05776924 0.028896613 -0.044088956 0.09663704 -0.08581915 -0.085472465 -0.093351215 -0.123762324
-0.030645197 -0.050879832 -0.08966912 -0.10754045 0.088610195 0.047368344 -0.1200716 -0.088373035
-0.044044252 -0.048648957 -0.0061620064 -0.04195675 -0.02395903 0.09207751 -0.036450095 -0.06317549
-0.010150497 0.04243047 -0.051001243 -0.06752094 0.0001693092 0.09813621 -0.04685033 -0.049141355
0.054193143 -0.045594934 -0.028078001 0.113389164 -0.0048312536 -0.041755777 0.10884677 -0.026752487
00000000: 8c3a a33c e74c c8bd 7580 65bd 8e2a 02bd
00000010: 8fc6 afbd c808 9b39 0ec0 9fba 4038 cbbc
00000020: 3fad a63d 0f2e 7e3d 3112 cfbc 5bec 403d
00000030: e9cb 133c 783f c23d df43 523c 0f26 613d
00000040: 81b7 22bd 74e9 86bd 23d2 433d 5e16 4a3c
00000050: 9b0e 48bd 2591 fdbd 0372 783b 3789 d3bc
00000060: 256f 4cbd 138a ed3d b696 133c 2d3a f03c
00000070: 50a9 563d 9007 d53d 2218 febd 40c8 623d
00000080: 74ec 9fbc 0de5 97bd 4c74 643d 2563 493d
00000090: e871 a9bd b341 aa3d 7afb f2bd 199d 8bbd
000000a0: 7bc1 0a3d 66ce 383d ac72 b1bd f822 123c
000000b0: a700 9c3c f1ec 5bbd 4ac0 85bd 8fce b8bd
000000c0: 6e43 a9bc e5f8 d4bd dc1d 60bd 1eb4 7f3c
000000d0: 75ab b13d 5305 b33d fe05 93bd ec84 593d
000000e0: a5fc 09bc 8227 8f3d b0e0 8abc 9931 9a3d
000000f0: fd35 f53d 7f9a da3c 2bbb 0b3d ed85 e6bd
00000100: 402e 82bd 9a7b 9cbd f8fc b13d 0457 c3bc
00000110: 5929 9a3b 86d8 58bd c19b dd3d 435d f3bd
00000120: 324a 33bd 834f f5bd 0a68 6b3d 5270 aebc
00000130: 9aee 9ebd eb66 66bd 319f ebbc c0b3 92bd
00000140: c759 e33c 7e06 003d 8078 f13d 6252 2c3d
00000150: b7f3 dbbd 347e 1c3d b19c 853d a710 ecbb
00000160: d27d 3e3d b33a fc3d 1d1d ad3d 60bf 813d
00000170: 6d34 c5bc 1be2 b13d 03dc f6bd 5cb3 bc3d
00000180: 70ac f2bd 5825 adbd 18af cc3d 50f2 9cbc
00000190: e311 783c dde0 83bd 92fa c6bd 8d1b 38bc
000001a0: f56b 82bd fc20 79bd 587c de3d a67d b8bc
000001b0: bf5f 1fbc fb86 703d c683 e0bd 2d6c 283d
000001c0: f072 9f3d 6c0b 39bd b070 83bd f262 3bbc
000001d0: 2e16 2a3c 8117 b93d cc8e 623d 71f4 bebd
000001e0: 98ff 93bb 5669 b93d f50f f73c 507a 093b
000001f0: 72eb 24bd 0f4c 3a3d 741a 963d 39e6 f73d
00000200: b59a 883d 253f 67bd 69d2 97bd b8ed d2bd
00000210: 0037 95bd e665 803d 8a7e e13d dc56 e83d
00000220: 4fbb e83a 41ec 80bd 74e5 633d 921a 3abd
00000230: da68 813c 0cd0 6dbd 75a5 87bc f183 c93d
00000240: 15a0 4a3d bbbd 69bd 21be 0ebd 90c0 4f3d
00000250: 114c febb 7b64 983b e941 783d 17bd c8bd
00000260: 82dd d03d 8a0f d2bd 3a06 c5bd 95ec f93a
00000270: 6891 8bbd f8f8 e73d accd c63d 4add 7bbb
00000280: 1b1e 8dbd 764e 9b3c ceee 713d a3f3 8fbc
00000290: c405 483d ef03 853d b30e a13d f53c ec3c
000002a0: afc8 9bbd 0353 5a3d 99d6 bdbc 4a1c d3bd
000002b0: 45e4 b63d b7ca 953d a005 a43d 924d aa3d
000002c0: d055 f03d 7951 a73d 9e93 e039 e7c9 233d
000002d0: 4ce8 ab3d ac07 17bd 9ad5 913d 311a 29bd
000002e0: fa59 d8bd 1c98 c5bd 5297 473d 74f2 3a3b
000002f0: 6be0 033c 2417 ff3c 16cd 103d 5f17 d03d
00000300: 0227 483d 88f5 173d fa33 efbd 956d d73c
00000310: d934 eb3c 3798 acbd 235d 87bd 087f 3ebc
00000320: 25b3 2f3c a282 b93d 8da8 34bc 3801 3ebb
00000330: cf54 fcbd 73cf 6cbd 146a d53d 3d9a 90bd
00000340: 93cb eebd de44 89bc f99c 14bd f7f4 e53c
00000350: 8b4c 36bd 762e 9dbd 9b32 c7bd 9df0 f33d
00000360: 709f 6c3d 97b8 ec3c 9f96 34bd a4e9 c53d
00000370: f3c1 afbd 300c afbd ec2e bfbd 1a77 fdbd
00000380: a30b fbbc 5f67 50bd 72a4 b7bd 2b3e dcbd
00000390: 4379 b53d 4f05 423d 19e8 f5bd ecfc b4bd
000003a0: bf67 34bd 2144 47bd a8ea c9bb d7da 2bbd
000003b0: ba45 c4bc 2293 bc3d b24c 15bd 2762 81bd
000003c0: 454e 26bc 93cb 2d3d aee6 50bd 6b48 8abd
000003d0: 9888 3139 a3fb c83d 22e6 3fbd 7248 49bd
000003e0: a1f9 5d3d c1c1 3abd d603 e6bc 9438 e83d
000003f0: 7e4f 9ebb 1b08 2bbd 0eeb de3d 0828 dbbc

grucell.bias_ih f4 [192]
-0.090896934 0.03035671 -0.027304618 -0.055450387 -0.057910006 0.08458295 0.01506526 0.09255164
0.035558693 0.023115842 0.08822186 0.02194016 -0.018138336 -0.098857544 -0.051350582 0.023949139
-0.0604005 0.09386254 -0.11706212 -0.1098844 0.115417674 0.06444169 0.09281833 0.06516703
0.02747233 -0.059466988 0.110130556 -0.071439005 -0.050950337 0.0073595527 -0.03533115 0.10178529
0.04150163 -0.027756345 -0.04638469 0.0014534174 0.086857565 0.033473883 0.019461878 0.024077168
0.048297964 0.07296813 0.0611151 0.03147886 -0.05693731 0.097663864 0.014291988 0.059062902
-0.03262289 -0.094139576 0.064857244 -0.04801711 0.09753137 0.0031303337 0.119529724 0.050749395
-0.106860936 -0.0054535363 -0.043195684 -0.08408136 -0.009720005 0.11639394 -0.07985798 -0.010362434
-0.06546144 0.02105069 0.07210337 0.01962018 0.085412666 -0.11331161 -0.03585501 -0.03842171
0.08673988 0.072723776 -0.078481965 0.09545734 0.07232631 0.08318084 -0.010344162 -0.00838806
0.040925138 0.071853384 -0.07303343 -0.056239482 0.0686628 -0.018639525 -0.10082827 0.00384205
0.074749164 -0.06238439 0.049470223 0.032834377 0.09063798 -0.050623048 -0.060776822 0.03916134
-0.024390653 -0.06630345 -0.09627391 -0.054194473 -0.093184486 -0.05319959 -0.06933476 -0.0946934
0.029942814 0.08728777 0.082000926 0.092362605 0.0807972 -0.006384907 0.06401076 0.00383253
-0.053653955 0.10768473 -0.085994735 0.101554506 0.005596851 0.063194826 -0.090618454 -0.1119303
-0.11278185 0.093242414 -0.06877324 -0.04634937 0.0470047 0.107178114 -0.009428537 -0.034357045
0.09962467 0.04507223 0.010954276 -0.051801972 -0.13373688 0.16627696 0.0502438 0.0076607997
0.030556524 -0.0042620827 0.06449628 -0.0029989828 -0.00051225803 -0.015447136 0.2377419 -0.06883121
0.040386125 0.027141208 -0.041116793 -0.1264681 0.21301393 0.16762799 -0.10352255 -0.16841005
-0.18755512 0.12675641 0.017289696 -0.012677474 0.10296469 0.031880625 0.091712885 -0.073655546
0.015932983 0.05143173 0.111586615 -0.09677954 -0.030765934 -0.060529184 -0.14037459 -0.0368943
-0.0042843907 -0.033870004 0.049527816 -0.188573 -0.03476773 0.12425976 0.09806002 0.048841793
0.1108698 -0.07021314 0.11103711 0.044279903 -0.07626245 -0.035653144 0.15288398 0.0661837
-0.07972762 -0.017439732 0.0365737 -0.024819132 0.07250435 0.0051420014 -0.24659064 -0.17118168
00000000: 2c28 babd a3ae f83c efad dfbc f21f 63bd
00000010: 0b33 6dbd d339 ad3d 48d4 763c b78b bd3d
00000020: fea5 113d 6f5d bd3c aaad b43d dabb b33c
00000030: d996 94bc d375 cabd fd54 52bd fc30 c43c
00000040: 8466 77bd 013b c03d 44be efbd 130b e1bd
00000050: 1a60 ec3d 01fa 833d 8917 be3d 4b76 853d
00000060: a70d e13c a893 73bd 218c e13d 9d4e 92bd
00000070: 4db1 50bd 6728 f13b 65b7 10bd ce74 d03d
00000080: 9dfd 293d 4661 e3bc dffd 3dbd 9880 be3a
00000090: 61e2 b13d e91b 093d 846e 9f3c 7b3d c53c
000000a0: 16d4 453d 5170 953d d453 7a3d faef 003d
000000b0: 1937 69bd fe03 c83d f128 6a3c f1eb 713d
000000c0: 949f 05bd 40cc c0bd e0d3 843d 97ad 44bd
000000d0: 87be c73d 4926 4d3b 00cc f43d 99de 4f3d
000000e0: e8d9 dabd 94b3 b2bb f5ed 30bd d932 acbd
000000f0: a840 1fbc f25f ee3d 958c a3bd 33c7 29bc
00000100: a610 86bd 7f72 ac3c efaa 933d 80ba a03c
00000110: d6ec ae3d eb0f e8bd b4dc 12bd 1560 1dbd
00000120: aea4 b13d 34f0 943d 27bb a0bd 237f c33d
00000130: d11f 943d b75a aa3d 8f7a 29bc 136e 09bc
00000140: 1ea1 273d de27 933d 8d92 95bd 5f5b 66bd
00000150: 159f 8c3d ebb1 98bc 0d7f cebd e7ca 7b3b
00000160: 1716 993d c686 7fbd 4aa1 4a3d 577d 063d
00000170: 68a0 b93d 1d5a 4fbd 1ef1 78bd a467 203d
00000180: e8ce c7bc 1aca 87bd 412b c5bd 06fb 5dbd
00000190: 82d7 bebd d0e7 59bd 62ff 8dbd 9dee c1bd
000001a0: a24a f53c eec3 b23d 1af0 a73d 9b28 bd3d
000001b0: 0179 a53d 7b38 d1bb 1318 833d 2f2b 7b3b
000001c0: 40c4 5bbd d089 dc3d 021e b0bd cffb cf3d
000001d0: ca65 b73b 4a6c 813d 2b96 b9bd b73b e5bd
000001e0: 2cfa e6bd e1f5 be3d fcd8 8cbd d6d8 3dbd
000001f0: 0088 403d 3380 db3d 277a 1abc f9b9 0cbd
00000200: 0508 cc3d a99d 383d 9079 333c 4e2e 54bd
00000210: 52f2 08be 8244 2a3e 71cc 4d3d 7207 fb3b
00000220: ad51 fa3c f1a8 8bbb a016 843d 958a 44bb
00000230: 0e49 06ba fc15 7dbc 9d72 733e 61f7 8cbd
00000240: ec6b 253d 3d57 de3c 156a 28bd db80 01be
00000250: 5320 5a3e aca6 2b3e a103 d4bd af73 2cbe
00000260: 730e 40be 6fcc 013e 1fa3 8d3c 2eb5 4fbc
00000270: 27df d23d 4295 023d f7d3 bb3d b8d8 96bd
00000280: e385 823c 14aa 523d 8687 e43d 5a34 c6bd
00000290: d708 fcbc 73ed 77bd 5bbe 0fbe 7a1e 17bd
000002a0: 1364 8cbb 46bb 0abd aedd 4a3d 4819 41be
000002b0: 9b68 0ebd e77b fe3d b1d3 c83d 550e 483d
000002c0: b50f e33d e8cb 8fbd 6d67 e33d d85e 353d
000002d0: 7d2f 9cbd 0809 12bd 9e8d 1c3e 528b 873d
000002e0: 3c48 a3bd c5dd 8ebc 4ece 153d 7e51 cbbc
000002f0: 297d 943d 3c7e a83b 4282 7cbe 404a 2fbe

grucell.bias_hh f4 [192]
0.008756463 -0.06685739 -0.0879915 0.048926584 -0.059799206 0.0947203 -0.09716274 0.053766306
0.07451554 -0.03772562 0.022955434 0.0178168 -0.008112386 0.07645761 0.11010861 0.059899498
0.03223245 0.10951824 0.11666064 -0.12370395 -0.015535475 0.01239242 -0.029154414 0.08929222
-0.12255373 -0.076654926 0.09670255 -0.041847806 -0.03278855 -0.015374578 0.027011232 0.122532845
-0.04979628 0.02992336 0.03169306 0.10005912 -0.12159393 -0.11966936 0.06604392 0.002206119
-0.04683108 -0.034261994 0.030219464 -0.04473602 0.024260202 -0.028157514 -0.024165316 -0.12407477
0.121692814 0.08206311 -0.027068863 -0.057703253 -0.00019463353 -0.042660978 0.061202127 0.022870958
0.06442475 0.11663358 0.0128916865 0.055297688 0.11626261 -0.06569539 -0.058268204 0.015819633
-0.10086289 0.11372712 -0.0017899408 -0.0028832601 0.054341506 0.118724175 0.03384477 0.07250395
0.10783832 -0.018750297 0.027688673 -0.07305462 -0.0007676004 0.050749384 -0.11355638 0.008101475
0.12275948 -0.0033140746 -0.024496203 0.061952833 0.1219999 0.005730596 0.10990361 -0.0085681435
-0.03467738 0.0824249 -0.08938409 -0.017690301 -0.051451176 0.033653688 -0.08337625 0.03950119
-0.021609142 -0.10297747 0.06780023 0.027598796 -0.09114125 -0.018677033 -0.08930807 -0.06375163
-0.11793249 -0.062357925 0.018156284 0.038304906 0.05590145 -0.04605214 0.061756138 -0.0066371765
-0.08384452 0.091266125 0.036110524 0.003123603 -0.10725068 -0.076286554 0.023905879 -0.088339664
0.0646081 -0.11994418 0.04415239 -0.037406586 0.023572408 0.096043654 -0.0869132 -0.06045303
-0.083298594 0.019438777 0.03427325 -0.007467161 0.015097679 -0.03039329 -0.017146546 0.049910974
0.0056449436 0.079736434 -0.101125814 0.12057584 0.06805912 0.07563059 -0.05792783 0.051285245
-0.009144985 -0.024969019 -0.048823215 -0.091493644 0.05621576 0.13714032 0.045147773 0.00013021134
0.07310017 0.00656702 -0.1261215 0.116892084 -0.06256911 0.12223829 -0.000102341655 0.11935961
-0.11023141 -0.13577226 -0.11479617 -0.12525374 -0.010082015 0.02022538 -0.15087765 -0.088476844
-0.10337233 0.07424238 0.0046635694 0.00068394357 0.026403755 -0.039655335 0.047818024 -0.12279449
0.0992731 -0.11777659 -0.007422877 0.0095033 0.11938402 0.117825076 0.11744988 0.041100584
0.08574418 -0.0042051976 0.011187454 -0.078436814 -0.0011305495 0.06918892 -0.16093524 -0.09129774
00000000: 4577 0f3c 87ec 88bd e334 b4bd 3e67 483d
00000010: 03f0 74bd b7fc c13d 42fd c6bd 0f3a 5c3d
00000020: 9a9b 983d 2e86 1abd 090d bc3c 8af4 913c
00000030: d0e9 04bc cf95 9c3d 9f80 e13d 2d59 753d
00000040: 2c06 043d 194b e03d c6eb ee3d 7f58 fdbd
00000050: 8188 7ebc 9409 4b3c 3dd5 eebc d7de b63d
00000060: 73fd fabd 42fd 9cbd fd0b c63d 9b68 2bbd
00000070: 494d 06bd a7e5 7bbc a946 dd3c 80f2 fa3d
00000080: 2ff7 4bbd d621 f53c 95d0 013d cceb cc3d
00000090: 3d06 f9bd 3615 f5bd 0942 873d 8994 103b
000000a0: f2d1 3fbd 4e56 0cbd cf8e f73c 1e3d 37bd
000000b0: 55bd c63c 96aa e6bc 57f6 c5bc ea1a febd
000000c0: 153a f93d b410 a83d 85bf ddbc 3f5a 6cbd
000000d0: 8a16 4cb9 47bd 2ebd 15af 7a3d e05b bb3c
000000e0: 20f1 833d 96dd ee3d a737 533c d47f 623d
000000f0: 171b ee3d 4e8b 86bd a4aa 6ebd 2d98 813c
00000100: 3491 cebd c4e9 e83d 729c eaba 14f5 3cbb
00000110: 3395 5e3d a925 f33d d0a0 0a3d f37c 943d
00000120: 56da dc3d 399a 99bc 5bd3 e23c a99d 95bd
00000130: ca38 49ba 96de 4f3d 3f90 e8bd 0dbc 043c
00000140: 5269 fb3d f230 59bb 43ac c8bc 41c2 7d3d
00000150: 15db f93d b9c7 bb3b 2515 e13d 6661 0cbc
00000160: de09 0ebd 63ce a83d 010f b7bd 40eb 90bc
00000170: 78be 52bd 73d8 093d 2bc1 aabd 00cc 213d
00000180: a805 b1bc dae5 d2bd d9da 8a3d df16 e23c
00000190: 44a8 babd 9400 99bc 26e7 b6bd 3790 82bd
000001a0: 9786 f1bd 066b 7fbd 7dbc 943c 9be5 1c3d
000001b0: ebf8 643d 2ba1 3cbd 01f4 7c3d ac7c d9bb
000001c0: adb6 abbd bce9 ba3d a1e8 133d 5db5 4c3b
000001d0: 3fa6 dbbd 203c 9cbd 43d6 c33c 6deb b4bd
000001e0: 4051 843d 4ba5 f5bd 23d9 343d a637 19bd
000001f0: ec1a c13c 89b2 c43d 8cff b1bd 999d 77bd
00000200: 7498 aabd 123e 9f3c 1b62 0c3d 16af f4bb
00000210: 415c 773c 59fb f8bc ea76 8cbc 736f 4c3d
00000220: 38f9 b83b db4c a33d 0d1b cfbd 77f0 f63d
00000230: 9462 8b3d 36e4 9a3d bb45 6dbd 7a10 523d
00000240: d9d4 15bc d48b ccbc dafa 47bd 0561 bbbd
00000250: 7f42 663d 836e 0c3e dfec 383d 5789 0839
00000260: 8bb5 953d 2830 d73b ff25 01be 1e65 ef3d
00000270: 3c24 80bd 1258 fa3d 42a0 d6b8 d072 f43d
00000280: 01c1 e1bd e207 0bbe 411a ebbd 8442 00be
00000290: 092f 25bc b2af a53c ac7f 1abe 5933 b5bd
000002a0: dfb4 d3bd 640c 983d dbd0 983b ad4a 333a
000002b0: b04c d83c a26d 22bd d5dc 433d ad7b fbbd
000002c0: b24f cb3d da34 f1bd 9b3b f3bb bbb3 1b3c
000002d0: 9c7f f43d 464e f13d 9089 f03d 1659 283d
000002e0: a59a af3d c1cb 89bb 954b 373c 7ba3 a0bd
000002f0: f22e 94ba ecb2 8d3d 35cc 24be 4ffa babd

linear.weight f4 [2, 64]
0.109901585 -0.05045687 0.046576116 0.06587207 -0.06647202 -0.042687304 -0.10654353 -0.08825988
-0.10373364 0.03201778 0.049477816 0.11474841 -0.07746934 0.036460232 -0.11798794 0.0048656985
0.017077671 0.07176147 -0.08519851 -0.091382064 0.030391248 -0.055405833 -0.032873534 -0.0146460775
-0.01781663 -0.0832948 0.0600499 -0.058396563 0.12062373 0.03843837 -0.00016308906 0.11081406
0.02415576 -0.087517835 -0.08707664 -0.0112685505 0.018574929 -0.03856974 -0.010091076 0.024913292
-0.066873334 0.11130935 -0.030603288 -0.018530961 -0.01666418 -0.0070114704 0.070558816 0.11300536
-0.09635843 -0.00345915 0.12456966 -0.0078696925 -0.09902189 0.055025633 -0.066766985 -0.056297727
0.08246912 0.023756167 0.052414957 0.00646191 -0.08874474 -0.09384145 -0.041382425 0.06349037
0.044626437 0.1088433 0.09904705 0.0151918195 -0.034079935 0.02569946 0.05889204 -0.07298925
0.105412774 -0.10563161 0.050028127 0.014899335 0.020067444 -0.123915024 0.06924617 -0.013468889
0.0465385 -0.047884252 -0.100214355 0.06007507 0.07791532 -0.091057286 -0.092870496 -0.075597435
0.00967261 -0.11325029 0.034681607 -0.12138427 0.08763823 0.027465675 -0.10397027 -0.07338014
-0.01289718 0.08651968 0.040614124 0.031434808 -0.037449826 0.09979561 -0.0056264987 -0.124835916
-0.016343554 -0.00095953204 -0.0914418 0.038848862 -0.066431016 0.03600213 0.02853856 -0.058281474
-0.114405 -0.11652268 0.1266044 -0.05460354 0.07969156 -0.09777538 0.06461365 0.03568942
0.08979827 0.09730522 -0.06095639 -0.08847304 0.012019378 -0.042105433 0.06850538 0.0939387
00000000: 1514 e13d ddab 4ebd 99c6 3e3d f0e7 863d
00000010: 7b22 88bd e2d8 2ebd 7f33 dabd 99c1 b4bd
00000020: 4d72 d4bd 1325 033d 40a9 4a3d 3701 eb3d
00000030: 3fa8 9ebd 5357 153d a9a3 f1bd 7070 9f3b
00000040: 79e6 8b3c adf7 923d 8e7c aebd 8526 bbbd
00000050: 11f7 f83c 3af1 62bd 66a6 06bd 1af6 6fbc
00000060: 2ef4 91bc 7796 aabd e2f6 753d 3c31 6fbd
00000070: 9309 f73d 8d71 1d3d e302 2bb9 7bf2 e23d
00000080: 4de2 c53c 8d3c b3bd 3d55 b2bd ba9f 38bc
00000090: 732a 983c 4efb 1dbd 0a55 25bc f616 cc3c
000000a0: e3f4 88bd 28f6 e33d bfb3 fabc 3ece 97bc
000000b0: 5283 88bc 7ac0 e5bb 2481 903d 5b6f e73d
000000c0: 9257 c5bd e8b2 62bb 611e ff3d e2ef 00bc
000000d0: fdcb cabd 8f62 613d 21bd 88bd 7298 66bd
000000e0: 92e5 a83d 4b9c c23c 11b1 563d 6ebe d33b
000000f0: cdbf b5bd f22f c0bd 9e80 29bd 3d07 823d
00000100: 36ca 363d 3ce9 de3d 2ed9 ca3d 1ce7 783c
00000110: 6797 0bbd ad87 d23c c838 713d 637b 95bd
00000120: a7e2 d73d 6355 d8bd 4bea 4c3d 571c 743c
00000130: 7b64 a43c 29c7 fdbd f0d0 8d3d 9dac 5cbc
00000140: 279f 3e3d 4722 44bd 2f3d cdbd 4711 763d
00000150: 1192 9f3d 3e7c babd e332 bebd d4d2 9abd
00000160: de79 1e3c c5ef e7bd 4d0e 0e3d 5198 f8bd
00000170: ac7b b33d b2ff e03c 5dee d4bd 5448 96bd
00000180: b24e 53bc 3b31 b13d ff5a 263d c9c1 003d
00000190: fd64 19bd a461 cc3d 7e5e b8bb f9a9 ffbd
000001a0: ebe2 85bc 1b89 7bba d745 bbbd fc1f 1f3d
000001b0: fc0c 88bd f876 133d b3c9 e93c 8eb8 6ebd
000001c0: 2b4d eabd 71a3 eebd 95a4 013e f6a7 5fbd
000001d0: 5435 a33d 753e c8bd 2954 843d 122f 123d
000001e0: 28e8 b73d f647 c73d 68ad 79bd 5a31 b5bd
000001f0: edec 443c bf76 2cbd 8c4c 8c3d ef62 c03d

linear.bias f4 [2]
-0.12049908 0.09109704
00000000: 39c8 f6bd 1691 ba3d

linear_final.weight f4 [5, 64]
-0.10719754 -0.06815081 0.025650984 -0.029642472 0.05158845 -0.05818418 -0.03183722 0.07256887
-0.00059391203 -0.08050441 -0.0862302 0.09414705 -0.06259953 0.05757115 -0.08043138 0.0068710363
0.032872427 -0.034888513 -0.05436181 -0.08923936 -0.03475743 -0.0667846 0.011428948 0.07986908
-0.09810852 -0.037567332 -0.067680344 -0.054988835 0.08138616 0.009514752 0.08726018 -0.06725979
0.025706122 0.042501386 -0.054578464 -0.06483763 -0.105856374 -0.102169715 0.040623784 0.100409836
0.0356811 0.08592335 -0.024701929 -0.012452886 0.1028024 0.052385144 -0.09997465 -0.10652391
-0.044863645 0.08042558 -0.04237489 0.10841423 -0.11404679 0.05598579 0.032255538 0.10416472
-0.05681915 -0.08738067 -0.033013318 0.027579179 -0.07525402 0.000246832 0.034920875 0.033426203
0.036570415 -0.051908176 -0.06580133 0.034195527 -0.06511478 0.055435877 -0.051918324 0.077774085
-0.02401748 -0.020716192 -0.069520086 -0.040543173 0.06873506 0.06535717 -0.04881523 0.050765637
-0.05682893 -0.07450339 0.080280386 -0.033820316 -0.01852554 -0.109406345 -0.06999388 -0.057226617
-0.0029419411 0.034988314 0.043305323 0.08055196 -0.06261998 0.02621515 0.03594711 -0.031052709
0.07579357 -0.06571631 0.050992884 0.0719904 0.03280161 0.06763289 -0.042313322 -0.068291165
-0.014597263 0.058266506 0.058083136 0.09294725 -0.0077929324 -0.06445948 0.042545676 -0.039703347
0.01210308 0.09464511 0.04791652 0.008050681 0.015753211 -0.04159465 -0.020420633 -0.0004052803
-0.041239124 0.020447988 -0.011132601 0.0067476146 0.028276661 0.009698042 0.0043987464 0.063618295
-0.026739482 -0.12865008 -0.018332714 -0.0024205127 0.16749096 -0.18694136 0.07185321 -0.0139771635
0.08533601 0.09207891 -0.0019063345 -0.00019646774 -0.09279415 -0.11446638 -0.089702904 -0.050476827
0.06357676 0.12127966 -0.04791653 0.15202498 -0.100429825 -0.11714625 -0.053981088 0.0886355
0.14934564 -0.0015908111 0.07869175 0.059728906 0.058064837 -0.101752125 -0.114291705 0.051294647
0.08613323 -0.045059122 -0.16560821 0.10182218 0.008531876 -0.05212982 0.16970675 -0.047289833
0.03322753 -0.12797974 0.0965986 0.12124916 0.019070957 -0.09960969 -0.0211309 -0.033962887
-0.1886203 0.17123158 -0.19561474 0.062928684 -0.03163871 0.005936879 -0.21265428 0.055397
0.073337 -0.112045735 0.015405698 0.15315448 -0.029288268 0.06837296 0.23090997 0.1188819
-0.11022366 -0.007421098 -0.055444777 0.019506488 0.09780338 -0.2798451 -0.1140041 0.044346664
-0.016691932 -0.09538012 -0.11464416 -0.09268738 -0.024336226 -0.04804589 -0.2576252 -0.016372388
-0.07541768 -0.0034164295 0.041426897 0.22365831 -0.21658291 -0.29543468 0.11645184 0.21931832
0.2352197 -0.058483087 0.07375283 -0.066717535 -0.07206697 -0.15601192 -0.13196073 -0.027266344
-0.025262011 0.061728965 0.0035884117 0.19589671 0.12555605 0.095185146 0.22268006 0.089211755
0.014331597 -0.005947649 -0.065676145 0.16394192 -0.016724825 -0.0057696304 -0.22972424 0.020079598
-0.07965588 0.21013542 -0.07286182 -0.1370646 0.090211235 -0.09696518 -0.19152111 -0.13823484
0.0136737665 -0.015331693 -0.15154034 0.10759847 -0.12146253 -0.090117365 0.40972048 0.29878834
00000000: 628a dbbd a792 8bbd 0322 d23c c5d4 f2bc
00000010: 694e 533d 8952 6ebd bf67 02bd fd9e 943d
00000020: c3b0 1bba 7fdf a4bd 7699 b0bd 2bd0 c03d
00000030: 2f34 80bd bacf 6b3d 35b9 a4bd 6e26 e13b
00000040: 3da5 063d 42e7 0ebd 7daa 5ebd 20c3 b6bd
00000050: cf5d 0ebd 5dc6 88bd 7b40 3b3c 6692 a33d
00000060: 1fed c8bd 34e0 19bd fe9b 8abd f93b 61bd
00000070: c9ad a63d c3e3 1b3c 77b5 b23d 80bf 89bd
00000080: a595 d23c ef15 2e3d ab8d 5fbd 97c9 84bd
00000090: 3acb d8bd 5b3e d1bd 2065 263d aca3 cd3d
000000a0: 5826 123d 95f8 af3d b35b cabc 3107 4cbc
000000b0: 118a d23d ce91 563d 82bf ccbd 3529 dabd
000000c0: f1c2 37bd 2bb6 a43d 4b91 2dbd 4808 de3d
000000d0: 5d91 e9bd 5b51 653d 621e 043d 5054 d53d
000000e0: 32bb 68bd a3f4 b2bd f938 07bd bbed e13c
000000f0: c81e 9abd 3b69 8139 3109 0f3d eae9 083d
00000100: dcca 153d ab9d 54bd d9c2 86bd 9c10 0c3d
00000110: e65a 85bd bb10 633d 4fa8 54bd 0548 9f3d
00000120: 4ec0 c4bc 01b5 a9bc 8c60 8ebd 9910 26bd
00000130: f8c4 8c3d fbd9 853d 7bf2 47bd a1ef 4f3d
00000140: 74c5 68bd 3c95 98bd 0b6a a43d 2c87 0abd
00000150: e0c2 97bc 6f10 e0bd f458 8fbd 7566 6abd
00000160: 95cd 40bb e84f 0f3d ec60 313d 6df8 a43d
00000170: e73e 80bd 27c1 d63c 473d 133d 4062 febc
00000180: a939 9b3d 4696 86bd eadd 503d b46f 933d
00000190: fb5a 063d 1d83 8a3d bc50 2dbd 3ddc 8bbd
000001a0: 5c29 6fbc dca8 6e3d 95e8 6d3d 215b be3d
000001b0: db5b ffbb 5503 84bd 6044 2e3d fa9f 22bd
000001c0: ff4b 463c 4cd5 c13d 1d44 443d 01e7 033c
000001d0: e10c 813c 275f 2abd 2c49 a7bc cd7b d4b9
000001e0: 5bea 28bd 8a82 a73c 8365 36bc 181b dd3b
000001f0: 75a4 e73c 89e4 1e3c 5c23 903b 4f4a 823d
00000200: c20c dbbc d9bc 03be 7d2e 96bc 77a1 1ebb
00000210: c082 2b3e 8e6d 3fbe c727 933d 7900 65bc
00000220: a5c4 ae3d de93 bc3d f9dd f9ba e802 4eb9
00000230: dc0a bebd 596d eabd 28b6 b7bd cac0 4ebd
00000240: 8834 823d 7861 f83d 2044 44bd 70ac 1b3e
00000250: 27ae cdbd 60ea efbd 461b 5dbd 8786 b53d
00000260: 10ee 183e c382 d0ba 2429 a13d 4ca6 743d
00000270: 65d5 6d3d 6b63 d0bd c511 eabd 561a 523d
00000280: 9e66 b03d ea8f 38bd 3395 29be 2688 d03d
00000290: 48c9 0b3c 1486 55bd 9bc7 2d3e fcb2 41bd
000002a0: 9719 083d 1f0d 03be 7dd5 c53d 7b51 f83d
000002b0: b23a 9c3c 2a00 ccbd b61a adbc ab1c 0bbd
000002c0: ae25 41be 5557 2f3e 3b4f 48be c1e0 803d
000002d0: 9897 01bd 278a c23b 0bc2 59be f7e7 623d
000002e0: b631 963d 3c78 e5bd 2e68 7c3c 87d4 1c3e
000002f0: f3ed efbc 1f07 8c3d aa73 6c3e 5b78 f33d
00000300: f1bc e1bd af2c f3bb 101a 63bd 12cc 9f3c
00000310: 234d c83d db47 8fbe fb7a e9bd d9a4 353d
00000320: 85bd 88bc a756 c3bd 8fca eabd e2d2 bdbd
00000330: c45c c7bc c4cb 44bd 73e7 83be 631f 86bc
00000340: 9674 9abd 2de6 5fbb 40af 293d af06 653e
00000350: e9c7 5dbe 3743 97be 4d7e ee3d fb94 603e
00000360: 6fdd 703e f68b 6fbd b90b 973d 34a3 88bd
00000370: d997 93bd 97c1 1fbe b720 07be ab5d dfbc
00000380: 47f2 cebc 83d7 7c3d 8f2b 6b3b 2699 483e
00000390: c491 003e 6ef0 c23d 3e06 643e a7b4 b63d
000003a0: 13cf 6a3c 7fe4 c2bb 3781 86bd 64e0 273e
000003b0: 8002 89bc 2b0f bdbb d53c 6bbe f87d a43c
000003c0: 9f22 a3bd bd2d 573e 9438 95bd aa5a 0cbe
000003d0: abc0 b83d ae95 c6bd 1c1e 44be 6f8d 0dbe
000003e0: ef07 603c c831 7bbc 642d 1bbe 965c dc3d
000003f0: 59c1 f8bd 748f b8bd e2c6 d13e c9fa 983e

linear_final.bias f4 [5]
0.06348301 0.05123527 -0.54774636 -0.78019375 -0.0397543
00000000: 6103 823d 13dc 513d 1b39 0cbf c7ba 47bf
00000010: 68d5 22bd
