results1_checkpoint/zara1/val_best.pth (torch_old, 57359 bytes, 12 tensors)

gcn.gc1.weight f4 [2, 64]
-0.0041157487 -0.0046469728 0.0030228016 0.0034297619 0.0051570027 0.0005992418 -0.0072369482 0.0005441893
-0.0018210077 -0.0022622312 -0.0012040715 -0.0062499694 -0.0030852612 -0.0041790553 -0.0038202305 0.0077015385
-0.0038236664 0.0023306387 0.0024017426 -0.0005625206 -0.00021412437 0.0005052383 0.0027560024 8.865463e-05
0.00037929043 0.0086729545 -0.0006629303 -0.0033592887 -0.0027219881 -0.0034982641 0.0073006935 -0.001847666
-0.0046344274 -0.004595759 0.0014803642 0.003822122 0.005107966 0.0029907569 0.0059520584 -0.003361126
0.0041281697 -0.005143014 0.00033421992 0.006152573 0.0010336109 0.0020495853 0.0011028427 0.0014542168
0.0026956233 0.008075519 0.0056045656 0.0020311945 -0.00023573924 -0.0011766861 -0.00935377 0.00268991
-0.0002279337 0.0017073172 0.004934135 -0.0028577237 0.0040813354 0.0016643661 0.001966974 -0.00027249887
0.0010103005 -0.0034680872 -0.0025292463 -0.001006371 0.0018964118 0.0006759434 0.0005792909 -0.004085676
0.0035834494 0.00027399807 0.004739345 -0.0046074134 0.002997208 -0.0027950348 0.0009654412 0.009887769
0.001741343 -0.006526038 0.00047948287 -0.00025319835 0.001532115 0.0075591276 0.003768055 0.004123947
0.0012967779 -0.003024766 -0.00040454802 0.008599603 0.0002909192 -0.0031900108 -0.0038141245 0.0029857114
-0.006667108 0.005796424 0.004260954 -0.0043072016 0.008117247 -0.00035458233 0.00610953 0.0026842146
0.0006889807 0.0006122152 0.006532923 0.0016955234 -0.0038505897 0.0021337674 0.0028144775 0.0069047827
-0.00880678 0.002092065 -0.00045365575 0.0004210713 0.00027509168 0.0036356132 0.0015374864 -0.0004095477
-0.0013281052 0.0015394222 -0.001799806 0.003332662 -0.0023430286 0.0048509557 -0.0044729346 0.0023920091
00000000: 67dd 86bb a245 98bb 321a 463b dbc5 603b
00000010: 13fc a83b 7016 1d3a ec23 edbb eda7 0e3a
00000020: e1ae eeba f141 14bb efd1 9dba 8bcc ccbb
00000030: 1832 4abb 75f0 88bb d55c 7abb 305d fc3b
00000040: 7a96 7abb a1bd 183b 8e66 1d3b 1e76 13ba
00000050: 9386 60b9 f871 043a 0c9e 343b 18ec b938
00000060: 80db c639 0219 0e3c 80c8 2dba 8327 5cbb
00000070: 6263 32bb 2243 65bb a83a ef3b 622d f2ba
00000080: 65dc 97bb 0598 96bb c808 c23a 917c 7a3b
00000090: b960 a73b 9300 443b 7c09 c33b 5646 5cbb
000000a0: 9945 873b ba86 a8bb 3d3a af39 869b c93b
000000b0: 3a7a 873a 5652 063b 438d 903a 6b9b be3a
000000c0: 0ea9 303b 2f4f 043c 81a6 b73b ca1d 053b
000000d0: c530 77b9 093b 9aba 8e40 19bc 3349 303b
000000e0: 7d01 6fb9 0fc8 df3a 86ae a13b a648 3bbb
000000f0: b9bc 853b dc26 da3a 59e8 003b 2ede 8eb9
00000100: 0f6c 843a d948 63bb b6c1 25bb 35e8 83ba
00000110: 0591 f83a cb31 313a 8edb 173a 22e1 85bb
00000120: 4ed8 6a3b 66a7 8f39 824c 9b3b c9f9 96bb
00000130: ce6c 443b e72c 37bb aa15 7d3a 4f00 223c
00000140: c63d e43a 60d8 d5bb 1a63 fb39 b5bf 84b9
00000150: 40d1 c83a 8fb2 f73b 79f1 763b 2d22 873b
00000160: a5f8 a93a 273b 46bb 8419 d4b9 59e5 0c3c
00000170: 8486 9839 800f 51bb 64f6 79bb edab 433b
00000180: c177 dabb eeef bd3b 799f 8b3b 6d23 8dbb
00000190: 34fe 043c 3ce7 b9b9 7432 c83b a6e9 2f3b
000001a0: b69c 343a 117d 203a 2112 d63b 533c de3a
000001b0: 2d5a 7cbb add6 0b3b 1973 383b 8441 e23b
000001c0: 504a 10bc 071b 093b a5d8 edb9 3cc3 dc39
000001d0: 2e3a 9039 7843 6e3b 7c85 c93a 90b8 d6b9
000001e0: d113 aeba 70c6 c93a 78e7 ebba ca68 5a3b
000001f0: 7f8d 19bb c4f4 9e3b b291 92bb 41c3 1c3b

gcn.gc1.bias f4 [64]
-4.893098e-07 1.6016491e-05 4.3443553e-05 1.026931e-05 4.3914348e-05 5.0160164e-05 -9.013924e-06 -3.768402e-05
-0.0001248707 7.973165e-05 0.00010743284 4.173382e-06 0.00015757495 7.848756e-06 -2.1581278e-05 9.932051e-05
-0.00016029958 3.4767658e-05 2.2032342e-05 -5.391019e-05 1.2988655e-05 -0.00011709787 -4.6008547e-05 3.784686e-05
3.823315e-05 3.4542438e-05 -3.0779956e-05 -7.1758775e-05 -4.106884e-05 -9.035637e-06 -3.8606962e-05 6.357559e-05
-3.454835e-05 -3.620422e-05 -4.7649857e-05 -7.159972e-05 -1.757239e-05 -1.9114817e-05 -3.277456e-06 -0.000113955546
-6.5004924e-06 2.5694755e-05 8.112871e-05 -1.3762955e-05 -4.2703705e-05 -1.1595784e-05 -4.3787313e-05 -3.4815425e-06
2.3851426e-06 8.457265e-06 7.8432866e-05 -2.1977019e-05 -6.858732e-05 -3.8876708e-05 1.8812068e-06 2.8880188e-05
0.000105853025 6.882401e-05 -4.6882644e-05 0.0001392924 -3.4715413e-05 2.1221917e-05 -0.00011577394 -4.5912828e-05
00000000: 1d59 03b5 275b 8637 2937 3638 5a4a 2c37
00000010: ac30 3838 1163 5238 823a 17b7 e90e 1eb8
00000020: b9ef 02b9 9b35 a738 914d e138 1409 8c36
00000030: b43a 2539 26ae 0337 7109 b5b7 4b4a d038
00000040: 1716 28b9 7dd3 1138 18d2 b837 a01d 62b8
00000050: d9e9 5937 7192 f5b8 4df9 40b8 c2bd 1e38
00000060: 885c 2038 a9e1 1038 ba19 01b8 337d 96b8
00000070: 5541 2cb8 c497 17b7 e9ed 21b8 e353 8538
00000080: 02e8 10b8 fcd9 17b8 a5db 47b8 cf27 96b8
00000090: 6c68 93b7 c258 a0b7 44f2 5bb6 6bfb eeb8
000000a0: ce1e dab6 118b d737 a523 aa38 71e7 66b7
000000b0: c11c 33b8 838b 42b7 45a8 37b8 72a4 69b6
000000c0: 7010 2036 ade3 0d37 537c a438 4a5b b8b7
000000d0: 89d6 8fb8 8c0f 23b8 c67d fc35 bb43 f237
000000e0: 69fd dd38 9c55 9038 dba3 44b8 050f 1239
000000f0: 649b 11b8 b805 b237 a9cb f2b8 8692 40b8

gcn.gc2.weight f4 [64, 2]
-0.00017130225 -0.0005890128 0.0022265094 -0.0014923943 -0.0012732545 0.005417269 -0.0004749813 -0.00036486224
-0.0011341296 -0.0030517941 -5.1254185e-05 -0.0038922983 -0.0009363952 -0.0017749072 0.0028335103 0.0007095746
-0.0052965297 0.0012977093 0.0042911028 -0.0012253289 0.006783942 0.0008103363 -0.0008526848 0.0024886562
0.009160098 0.0028255237 -0.0006088138 0.0025881315 -0.003187907 -0.006577276 -0.0016729018 -0.004783446
-0.010048169 -0.0038732248 -0.00047983322 0.0024773714 0.00074862485 -0.0051513473 -0.0041357623 0.0017036058
-0.0031839407 -0.0033550824 0.0016585033 0.005287869 -0.0013248475 0.0030769308 0.0027595614 -0.0005378683
0.0037721712 -0.0022424315 -0.0016427228 -0.0014547986 -0.0026208372 0.0004528243 -0.002298614 0.0014702335
-0.0019647588 0.0012343155 -0.001005339 0.0001560012 0.001781092 -0.0011973671 0.00054923614 -0.0036853221
-0.00049062935 -0.0035283456 0.0013852532 0.0045301383 0.0029473659 0.0016731126 0.0027989533 -0.0027557095
0.0021624474 -9.5767955e-06 0.0011816083 -0.0013889438 -0.002057534 0.0015095477 -0.00517049 0.00076131435
0.0017222798 -0.0029277974 0.0021644887 0.0029986354 0.00019002314 -0.0035928884 -0.00028674095 0.0018192334
-0.0014593469 -0.0071567963 0.0022178253 -0.0006989792 0.0013287396 0.0017352338 0.0015429764 0.00022150356
-0.00093361636 -0.0014926294 0.0036351131 -0.008823052 -0.0035256478 -0.0036543228 0.0036805389 -0.0045241676
-0.0042760507 0.00022997666 0.0019390542 0.004034212 -6.533721e-06 -0.0005274228 -0.0022288086 0.0048581795
0.001862871 0.0062121977 -0.0033048133 -0.0020722235 0.0023033922 -0.0004320783 0.006911827 7.573386e-05
0.0017691959 0.003402732 -0.006673389 -0.00010023027 0.0052051637 -0.0016072232 0.004719767 0.005016065
00000000: 999f 33b9 fb67 1aba a1ea 113b 719c c3ba
00000010: 55e3 a6ba 5983 b13b e906 f9b9 fb4a bfb9
00000020: 13a7 94ba 9c00 48bb c3f9 56b8 ee15 7fbb
00000030: 6b78 75ba 01a4 e8ba 6ab2 393b bf02 3a3a
00000040: 838e adbb e617 aa3a 619c 8c3b 379b a0ba
00000050: d54b de3b c06c 543a b586 5fba b918 233b
00000060: 3c14 163c 6c2c 393b cd98 1fba a49d 293b
00000070: 34ec 50bb 3186 d7bb 4545 dbba 74be 9cbb
00000080: 13a1 24bc eed5 7dbb 2092 fbb9 655b 223b
00000090: 5d3f 443a a2cc a8bb 4a85 87bb 864b df3a
000000a0: a9a9 50bb f1e0 5bbb 2362 d93a dc45 ad3b
000000b0: 81a6 adba 55a6 493b c2d9 343b bbff 0cba
000000c0: 8836 773b c2f5 12bb a150 d7ba f1ae beba
000000d0: 5ac2 2bbb 0c69 ed39 58a4 16bb dab4 c03a
000000e0: 2fc3 00bb c1c8 a13a 94c5 83ba 4194 2339
000000f0: 8873 e93a f9f0 9cba 9dfa 0f3a 7285 71bb
00000100: 949d 00ba d13b 67bb 6291 b53a 8e71 943b
00000110: 9828 413b 584c db3a a56e 373b 2299 34bb
00000120: d9b7 0d3b 06ac 20b7 32e0 9a3a 380d b6ba
00000130: b1d7 06bb 04dc c53a 376d a9bb f192 473a
00000140: 1fbe e13a 4ae0 3fbb 18da 0d3b c184 443b
00000150: f340 4739 aa76 6bbb b855 96b9 5873 ee3a
00000160: 8e47 bfba 8f83 eabb ef58 113b b33b 37ba
00000170: 1a29 ae3a c970 e33a b23d ca3a 6943 6839
00000180: efbd 74ba 55a4 c3ba 143b 6e3b 908e 10bc
00000190: 8e0e 67bb 5d7d 6fbb 3235 713b 783f 94bb
000001a0: 1d1e 8cbb e425 7139 dd27 fe3a 6c31 843b
000001b0: 3c3c dbb6 bf42 0aba 3411 12bb 5d31 9f3b
000001c0: 942b f43a b18f cb3b 9195 58bb 24ce 07bb
000001d0: 82f4 163b 9188 e2b9 9b7c e23b 4ed3 9e38
000001e0: 5de4 e73a 5f00 5f3b 72ac dabb b732 d2b8
000001f0: 1490 aa3b 76a9 d2ba 46a8 9a3b ce5d a43b

gcn.gc2.bias f4 [2]
-0.0004962785 0.0008940618
00000000: b018 02ba 795f 6a3a

grucell.weight_ih f4 [192, 2]
0.03202772 -0.05202173 -0.07135317 0.03448192 0.05485197 0.031728417 0.04357703 0.049864393
-0.044100642 -0.021248443 0.03427562 -0.036898676 -0.11110156 -0.040748604 -0.08049334 -0.082774095
-0.035072308 0.058753688 -0.040439803 0.11788873 -0.023134425 0.061195396 0.085242264 0.06516307
0.031624947 0.06843722 0.1164605 -0.01268907 0.09011934 0.096437424 -0.04084732 0.04255582
0.052839935 -0.039914746 0.078822084 0.010944169 0.1070742 0.008489735 -0.08830088 -0.095735006
0.025748033 -0.094975404 0.04544302 -0.012897306 -0.050287466 -0.10550253 0.035708975 0.022825563
-0.038630985 -0.098804526 -0.01756739 0.047038518 -0.0728934 0.046266507 0.036628604 -0.023958554
-0.11520269 -0.09649946 0.124154426 0.10905827 0.025699798 -0.09854594 -0.103071205 -0.03933243
-0.11110788 -0.030800719 -0.07973504 -0.09430655 -0.11422973 -0.04898775 0.07989296 -0.059166282
-0.0741131 0.04774328 -0.112447985 -0.1130447 -0.09782646 -0.064904004 -0.08745776 0.008830094
0.1212189 0.084502526 0.10756351 -0.032711696 -0.1144431 0.014104047 0.05404727 -0.009808496
-0.05683593 -0.08150354 0.027733285 -0.06313131 -0.11463619 0.12228508 0.07385038 -0.1160663
0.08089535 0.028282577 -0.015182511 0.07226608 -0.055276766 -0.049435988 -0.010103307 -0.114964135
-0.019680671 -0.020940907 0.092627004 -0.055719513 -0.06942812 0.082659975 -0.108974695 0.015472215
-0.019510457 -0.053408217 0.050916445 0.11954832 0.07321473 0.0013225639 -0.0032763062 -0.03784106
-0.045158602 0.10878922 -0.056129243 0.009460883 0.033869248 0.121371366 0.02381672 0.09814082
0.08917474 -0.07529823 0.027927192 -0.026426094 -0.021914236 0.0055313786 -0.034919713 0.03975974
-0.091277674 0.09156667 -0.003678436 -0.09878064 0.023012951 -0.051709812 0.0864557 0.061739314
0.022784086 0.04775124 -0.055262942 0.042128723 -0.033280402 -0.0048935246 0.058417253 0.075514875
0.061665524 -0.08674039 -0.028244501 0.1231841 0.10276552 -0.10365001 0.063100174 0.07307193
0.0789945 0.030779809 -0.04871535 0.086091444 -0.053385664 -0.031270497 -0.12367815 0.031903073
0.019030612 -0.03810329 0.03642354 -0.060652718 0.038154848 0.12177958 0.09117775 -0.05470141
-0.074116744 -0.0114418 0.040714167 -0.11375118 0.11445148 0.02722293 -0.024564162 0.011210852
0.051535062 0.012105939 -0.023583926 0.00071492395 -0.113059886 0.11361657 -0.06109791 0.07424555
-0.006633748 0.016063675 -0.07872233 -0.08062647 -0.06096881 0.11220542 -0.001312102 -0.1060193
0.033800848 -0.07840126 0.080594316 0.0760174 0.10789135 -0.040073495 0.028855069 0.065686785
0.07686664 -0.026251746 -0.011342593 0.005654572 -0.05678875 0.04211959 0.10223028 -0.06391462
0.043778453 0.12164245 -0.030982485 -0.105949126 0.083910726 0.08032075 -0.12355424 -0.07114237
-0.035373844 0.10151173 -0.089066006 -0.057349596 -0.08357376 -0.07791363 -0.05830476 -0.031657062
-0.117516056 0.015667273 0.045232188 0.08002301 -0.009402277 0.026558755 0.09392513 0.11596587
-0.10415052 -0.020776024 -0.08078567 0.119780295 0.049114015 0.014254544 -0.068033874 0.004358438
0.11487297 0.080347374 0.045432445 0.11385036 -0.02096538 -0.09007287 -0.082673915 -0.112706415
00000000: 802f 033d bd14 55bd 9c21 92bd ea3c 0d3d
00000010: 76ac 603d a8f5 013d d47d 323d 9b3e 4c3d
00000020: e0a2 34bd 3711 aebc 9864 0c3d 1123 17bd
00000030: 3789 e3bd 02e8 26bd b1d9 a4bd 7785 a9bd
00000040: fba7 0fbd b5a7 703d 35a4 25bd a56f f13d
00000050: 6884 bdbc 06a8 7a3d 7f93 ae3d 3774 853d
00000060: 2989 013d d028 8c3d d882 ee3d d1e5 4fbc
00000070: 7d90 b83d fc80 c53d 854f 27bd 034f 2e3d
00000080: b06e 583d a57d 23bd 796d a13d 2c4f 333c
00000090: b849 db3d 8818 0b3c 17d7 b4bd b710 c4bd
000000a0: 8aed d23c 7782 c2bd 7622 3a3d 394f 53bc
000000b0: 3bfa 4dbd b611 d8bd 9343 123d adfc ba3c
000000c0: 863b 1ebd 075a cabd 7de9 8fbc 76ab 403d
000000d0: 2349 95bd f381 3d3d e007 163d bb44 c4bc
000000e0: 63ef ebbd 82a1 c5bd ad44 fe3d f159 df3d
000000f0: 6288 d23c 74d2 c9bd ff16 d3bd 0b1b 21bd
00000100: 878c e3bd ca51 fcbc 204c a3bd cb23 c1bd
00000110: 47f1 e9bd 61a7 48bd ec9e a33d 5858 72bd
00000120: 9cc8 97bd 758e 433d 214b e6bd fb83 e7bd
00000130: 3d59 c8bd 64ec 84bd 0e1d b3bd 19ac 103c
00000140: 9d41 f83d a90f ad3d 424a dc3d b3fc 05bd
00000150: 2561 eabd a914 673c ac60 5d3d d0b3 20bc
00000160: cbcc 68bd 54eb a6bd ea30 e33c fd4a 81bd
00000170: 61c6 eabd 9a70 fa3d de3e 973d 2bb4 edbd
00000180: 76ac a53d ddb0 e73c 11c0 78bc 3d00 943d
00000190: e469 62bd 647d 4abd 5788 25bc 5172 ebbd
000001a0: 5c39 a1bc 448c abbc 3ab3 bd3d 253a 64bd
000001b0: 5530 8ebd a249 a93d 202e dfbd 2c7f 7d3c
000001c0: 65d4 9fbc 93c2 5abd c38d 503d c0d5 f43d
000001d0: 9bf1 953d e159 ad3a 4cb7 56bb 3aff 1abd
000001e0: 3af8 38bd e2cc de3d c7e7 65bd d201 1b3c
000001f0: 7bba 0a3d 8d91 f83d 481b c33c 0efe c83d
00000200: 3fa1 b63d f535 9abd 91c7 e43c 897b d8bc
00000210: 7c85 b3bc 9140 b53b f907 0fbd 1cdb 223d
00000220: caef babd 4e87 bb3d ea11 71bb 814d cabd
00000230: a885 bc3c abcd 53bd b00f b13d 5de2 7c3d
00000240: b1a5 ba3c ce96 433d 655b 62bd 2b8f 2c3d
00000250: 0851 08bd dc59 a0bb ee46 6f3d 8ba7 9a3d
00000260: fd94 7c3d f2a4 b1bd 0361 e7bc f247 fc3d
00000270: bb76 d23d 7546 d4bd aa3a 813d bca6 953d
00000280: dec7 a13d f025 fc3c bf89 47bd b650 b03d
00000290: edaa 5abd 7e15 00bd f84a fdbd ccac 023d
000002a0: 16e6 9b3c 3212 1cbd da30 153d fc6e 78bd
000002b0: 4248 1c3d 9367 f93d 66bb ba3d 960e 60bd
000002c0: 85ca 97bd 6376 3bbc e6c3 263d 61f6 e8bd
000002d0: 8a65 ea3d 9f02 df3c c83a c9bc b9ad 373c
000002e0: 6e16 533d fd57 463c 1433 c1bc bc69 3b3a
000002f0: f18b e7bd ceaf e83d cd41 7abd 0d0e 983d
00000300: e95f d9bb f897 833c 2c39 a1bd 7e1f a5bd
00000310: 6eba 79bd f5cb e53d d6fa abba a620 d9bd
00000320: c272 0a3d d790 a0bd a20e a53d 03af 9b3d
00000330: 24f6 dc3d 1b24 24bd 7761 ec3c cb86 863d
00000340: 426c 9d3d e70d d7bc 48d6 39bc fd49 b93b
00000350: 529b 68bd 9785 2c3d 1c5e d13d abe5 82bd
00000360: 0951 333d ad1f f93d fbce fdbc dbfb d8bd
00000370: 63d9 ab3d 357f a43d 010a fdbd 17b3 91bd
00000380: 2ae4 10bd 62e5 cf3d 3d68 b6bd 69e7 6abd
00000390: b828 abbd 2e91 9fbd f9d0 6ebd d6aa 01bd
000003a0: 42ac f0bd a758 803c 6345 393d 1be3 a33d
000003b0: 020c 1abc bf91 d93c d25b c03d 847f ed3d
000003c0: de4c d5bd 7b32 aabc f572 a5bd 5f4f f53d
000003d0: c72b 493d e48b 693c 5855 8bbd 3ad1 8e3b
000003e0: 8542 eb3d 2a8d a43d 5f17 3a3d 612a e93d
000003f0: 97bf abbc 2078 b8bd f150 a9bd 9fd2 e6bd

grucell.weight_hh f4 [192, 64]
0.019868609 -0.09782573 -0.05605716 -0.031788196 -0.08577025 0.00027812063 -0.0012173511 -0.024804514
0.08138427 0.062036958 -0.025341336 0.047082353 0.009001204 0.094827205 0.01281788 0.05496943
-0.039748725 -0.06586724 0.047832068 0.012360292 -0.048930015 -0.124027126 0.0037907616 -0.025773864
-0.049821764 0.11596502 0.008992643 0.029313637 0.052388255 0.10395558 -0.12410843 0.05537439
-0.019513171 -0.07413572 0.055730224 0.049271595 -0.08270029 0.08316473 -0.11852837 -0.06813436
0.033862054 0.04509914 -0.08666289 0.0089023635 0.019020608 -0.053705424 -0.06540947 -0.09022956
-0.02067825 -0.1039064 -0.054817043 0.015558949 0.086788125 0.087406956 -0.071888186 0.053052653
-0.008397072 0.06988259 -0.017009944 0.07534634 0.11967933 0.026683446 0.034152877 -0.11242595
-0.06354185 -0.07639897 0.086906105 -0.023839358 0.004682459 -0.052905973 0.10823082 -0.11882046
-0.043757092 -0.11977423 0.05748834 -0.021280158 -0.07759775 -0.05624675 -0.028713666 -0.07163099
0.02776844 0.031235816 0.11789106 0.0420577 -0.1073575 0.03825879 0.06521973 -0.007217024
0.04648589 0.12317931 0.08448757 0.06336983 -0.024062043 0.08688273 -0.12051113 0.092137545
-0.11850571 -0.08454598 0.099953815 -0.019183034 0.015125969 -0.06441725 -0.097186364 -0.011233308
-0.06370384 -0.06082976 0.108639106 -0.022551542 -0.009721184 0.058724996 -0.10959817 0.041119456
0.07787559 -0.045220178 -0.064153 -0.011438056 0.010369229 0.09038615 0.055322316 -0.093232594
-0.004509629 0.09054317 0.030170795 0.002073732 -0.040235575 0.04549426 0.073239796 0.12100253
0.066713825 -0.05645412 -0.074109115 -0.102989994 -0.07290965 0.062766984 0.110141195 0.113432586
0.0018042267 -0.06291666 0.055683877 -0.045392506 0.015801646 -0.058053747 -0.016476434 0.09839362
0.049522534 -0.057099655 -0.034871247 0.050656218 -0.007723887 0.0047130613 0.060575526 -0.09805973
0.101908304 -0.10256487 -0.096262224 0.0019162525 -0.06812091 0.113337256 0.0971336 -0.0038195197
-0.068936385 0.018961223 0.059056997 -0.01763688 0.04877535 0.064928584 0.07859485 0.028844079
-0.07608378 0.053274482 -0.023180602 -0.10317726 0.089340635 0.07315615 0.08015021 0.08314313
0.117425695 0.081604056 0.00044782768 0.04000914 0.08391109 -0.0368471 0.07125761 -0.04125846
-0.10563437 -0.096465185 0.04877223 0.002823025 0.008087452 0.031160671 0.035220653 0.10152638
0.0488628 0.03710477 -0.11680191 0.026300052 0.028705161 -0.0843224 -0.06611753 -0.011620154
0.010705675 0.090577185 -0.011025137 -0.002901125 -0.123206854 -0.057804946 0.10415957 -0.07060705
-0.1166241 -0.016742207 -0.036271587 0.028064169 -0.044511702 -0.07677239 -0.09726547 0.11911835
0.057777308 0.028890539 -0.04405985 0.09662848 -0.0858439 -0.08547106 -0.09335546 -0.12378351
-0.030635403 -0.05089031 -0.08965641 -0.107503556 0.088620014 0.047374167 -0.12005221 -0.08838251
-0.04403951 -0.048638735 -0.006149974 -0.04192557 -0.023969728 0.09207347 -0.036446553 -0.06317131
-0.010141044 0.042442523 -0.051007103 -0.06752699 0.00017544531 0.09811772 -0.046845406 -0.049160775
0.05418609 -0.045588158 -0.028091028 0.11339246 -0.0048193526 -0.04176699 0.10884821 -0.026763551
00000000: 7ec3 a23c db58 c8bd 319c 65bd 5734 02bd
00000010: 50a8 afbd b8d0 9139 868f 9fba d632 cbbc
00000020: ccac a63d 771a 7e3d a298 cfbc 6dd9 403d
00000030: c979 133c c434 c23d 1602 523c a027 613d
00000040: 8fcf 22bd 67e5 86bd 8feb 433d d282 4a3c
00000050: d76a 48bd ef01 febd 6d6e 783b b623 d3bc
00000060: e811 4cbd 127f ed3d e155 133c 2723 f03c
00000070: 1195 563d aae6 d43d 902c febd 42d0 623d
00000080: 16da 9fbc 78d4 97bd 6045 643d 03d1 493d
00000090: c55e a9bd 4552 aa3d 01bf f2bd 078a 8bbd
000000a0: f0b2 0a3d e0b9 383d 507c b1bd 38db 113c
000000b0: 1bd1 9b3c 38fa 5bbd 66f5 85bd 47ca b8bd
000000c0: 6f65 a9bc e1cc d4bd d687 60bd f6ea 7e3c
000000d0: f9bd b13d 6b02 b33d 1d3a 93bd bd4d 593d
000000e0: df93 09bc 9a1e 8f3d 7058 8bbc 2f4f 9a3d
000000f0: 701a f53d 3e97 da3c e3e3 0b3d 943f e6bd
00000100: 3b22 82bd 1077 9cbd d4fb b13d c24a c3bc
00000110: 506f 993b efb3 58bd 1fa8 dd3d 2458 f3bd
00000120: a33a 33bd 314c f5bd e578 6b3d ba53 aebc
00000130: 92eb 9ebd fe62 66bd ec38 ebbc 45b3 92bd
00000140: a47a e33c 41e2 ff3c de70 f13d b244 2c3d
00000150: 40de dbbd 40b5 1c3d ec91 853d c97c ecbb
00000160: fd67 3e3d 6f45 fc3d d207 ad3d 0bc8 813d
00000170: c31d c5bc 93ef b13d 8ace f6bd 9cb2 bc3d
00000180: 1fb3 f2bd 7126 adbd 96b4 cc3d bd25 9dbc
00000190: ead2 773c 31ed 83bd a509 c7bd e90b 38bc
000001a0: 2977 82bd a028 79bd 2e7e de3d 03be b8bc
000001b0: 9a45 1fbc 9f89 703d 0175 e0bd e06c 283d
000001c0: 3d7d 9f3d cb38 39bd a662 83bd af66 3bbc
000001d0: b3e3 293c 601c b93d a799 623d bbf0 bebd
000001e0: 83c5 93bb b36e b93d be28 f73c 73e7 073b
000001f0: 0fce 24bd 3058 3a3d bffe 953d 2dd0 f73d
00000200: 42a1 883d 6f3c 67bd 85c6 97bd 6bec d2bd
00000210: a851 95bd fa8b 803d b591 e13d 584f e83d
00000220: cd7b ec3a 73da 80bd c714 643d 7eed 39bd
00000230: 7472 813c c4c9 6dbd 96f9 86bc 9882 c93d
00000240: 24d8 4a3d 54e1 69bd 27d5 0ebd e57c 4f3d
00000250: a918 fdbb 0670 9a3b 0b1e 783d 8ad3 c8bd
00000260: 4db5 d03d 880d d2bd 2125 c5bd c42a fb3a
00000270: fa82 8bbd 5d1d e83d fbed c63d e850 7abb
00000280: 852e 8dbd 9154 9b3c c0e5 713d 387b 90bc
00000290: a9c8 473d 47f9 843d 56f6 a03d 6b4a ec3c
000002a0: d0d1 9bbd 5836 5a3d 3fe5 bdbc 994e d3bd
000002b0: 39f8 b63d e4d2 953d cb25 a43d f246 aa3d
000002c0: e27c f03d 0720 a73d 6aca ea39 a0e0 233d
000002d0: 94d9 ab3d fcec 16bd 83ef 913d a2fe 28bd
000002e0: d556 d8bd 8a8f c5bd 64c5 473d 8002 393b
000002f0: 3b81 043c aa44 ff3c 8843 103d 10ed cf3d
00000300: 5c24 483d 2cfb 173d d735 efbd 3573 d73c
00000310: 1627 eb3c 39b1 acbd a168 87bd 7562 3ebc
00000320: db66 2f3c 8880 b93d c7a2 34bc cd20 3ebb
00000330: e053 fcbd e1c4 6cbd 9d51 d53d 6e9a 90bd
00000340: 9ed8 eebd f426 89bc 8491 14bd d4e6 e53c
00000350: e751 36bd d83a 9dbd 1e33 c7bd 52f4 f33d
00000360: e6a7 6c3d daab ec3c 1a78 34bd 27e5 c53d
00000370: edce afbd 730b afbd 2631 bfbd 3582 fdbd
00000380: 19f7 fabc 5c72 50bd c89d b7bd d32a dcbd
00000390: 697e b53d 6a0b 423d efdd f5bd e401 b5bd
000003a0: c662 34bd 6939 47bd b985 c9bb 26ba 2bbd
000003b0: 2a5c c4bc 0491 bc3d fb48 15bd f65f 81bd
000003c0: 9f26 26bc 36d8 2d3d d3ec 50bd 974b 8abd
000003d0: bef7 3739 f1f1 c83d f8e0 3fbd cf5c 49bd
000003e0: 3cf2 5d3d a6ba 3abd 281f e6bc 4e3a e83d
000003f0: a9eb 9dbb dd13 2bbd cfeb de3d 3c3f dbbc

grucell.bias_ih f4 [192]
-0.09082168 0.030473972 -0.027203832 -0.055360444 -0.05773631 0.08605795 0.015177596 0.09276901
0.03543604 0.023089595 0.08871055 0.021943942 -0.017995989 -0.098594554 -0.05056528 0.023866864
-0.06034476 0.0941179 -0.11661452 -0.10876394 0.11616936 0.06772285 0.09275104 0.065747425
0.02816879 -0.059689093 0.1102513 -0.0715415 -0.05103555 0.007853026 -0.035007913 0.10188946
0.04145929 -0.027407803 -0.046389744 0.0020633843 0.08715623 0.033509914 0.020659145 0.024305945
0.04838988 0.0731842 0.061381143 0.03146007 -0.05643272 0.09764799 0.015410988 0.05929277
-0.03248231 -0.093163304 0.06574222 -0.04733232 0.0976667 0.0031771893 0.119924955 0.051360644
-0.106873594 -0.005295218 -0.042911515 -0.08333033 -0.009480549 0.11636525 -0.07694802 -0.0092312535
-0.06550375 0.020456601 0.07184922 0.019613769 0.08536478 -0.11346881 -0.035849817 -0.038437765
0.086677834 0.07283322 -0.0785173 0.09535308 0.07236841 0.08313644 -0.010561753 -0.00836756
0.040930163 0.07179381 -0.073017076 -0.056176696 0.06849317 -0.018678173 -0.101128586 0.004232207
0.074787915 -0.062392093 0.049676627 0.032212954 0.0905718 -0.05055522 -0.060724407 0.039275534
-0.024397865 -0.06636426 -0.09644442 -0.05431513 -0.09315583 -0.053228904 -0.06932974 -0.0945933
0.030013287 0.087215535 0.08196087 0.09244729 0.08070901 -0.0065933084 0.0638319 0.0035564215
-0.053509578 0.10788732 -0.0860666 0.10184574 0.005531867 0.06317136 -0.090820454 -0.11175563
-0.11267851 0.09313639 -0.06877067 -0.04640096 0.0469522 0.10701184 -0.009625354 -0.034431525
0.10600979 0.0444323 0.015634498 -0.050257612 -0.13872519 0.17556737 0.056554392 0.013265827
0.03782506 -0.003905178 0.07080511 -0.0033807922 -0.0043600956 -0.018538345 0.2515406 -0.07245726
0.04861982 0.027430514 -0.051526815 -0.13650171 0.22709565 0.18859373 -0.1114983 -0.17466164
-0.19565092 0.13172515 0.014989306 -0.013985112 0.106787376 0.036973096 0.09142409 -0.072055615
0.014743683 0.053156838 0.11304995 -0.105426185 -0.034985222 -0.064835526 -0.15089548 -0.04138333
-0.002012511 -0.0350629 0.04810538 -0.19361328 -0.027524445 0.12653 0.10889903 0.048665155
0.12017145 -0.07617106 0.12529728 0.052446216 -0.08260399 -0.03674095 0.15897606 0.07103858
-0.08036043 -0.018600794 0.040014893 -0.032088593 0.07926116 0.0054546576 -0.2617416 -0.18156253
00000000: b800 babd 8da4 f93c 92da debc a2c1 62bd
00000010: e97c 6cbd 273f b03d 74ab 783c aefd bd3d
00000020: 6225 113d 6426 bd3c e0ad b53d c8c3 b33c
00000030: 536c 93bc f1eb c9bd 8a1d 4fbd 7184 c33c
00000040: 112c 77bd e3c0 c03d 98d3 eebd a1bf debd
00000050: 34ea ed3d 47b2 8a3d 42f4 bd3d 96a6 863d
00000060: 3cc2 e63c 8d7c 74bd 6fcb e13d 5a84 92bd
00000070: a70a 51bd faa9 003c 7564 0fbd 6cab d03d
00000080: 37d1 293d 5486 e0bc 2c03 3ebd d839 073b
00000090: f77e b23d b141 093d 5e3d a93c 431d c73c
000000a0: 7834 463d 99e1 953d cb6a 7b3d 46dc 003d
000000b0: ff25 67bd abfb c73d 5e7e 7c3c fadc 723d
000000c0: 2c0c 05bd 67cc bebd dba3 863d 89df 41bd
000000d0: 7b05 c83d 6438 503b 379b f53d 8a5f 523d
000000e0: 8be0 dabd 8283 adbb fcc3 2fbd 18a9 aabd
000000f0: 4e54 1bbc e750 ee3d ec96 9dbd af3e 17bc
00000100: d526 86bd 9a94 a73c af25 933d 0ead a03c
00000110: bbd3 ae3d 5662 e8bd 42d7 12bd eb70 1dbd
00000120: 2684 b13d 9529 953d aecd a0bd 7a48 c33d
00000130: e435 943d 7043 aa3d 340b 2dbc 1718 09bc
00000140: 63a6 273d a208 933d fa89 95bd 8919 66bd
00000150: 2646 8c3d f802 99bc 811c cfbd 53ae 8a3b
00000160: 682a 993d da8e 7fbd b879 4b3d bbf1 033d
00000170: b57d b93d fe12 4fbd 28ba 78bd 62df 203d
00000180: 08de c7bc fce9 87bd a784 c5bd 8b79 5ebd
00000190: 7cc8 bebd 8d06 5abd c0fc 8dbd 22ba c1bd
000001a0: 6dde f53c 0f9e b23d 1adb a73d 0155 bd3d
000001b0: c44a a53d ae0c d8bb 4dba 823d da12 693b
000001c0: dc2c 5bbd 07f4 dc3d b043 b0bd 8094 d03d
000001d0: aa44 b53b fc5f 813d 1300 babd 23e0 e4bd
000001e0: fec3 e6bd 4bbe be3d a3d7 8cbd ef0e 3ebd
000001f0: f350 403d 0629 db3d a9b3 1dbc 1208 0dbd
00000200: a91b d93d a5fe 353d eb13 803c edda 4dbd
00000210: fa0d 0ebe efc7 333e 94a5 673d e958 593c
00000220: 73ee 1a3d 04ee 7fbb 4502 913d 4890 5dbb
00000230: 22df 8ebb badd 97bc eec9 803e 7964 94bd
00000240: 9425 473d f5b5 e03c c80d 53bd 1bc7 0bbe
00000250: c38b 683e b71e 413e 3959 e4bd 80da 32be
00000260: b758 48be f5e2 063e b595 753c d021 65bc
00000270: 57b3 da3d 1a71 173d 8e3c bb3d e591 93bd
00000280: 7d8f 713c fcba 593d bb86 e73d afe9 d7bd
00000290: aa4c 0fbd 7dc8 84bd 5884 1abe 9181 29bd
000002a0: 55e4 03bb 1e9e 0fbd 260a 453d 8f42 46be
000002b0: f27a e1bc 1591 013e 7406 df3d 1d55 473d
000002c0: 731c f63d 93ff 9bbd ee4d 003e d8d1 563d
000002d0: 482c a9bd ae7d 16bd 9fca 223e ad7c 913d
000002e0: 0294 a4bd b160 98bc a8e6 233d 546f 03bd
000002f0: ad53 a23d fcbc b23b ff02 86be 87eb 39be

grucell.bias_hh f4 [192]
0.0088245105 -0.06667594 -0.08776328 0.049016528 -0.05962551 0.0961953 -0.09707168 0.05395307
0.07440171 -0.037743457 0.023353033 0.017820582 -0.007979299 0.0767206 0.1108584 0.05986459
0.03228819 0.1097736 0.11710824 -0.122583486 -0.014916889 0.015639083 -0.029189965 0.08987261
-0.12181684 -0.07688872 0.0968233 -0.041896414 -0.03287376 -0.014877855 0.027289294 0.12263702
-0.04983862 0.030271903 0.031688005 0.100704096 -0.121295266 -0.119608596 0.06725348 0.0024344064
-0.04673916 -0.034104407 0.030448543 -0.04475481 0.024763925 -0.028181395 -0.023042154 -0.123830006
0.121861935 0.08303938 -0.026167013 -0.057018463 -1.1232803e-05 -0.04261473 0.061561055 0.023488982
0.064412095 0.11689674 0.013197608 0.05597707 0.11662163 -0.06572408 -0.05537689 0.016945586
-0.1009052 0.1130419 -0.0019968706 -0.0028873323 0.054296684 0.118566975 0.033849962 0.072486885
0.10777627 -0.018649893 0.027661609 -0.073158875 -0.0007533691 0.050685745 -0.1136628 0.008121976
0.12278291 -0.0034193255 -0.024456432 0.06201562 0.12183027 0.0056874515 0.10960329 -0.008178955
-0.03460832 0.082429655 -0.08917894 -0.018297913 -0.051539626 0.033721514 -0.08330624 0.039615385
-0.021616355 -0.10303828 0.06762972 0.027469998 -0.0911126 -0.018710839 -0.08930305 -0.06365153
-0.1178688 -0.062392067 0.018116688 0.038396478 0.05581419 -0.046288088 0.06158606 -0.0069148014
-0.08370994 0.091468714 0.036047224 0.0034654506 -0.10731561 -0.07631002 0.023827797 -0.08816499
0.06471144 -0.1200502 0.04413794 -0.037458178 0.023519907 0.09587738 -0.08712228 -0.06052751
-0.08020151 0.019110058 0.03656557 -0.0067569315 0.013014196 -0.025760172 -0.014144188 0.052723303
0.009427819 0.07983219 -0.09761232 0.120369285 0.06616751 0.07420635 -0.05117565 0.04940138
-0.005042047 -0.024861872 -0.05375114 -0.09592562 0.06315934 0.1483644 0.041122533 -0.003678805
0.069687895 0.009058221 -0.12736058 0.11638765 -0.060684517 0.12470387 -0.00029438312 0.12025049
-0.11072235 -0.1348394 -0.11393686 -0.12988275 -0.012480534 0.018044585 -0.15680118 -0.09085311
-0.10240555 0.073694974 0.0038893053 -0.0015969602 0.030142443 -0.038437996 0.05365892 -0.12282846
0.10436714 -0.12101699 3.6459023e-05 0.013417261 0.11583904 0.117254265 0.12072406 0.043550756
0.08541996 -0.004725993 0.012668298 -0.08212196 0.0023311342 0.069151774 -0.16845551 -0.09658593
00000000: ae94 103c 658d 88bd 3cbd b3bd 8ec5 483d
00000010: e139 74bd 0b02 c53d 84cd c6bd e5fd 5c3d
00000020: ec5f 983d e298 1abd dc4e bf3c 78fc 913c
00000030: 9bbb 02bc b11f 9d3d bb09 e33d 9334 753d
00000040: 9f40 043d fbd0 e03d 72d6 ef3d 0d0d fbbd
00000050: f865 74bc 891d 803c cb1f efbc 220f b83d
00000060: 1b7b f9bd d577 9dbd 4b4b c63d 939b 2bbd
00000070: a3a6 06bd 3fc2 73bc cc8d df3c 1e29 fb3d
00000080: 9523 4cbd c8fc f73c 48cb 013d f33d ce3d
00000090: a769 f8bd 5af5 f4bd 31bc 893d 908a 1f3b
000000a0: 9071 3fbd 10b1 0bbd 396f f93c d250 37bd
000000b0: b7dd ca3c abdc e6bc e6c2 bcbc 969a fdbd
000000c0: c092 f93d 8d10 aa3d 345c d6bc 318c 69bd
000000d0: 8674 3cb7 c88c 2ebd 7227 7c3d f76b c03c
000000e0: 7dea 833d 8f67 ef3d c83a 583c 3648 653d
000000f0: 52d7 ee3d 599a 86bd e1d2 62bd 78d1 8a3c
00000100: 63a7 cebd 8382 e73d eedd 02bb 6639 3dbb
00000110: 3366 5e3d 3ed3 f23d 42a6 0a3d 0174 943d
00000120: ceb9 dc3d a9c7 98bc 999a e23c 52d4 95bd
00000130: bf7d 45ba db9b 4f3d 0bc8 e8bd 0912 053c
00000140: 9b75 fb3d c316 60bb db58 c8bc 1704 7e3d
00000150: 2682 f93d cd5d ba3b b177 e03d 0601 06bc
00000160: 74c1 0dbd e1d0 a83d 73a3 b6bd 81e5 95bc
00000170: 371b 53bd 921f 0a3d 769c aabd be43 223d
00000180: c814 b1bc bc05 d3bd 7381 8a3d c308 e13c
00000190: 3e99 babd 7947 99bc 84e4 b6bd bc5b 82bd
000001a0: 3365 f1bd d38e 7fbd 7369 943c a045 1d3d
000001b0: 6c9d 643d 9498 3dbd aa41 7c3d 8f95 e2bb
000001c0: 1e70 abbd f353 bb3d 41a6 133d 9d1c 633b
000001d0: 49c8 dbbd 6e48 9cbd 8332 c33c d98f b4bd
000001e0: 6e87 843d e1dc f5bd fcc9 343d bf6d 19bd
000001f0: d2ac c03c 5c5b c43d 2a6d b2bd b2eb 77bd
00000200: b040 a4bd b28c 9c3c c7c5 153d 4069 ddbb
00000210: 7f39 553c ff06 d3bc 06bd 67bc 64f4 573d
00000220: 2477 1a3c 0f7f a33d f8e8 c7bd 2c84 f63d
00000230: d582 873d 80f9 973d 8f9d 51bd 1a59 4a3d
00000240: c137 a5bb 20ab cbbc 282a 5cbd a774 c4bd
00000250: af59 813d d6ec 173e 1a70 283d 1b18 71bb
00000260: 87b8 8e3d ef68 143c d06a 02be a65c ee3d
00000270: 5490 78bd be64 ff3d 6f57 9ab9 e445 f63d
00000280: 66c2 e2bd 5713 0abe ba57 e9bd fcff 04be
00000290: 277b 4cbc 3dd2 933c 7d90 20be 3211 babd
000002a0: 00ba d1bd 64ed 963d b7e3 7e3b 1851 d1ba
000002b0: 49ed f63c 2971 1dbd 75c9 5b3d 7d8d fbbd
000002c0: 70be d53d c1d7 f7bd 94eb 1838 12d4 5b3c
000002d0: 053d ed3d 0123 f03d 2d3e f73d 4762 323d
000002e0: a9f0 ae3d 81dc 9abb b18e 4f3c 8f2f a8bd
000002f0: f1c5 183b 729f 8d3d 9a7f 2cbe d8ce c5bd

linear.weight f4 [2, 64]
0.109908104 -0.05045536 0.046581022 0.065874666 -0.06647905 -0.042656947 -0.10654648 -0.08825511
-0.10373782 0.032018006 0.049483735 0.11474823 -0.077465646 0.03646575 -0.1179702 0.004865657
0.017074943 0.07176027 -0.08520258 -0.09140414 0.030407239 -0.055374507 -0.032878127 -0.014665342
-0.017836753 -0.083292805 0.060055684 -0.058397684 0.120624535 0.038446847 -0.00015734782 0.110807344
0.024156496 -0.08752344 -0.08706761 -0.011279137 0.018570926 -0.03857303 -0.01010919 0.024904208
-0.06687171 0.11131767 -0.03059865 -0.018542055 -0.016661802 -0.007006984 0.07056988 0.11299989
-0.09635166 -0.0034616173 0.12457706 -0.007852271 -0.099025935 0.055024125 -0.06674925 -0.056286268
0.082461424 0.023758214 0.05241986 0.0064588655 -0.08874077 -0.09383841 -0.041416105 0.063472815
0.04604221 0.10974782 0.10038814 0.015384597 -0.035534438 0.029779445 0.060197365 -0.07316885
0.10576854 -0.10495144 0.05262477 0.015536223 0.019929748 -0.123685755 0.073405415 -0.013322145
0.04785188 -0.048051324 -0.10147967 0.05647689 0.08128855 -0.084965274 -0.09412353 -0.078408495
0.0060854717 -0.11294109 0.033851177 -0.12133714 0.08835409 0.029450327 -0.10244648 -0.073262215
-0.013369123 0.08616077 0.04122947 0.02851588 -0.03913786 0.09869601 -0.009045623 -0.12571304
-0.015665917 -0.00060996326 -0.0915353 0.03680644 -0.06537944 0.03647363 0.031958222 -0.05836083
-0.11229411 -0.11987192 0.12904233 -0.05256303 0.07811597 -0.0970122 0.067843795 0.037692003
0.0894374 0.09785246 -0.058989763 -0.090660065 0.013557982 -0.0419498 0.06254802 0.08979676
00000000: 8017 e13d 48aa 4ebd becb 3e3d 4ce9 863d
00000010: 2b26 88bd 0db9 2ebd 0a35 dabd 18bf b4bd
00000020: 7f74 d4bd 5025 033d 75af 4a3d 1f01 eb3d
00000030: 4fa6 9ebd 1c5d 153d 5c9a f1bd 1770 9f3b
00000040: c0e0 8b3c 0cf7 923d b17e aebd 1832 bbbd
00000050: 9a18 f93c 61d0 62bd 37ab 06bd e746 70bc
00000060: 621e 92bc 6b95 aabd f3fc 753d 6932 6fbd
00000070: ff09 f73d 717a 1d3d bcfd 24b9 f6ee e23d
00000080: d8e3 c53c 7d3f b3bd 8150 b2bd 21cc 38bc
00000090: 0e22 983c c1fe 1dbd 04a1 25bc e903 cc3c
000000a0: 09f4 88bd 85fa e33d 05aa fabc 82e5 97bc
000000b0: 557e 88bc d89a e5bb f186 903d 7d6c e73d
000000c0: 0554 c5bd 4ddc 62bb 4222 ff3d d0a6 00bc
000000d0: 1cce cabd fa60 613d d5b3 88bd 6e8c 66bd
000000e0: 89e1 a83d 96a0 c23c 35b6 563d e4a4 d33b
000000f0: b9bd b5bd 5a2e c0bd efa3 29bd 09fe 813d
00000100: c296 3c3d 77c3 e03d 4c98 cd3d ad0f 7c3c
00000110: 8f8c 11bd 06f4 f33c 8391 763d 8dd9 95bd
00000120: 2d9d d83d c8f0 d6bd 128d 573d a48b 7e3c
00000130: b643 a33c f54e fdbd 9455 963d 2045 5abc
00000140: 5500 443d 77d1 44bd 93d4 cfbd 5054 673d
00000150: 9c7a a63d 4602 aebd d6c3 c0bd a294 a0bd
00000160: a368 c73b a84d e7bd 88a7 0a3d 9b7f f8bd
00000170: fdf2 b43d d041 f13c 76cf d1bd 800a 96bd
00000180: 2b0a 5bbc 0f75 b03d 3ce0 283d 239a e93c
00000190: 054f 20bd 2221 ca3d 1834 14bc ebba 00be
000001a0: cf55 80bc f1e5 1fba dc76 bbbd 5ac2 163d
000001b0: a8e5 85bd 6065 153d a0e6 023d c40b 6fbd
000001c0: 74fa e5bd 697f f5bd ac23 043e 554c 57bd
000001d0: 44fb 9f3d 55ae c6bd b0f1 8a3d ee62 1a3d
000001e0: f52a b73d df66 c83d 409f 71bd fcab b9bd
000001f0: 4c22 5e3c 8ed3 2bbd 2d19 803d 5de7 b73d

linear.bias f4 [2]
-0.12042539 0.101748995
00000000: 96a1 f6bd c761 d03d

linear_final.weight f4 [5, 64]
-0.10924391 -0.07209358 0.026240164 -0.030181805 0.05278428 -0.058162525 -0.030627916 0.07495766
-0.00069954066 -0.082612604 -0.08848204 0.09680608 -0.061977834 0.059838362 -0.0820632 0.006585458
0.03333791 -0.03721799 -0.05482204 -0.092292756 -0.035858493 -0.06778496 0.011158591 0.0811307
-0.1007258 -0.03779673 -0.06914611 -0.055216912 0.08482633 0.0109882625 0.091575265 -0.06959782
0.02626529 0.043014467 -0.055874817 -0.06686842 -0.1091197 -0.10481533 0.039926812 0.101943776
0.03685719 0.08973711 -0.0251342 -0.013004328 0.106687926 0.05314477 -0.10147845 -0.11002443
-0.046430305 0.08324397 -0.04124383 0.11200217 -0.11774658 0.05779347 0.0349219 0.10874611
-0.059771597 -0.09028182 -0.033515703 0.02847018 -0.07580948 -0.0007376928 0.034410354 0.033547513
0.043982677 -0.058953293 -0.06783142 0.038306184 -0.07207362 0.066063814 -0.05646184 0.085694574
-0.028750606 -0.024299787 -0.07127526 -0.040006902 0.08029825 0.079165466 -0.04758451 0.053615563
-0.06327223 -0.08255142 0.08972554 -0.042869303 -0.01649607 -0.11101241 -0.0771362 -0.069597974
-0.009172901 0.0393386 0.046803612 0.087686084 -0.06445887 0.0326752 0.042061158 -0.03856418
0.08367437 -0.0801183 0.059990026 0.07323592 0.032366775 0.06631261 -0.057011966 -0.077400096
-0.011649134 0.06903244 0.06914959 0.10107309 -0.004966549 -0.0702401 0.050113015 -0.04787935
0.015340296 0.10183543 0.055498797 0.017212799 0.01583388 -0.044197563 -0.015506549 0.0041522877
-0.05005369 0.023572896 -0.008766138 0.0110182995 0.03311381 0.009258364 -0.0029958924 0.06305171
-0.025881145 -0.124668546 -0.014498348 -0.0026970676 0.16437553 -0.17983472 0.07327812 -0.013830956
0.083973415 0.09314273 0.0025976594 0.00069076626 -0.092446424 -0.11417807 -0.08327793 -0.051889177
0.06322271 0.124775834 -0.052910306 0.14288303 -0.09472849 -0.10428472 -0.05463219 0.08044312
0.14178064 0.00060467515 0.08182849 0.0571528 0.058718525 -0.09880972 -0.112560235 0.050232194
0.082922935 -0.046476644 -0.16069548 0.09514157 0.0069575943 -0.054059952 0.1601569 -0.051302005
0.03458357 -0.12448847 0.09835043 0.11675689 0.017721498 -0.09627185 -0.016116528 -0.033041224
-0.18245445 0.16790634 -0.19255812 0.06875519 -0.03380241 0.0059894407 -0.20192291 0.06202224
0.069687895 -0.11180758 0.01868535 0.15054022 -0.027690792 0.066562004 0.2173887 0.10871582
-0.109284274 -0.005487702 -0.058179118 0.019853646 0.09109358 -0.27215046 -0.11462802 0.047791976
-0.016139166 -0.09578853 -0.11658742 -0.089478895 -0.021547971 -0.045584653 -0.2528939 -0.018087698
-0.07650643 -0.005350842 0.040124957 0.21705887 -0.20950213 -0.28657863 0.113671504 0.2148266
0.22915363 -0.05407763 0.07005297 -0.06668749 -0.071037985 -0.15239787 -0.12685397 -0.02888726
-0.02927596 0.063332334 0.0076720044 0.18942373 0.12617908 0.09418642 0.21514565 0.08938753
0.009355111 -0.0033461626 -0.06485846 0.15567881 -0.01894683 -0.0017018848 -0.22696708 0.021656826
-0.07177845 0.20422022 -0.06545443 -0.13989735 0.08995661 -0.097608104 -0.1835328 -0.13822095
0.01070152 -0.0136108305 -0.15350518 0.102038085 -0.11593651 -0.09122817 0.39524263 0.28807592
00000000: 45bb dfbd cda5 93bd 9df5 d63c d53f f7bc
00000010: 5434 583d d43b 6ebd 65e7 fabc 6783 993d
00000020: 6161 37ba cc30 a9bd 1236 b5bd 4442 c63d
00000030: 78dc 7dbd 1219 753d c010 a8bd d3ca d73b
00000040: 558d 083d e471 18bd 138d 60bd fc03 bdbd
00000050: 5be0 12bd d7d2 8abd 86d2 363c da27 a63d
00000060: 5449 cebd bed0 1abd 7a9c 8dbd 212b 62bd
00000070: 6db9 ad3d 1d08 343c d08b bb3d 4d89 8ebd
00000080: 4e2a d73c f02f 303d fedc 64bd 4ff2 88bd
00000090: 267a dfbd 6ba9 d6bd 4c8a 233d e6c7 d03d
000000a0: 91f7 163d 17c8 b73d 3de6 cdbc 1b10 55bc
000000b0: 337f da3d 55ae 593d efd3 cfbd 7d54 e1bd
000000c0: b42d 3ebd d17b aa3d 4aef 28bd 6561 e53d
000000d0: 1e25 f1bd d8b8 6c3d 440a 0f3d 48b6 de3d
000000e0: 10d3 74bd ade5 b8bd c347 09bd 4c3a e93c
000000f0: 0042 9bbd ba61 41ba dff1 0c3d 1e69 093d
00000100: 2e27 343d 0279 71bd 33eb 8abd f2e6 1c3d
00000110: 569b 93bd 774c 873d 8844 67bd a380 af3d
00000120: 6486 ebbc 5910 c7bc c3f8 91bd 47de 23bd
00000130: 6973 a43d 8121 a23d fae7 42bd fe9b 5b3d
00000140: df94 81bd b810 a9bd 06c2 b73d b997 2fbd
00000150: c422 87bc 795a e3bd 96f9 9dbd 6289 8ebd
00000160: ef49 16bc 8321 213d 25b5 3f3d c394 b33d
00000170: 0303 84bd 6ed6 053d 5248 2c3d 79f5 1dbd
00000180: 785d ab3d 1015 a4bd 1ab8 753d b7fc 953d
00000190: 0693 043d e8ce 873d 6185 69bd f183 9ebd
000001a0: 02dc 3ebc e160 8d3d 4d9e 8d3d 69ff ce3d
000001b0: 6fbe a2bb 0bda 8fbd 4e43 4d3d 231d 44bd
000001c0: dd55 7b3c 188f d03d b552 633d db01 8d3c
000001d0: 0eb6 813c 8108 35bd 2e0f 7ebc ea0f 883b
000001e0: 1905 4dbd f21b c13c d99f 0fbc 1986 343c
000001f0: 59a2 073d 65b0 173c bc56 44bb 4121 813d
00000200: b204 d4bc 3952 ffbd 7b8a 6dbc 49c1 30bb
00000210: 0f52 283e 9826 38be d712 963d 3c9b 62bc
00000220: 41fa ab3d 9ec1 be3d 7e3d 2a3b 8a14 353a
00000230: 8d54 bdbd 31d6 e9bd 9f8d aabd bf89 54bd
00000240: e87a 813d 798a ff3d 7ab8 58bd ee4f 123e
00000250: 0301 c2bd 3a93 d5bd 01c6 5fbd 5dbf a43d
00000260: f22e 113e 1083 1e3a b295 a73d 0e19 6a3d
00000270: d682 703d c05c cabd fb85 e6bd 46c0 4d3d
00000280: 80d3 a93d 4b5e 3ebd 5b8d 24be 95d9 c23d
00000290: 88fc e33b f86d 5dbd 2c00 243e 0d22 52bd
000002a0: 80a7 0d3d d0f3 febd f36b c93d 3d1e ef3d
000002b0: ad2c 913c 2d2a c5bd cf06 84bc 3c56 07bd
000002c0: 57d5 3abe a4ef 2b3e f52d 45be 85cf 8c3d
000002d0: 6574 0abd 1243 c43b e1c4 4ebe 080b 7e3d
000002e0: 87b8 8e3d 5ffb e4bd 0512 993c 3727 1a3e
000002f0: cdd7 e2bc a951 883d 259b 5e3e 66a6 de3d
00000300: 6fd0 dfbd 2ed2 b3bb 3a4d 6ebd 1da4 a23c
00000310: 458f ba3d 4e57 8bbe 18c2 eabd 85c1 433d
00000320: 4936 84bc c72c c4bd 63c5 eebd b640 b7bd
00000330: 5f85 b0bc f9b6 3abd 4f7b 81be a72c 94bc
00000340: 67af 9cbd 1e56 afbb 115a 243d ae44 5e3e
00000350: ba87 56be 6fba 92be 9bcc e83d 81fb 5b3e
00000360: 40a7 6a3e 8180 5dbd ee77 8f3d 7393 88bd
00000370: 5d7c 91bd 300e 1cbe 02e6 01be faa4 ecbc
00000380: 23d4 efbc 62b4 813d 7065 fb3b 4bf8 413e
00000390: 1735 013e cfe4 c03d 244f 5c3e cf10 b73d
000003a0: 2e46 193c 4b4b 5bbb 83d4 84bd 446a 1f3e
000003b0: 6236 9bbc c711 dfba 0f6a 68be a869 b13c
000003c0: 9400 93bd 1b1f 513e f90c 86bd 4041 0fbe
000003d0: 2c3b b83d c2e6 c7bd 06f0 3bbe cb89 0dbe
000003e0: 6e55 2f3c f6ff 5ebc 7630 1dbe 58f9 d03d
000003f0: 1f70 edbd d6d5 babd 3e5d ca3e b07e 933e

linear_final.bias f4 [5]
0.06423524 0.04343721 -0.5055234 -0.71899146 -0.03709044
00000000: c48d 833d 37eb 313d fb69 01bf d30f 38bf
00000010: 25ec 17bd
