results1_checkpoint/eth/ade_best.pth (torch_old, 57359 bytes, 12 tensors)

gcn.gc1.weight f4 [2, 64]
000000 6c de 84 3e 72 0a b5 be e0 37 53 bb 8d 9b 97 be
       0.25950944 -0.35359532 -0.003222935 -0.29610863
000010 e9 17 ab 3e 03 82 9e be 9f 89 da bc b7 5b b7 3e
       0.3341668 -0.30958566 -0.026676951 0.3581216
000020 a0 8f 9d 3e 65 fa 0b bc 72 98 a4 be 30 c9 b0 bb
       0.3077364 -0.008543585 -0.32147557 -0.005395077
000030 2d d2 22 3b cd ca a9 be 8b bb ce 3e 64 9d e6 3a
       0.0024844513 -0.33162537 0.4037746 0.0017594513
000040 c6 16 1d 3e b0 b0 c0 3e 16 5c 17 3b af 5c 58 bc
       0.15340719 0.37634802 0.002309566 -0.013205691
000050 f1 e9 2b bc 7b e7 85 3e 28 b3 b4 be ad be 22 3b
       -0.010492788 0.26153168 -0.35292935 0.002483289
000060 35 2e f3 3e 3e a1 62 3e b6 9e b3 3e f8 a1 80 3e
       0.4749619 0.22131822 0.35082024 0.25123572
000070 0a 45 f0 3a 86 18 a7 be 34 31 2d 3e 5a 23 a3 3e
       0.0018331122 -0.32635897 0.16913301 0.3186291
000080 38 ff ca be f3 f0 2a 3e d8 eb a4 be f7 ba 46 ba
       -0.3964784 0.16693477 -0.32211185 -0.00075809605
000090 80 c6 ac 3e 73 32 01 bf c6 3f 9a be 2f e5 9c be
       0.33745193 -0.50467604 -0.3012678 -0.30643603
0000a0 01 62 b2 3a 40 e2 b3 be d3 0f bb 3e a3 a7 0c bd
       0.001360953 -0.35133553 0.3653551 -0.03433956
0000b0 97 40 9a 3e 08 59 0a 3f 88 90 92 3e 05 89 a5 be
       0.30127403 0.540421 0.28625894 -0.323311
0000c0 9f d1 9d be a5 29 9c be 2e ad a9 3e 0f cf 74 be
       -0.3082399 -0.30500522 0.33139938 -0.23907112
0000d0 7f 0d 74 be 6c 4f 56 3e 0b f1 d4 3b ac ea 97 bc
       -0.23833273 0.20928735 0.006498461 -0.018544517
0000e0 22 ca b7 be 04 51 29 bc 1a 86 96 be 3d 36 b7 be
       -0.35896403 -0.010334257 -0.29399186 -0.35783568
0000f0 1f ac 80 bd 81 c1 30 3e 50 57 9a be 15 48 8a 3e
       -0.062828295 0.17261316 -0.3014474 0.2700812
000100 6f e2 f6 bd 57 37 4d bd 13 41 89 bd 7f 7f 39 bd
       -0.120549075 -0.050101604 -0.06701865 -0.045287605
000110 16 5b de 3c dd 96 47 bd 2c 38 91 3d 08 a9 d9 3c
       0.027143043 -0.04872786 0.07090792 0.026569858
000120 65 b5 df 3c 50 09 d5 bd 7f 7c 48 bd 01 81 d3 bd
       0.027308175 -0.10402167 -0.048946854 -0.1032734
000130 22 ed e8 bd e3 6a 2c bd ae 89 aa 3c 71 f7 88 3d
       -0.113733545 -0.042094123 0.020817604 0.06687821
000140 db 9f 9b bc 0a 0b 48 3c 4f a4 1d be 6c 15 a6 3d
       -0.018997123 0.012209663 -0.1539471 0.08109555
000150 92 f6 e4 bd ba da de bd 5a ed 35 bd 29 fc 8c bd
       -0.11179842 -0.108815625 -0.04441581 -0.06884033
000160 8c 40 bc 3d b6 25 7a bd 72 35 09 3d 5f de bb bd
       0.09191999 -0.06107112 0.033498235 -0.09173273
000170 38 2b 83 3d 11 f8 29 bd de f9 d5 3d f9 b0 d8 3c
       0.06404728 -0.04149634 0.10448049 0.026451575
000180 ea 0a 45 bd 3b 95 11 bc df 15 2d bd ac d8 90 3d
       -0.04810611 -0.008885677 -0.042257186 0.07072577
000190 b1 4c 36 3d 17 9c 66 bd 31 12 2f bd 53 f4 50 bd
       0.044506732 -0.056301203 -0.042741958 -0.051014256
0001a0 02 c2 df bd 4d 20 48 bd bb aa e0 bd 73 a4 b8 3d
       -0.10925676 -0.04885893 -0.10970064 0.09015741
0001b0 cc 9a cd bd 83 6f 74 be 98 a5 c6 bc 4e 89 2f bd
       -0.10039291 -0.23870663 -0.024248883 -0.042855553
0001c0 5e 85 33 bd 44 aa 37 bd b8 c2 c5 3c 2d 32 1c bd
       -0.04382836 -0.044840112 0.0241407 -0.03813379
0001d0 8a 01 c2 bd d5 5a a4 bb 6a a4 f7 bd 4d 1c 7f bd
       -0.0947295 -0.005015711 -0.12091906 -0.06228285
0001e0 82 47 38 bd 8f 0f 8a 3d b6 64 39 bd 70 44 56 bd
       -0.04499007 0.06741249 -0.04526206 -0.05231136
0001f0 e0 02 e8 3d 8b 67 84 bc 3b eb 46 bd 24 33 f9 bd
       0.11328673 -0.016162654 -0.048564177 -0.121679574

gcn.gc1.bias f4 [64]
000000 3d 93 35 3c c4 8b bf 39 7f 72 b6 bd cf b1 98 3c
       0.011082468 0.00036534492 -0.08908557 0.018639473
000010 3e 5b 8b 3c 57 03 47 39 55 3b 4c bd 75 11 06 3c
       0.017011281 0.00018979363 -0.04986127 0.008182873
000020 ec f7 a7 3c a3 b7 98 bd bb ab 86 3c ed 30 03 be
       0.02050396 -0.07456901 0.01643931 -0.12811632
000030 f4 b6 c7 bd db 28 f2 bb 1a ba d6 bb b3 89 e0 bd
       -0.097516924 -0.0073901243 -0.0065529468 -0.10963764
000040 72 e4 b5 bd eb 12 bc bb 0c af 45 bd b1 23 89 bd
       -0.08881463 -0.00573956 -0.04826264 -0.06696261
000050 60 33 13 be 2d 50 03 3c 12 4b 7d 3c 5a 2d 93 bc
       -0.14375067 0.008014721 0.015459793 -0.017965961
000060 c9 68 47 bc f8 72 ed 3c 84 cf 9a b9 75 d2 ad 3c
       -0.012170979 0.028985485 -0.0002952778 0.021218518
000070 3e 2d 0c be 59 3f 8c 3c 7e 2b fa 3c e7 d4 de 3c
       -0.13689134 0.01712005 0.030538317 0.02720113
000080 89 07 6f bc 21 d1 9f bb 1f 5b 32 3c 1f be cb bd
       -0.014589199 -0.004877225 0.010885983 -0.09948372
000090 15 ec 0c 3b b4 09 d3 bc d8 ca 04 3d 9e 0d 9c 3c
       0.002150302 -0.025761463 0.03242001 0.019049462
0000a0 16 97 48 be f2 56 98 3b 4e 7b e7 3b 45 c3 86 bd
       -0.19588885 0.0046490366 0.0070642596 -0.065802135
0000b0 5a 41 bd 3b 17 e7 52 bc ee b8 79 3c 4b 19 89 3c
       0.005775613 -0.012872479 0.015241845 0.016735693
0000c0 04 86 7c 3c 68 a6 9d 3c 39 cd 7f 3c 37 26 f0 3c
       0.015412811 0.019244388 0.015612894 0.029315097
0000d0 94 ea de 3c 24 4c 06 be c7 5a ca bd 78 7d e7 bd
       0.027211465 -0.13114983 -0.09880596 -0.11303228
0000e0 e4 fb 0b bc 1b 9c 08 be 67 2f b7 3c ec f7 17 bb
       -0.008543942 -0.133408 0.02236147 -0.0023188544
0000f0 d2 55 d8 bd 6a 65 de bd 9b e4 ac 3c 3b 86 33 3c
       -0.10563244 -0.10859187 0.021105101 0.010957296

gcn.gc2.weight f4 [64, 2]
000000 17 b2 34 be b1 3f 57 3e 2d 8e 8e 3e d5 46 55 be
       -0.17646061 0.2102039 0.27842847 -0.20827802
000010 18 48 8d bd 08 be 99 3d d7 86 3e 3e 4a b4 60 be
       -0.068985164 0.07506949 0.18606125 -0.21943775
000020 bb 81 f8 bd 08 0c a0 3e 7f 8d 48 3e 36 55 69 be
       -0.12134119 0.3125918 0.19585226 -0.22786412
000030 22 2d a3 bd 3a aa 44 3c c5 d1 09 be 92 48 a7 3e
       -0.07967593 0.012003476 -0.13458927 0.32672554
000040 cb f0 fc bd 11 66 90 3e 93 9d 98 bd 6d 00 a9 3c
       -0.12350615 0.2820287 -0.0745193 0.020630086
000050 fe a2 83 3e 73 33 40 be bb 35 90 bd c3 a7 94 3d
       0.2571029 -0.18769626 -0.07041498 0.072585605
000060 20 01 be bd 85 9a 09 3d 6e ea 81 3e 90 0a 56 be
       -0.09277558 0.033594627 0.25374168 -0.20902467
000070 58 d9 26 be d2 8d b6 3e fe 53 98 bd 34 0e 6a 3d
       -0.16293848 0.35655075 -0.07437895 0.05714245
000080 b6 ec 11 3e ca 65 ae 3d 67 ef 16 be 42 7e b0 3e
       0.14250454 0.085155085 -0.14739762 0.34471327
000090 5c b7 be bd 3c 25 dc 3d 1b 4b 93 bd 24 41 af 3c
       -0.09312317 0.107492894 -0.071920596 0.021393366
0000a0 a5 11 c2 bd 7b 10 fc 3c cc f8 42 be 24 c9 45 3e
       -0.09476022 0.030769577 -0.19040221 0.1931501
0000b0 7b 3e 87 3e c3 75 5b be 60 1c 04 bd 58 e5 02 3d
       0.26414856 -0.21431641 -0.032253623 0.031957
0000c0 f8 3b 59 be 4f f9 e3 3e 49 0c 09 be ba 8a 3d 3e
       -0.21214283 0.44526145 -0.13383593 0.18509951
0000d0 73 e3 18 be 66 46 9b 3e 2f cc 19 be 69 2c 60 3e
       -0.14930515 0.30327147 -0.15019296 0.21891941
0000e0 5c f9 ef bd b8 9c cb 3c 26 fc 66 3e 04 fa 67 be
       -0.117174834 0.024855003 0.22557124 -0.22653967
0000f0 ce 5e ec bd 0a 70 2a 3e c0 46 04 be a6 0b 95 3e
       -0.1154152 0.16644302 -0.12917614 0.2911045
000100 51 2a 99 3e ec b4 56 be cd 92 3a 3d 40 e0 f7 3d
       0.29915097 -0.20967454 0.045550156 0.12103319
000110 a3 85 63 3e 68 3e 6d be 92 70 6d bd 08 95 10 3d
       0.22218947 -0.23168337 -0.057968684 0.035298377
000120 5b cb 0d be 4b bb 9b 3e 52 f6 cc 3e c7 80 6c be
       -0.13847105 0.3041633 0.40031677 -0.23096
000130 e2 1f 6f 3e fa c0 39 be 4c 7b 56 3e 2f 6d 5a be
       0.23352006 -0.18140021 0.20945472 -0.21330713
000140 36 d9 e9 bd 99 b6 67 3d c4 3f 89 3e 63 05 64 be
       -0.11418383 0.056570623 0.26806462 -0.2226768
000150 d6 4e 57 be f8 5d aa 3e b4 dd 72 bd 6c 7f 16 3b
       -0.21026167 0.33274817 -0.059293464 0.0022964133
000160 02 65 60 be 37 10 6b 3e e9 60 46 be a7 83 1f 3f
       -0.21913531 0.22955404 -0.19372906 0.6231026
000170 99 f8 13 be 80 d8 7e 3e c5 87 62 3e 19 31 69 be
       -0.14450301 0.24887276 0.22122104 -0.22772636
000180 03 2f 72 3e c5 1e 2e be 7c 36 5f 3e 24 65 4d be
       0.23650746 -0.17003925 0.21798128 -0.20058113
000190 08 a9 e9 bd 59 55 8f 3e ef 99 83 3d 93 59 54 be
       -0.11409193 0.27994803 0.06425845 -0.20737295
0001a0 b0 a5 6a 3e b1 75 d4 bd 20 cf 6b 3e 55 84 0e 3d
       0.22914767 -0.1037401 0.2302823 0.03479417
0001b0 81 2f b8 bd b2 8e 6c 3d 86 c8 4d 3c 25 e5 93 3d
       -0.08993436 0.057753272 0.012560016 0.0722144
0001c0 54 41 94 3e 12 76 49 be 3c 94 c8 bd 8e f6 c0 3b
       0.2895609 -0.19673946 -0.097938985 0.0058887666
0001d0 62 cb 50 3e dc eb 4c be 44 b1 93 3e 0e 62 54 be
       0.20390084 -0.20011848 0.2884618 -0.2074053
0001e0 da 2b 5c bd 04 85 1a 3a d2 98 4b 3e f7 2e fe 3c
       -0.053752758 0.00058944547 0.19882515 0.031028254
0001f0 9b f1 6a 3e 32 23 3b be 9f c9 3e be ea bc 65 3e
       0.22943728 -0.18275145 -0.186316 0.22435346

gcn.gc2.bias f4 [2]
000000 94 9c 98 be da 6e 86 be
       -0.2980696 -0.26256448

grucell.weight_ih f4 [192, 2]
000000 99 88 e0 3d 49 6a f8 bc 32 88 ef bc d4 ac eb bc
       0.10963554 -0.030324118 -0.029239748 -0.028768934
000010 56 90 d3 3d 32 21 a2 3c 34 77 8f bd 64 27 9d bd
       0.10330264 0.01979122 -0.07005158 -0.07673529
000020 16 95 91 bd b7 8a 36 3b 3f cd bc 3c d7 4b 5c bd
       -0.07108514 0.0027853677 0.023047088 -0.053783264
000030 2c cc 8c bc 37 d3 bd 3b 93 9d b3 bd dd 02 01 3e
       -0.0171872 0.005793001 -0.08770289 0.12598749
000040 db 66 5b 3d 6b 4e 83 bb 8c e7 c2 ba 19 f2 2a 3d
       0.053564887 -0.004007151 -0.0014870032 0.04173479
000050 01 5e e1 3c f7 a0 db bc 3b 02 c6 bd c6 d6 e7 bc
       0.027510645 -0.026810152 -0.09668394 -0.028300654
000060 89 de fa bd b2 5a e4 3d ca b2 a0 3d 39 68 05 bd
       -0.122494765 0.11150111 0.07846601 -0.032570098
000070 6b e3 2b bd ce d8 9f bc 86 0f f6 3d a4 25 5d 3c
       -0.04196493 -0.01951256 0.120146796 0.013497744
000080 67 2e 99 3c bb 5a cc 3d d1 cb 74 bc 4b 16 31 bd
       0.018698884 0.09978243 -0.014941172 -0.04323415
000090 2d dd 95 bd 7a 71 cb bd 72 4b 89 bd 68 90 23 3d
       -0.073175766 -0.09933753 -0.06703843 0.03993264
0000a0 3e c8 c4 3d 2f ac 4a bd 2c 13 2c bd ac 14 cc bd
       0.09608506 -0.049480613 -0.04201047 -0.0996488
0000b0 d0 a0 6d bd 78 fb f9 3d 87 86 e9 bd a3 b6 ab bd
       -0.05801469 0.12206167 -0.11402612 -0.083844446
0000c0 90 cf 76 bd 6d 6b 02 be a9 4c 24 3d 09 8b 9b bd
       -0.06025654 -0.12736292 0.04011217 -0.07594878
0000d0 05 81 bf 3d 06 ae 09 bd a1 65 9c 3d 58 f8 90 3d
       0.093507804 -0.033613227 0.07636572 0.07078618
0000e0 3a 18 b1 3c ce 33 20 3d a5 24 03 bd c9 2d 5b bd
       0.021617997 0.039111905 -0.03201737 -0.05351046
0000f0 d2 de 89 3d 7d 67 cf bd f2 b4 ea bd c0 7f d9 3d
       0.06731953 -0.10127161 -0.11460294 0.106200695
000100 8b 06 38 3d 6c 01 c4 3d f4 11 08 bd 6a 25 9e bc
       0.044928115 0.09570584 -0.033220246 -0.01930495
000110 20 4c c8 bb bf 36 2b 3d 76 91 71 bc cc 68 67 3c
       -0.0061125904 0.041800257 -0.014744153 0.014124107
000120 29 6c 93 bd ba 0f e0 ba ba b5 66 3d c9 d4 d3 3c
       -0.07198364 -0.0017094531 0.05632565 0.0258583
000130 57 a3 2c bc 26 57 b1 bd 55 4a a7 3d 4a 1c 43 3d
       -0.01053699 -0.086592 0.081684746 0.0476344
000140 ec fb 75 bc 6c 2b 75 bd 21 43 fa bd f8 56 01 bd
       -0.015013676 -0.059855863 -0.12219835 -0.03157708
000150 b1 31 ce bd 2f 9b 01 3e 06 1c b7 bd 94 1d 49 bd
       -0.10068072 0.12656854 -0.08940892 -0.049100474
000160 da 2c c4 bc 82 3b 14 3e cb b1 1b 3d a6 7a e7 3c
       -0.023947168 0.14475825 0.038011353 0.028256726
000170 59 d3 e4 bd 80 e1 a8 3d ed c6 09 bc 66 3a f3 3d
       -0.11173124 0.08246136 -0.008409244 0.11876373
000180 f9 1a 6e 3d f4 db 09 3d 9d 7a c1 3b 33 2e 1f 3d
       0.058131192 0.03365703 0.005904509 0.03886242
000190 33 c9 e5 3d f1 7d f3 bd 4e e2 84 bd 09 64 84 3d
       0.11220016 -0.11889256 -0.06488477 0.06464393
0001a0 91 66 4d bd 59 cf ec 3d ec 96 8e 3a 14 14 f9 3b
       -0.050146643 0.11562986 0.0010878718 0.0076012705
0001b0 f4 12 3d bd 4c ec cf bd f5 6f ff bc f7 68 96 3d
       -0.046160653 -0.10152492 -0.031181315 0.07344239
0001c0 30 62 cb 3c 84 e5 e2 3d 07 f9 26 3d 77 c7 a7 3b
       0.024827093 0.11078933 0.040764835 0.0051202136
0001d0 63 0e 60 bc f4 fd e5 3c eb 1a ab 3d 0b f9 fb 3d
       -0.013675305 0.028075196 0.083547436 0.123033606
0001e0 30 cd fa bd 8b 98 fd bd f2 6c 99 3d 07 9d f6 3d
       -0.12246168 -0.12382611 0.07491483 0.12041669
0001f0 9d cc d2 3d cb f5 8f bd 22 40 ee 3d a0 80 88 3d
       0.10292933 -0.07029303 0.11633326 0.06665158
000200 9c 1f bb bd 66 a3 af 3d 26 69 9e 3d 73 4d 6f 3d
       -0.091368884 0.08576088 0.07734899 0.05842347
000210 41 17 b1 3d 58 5d 6b bd 0c c0 bd bd ea e8 cd 3c
       0.086470135 -0.057462066 -0.09265146 0.025135476
000220 70 a1 6c 3c af 22 5f 3b a4 94 c0 3d 21 28 63 3c
       0.014442787 0.0034047773 0.09403351 0.013864548
000230 75 c8 93 3d 12 47 ab bc eb c7 60 3d a5 ae a3 3d
       0.072159685 -0.020907912 0.054878157 0.07992295
000240 6a 4f c3 3d e3 14 84 3d 16 54 76 3b 8b 98 c1 3c
       0.095366314 0.06449296 0.003758674 0.023632308
000250 e4 99 3f bd 1e e6 a0 bd 2f 66 87 bd e2 7f 98 bd
       -0.04677762 -0.07856391 -0.06611287 -0.07446267
000260 96 95 04 3d be 9e f3 bd 9a d0 95 bd 42 45 c4 bd
       0.03236922 -0.11895512 -0.07315178 -0.095835224
000270 ba ba 86 3d da 57 82 3c c0 5d f8 bd 8d 94 43 bd
       0.06578584 0.015911032 -0.121272564 -0.04774909
000280 9f 42 d9 bd 00 26 b1 3d 66 28 6b bd 5c 8e a2 bd
       -0.1060841 0.08649826 -0.057411574 -0.07937309
000290 4f 6f 57 ba c3 e8 ae bd 52 db fd 3d 8e 73 ca ba
       -0.00082181854 -0.085404895 0.12395348 -0.0015445815
0002a0 ea 16 c1 3c c8 54 c2 bd a9 7a a0 bd 28 05 b2 3d
       0.023570497 -0.09488827 -0.078358956 0.0869239
0002b0 88 76 b0 3d bd 36 f5 bb 65 e3 1c bd 77 82 db bd
       0.08616358 -0.007483332 -0.038302798 -0.107182436
0002c0 ac e0 24 bb 00 a6 a3 bc 74 e7 e9 bd a6 a4 f4 3c
       -0.002515833 -0.019976616 -0.11421099 0.029863667
0002d0 7f f5 8c bd 43 ab e1 bd 4d 71 0d be 01 aa c0 3d
       -0.06882762 -0.11018994 -0.13812752 0.09407426
0002e0 ee 6d b3 bd 36 aa a5 bc 01 a3 fa bb 47 25 c5 3d
       -0.08761202 -0.020222764 -0.007648826 0.09626251
0002f0 e4 2c c2 3d 21 ce cf 3d 5a fa a9 3c 50 29 48 3d
       0.094812185 0.10146738 0.02074926 0.048867524
000300 80 ea 00 bd 67 3d b9 bd 31 f6 2a 3d a4 11 1c 3d
       -0.031473637 -0.09044915 0.041738693 0.03810276
000310 74 ce 9c 3d 0a 6e 03 3d 7e 9e 93 3d 25 a5 53 bd
       0.07656565 0.032087363 0.07207964 -0.051671166
000320 81 34 da bd 30 d0 ce 3c 9f e9 c1 3d 67 33 a1 bc
       -0.106545456 0.025245756 0.09468388 -0.01967783
000330 2c ad 89 3d a0 f6 a2 3d 21 b2 4e 3d 88 cb 04 3c
       0.06722483 0.07957196 0.050462846 0.008105166
000340 3f 69 fd bd d2 b5 b0 bd 78 e2 ad 3c 48 70 d7 bc
       -0.1237359 -0.086284295 0.021226153 -0.026298657
000350 95 a5 b1 bc 6a d8 c6 3b 6c df a0 3d 5a 0a d6 bd
       -0.021685401 0.006068279 0.07855114 -0.10451193
000360 57 6a 92 bd 87 07 43 bd b8 16 8d bd 3d 7d 47 bc
       -0.07149189 -0.0476146 -0.06889099 -0.012175855
000370 09 a0 56 3d 7d ac 61 bb e3 ad f4 3d 5a 68 8c 3d
       0.052398715 -0.0034435086 0.11947229 0.06855841
000380 3f 0d 9d bd 64 18 14 bd a7 28 d5 3c 53 c0 58 3d
       -0.07668542 -0.036156073 0.026020361 0.05291779
000390 b4 45 e8 bd f1 e6 dc 3d 59 2b 8d bd 7c 1e dc 3d
       -0.1134142 0.10786236 -0.068930335 0.10748002
0003a0 ef 80 d3 bc 11 c9 6c 3d 67 87 33 3d 27 d6 c5 bd
       -0.025818316 0.05780894 0.0438303 -0.09659987
0003b0 66 64 80 3d ca 2f 77 3c 0d 41 dd bc 12 8f 8a 3d
       0.062691495 0.015087077 -0.027008558 0.0676557
0003c0 80 4c ed bd 39 c4 1f bd 7d 7f 23 bd 40 15 84 bd
       -0.11586857 -0.039005492 -0.039916504 -0.064493656
0003d0 c3 85 d9 bd 44 bd 8c 3d ea 82 8d 3d 82 41 ae 3c
       -0.10621216 0.06872037 0.069097355 0.021271471
0003e0 d2 51 f3 3c 68 58 e3 3d 10 0d dd bd 5a 7d 6a bd
       0.0297021 0.111008465 -0.10793507 -0.05724845
0003f0 aa e1 cc bd 29 76 45 3d 64 e2 9c bd 2d 57 a1 bd
       -0.100039795 0.04820839 -0.07660368 -0.078779556

grucell.weight_hh f4 [192, 64]
000000 f9 f3 46 bd 74 af f7 bb ce d5 f4 3d ab b7 bb 3d
       -0.048572514 -0.0075587574 0.119548425 0.09165891
000010 56 ec 90 3d 3e 52 f9 3c 06 52 dd bd 41 0d 1c 3c
       0.070763275 0.030434724 -0.1080666 0.009524644
000020 ff e8 92 3d ca 12 d9 bd cf 6f dc bd b2 5e 05 bd
       0.07173347 -0.10599287 -0.10763513 -0.03256101
000030 04 d5 70 ba ae 9b 70 bc 60 72 a9 bd e1 46 82 3d
       -0.0009187015 -0.014685554 -0.082737684 0.06361175
000040 eb 4e 99 3d 0a 49 a5 3c 4e 5b 92 bd 6d 53 be 3d
       0.074857555 0.02017643 -0.07146321 0.09293256
000050 30 00 e4 3d d7 f4 be bd 00 da 63 bd 64 f3 9b 3d
       0.11132848 -0.09324043 -0.055627823 0.076147825
000060 40 90 f1 bd 04 27 66 3d b3 35 80 3c aa 7a 26 bc
       -0.11795092 0.056189552 0.015650606 -0.010161081
000070 8e 8f fa bc 47 56 07 3c 9e 12 a7 ba 8c 2b c6 3d
       -0.03058603 0.008260316 -0.0012746637 0.09676275
000080 06 89 90 3d e2 4b e1 3c b4 95 99 bd 59 3f d8 3d
       0.07057385 0.027502004 -0.07499257 0.105589576
000090 cf 04 f8 3d e3 3b 90 3a 2b a8 20 3d ac 07 2c 3c
       0.12110292 0.0011004176 0.039222877 0.010499876
0000a0 50 52 d8 bd d0 84 82 bd 10 1a ce bd 91 fe 9d 3d
       -0.10562575 -0.06372988 -0.10063565 0.0771457
0000b0 20 8b c4 3c ae 79 bd 3d c0 c3 c4 bd fa f4 f4 bd
       0.023992121 0.09251724 -0.09607649 -0.11960788
0000c0 59 5f 30 3d ae 36 d3 3d 4d 07 5c bb a3 97 c9 bb
       0.04305968 0.10313164 -0.0033573688 -0.0061521097
0000d0 32 d9 f1 bd 4d 45 32 3d 99 72 7e bd e9 69 78 bd
       -0.11809005 0.04352312 -0.062121008 -0.06064788
0000e0 62 17 be 3d c0 4c 4e bd 8f d9 c1 bd a2 85 93 bd
       0.09281804 -0.050366163 -0.09465324 -0.07203223
0000f0 7d e1 0c 3d bd 2d ad 3c 86 19 a1 3d a4 cc e5 3d
       0.03439473 0.021139974 0.07866196 0.11220673
000100 30 3a ca 3c 61 06 d2 bd 2b f8 1f bd 71 32 82 3d
       0.02468595 -0.10255123 -0.03905503 0.06357277
000110 33 b1 f4 3d fd 9f 73 3d 34 52 d4 3b e3 78 a8 bd
       0.119478606 0.05947875 0.006479526 -0.08226182
000120 e0 1f 64 bb 78 de c6 3d a7 b1 62 bd 84 3a 2c bc
       -0.0034809038 0.09710401 -0.055345204 -0.010511998
000130 1b 31 e5 3d 5f 85 00 3e b9 ba 83 3d da 11 fa bd
       0.11191007 0.12550877 0.06432099 -0.12210436
000140 df 5a 2e bd e7 55 00 be 1f ab 9b 3d 6f 3d 3f bd
       -0.04256713 -0.12532769 0.07600998 -0.046689447
000150 9b 43 db 3b d4 10 53 bc 73 26 26 3d d1 0a a9 bb
       0.006691409 -0.01288243 0.04056401 -0.00515876
000160 0e c8 8f 3d 68 92 8f bd dc 28 5d 3d dd a7 01 3e
       0.07020579 -0.07010347 0.053994045 0.12661691
000170 b9 79 c0 3d 96 fa f5 bd 91 9c f9 3c 8e 2b 69 bd
       0.09398217 -0.12010686 0.030470164 -0.056926303
000180 66 53 23 bd 88 67 c6 bd a7 35 c1 bd d9 9a bd bd
       -0.039874457 -0.09687716 -0.094340615 -0.092580505
000190 16 24 cf bd be 10 b5 bd 0c 61 67 bd db c3 83 bd
       -0.10114305 -0.08841084 -0.056489035 -0.06433841
0001a0 a6 dc 87 bd 31 0f 00 3e 06 af 5f bc 20 c3 d0 3d
       -0.06633882 0.12505795 -0.013652569 0.10193467
0001b0 c1 61 64 3b 2e 72 9a 38 a4 bd a1 3d 57 0d 8f 3d
       0.0034848305 7.36456e-05 0.07897499 0.06984966
0001c0 8d 91 98 3d bf cb cd bd 21 f3 4b 3d a1 ac 16 bd
       0.074496366 -0.10048627 0.049792413 -0.036785726
0001d0 5f 35 db bc 5b 09 af 3d 7e 44 99 3d 99 ab 02 3d
       -0.026758848 0.08546706 0.07483767 0.03190193
0001e0 83 cb 59 3a 2d f0 1d bd 1c d4 fd bd d3 37 31 bd
       0.00083082187 -0.038559128 -0.12393972 -0.04326613
0001f0 c6 b0 9b 3d 59 a0 1c 3c 45 18 fc 3c 08 b7 f2 3c
       0.07602076 0.009559714 0.030773291 0.029628292
000200 98 da e9 bd 23 94 d3 bd 2c 8b a8 bc 9f 48 73 bb
       -0.114186466 -0.10330989 -0.020574175 -0.0037122143
000210 f0 e5 f5 bd 6f de a2 3d 66 9e 96 bd 8f 32 b1 3c
       -0.12006748 0.07952582 -0.07354431 0.021630554
000220 da 7d fc bd 17 e2 8d bd f6 ed 90 3d 12 d0 6e bd
       -0.12328692 -0.06927889 0.070766374 -0.0583039
000230 5e 9f 83 3d e8 8d 36 3d fa 15 33 3d eb 73 ac 3b
       0.06426881 0.044568926 0.04372213 0.005262842
000240 68 08 e6 3c 92 92 fd 3c 9d b5 9c bd b0 1b f3 bd
       0.02808018 0.03095368 -0.076518275 -0.11870515
000250 5a ce 32 3d 6b 15 e6 3d 6a 0b 83 bb da 1b 4f 3d
       0.043653823 0.11234554 -0.0039991634 0.05056367
000260 e7 67 18 39 60 ae ce 3d b0 99 c2 bd c9 c0 ef 3d
       0.00014534556 0.10091853 -0.0950197 0.11706693
000270 90 df 36 3d 48 98 35 3d d7 d8 a5 bd b7 61 d6 3d
       0.0446468 0.04433468 -0.080979995 0.104678564
000280 e3 ff 22 3d b8 dc c8 bd ae cc 2c bd 90 53 ee bc
       0.039794814 -0.09807724 -0.042187385 -0.02909258
000290 73 b2 ca 3d 0c fd 19 3b 97 5b 9c bd 9c a1 72 bd
       0.09897318 0.0023496775 -0.07634657 -0.059236154
0002a0 d7 b4 c9 3d c1 d5 a7 3d 67 68 c2 3d b3 9b 43 bc
       0.098489456 0.08195067 0.094925694 -0.011938977
0002b0 73 41 9e 3d 3d 2c 96 3d a7 18 cc 3d ef f1 e2 3d
       0.07727327 0.073326565 0.099656396 0.110813014
0002c0 34 95 db 3d 42 db 7e 3d 99 72 16 3d a6 e5 5f bc
       0.107218176 0.06222082 0.036730383 -0.013665592
0002d0 a9 79 f0 3c 96 2f 82 3d 81 8c 93 bc 43 0b 8e 3d
       0.029354887 0.063567325 -0.018011333 0.06935742
0002e0 35 aa c4 bd f6 99 99 bd 58 98 83 bd ca 4b eb 3d
       -0.09602777 -0.07500069 -0.06425542 0.11489065
0002f0 73 09 97 bd 16 16 50 bd 6c 0d 05 3d c9 7b e3 3d
       -0.07374849 -0.050802313 0.032483503 0.111075945
000300 1f af 53 bd 3b 9d b6 bd d5 4b 8a bb 71 d9 5a 3b
       -0.05168068 -0.08916708 -0.0042204657 0.0033393765
000310 b4 c3 33 bd 7b 76 e5 bd 84 96 db 3d 01 29 6b bb
       -0.04388781 -0.11204239 0.10722068 -0.0035882595
000320 4f 83 1f 3d a6 63 a5 3d 36 9f 18 bd af ec d8 bd
       0.038943585 0.08075647 -0.03726121 -0.10592019
000330 cd 90 f4 3c 89 f1 40 bd 83 15 b1 bd 5a 94 f4 3d
       0.029854203 -0.047105346 -0.08646681 0.11942358
000340 4c 2d 60 3b 5f eb d7 3d 0b c9 58 3d ec d8 e1 3d
       0.0034206687 0.1054294 0.052926105 0.11027703
000350 61 9a 00 bc 5e 0e c6 bd 49 56 38 bd c1 6e df bd
       -0.007849307 -0.09670709 -0.045004163 -0.109097965
000360 18 fb 1e 3b 9c 38 79 3d 9f 73 a5 bb c1 bc af 3d
       0.002425855 0.060845003 -0.0050491835 0.08580924
000370 a0 14 2e 3d 0e 55 c9 3c 22 d9 88 3c ed 24 6f 3d
       0.04250014 0.02457669 0.0167051 0.058384825
000380 92 da ff bd 13 a3 2f bd 14 90 af bd 24 b7 52 bd
       -0.12492861 -0.04288013 -0.085724026 -0.051444188
000390 23 0d e4 bd 96 6f 8c bc 17 b7 d1 3c 8b a5 9e bc
       -0.11135318 -0.017143052 0.0256 -0.019366046
0003a0 db 57 3e bb 64 0e fd bd 5d 47 dd bd 70 0c a4 3d
       -0.0029044065 -0.123562604 -0.10804627 0.08010185
0003b0 4b 64 61 bc 62 56 a5 3d 47 bf 35 bd 4e 82 ca 3d
       -0.013756822 0.08073117 -0.04437187 0.09888135
0003c0 20 58 3c 3d 89 92 4f 3d 17 88 5b 3d 65 1c bd bd
       0.04598248 0.050676856 0.053596582 -0.092339315
0003d0 05 eb de bd a3 77 02 bd 8c 54 b9 bc 92 a3 c9 bd
       -0.1088467 -0.031852376 -0.022623323 -0.09845652
0003e0 94 0c c0 bd 08 a9 84 bc c4 77 9d bc 91 4b 1b 39
       -0.09377399 -0.016193882 -0.019222148 0.00014810103
0003f0 c6 8c 85 3b 0b fb de 3d ec c2 63 bd d4 87 df bd
       0.0040756194 0.108877264 -0.055605814 -0.10914579

grucell.bias_ih f4 [192]
000000 48 30 c6 bd fb 94 a8 3d c9 5a 0c 3e f6 6c 59 3d
       -0.09677178 0.08231541 0.13706507 0.05308243
000010 50 f0 42 bd 3f 57 5e bd 53 51 36 bd 3e 05 2c bc
       -0.04759246 -0.054282423 -0.04451115 -0.010499297
000020 33 d7 8c bd d7 2c cc bd 54 12 5d 3c 00 5b 64 3d
       -0.068769835 -0.0996949 0.013493139 0.055750847
000030 30 f7 fd bd ec 84 6f bc 07 ef 5f 3d c0 7e 44 ba
       -0.12400663 -0.014619093 0.054671314 -0.0007495694
000040 9c e2 e2 bd ec 97 29 3d 4c b1 aa b8 e6 9d 8c bd
       -0.110783786 0.04140465 -8.139256e-05 -0.06866054
000050 31 b6 18 bd fd df 67 bd f0 f2 ee bd e8 06 f7 bd
       -0.037283126 -0.056610096 -0.116674304 -0.12061864
000060 cc cd a2 3d f2 dd 85 bd d7 62 3c 3d 4b e5 b7 3c
       0.07949409 -0.06536473 0.0459927 0.022448203
000070 f9 ad 9d bd 5b 50 cb bd c8 4f d7 3d 26 6c e3 3d
       -0.07699198 -0.09927436 0.10513264 0.11104612
000080 12 8d 6d bd 07 eb d8 bc b7 d1 52 bd a7 0a cd 3c
       -0.057995863 -0.026479257 -0.05146953 0.025029493
000090 36 76 89 3d 0c 77 7d bd eb 5e 38 3c cf 00 d8 bd
       0.06712 -0.06188111 0.011253099 -0.10547029
0000a0 32 26 af bd 0a 44 61 3d 14 64 d3 bd f7 fa 83 3c
       -0.08552207 0.054996528 -0.10321823 0.01611088
0000b0 42 19 e7 3d c6 29 9a bc 99 71 bd 3d b1 4c ba bd
       0.112841144 -0.018818747 0.09250183 -0.09096659
0000c0 32 0d 54 bd e4 5d df 3d 2d 1f 19 bd b6 48 7e 3d
       -0.051770397 0.1090658 -0.037383247 0.06208106
0000d0 a9 45 e2 3d d1 9e 96 3c 2c 63 80 bd 85 c2 10 3e
       0.11048443 0.018386276 -0.062689155 0.14136703
0000e0 0e 0b da bd 54 da b4 3b b9 6f ea 3d 3b b8 3c bd
       -0.1064664 0.005519191 0.11447091 -0.046074133
0000f0 1e 03 2d bd 3e 4d 52 bc 32 79 93 bd a0 10 ce 3d
       -0.0422393 -0.012835799 -0.072008505 0.10061765
000100 4d 0c 84 3d d2 53 25 bd 55 b7 8c 3d b8 7b c1 bd
       0.06447659 -0.04036314 0.06870905 -0.094474256
000110 7e 08 34 bd 78 45 01 3e 6b b7 c2 bd 3b bb ef 3d
       -0.04395341 0.12624156 -0.095076405 0.11705633
000120 b9 a7 35 bd c6 09 8d 3d 55 2b 0a 3e 3f fc 05 3e
       -0.044349406 0.0688663 0.13493092 0.13084505
000130 71 74 9a bd c5 a3 e1 3d cd 14 0c 3d 8a ce 12 3d
       -0.07541741 0.11017565 0.034199525 0.035841502
000140 29 1f d9 bc 38 90 a4 3d e8 75 0c 3e 13 e0 01 3e
       -0.026504116 0.0803532 0.13716853 0.12683134
000150 4c 04 9c 3d 24 99 e1 bd b5 1d 87 bd 6f f3 51 3a
       0.07618007 -0.110155374 -0.06597463 0.0008008992
000160 66 23 ac bd c8 19 d1 bb 4b e0 f0 bb ba 51 4e bd
       -0.08405189 -0.006381247 -0.0073509566 -0.05037091
000170 9c 4c 98 bd 01 9c 7e bc 22 03 0c bc 8b d7 14 bb
       -0.07436487 -0.015540124 -0.008545669 -0.0022711481
000180 a1 1d ba 3d 4c e4 e0 3d bc fe 48 3d 57 80 11 bd
       0.090876825 0.10981044 0.04907106 -0.035522785
000190 d8 3b 31 3e 7a b3 c6 bd 0f fe b7 3d 2a b6 e5 bd
       0.17307985 -0.09702201 0.08984005 -0.11216386
0001a0 45 5b 45 3d 7d e8 5b bd 45 15 d6 bd 76 97 de bd
       0.048182745 -0.053688515 -0.104532756 -0.10868733
0001b0 53 d4 6e 3d 6a fc ec bb 1c 29 13 3e 1e b1 98 3d
       0.058307957 -0.0072322385 0.1437115 0.074556574
0001c0 ab fc 20 3d 33 d8 db 3d 12 b7 21 bd f8 11 bf 3c
       0.039303463 0.10734596 -0.03948123 0.023323998
0001d0 08 69 c2 3d 1d 1d 83 bc bc 91 a5 ba 6c 3e 5e 3d
       0.09492689 -0.016005093 -0.0012631933 0.05425875
0001e0 09 f6 0f 3d ce c0 c9 3c c1 97 f0 3d 1a f6 de 3d
       0.035146747 0.02462807 0.11747695 0.10886784
0001f0 43 f8 19 3e 38 a8 94 3d 50 dc 29 3d bb 60 ac 3c
       0.1503611 0.07258648 0.041469872 0.021042218
000200 85 1c d5 bb d2 42 62 bd bf dd 8e 3d ec d3 ef 3b
       -0.006503644 -0.055239506 0.069758885 0.007318964
000210 e9 76 9f bd 1e 8a 03 be a8 d1 8a bc 6b 95 4f 3d
       -0.07786352 -0.12845656 -0.016945675 0.050679605
000220 00 26 a9 bc b3 b1 b7 bd e2 7c ae bd 6d c6 bd 3c
       -0.020648003 -0.0896944 -0.08519913 0.023165906
000230 ef 97 2f 3d d3 84 2c 3d 9d 35 26 3e b2 50 56 bc
       0.042869505 0.04211886 0.1623139 -0.013080763
000240 57 56 e6 3a 9b 7a a5 3c d4 2d 23 bd c5 71 3c 3d
       0.0017573339 0.020200064 -0.039838627 0.046006937
000250 55 34 d9 bc 78 81 04 bc a1 6b a0 3d ef d4 cc 3b
       -0.026514212 -0.008087508 0.078330286 0.0062509696
000260 b5 4f 40 bc 05 96 c4 bd b3 b9 2e bd 5d 83 a9 3c
       -0.011737754 -0.095989265 -0.042657565 0.020692522
000270 57 32 b5 bd b6 51 ab 3d 33 55 89 bc cc 98 3e 3d
       -0.08847492 0.083651945 -0.016764259 0.046532437
000280 11 a4 79 3d 50 bd 0c bc 14 ab 6d bc e2 31 9c 3d
       0.06094748 -0.0085900575 -0.01450612 0.07626702
000290 8a 22 42 3d d8 8a 13 3d 14 fc 71 3d 5d f7 57 bd
       0.04739622 0.036021084 0.05907829 -0.05272614
0002a0 95 b0 a8 3c 51 56 ab bc 16 1a 71 3c 77 6f 0a ba
       0.020592013 -0.020915182 0.014715692 -0.0005280892
0002b0 b8 4e 24 3d fe 62 98 bd 92 9e 86 3d d1 0e 92 bb
       0.040114135 -0.07440756 0.06573214 -0.0044573327
0002c0 1c af d9 3d 71 fa 05 3e 03 e9 9b 3d 8b 9b e9 bd
       0.106291026 0.13083817 0.07612803 -0.114066206
0002d0 67 90 e6 bb 70 ce 0a 3d b0 a1 8c bd f8 71 96 3d
       -0.007036257 0.03388828 -0.06866777 0.073459566
0002e0 0f 85 a1 bd 36 63 7a 3c eb 25 8c bd 45 a9 94 bd
       -0.07886707 0.015282443 -0.0684317 -0.07258848
0002f0 52 9e 51 3d cf 12 de 3d da e6 6a bd fe fc 08 bd
       0.051176377 0.10843431 -0.057349063 -0.033444397

grucell.bias_hh f4 [192]
000000 84 35 b1 bc c1 00 0b bd 04 6a 83 bd 07 5a 19 3c
       -0.021631964 -0.033936266 -0.06416705 0.009359843
000010 4f 4b f8 3c 27 78 34 3c e5 e6 02 be 38 d9 a7 3d
       0.030309347 0.011014975 -0.12783392 0.08195728
000020 c7 15 ea bd 95 4b a1 bc 18 55 b4 3d 7c ff 4f 3c
       -0.11429935 -0.01968936 0.08805293 0.01269519
000030 77 9d a9 bc a3 28 03 3d 4c 7c 80 3d 7a 52 b0 3d
       -0.020704968 0.032021176 0.06273708 0.08609481
000040 76 1c 5b 3d 85 ba 74 bc e3 d9 e6 3d 1a d3 8d bd
       0.05349394 -0.014937048 0.11272027 -0.0692503
000050 ec 45 07 bd 23 c9 80 bd 95 c0 0a 3d 76 fd b0 bd
       -0.033025667 -0.06288364 0.033875067 -0.08642094
000060 6c 2f b7 3d b2 4c b0 bd 1b 0b 3b bd 21 85 66 ba
       0.08944592 -0.086083785 -0.045664888 -0.00087936415
000070 65 a6 1e bc b7 88 c3 3d 7e 51 58 bd 28 7c e5 bd
       -0.009683226 0.09547561 -0.052812092 -0.112053216
000080 18 05 4c bc d1 a0 c8 3d 9b 50 90 3d 8a 9e b7 3d
       -0.012452386 0.09796298 0.07046624 0.08965786
000090 d4 69 99 3d e9 11 b0 bd 85 d7 42 3c 32 36 3c 3d
       0.07490888 -0.08597166 0.011892204 0.045950122
0000a0 7d 85 92 bd 76 97 ee 3d f9 bc 51 bd 43 4b ef 3c
       -0.07154367 0.11649983 -0.05120561 0.029210692
0000b0 fa af 81 3d 26 cd 5e 3d bb a3 56 bc 7b 54 00 3d
       0.06332393 0.054394864 -0.01310056 0.031330567
0000c0 3b 59 10 3c 7e 61 a8 3c 81 e5 e4 ba 9a 36 1e bd
       0.008810337 0.0205543 -0.0017463417 -0.03862629
0000d0 39 d7 40 3d b5 7e eb 3d c7 41 8f bd cb 61 9e 3c
       0.047080252 0.11498777 -0.06994968 0.01933374
0000e0 a2 a7 f5 3d c6 9f d1 bd eb 7f 44 bd 88 97 f4 3d
       0.11994864 -0.102355525 -0.047973555 0.11942965
0000f0 4c 36 4f 3d 5b fa d7 3a 36 5c fb 3d 52 6c ca 3d
       0.05058889 0.001647781 0.12273447 0.09883942
000100 4b 46 90 ba 84 a6 d6 bd 2a 8a 0e 3d a8 27 be bd
       -0.0011007277 -0.10480979 0.034799732 -0.092849076
000110 27 65 a5 3d 19 3e 44 bd 3d fb 62 bd 11 92 98 bd
       0.08075934 -0.047910783 -0.05541538 -0.07449735
000120 73 0e bf 3d 18 3c de 3d 3b 6f d1 3d 31 1f 68 bc
       0.09328928 0.10851306 0.10226294 -0.014167593
000130 38 ac ab bc 26 5a ba 3d f1 62 bf bd 26 d2 f8 bc
       -0.020956144 0.09099226 -0.093450435 -0.030373644
000140 39 d1 ab bc dc 30 ff 3d 44 bf 69 3d ae 78 34 3c
       -0.020973789 0.12460491 0.05706717 0.0110151
000150 ab 6b 59 3c 72 aa a1 3d a3 40 82 bd dc 89 a4 3d
       0.013270299 0.07893838 -0.06359985 0.08034107
000160 bd 42 8b bc ce c9 e2 bd e9 6b e9 3d 21 af 19 3e
       -0.016999597 -0.110736474 0.11397535 0.15008213
000170 c9 80 74 bc 75 d6 06 3e 33 51 2f bd 7d 44 29 3d
       -0.014923283 0.13167746 -0.042802047 0.04132508
000180 d2 e5 81 bc 07 39 57 bd a2 86 6b bd 47 7d f8 3c
       -0.015856657 -0.05254462 -0.057501443 0.030333174
000190 79 c7 a6 3c 4f 17 fe bc 70 05 c0 bc c6 d5 f9 3d
       0.020358788 -0.031016974 -0.023440093 0.12198977
0001a0 ca e9 43 3d 00 8f 07 3e 27 e3 be 3d 53 6b a8 3b
       0.04783038 0.13238144 0.093206696 0.005139747
0001b0 88 db b4 bc 14 16 ed 3c c7 8d b4 bc 47 31 46 bd
       -0.022077337 0.028941192 -0.022040261 -0.04838684
0001c0 67 6e 76 3d 14 58 9b 3b 9c 94 22 3d af 2d f5 3c
       0.06016388 0.0047407243 0.039692506 0.02992901
0001d0 6d f4 eb 3d ef 97 d3 3d 38 f7 bd bc be 51 30 3d
       0.1152123 0.103317134 -0.023189172 0.043046705
0001e0 c1 e5 5b 3d 69 1a f7 bc 09 ed d4 bc 08 c4 ca bd
       0.053685907 -0.03016396 -0.025991933 -0.09900671
0001f0 c9 8e 68 bd 7b da 08 3d 5f d1 b8 bc 53 f2 29 3d
       -0.056776796 0.033411484 -0.022560773 0.041490864
000200 c9 b6 9c bd 6f 3c d1 3d 30 9d 8d bc f1 83 b2 bc
       -0.07652051 0.10216605 -0.017286867 -0.02179143
000210 47 57 ab 3d b7 60 53 3c db 4f 45 3d 80 0b e8 3c
       0.08366256 0.012901477 0.04817186 0.028325796
000220 47 3a ca bd b5 4c 9f 3d 3f 51 21 bd c8 b3 39 3d
       -0.09874397 0.077783026 -0.039384123 0.04533747
000230 d2 df 09 3e 9c e1 02 be 4c 89 8a bd 97 d9 bd 3c
       0.13464287 -0.12781376 -0.067644686 0.023175044
000240 13 33 ec 3c 35 19 04 be cb d3 97 3d 49 ef ae bd
       0.028832948 -0.1290024 0.07413443 -0.08541734
000250 ec 2d 03 be ae e7 0d 3e 54 e0 b9 3d 3a 02 cb 3d
       -0.12810487 0.1385791 0.0907599 0.09912534
000260 c6 3e 71 3d ee e5 a2 3d 1f e9 b9 bd b1 4b 29 bd
       0.058897756 0.07954012 -0.090776674 -0.04133195
000270 23 c9 25 3d d5 59 72 bc 37 0e 40 bd c1 41 a0 bd
       0.040475022 -0.014791925 -0.046888556 -0.078250416
000280 0e 29 d5 bd e0 bd eb 3d bd 36 04 be a3 16 86 bd
       -0.10408221 0.11510825 -0.12911506 -0.06547286
000290 7a c0 90 3c 99 fe 00 bd 00 c3 03 be 6d 05 b9 bd
       0.017669905 -0.031492803 -0.12867355 -0.09034238
0002a0 10 10 9d bc 87 01 d0 3d 3b 22 cb bd 92 6b 36 be
       -0.019172698 0.10156541 -0.09918638 -0.17814472
0002b0 d7 05 d6 bc ee e2 dd 3d 48 44 0c bd e5 38 f0 bd
       -0.026125832 0.10834299 -0.034244806 -0.11729602
0002c0 4a 4f 77 bd 4d 8d fe 3c 08 ad 30 bc 81 f3 ed 3d
       -0.06037835 0.031073237 -0.010783441 0.1161871
0002d0 17 07 1b 3c 52 33 98 bd 9c f4 b3 3c 11 b6 d9 bd
       0.00946214 -0.074316636 0.021967225 -0.106304295
0002e0 9e f6 0f 3e 97 f6 f2 3d df 26 b1 3d 87 ba c6 bc
       0.1405892 0.118634395 0.08649992 -0.024258865
0002f0 bd d1 04 bc 5b 45 b3 bc 9d 69 95 3c 65 05 37 3c
       -0.008106646 -0.021883657 0.018238837 0.01117072

linear.weight f4 [2, 64]
000000 48 0a cd bc 6a 29 96 3d ac 5c 1a bd 8e 25 34 3d
       -0.025029317 0.07332118 -0.037686035 0.043981127
000010 c9 ba 4a 3d 25 83 ac 3d 5a bb 9b 3d 8a 44 51 bd
       0.04949454 0.08423451 0.07604094 -0.051090755
000020 14 e2 af bb 3e 64 81 bd b5 58 ba 3d ae 93 41 bc
       -0.005367527 -0.06317948 0.09098951 -0.011814995
000030 7f 46 85 3d b7 91 87 3d fd 5b 73 3d 0b b3 40 3d
       0.06507587 0.0661959 0.0594139 0.04704575
000040 d7 e9 a9 bd d0 75 d0 bd 4e dc ec bd 87 23 e8 3d
       -0.082965545 -0.10178721 -0.11565457 0.11334901
000050 c9 f0 8a ba 1d 05 e7 3d e4 8b a2 3d e1 89 78 bc
       -0.0010600324 0.11280272 0.07936838 -0.015169592
000060 4b 41 d0 bd 02 44 27 bd 24 9d d0 ba b9 e6 97 3d
       -0.10168704 -0.04083634 -0.0015915972 0.07417054
000070 f7 6b cc bd 49 b8 b7 bc 7e 3f b9 3d e9 62 19 bd
       -0.0998153 -0.022426741 0.09045313 -0.037447844
000080 e3 b9 dd 3d 8a b0 f4 bd f0 fb ef 3d 08 72 c7 bc
       0.10826471 -0.11947735 0.11717975 -0.024346367
000090 26 44 b2 bc 20 40 6d bd d6 8d 03 bb 65 a8 8f bc
       -0.021761011 -0.057922482 -0.0020073554 -0.017536351
0000a0 b0 34 84 bd 4d 81 92 bd 8d 59 c8 3d 78 fe b3 bd
       -0.06455362 -0.071535684 0.097827055 -0.087887704
0000b0 e9 ae a9 3b 85 43 ea bc 2a 51 47 3c ac 3e b5 bd
       0.0051783216 -0.028596649 0.012165347 -0.08849844
0000c0 e9 e2 c7 3d 45 5c ec bd e8 2f a3 bc d5 9c 4a 3d
       0.097600766 -0.115410365 -0.019920304 0.049465973
0000d0 d2 8d 36 bd 73 df 86 3c 29 20 fb 3d 54 45 fb bd
       -0.044568844 0.01646397 0.122619934 -0.12269083
0000e0 c1 89 f6 bd 5b 34 4e 3d c6 c7 8a bd 20 5f ad bd
       -0.12037993 0.0503429 -0.06776385 -0.08465409
0000f0 8d d7 85 3d c2 38 94 bd c0 b8 5f 3d 5b dd c4 bd
       0.06535254 -0.07237388 0.05461955 -0.09612533
000100 0b e7 a4 bd 9a c7 60 bb ab 63 08 be 6e a8 99 3a
       -0.080518804 -0.003429866 -0.1331927 0.001172317
000110 48 03 cb bd b2 00 b8 bc ea 25 cf bd e5 5c 10 bd
       -0.09912735 -0.022461269 -0.101146534 -0.03524484
000120 b3 d6 09 bb 52 94 50 3c 11 1e 85 3d 46 e7 da bd
       -0.0021032512 0.012730675 0.06499875 -0.10688643
000130 51 a1 ea 3c 2e d2 70 3d 6d 36 89 3c 96 6d 2a 3d
       0.028641375 0.058794193 0.016749585 0.041608416
000140 66 4f bb bc ac ac 47 3d b7 2c 30 3c 17 1a c3 3c
       -0.022865009 0.048748657 0.010752848 0.023816152
000150 33 fd 93 bd 73 b9 79 3d 75 e5 37 bd fa be 8d 3d
       -0.07226028 0.060967874 -0.04489656 0.069211915
000160 f0 a3 d4 3b bf 25 89 bc 0a 82 6c 3d 7c 83 b7 bc
       0.0064892694 -0.016741632 0.057741202 -0.022401564
000170 c6 e9 c2 3d 39 59 27 3d 4d e0 37 bd 6d c7 25 bd
       0.09517245 0.040856574 -0.044891644 -0.04047339
000180 38 2f ce 3d c6 46 5f bd ab 59 06 3e 2a 7f a3 3d
       0.100676 -0.054510854 0.13120143 0.07983239
000190 31 d8 95 bd c5 43 d0 bd d8 3a 63 3b 14 3d c8 3d
       -0.07316626 -0.10169176 0.0034672525 0.09777275
0001a0 ba 47 ea bd a7 5a 27 3d 82 14 80 bd 10 55 09 3e
       -0.11439462 0.040857937 -0.062539116 0.13411355
0001b0 65 84 55 3d 3b 1c 58 bd e8 99 5e 3d 52 67 a0 3d
       0.052128214 -0.052761298 0.054345995 0.07832207
0001c0 e8 fa b6 bb ad 82 e2 bd d4 f7 6d bd 9e e3 b1 bc
       -0.0055841096 -0.11060081 -0.058097675 -0.021714982
0001d0 3b 41 7e bc 2e 6e 02 3e 82 0a ca 3c 1d 35 75 bd
       -0.015518482 0.12737343 0.024663214 -0.059865106
0001e0 8e af a8 3c 69 1b c6 3c ea 8b 42 3d 6c 5e a1 3d
       0.020591523 0.024182992 0.047496714 0.07879338
0001f0 3c 20 cf bd cc b6 0c 3c 17 f9 15 3d ae 46 9f bc
       -0.1011357 0.008588504 0.036614504 -0.019442882

linear.bias f4 [2]
000000 44 76 d5 bd 43 a9 6b bd
       -0.10422948 -0.057534467

linear_final.weight f4 [5, 64]
000000 1f 0f 21 3d e5 27 2d 3d cd 26 65 3c 70 04 09 3d
       0.03932106 0.042274375 0.013986302 0.033451498
000010 14 e2 40 bd 5d b5 19 b9 d0 ab 78 bd 56 7c 8c 3d
       -0.047090605 -0.0001465878 -0.06071073 0.06859653
000020 97 96 ee 3d 4e 86 34 bd 88 cb aa bd 6b a3 23 3d
       0.116498165 -0.044073395 -0.08339602 0.03995077
000030 28 15 ba bd c0 49 47 bd 7a 1b b4 3c df 96 ba bd
       -0.090860665 -0.048654318 0.021985758 -0.091108076
000040 db 28 2f bd 2b b1 64 bc 46 c9 7e bc a6 a5 60 bd
       -0.042763572 -0.013958256 -0.015550917 -0.054845475
000050 7b b1 e4 3d fb 05 3d 3b f3 8b b8 bd 65 e1 0b bd
       0.11166664 0.0028842676 -0.09011068 -0.0341505
000060 18 ab b4 3d c4 67 b9 3c 67 62 d0 bc 3f f9 c9 3c
       0.08821696 0.022632487 -0.025437547 0.024654983
000070 a5 c1 fa bc c3 75 bb 3d 7e 0f 9b bd 6e c7 38 3c
       -0.030609915 0.09153321 -0.07571314 0.0112780165
000080 7e 7f 71 bd cf e0 87 3d 3d 5c 94 bd 7b a9 ad 3c
       -0.058959477 0.06634676 -0.072441556 0.021198979
000090 28 17 5b 3e c1 a2 7b bc 00 a0 c9 bd 2a 87 6e 3c
       0.21395552 -0.015358628 -0.09844971 0.014558593
0000a0 84 44 01 bd d1 e4 91 3d 95 93 04 bc da a9 08 bd
       -0.031559482 0.071237214 -0.008091827 -0.033365108
0000b0 93 09 9f bd b6 fd 75 bd 2c e2 9f 3d d1 8c 92 bd
       -0.07765498 -0.06005641 0.07806811 -0.07155765
0000c0 32 13 a7 bd db b6 92 bc d3 54 c9 bd d1 5a 77 bd
       -0.08157958 -0.017909458 -0.09830632 -0.060389344
0000d0 02 cc 23 bd 23 60 15 bc 01 61 94 bb 72 18 d7 3d
       -0.03998948 -0.009117159 -0.0045281653 0.105027094
0000e0 0a 85 1d 3d d8 68 f8 3c 94 81 5f 3b 69 a7 c4 bb
       0.038456954 0.03032343 0.0034104334 -0.006001402
0000f0 98 07 28 3e 0b ab 20 bd 36 4d 02 bc 7e 0f 2f bd
       0.16409147 -0.03922562 -0.007952979 -0.042739384
000100 d7 39 2b 3d 46 71 aa bb 27 86 9a bc 59 f4 5a bb
       0.041803207 -0.0052014915 -0.018862797 -0.0033409803
000110 2b e6 13 3c d8 ee 2a 3b 00 89 6c 3c 2d d7 15 bd
       0.009027044 0.0026082303 0.01443696 -0.03658216
000120 4b 66 65 3c 70 d6 09 bc cc 50 26 3d 37 5e c1 bb
       0.014001439 -0.008412942 0.040604398 -0.005901124
000130 d0 d0 dc bb c6 68 c3 3c 6c ee 92 bd ab 55 2b bc
       -0.0067387596 0.02385367 -0.071743816 -0.010457437
000140 01 ef 55 3b b1 4d 80 bb 41 a0 64 3c 37 74 e3 3c
       0.0032643678 -0.0039155115 0.013954223 0.027765376
000150 b3 27 4f bc 62 8e 71 bb ba 9f 07 bc 21 ab 7b bd
       -0.012643742 -0.0036858548 -0.008277828 -0.061442498
000160 21 bd 4e bd 60 6c ba 3c 6a 56 ed 3c 41 33 fc ba
       -0.050473336 0.022756755 0.02897187 -0.0019241349
000170 dc 44 74 3c 79 da 80 bd 4f 5f 0f 3c 1b 3a bc bc
       0.0149089955 -0.0629167 0.008750751 -0.022976926
000180 41 16 1f bc 05 6c 12 bc 71 68 08 3a f2 0b d5 bc
       -0.009709896 -0.008936887 0.0005203551 -0.026006673
000190 3e c9 7e bd ed da 1d 3c b3 1a a3 3b 78 7a 21 3d
       -0.06220364 0.0096347155 0.004977548 0.039423436
0001a0 bb 68 be bc e0 44 18 bd d4 ff 6f bc 92 65 c1 3c
       -0.023243299 -0.03717506 -0.0146483965 0.023608003
0001b0 13 21 0f 3c 3d 50 36 3d 52 ea 44 bd ff 0a ea ba
       0.008735913 0.044510115 -0.048075028 -0.001785606
0001c0 93 f7 3c 3c c3 da 29 bd 31 86 98 3c 38 08 b4 3c
       0.011533636 -0.041468393 0.018618675 0.021976575
0001d0 2d f5 15 3c 24 1a a0 3c cc d3 0d 3d fa f8 09 3d
       0.009152693 0.019543715 0.034625813 0.03368471
0001e0 41 7a 9e bc 00 dc 6c bc 6a 4d a8 bc 11 c2 a5 ba
       -0.019345405 -0.014456749 -0.020544726 -0.0012646337
0001f0 4d 42 18 bd 72 01 c3 bc 39 5e 43 3c bc 75 07 3d
       -0.037172604 -0.0238044 0.01192432 0.033071265
000200 34 e0 09 3d a3 0f 7e 3a 66 dc 04 bd d7 47 ba bd
       0.033661082 0.0009691661 -0.03243675 -0.090957336
000210 8c b9 dd 3d ee 05 fd 3d f0 8c 3d bc 5f 27 34 be
       0.10826406 0.123546466 -0.011569247 -0.17593144
000220 e9 23 84 3e 05 38 6d 3d 3b e9 17 3e a2 67 4d 3c
       0.25808647 0.057914753 0.14835064 0.012536915
000230 01 39 02 be 41 fb 97 3c 9e af fb bd 12 e0 36 3e
       -0.12717058 0.018552424 -0.12289356 0.17858914
000240 cf fa bf 3b 0c 3a 1b bd 74 b2 13 be ea 96 0a bd
       0.005858756 -0.037897155 -0.14423543 -0.03383533
000250 85 a2 fe 3d 5c df 2b bd d2 a6 63 be a9 03 05 be
       0.12433342 -0.04196106 -0.22231606 -0.12989677
000260 40 4f 27 bd b8 a4 22 3e 0b 00 6f 3d c4 1a 93 bc
       -0.040847063 0.15883148 0.05834965 -0.017957099
000270 6f a0 ba bc 84 69 f0 bd 5a 63 de 3d 82 12 98 bd
       -0.022781579 -0.117388755 0.108587936 -0.07425405
000280 ad 2e 8c bd 87 22 3d be 3d 6d f7 3d 5d 1d 1f 3b
       -0.0684484 -0.18470202 0.120813824 0.0024278976
000290 b3 11 d0 3b 7d f0 4c bd a8 91 d4 bd 6c 84 8c 3c
       0.006349766 -0.050034035 -0.10379344 0.017152987
0002a0 1a b5 a9 bd 38 ec cd bd ba 80 6c 3d 9b 3d 47 3e
       -0.082864955 -0.10054821 0.05773995 0.19457094
0002b0 ba d7 f4 3d 4b cf b7 bd f0 aa 2b bd 86 45 a5 bb
       0.11955209 -0.08975085 -0.041911066 -0.005043688
0002c0 fa 51 8d bd e9 3e 56 be 15 af 3e be 76 69 3f 3c
       -0.069004014 -0.20922436 -0.18621476 0.011682859
0002d0 9d 3c 2a 3d 0c 46 36 3c 29 09 07 3e 13 f4 6b 3c
       0.04156171 0.011125099 0.13187088 0.014401454
0002e0 ef 02 a6 bd df 84 30 be 61 7a 38 3d 78 36 7c 3d
       -0.08106028 -0.17238186 0.045038585 0.061575383
0002f0 ea ac d0 bd 1f 43 f2 bd 6b 00 46 3e 2e 1d 2b 3d
       -0.10189231 -0.118292086 0.19336097 0.041775875
000300 c5 ce b4 3d 05 bb 88 3d 55 f6 9d bd 35 af cf 3c
       0.08828501 0.06676296 -0.07713 0.0253521
000310 cb 1f 47 3e ae 54 9f 3e 22 98 64 bd 10 91 10 be
       0.19445722 0.31119293 -0.055809148 -0.14117837
000320 a3 9c 36 3e 1c 17 c1 3c 59 77 1e 3e 35 e5 f8 bd
       0.1783319 0.02357059 0.15475215 -0.12153093
000330 41 c0 95 be 01 47 a1 3d d5 b8 7c be 22 e9 07 bc
       -0.2924824 0.07874871 -0.24679883 -0.008295329
000340 10 84 b2 bd d1 58 88 3d df cf 84 bc 9c c0 5c 3c
       -0.08716595 0.066575654 -0.016212402 0.013473656
000350 3a 43 e8 3d fa 6e fe bd 1c 23 94 be b3 9a 0b be
       0.113409474 -0.12423511 -0.28933036 -0.13633232
000360 bb 82 ba bd a2 19 08 3e 3f 41 72 3e 09 e0 09 be
       -0.09106966 0.13291028 0.23657702 -0.13464369
000370 4e 21 18 3e 2d ce 80 be 8f e6 f3 3d 4f db fa bc
       0.14856455 -0.251573 0.1190921 -0.030622153
000380 3a a9 27 bd c9 bb 54 be 9f ec 57 3e 60 dc 24 bd
       -0.04093287 -0.2077476 0.21086358 -0.04024923
000390 62 d1 fb bd ad 08 44 bd 60 f7 bb 3d f1 bc 79 3e
       -0.12295796 -0.047859836 0.091780424 0.24388482
0003a0 ff a0 57 bd a8 54 6d bd 54 6d 37 3e b5 8c 36 3e
       -0.052643772 -0.057942063 0.17912799 0.17827113
0003b0 c3 82 02 3e 59 76 06 3e ec 55 3f be 5d e8 cb 3d
       0.12745194 0.13131084 -0.1868512 0.09956429
0003c0 47 82 65 be 9c 8f 9b be d8 4c 49 be 84 88 c6 3d
       -0.22412978 -0.30383003 -0.1965822 0.09694007
0003d0 5d e7 ba ba 51 10 68 3d b6 e6 f3 3d e6 b8 13 3e
       -0.0014259625 0.056656186 0.11909239 0.14426002
0003e0 81 25 6b 3d ed 49 1e be c8 d9 2e 3d f9 2d 41 3e
       0.057408813 -0.15457888 0.04268816 0.18865193
0003f0 81 0d 80 bc 1e 40 74 be 58 49 00 3e 9c 17 a8 3d
       -0.01563144 -0.23852584 0.12527978 0.08207628

linear_final.bias f4 [5]
000000 2a 0a b2 bc 4b 9f 83 3d c3 9d 72 bf 74 21 b9 bf
       -0.021733362 0.06426867 -0.94771975 -1.4463334
000010 5a 17 ff bd
       -0.12455626
