results1_checkpoint/eth/val_best.pth (torch_old, 57359 bytes, 12 tensors)

gcn.gc1.weight f4 [2, 64]
0	0x3e476d26	0.1947523
1	0xbea1c6ba	-0.3159693
2	0xbb75a6da	-0.0037483484
3	0xbe8a0b7d	-0.2696189
4	0x3e8c5a28	0.27412534
5	0xbe8f6db1	-0.28013375
6	0xbcdd6b3a	-0.027028669
7	0x3e975d3f	0.2956333
8	0x3e7c1701	0.2461815
9	0xbc11b35d	-0.008892861
10	0xbe938be4	-0.28817666
11	0xbbc1c909	-0.005913858
12	0x3b056dc3	0.0020359613
13	0xbe9909df	-0.29890344
14	0x3ea82945	0.32843986
15	0x3aa5a27a	0.0012636923
16	0x3e1edeb8	0.15514648
17	0x3e9aa510	0.30204058
18	0x3ace4aa4	0.0015738797
19	0xbc5de569	-0.013543465
20	0xbc33b87d	-0.010969278
21	0x3e4f28ab	0.20230357
22	0xbea3bd09	-0.3198016
23	0x3ad39057	0.0016141039
24	0x3ec7cc28	0.39022946
25	0x3e24fd36	0.16112217
26	0x3e919867	0.28436586
27	0x3e41cf29	0.18926682
28	0x3aacdee5	0.0013188986
29	0xbe963408	-0.29336572
30	0x3def0dc5	0.11672548
31	0x3e840dfa	0.25791913
32	0xbeb72110	-0.35767412
33	0x3e1deccf	0.15422367
34	0xbe945b99	-0.28976133
35	0xba90a583	-0.0011035654
36	0x3e8aa6d4	0.27080405
37	0xbeebe30b	-0.46071658
38	0xbe8a46a9	-0.27007034
39	0xbe8d4a8a	-0.2759593
40	0x3a4108c5	0.00073636725
41	0xbea0f8f3	-0.31439933
42	0x3e920951	0.28522733
43	0xbd0d9751	-0.034568135
44	0x3e6d866c	0.23195809
45	0x3ee8474b	0.45366892
46	0x3e648ff1	0.22320534
47	0xbe951560	-0.2911787
48	0xbe8ff143	-0.28113756
49	0xbe8c8f8c	-0.27453268
50	0x3e8b0e6d	0.27159443
51	0xbe5db214	-0.21649963
52	0xbe4e6bc7	-0.20158301
53	0x3e580fa8	0.21099722
54	0x3bc2f485	0.005949559
55	0xbc999ac0	-0.018750548
56	0xbea4ec6d	-0.3221163
57	0xbc2f9b82	-0.010718228
58	0xbe864f45	-0.26232353
59	0xbea4daee	-0.3219828
60	0xbd811a87	-0.06303888
61	0x3e329eac	0.17443341
62	0xbe8bdccd	-0.27316895
63	0x3e50f701	0.20406725
64	0xbe0551c8	-0.13019478
65	0xbd1a02b2	-0.037600227
66	0xbd8968cf	-0.06709444
67	0xbd0efb9d	-0.034907926
68	0x3c4f99b7	0.012670926
69	0xbd1aec0f	-0.03782278
70	0x3d911a52	0.07085098
71	0x3c349c28	0.011023559
72	0x3c389db6	0.01126807
73	0xbdd528ec	-0.10408196
74	0xbd12f297	-0.035875883
75	0xbdd3acb4	-0.10335675
76	0xbde90f64	-0.11379889
77	0xbcf60111	-0.030029805
78	0x3bd01b6f	0.0063509266
79	0x3d88d250	0.06680739
80	0xbc9c8557	-0.01910655
81	0x3a5bd6fe	0.00083862233
82	0xbe1ea68f	-0.15493225
83	0x3da5f850	0.081040025
84	0xbde51dfb	-0.11187359
85	0xbde7ae6c	-0.11312565
86	0xbd0ed852	-0.034874268
87	0xbd8e2fea	-0.06942733
88	0x3d9f4153	0.077761315
89	0xbd91ff1c	-0.071287364
90	0x3c8be867	0.017078592
91	0xbdca7903	-0.098863624
92	0x3d82fbd2	0.06395687
93	0xbcf7bde1	-0.030241909
94	0x3dbbf391	0.09177316
95	0x3c4580cb	0.012054632
96	0xbd1ac4df	-0.037785407
97	0xbc2190c9	-0.00986118
98	0xbd023de7	-0.031797316
99	0x3d90c0c8	0.0706802
100	0x3cdfaf18	0.02730517
101	0xbd2eaac6	-0.04264333
102	0xbce7cee2	-0.028296892
103	0xbd171a04	-0.036890045
104	0xbddfea20	-0.10933328
105	0xbd1a8a84	-0.037729755
106	0xbdf26e82	-0.11837484
107	0x3db89099	0.09011955
108	0xbddcca70	-0.107807994
109	0xbe8ce628	-0.27519345
110	0xbd18e1c4	-0.037324682
111	0xbd009fe1	-0.031402472
112	0xbd02dad5	-0.031946976
113	0xbd0d2842	-0.03446222
114	0x3c1f12ec	0.009709101
115	0xbcd96dad	-0.026541555
116	0xbdb5ad3a	-0.08870931
117	0xbba29055	-0.0049610534
118	0xbdf7d182	-0.12100507
119	0xbd7f3f3b	-0.06231616
120	0xbd015128	-0.031571537
121	0x3d89ece2	0.06734635
122	0xbd119c0c	-0.03554921
123	0xbd28251b	-0.04105101
124	0x3de7f28f	0.11325561
125	0xbc84bbf3	-0.016202902
126	0xbd13e723	-0.0361091
127	0xbe043f80	-0.12914848

gcn.gc1.bias f4 [64]
0	0x3cc76981	0.0243423
1	0x3cc9f127	0.024651123
2	0xbdb71068	-0.08938676
3	0x3d07ffac	0.033202812
4	0x3d238194	0.039918497
5	0x3d0b7c56	0.034054123
6	0xbd4c876d	-0.04993384
7	0x3d0bb762	0.034110434
8	0x3d1815bc	0.037130103
9	0xbd98d126	-0.07461767
10	0x3d0dfba9	0.03466383
11	0xbe0377ac	-0.1283862
12	0xbdc80a54	-0.09767595
13	0x3d1b7d95	0.03796156
14	0x3d201288	0.039080173
15	0xbde12219	-0.10992832
16	0xbdb0b9b5	-0.08629171
17	0x3ceab31c	0.02864986
18	0xbd3278ef	-0.043572363
19	0xbd895a0f	-0.067066304
20	0xbe1358d7	-0.14389358
21	0x3cfbc04b	0.03073134
22	0x3cfab9bd	0.030606145
23	0xbc823c9e	-0.015898045
24	0x3cfbe95d	0.030750925
25	0x3d2794cb	0.040913384
26	0x3d18b703	0.03728391
27	0x3cd735c4	0.026270755
28	0xbe0c7310	-0.13715768
29	0x3d00f01b	0.031478982
30	0x3d35ecda	0.044415332
31	0x3d0b30b2	0.033981986
32	0x3ce584d0	0.028017431
33	0xbd1a4d68	-0.037671477
34	0x3d096189	0.033540282
35	0xbdcc23ef	-0.09967791
36	0x3d2f767d	0.04283761
37	0x3c0ea63c	0.008706626
38	0x3d0c5789	0.034263168
39	0x3d3131e6	0.043260477
40	0xbe48d679	-0.19613065
41	0x3cb427c1	0.021991612
42	0x3ce04b28	0.027379587
43	0xbd86f98c	-0.06590566
44	0x3cc4938d	0.023996139
45	0x3be9d99b	0.0071365363
46	0x3d3061ae	0.043061905
47	0x3cf11409	0.029428499
48	0x3d1f9d14	0.03896816
49	0x3d03e60c	0.03220181
50	0x3d31ec99	0.043438528
51	0x3d30bacb	0.04314689
52	0x3d17341d	0.036914933
53	0xbe04bb5e	-0.129621
54	0xbdcacc2f	-0.09902226
55	0xbde7b7c4	-0.113143474
56	0x3ce8ffb4	0.028442241
57	0xbe08b5ca	-0.13350597
58	0x3d17379e	0.036918275
59	0x3d141341	0.036151174
60	0xbdd8762a	-0.10569413
61	0xbdda44c8	-0.1065765
62	0x3d0c6497	0.034275617
63	0x3ccfa28d	0.025346065

gcn.gc2.weight f4 [64, 2]
0	0xbe12fa24	-0.14353234
1	0x3e2cb787	0.16866885
2	0x3e7a1aaf	0.24424241
3	0xbe423e69	-0.1896912
4	0xbd8db200	-0.069187164
5	0x3d9a48b8	0.07533401
6	0x3e230e66	0.15923461
7	0xbe5380e5	-0.20654638
8	0xbdad8650	-0.08472884
9	0x3e873ae3	0.26412115
10	0x3e2acb37	0.16679083
11	0xbe5ac3b8	-0.21363723
12	0xbda35e5f	-0.07976984
13	0x3c46e83f	0.012140333
14	0xbdc4ef48	-0.09615952
15	0x3e8ccb57	0.27498886
16	0xbdad6bcc	-0.08467826
17	0x3e6e3d3d	0.23265548
18	0xbd98dcf5	-0.07464019
19	0x3caa8244	0.020814069
20	0x3e686a9a	0.22696915
21	0xbe30844c	-0.17237967
22	0xbd90c6ef	-0.070691936
23	0x3d95660c	0.072948545
24	0xbdbe523c	-0.09293029
25	0x3d0a81ed	0.033815313
26	0x3e660b4d	0.22465248
27	0xbe475b86	-0.19468507
28	0xbdeb92c8	-0.11502606
29	0x3e96d864	0.29461968
30	0xbd98acac	-0.074548095
31	0x3d6b0bb2	0.0573842
32	0x3e12a95b	0.14322416
33	0x3dad1fc8	0.084533274
34	0xbdce399d	-0.100695826
35	0x3e91c1c7	0.28468153
36	0xbdbd59fa	-0.09245677
37	0x3ddc1f5a	0.10748167
38	0xbd936d38	-0.07198566
39	0x3cb02f9c	0.021507077
40	0xbdc290c8	-0.09500271
41	0x3cfef6d7	0.031123562
42	0xbe223a9c	-0.1584267
43	0x3e1b9564	0.15193707
44	0x3e6dd7aa	0.232268
45	0xbe4c6f9f	-0.19964455
46	0xbd038d09	-0.032116923
47	0x3d03f654	0.03221734
48	0xbe253e8d	-0.16137142
49	0x3ec19724	0.37810624
50	0xbdcffbe6	-0.10155468
51	0x3e150a5e	0.14554736
52	0xbdd9d369	-0.106360264
53	0x3e7e3b0a	0.24827209
54	0xbdeefa14	-0.11668792
55	0x3e3573ee	0.17720005
56	0xbdf05d44	-0.11736539
57	0x3cce2310	0.025163203
58	0x3e466912	0.19376019
59	0xbe57f734	-0.21090394
60	0xbdb03780	-0.08604336
61	0x3e06ba22	0.13156942
62	0xbdba1119	-0.09085292
63	0x3e77464a	0.24147907
64	0x3e85f656	0.26164502
65	0xbe41e990	-0.18936753
66	0x3d89e397	0.067328624
67	0x3dc7dd95	0.0975906
68	0x3e44aa12	0.19205502
69	0xbe5df40a	-0.21675125
70	0xbd6e11e2	-0.058122523
71	0x3d117a5d	0.035517085
72	0xbdc666bb	-0.09687563
73	0x3e802c1a	0.25033647
74	0x3eb67b58	0.3564098
75	0xbe53d0a8	-0.20685065
76	0x3e500aae	0.20316574
77	0xbe2a97fb	-0.16659538
78	0x3e38d99a	0.18051758
79	0xbe4bd745	-0.19906338
80	0xbdea6712	-0.1144544
81	0x3d697719	0.056998346
82	0x3e6f7c70	0.23387313
83	0xbe521f64	-0.20519787
84	0xbe2c9e9b	-0.16857378
85	0x3e8e978c	0.27849996
86	0xbd739a66	-0.059473418
87	0x3b263c24	0.0025365436
88	0xbe3a4bf1	-0.18193032
89	0x3e3a46fe	0.18191144
90	0xbe27b651	-0.16378142
91	0x3f1399aa	0.5765635
92	0xbddf8fa4	-0.10916069
93	0x3e5083b2	0.20362738
94	0x3e42a15b	0.19006865
95	0xbe594e9d	-0.21221395
96	0x3e57ffe0	0.21093702
97	0xbe22282a	-0.15835634
98	0x3e40f38a	0.18842903
99	0xbe3ee5a8	-0.18642294
100	0xbd958a22	-0.07301737
101	0x3e681d89	0.22667517
102	0x3d116500	0.03549671
103	0xbe42319b	-0.18964235
104	0x3e4c1a83	0.19931988
105	0xbdac7a1a	-0.084217265
106	0x3e6c9ed8	0.23107469
107	0x3d0bb868	0.03411141
108	0xbdb882ce	-0.09009324
109	0x3d6d8b99	0.05799446
110	0x3c4a4336	0.012345126
111	0x3d947cd5	0.07250372
112	0x3e830e7d	0.2559699
113	0xbe37711e	-0.17914245
114	0xbdc8d198	-0.09805602
115	0x3bc851e2	0.006113277
116	0x3e326039	0.17419519
117	0xbe3cee39	-0.1845025
118	0x3e831666	0.25603026
119	0xbe450e33	-0.19243698
120	0xbd5d63fe	-0.054050438
121	0x3a7d1116	0.000965373
122	0x3e4c2e48	0.1993953
123	0x3cfa6016	0.030563395
124	0x3e4f6d5e	0.20256564
125	0xbe2dad01	-0.16960527
126	0xbe1cb939	-0.15305032
127	0x3e3a0fc2	0.18170074

gcn.gc2.bias f4 [2]
0	0xbe85013a	-0.25977498
1	0xbe5769bb	-0.21036427

grucell.weight_ih f4 [192, 2]
0	0x3de05a48	0.1095472
1	0xbcf75b04	-0.030194767
2	0xbcefda90	-0.029279023
3	0xbceb3149	-0.028710024
4	0x3dd45c8e	0.10369216
5	0x3cadd9c6	0.021222007
6	0xbd8f8706	-0.070081756
7	0xbd9cde17	-0.07659548
8	0xbd90931c	-0.07059309
9	0x3b3a8807	0.0028462426
10	0x3cbb3f35	0.022857288
11	0xbd5c7c9c	-0.053829774
12	0xbc8bfed2	-0.017089281
13	0x3bbe69df	0.0058109607
14	0xbdb27692	-0.08714022
15	0x3e0052f8	0.1253165
16	0x3d5a6f9b	0.05332909
17	0xbb402c01	-0.0029323103
18	0xbadaecde	-0.0016702672
19	0x3d2bcc05	0.041942615
20	0x3ce2054c	0.027590416
21	0xbcdbd900	-0.026836872
22	0xbdc41cce	-0.095758066
23	0xbcefb41a	-0.029260684
24	0xbdfac128	-0.12243873
25	0x3de3139e	0.11087726
26	0x3d9e0d50	0.07717383
27	0xbcf5961d	-0.029978806
28	0xbd28be4f	-0.041197117
29	0xbca3a5b2	-0.01997647
30	0x3df65fa5	0.120299615
31	0x3c616ff6	0.013759604
32	0x3c9a84e2	0.018862192
33	0x3dcce95e	0.10005449
34	0xbc7160c1	-0.014732541
35	0xbd319996	-0.04335936
36	0xbd9483b5	-0.072516836
37	0xbdcd109c	-0.100129336
38	0xbd88b12c	-0.06674418
39	0x3d21d839	0.039512847
40	0x3dc511b4	0.09622517
41	0xbd4a9e88	-0.049467593
42	0xbd2e8208	-0.042604476
43	0xbdcbf613	-0.09959044
44	0xbd6cddb0	-0.057828605
45	0x3df93146	0.12167601
46	0xbdea6afc	-0.11446187
47	0xbdaac869	-0.083390065
48	0xbd7495f7	-0.05971333
49	0xbdfe1eb6	-0.124082014
50	0x3d2471bb	0.040147524
51	0xbd9bcf11	-0.07607854
52	0x3dbfcfc4	0.093658
53	0xbd076939	-0.033059333
54	0x3da13ed2	0.0787331
55	0x3d92c2a9	0.07166035
56	0x3cb0826c	0.021546565
57	0x3d20ac47	0.039226796
58	0xbcfd4fd9	-0.030921863
59	0xbd5c3726	-0.05376353
60	0x3d8a240c	0.06745157
61	0xbdcfde83	-0.101498626
62	0xbdea7351	-0.11447776
63	0x3dd99ed0	0.10625994
64	0x3d39d25a	0.045366623
65	0x3dc4431c	0.095831126
66	0xbd008f8c	-0.031386897
67	0xbcad0256	-0.021119278
68	0xbbb59bbe	-0.0055422476
69	0x3d287217	0.04112443
70	0xbc6fe603	-0.014642241
71	0x3c639121	0.013889582
72	0xbd8e37fb	-0.06944271
73	0xba94f8e6	-0.0011365681
74	0x3d677bf0	0.05651468
75	0x3cd2a806	0.025714885
76	0xbbe0dcc9	-0.006862257
77	0xbdb2c000	-0.08728027
78	0x3da6f711	0.08152593
79	0x3d43750d	0.04771905
80	0xbc698422	-0.014252694
81	0xbd716d0e	-0.058941893
82	0xbdf8b239	-0.12143368
83	0xbd022514	-0.03177364
84	0xbdcce137	-0.10003894
85	0x3e010b83	0.12602048
86	0xbdb43092	-0.087983266
87	0xbd4a227d	-0.049349297
88	0xbcaf5788	-0.021404043
89	0x3e12c4d3	0.14332895
90	0x3d1c306a	0.03813211
91	0x3ceebcb9	0.029142724
92	0xbde5daa1	-0.11223341
93	0x3dabb96d	0.083849765
94	0xbc0703aa	-0.00824062
95	0x3df391ab	0.11893018
96	0x3d6e1de5	0.05813398
97	0x3d0ab687	0.033865478
98	0x3bc63daf	0.0060498337
99	0x3d1eb9fe	0.038751595
100	0x3de69b19	0.11260051
101	0xbdf1bcb5	-0.11803571
102	0xbd860026	-0.06542997
103	0x3d87dc9e	0.06633876
104	0xbd47c978	-0.04877612
105	0x3defa1f9	0.11700816
106	0x3b20cffa	0.0024538026
107	0x3bd8af8b	0.006612723
108	0xbd3ce395	-0.046115477
109	0xbdcfb099	-0.10141105
110	0xbcf83d1f	-0.030302582
111	0x3da69f57	0.081358604
112	0x3cc8fb56	0.024533909
113	0x3de2fa46	0.11082892
114	0x3d282f45	0.041060705
115	0x3ba465de	0.0050170263
116	0xbc680275	-0.014160742
117	0x3ceb51b7	0.028725488
118	0x3dab3a6b	0.08360752
119	0x3dfbf3d2	0.123023644
120	0xbdf927b4	-0.12165776
121	0xbdfc0171	-0.123049624
122	0x3d9df4b3	0.07712688
123	0x3df7f01e	0.121063456
124	0x3dd536a2	0.10410811
125	0xbd8f631d	-0.07001326
126	0x3dee6476	0.11640255
127	0x3d891a02	0.06694414
128	0xbdbabd16	-0.091180965
129	0x3db03257	0.086033516
130	0x3d9e9814	0.0774385
131	0x3d6fa77c	0.058509335
132	0x3db60ee3	0.08889558
133	0xbd606b2a	-0.0547897
134	0xbdbda8a9	-0.09260685
135	0x3ccd93eb	0.025094947
136	0x3c735146	0.01485092
137	0x3b86beb4	0.004112089
138	0x3dc0f5de	0.094218954
139	0x3c64d2e4	0.013966296
140	0x3d93b5b0	0.072123885
141	0xbcabbc13	-0.020963704
142	0x3d60a510	0.054844916
143	0x3da4a8fd	0.080400445
144	0x3dc3620c	0.09540185
145	0x3d8301bc	0.06396815
146	0x3b7bfb70	0.003844943
147	0x3cc1cc0a	0.023656864
148	0xbd3f5466	-0.046711348
149	0xbda02c09	-0.07820899
150	0xbd8604c8	-0.06543881
151	0xbd960add	-0.07326291
152	0x3d054db7	0.032544818
153	0xbdf3b508	-0.11899763
154	0xbd922d0b	-0.071374975
155	0xbdc29703	-0.095014594
156	0x3d888271	0.06665505
157	0x3c8ad23c	0.01694595
158	0xbdf5935c	-0.11990997
159	0xbd40b897	-0.04705104
160	0xbdd8e604	-0.10590747
161	0x3db1b5da	0.086772636
162	0xbd69acf3	-0.057049703
163	0xbda29f5d	-0.079405524
164	0xb9d3e709	-0.0004041719
165	0xbdad7822	-0.08470179
166	0x3dfe02b5	0.1240286
167	0xbabb3922	-0.0014283995
168	0x3cc20dc5	0.023688206
169	0xbdc29aaf	-0.0950216
170	0xbda02cee	-0.0782107
171	0x3db268b9	0.087113805
172	0x3db0ff1e	0.0864241
173	0xbbed58ae	-0.0072432375
174	0xbd195542	-0.037434824
175	0xbdd9d041	-0.106354244
176	0x3b2fc430	0.0026819818
177	0xbc80cee1	-0.015723648
178	0xbde9c507	-0.11414533
179	0x3cf50637	0.02991019
180	0xbd8d1ec9	-0.068906374
181	0xbde2f925	-0.11082677
182	0xbe07a659	-0.1324705
183	0x3dcee7e1	0.10102821
184	0xbdb3674e	-0.08759938
185	0xbca62443	-0.020280963
186	0xbbfcf0a6	-0.007719117
187	0x3dc64687	0.09681421
188	0x3dc2568d	0.094891645
189	0x3dcfa434	0.10138741
190	0x3caa3f2d	0.020782078
191	0x3d47cf7d	0.04878186
192	0xbcf3aaab	-0.029744467
193	0xbdb6b1ee	-0.08920656
194	0x3d2ea315	0.042635996
195	0x3d243a06	0.040094398
196	0x3d9d44b2	0.07679118
197	0x3d0528e8	0.032509714
198	0x3d93c826	0.0721591
199	0xbd530a72	-0.051523633
200	0xbdc913fc	-0.09818265
201	0x3d0d387b	0.034477692
202	0x3dc1e7e7	0.0946806
203	0xbca01b0f	-0.019544153
204	0x3d9d1ad4	0.07671133
205	0x3db4b2e1	0.08823181
206	0x3d4ea532	0.05045051
207	0x3c034851	0.008012847
208	0xbdf331b6	-0.11874716
209	0xbda91bee	-0.0825728
210	0x3caeb2c0	0.021325469
211	0xbcd57317	-0.026055856
212	0xbcb07de6	-0.021544408
213	0x3bcabc92	0.00618703
214	0x3da2d282	0.079503074
215	0xbdd3f3d4	-0.10349241
216	0xbd8def64	-0.06930426
217	0xbd351abd	-0.044214953
218	0xbd8bc1f1	-0.06824101
219	0xbc357b8b	-0.011076818
220	0x3d5aef70	0.053451
221	0xbb38d8dd	-0.0028205432
222	0x3df625e8	0.12018949
223	0x3d8e173d	0.06938026
224	0xbd9d2197	-0.076724224
225	0xbd1477a4	-0.03624691
226	0x3cdc1476	0.026865225
227	0x3d5c17d2	0.053733654
228	0xbde517f2	-0.11186208
229	0x3ddf114e	0.108919725
230	0xbd8a29ca	-0.06746252
231	0x3dde052c	0.1084083
232	0xbca5a082	-0.020218138
233	0x3d821c1c	0.06353018
234	0x3d3dcf09	0.046340022
235	0xbdc0de4f	-0.09417402
236	0x3d80b762	0.062849775
237	0x3c7b65e3	0.015344116
238	0xbc6bb950	-0.014387444
239	0x3da0cd5c	0.07851669
240	0xbded3e2e	-0.115841255
241	0xbd1fb2e5	-0.038988966
242	0xbd230b90	-0.03980595
243	0xbd83b03e	-0.064301
244	0xbdd77833	-0.10520973
245	0x3d8e750c	0.06955919
246	0x3d8e22aa	0.069402054
247	0x3cb1dc59	0.021711515
248	0x3cfe202a	0.031021196
249	0x3de79ed8	0.11309594
250	0xbdd03020	-0.10165429
251	0xbd514461	-0.0510906
252	0xbdc70fc2	-0.097198024
253	0x3d5174a9	0.051136646
254	0xbd9b70b2	-0.07589854
255	0xbda00b6b	-0.07814678

grucell.weight_hh f4 [192, 64]
0	0xbd472549	-0.048619542
1	0xbbf8c97b	-0.0075923777
2	0x3df4b349	0.119482584
3	0x3dbb97fb	0.09159847
4	0x3d90cf2a	0.070707634
5	0x3cf886e4	0.030337758
6	0xbddd31fe	-0.10800551
7	0x3c1cf282	0.009579303
8	0x3d929b93	0.0715858
9	0xbdd8ffb4	-0.105956465
10	0xbddc79ce	-0.1076542
11	0xbd0546c9	-0.03253821
12	0xba4a0b3f	-0.0007707364
13	0xbc73e0d0	-0.014885142
14	0xbda94435	-0.082649626
15	0x3d821ad7	0.063527755
16	0x3d99619c	0.07489321
17	0x3ca5aa01	0.020222666
18	0xbd923395	-0.07138745
19	0x3dbe4eaa	0.09292348
20	0x3de40cf6	0.111352846
21	0xbdbecf79	-0.09316916
22	0xbd6389d3	-0.05555136
23	0x3d9c241a	0.07624073
24	0xbdf11ee5	-0.11773471
25	0x3d65da6a	0.0561165
26	0x3c7d3a5d	0.015455809
27	0xbc270897	-0.010194919
28	0xbcfb0fcd	-0.030647183
29	0x3c094d1e	0.008380203
30	0xbab68b0e	-0.001392694
31	0x3dc64889	0.09681804
32	0x3d90c816	0.07069413
33	0x3ce1b8a7	0.02755387
34	0xbd99aea4	-0.07504013
35	0x3dd8302d	0.10556064
36	0x3df7e94b	0.12105044
37	0x3a945010	0.0011315364
38	0x3d21562e	0.039388828
39	0x3c2a0e24	0.010379348
40	0xbdd80e36	-0.105495855
41	0xbd8292cc	-0.063756555
42	0xbdce1a54	-0.100636154
43	0x3d9e1894	0.07719532
44	0x3cc4709c	0.023979478
45	0x3dbd7560	0.09250903
46	0xbdc45daf	-0.09588181
47	0xbdf508ca	-0.11964567
48	0x3d30cd92	0.043164797
49	0x3dd34d01	0.10317422
50	0xbb520f71	-0.003205266
51	0xbbc6e052	-0.0060692215
52	0xbdf197ca	-0.117965296
53	0x3d3285eb	0.043584745
54	0xbd7ebab7	-0.062189784
55	0xbd7959d2	-0.060876675
56	0x3dbe1603	0.09281542
57	0xbd4e23de	-0.050327174
58	0xbdc1c6a5	-0.094617166
59	0xbd9398ed	-0.07206903
60	0x3d0ca82f	0.03434008
61	0x3cae9855	0.021312872
62	0x3da12e6c	0.078701824
63	0x3de59b9a	0.11211319
64	0x3cca30eb	0.024681529
65	0xbdd1f327	-0.10251456
66	0xbd1f0929	-0.038827095
67	0x3d824fa0	0.063628435
68	0x3df49911	0.119432576
69	0x3d73f6b4	0.059561446
70	0x3bd4141e	0.0064721247
71	0xbda840c7	-0.0821548
72	0xbb5bae59	-0.0033520667
73	0x3dc6c6c5	0.09705881
74	0xbd6277fc	-0.055290207
75	0xbc2aca3e	-0.010424195
76	0x3de50e9b	0.111844264
77	0x3e00c4fa	0.1257514
78	0x3d83927d	0.06424425
79	0xbdf9e6bf	-0.122022144
80	0xbd2ebe6d	-0.042662073
81	0xbe00526e	-0.12531444
82	0x3d9bc785	0.07606415
83	0xbd3f5b13	-0.046717715
84	0x3bdac29b	0.006676031
85	0xbc54a481	-0.012978674
86	0x3d262036	0.040558062
87	0xbbabb84b	-0.0052404753
88	0x3d8f28f2	0.069902316
89	0xbd8f8bd0	-0.07009089
90	0x3d5d8fda	0.054092266
91	0x3e01eb57	0.12687431
92	0x3dc08fbd	0.09402416
93	0xbdf5dee8	-0.120054066
94	0x3cf9f815	0.030513803
95	0xbd6921f7	-0.056917157
96	0xbd23cbdc	-0.039989337
97	0xbdc621b7	-0.09674399
98	0xbdc15309	-0.09439666
99	0xbdbdab87	-0.09261232
100	0xbdce8761	-0.10084415
101	0xbdb4f734	-0.08836213
102	0xbd68aa2a	-0.056802906
103	0xbd839960	-0.06425738
104	0xbd8815ed	-0.06644807
105	0x3e0026b8	0.1251477
106	0xbc603042	-0.013683381
107	0x3dd07562	0.10178639
108	0x3b59030b	0.0033113386
109	0xb7dbd82e	-2.6207501e-05
110	0x3da12a8c	0.07869443
111	0x3d8f3943	0.06993344
112	0x3d986921	0.07441927
113	0xbdcdc224	-0.10046795
114	0x3d4b13b5	0.04957934
115	0xbd172ba3	-0.03690685
116	0xbcddab97	-0.02705936
117	0x3daeab7a	0.085288
118	0x3d993f61	0.07482792
119	0x3d044987	0.032296684
120	0x3a565836	0.00081765966
121	0xbd1ddff7	-0.038543668
122	0xbdfdd78f	-0.1239463
123	0xbd3140d1	-0.043274704
124	0x3d9c25d1	0.076244004
125	0x3c18ce19	0.009326481
126	0x3cfaef2d	0.030631626
127	0x3cf336d9	0.02968924
128	0xbde9f01e	-0.11422752
129	0xbdd384b9	-0.10328049
130	0xbca9e10e	-0.020737197
131	0xbb69f08e	-0.003569636
132	0xbdf54e02	-0.119777694
133	0x3da294a3	0.079385065
134	0xbd97140e	-0.07376872
135	0x3cadd47e	0.021219488
136	0xbdfc70d6	-0.12326209
137	0xbd8e51d6	-0.06949203
138	0x3d8feca1	0.07027555
139	0xbd6f9ef7	-0.05850121
140	0x3d8347ce	0.0641018
141	0x3d36deb1	0.04464597
142	0x3d34e84c	0.044166848
143	0x3bb35f69	0.0054740203
144	0x3ce723b2	0.028215263
145	0x3cfa56ac	0.030558906
146	0xbd9de5d3	-0.07709851
147	0xbdf2eded	-0.11861787
148	0x3d30f731	0.04320449
149	0x3de67c01	0.112541206
150	0xbb77a3e7	-0.0037786902
151	0x3d5011e3	0.050798308
152	0x39232d92	0.00015561868
153	0x3dcebbd9	0.10094423
154	0xbdc1ba55	-0.09459368
155	0x3deec189	0.11658008
156	0x3d36bc93	0.044613432
157	0x3d34462e	0.04401224
158	0xbda4e8ab	-0.080521904
159	0x3dd5e55e	0.10444139
160	0x3d2286c9	0.039679322
161	0xbdc9f12f	-0.09860455
162	0xbd2c7417	-0.0421029
163	0xbceb1a44	-0.028699048
164	0x3dca50fa	0.09878726
165	0x3b07b335	0.002070618
166	0xbd9c4721	-0.07630754
167	0xbd72dedb	-0.059294563
168	0x3dc9697f	0.09834575
169	0x3da81081	0.08206273
170	0x3dc27a46	0.09495978
171	0xbc467b4f	-0.01211436
172	0x3d9f5329	0.077795334
173	0x3d96c8b4	0.073625
174	0x3dcc60ab	0.099793755
175	0x3de2a4a7	0.11066561
176	0x3ddb64a0	0.10712552
177	0x3d7f9e02	0.062406547
178	0x3d16aa63	0.036783587
179	0xbc652c0d	-0.013987553
180	0x3cf25d4e	0.029585507
181	0x3d826f56	0.06368892
182	0xbc927496	-0.017877858
183	0x3d8e2e92	0.06942476
184	0xbdc49fba	-0.09600778
185	0xbd996cab	-0.0749143
186	0xbd83bbf4	-0.064323336
187	0x3deb5cc2	0.114923015
188	0xbd9770ec	-0.07394585
189	0xbd4f716c	-0.050645277
190	0x3d04bdea	0.03240768
191	0x3de3bea5	0.11120347
192	0xbd538404	-0.05163957
193	0xbdb69af5	-0.089162745
194	0xbb8a5415	-0.004221449
195	0x3b58d573	0.003308621
196	0xbd33ca82	-0.0438943
197	0xbde5764c	-0.11204204
198	0x3ddb9ccb	0.10723265
199	0xbb6b521e	-0.00359071
200	0x3d1f6eb7	0.038923945
201	0x3da57622	0.08079173
202	0xbd187122	-0.037217267
203	0xbdd8f2c3	-0.10593178
204	0x3cf49a44	0.029858716
205	0xbd40c9ea	-0.04706756
206	0xbdb13b0f	-0.08653843
207	0x3df492f1	0.11942089
208	0x3b600e90	0.0034188367
209	0x3dd7f8a8	0.10545474
210	0x3d58f4cd	0.052967835
211	0x3de1db42	0.11028148
212	0xbc001300	-0.00781703
213	0xbdc61c87	-0.0967341
214	0xbd38675b	-0.045020442
215	0xbddf82a6	-0.10913591
216	0x3b1b294b	0.0023675736
217	0x3d794726	0.060858868
218	0xbba515b1	-0.005037986
219	0x3dafc51f	0.0858252
220	0x3d2e23cd	0.04251461
221	0x3cc92e90	0.024558336
222	0x3c88b1e9	0.016686397
223	0x3d6f3de3	0.05840863
224	0xbdffe458	-0.12494725
225	0xbd2f8cbc	-0.042858824
226	0xbdaf812f	-0.08569562
227	0xbd52c664	-0.05145873
228	0xbde418b1	-0.11137522
229	0xbc8c62b2	-0.017136905
230	0x3cd1b429	0.025598602
231	0xbc9e6fe8	-0.01934047
232	0xbb40ecc3	-0.0029437996
233	0xbdfd2248	-0.12360054
234	0xbddd3e3b	-0.10802885
235	0x3da40def	0.0801047
236	0xbc61d6e8	-0.013784148
237	0x3da54a01	0.08070756
238	0xbd35f43c	-0.044422373
239	0x3dca92a0	0.09891248
240	0x3d3c4cb0	0.045971572
241	0x3d4f82ae	0.050661735
242	0x3d5b9040	0.053604364
243	0xbdbd0edf	-0.09231352
244	0xbddef447	-0.10886436
245	0xbd02817a	-0.03186176
246	0xbcb96c91	-0.022634776
247	0xbdc99cd5	-0.098443665
248	0xbdc00ae5	-0.09377078
249	0xbc84afbf	-0.016197084
250	0xbc9dd5c3	-0.019266969
251	0x39095a6b	0.00013099021
252	0x3b855306	0.004068735
253	0x3ddedad3	0.10881581
254	0xbd63d26f	-0.055620607
255	0xbddf73a1	-0.10910726

grucell.bias_ih f4 [192]
0	0xbdc4db6b	-0.09612163
1	0x3da8a9d2	0.08235516
2	0x3e0c9e5c	0.13732284
3	0x3d58ba6a	0.052912153
4	0xbd3a4996	-0.045480333
5	0xbd5ea3a9	-0.054355297
6	0xbd32f75d	-0.043692935
7	0xbc1e3623	-0.009656462
8	0xbd875a5f	-0.06609034
9	0xbdcd6b70	-0.10030258
10	0x3c65b62e	0.014020486
11	0x3d6cf20c	0.05784802
12	0xbdf9ac76	-0.121910974
13	0xbc3c60d4	-0.011497695
14	0x3d5d1fcd	0.053985406
15	0xba1b48cc	-0.00059236283
16	0xbde2976b	-0.11064037
17	0x3d295241	0.04133821
18	0x399fb18c	0.00030459126
19	0xbd8b3309	-0.067968436
20	0xbd175168	-0.03694287
21	0xbd66f4e7	-0.0563859
22	0xbdedd7e2	-0.11613442
23	0xbdf4eb14	-0.119589
24	0x3daa9ac8	0.083303034
25	0xbd867c62	-0.06566693
26	0x3d458bf1	0.04822916
27	0x3ce40622	0.027834956
28	0xbd9d1b74	-0.07671252
29	0xbdc0da09	-0.09416587
30	0x3ddb2e09	0.1070214
31	0x3de34dfc	0.11098859
32	0xbd6d9244	-0.058000818
33	0xbcbbe4f4	-0.022936322
34	0xbd468940	-0.048470736
35	0x3cc6936d	0.02424022
36	0x3d89d28d	0.067296125
37	0xbd7c1275	-0.06154104
38	0x3c2cb692	0.010541575
39	0xbdd5d978	-0.104418695
40	0xbdaa5665	-0.0831726
41	0x3d6866db	0.056738716
42	0xbdd0dbbf	-0.10198163
43	0x3c9678e4	0.018368192
44	0x3df25870	0.11833274
45	0xbc90b0d5	-0.017662445
46	0x3dc59f3e	0.09649514
47	0xbdb9541f	-0.09049248
48	0xbd518501	-0.051152233
49	0x3de0c1fd	0.109745
50	0xbd144caa	-0.036205925
51	0x3d805229	0.06265671
52	0x3de1b47a	0.11020751
53	0x3c9c3083	0.019066101
54	0xbd7f44db	-0.062321525
55	0x3e146f1d	0.14495511
56	0xbdda3a67	-0.106556706
57	0x3bc51480	0.0060144067
58	0x3dea6022	0.11444117
59	0xbd3ce698	-0.04611835
60	0xbd2dfcbf	-0.042477366
61	0xbc25d8c4	-0.010122482
62	0xbd8e7636	-0.06956141
63	0x3dd07e16	0.10180299
64	0x3d8340c9	0.06408841
65	0xbd24357c	-0.04009007
66	0x3d8c35b5	0.06846181
67	0xbdc1ed41	-0.09469081
68	0xbd34cf82	-0.044143207
69	0x3e00659d	0.12538762
70	0xbdc318a5	-0.09526185
71	0x3deffd7b	0.117182694
72	0xbd3d7949	-0.046258245
73	0x3d8d5b90	0.0690223
74	0x3e0a48be	0.13504311
75	0x3e06d40d	0.13166828
76	0xbd9c06d2	-0.07618488
77	0x3de0fb25	0.10985402
78	0x3d0d36f0	0.03447622
79	0x3d124c6c	0.035717413
80	0xbcdcfe6b	-0.026976785
81	0x3da3b596	0.07993619
82	0x3e0bff39	0.13671578
83	0x3e01d52d	0.12678976
84	0x3d9b9164	0.075960904
85	0xbde27ef7	-0.11059373
86	0xbd85d618	-0.06534976
87	0x38f55462	0.00011698228
88	0xbdaa1346	-0.08304457
89	0xbbd89471	-0.0066094925
90	0xbc131bd5	-0.008978804
91	0xbd492b70	-0.04911369
92	0xbd9881fb	-0.07446667
93	0xbc831d7f	-0.016005276
94	0xbc1c8559	-0.009553277
95	0xbb42aca7	-0.002970496
96	0x3db8a271	0.09015358
97	0x3de19e16	0.110164806
98	0x3d4a151f	0.04933655
99	0xbd11d24e	-0.035600953
100	0x3e2b6909	0.16739286
101	0xbdc6b059	-0.097016044
102	0x3db41a58	0.08794087
103	0xbde64f48	-0.112455904
104	0x3d404280	0.04693842
105	0xbd601613	-0.05470855
106	0xbdd5857f	-0.10425853
107	0xbdddb488	-0.10825449
108	0x3d6e5aef	0.05819219
109	0xbc002626	-0.007821595
110	0x3e12bf02	0.14330676
111	0x3d99a557	0.07502239
112	0x3d1e2fb4	0.038619712
113	0x3dde8c62	0.1086662
114	0xbd323f04	-0.043517128
115	0x3cb99080	0.02265191
116	0x3dbf7064	0.09347609
117	0xbc8135e3	-0.015772766
118	0xbaac754d	-0.0013157517
119	0x3d4c8607	0.049932506
120	0x3d10c7c7	0.035346773
121	0x3cc7eaf0	0.02440402
122	0x3df05dba	0.11736627
123	0x3dddf25e	0.108372435
124	0x3e172126	0.14758739
125	0x3d91d3b6	0.07120459
126	0x3d2fc56c	0.042912886
127	0x3cad24db	0.021135738
128	0xbcb6c953	-0.022312796
129	0xbd63a9f3	-0.055581998
130	0x3d9259cd	0.071460344
131	0x3bd2c7dc	0.0064325165
132	0xbdba4fab	-0.09097227
133	0xbe1af403	-0.15132146
134	0xbc15daa7	-0.009146369
135	0x3d8a84cc	0.0676361
136	0xbd3ad10a	-0.04560951
137	0xbdcd15d6	-0.100139305
138	0xbdd1ef2d	-0.10250697
139	0x3d1ff5ac	0.03905265
140	0x3da088be	0.078385815
141	0x3c7aef92	0.015315907
142	0x3e3f6da6	0.18694171
143	0xbc8e75fd	-0.017390246
144	0x3c09840e	0.008393301
145	0x3c95bef1	0.018279525
146	0xbd1d59d1	-0.038415734
147	0x3d2371bc	0.039903387
148	0xbd39fbcf	-0.04540616
149	0x3c3b7d8b	0.011443506
150	0x3dd2b161	0.102877386
151	0x3cb9d7ba	0.022685874
152	0x3c3b14f5	0.011418571
153	0xbdebd1d7	-0.11514633
154	0xbd78395e	-0.060601585
155	0x3cad9488	0.02118899
156	0xbdce182e	-0.10063206
157	0x3ddaa556	0.106760666
158	0xbcea96cd	-0.02863636
159	0x3d3ab89f	0.045586225
160	0x3d9c1409	0.07621009
161	0x3b72a087	0.0037021951
162	0xbcdb6f7d	-0.02678656
163	0x3db88103	0.09008982
164	0x3d5a9912	0.053368635
165	0x3d25d7e2	0.040489085
166	0x3d96a27e	0.07355212
167	0xbd98aed6	-0.07455222
168	0x3cee900d	0.029121423
169	0xbc6489b5	-0.013948848
170	0x3be674b5	0.0070329555
171	0xbc807b2d	-0.015683735
172	0x3d2726c9	0.040808473
173	0xbd9bd0a6	-0.07608156
174	0x3dc7ec69	0.097618885
175	0xbc540096	-0.012939593
176	0x3dfb0648	0.122570574
177	0x3e1f66eb	0.15566604
178	0x3dd75091	0.10513414
179	0xbe002e43	-0.12517647
180	0x3bb76282	0.00559646
181	0x3d2908a2	0.041268
182	0xbda3195f	-0.079638235
183	0x3d240073	0.04003949
184	0xbdaec6fb	-0.08534046
185	0x3ce9de3c	0.028548352
186	0xbd8fc935	-0.07020799
187	0xbdaee53b	-0.08539816
188	0x3d74c162	0.059754737
189	0x3e075d35	0.1321915
190	0xbd8c04f4	-0.06836882
191	0xbd3f8bb4	-0.04676409

grucell.bias_hh f4 [192]
0	0xbcabe18b	-0.02098157
1	0xbd0ad7bc	-0.033897147
2	0xbd82e30b	-0.06390961
3	0x3c16913b	0.009189899
4	0x3d04cc5e	0.032421462
5	0x3c3344ca	0.010941694
6	0xbe0210bf	-0.127017
7	0x3da992de	0.08279966
8	0xbde498f3	-0.11161985
9	0xbca64731	-0.020297619
10	0x3db569cf	0.08858072
11	0x3c725bb1	0.014792369
12	0xbc9871ef	-0.018609015
13	0x3d0ff0f2	0.035141893
14	0x3d7e2935	0.062051017
15	0x3db0a4e9	0.08625204
16	0x3d5bb29b	0.05363713
17	0xbc75d2b9	-0.0150038535
18	0x3de7a426	0.11310606
19	0xbd8c683d	-0.068558194
20	0xbd05e123	-0.03268541
21	0xbd805370	-0.062659144
22	0x3d0cf666	0.03441467
23	0xbdaee1a2	-0.0853913
24	0x3dbefc68	0.093254864
25	0xbdb0eb22	-0.08638598
26	0xbd31e201	-0.043428425
27	0x3b93b289	0.004507367
28	0xbc1a1463	-0.009404275
29	0x3dcdff09	0.1005841
30	0xbd509506	-0.05092337
31	0xbde59a52	-0.11211075
32	0xbc4c18ed	-0.012457115
33	0x3dcfe22f	0.10150563
34	0x3d967489	0.07346446
35	0x3db6010e	0.0888692
36	0x3d99c62b	0.07508501
37	0xbdaf5f95	-0.08563153
38	0x3c372f2c	0.01118068
39	0x3d4084fc	0.047001824
40	0xbd8db5b0	-0.0691942
41	0x3df22879	0.11824126
42	0xbd4caeb0	-0.049971282
43	0x3d00e498	0.031468004
44	0x3d8cef28	0.06881553
45	0x3d6389ef	0.055551466
46	0xbc153634	-0.009107161
47	0x3d024565	0.03180446
48	0x3c1a7b3d	0.009428796
49	0x3cadf2ba	0.021233905
50	0xba152b7e	-0.000569038
51	0xbd1bdb26	-0.038050793
52	0x3d3fb595	0.04680403
53	0x3dece32d	0.11566768
54	0xbd8e80bb	-0.06958147
55	0x3cbbc599	0.02292137
56	0x3df57849	0.11985833
57	0xbdd09c39	-0.10186047
58	0xbd449f28	-0.048003346
59	0x3df480c7	0.11938625
60	0x3d4e3cab	0.050350826
61	0x3b8ee7df	0.0043611373
62	0x3e002fa6	0.12518176
63	0x3dccd9c8	0.10002476
64	0xbac32197	-0.001488733
65	0xbdd61743	-0.104536556
66	0x3d0d8830	0.034553707
67	0xbdbe9931	-0.09306563
68	0x3da50149	0.08056886
69	0xbd47bddb	-0.048765045
70	0xbd63be98	-0.055601686
71	0xbd984fd1	-0.07437099
72	0x3dbb2602	0.09138109
73	0x3dde8de2	0.10866906
74	0x3dd1a959	0.102373786
75	0xbc5aa24c	-0.013344359
76	0xbcb1f629	-0.021723824
77	0x3db9b186	0.09067063
78	0xbdbed1d3	-0.093173645
79	0xbcf9d6c5	-0.030497918
80	0xbcafb07b	-0.021446457
81	0x3dfe563a	0.1241879
82	0x3d67e485	0.056614418
83	0x3c33c705	0.010972743
84	0x3c55d823	0.013052019
85	0x3da0c49f	0.078500025
86	0xbd80f906	-0.062974975
87	0x3da32379	0.0796575
88	0xbc8303cd	-0.015993023
89	0xbde341a8	-0.11096507
90	0x3de61633	0.11234703
91	0x3e1af87b	0.1513385
92	0xbc7627b8	-0.015024118
93	0x3e065ce0	0.13121367
94	0xbd3371c0	-0.043809652
95	0x3d266805	0.040626545
96	0xbc87d21f	-0.016579686
97	0xbd55c550	-0.052190125
98	0xbd6a703f	-0.057235952
99	0x3cf7d908	0.030254856
100	0x3c705eaf	0.014671012
101	0xbcfe0cb1	-0.031011911
102	0xbccf94cd	-0.025339508
103	0x3df93ca8	0.121697724
104	0x3d3ed105	0.046586055
105	0x3e0683ac	0.13136166
106	0x3dbf72ed	0.09348092
107	0x3bb6a6a7	0.0055740657
108	0xbcb5ce35	-0.022193054
109	0x3ce84255	0.028351942
110	0xbcb7dec3	-0.022445088
111	0xbd4448ac	-0.047920868
112	0x3d73a170	0.05948013
113	0x3bc69f35	0.0060614594
114	0x3d120caa	0.03565661
115	0x3cefac37	0.029256923
116	0x3de8fbc9	0.11376149
117	0x3dd411a3	0.103549264
118	0xbcbe659e	-0.023241814
119	0x3d1e9959	0.038720462
120	0x3d5cb77f	0.053885933
121	0xbcf8f047	-0.03038801
122	0xbcd5d599	-0.026102828
123	0xbdcbc7c4	-0.09950212
124	0xbd73eb2d	-0.059550453
125	0x3d033102	0.03202916
126	0xbcad000c	-0.021118186
127	0x3d2a5469	0.041584406
128	0xbdaaed1f	-0.083460085
129	0x3dd0110c	0.101595014
130	0xbc82fc0b	-0.015989324
131	0xbcb62f83	-0.022239452
132	0x3da13d60	0.078730345
133	0x3a46bc0d	0.00075811223
134	0x3d562703	0.0522833
135	0x3d18e4ce	0.03732758
136	0xbde41d44	-0.111383945
137	0x3d94dbcb	0.07268485
138	0xbd47d3bb	-0.048785906
139	0x3d5ad56c	0.05342619
140	0x3e191c3a	0.14952174
141	0xbe112e12	-0.1417773
142	0xbd5c51db	-0.053789
143	0x3cb3c8e1	0.021946372
144	0x3d0170a9	0.03160158
145	0xbe04f2da	-0.12983266
146	0x3d9937b4	0.07481328
147	0xbdb405ce	-0.0879017
148	0xbe0ca2e9	-0.1373402
149	0x3e170dcf	0.14751361
150	0x3dd15630	0.10221517
151	0x3dda5aa2	0.10661818
152	0x3d8ee45f	0.06977152
153	0x3d90e59c	0.070750445
154	0xbdcbbf98	-0.09948653
155	0xbd26558e	-0.040608935
156	0x3d1020b4	0.035187438
157	0xbb401527	-0.0029309483
158	0xbd5b356f	-0.053517755
159	0xbda10252	-0.07861771
160	0xbdc41a0c	-0.095752805
161	0x3dfb7a70	0.122792125
162	0xbe0b74cd	-0.13618775
163	0xbd700642	-0.058599718
164	0x3ca68b00	0.020329952
165	0xbceda1ac	-0.029007755
166	0xbdf96903	-0.121782325
167	0xbdcfc3a6	-0.10144739
168	0xbc8236c0	-0.015895247
169	0x3dd6fd64	0.10497549
170	0xbdd3302e	-0.10311924
171	0xbe3eee7d	-0.18645664
172	0xbcd00f0c	-0.0253978
173	0x3ddbb6d1	0.10728229
174	0xbc92c464	-0.017915912
175	0xbdfa08d2	-0.122087136
176	0xbd566f66	-0.05235233
177	0x3d2ae2a3	0.041720044
178	0x3b7063ba	0.0036680535
179	0x3de361c1	0.111026295
180	0x3c9188c7	0.017765416
181	0xbd8ecbf8	-0.06972498
182	0x3c8581cb	0.016297242
183	0xbe0154b8	-0.12629974
184	0x3e0cb40f	0.13740562
185	0x3dff8e91	0.12478364
186	0x3db01858	0.08598393
187	0xbcfb33ee	-0.03066441
188	0xbb7286b3	-0.0037006557
189	0xbc1c2f3d	-0.009532747
190	0x3c3910f6	0.011295548
191	0x3b2ecc0a	0.002667191

linear.weight f4 [2, 64]
0	0xbcccee22	-0.025015894
1	0x3d95f9ee	0.07323061
2	0xbd17bf4d	-0.037047673
3	0x3d342cb2	0.043987937
4	0x3d4a032f	0.049319442
5	0x3dac1ff6	0.084045336
6	0x3d9bfef2	0.07616986
7	0xbd50689a	-0.050881006
8	0xbbb3edf5	-0.005491013
9	0xbd817202	-0.063205734
10	0x3dba9883	0.091111206
11	0xbc3c99c4	-0.01151127
12	0x3d85c4b3	0.06531658
13	0x3d88eee6	0.06686191
14	0x3d727c6f	0.0592007
15	0x3d423d34	0.04742165
16	0xbda9f850	-0.08299315
17	0xbdd09373	-0.10184374
18	0xbdec4034	-0.11535683
19	0x3de81939	0.11332936
20	0xbaa56b1d	-0.0012620423
21	0x3de68c44	0.11257222
22	0x3da373c3	0.07981064
23	0xbc7afb71	-0.015318737
24	0xbdd22cac	-0.10262427
25	0xbd275c34	-0.040859416
26	0xbabdbca0	-0.001447577
27	0x3d999530	0.074991584
28	0xbdcc4361	-0.09973789
29	0xbcb63dc8	-0.022246256
30	0x3db954a1	0.09049345
31	0xbd18e2ad	-0.03732555
32	0x3ddcdd22	0.10784365
33	0xbdf3d1b3	-0.11905231
34	0x3def9d38	0.11699909
35	0xbcc8992f	-0.024487106
36	0xbcaaa687	-0.02083136
37	0xbd6c6522	-0.057713635
38	0xbb3f7682	-0.0029214923
39	0xbc8fcf90	-0.017555028
40	0xbd8529ef	-0.06502139
41	0xbd9228c2	-0.0713668
42	0x3dc837d0	0.097762704
43	0xbdb4f8cc	-0.08836517
44	0x3b97a13b	0.0046273745
45	0xbced0e9f	-0.028937636
46	0x3c3db21c	0.011578109
47	0xbdb49bf9	-0.08818812
48	0x3dc8276d	0.09773145
49	0xbdeba351	-0.115057595
50	0xbca5659d	-0.020190055
51	0x3d493b26	0.049128674
52	0xbd39f79b	-0.04540215
53	0x3c825034	0.015907384
54	0x3dfac071	0.122437365
55	0xbdf8f76a	-0.121565655
56	0xbdf69f31	-0.12042082
57	0x3d4f02f9	0.050539944
58	0xbd8b508c	-0.068024725
59	0xbdade4cb	-0.084909044
60	0x3d86c94d	0.06581364
61	0xbd958b0b	-0.07301911
62	0x3d5d2c9e	0.05399763
63	0xbdc47362	-0.0959232
64	0xbdaa8780	-0.08326626
65	0xbb8d909d	-0.0043202178
66	0xbdf2ed4d	-0.11861668
67	0x3b7204f1	0.0036929215
68	0xbde07179	-0.10959143
69	0xbcd1bf17	-0.025603814
70	0xbdcb98a0	-0.0994122
71	0xbcbd6b86	-0.02312256
72	0x3b24e621	0.0025161582
73	0x3c0a4ee9	0.008441665
74	0x3d8655e7	0.06559353
75	0xbdc62e5f	-0.09676813
76	0x3d0abc66	0.033871077
77	0x3d7a174a	0.061057366
78	0x3c896e1b	0.016776135
79	0x3d3c503e	0.045974962
80	0xbcf3d467	-0.029764367
81	0x3d4602ba	0.048342444
82	0x3c9fcbf6	0.019506436
83	0x3caed917	0.02134375
84	0xbd9414cc	-0.07230529
85	0x3d6e2487	0.058140304
86	0xbd27594e	-0.040856652
87	0x3d88a04f	0.066712014
88	0x3aff2c12	0.001946809
89	0xbc9eb92a	-0.019375402
90	0x3d515b92	0.05111272
91	0xbb46a8e6	-0.0030313074
92	0x3dc1f30a	0.09470184
93	0x3d643a8b	0.055719893
94	0xbd559abf	-0.05214953
95	0xbd1fe19c	-0.039033517
96	0x3dc586c9	0.09644849
97	0xbd248226	-0.04016318
98	0x3df82597	0.12116545
99	0x3d9b96d7	0.0759713
100	0xbd4c8e33	-0.0499403
101	0xbdc45c12	-0.095878735
102	0xbc5ccd5a	-0.013476694
103	0x3dc3c608	0.09559256
104	0xbdf730ea	-0.120698765
105	0x3d4ff798	0.050773233
106	0xbd8c35d2	-0.06846203
107	0x3e011937	0.12607275
108	0x3d1b8126	0.037964962
109	0xbd8206af	-0.06348931
110	0x3d5c6cd3	0.05381472
111	0x3da72534	0.08161393
112	0xbb283895	-0.002566849
113	0xbdd295eb	-0.10282501
114	0xbd8b6166	-0.06805687
115	0xbcfca03f	-0.03083813
116	0xbd02fb9f	-0.031978246
117	0x3df17699	0.11790199
118	0x3c9bddfc	0.019026749
119	0xbd394068	-0.04522744
120	0x3ca61239	0.020272361
121	0x3cee6f20	0.029105723
122	0x3d43c804	0.04779817
123	0x3d982c5a	0.074303344
124	0xbdae0c0e	-0.08498393
125	0x3b01bd76	0.0019796765
126	0x3cdf21c1	0.027237775
127	0xbcabf198	-0.020989224

linear.bias f4 [2]
0	0xbdd2f727	-0.10301047
1	0x3b1b1632	0.0023664352

linear_final.weight f4 [5, 64]
0	0x3d3ab2f7	0.04558083
1	0x3d348591	0.04407269
2	0x3cbdb405	0.023157129
3	0x3d216b9e	0.039409272
4	0xbd771cce	-0.060330205
5	0x3b8fb104	0.0043851156
6	0xbd86ba6f	-0.06578528
7	0x3d9df451	0.07712615
8	0x3e0ec48e	0.13942167
9	0xbd524f0c	-0.051344916
10	0xbdb52687	-0.08845239
11	0x3d4f5792	0.050620623
12	0xbdca0cec	-0.09865746
13	0xbd7d9e0f	-0.061918315
14	0x3c4febed	0.012690526
15	0xbdaf1f87	-0.08550935
16	0xbd77bc2a	-0.06048218
17	0xbcaa3954	-0.02077929
18	0xbc58aeea	-0.0132252965
19	0xbd8180ff	-0.06323432
20	0x3e0019d6	0.12509856
21	0xb9b1c65a	-0.00033907854
22	0xbdda2186	-0.10650925
23	0xbd42aa2f	-0.04752558
24	0x3dbe2968	0.09285241
25	0x3d010418	0.031498045
26	0xbcfc574c	-0.030803345
27	0x3d28a6f6	0.04117485
28	0xbd05df82	-0.032683857
29	0x3ddbecda	0.10738535
30	0xbdb79fd9	-0.089660354
31	0x3b4bf126	0.0031119077
32	0xbd8cf043	-0.06881764
33	0x3d9f1a96	0.07768743
34	0xbdac52e2	-0.08414246
35	0x3c999941	0.018749835
36	0x3e726fd0	0.23675466
37	0xbc8bb173	-0.017052388
38	0xbdf5bd82	-0.11999036
39	0x3c9f502c	0.019447409
40	0xbd593f46	-0.053038858
41	0x3db29dc1	0.087214954
42	0xbc94d31e	-0.018167075
43	0xbd1659db	-0.036706787
44	0xbdc25995	-0.09489743
45	0xbd904e3e	-0.070461735
46	0x3dc46e0c	0.09591302
47	0xbd8ea213	-0.06964507
48	0xbdb52279	-0.08844466
49	0xbc821b85	-0.015882263
50	0xbdfe0be9	-0.124046154
51	0xbd99f919	-0.07518215
52	0xbd52185c	-0.051292762
53	0xbc9025fe	-0.017596241
54	0xbba462ff	-0.005016684
55	0x3deb4cd9	0.11489267
56	0x3d327a74	0.04357381
57	0x3cf083b4	0.029359676
58	0x3a9c8910	0.0011942703
59	0xbba979b9	-0.005171981
60	0x3e3d2af0	0.1847341
61	0xbd606137	-0.05478021
62	0xbc653bc0	-0.013991296
63	0xbd1f838f	-0.038943823
64	0x3d3f6261	0.04672468
65	0xbc04db18	-0.008108877
66	0xbc63bb53	-0.013899642
67	0xbb55911c	-0.0032587713
68	0xbc758936	-0.014986327
69	0xbca6c9b2	-0.020359848
70	0x3ce4acfd	0.027914518
71	0xbcf941de	-0.030426916
72	0x3d1d8234	0.03845425
73	0xbcdd34be	-0.027002688
74	0x3d2472ca	0.040148534
75	0x3ad23d3b	0.0016039977
76	0x3a691300	0.0008891076
77	0x3cce34eb	0.025171718
78	0xbd88f9d7	-0.06688278
79	0xbca3e05c	-0.020004444
80	0xbac2e2e3	-0.0014868643
81	0xba04d0ee	-0.00050665333
82	0x3b3fed9f	0.002928592
83	0x3d2b7e27	0.041868355
84	0xbcb1c78a	-0.021701593
85	0x3ca10ab9	0.019658433
86	0xbbc11913	-0.0058928817
87	0xbd8f78cb	-0.07005461
88	0xbce5d0dd	-0.028053695
89	0x3b1f35c4	0.0024293521
90	0x3cbd3e85	0.0231011
91	0x3b98dcc1	0.004664988
92	0x3c55c5f6	0.013047686
93	0xbd5b7de0	-0.05358684
94	0x3bc2cca8	0.005944807
95	0xbcb604e7	-0.022219134
96	0xbbc3e926	-0.005978721
97	0x3ab4dc64	0.0013798592
98	0xbc6be8ff	-0.014398812
99	0xbca569b6	-0.020192008
100	0xbd878ff6	-0.06619255
101	0x3c00ee3f	0.007869302
102	0xbb4b7e41	-0.0031050595
103	0x3d328d1e	0.04359161
104	0xbcd1e71f	-0.025622902
105	0xbd232542	-0.039830454
106	0xbcf40ddb	-0.029791763
107	0x3c8572c6	0.01629008
108	0x3c6825b5	0.014169146
109	0x3d4ec89e	0.050484292
110	0xbd4f5ff5	-0.05062862
111	0xbcb04581	-0.021517517
112	0x3c5daf2c	0.013530534
113	0xbd1a2131	-0.03762931
114	0x3ce63073	0.028099274
115	0x39e424a1	0.0004351484
116	0x3c7c6f9e	0.015407471
117	0x3d0fbc42	0.035091646
118	0x3d0ee63b	0.034887534
119	0x3cf9f70d	0.03051331
120	0xbd148c7e	-0.036266796
121	0xbc17cf48	-0.009265728
122	0xbd084721	-0.03327096
123	0xbcb4d2cd	-0.022073174
124	0xbcd2e1ff	-0.025742529
125	0xbc2ab924	-0.0104201175
126	0x3cbf5d0d	0.0233598
127	0x3cf0ecd1	0.029409798
128	0x3ceffdfe	0.029295918
129	0x3b168a0a	0.0022970461
130	0xbca3aafb	-0.01997899
131	0xbdba5da8	-0.09099895
132	0x3dd73586	0.10508256
133	0x3df17983	0.11790755
134	0xbc62f534	-0.013852406
135	0xbe2ccd36	-0.16875157
136	0x3e8041ea	0.25050288
137	0x3d6e7f74	0.058227018
138	0x3e19ac72	0.15007189
139	0x3c87d689	0.01658179
140	0xbdfc9c08	-0.12334448
141	0x3d1e4e9e	0.038649194
142	0xbdf61b1e	-0.12016891
143	0x3e37e251	0.17957427
144	0x3c19a2c3	0.009377184
145	0xbd1e615a	-0.03866706
146	0xbe1372dc	-0.14399284
147	0xbd0f42c4	-0.034975782
148	0x3df2f66e	0.11863409
149	0xbd1bffa3	-0.03808559
150	0xbe5ac5bf	-0.21364497
151	0xbe08c935	-0.13358004
152	0xbd97b258	-0.07407063
153	0x3e21c208	0.15796673
154	0x3d7e6236	0.06210538
155	0xbc4b3200	-0.012402058
156	0xbce17949	-0.027523654
157	0xbdf11662	-0.11771847
158	0x3de5121e	0.11185096
159	0xbd9400c0	-0.072267056
160	0xbd97c163	-0.074099325
161	0xbe3404e6	-0.17579994
162	0x3de5cdb0	0.112208724
163	0x3b0281dc	0.0019913828
164	0xba2a7fb2	-0.00065040134
165	0xbd41193b	-0.047143202
166	0xbdef3c7b	-0.116814576
167	0x3c547454	0.012967188
168	0xbda13dce	-0.078731164
169	0xbdd35bd2	-0.10320248
170	0x3d50e66c	0.051000997
171	0x3e33211c	0.17493099
172	0x3de869e5	0.11348323
173	0xbdc200ab	-0.09472784
174	0xbd94ca2c	-0.07265124
175	0xbc09b738	-0.008405499
176	0xbd8b5e77	-0.06805127
177	0xbe4c9872	-0.19980028
178	0xbe3d0320	-0.18458223
179	0x3c263a11	0.01014568
180	0x3d18c322	0.03729547
181	0xbb10c439	-0.0022089614
182	0x3e032806	0.12808236
183	0x3cc4205f	0.023941217
184	0xbdb1b40b	-0.086769186
185	0xbe29c66c	-0.16579598
186	0x3d3be329	0.045870934
187	0x3d5d9afd	0.054102886
188	0xbdcd8bfe	-0.10036467
189	0xbdfa60c1	-0.122254856
190	0x3e3e0651	0.18557097
191	0x3d39d6ad	0.045370746
192	0x3dc427fb	0.09577938
193	0x3d996435	0.07489816
194	0xbd8e15c4	-0.06937745
195	0x3cee1100	0.02906084
196	0x3e51b3f2	0.204788
197	0x3e9bacb7	0.30405208
198	0xbd8e87d9	-0.06959505
199	0xbe107cb8	-0.14110076
200	0x3e2ca405	0.16859443
201	0x3caaaabb	0.020833364
202	0x3e1d65b0	0.15370822
203	0xbe10832d	-0.1411254
204	0xbe9b2c0e	-0.3030705
205	0x3ded57c4	0.115890056
206	0xbe7de124	-0.24792916
207	0xbc420c23	-0.011843714
208	0xbda58b6e	-0.08083235
209	0x3d947f3f	0.07250833
210	0xbc9359b4	-0.01798711
211	0x3cc14f94	0.023597516
212	0x3dbdf17e	0.092745766
213	0xbe05d756	-0.13070425
214	0xbe8f05f6	-0.27934235
215	0xbe1271e1	-0.14301254
216	0xbe05ac0c	-0.13053912
217	0x3e05053c	0.12990278
218	0x3e81086c	0.25201738
219	0xbe1d442c	-0.15358037
220	0x3e20d7c5	0.1570731
221	0xbe8e4179	-0.27784327
222	0x3e0a34b7	0.13496672
223	0xbcc742f8	-0.024323925
224	0xbd428380	-0.04748869
225	0xbe5b9cb8	-0.21446502
226	0x3e621d95	0.22081597
227	0xbd082923	-0.033242356
228	0xbe1416e8	-0.14461863
229	0xbd57cde2	-0.05268658
230	0x3dbcaf77	0.09213155
231	0x3e81c2a2	0.25343806
232	0xbd7b4d81	-0.06135321
233	0xbd975dd1	-0.07390941
234	0x3e3f3313	0.18671827
235	0x3e1f99de	0.1558604
236	0x3e15bd5e	0.14623019
237	0x3e0f4240	0.13990116
238	0xbe6f1fc0	-0.23351955
239	0x3dcb6da6	0.09933023
240	0xbe70190e	-0.23447058
241	0xbe967e20	-0.293931
242	0xbe3b3de5	-0.1828533
243	0x3dc428b8	0.09578079
244	0xbc64ec13	-0.0139723
245	0x3d613675	0.054983575
246	0x3de9c94a	0.11415346
247	0x3e294996	0.16531977
248	0x3d6ace3b	0.057325583
249	0xbe0cfada	-0.13767567
250	0x3cd8f46a	0.026483733
251	0x3e3068e3	0.17227511
252	0xbc5b9d84	-0.013404254
253	0xbe7642f9	-0.24048986
254	0x3df08491	0.11744035
255	0x3dd581c0	0.104251385

linear_final.bias f4 [5]
0	0xbd893c4e	-0.06700955
1	0x3da1e523	0.079050325
2	0xbf5a3141	-0.85231405
3	0xbfa09b9e	-1.2547491
4	0xbdcb0379	-0.09912772
