results2_checkpoint/hotel/ade_best.pth (torch_old, 55823 bytes, 10 tensors)

gcn.gc1.weight f4 [2, 2]
-0.006151842 -0.071830615 -0.053585123 0.004581863
00000000: 6495 c9bb ee1b 93bd 137c 5bbd 7423 963b

gcn.gc1.bias f4 [2]
-0.0705865 0.059870303
00000000: a88f 90bd 903a 753d

grucell.weight_ih f4 [192, 2]
-0.109451726 0.04514938 -0.039481554 -0.10720272 -0.05833499 -0.09946209 0.114478976 0.025561921
-0.026218064 -0.016598387 -0.028676987 -0.033797473 -0.07381812 0.05351406 -0.03356936 0.04787646
-0.10729082 -0.034625456 -0.0904761 0.10356885 -0.0105294725 -0.0955476 -0.07924224 -0.027227152
-0.07818 -0.029012693 0.06496505 0.008163893 -0.030917993 -0.07201147 -0.07918724 0.11484546
-0.045356102 -0.0040689157 -0.0958454 -0.10345078 -0.03676434 0.06676878 -0.07591649 -0.037951235
0.03999284 0.024178311 0.052994724 0.096722215 -0.06808318 -0.10284938 0.037063867 -0.042724863
-0.002246042 0.047150183 0.006475251 -0.040126346 0.02646171 0.1224951 0.07095059 0.09146035
-0.008480362 0.10754897 0.11990606 0.0057476712 -0.026897479 -0.10921483 0.03254127 -0.019492622
-0.013689633 -0.044409376 0.11692069 -0.062133316 -0.03911439 -0.104068555 0.1037894 -0.024162505
-0.05281771 0.025869362 -0.042663515 -0.05253628 0.00042914916 0.04160954 0.05860649 0.11106879
0.047623776 0.037147842 0.11553537 0.080914386 0.10434738 0.014654563 -0.05489353 -0.014015364
0.031592146 0.09884739 0.0072056237 -0.02472856 -0.10350188 -0.030359073 -0.0683597 0.100971386
-0.11899433 -0.103780255 0.091207504 -0.029871983 0.053475372 0.015110719 -0.072002485 -0.07582306
0.066564694 0.03981132 0.12428772 0.116528824 -0.07774518 0.075704046 -0.0125185205 -0.06174546
-0.07558694 -0.08409713 -0.068484336 -0.03580883 -0.081694774 0.11828657 0.009972284 -0.09169296
-0.056305487 0.025527293 0.12333003 -0.050626833 -0.10630412 0.0075514764 0.03249881 0.11342145
-0.003340358 -0.0002983552 -0.004657956 -0.017730346 0.05157076 -0.11701045 -0.013797726 -0.10199442
-0.040537294 0.083375275 -0.07227412 0.082437165 0.0859153 -0.029739944 -0.081704244 0.07659932
0.054098077 0.05027316 -0.07210125 0.09733338 -0.012637778 -0.119604215 0.11874267 0.108576134
0.0030414124 -0.063061036 -0.041073132 0.04086741 -0.03392018 0.100204356 -0.08246303 -0.12183494
-0.012564647 0.06711235 -0.01150094 -0.09058641 -0.014992401 -0.12152724 0.03554871 -0.0032058372
0.07802769 -0.115918405 0.013172733 0.067329325 0.053149827 0.0044720625 -0.075497776 -0.0054205186
-0.006084551 0.0025759179 0.06784677 0.113873966 -0.101699606 0.020427924 0.0030897455 0.0071243877
0.036586724 0.11339415 0.0511884 -0.020565512 -0.054069825 0.076158755 0.052916244 0.09394016
-0.0715142 -0.060966533 0.074172966 0.031456318 -0.0044911397 -0.07513101 -0.007711986 -0.08016755
-0.05113644 -0.1148599 -0.0010204229 0.03340285 -0.033841584 -0.018630482 -0.04413697 0.03524925
-0.05498981 -0.075686604 -0.11126005 0.053911738 -0.043247912 0.064801954 0.04415285 0.089111865
-0.08944991 -0.08032709 -0.02616332 0.05380748 -0.11169962 -0.06611976 0.040706493 0.029110553
0.093860604 0.058883328 -0.08709025 -0.009459993 -0.07048685 0.019957298 0.05809861 0.12481761
0.12021054 0.036358938 -0.021625597 -0.1035055 -0.07840048 0.084800474 0.09886019 0.06946754
-0.018334534 0.08077087 -0.07080713 -0.029631594 0.033687096 0.047085147 0.0007856516 0.115353964
0.096392035 0.0845099 0.01557421 0.08484596 -0.07640303 -0.03753789 -0.040122204 -0.09890384
00000000: 3a28 e0bd 8eee 383d 69b7 21bd 1a8d dbbd
00000010: acf0 6ebd c8b2 cbbd f473 ea3d 3c67 d13c
00000020: 44c7 d6bc 57f9 87bc 00ec eabc 386f 0abd
00000030: f42d 97bd 8f31 5b3d 0680 09bd 1b1a 443d
00000040: 4abb dbbd 6cd3 0dbd 894b b9bd e81b d43d
00000050: cf83 2cbc 76ae c3bd c149 a2bd 7a0b dfbc
00000060: d61c a0bd 07ac edbc 650c 853d d9c1 053c
00000070: bb47 fdbc c07a 93bd eb2c a2bd 1934 eb3d
00000080: 52c7 39bd 8a54 85bb 984a c4bd 01de d3bd
00000090: 3496 16bd 12be 883d 1b7a 9bbd c172 1bbd
000000a0: 88cf 233d 9811 c63c ff10 593d 4c16 c63d
000000b0: 326f 8bbd b2a2 d2bd 48d0 173d 4400 2fbd
000000c0: 5532 13bb 8d20 413d 582e d43b 865b 24bd
000000d0: 3ac6 d83c b6de fa3d 8b4e 913d 904f bb3d
000000e0: 37f1 0abc a242 dc3d 4f91 f53d f656 bc3b
000000f0: 1a58 dcbc 06ac dfbd ff49 053d feae 9fbc
00000100: 7c4a 60bc 9be6 35bd 1d74 ef3d 817f 7ebd
00000110: 6936 20bd e521 d5bd 898f d43d 72f0 c5bc
00000120: 6257 58bd fceb d33c f0bf 2ebd 4830 57bd
00000130: 6dff e039 c46e 2a3d 5c0d 703d 0978 e33d
00000140: 2611 433d 5628 183d cf9d ec3d 71b6 a53d
00000150: 14b4 d53d b119 703c 0ad8 60bd b3a0 65bc
00000160: c466 013d 8070 ca3d 271d ec3b 8d93 cabc
00000170: cbf8 d3bd 97b3 f8bc 2c00 8cbd 16ca ce3d
00000180: 4db3 f3bd be8a d4bd 00cb ba3d 17b6 f4bc
00000190: fe08 5b3d f392 773c 0a76 93bd 1f49 9bbd
000001a0: 1253 883d 3211 233d 8f8a fe3d aaa6 ee3d
000001b0: dd38 9fbd b90a 9b3d 7b1a 4dbc cfe8 7cbd
000001c0: 53cd 9abd 1e3b acbd 8441 8cbd 48ac 12bd
000001d0: 974f a7bd 3b40 f23d ca62 233c 85c9 bbbd
000001e0: 95a0 66bd 9d1e d13c 7494 fc3d 155e 4fbd
000001f0: f9b5 d9bd 6072 f73b 791d 053d 8149 e83d
00000200: e8e9 5abb 8f6c 9cb9 c4a1 98bb 3b3f 91bc
00000210: dc3b 533d 2da3 efbd db0f 62bc 73e2 d0bd
00000220: 6f0a 26bd a8c0 aa3d 7404 94bd d1d4 a83d
00000230: 5cf4 af3d 2fa1 f3bc 8e54 a7bd 1be0 9c3d
00000240: f295 5d3d 3beb 4d3d d2a9 93bd b956 c73d
00000250: af0e 4fbc 0ef3 f4bd 5b2f f33d 2a5d de3d
00000260: 6f52 473b 2526 81bd 4d3c 28bd 9664 273d
00000270: e3ef 0abd f137 cd3d 61e2 a8bd 9984 f9bd
00000280: f3db 4dbc 3372 893d 706e 3cbc 5e85 b9bd
00000290: b0a2 75bc 46e3 f8bd 869b 113d 0619 52bb
000002a0: fbcc 9f3d a166 edbd 72d2 573c f5e3 893d
000002b0: a2b3 593d 618a 923b 949e 9abd 9b9e b1bb
000002c0: ea60 c7bb bbd0 283b 3ff3 8a3d c136 e93d
000002d0: e247 d0bd 7658 a73c 547d 4a3b b273 e93b
000002e0: f6db 153d 313b e83d edaa 513d 0179 a8bc
000002f0: 5278 5dbd 1ff9 9b3d b4be 583d b363 c03d
00000300: 0976 92bd 0bb8 79bd ffe7 973d 57d8 003d
00000310: 692a 93bb 49de 99bd d4b4 fcbb e22e a4bd
00000320: 7274 51bd ab3b ebbd b6bf 85ba 6dd1 083d
00000330: 799d 0abd f49e 98bc f8c8 34bd 8461 103d
00000340: ff3c 61bd 9401 9bbd 4fdc e3bd 8ed2 5c3d
00000350: b924 31bd e3b6 843d 9ed9 343d 4880 b63d
00000360: 8431 b7bd 8882 a4bd 7554 d6bc 3b65 5c3d
00000370: c5c2 e4bd cc69 87bd dabb 263d 4179 ee3c
00000380: fd39 c03d a52f 713d 5f5c b2bd 16fe 1abc
00000390: 695b 90bd 7d7d a33c cff8 6d3d 60a0 ff3d
000003a0: f230 f63d 1ced 143d 2a28 b1bc b1fa d3bd
000003b0: 6e90 a0bd dfab ad3d 3677 ca3d ff44 8e3d
000003c0: 4e32 96bc 336b a53d 5403 91bd f5bd f2bc
000003d0: 7bfb 093d 5bdc 403d 30f4 4d3a b33e ec3d
000003e0: 3069 c53d 8713 ad3d f92a 7f3c b8c3 ad3d
000003f0: 3179 9cbd 55c1 19bd 2e57 24bd 198e cabd

grucell.weight_hh f4 [192, 64]
-0.023444867 -0.0009802922 -0.042121608 0.036094952 0.06690865 0.02428569 -0.026111387 -0.03184684
-0.0032062873 0.047512323 -0.04018314 0.100117475 0.120622836 0.023919545 0.0030353442 -0.118022285
0.0738456 -0.09203575 -0.009050339 -0.08562386 -0.11443542 0.039995648 -0.091050535 0.0021595107
0.07909856 -0.06829127 -0.0749181 -0.105316356 -0.023800153 0.09354733 -0.022780975 -0.07330132
-0.038409725 -0.0075460733 -0.08419749 -0.024607783 0.0091423225 0.05981741 0.09601902 0.069610134
0.004315885 0.043102313 0.09281333 -0.070200756 -0.0353286 0.009469495 0.045031965 0.11928405
0.023027219 0.056695953 -0.04358018 -0.07130919 0.025250673 0.10441475 -0.029703494 -0.06914944
-0.027494326 -0.0493402 0.09131743 -0.022287635 -0.041312877 0.04335462 -0.032375526 0.07492641
0.013476158 0.10962478 -0.055395976 0.04461157 -0.09502785 -0.03130334 0.049427874 0.09776
-0.0326685 0.10237918 0.06309415 -0.028438743 0.045844886 0.040037572 0.105444014 0.0028168734
-0.026244242 0.008801851 -0.020978142 -0.096243925 0.10236849 -0.07368057 -0.037127987 -0.07138313
-0.0715632 0.026610304 -0.07300464 0.074181445 0.010192103 -0.028007368 -0.062741295 0.03006322
-0.085262336 0.091340825 0.09360256 -0.0990283 0.09763467 -0.08726462 0.06693666 -0.04323473
-0.07420555 0.031643365 -0.007722973 -0.12027558 0.12240752 0.05050515 -0.092694186 0.09985798
-0.0615765 -0.006353805 0.01889294 -0.025500411 0.06726176 0.014892425 0.010127108 0.047427166
-0.028737923 -0.045294393 0.057742584 -0.008395994 0.040867656 0.004240217 -0.06814176 -0.10030538
-0.0010026869 -0.08926409 -0.10415182 -0.05853755 -0.088643394 0.11228103 0.038009755 0.016628016
-0.09911515 -0.06848494 0.0426032 -0.061013896 0.023434218 -0.12257596 0.03220787 0.048463814
-0.07925799 0.046438552 0.090021476 -0.028780986 -0.07566349 0.047927238 -0.05377964 -0.028499637
0.08221378 0.123220965 0.09181793 0.02560176 -0.07556275 0.0030009558 0.071660645 0.01322907
0.040392645 -0.014022874 0.019177683 0.005021655 -0.01933194 -0.054509673 -0.10177812 -0.012854991
-0.009470369 -0.069455154 -0.03401444 0.10195378 -0.050436318 0.05480449 0.11296904 0.043391347
0.020527126 0.10007041 -0.10090172 -0.070349306 0.02005391 0.064888716 0.008334554 0.049841132
0.049746644 -0.03451232 -0.066922076 -0.05161003 -0.09509843 -0.049542297 0.09724821 0.061263014
-0.090536125 0.091202185 -0.08114904 0.1113494 -0.03876188 -0.06840892 -0.06367351 0.08212749
0.120565444 0.043092113 -0.0491872 0.024761623 0.044117544 0.058714572 0.010808219 -0.066031314
0.03276261 -0.11659747 -0.07254906 -0.001316671 -0.109611206 -0.006217079 0.11506065 -0.053154394
-0.05857501 -0.11630186 0.077898495 -0.0951046 -0.007134775 0.004553655 -0.091565594 0.083856165
0.11585594 -0.050027397 0.07547857 -0.008330191 -0.01618107 0.12007718 0.11108649 0.11861943
-0.121143974 0.10674986 0.12208722 -0.08220397 -0.098376155 0.08964827 -0.02798347 0.050176624
-0.11753125 0.11094821 -0.061804567 -0.06482289 -0.039547533 -0.066351525 -0.0042729415 -0.068130665
-0.070454195 0.07879331 -0.014858401 -0.1210936 0.010274218 0.040487252 0.09301146 0.1230423
00000000: 730f c0bc 267d 80ba b587 2cbd 4dd8 133d
00000010: 6707 893d c9f2 c63c 8ce7 d5bc d571 02bd
00000020: 9320 52bb 489c 423d 1497 24bd 640a cd3d
00000030: 1b09 f73d ecf2 c33c a0ec 463b abb5 f1bd
00000040: 5d3c 973d 3d7d bcbd e047 14bc 905b afbd
00000050: 1e5d eabd 7ad2 233d b478 babd 9486 0d3b
00000060: 6dfe a13d 4bdc 8bbd a96e 99bd 1ab0 d7bd
00000070: 8af8 c2bc be95 bf3d 2b9f babc 011f 96bd
00000080: 8453 1dbd 0d45 f7bb bc6f acbd 4396 c9bc
00000090: aec9 153c 1a03 753d 9fa5 c43d c28f 8e3d
000000a0: 446c 8d3b 0d8c 303d ea14 be3d 6ac5 8fbd
000000b0: b9b4 10bd f125 1b3c 7073 383d 324b f43d
000000c0: 94a3 bc3c 043a 683d 2181 32bd 8d0a 92bd
000000d0: 80da ce3c 67d7 d53d be54 f3bc 399e 8dbd
000000e0: c83b e1bc f318 4abd a204 bb3d 8f94 b6bc
000000f0: b137 29bd 9d94 313d 339c 04bd 0573 993d
00000100: 1acb 5c3c f582 e03d e4e6 62bd 9fba 363d
00000110: f69d c2bd ee37 00bd e274 4a3d 6536 c83d
00000120: 68cf 05bd 2dac d13d 8137 813d 5ef8 e8bc
00000130: d9c7 3b3d 70fe 233d 08f3 d73d 4b9b 383b
00000140: 2afe d6bc a435 103c 5ada abbc 891b c5bd
00000150: 92a6 d13d d7e5 96bd 8413 18bd 5231 92bd
00000160: ba8f 92bd dafd d93c 7583 95bd 71ec 973d
00000170: c7fc 263c b56f e5bc 827e 80bd 2447 f63c
00000180: 059e aebd e610 bb3d b3b2 bf3d 59cf cabd
00000190: b0f4 c73d cbb7 b2bd 1616 893d e616 31bd
000001a0: 14f9 97bd 799c 013d fe10 fdbb 0b53 f6bd
000001b0: cbb0 fa3d 7dde 4e3d 73d6 bdbd 5782 cc3d
000001c0: a437 7cbd 9433 d0bb 5ec5 9a3c 3de6 d0bc
000001d0: 89c0 893d 5cff 733c 2bec 253c fd42 423d
000001e0: cb6b ebbc 9d86 39bd 7d83 6c3d 5a8f 09bc
000001f0: d864 273d 85f1 8a3b e88d 8bbd e86c cdbd
00000200: 976c 83ba 17d0 b6bd 8d4d d5bd 12c5 6fbd
00000210: ab8a b5bd 99f3 e53d 1eb0 1b3d 7a37 883c
00000220: e2fc cabd d541 8cbd b180 2e3d b5e9 79bd
00000230: 1ef9 bf3c 1b09 fbbd 66ec 033d fe81 463d
00000240: 0352 a2bd 5a36 3e3d 2e5d b83d 1ac6 ebbc
00000250: 76f5 9abd 5a4f 443d 0a48 5cbd 1278 e9bc
00000260: b35f a83d 465b fc3d 0a0b bc3d c8ba d13c
00000270: a5c0 9abd afab 443b d1c2 923d bebe 583c
00000280: c272 253d 32c0 65bc 841a 9d3c b28c a43b
00000290: 045e 9ebc 8945 5fbd 0c71 d0bd bd9d 52bc
000002a0: 9b29 1bbc 813e 8ebd ba52 0bbd 25cd d03d
000002b0: 5096 4ebd ac7a 603d 505c e73d 20bb 313d
000002c0: 8128 a83c b7f1 cc3d 90a5 cebd 4c13 90bd
000002d0: 1948 a43c 60e4 843d a78d 083c 3726 4c3d
000002e0: 23c3 4b3d ca5c 0dbd 710e 89bd 0a65 53bd
000002f0: f7c2 c2bd ddec 4abd 122a c73d edee 7a3d
00000300: 016b b9bd 36c8 ba3d 7831 a6bd 270b e43d
00000310: c7c4 1ebd fa19 8cbd 4267 82bd 7532 a83d
00000320: 04eb f63d 5b81 303d 8478 49bd e3d8 ca3c
00000330: 99b4 343d b17e 703d f514 313c 6d3b 87bd
00000340: 1632 063d a8ca eebd 9a94 94bd 2694 acba
00000350: d77b e0bd a3b8 cbbb eba4 eb3d 6cb8 59bd
00000360: 5aec 6fbd ab2f eebd 3f89 9f3d 33c6 c2bd
00000370: d5ca e9bb d436 953b be86 bbbd c8bc ab3d
00000380: e145 ed3d 87e9 4cbd 8294 9a3d 5a7b 08bc
00000390: 2a8e 84bc 06eb f53d 5081 e33d beee f23d
000003a0: 551a f8bd ac9f da3d dd08 fa3d 8e5a a8bd
000003b0: 7079 c9bd 8399 b73d 973d e5bc 0186 4d3d
000003c0: 39b4 f0bd d138 e33d c926 7dbd ddc1 84bd
000003d0: 98fc 21bd 4fe3 87bd 0804 8cbb 1788 8bbd
000003e0: 4a4a 90bd 635e a13d a770 73bc ecff f7bd
000003f0: 3255 283c f6d5 253d cb7c be3d 9afd fb3d

grucell.bias_ih f4 [192]
-0.114675105 0.10083663 -0.122932136 0.04542936 0.016402101 -0.04019509 0.11314837 0.05089056
-0.122832865 -0.041763533 0.03271763 0.0019818943 -0.060983274 -0.092702806 -0.061851777 0.11968598
0.091817215 0.060215205 0.12072387 -0.044883806 0.09015202 0.095709436 -0.099664815 0.02863608
0.11319504 0.02921119 -0.11447455 0.037671972 -0.1090719 -0.022188757 0.07899901 -0.0969861
-0.045416765 0.05224826 -0.039890695 -0.08465989 0.092597425 -0.028919416 -0.012438919 -0.03464476
0.09185632 -0.069658235 0.11326736 -0.088264234 0.06515473 0.0776836 0.06006415 -0.0361932
-0.04529676 -0.058959506 -0.025906716 -0.07726542 -0.04245282 -0.08253401 0.07528578 -0.06430495
-0.010433005 0.068461515 0.0069354936 0.066974565 0.082426764 0.09315761 -0.054446105 -0.034264818
0.016646491 0.08235493 0.0049077584 -0.10763721 0.08819308 0.044286042 -0.013527117 -0.08611247
-0.111391336 0.11695567 0.123444505 -0.10070088 0.05560462 0.06979761 -0.066256486 0.046486285
-0.0068546333 0.08884073 0.12228439 0.06785323 -0.017476723 -0.06918623 0.019640185 0.005400322
0.012950709 0.07112774 -0.07758846 0.057409197 0.006705046 -0.09971164 -0.094399735 -0.11573659
-0.11812813 -0.037815813 0.05332965 0.055250295 -0.08803559 0.041486375 -0.020305283 0.047615662
0.10675966 -0.08366756 -0.10289983 0.019514507 0.028590988 -0.0027692756 -0.11287282 0.11894321
-0.022929892 0.09253548 -0.06186816 -0.092036225 -0.03358275 0.016827049 0.08689007 -0.11680914
0.056817137 0.03719927 0.020696336 0.09001028 0.012648731 -0.011694792 -0.0025139968 0.08299983
-0.06039411 0.022288682 0.06061476 0.22504295 -0.048022415 -0.03342415 0.13668868 0.018576317
-0.08922028 -0.14333384 -0.09192794 -0.09090615 0.12287369 -0.17364062 -0.021298409 0.08818863
-0.035327908 -0.022712026 0.053179387 0.02367438 0.113507114 0.04013537 0.030922083 -0.1267573
-0.12643471 -0.25166708 0.14779702 0.051363956 0.06380731 -0.0027011165 0.0701583 0.11567139
-0.067504734 -0.08746364 -0.08485748 0.15433533 0.14089102 -0.013134607 0.04129636 0.019167973
0.020432636 0.13875031 0.06159485 -0.13184865 0.040801663 0.18936637 0.035489835 0.011649277
0.11659432 0.0159093 -0.1847829 0.107775785 -0.04338807 -0.008222624 -0.07313931 0.048431467
-0.009193635 0.02028093 0.07063553 -0.23002985 -0.074225225 -0.02537362 0.15488826 -0.18187174
00000000: c8da eabd 6f83 ce3d d8c3 fbbd 2314 3a3d
00000010: b35d 863c 9ba3 24bd 55ba e73d 9f72 503d
00000020: cc8f fbbd 3d10 2bbd ec02 063d abe2 013b
00000030: 99c9 79bd f8da bdbd 4a58 7dbd ec1d f53d
00000040: aa0a bc3d 38a4 763d 143e f73d 15d8 37bd
00000050: 9fa1 b83d 4f03 c43d 111d ccbd 3696 ea3c
00000060: cdd2 e73d 4e4c ef3c a271 eabd ed4d 1a3d
00000070: 1761 dfbd 32c5 b5bc 3cca a13d a6a0 c6bd
00000080: ee06 3abd 4502 563d 6d64 23bd 2a62 adbd
00000090: b8a3 bd3d 69e8 ecbc 9ccc 4bbc aae7 0dbd
000000a0: 2b1f bc3d faa8 8ebd b8f8 e73d e1c3 b4bd
000000b0: d86f 853d 9418 9f3d d305 763d 523f 14bd
000000c0: 1889 39bd 867f 71bd 523a d4bc 553d 9ebd
000000d0: 02e3 2dbd 9707 a9bd 6e2f 9a3d 50b2 83bd
000000e0: 32ef 2abc 8d35 8c3d 2343 e33b f629 893d
000000f0: 5dcf a83d 6bc9 be3d e102 5fbd 4459 0cbd
00000100: 395e 883c b4a9 a83d 43d1 a03b e670 dcbd
00000110: 939e b43d 4865 353d d7a0 5dbc bc5b b0bd
00000120: 2421 e4bd 7486 ef3d 79d0 fc3d 433c cebd
00000130: acc1 633d 0df2 8e3d 7bb1 87bd 6768 3e3d
00000140: d59c e0bb 21f2 b53d 3d70 fa3d a2f6 8a3d
00000150: 582b 8fbc 83b1 8dbd 74e4 a03c 2ff5 b03b
00000160: 362f 543c 6cab 913d b3e6 9ebd e825 6b3d
00000170: 01b6 db3b 9e35 ccbd a654 c1bd 4e07 edbd
00000180: 29ed f1bd c1e4 1abd 3170 5a3d 224e 623d
00000190: 014c b4bd 9eed 293d 4457 a6bc a408 433d
000001a0: cfa4 da3d e659 abbd 25bd d2bd e3dc 9f3c
000001b0: a637 ea3c bc7c 35bb dd29 e7bd 7f98 f33d
000001c0: 78d7 bbbc 3e83 bd3d 7869 7dbd 7d7d bcbd
000001d0: 118e 09bd e1d8 893c 6cf3 b13d a139 efbd
000001e0: 16b9 683d 435e 183d 5d8b a93c 4f57 b83d
000001f0: 9f3c 4f3c 839b 3fbc dec1 24bb d1fb a93d
00000200: d05f 77bd c196 b63c 2f47 783d a971 663e
00000210: 27b3 44bd c3e7 08bd 1ef8 0b3e 5c2d 983c
00000220: 1fb9 b6bd 1bc6 12be b744 bcbd 012d babd
00000230: 34a5 fb3d d9ce 31be 007a aebc 3e9c b43d
00000240: ffb3 10bd 920e babc a1d2 593d c6f0 c13c
00000250: 6b76 e83d fc64 243d 4f50 fd3c aacc 01be
00000260: 1a78 01be 82da 80be 1a58 173e 0363 523d
00000270: 68ad 823d 3705 31bb 28af 8f3d 1fe5 ec3d
00000280: ec3f 8abd 2320 b3bd c2c9 adbd 150a 1e3e
00000290: bc45 103e 8932 57bc 5f26 293d 2706 9d3c
000002a0: 5862 a73c 9014 0e3e e24a 7c3d 5503 07be
000002b0: a51f 273d 42e9 413e ca5d 113d 9cdc 3e3c
000002c0: 01c9 ee3d 3854 823c bb37 3dbe 8db9 dc3d
000002d0: b0b7 31bd 2fb8 06bc 10ca 95bd 1360 463d
000002e0: e6a0 16bc 3124 a63c 5ca9 903d f28c 6bbe
000002f0: 6503 98bd 57dc cfbc 079b 1e3e 963c 3abe

grucell.bias_hh f4 [192]
0.07044235 0.08345226 -0.12036662 -0.10194682 0.092332795 0.06631993 0.05399329 -0.08990905
0.022683885 0.07871295 0.10430658 -0.09794405 -0.036427606 0.09463003 -0.09159427 -0.043019857
0.08442226 -0.02403617 -0.08879359 0.088698074 -0.0029385132 -0.03017178 0.044149682 0.07177954
-0.101190396 -0.11224996 0.029412119 -0.041225236 -0.058568317 0.05725491 -0.097029835 0.12291995
-0.07448229 0.11787924 -0.080267146 0.11258268 0.010414876 -0.123885654 0.12640893 0.11741886
-0.00061917154 0.12022735 -0.09768309 -0.021523701 0.08509906 0.09387149 0.048461866 -0.068954274
0.049395785 -0.017240241 0.083741896 0.098767035 -0.06818757 0.053830966 -0.023202622 0.0656155
-0.07749515 0.0483052 -0.057791714 -0.05650584 -0.07032735 -0.08795368 0.121702746 -0.0450314
-0.07928336 0.031900316 -0.056935847 0.06295781 0.10931968 0.08912722 0.1008702 0.008877984
0.10129912 0.029577907 0.09620101 0.115755506 0.056014925 -0.045221396 -0.025349554 -0.069615856
0.0061845235 0.10998183 0.027823921 -0.075971514 0.04046733 -0.11562205 0.028200679 -0.10570666
-0.06476239 -0.009439642 -0.07606808 -0.032412767 0.09547351 0.036285903 0.034653336 -0.024878561
0.078961916 0.057717454 -0.11197787 -0.074151106 -0.09768816 -0.12328697 0.04859377 -0.009524451
-0.034665182 0.005618634 0.032737747 0.036416303 -0.06924164 -0.072852656 0.11326412 -0.009077588
-0.11265682 -0.111721575 0.11676153 0.016304195 -0.09726797 -0.0517552 0.07646155 -0.054391805
-0.106702715 0.07509776 0.11245675 -0.062335204 0.08212733 0.116610564 -0.10675132 0.10301643
0.08217082 0.015311211 0.04427108 0.080776684 -0.07206775 -0.073515825 0.13971367 0.13781253
-0.017621553 0.037999496 -0.17566857 -0.029509764 -0.06441904 -0.12247774 -0.100084566 0.11395746
0.079795465 -0.040448196 -0.06421232 -0.06864951 -0.005280375 -0.12614036 0.13971037 0.09840401
-0.02622974 -0.012942594 -0.04925347 -0.028315911 0.07371602 0.024084957 -0.076663256 0.061962813
0.095614165 0.03395427 0.06836113 0.118044294 -0.024774767 -0.021414768 0.14782308 -0.15713562
0.020734087 0.013140328 -0.029997721 -0.055761613 -0.02782117 0.17059131 -0.04335871 0.018477887
0.0027650364 -0.024732465 -0.089650474 -0.053458855 0.004557941 -0.11745746 -0.18293753 0.14046402
-0.10791498 -0.067819744 0.028139167 -0.17279425 0.10725403 0.10546796 -0.07318394 -0.022253588
00000000: 1444 903d 05e9 aa3d c682 f6bd 7fc9 d0bd
00000010: fa18 bd3d bed2 873d 1128 5d3d 3c22 b8bd
00000020: 8ed3 b93c 4134 a13d b09e d53d e496 c8bd
00000030: 1d35 15bd 64cd c13d c795 bbbd 9735 30bd
00000040: 94e5 ac3d 81e7 c4bc 6ad9 b5bd 56a7 b53d
00000050: 1294 40bb cf2a f7bc 4cd6 343d 2701 933d
00000060: e93c cfbd 4fe3 e5bd aff1 f03c cbdb 28bd
00000070: 55e5 6fbd 2084 6a3d 94b7 c6bd 74bd fb3d
00000080: 2c8a 98bd ac6a f13d 1a63 a4bd c091 e63d
00000090: 28a3 2a3c c3b7 fdbd 5871 013e 4d79 f03d
000000a0: e64f 22ba c239 f63d 120e c8bd 7952 b0bc
000000b0: 6a48 ae3d b23f c03d f37f 463d e637 8dbd
000000c0: 3c53 4a3d 683b 8dbc df80 ab3d 5f46 ca3d
000000d0: eda5 8bbd dc7d 5c3d 6d13 bebc 6b61 863d
000000e0: c7b5 9ebd acdb 453d 01b7 6cbd ab72 67bd
000000f0: c907 90bd 0f21 b4bd 4a3f f93d d872 38bd
00000100: 505f a2bd e8a9 023d 9035 69bd 06f0 803d
00000110: ffe2 df3d 5588 b63d 0995 ce3d f774 113c
00000120: ea75 cf3d 5e4d f23c 0905 c53d 3911 ed3d
00000130: e86f 653d 123a 39bd dea9 cfbc c292 8ebd
00000140: 8ba7 ca3b 273e e13d feee e33c f496 9bbd
00000150: 12c1 253d 41cb ecbd 1c05 e73c bc7c d8bd
00000160: 25a2 84bd baa8 1abc 95c9 9bbd 40c3 04bd
00000170: 9e87 c33d 87a0 143d a8f0 0d3d 20ce cbbc
00000180: c9b6 a13d 2369 6c3d a754 e5bd 89dc 97bd
00000190: bb10 c8bd e17d fcbd 430a 473d 710c 1cbc
000001a0: 14fd 0dbd 851c b83b 0418 063d 4329 153d
000001b0: 90ce 8dbd c633 95bd 05f7 e73d 2aba 14bc
000001c0: 9eb8 e6bd 48ce e4bd ab20 ef3d 6090 853c
000001d0: 6e34 c7bd 43fd 53bd e097 9c3d f1c9 5ebd
000001e0: f486 dabd dbcc 993d b94f e63d 3353 7fbd
000001f0: 6032 a83d 85d1 ee3d 70a0 dabd 47fa d23d
00000200: 2d49 a83d e0db 7a3c 9855 353d 3f6e a53d
00000210: 4298 93bd 778f 96bd 1a11 0f3e ba1e 0d3e
00000220: 135b 90bc 5ca5 1b3d 76e2 33be 76be f1bc
00000230: 21ee 83bd 9cd5 fabd 23f9 ccbd 8762 e93d
00000240: ce6b a33d 02ad 25bd c081 83bd 1d98 8cbd
00000250: ff06 adbb f02a 01be 3c10 0f3e 0b88 c93d
00000260: c0df d6bc 2c0d 54bc 02be 49bd c5f6 e7bc
00000270: 6df8 963d d14d c53c a001 9dbd b8cc 7d3d
00000280: 5cd1 c33d a213 0b3d ec00 8c3d 35c1 f13d
00000290: 74f4 cabc 066e afbc ef5e 173e 29e8 20be
000002a0: 88da a93c 884a 573c c8bd f5bc 4a66 64bd
000002b0: 39e9 e3bc 7daf 2e3e e798 31bd f05e 973c
000002c0: 9d35 353b bd9b cabc ab9a b7bd acf7 5abd
000002d0: c85a 953b 898d f0bd fa53 3bbe cdd5 0f3e
000002e0: 8702 ddbd 14e5 8abd 1c84 e63c faf0 30be
000002f0: 00a8 db3d 96ff d73d 76e1 95bd 284d b6bc

linear.weight f4 [2, 64]
-0.061626587 0.107516885 0.085519314 -0.048321728 -0.057034068 -0.029825782 -0.020854898 0.101678245
-0.1045833 0.057928074 -0.06863859 0.039192785 0.015442517 -0.07288065 0.024818419 -0.050577305
-0.09784122 -0.10740178 -0.062022086 -0.080361545 0.100503705 0.04848884 -0.062287766 0.06484407
-0.0020251216 0.042966932 0.014777968 -0.091391 -0.10352235 0.0059828265 -0.023398321 -0.07257537
-0.113190524 0.08901796 -0.083113395 -0.11464696 -0.1053134 0.11951509 -0.10631065 0.06857588
0.0063930876 -0.049891423 -0.0022554891 -0.08515183 -0.01033297 0.018888827 -0.0056802807 0.00012838592
0.030540876 0.10017152 0.01657291 0.091467105 0.05952839 -0.101839334 0.060943063 -0.124765255
0.06504056 0.046062455 -0.016700713 -0.08641191 -0.058492787 -0.07757361 -0.06610304 0.08844432
0.024935119 -0.07174603 0.0991289 -0.019589689 -0.043052528 0.04358056 -0.09284025 0.02591372
0.073933706 0.11862419 0.017634064 0.0434103 0.036323257 0.0071263756 0.08446374 0.11985821
-0.12812544 -0.07205298 -0.008576679 0.03938288 -0.09048746 0.08088538 -0.060786746 0.025834376
0.0014473574 0.078258425 -0.12266497 -0.11807353 0.08605272 0.10013298 -0.124261744 -0.033850685
0.049456656 -0.115393974 -0.014406638 0.11753688 -0.1137573 -0.0078045353 0.08384466 0.07787407
0.03234885 0.07966576 -0.051894903 -0.07131636 -0.040087566 0.06075494 -0.0057421904 -0.084279805
0.11950351 -0.083298594 0.05931917 -0.11187845 -0.042594384 -0.049838316 0.12207379 -0.012125699
0.09405561 0.11934352 0.1032461 0.024742825 0.10848111 -0.04322516 0.045817498 0.06391401
00000000: 296c 7cbd d031 dc3d c024 af3d 01ed 45bd
00000010: 8e9c 69bd 3355 f4bc e4d7 aabc af3c d03d
00000020: c52f d6bd fd45 6d3d 6492 8cbd 9d88 203d
00000030: 9c02 7d3c 7342 95bd ff4f cb3c 262a 4fbd
00000040: fa60 c8bd 77f5 dbbd df0a 7ebd 9894 a4bd
00000050: e3d4 cd3d 3c9c 463d 7521 7fbd f8cc 843d
00000060: e7b7 04bb 18fe 2f3d 4a1f 723c 342b bbbd
00000070: 8703 d4bd 960b c43b d6ad bfbc 65a2 94bd
00000080: 6fd0 e7bd 0c4f b63d 5b37 aabd 06cc eabd
00000090: 8dae d7bd 54c4 f43d 66b9 d9bd 8371 8c3d
000000a0: 1b7d d13b f35a 4cbd d4d0 13bb 1564 aebd
000000b0: 9e4b 29bc bebc 9a3c a621 babb 559f 0639
000000c0: dc30 fa3c ba26 cd3d e9c3 873c 1b53 bb3d
000000d0: 0bd4 733d 2491 d0bd 6f9f 793d ed84 ffbd
000000e0: fc33 853d fcab 3c3d efcf 88bc baf8 b0bd
000000f0: 2296 6fbd eade 9ebd 0861 87bd 4c22 b53d
00000100: bc44 cc3c 95ef 92bd 1804 cb3d 8e7a a0bc
00000110: d957 30bd 8781 323d 0723 bebd 0249 d43c
00000120: 8e6a 973d 3df1 f23d 5075 903c 00cf 313d
00000130: b2c7 143d 5f84 e93b 53fb ac3d 3978 f53d
00000140: 5133 03be 8390 93bd 3385 0cbc f14f 213d
00000150: 7d51 b9bd 3ca7 a53d 86fb 78bd 9da2 d33c
00000160: 41b5 bd3a f445 a03d c637 fbbd 89d0 f1bd
00000170: 693c b03d 8512 cd3d f17c febd 04a7 0abd
00000180: 1093 4a3d ad53 ecbd d209 6cbc 2db7 f03d
00000190: 96f9 e8bd 30bd ffbb c0b6 ab3d 717c 9f3d
000001a0: 3a80 043d cd27 a33d c08f 54bd 500e 92bd
000001b0: dc32 24bd 2cda 783d fc28 bcbb e49a acbd
000001c0: 42be f43d 7498 aabd a8f8 723d 8720 e5bd
000001d0: 7377 2ebd 4323 4cbd d301 fa3d deaa 46bc
000001e0: 3aa0 c03d 606a f43d b172 d33d 77b1 ca3c
000001f0: 582b de3d de0c 31bd 21ab 3b3d 59e5 823d

linear.bias f4 [2]
-0.09905253 0.084840596
00000000: 0edc cabd e8c0 ad3d

linear_final.weight f4 [5, 64]
0.097736545 -0.029444553 -0.07571834 -0.09113517 0.08412748 -0.114409864 -0.07104946 -0.0397829
-0.05881306 -0.09609824 0.038650867 -0.036293503 0.06226124 -0.056132194 -0.07633213 -0.115175255
-0.09215149 0.072336614 0.0810163 0.10989353 0.0960865 0.123182975 0.11786888 -0.10195194
-0.015633995 0.01285816 0.035113275 0.05092216 0.103748515 0.023117188 0.005605158 -0.053555828
-0.0478032 -0.012346818 0.02256321 0.004062675 -0.09336906 -0.037052743 -0.072047144 0.0151512055
-0.105602846 -0.104882024 -0.09038339 -0.015183848 -0.04256757 0.06117428 -0.04526141 -0.05352501
0.051920995 0.012137897 -0.08846433 -0.004026398 -0.063232005 0.11426785 -0.103938915 -0.08022821
0.03578294 -0.05967823 0.05782871 -0.0011233191 -0.07858784 0.09813419 -0.03390148 -0.093036
-0.08652215 0.03275373 -0.07615118 0.03515968 -0.022035021 -0.020140102 0.022530822 0.026707225
-0.03742439 0.029857207 0.011932174 -0.03387527 0.06857232 0.10191541 -0.06332273 -0.03285743
0.040750086 -0.014638581 -0.016786959 0.031122074 0.0621481 -0.055817 0.052995894 0.057441726
0.07237777 0.034040537 -0.023897761 0.061087422 0.002235416 -0.028342493 -0.0625412 0.06337633
0.08143753 -0.029484976 0.05847851 0.05781236 -0.009224406 0.0952334 -0.10489602 -0.06048808
-0.05483091 0.0021701404 -0.08143186 -0.0018588715 0.08362125 0.013598915 0.028540362 0.051634967
-0.006173386 0.051617768 0.041166674 0.026008073 0.0922721 0.08797913 0.102419905 0.05093226
0.0053379177 0.004170136 0.053074606 0.046662256 -0.013964363 0.07651445 0.03660036 -0.03626639
0.07417233 0.027933279 0.000308409 -0.23920406 0.13637982 -0.023898255 -0.11287079 -0.07103324
-0.02159992 0.029689582 0.15989949 0.14256462 -0.06307357 0.16357395 0.15027179 -0.0912289
-0.042742837 -0.01889215 0.021956006 0.08386428 -0.037205197 0.07298422 -0.08355062 0.10251358
0.095391445 0.2142979 -0.123761 -0.09259609 0.015001849 0.11766383 -0.10616001 -0.15248536
0.08550765 -0.059304383 0.0680822 -0.048062023 -0.13271247 -0.026215281 -0.047895163 0.04712836
0.08579158 0.04351856 0.005259403 0.0971549 -0.007247264 -0.19034578 0.08061773 -0.10308416
0.06662214 0.09350704 0.14591268 0.06690326 -0.02946166 0.10124886 0.1368916 -0.12716174
0.06270655 -0.06608879 0.027920563 0.16804686 -0.08342819 0.038849868 -0.058350634 0.13885935
0.058946673 -0.10369122 -0.108275734 -0.32164013 0.03649372 0.02725226 -0.15096676 -0.13580719
0.1687649 0.1719149 0.1995358 0.1953427 -0.022635378 0.20219418 -0.00059260713 -0.16419253
-0.090958156 0.07410103 0.10207826 0.07763006 -0.14081751 0.015472764 -0.20650934 0.1334268
0.090034276 0.3200523 -0.15139079 0.043384064 -0.104617186 -0.06395364 -0.02682059 -0.196485
0.028919008 0.113457225 0.07681273 -0.16487384 -0.06469323 -0.030654816 -0.1852031 0.111629784
-0.0040986193 -0.26357025 -0.023367682 0.13468467 0.0921441 -0.24296069 0.03950264 0.0054460075
-0.20851819 0.07255332 0.20039897 -0.1017862 0.016602231 0.06894779 0.18958351 -0.19682652
0.1349767 0.07705926 -0.18205065 0.27368277 0.030513037 -0.095943436 -0.19315173 0.18534048
00000000: 192a c83d b435 f1bc 3812 9bbd 13a5 babd
00000010: 074b ac3d b84f eabd 6182 91bd 65f3 22bd
00000020: f7e5 70bd 27cf c4bd 5f50 1e3d 7fa8 14bd
00000030: a405 7f3d dfea 65bd 0554 9cbd 01e1 ebbd
00000040: ecb9 bcbd 3825 943d e0eb a53d dc0f e13d
00000050: 00c9 c43d 5b47 fc3d 3d65 f13d 2ecc d0bd
00000060: dd12 80bc 08ab 523c f0d2 0f3d c193 503d
00000070: 1a7a d43d 4260 bd3c 79ab b73b 5b5d 5bbd
00000080: 4acd 43bd 4f4a 4abc 7bd6 b83c 3020 853b
00000090: 4738 bfbd 9ec4 17bd 748d 93bd c33c 783c
000000a0: 4e46 d8bd 63cc d6bd ed1a b9bd adc5 78bc
000000b0: 555b 2ebd e291 7a3d 0764 39bd 0a3d 5bbd
000000c0: 1cab 543d 08de 463c c92c b5bd e0ef 83bb
000000d0: c87f 81bd 4305 ea3d eddd d4bd b04e a4bd
000000e0: 2291 123d 2971 74bd ccdd 6c3d 563c 93ba
000000f0: a9f2 a0bd 94fa c83d 47dc 0abd a989 bebd
00000100: 8632 b1bd c628 063d 26f5 9bbd 9903 103d
00000110: ca82 b4bc dbfc a4bc 8f92 b83c 1cc9 da3c
00000120: 514a 19bd 1a97 f43c 2a7f 433c ccc0 0abd
00000130: a56f 8c3d 07b9 d03d 59af 81bd 8395 06bd
00000140: 90e9 263d a9d6 6fbc ce84 89bc b8f3 fe3c
00000150: 028f 7e3d 5ea0 64bd 3912 593d 0448 6b3d
00000160: cc3a 943d 176e 0b3d 3dc5 c3bc ce36 7a3d
00000170: 0f80 123b 842e e8bc 9a15 80bd 73cb 813d
00000180: b8c8 a63d 7a8a f1bc 2987 6f3d a7cc 6c3d
00000190: f721 17bc bb09 c33d b9d3 d6bd 59c2 77bd
000001a0: 6096 60bd ea38 0e3b bfc5 a6bd 61a5 f3ba
000001b0: 9e41 ab3d fccd 5e3c 7acd e93c 307f 533d
000001c0: 1d4a cabb 276d 533d 639e 283d e20e d53c
000001d0: 28f9 bc3d 672e b43d 87c1 d13d 589e 503d
000001e0: b3e9 ae3b a3a5 883b c264 593d ec20 3f3d
000001f0: c9ca 64bc 9cb3 9c3d 42ea 153d 118c 14bd
00000200: aae7 973d 55d4 e43c f5b1 a139 e9f1 74be
00000210: 27a7 0b3e 46c6 c3bc cd28 e7bd e079 91bd
00000220: 51f2 b0bc 9137 f33c b1bc 233e 76fc 113e
00000230: b72c 81bd ee7f 273e d9e0 193e 38d6 babd
00000240: 1d13 2fbd b6c3 9abc 15dd b33c 09c1 ab3d
00000250: 7a64 18bd c078 953d 961c abbd a4f2 d13d
00000260: 975c c33d e970 5b3e 6876 fdbd 05a3 bdbd
00000270: 51ca 753c bcf9 f03d 6b6a d9bd 1f25 1cbe
00000280: a31e af3d 27e9 72bd ae6e 8b3d afdc 44bd
00000290: c7e5 07be 6ec1 d6bc b82d 44bd ab09 413d
000002a0: 7fb3 af3d 8440 323d 1257 ac3b 26f9 c63d
000002b0: 757a edbb 01ea 42be e91a a53d ca1d d3bd
000002c0: 3071 883d 9e80 bf3d 226a 153e 9404 893d
000002d0: 9459 f1bc 905b cf3d 502d 0c3e b036 02be
000002e0: 4b6c 803d 8f59 87bd aab9 e43c 7a14 2c3e
000002f0: 66dc aabd 0a21 1f3d 1301 6fbd 2531 0e3e
00000300: 1172 713d 105c d4bd abbf ddbd 04ae a4be
00000310: 707a 153d 2240 df3c 0897 1abe 0a11 0bbe
00000320: b5d0 2c3e 760a 303e 1d53 4c3e eb07 483e
00000330: d46d b9bc fe0b 4f3e 3159 1bba 1622 28be
00000340: 4548 babd 48c2 973d 680e d13d 82fc 9e3d
00000350: 7732 10be 7a81 7d3c 2f77 53be 09a1 083e
00000360: e463 b83d e5dd a33e 3006 1bbe 7db3 313d
00000370: 8941 d6bd 20fa 82bd dbb6 dbbc 5d33 49be
00000380: 8ee7 ec3c 435c e83d fe4f 9d3d b0d4 28be
00000390: e27d 84bd cf1f fbbc e2a5 3dbe 289e e43d
000003a0: b64d 86bb aef2 86be 956d bfbc c7ea 093e
000003b0: 0cb6 bc3d b0ca 78be 85cd 213d 6c74 b23b
000003c0: cb85 55be d696 943d 6335 4d3e 4975 d0bd
000003d0: 6701 883c 8034 8d3d 2e22 423e e48c 49be
000003e0: 5537 0a3e 3fd1 9d3d 7c6b 3abe 2620 8c3e
000003f0: 7af6 f93c fe7d c4bd 91c9 45be e5c9 3d3e

linear_final.bias f4 [5]
-0.044067897 0.022837676 -0.37444597 -0.84022814 0.012333916
00000000: 8a80 34bd 1416 bb3c 62b7 bfbe 3119 57bf
00000010: 3114 4a3c
