results2_checkpoint/hotel/latest.pth (torch_old, 55823 bytes, 10 tensors)

gcn.gc1.weight f4 [2, 2]
0	0xbd6ec48a	-0.058292903
1	0xbe4e36a8	-0.20138037
2	0xbde089fa	-0.10963817
3	0xbd35e5cc	-0.044408605

gcn.gc1.bias f4 [2]
0	0xbe05571c	-0.13021511
1	0x3dbad72b	0.09123071

grucell.weight_ih f4 [192, 2]
0	0xbde015cc	-0.109416574
1	0x3d3869e4	0.04502286
2	0xbd222506	-0.03958609
3	0xbddb7cad	-0.107171394
4	0xbd6ec094	-0.058289126
5	0xbdcb6b03	-0.0993252
6	0x3dea454c	0.114389986
7	0x3cd987e3	0.026554054
8	0xbcd6caec	-0.026219808
9	0xbc860abe	-0.016362544
10	0xbceb0b04	-0.028691776
11	0xbd0bcce6	-0.034130953
12	0xbd9769e5	-0.07393245
13	0x3d5b2b82	0.05350829
14	0xbd0952cb	-0.033526223
15	0x3d43d14e	0.04780703
16	0xbddbe588	-0.10737139
17	0xbd0e4437	-0.034733023
18	0xbdb950ed	-0.090486385
19	0x3dd42744	0.10359052
20	0xbc2bf71c	-0.010495927
21	0xbdc315b0	-0.09525621
22	0xbda262ac	-0.079289764
23	0xbce0d4f6	-0.027445298
24	0xbd9fcdea	-0.07802947
25	0xbceee34e	-0.029161122
26	0x3d84f583	0.0649214
27	0x3bff7532	0.007795953
28	0xbcfcd68b	-0.03086402
29	0xbd943d86	-0.07238297
30	0xbda241e3	-0.07922723
31	0x3dec38a1	0.115342386
32	0xbd39a012	-0.04531867
33	0xbb7a74ac	-0.0038216515
34	0xbdc44f88	-0.09585482
35	0xbdd3beae	-0.10339104
36	0xbd1627a4	-0.036658898
37	0x3d8a9a5f	0.06767725
38	0xbd9b8a35	-0.0759472
39	0xbd1a4d9a	-0.037671663
40	0x3d23cccc	0.03999023
41	0x3cc61ddd	0.024184162
42	0x3d58a9a5	0.05289616
43	0x3dc66651	0.09687484
44	0xbd8ce685	-0.068799056
45	0xbdd4428a	-0.10364254
46	0x3d17fc35	0.037105758
47	0xbd2f7e1a	-0.04284487
48	0xbb13d942	-0.0022559916
49	0x3d412abb	0.04715989
50	0x3bd59e39	0.0065191058
51	0xbd2335ed	-0.03984635
52	0x3cd8ec2a	0.0264798
53	0x3dfb0702	0.12257196
54	0x3d916af2	0.07100476
55	0x3dbb5726	0.091474816
56	0xbc0a6e29	-0.008449116
57	0x3ddc4279	0.10754866
58	0x3df596ab	0.11991628
59	0x3bba4e25	0.005685585
60	0xbcddeadf	-0.027089534
61	0xbddf76ae	-0.10911308
62	0x3d046366	0.032321356
63	0xbc9f0800	-0.019412994
64	0xbc62ad2f	-0.0138352355
65	0xbd35722f	-0.044298347
66	0x3def70f6	0.116914675
67	0xbd7e6032	-0.062103458
68	0xbd20625b	-0.0391563
69	0xbdd55cf9	-0.10418124
70	0x3dd47fdd	0.103759505
71	0xbcc3f565	-0.023920724
72	0xbd58d713	-0.052939486
73	0x3cd065fc	0.025439255
74	0xbd2ec88f	-0.042671736
75	0xbd56d917	-0.052453127
76	0x3a04e45d	0.0005069429
77	0x3d2b896c	0.041879103
78	0x3d6f1c5e	0.058376662
79	0x3de38eca	0.11111219
80	0x3d430dae	0.047620468
81	0x3d183485	0.03715946
82	0x3ded0393	0.11572947
83	0x3da6c0c1	0.08142234
84	0x3dd5a3c4	0.104316264
85	0x3c688694	0.014192242
86	0xbd60d8b3	-0.05489416
87	0xbc649ce8	-0.013953425
88	0x3d02acc4	0.031903043
89	0x3dca9f64	0.098936826
90	0x3bde38ae	0.006781659
91	0xbccc2f30	-0.024924845
92	0xbdd3eb48	-0.10347611
93	0xbcf9c304	-0.030488499
94	0xbd8c1d3b	-0.06841513
95	0x3dceda61	0.10100246
96	0xbdf38665	-0.11890868
97	0xbdd4abd4	-0.10384336
98	0x3dbb1711	0.09135259
99	0xbcf10d49	-0.02942528
100	0x3d5ae7b5	0.05344363
101	0x3c77843c	0.015107211
102	0xbd937022	-0.07199122
103	0xbd9b3735	-0.07578889
104	0x3d886824	0.06660488
105	0x3d235bf2	0.039882608
106	0x3dff810a	0.12475784
107	0x3df000c5	0.11718897
108	0xbd9f5195	-0.077792324
109	0x3d997127	0.07492285
110	0xbc4fa6f2	-0.01267408
111	0xbd7b432e	-0.061343364
112	0xbd99c0e8	-0.07507497
113	0xbdaae6e4	-0.0834482
114	0xbd8c185e	-0.06840585
115	0xbd11bacb	-0.03557853
116	0xbda7e9de	-0.081989035
117	0x3df2af97	0.11849897
118	0x3c23f87b	0.010007973
119	0xbdbb648e	-0.09150039
120	0xbd655035	-0.055984695
121	0x3cd4ba0f	0.025967626
122	0x3dfb0e57	0.122585945
123	0xbd4f855d	-0.050664295
124	0xbdd9a6a3	-0.106274866
125	0x3bf8ab6b	0.007588794
126	0x3d04516b	0.03230421
127	0x3de7d1ef	0.113193385
128	0xbb5a990b	-0.003335538
129	0xb9a6cc0d	-0.00031814017
130	0xbb982647	-0.004643235
131	0xbc91483c	-0.01773464
132	0x3d534147	0.051575925
133	0xbdefa360	-0.11701083
134	0xbc621916	-0.013799926
135	0xbdd13c4b	-0.10216578
136	0xbd260e15	-0.040540773
137	0x3daac1cd	0.08337746
138	0xbd940557	-0.07227581
139	0x3da8e107	0.082460456
140	0x3db004d6	0.085946724
141	0xbcf3ad43	-0.029745704
142	0xbda749a3	-0.08168342
143	0x3d9cd818	0.07658404
144	0x3d5da8ad	0.05411594
145	0x3d4e09b5	0.050302226
146	0xbd93a95a	-0.072100356
147	0x3dc75743	0.09733441
148	0xbc4f084c	-0.0126362555
149	0xbdf4e995	-0.11958615
150	0x3df33b4a	0.11876543
151	0x3dde7d4f	0.108637445
152	0x3b4784e3	0.0030444197
153	0xbd812645	-0.063061275
154	0xbd282e6b	-0.041059893
155	0x3d278341	0.040896658
156	0xbd0aee5a	-0.033918716
157	0x3dcd3629	0.10020096
158	0xbda8df79	-0.08245749
159	0xbdf986d5	-0.1218392
160	0xbc4de6fe	-0.01256728
161	0x3d896ea8	0.06710559
162	0xbc3c7259	-0.011501872
163	0xbdb98ab7	-0.09059661
164	0xbc75bb37	-0.014998249
165	0xbdf8f964	-0.121569425
166	0x3d1193ea	0.035541452
167	0xbb5335cc	-0.003222811
168	0x3d9fb943	0.07799008
169	0xbded5d5a	-0.11590071
170	0x3c57bb26	0.013167178
171	0x3d89dbb1	0.06731356
172	0x3d59e7b2	0.053199477
173	0x3b93977d	0.004504143
174	0xbd9aa628	-0.07551223
175	0xbbb15018	-0.0054111592
176	0xbbc725bd	-0.006077497
177	0x3b28a0c5	0.0025730592
178	0x3d8ae3cd	0.06781731
179	0x3de8e557	0.11371868
180	0xbdd047bd	-0.10169933
181	0x3ca7792c	0.020443521
182	0x3b4ab06f	0.0030927917
183	0x3be93b91	0.0071176966
184	0x3d15d49b	0.03657971
185	0x3de8307a	0.11337371
186	0x3d51a86e	0.051186018
187	0xbca8679a	-0.020557214
188	0xbd5d78ba	-0.054070212
189	0x3d9bf92f	0.076158874
190	0x3d58e30f	0.052950915
191	0x3dc07a33	0.09398308
192	0xbd927619	-0.071514316
193	0xbd79b882	-0.060966976
194	0x3d97e7c5	0.074172534
195	0x3d00dc86	0.031460308
196	0xbb93206d	-0.0044899494
197	0xbd99de1d	-0.07513068
198	0xbbfc8897	-0.0077067125
199	0xbda42e14	-0.08016601
200	0xbd515fd3	-0.051116776
201	0xbdeb3738	-0.114851415
202	0xba856846	-0.0010178171
203	0x3d08d5a4	0.03340687
204	0xbd0a9e0a	-0.033842124
205	0xbc9895be	-0.01862609
206	0xbd34d353	-0.044146847
207	0x3d106d05	0.03526022
208	0xbd6138c3	-0.054985773
209	0xbd9b0119	-0.07568569
210	0xbde3f410	-0.111305356
211	0x3d5c63f6	0.053806268
212	0xbd311b44	-0.043238893
213	0x3d84b7e7	0.06480389
214	0x3d34e93f	0.044167753
215	0x3db6749c	0.0890896
216	0xbdb73755	-0.089461006
217	0xbda48aee	-0.08034311
218	0xbcd5e92f	-0.026112167
219	0x3d5c5c62	0.05379904
220	0xbde4c388	-0.11170107
221	0xbd8769b4	-0.06611958
222	0x3d26be0c	0.040708587
223	0x3cee7766	0.029109668
224	0x3dc03653	0.093853615
225	0x3d71345a	0.058887817
226	0xbdb277e6	-0.08714275
227	0xbc1c6066	-0.009544468
228	0xbd9055be	-0.07047604
229	0x3ca33067	0.019920541
230	0x3d6dfa8b	0.058100265
231	0x3dffa51e	0.124826655
232	0x3df6300c	0.12020883
233	0x3d14eae9	0.03635684
234	0xbcb16d65	-0.021658609
235	0xbdd40fae	-0.10354553
236	0xbda08b4a	-0.07839067
237	0x3dade6cd	0.084912874
238	0x3dca6a92	0.09883608
239	0x3d8e4967	0.06947594
240	0xbc968ace	-0.018376734
241	0x3da54c87	0.08071237
242	0xbd910703	-0.070814155
243	0xbcf2e333	-0.029649353
244	0x3d0a25b4	0.033727363
245	0x3d40a43f	0.047031637
246	0x3a52ad39	0.00080366764
247	0x3dec3de2	0.11535241
248	0x3dc5610b	0.0963765
249	0x3dad146a	0.08451159
250	0x3c80075d	0.015628511
251	0x3dadc930	0.08485639
252	0xbd9c82ae	-0.07642113
253	0xbd19f0d5	-0.03758319
254	0xbd23eacc	-0.04001884
255	0xbdca6dfa	-0.098842576

grucell.weight_hh f4 [192, 64]
0	0xbcc095f1	-0.023508998
1	0xba695659	-0.00089011114
2	0xbd2c6dc4	-0.04209687
3	0x3d1450d1	0.036209885
4	0x3d88ff33	0.066893004
5	0x3cc6bf12	0.024261031
6	0xbcd52fb1	-0.026023718
7	0xbd0213ba	-0.031757094
8	0xbb54d7f7	-0.0032477358
9	0x3d4274d4	0.047474697
10	0xbd24e1cd	-0.040254403
11	0x3dccc0d3	0.09997716
12	0x3df720ab	0.12066778
13	0x3cc30b36	0.023809057
14	0x3b451d16	0.003007715
15	0xbdf17f20	-0.11791825
16	0x3d974961	0.07387043
17	0xbdbc8517	-0.092050724
18	0xbc14e6a3	-0.009088191
19	0xbdaf5e38	-0.08562893
20	0xbdea3d2c	-0.11437449
21	0x3d23b497	0.039967146
22	0xbdba40ca	-0.09094389
23	0x3b0afc72	0.0021207598
24	0x3da1e67c	0.079052895
25	0xbd8c1da8	-0.06841594
26	0xbd99376f	-0.07481276
27	0xbdd7adba	-0.105311826
28	0xbcc2b95a	-0.023770023
29	0x3dbf8fdc	0.09353611
30	0xbcba97fb	-0.022777548
31	0xbd95f791	-0.0732261
32	0xbd1d59fb	-0.03841589
33	0xbbf79fdf	-0.0075569
34	0xbdac6c46	-0.08419089
35	0xbcc8f23c	-0.024529569
36	0x3c161535	0.00916033
37	0x3d750515	0.0598193
38	0x3dc4c0a5	0.096070565
39	0x3d8e753a	0.06955953
40	0x3b8dbb88	0.004325334
41	0x3d30ee0e	0.043195777
42	0x3dbe1f40	0.09283304
43	0xbd8fe568	-0.07026178
44	0xbd10982b	-0.03530137
45	0x3c1d51a3	0.009601983
46	0x3d386ab2	0.045023628
47	0x3df4583e	0.11930893
48	0x3cbd722d	0.023125732
49	0x3d6848a4	0.0567099
50	0xbd32fcd3	-0.043698143
51	0xbd91ddc7	-0.07122379
52	0x3ccf0731	0.025271984
53	0x3dd5d32a	0.10440667
54	0xbcf3739d	-0.029718215
55	0xbd8d6764	-0.06904486
56	0xbce1e6d7	-0.027575893
57	0xbd4a4f15	-0.049391825
58	0x3dbb1c5b	0.09136268
59	0xbcb76470	-0.02238676
60	0xbd294887	-0.041328933
61	0x3d31e3b4	0.043430045
62	0xbd044c62	-0.032299407
63	0x3d992204	0.07477191
64	0x3c5d48e3	0.013506147
65	0x3de06d34	0.10958329
66	0xbd630ef0	-0.055434167
67	0x3d368866	0.044563673
68	0xbdc29b55	-0.095022835
69	0xbd00360e	-0.03130155
70	0x3d4a69dd	0.049417365
71	0x3dc81227	0.09769087
72	0xbd05cbd8	-0.032665104
73	0x3dd1c230	0.102421165
74	0x3d8151bd	0.063144185
75	0xbce8beca	-0.028411288
76	0x3d3bb925	0.045830864
77	0x3d240d02	0.040051468
78	0x3dd8091f	0.10548615
79	0x3b39d9f2	0.0028358665
80	0xbcd70d18	-0.02625136
81	0x3c104dd7	0.008807621
82	0xbcab5c8a	-0.02091815
83	0xbdc51288	-0.09622675
84	0x3dd1a175	0.102358736
85	0xbd96dd0d	-0.07366381
86	0xbd181fe8	-0.037139803
87	0xbd9217b2	-0.07133426
88	0xbd928969	-0.07155115
89	0x3cda033c	0.02661287
90	0xbd9599e8	-0.07304746
91	0x3d97f569	0.07419855
92	0x3c26e287	0.010185844
93	0xbce53d81	-0.027983429
94	0xbd807ba6	-0.06273584
95	0x3cf63895	0.030056277
96	0xbdae9175	-0.085238375
97	0x3dbb0cfc	0.09133336
98	0x3dbfb203	0.09360125
99	0xbdcaf958	-0.0991084
100	0x3dc7e46f	0.09760367
101	0xbdb2b404	-0.087257415
102	0x3d891226	0.06692915
103	0xbd30fcf8	-0.04321
104	0xbd97f72a	-0.0742019
105	0x3d01637b	0.031589013
106	0xbbfbeaa0	-0.0076878816
107	0xbdf643a5	-0.12024621
108	0x3dfabd89	0.12243182
109	0x3d4ec3a9	0.050479565
110	0xbdbdb7b0	-0.09263551
111	0x3dcc81c5	0.09985689
112	0xbd7c5a76	-0.061609708
113	0xbbd11a3b	-0.0063813007
114	0x3c9acf02	0.018897537
115	0xbcd10462	-0.025514785
116	0x3d89b4ed	0.06723962
117	0x3c73ed05	0.014888053
118	0x3c257ce8	0.010100581
119	0x3d4205b4	0.04736872
120	0xbceb10f2	-0.028694604
121	0xbd393e14	-0.045225218
122	0x3d6c7585	0.057729263
123	0xbc08dc15	-0.008353253
124	0x3d277111	0.040879313
125	0x3b8b0367	0.004242349
126	0xbd8bad60	-0.06820178
127	0xbdcd4253	-0.10022416
128	0xba82f6e8	-0.0009991797
129	0xbdb6f4a8	-0.08933383
130	0xbdd5417b	-0.1041288
131	0xbd6f47d5	-0.058418114
132	0xbdb59b80	-0.0886755
133	0x3de5f9be	0.11229275
134	0x3d1ba040	0.037994623
135	0x3c8852a9	0.016640978
136	0xbdcaffe0	-0.099120855
137	0xbd8c6206	-0.06854634
138	0x3d2e3c95	0.042538244
139	0xbd79cc37	-0.06098577
140	0x3cc01f61	0.023452463
141	0xbdfafc26	-0.12255125
142	0x3d03d3d9	0.032184456
143	0x3d466966	0.04844036
144	0xbda24915	-0.079240955
145	0x3d3e06a8	0.046393067
146	0x3db84cd9	0.089990325
147	0xbcec0e65	-0.028815458
148	0xbd9adf4a	-0.0756212
149	0x3d4447de	0.0479201
150	0xbd5c46c1	-0.053778414
151	0xbce9d476	-0.028543692
152	0x3da850e9	0.082185574
153	0x3dfc4208	0.12317282
154	0x3dbc02d8	0.0918023
155	0x3cd202eb	0.025636157
156	0xbd9aad3f	-0.07552575
157	0x3b423b32	0.0029637334
158	0x3d92af80	0.0716238
159	0x3c59fc60	0.0133048
160	0x3d25699e	0.040383928
161	0xbc65f874	-0.014036287
162	0x3c9cbfa6	0.019134354
163	0x3ba7f261	0.0051253294
164	0xbc9e0173	-0.0192878
165	0xbd5f1c73	-0.05447049
166	0xbdd071f7	-0.10177987
167	0xbc530c70	-0.012881383
168	0xbc1b65ff	-0.009484767
169	0xbd8e2c5e	-0.06942056
170	0xbd0b61c2	-0.034028776
171	0x3dd0b382	0.101904884
172	0xbd4ebae0	-0.050471187
173	0x3d60834e	0.054812722
174	0x3de76183	0.11297896
175	0x3d31bf56	0.043395363
176	0x3ca8099c	0.020512395
177	0x3dcced7b	0.10006233
178	0xbdce9a30	-0.10088003
179	0xbd9025f0	-0.07038486
180	0x3ca431d2	0.020043287
181	0x3d84cce7	0.064843945
182	0x3c07b4d0	0.008282855
183	0x3d4c5ce8	0.04989329
184	0x3d4bb403	0.04973222
185	0xbd0d4bcf	-0.034496125
186	0xbd88ecbe	-0.0668578
187	0xbd53c096	-0.051697336
188	0xbdc2c532	-0.09510268
189	0xbd4b0316	-0.04956349
190	0x3dc7415a	0.09729262
191	0x3d7ae75a	0.06125579
192	0xbdb8bff7	-0.090209894
193	0x3db924af	0.090402
194	0xbda6982d	-0.08134494
195	0x3de275d9	0.11057634
196	0xbd1ee0dc	-0.03878866
197	0xbd8b70c9	-0.068086214
198	0xbd83c721	-0.06434465
199	0x3da73246	0.08163886
200	0x3df79c78	0.12090391
201	0x3d310acf	0.0432232
202	0xbd4817bd	-0.048850764
203	0x3cd2deac	0.025740944
204	0x3d33f240	0.0439322
205	0x3d744d48	0.059644014
206	0x3c341e38	0.010993533
207	0xbd88b0e9	-0.06674368
208	0x3d061b23	0.032740723
209	0xbdeee2f4	-0.116643816
210	0xbd93e583	-0.0722151
211	0xbaad2fb5	-0.001321307
212	0xbde0d972	-0.109789744
213	0xbbcc1a5b	-0.0062287278
214	0x3dea3c09	0.11437232
215	0xbd580bae	-0.052745514
216	0xbd6f060c	-0.058355376
217	0xbdecadab	-0.11556562
218	0x3d9e2ada	0.07723017
219	0xbdc254b1	-0.0948881
220	0xbbee046f	-0.007263712
221	0x3b928ad1	0.0044721146
222	0xbdbbe7d3	-0.09175076
223	0x3dab3d73	0.0836133
224	0x3ded4a2a	0.11586411
225	0xbd4c7768	-0.049918562
226	0x3d9a87ef	0.075454585
227	0xbc0f33d3	-0.008740383
228	0xbc845399	-0.016153144
229	0x3df611f0	0.1201514
230	0x3de2b610	0.11069882
231	0x3df35227	0.11880904
232	0xbdf85bf2	-0.12126912
233	0x3dd96110	0.10614216
234	0x3dfa4f0a	0.12222107
235	0xbda82ccd	-0.0821167
236	0xbdc9b8ab	-0.09849676
237	0x3db5537b	0.08853813
238	0xbce58cae	-0.028021183
239	0x3d4d9d5f	0.05019891
240	0xbdf24648	-0.11829811
241	0x3de33e2b	0.11095842
242	0xbd799b98	-0.0609394
243	0xbd861c1e	-0.06548332
244	0xbd227aa0	-0.039667726
245	0xbd87d5f4	-0.06632605
246	0xbb83804f	-0.0040130983
247	0xbd8c8798	-0.068618
248	0xbd8f4b8e	-0.06996833
249	0x3da24ca4	0.07924774
250	0xbc751295	-0.014958044
251	0xbdf67e08	-0.12035757
252	0x3c2bd486	0.010487681
253	0x3d23f9e5	0.04003324
254	0x3dbd79f1	0.09251774
255	0x3dfe1701	0.124067314

grucell.bias_ih f4 [192]
0	0xbdea299a	-0.11433716
1	0x3dce822b	0.10083421
2	0xbdfb58d6	-0.122728035
3	0x3d3047fa	0.043037392
4	0x3c85fd75	0.01635621
5	0xbd2a0924	-0.041512623
6	0x3de71aa3	0.112843774
7	0x3d501892	0.050804682
8	0xbdfb04cf	-0.122567765
9	0xbd2c09e2	-0.042001612
10	0x3d02ce57	0.031935062
11	0x3a28f0f0	0.0006444594
12	0xbd797242	-0.06089998
13	0xbdbed858	-0.09318608
14	0xbd7d647a	-0.0618634
15	0x3df217d0	0.11820948
16	0x3dbbc773	0.09168901
17	0x3d77022e	0.060304813
18	0x3df7e2e2	0.12103821
19	0xbd399cb9	-0.045315478
20	0x3db88ff7	0.09011834
21	0x3dc4186c	0.095749706
22	0xbdcf4474	-0.10120478
23	0x3ce59606	0.028025638
24	0x3de80087	0.113282256
25	0x3ce4097b	0.027836552
26	0xbdea1351	-0.114294656
27	0x3d1b275b	0.03787933
28	0xbddfcb74	-0.109274775
29	0xbcb797e2	-0.02241129
30	0x3da17a8f	0.07884704
31	0xbdc800b7	-0.09765761
32	0xbd3ae07b	-0.045624238
33	0x3d565724	0.052329198
34	0xbd231a24	-0.03981985
35	0xbdaed692	-0.0853702
36	0x3dbd8c02	0.0925522
37	0xbcecebc0	-0.028921008
38	0xbc59c360	-0.01329121
39	0xbd0e8c0f	-0.03480154
40	0x3dbc8d47	0.09206634
41	0xbd912537	-0.07087176
42	0x3de6d93d	0.11271904
43	0xbdb4be47	-0.08825355
44	0x3d8548f8	0.06508058
45	0x3d9b2ab3	0.075765036
46	0x3d76df34	0.060271457
47	0xbd1401b3	-0.036134433
48	0xbd3b45bf	-0.045720812
49	0xbd709b20	-0.05874169
50	0xbcd5400c	-0.026031516
51	0xbd9e8034	-0.077392966
52	0xbd2da007	-0.042388942
53	0xbda94b4f	-0.08266317
54	0x3d982510	0.07428944
55	0xbd87263e	-0.06599091
56	0xbc2e219d	-0.010628131
57	0x3d8c42a6	0.0684865
58	0x3bcee978	0.0063144527
59	0x3d86e26a	0.06586154
60	0x3da82728	0.082105935
61	0x3dbf49cc	0.093402475
62	0xbd62be5c	-0.055357322
63	0xbd0fa702	-0.03507138
64	0x3c837ad0	0.016049773
65	0x3da8170a	0.08207519
66	0x3bd007b8	0.0063485764
67	0xbdd98de9	-0.1062277
68	0x3db5fa8f	0.08885681
69	0x3d38faa2	0.045160897
70	0xbc61d001	-0.013782502
71	0xbdb0da8d	-0.08635435
72	0xbde2eee2	-0.110807195
73	0x3dede12c	0.11615214
74	0x3dfe1a03	0.12407305
75	0xbdcd960c	-0.10038385
76	0x3d64cbf5	0.05585857
77	0x3d8fc73d	0.070204236
78	0xbd88086f	-0.066422336
79	0x3d39ca9a	0.04535923
80	0xbbcc1d5f	-0.0062290872
81	0x3db7d08e	0.089753255
82	0x3dfc18c6	0.12309413
83	0x3d8d2ba3	0.06893089
84	0xbc8daadb	-0.017293384
85	0xbd8d795b	-0.06907912
86	0x3ca80f3c	0.020515077
87	0x3baaed78	0.0052162968
88	0x3c54c8c4	0.012987319
89	0x3d91b245	0.0711408
90	0xbd9e6254	-0.07733598
91	0x3d6a4c63	0.057201754
92	0x3bd38d64	0.006456064
93	0xbdcc4fa5	-0.099761285
94	0xbdc1ace9	-0.09456808
95	0xbdeb852e	-0.115000114
96	0xbdf11663	-0.11771848
97	0xbd18c87c	-0.03730057
98	0x3d5c1999	0.05373535
99	0x3d6223ed	0.055210043
100	0xbdb2241c	-0.086982936
101	0x3d2990d2	0.041397877
102	0xbca9b67f	-0.020716904
103	0x3d4378dc	0.047722682
104	0x3dd98ff2	0.106231585
105	0xbda9eea3	-0.082974695
106	0xbdd2bd5d	-0.102900244
107	0x3c9fc7b4	0.019504406
108	0x3cef4e55	0.029212156
109	0xbb18912a	-0.0023279884
110	0xbde6dc95	-0.112725414
111	0x3df3a488	0.11896616
112	0xbcba1e9b	-0.022719672
113	0x3dbdb65a	0.092632964
114	0xbd7c65da	-0.06162057
115	0xbdbc58cb	-0.091966234
116	0xbd0ad627	-0.033895638
117	0x3c99ba21	0.018765511
118	0x3dafdb54	0.085867554
119	0xbdee4695	-0.11634556
120	0x3d697067	0.05699196
121	0x3d17b261	0.03703535
122	0x3ca9adfb	0.020712843
123	0x3db8cacb	0.09023055
124	0x3c558929	0.01303319
125	0xbc2d4f9f	-0.010578065
126	0xbb0fd817	-0.0021948868
127	0x3da96edb	0.08273097
128	0xbd6f34ce	-0.058399968
129	0x3c8abd05	0.016935835
130	0x3d558bfb	0.05213545
131	0x3e4c06b8	0.19924438
132	0xbd1bfabb	-0.038080912
133	0xbcabe2c3	-0.020982152
134	0x3df5baba	0.11998506
135	0x3c9bf42f	0.019037334
136	0xbdb41745	-0.08793501
137	0xbe0e528a	-0.13898674
138	0xbda34ac6	-0.07973246
139	0xbda4469a	-0.08021279
140	0x3ddbdd7b	0.107356034
141	0xbe230a3d	-0.15921874
142	0xbcb6231f	-0.022233544
143	0x3d8d9b69	0.06914408
144	0xbd070f7d	-0.032973755
145	0xbcbf0028	-0.023315504
146	0x3d60f71e	0.05492317
147	0x3ce51880	0.027965784
148	0x3dd28797	0.10279768
149	0x3d2e0814	0.042488173
150	0x3c863dd9	0.016386913
151	0xbdefc93b	-0.117083035
152	0xbde4ccf1	-0.11171902
153	0xbe728b37	-0.23685919
154	0x3e1346f1	0.14382531
155	0x3d3b7b9e	0.045772187
156	0x3d6d1f01	0.057890896
157	0x3a8a23b7	0.0010539208
158	0x3d92cdd3	0.07168164
159	0x3de051eb	0.109531246
160	0xbd9c1d55	-0.07622782
161	0xbdaa3558	-0.08310956
162	0xbda4e2ff	-0.080511086
163	0x3e0cf419	0.13764991
164	0x3e0ac39f	0.13551186
165	0xbc65c104	-0.014023069
166	0x3cfeab9d	0.031087691
167	0x3ca896fe	0.020579811
168	0x3b5f5979	0.003408043
169	0x3dfd5a01	0.123706825
170	0x3d7875fd	0.060659397
171	0xbe08f4a4	-0.13374573
172	0x3d1adc89	0.037807975
173	0x3e26e691	0.16298892
174	0x3ca3bfeb	0.019988975
175	0x3c953b2e	0.018216696
176	0x3dd78d1a	0.1052496
177	0x3c7a46c8	0.015275665
178	0xbe2d5bcd	-0.1692955
179	0x3db8a227	0.09015303
180	0xbd1c2f45	-0.038131017
181	0x3a3bab14	0.00071589765
182	0xbd862a71	-0.06551064
183	0x3d20dd02	0.03927327
184	0xbbfcb1bd	-0.0077116177
185	0x3cada2af	0.021195738
186	0x3d796770	0.06088966
187	0xbe56fd89	-0.20995153
188	0xbda2ffc9	-0.079589434
189	0xbd006bc4	-0.031352773
190	0x3e10217f	0.14075278
191	0xbe22635a	-0.15858212

grucell.bias_hh f4 [192]
0	0x3d90f542	0.07078029
1	0x3daae7c1	0.08344985
2	0xbdf617c4	-0.12016252
3	0xbdd5ac5a	-0.10433264
4	0x3dbcf110	0.092256665
5	0x3d851c5c	0.0649955
6	0x3d5bced5	0.053664047
7	0xbdb84909	-0.08998305
8	0x3cbc26b8	0.022967681
9	0x3da0c18a	0.07849415
10	0x3dd40779	0.10352988
11	0xbdcb5c81	-0.09929753
12	0xbd14ddc6	-0.036344312
13	0x3dc0d004	0.09414676
14	0xbdbba9ae	-0.09163223
15	0xbd364b1a	-0.044505216
16	0x3daca25d	0.08429406
17	0xbcc44146	-0.023956906
18	0xbdb5349c	-0.08847925
19	0x3db4c1d5	0.08826033
20	0xbb425c01	-0.002965689
21	0xbcf6fcc2	-0.030149821
22	0x3d2e647d	0.0425763
23	0x3d91cfe7	0.07119732
24	0xbdcf0f2f	-0.10110318
25	0xbde8ad92	-0.11361231
26	0x3cf294fe	0.02961206
27	0xbd28025d	-0.04101788
28	0xbd7088cd	-0.058724213
29	0x3d69aa26	0.05704703
30	0xbdc70741	-0.097181804
31	0x3dfa5d63	0.12224843
32	0xbd98ed98	-0.074671924
33	0x3df19d2d	0.11797557
34	0xbda4368f	-0.08018219
35	0x3de51d58	0.111872375
36	0x3c29f12c	0.010372441
37	0xbdfdda80	-0.12395191
38	0x3e008bb5	0.12553294
39	0x3df026a1	0.11726118
40	0xb9db430f	-0.00041820898
41	0x3df3bd85	0.11901382
42	0xbdc92d8d	-0.09823141
43	0xbcb08c3a	-0.02155124
44	0x3dae218a	0.08502491
45	0x3dbc51d1	0.09195293
46	0x3d475954	0.048669174
47	0xbd8d1846	-0.068893954
48	0x3d489695	0.04897173
49	0xbc8b89f7	-0.01703356
50	0x3dab4f5b	0.08364745
51	0x3dca0380	0.09863949
52	0xbd8b8ee8	-0.068143666
53	0x3d5c0494	0.053715304
54	0xbcc62f05	-0.024192343
55	0x3d82ed7d	0.063929535
56	0xbd9f27cd	-0.07771263
57	0x3d4616ae	0.048361473
58	0xbd6f3efe	-0.058409683
59	0xbd6c047c	-0.057621464
60	0xbd90affe	-0.07064818
61	0xbdb3a0ae	-0.087708816
62	0x3df74128	0.120729744
63	0xbd3bc096	-0.04583796
64	0xbda38e70	-0.07986152
65	0x3d018318	0.03161916
66	0xbd635d2d	-0.05550878
67	0x3d83d303	0.06436732
68	0x3de13efb	0.10998341
69	0x3db84c93	0.089989804
70	0x3dce063d	0.100597836
71	0x3c0d77a5	0.0086344825
72	0x3dd0a82c	0.10188326
73	0x3ceb9747	0.028758658
74	0x3dc64e93	0.096829556
75	0x3dedb770	0.116072536
76	0x3d667a31	0.056268875
77	0xbd3788c2	-0.044808157
78	0xbcd11537	-0.025522811
79	0xbd90dc31	-0.07073248
80	0x3bdf2701	0.0068100695
81	0x3de31c94	0.11089435
82	0x3ceaac39	0.028646575
83	0xbd9961f3	-0.074893855
84	0x3d267a96	0.04064425
85	0xbdec9319	-0.11551494
86	0x3cee2fe4	0.02907557
87	0xbdd8d846	-0.10588126
88	0xbd8498b1	-0.06474436
89	0xbc1a879c	-0.009431746
90	0xbd9b4536	-0.0758156
91	0xbd059cc5	-0.03262021
92	0x3dc30288	0.09521967
93	0x3d146c7f	0.036236282
94	0x3d0d4a35	0.034494597
95	0xbcc58121	-0.024109425
96	0x3da28d8f	0.079371564
97	0x3d6e8568	0.058232695
98	0xbde48060	-0.11157298
99	0xbd97f929	-0.074205704
100	0xbdc5e8d6	-0.096635506
101	0xbdfcaadb	-0.123372756
102	0x3d45646e	0.04819148
103	0xbc1a3c7e	-0.0094138365
104	0xbd103644	-0.035208
105	0x3bcf9e39	0.0063360003
106	0x3d061dcf	0.03274327
107	0x3d1521a4	0.036409035
108	0xbd8c8ded	-0.06863008
109	0xbd945c5f	-0.07244181
110	0x3de8444d	0.11341152
111	0xbc145b56	-0.009054979
112	0xbde647c0	-0.11244154
113	0xbde49b2c	-0.11162409
114	0x3def99c2	0.11699249
115	0x3c863a45	0.016385207
116	0xbdc7d569	-0.09757502
117	0xbd4c27bf	-0.049842592
118	0x3d9a7fc8	0.075439036
119	0xbd5cec7e	-0.053936474
120	0xbdda269a	-0.10651894
121	0x3d9977b3	0.07493534
122	0x3de64be7	0.11244946
123	0xbd7e8fdb	-0.06214891
124	0x3da8f026	0.0824893
125	0x3df10943	0.11769345
126	0xbdd9fc99	-0.10643882
127	0x3dd26d51	0.10274757
128	0x3da8d330	0.08243406
129	0x3c48094e	0.01220925
130	0x3d1e0afd	0.038584698
131	0x3d89dda5	0.067317285
132	0xbd885b3f	-0.06658029
133	0xbd8af978	-0.06785864
134	0x3e06339d	0.13105626
135	0x3e0d4d43	0.13799004
136	0xbc917de9	-0.017760234
137	0x3d26fd38	0.040768832
138	0xbe2cf639	-0.16890801
139	0xbcc616c2	-0.024180774
140	0xbd928409	-0.0715409
141	0xbdeafa7f	-0.114735596
142	0xbdce2703	-0.10066035
143	0x3dd70069	0.10498125
144	0x3da5dfbe	0.08099316
145	0xbd273000	-0.04081726
146	0xbd826041	-0.06366015
147	0xbd87945f	-0.066200964
148	0xbc25018c	-0.01007117
149	0xbe008eb4	-0.12554437
150	0x3e0905c2	0.13381103
151	0x3dd3755e	0.103251204
152	0xbc9b2561	-0.018938722
153	0xbbb419a4	-0.0054962207
154	0xbd54978f	-0.05190235
155	0xbcffb9f8	-0.031216606
156	0x3d92c3cf	0.07166254
157	0x3cd2c617	0.025729222
158	0xbd9b5dd5	-0.075862564
159	0x3d70bf2b	0.058776062
160	0x3dbbaadc	0.09163448
161	0x3d1508c7	0.036385324
162	0x3d90096e	0.070330486
163	0x3ddff062	0.10934521
164	0xbcd91cf8	-0.026503071
165	0xbcb4cbc3	-0.022069817
166	0x3e114fbb	0.14190571
167	0xbe1ff4e3	-0.1562076
168	0x3c3fde61	0.011710734
169	0x3bab69e8	0.005231131
170	0xbcf908f1	-0.030399771
171	0xbd681057	-0.056656208
172	0xbcf325fd	-0.0296812
173	0x3e20115e	0.15631625
174	0xbd508928	-0.050912052
175	0x3cb18a4a	0.021672387
176	0xbb458f51	-0.0030145238
177	0xbccfac79	-0.025350796
178	0xbda8ae60	-0.082363844
179	0xbd7ceeed	-0.061751295
180	0x3be0c5ba	0.0068595083
181	0xbde78cc2	-0.11306144
182	0xbe372b39	-0.17887582
183	0x3e0ace48	0.13555253
184	0xbddb73fe	-0.10715483
185	0xbd891f3c	-0.066954106
186	0x3cc44bc3	0.023961907
187	0xbe25e121	-0.16199161
188	0x3dd6be0e	0.10485469
189	0x3dd1bddc	0.10241291
190	0xbda47e77	-0.08031934
191	0xbc258b36	-0.010103991

linear.weight f4 [2, 64]
0	0xbd7c90fd	-0.06166171
1	0x3ddc52ee	0.10758005
2	0x3daf5368	0.0856083
3	0xbd44771d	-0.047965158
4	0xbd69f736	-0.057120524
5	0xbcf4de35	-0.029891113
6	0xbca9aac8	-0.020711318
7	0x3dd07ef4	0.101804644
8	0xbdd66d3a	-0.10470052
9	0x3d6cac10	0.05778128
10	0xbd8d0302	-0.06885339
11	0x3d1fd618	0.039022535
12	0x3c7e1e9e	0.015510229
13	0xbd95af68	-0.07308847
14	0x3ccaa453	0.024736559
15	0xbd4e9548	-0.050435334
16	0xbdc84108	-0.09778029
17	0xbddc1742	-0.107466236
18	0xbd7e8131	-0.062134925
19	0xbda4b5ed	-0.08042512
20	0x3dce1823	0.100631975
21	0x3d469784	0.04848434
22	0xbd7e7fae	-0.062133484
23	0x3d846917	0.06465357
24	0xbb0b3ce0	-0.0021246
25	0x3d2ec647	0.04266956
26	0x3c73edd3	0.014888245
27	0xbdbb1ed9	-0.09136743
28	0xbdd3c677	-0.103405885
29	0x3bc319e3	0.0059540137
30	0xbcbfa05e	-0.023391899
31	0xbd944034	-0.07238808
32	0xbde7e526	-0.113230035
33	0x3db630f7	0.08896058
34	0xbdaa5deb	-0.08318695
35	0xbdea5893	-0.114426754
36	0xbdd781bb	-0.10522791
37	0x3df4b9ce	0.11949502
38	0xbdd96fae	-0.10617004
39	0x3d8c4f1e	0.06851028
40	0x3bd19a92	0.0063966
41	0xbd4b8be7	-0.04969397
42	0xbb14ba9a	-0.002269423
43	0xbdaea24b	-0.08527049
44	0xbc2a120c	-0.010380279
45	0x3c9ca5c5	0.019122014
46	0xbbbad8cb	-0.0057021133
47	0x3912ebcb	0.00014011485
48	0x3cfb5b3a	0.030683149
49	0x3dcd0710	0.10011113
50	0x3c865046	0.0163957
51	0x3dbb8119	0.09155483
52	0x3d73c446	0.059513353
53	0xbdd0d3f0	-0.10196674
54	0x3d78f79f	0.060783025
55	0xbdff1915	-0.12455956
56	0x3d84ea2e	0.06489979
57	0x3d3c6db9	0.046003077
58	0xbc879dc9	-0.01655473
59	0xbdb19780	-0.086714745
60	0xbd6f91ee	-0.05848878
61	0xbd9ebefa	-0.0775127
62	0xbd86f276	-0.065892145
63	0x3db4b577	0.08823674
64	0x3cd085ac	0.025454365
65	0xbd99f958	-0.07518262
66	0x3dcc860b	0.09986504
67	0xbca0cb8d	-0.01962831
68	0xbd339ce1	-0.043850783
69	0x3d35df21	0.044402245
70	0xbdc382ad	-0.09546409
71	0x3ccdf222	0.025139872
72	0x3d9a697c	0.07539651
73	0x3df0cf22	0.117582574
74	0x3c8dae31	0.017294975
75	0x3d3f1fc5	0.046661157
76	0x3d126ccb	0.035748284
77	0x3c3449a3	0.0110038845
78	0x3dad7468	0.08469468
79	0x3defc475	0.11707393
80	0xbe02ca6d	-0.12772532
81	0xbd967a49	-0.07347543
82	0xbc20aa65	-0.00980625
83	0x3d1d8bcd	0.038463403
84	0xbdba1e49	-0.09087808
85	0x3da4db87	0.08049684
86	0xbd816d9f	-0.06319737
87	0x3cd73a23	0.026272839
88	0x3ada9f10	0.0016679484
89	0x3da31d52	0.07964577
90	0xbe0034ff	-0.12520216
91	0xbdf066cc	-0.11738357
92	0x3db045d1	0.086070664
93	0x3dcac428	0.09900695
94	0xbe005518	-0.1253246
95	0xbd0995f3	-0.03359027
96	0x3d49a870	0.0492329
97	0xbdeb13f8	-0.11478418
98	0xbc7f814a	-0.01559479
99	0x3df1fcef	0.118158214
100	0xbde72da0	-0.11287999
101	0xbbdc4139	-0.0067216423
102	0x3da93d96	0.082637
103	0x3d9f830d	0.07788668
104	0x3d029604	0.031881347
105	0x3da16145	0.07879881
106	0xbd547f5e	-0.05187928
107	0xbd92ee83	-0.07174399
108	0xbd2b9d82	-0.041898258
109	0x3d6893d3	0.0567816
110	0xbbdbf88d	-0.006712979
111	0xbdac173e	-0.084028706
112	0x3def430f	0.11682712
113	0xbdac4d52	-0.08413185
114	0x3d8098db	0.06279155
115	0xbdea7f8f	-0.11450111
116	0xbd2ee404	-0.04269792
117	0xbd512aaf	-0.051066097
118	0x3dfab912	0.122423306
119	0xbc4ce91a	-0.012506748
120	0x3dc27d9d	0.09496615
121	0x3df51d25	0.119684495
122	0x3dd58e59	0.10427541
123	0x3cd0fb8c	0.025510572
124	0x3ddfbfa3	0.10925224
125	0xbd3a72bb	-0.04551957
126	0x3d3a7090	0.045517504
127	0x3d895d21	0.06707216

linear.bias f4 [2]
0	0xbdc928f2	-0.09822263
1	0x3da05979	0.078295656

linear_final.weight f4 [5, 64]
0	0x3dbf77cc	0.09349021
1	0x3a5972d9	0.00082950067
2	0xbda963fe	-0.08271025
3	0xbde52ff0	-0.11190784
4	0x3dbb44a5	0.09143952
5	0xbddc244c	-0.107491106
6	0xbd6ba3b0	-0.05752915
7	0xbd2388d7	-0.039925423
8	0xbd830268	-0.06396943
9	0xbd9de0de	-0.07708906
10	0x3d473bd8	0.048641056
11	0xbd46d9ac	-0.04854743
12	0x3d818b12	0.06325354
13	0xbd9ce7a1	-0.07661367
14	0xbd8f988f	-0.0701152
15	0xbdc6c47e	-0.09705447
16	0xbdbd6fb4	-0.09249821
17	0x3db00fae	0.08596741
18	0x3dc99c8f	0.09844314
19	0x3dee354b	0.116312586
20	0x3dc339af	0.09532487
21	0x3dfc1604	0.12308887
22	0x3dfe8b01	0.12428857
23	0xbdbb726e	-0.09152685
24	0xbc4f5f87	-0.012657053
25	0x3c7ba9fa	0.01536035
26	0x3d4b1732	0.049582668
27	0x3d44c597	0.04804
28	0x3dc6a066	0.09698562
29	0x3d10c8f6	0.0353479
30	0x3c54efa3	0.012996587
31	0xbd7a79a1	-0.06115115
32	0xbd4a4d74	-0.04939027
33	0xbc353908	-0.011060961
34	0x3d05a973	0.032632302
35	0xbc380e05	-0.011233811
36	0xbdc03c7b	-0.09386536
37	0xbd32f7d9	-0.043693397
38	0xbd86fc1b	-0.06591054
39	0x3c8eaf0e	0.017417457
40	0xbdcd8fb8	-0.10037178
41	0xbdceb30b	-0.100927435
42	0xbda8a06a	-0.082337216
43	0xbbe6917b	-0.0070363856
44	0xbcc5e159	-0.024155306
45	0x3d9b4239	0.0758099
46	0xbd09767c	-0.03356026
47	0xbd66abbd	-0.056316126
48	0x3d7377f6	0.059440576
49	0x3cc0e6bd	0.023547525
50	0xbddedd16	-0.108820125
51	0x3c4c13f3	0.012455928
52	0xbd7e87ff	-0.062141415
53	0x3e0271e6	0.12738761
54	0xbdb86504	-0.09003642
55	0xbd9d81e2	-0.07690789
56	0x3cfbacb0	0.030721992
57	0xbd6a0873	-0.057136964
58	0x3d1d639e	0.03842508
59	0x3ba9f23e	0.005186348
60	0xbda8a5e1	-0.08234764
61	0x3de8cd3c	0.1136727
62	0xbd234d05	-0.039868373
63	0xbdd65027	-0.104645066
64	0xbd88a5e5	-0.06672267
65	0x3d1f18ed	0.03884213
66	0xbda5aa84	-0.08089164
67	0x3c1a2bd0	0.00940986
68	0xbcb9d518	-0.022684619
69	0xbcb3aa8d	-0.02193191
70	0x3ce9a7ad	0.028522337
71	0x3b97e6ed	0.004635683
72	0xbd1ab486	-0.037769817
73	0x3d3908e9	0.045174513
74	0x3ce796f4	0.028270222
75	0xbd055c20	-0.03255856
76	0x3d66fe16	0.05639466
77	0x3da13665	0.07871703
78	0xbd5898de	-0.05288016
79	0xbc6f790b	-0.014616261
80	0x3d0ef3e5	0.034900565
81	0xba54d507	-0.0008118902
82	0x3c8026f1	0.015643569
83	0x3d12e591	0.035863463
84	0x3d467f5d	0.048461307
85	0xbd1fa946	-0.03897979
86	0x3d4a7e72	0.049436994
87	0x3d794b4d	0.060862828
88	0x3d8dc0cb	0.06921538
89	0x3cd52cae	0.026022281
90	0xbca07cb7	-0.019590719
91	0x3d6b8586	0.057500385
92	0xb9bc0292	-0.0003586007
93	0xbc4dba39	-0.012556606
94	0xbd2d2f31	-0.042281333
95	0x3d2e7e27	0.042600777
96	0x3d9954c2	0.074868694
97	0xbd05ac07	-0.03263476
98	0x3d63fb3c	0.055659518
99	0x3ccd0be4	0.025030084
100	0xbc2981d2	-0.010345893
101	0x3d96045e	0.07325052
102	0xbdaee4ab	-0.08539709
103	0xbd225adf	-0.039637443
104	0xbd5fb6b1	-0.054617587
105	0xbbac8842	-0.0052652666
106	0xbd871eed	-0.065976955
107	0x3c4d2837	0.012521795
108	0x3da5e433	0.08100166
109	0x3c06ec3c	0.008235034
110	0x3d14bb20	0.03631127
111	0x3d4af57b	0.049550515
112	0xbb3bf03a	-0.0028677122
113	0x3d280655	0.041021664
114	0x3ce600e9	0.028076606
115	0x3ce92989	0.028462188
116	0x3d99fa10	0.07518399
117	0x3d996d76	0.07491581
118	0x3dafa98a	0.08577259
119	0x3ce483d1	0.027894886
120	0x3c7e1561	0.015508027
121	0x3cbaa483	0.022783523
122	0x3d11c20d	0.035585452
123	0x3d85bbbd	0.06529949
124	0xba92b02b	-0.0011191418
125	0x3d956ff4	0.07296744
126	0x3c8abddf	0.01693624
127	0xbcad9611	-0.021189721
128	0x3d9981e2	0.07495476
129	0x3cd01028	0.025398329
130	0xbb608b9e	-0.0034262906
131	0xbe814e74	-0.25255167
132	0x3e0d3c8a	0.13792625
133	0xbca82672	-0.020526145
134	0xbdf39cd7	-0.11895149
135	0xbd9b4549	-0.075815745
136	0xbc8fbf95	-0.017547408
137	0x3d0fefdf	0.03514087
138	0x3e2a9785	0.16659363
139	0x3e1851e0	0.14874983
140	0xbd842234	-0.06451836
141	0x3e30de74	0.17272359
142	0x3e1df15a	0.154241
143	0xbdc62793	-0.09675517
144	0xbd30e72a	-0.043189205
145	0xbc848ab1	-0.016179414
146	0x3ccedacb	0.025250813
147	0x3dac2e07	0.084072165
148	0xbd2121a7	-0.039338734
149	0x3d942f94	0.07235637
150	0xbdb44af2	-0.08803357
151	0x3dde6429	0.10858948
152	0x3dcbe3b1	0.09955538
153	0x3e67b7c9	0.22628702
154	0xbe037074	-0.12835866
155	0xbdbb142c	-0.09134707
156	0x3c2ab3c0	0.010418832
157	0x3df0f792	0.1176597
158	0xbdd95b79	-0.1061315
159	0xbe205edf	-0.1566119
160	0x3db1cacb	0.08681258
161	0xbd6b38d5	-0.057427246
162	0x3d8e7a45	0.06956915
163	0xbd6d5b52	-0.057948418
164	0xbe0b2964	-0.13590008
165	0xbcd2a400	-0.025712967
166	0xbd57d38f	-0.052691992
167	0x3d4455b1	0.047933284
168	0x3daed310	0.08536351
169	0x3d0f9adc	0.035059795
170	0x3bc36b25	0.0059637004
171	0x3dd0a237	0.1018719
172	0xbbbe1485	-0.005800786
173	0xbe4d2757	-0.20034538
174	0x3da901e7	0.08252316
175	0xbdd4fe1c	-0.1040003
176	0x3d76123f	0.060075995
177	0x3dbef7c1	0.09324599
178	0x3e1d09f4	0.15335828
179	0x3d821390	0.063513875
180	0xbce6477f	-0.028110264
181	0x3dd6ef06	0.10494809
182	0x3e121a53	0.14267854
183	0xbe088c25	-0.13334711
184	0x3d8adf75	0.06780902
185	0xbd8158f9	-0.06315798
186	0x3cbe9477	0.023264153
187	0x3e39e214	0.18152648
188	0xbda732ed	-0.0816401
189	0x3d194259	0.03741679
190	0xbd845d07	-0.06463056
191	0x3e16d43f	0.14729403
192	0x3d7f1cd8	0.062283367
193	0xbddd2e11	-0.10799802
194	0xbde6432c	-0.11243281
195	0xbeb5d8aa	-0.35516864
196	0x3d424131	0.047425453
197	0x3d13c7d9	0.03607926
198	0xbe2b5f22	-0.16735509
199	0xbe112fea	-0.14178434
200	0x3e36f8a2	0.17868283
201	0x3e3b9c2a	0.1832129
202	0x3e5c5048	0.21515
203	0x3e566f8a	0.20940986
204	0xbcf0a1c1	-0.029374005
205	0x3e664dff	0.2249069
206	0x3c045eb6	0.0080792215
207	0xbe39b0e5	-0.18133886
208	0xbdc37d1a	-0.095453456
209	0x3da4c19a	0.08044739
210	0x3dd4d0ba	0.10391374
211	0x3da43fe9	0.080200024
212	0xbe1ac6f8	-0.15114963
213	0x3c7b1385	0.015324478
214	0xbe628821	-0.22122242
215	0x3e16e7c5	0.1473685
216	0x3dce557d	0.10074899
217	0x3eb3219c	0.3498658
218	0xbe26f47b	-0.163042
219	0x3d1c7d1f	0.038205262
220	0xbdeb4cb9	-0.11489243
221	0xbd7e5ebf	-0.062102076
222	0xbce423ac	-0.02784904
223	0xbe587adf	-0.21140622
224	0x3cf4ce0a	0.029883403
225	0x3df75a8a	0.12077816
226	0x3daa0c94	0.0830318
227	0xbe3b242d	-0.18275519
228	0xbd97b883	-0.0740824
229	0xbcf8d24b	-0.030373713
230	0xbe49c76f	-0.19704984
231	0x3dec83d3	0.11548581
232	0xbb687e9c	-0.0035475856
233	0xbe8f6e87	-0.28014013
234	0xbcc28c5b	-0.023748567
235	0x3e13aec0	0.1442213
236	0x3dbd1c9d	0.09233973
237	0xbe8a5b51	-0.27022794
238	0x3d1d5f60	0.038421035
239	0x39988657	0.0002909179
240	0xbe61f0ee	-0.22064564
241	0x3d9e853d	0.07740257
242	0x3e6021f0	0.21887946
243	0xbddea4db	-0.108712874
244	0x3ca5bb1f	0.020230828
245	0x3da2f481	0.07956792
246	0x3e532a1b	0.2062153
247	0xbe563b53	-0.20921068
248	0x3e13b284	0.14423567
249	0x3d96cb8d	0.07363043
250	0xbe48d8a6	-0.19613895
251	0x3e98ec41	0.29867747
252	0x3ceacd85	0.028662452
253	0xbdd3d208	-0.10342795
254	0xbe52ca11	-0.20584895
255	0x3e4f32ba	0.20234194

linear_final.bias f4 [5]
0	0xbce377c3	-0.027767068
1	0x3d36c682	0.044622906
2	0xbed94451	-0.42434934
3	0xbf7433c1	-0.9539147
4	0x3ac8c6c7	0.0015318029
