results2_checkpoint/hotel/val_best.pth (torch_old, 55823 bytes, 10 tensors)

gcn.gc1.weight f4 [2, 2]
0	0x3b295bf2	0.0025842157
1	0xbd55a200	-0.05215645
2	0xbd33d345	-0.043902654
3	0x3c458181	0.012054802

gcn.gc1.bias f4 [2]
0	0xbd4ee612	-0.05051238
1	0x3d44111d	0.047867883

grucell.weight_ih f4 [192, 2]
0	0xbde0373b	-0.109480344
1	0x3d391004	0.04518129
2	0xbd21980f	-0.039451655
3	0xbddb912d	-0.107210495
4	0xbd6ef43f	-0.0583384
5	0xbdcbb74e	-0.09947072
6	0x3deaadc8	0.114589274
7	0x3cd21c9c	0.025648408
8	0xbcd6aed7	-0.026206417
9	0xbc881a21	-0.016614022
10	0xbceafdb8	-0.028685436
11	0xbd0a2e1e	-0.033735387
12	0xbd9717e9	-0.073776074
13	0x3d5b4991	0.053536955
14	0xbd0971dd	-0.033555854
15	0x3d4441a0	0.047914147
16	0xbddbb2b1	-0.10727442
17	0xbd0db76a	-0.034598745
18	0xbdb94d1e	-0.09047912
19	0x3dd41a7d	0.10356615
20	0xbc2c355d	-0.01051077
21	0xbdc39ddd	-0.095515944
22	0xbda2498c	-0.07924184
23	0xbcde1c10	-0.02711299
24	0xbda03403	-0.078224204
25	0xbced863b	-0.02899467
26	0x3d850405	0.06494907
27	0x3c075eb5	0.008262326
28	0xbcfd7c07	-0.03094293
29	0xbd936906	-0.07197766
30	0xbda21bd5	-0.07915465
31	0x3deb3fd2	0.11486782
32	0xbd39c108	-0.045350105
33	0xbb8608f2	-0.004090422
34	0xbdc44842	-0.095840946
35	0xbdd3e088	-0.1034556
36	0xbd16554a	-0.03670243
37	0x3d88a092	0.06671251
38	0xbd9b6885	-0.07588295
39	0xbd1b73d6	-0.037952267
40	0x3d23df1e	0.040007703
41	0x3cc64733	0.024203872
42	0x3d59333c	0.053027377
43	0x3dc60edd	0.09670804
44	0xbd8b2431	-0.06794012
45	0xbdd235a9	-0.10264141
46	0x3d17c697	0.037054624
47	0xbd2ec4f7	-0.04266831
48	0xbb13209f	-0.0022449864
49	0x3d41220d	0.047151614
50	0x3bd43dfa	0.0064771147
51	0xbd242a59	-0.04007945
52	0x3cd8c4c7	0.026461018
53	0x3dfade9f	0.12249493
54	0x3d914726	0.070936486
55	0x3dbb5347	0.09146743
56	0xbc0b04cc	-0.00848503
57	0x3ddc444b	0.10755213
58	0x3df59236	0.11990778
59	0x3bbcc76c	0.0057610776
60	0xbcdbdc51	-0.026838453
61	0xbddfb688	-0.10923487
62	0x3d059c77	0.03261992
63	0xbc9f66f9	-0.01945828
64	0xbc5fb390	-0.013653651
65	0xbd35e917	-0.044411745
66	0x3def738a	0.11691959
67	0xbd7e837b	-0.06213711
68	0xbd20395d	-0.039117206
69	0xbdd51dc1	-0.10406066
70	0x3dd4a339	0.10382695
71	0xbcc5cafc	-0.024144642
72	0xbd584f2f	-0.05280989
73	0x3cd45286	0.025918256
74	0xbd2eb3aa	-0.04265181
75	0xbd573838	-0.05254385
76	0x39d5d8b4	0.00040787982
77	0x3d2a9f9b	0.041656118
78	0x3d70505e	0.058670394
79	0x3de37cd9	0.11107797
80	0x3d43157f	0.047627922
81	0x3d182b3f	0.037150618
82	0x3dec93f3	0.115516566
83	0x3da5b600	0.08091354
84	0x3dd5af51	0.104338296
85	0x3c710d43	0.0147126345
86	0xbd60e016	-0.054901205
87	0xbc661efe	-0.014045475
88	0x3d011a80	0.031519413
89	0x3dca7e1f	0.09887337
90	0x3bef97d8	0.0073118024
91	0xbcc94a8c	-0.02457168
92	0xbdd3fc01	-0.103508
93	0xbcf8a4a7	-0.03035195
94	0xbd8bfe99	-0.0683567
95	0x3dcec8ba	0.10096879
96	0xbdf3c2ce	-0.119023904
97	0xbdd46cc7	-0.1037231
98	0x3dbac51d	0.091196276
99	0xbcf4e8d9	-0.029896187
100	0x3d5b1b77	0.05349299
101	0x3c782326	0.015145099
102	0xbd937689	-0.07200343
103	0xbd9b456f	-0.07581603
104	0x3d885506	0.06656842
105	0x3d230628	0.039800793
106	0x3dfe567a	0.12418838
107	0x3dee9e9a	0.116513446
108	0xbd9f4890	-0.07777512
109	0x3d9b74cb	0.07590636
110	0xbc4b841a	-0.012421632
111	0xbd7cc644	-0.06171252
112	0xbd9aeceb	-0.0756472
113	0xbdac512c	-0.0841392
114	0xbd8c4373	-0.068488024
115	0xbd12bea0	-0.035826325
116	0xbda71a0c	-0.08159265
117	0x3df24e6e	0.118313655
118	0x3c23c85d	0.009996501
119	0xbdbba381	-0.09162045
120	0xbd66e8eb	-0.05637447
121	0x3cd0e7a4	0.02550108
122	0x3dfcf7fb	0.12351986
123	0xbd4f6e37	-0.05064222
124	0xbdd9b134	-0.10629502
125	0x3bf85e0b	0.00757957
126	0x3d0559d0	0.032556355
127	0x3de87e65	0.11352233
128	0xbb5b0fab	-0.0033426087
129	0xb9988289	-0.00029088955
130	0xbb98ca4d	-0.004662788
131	0xbc912e0d	-0.017722154
132	0x3d533c2a	0.05157105
133	0xbdefa578	-0.117014825
134	0xbc6263ec	-0.013817769
135	0xbdd0d088	-0.10196024
136	0xbd260e32	-0.04054088
137	0x3daac223	0.0833781
138	0xbd940368	-0.07227212
139	0x3da8ce75	0.082425036
140	0x3dafee45	0.08590368
141	0xbcf39605	-0.02973462
142	0xbda75634	-0.08170739
143	0x3d9cdedb	0.07659694
144	0x3d5d9211	0.054094378
145	0x3d4de48d	0.05026679
146	0xbd93a700	-0.07209587
147	0x3dc75886	0.097336814
148	0xbc4f1afe	-0.012640713
149	0xbdf4efb5	-0.11959783
150	0x3df32fc2	0.118743435
151	0x3dde5a11	0.108570226
152	0x3b46faa4	0.0030361796
153	0xbd81244a	-0.0630575
154	0xbd283bdc	-0.04107271
155	0x3d275f00	0.040862083
156	0xbd0aecc2	-0.033917196
157	0x3dcd3680	0.10020161
158	0xbda8e77e	-0.08247279
159	0xbdf9787f	-0.12181186
160	0xbc4dd733	-0.0125635145
161	0x3d897368	0.06711465
162	0xbc3c6985	-0.011499767
163	0xbdb9863a	-0.09058805
164	0xbc75cabd	-0.01500195
165	0xbdf8d9a2	-0.12150885
166	0x3d11955b	0.035542827
167	0xbb520485	-0.003204615
168	0x3d9fcad3	0.078023575
169	0xbded6523	-0.11591556
170	0x3c57defa	0.01317572
171	0x3d89e6c2	0.06733467
172	0x3d59a460	0.053135276
173	0x3b926516	0.004467617
174	0xbd9a9e16	-0.07549684
175	0xbbb1ba55	-0.005423824
176	0xbbc77e7d	-0.0060880766
177	0x3b2917f0	0.0025801621
178	0x3d8af0a1	0.067841776
179	0x3de9487e	0.1139078
180	0xbdd04a10	-0.10170376
181	0x3ca74e7b	0.020423165
182	0x3b4a7074	0.0030889781
183	0x3be97722	0.0071247974
184	0x3d15def6	0.036589585
185	0x3de83e1e	0.11339973
186	0x3d51ab95	0.051189024
187	0xbca87d7e	-0.020567652
188	0xbd5d78e2	-0.05407036
189	0x3d9bfa4f	0.07616102
190	0x3d58ad6c	0.052899763
191	0x3dc0655e	0.09394334
192	0xbd9275e4	-0.07151392
193	0xbd79bb53	-0.060969662
194	0x3d97e84b	0.07417353
195	0x3d00d253	0.03145058
196	0xbb933672	-0.0044925744
197	0xbd99df65	-0.07513312
198	0xbbfcdc9e	-0.0077167293
199	0xbda42af0	-0.08016002
200	0xbd5174dd	-0.05113684
201	0xbdeb3e61	-0.11486507
202	0xba85d644	-0.0010210951
203	0x3d08d4c3	0.03340603
204	0xbd0a9c39	-0.03384039
205	0xbc989102	-0.018623833
206	0xbd34c510	-0.044133246
207	0x3d1060c8	0.035248548
208	0xbd613fc9	-0.05499247
209	0xbd9b02e4	-0.07568911
210	0xbde3d9f3	-0.11125555
211	0x3d5ce621	0.053930406
212	0xbd3124f3	-0.04324813
213	0x3d84b536	0.06479876
214	0x3d34dc48	0.04415539
215	0x3db68126	0.08911352
216	0xbdb72d26	-0.08944158
217	0xbda484da	-0.08033152
218	0xbcd67727	-0.026179863
219	0x3d5c6e24	0.053815976
220	0xbde4c0f3	-0.11169615
221	0xbd876ace	-0.06612168
222	0x3d26be22	0.04070867
223	0x3cee776d	0.029109681
224	0x3dc03c23	0.0938647
225	0x3d712c68	0.05888024
226	0xbdb25b54	-0.08708826
227	0xbc1ac36e	-0.009446008
228	0xbd906155	-0.070498146
229	0x3ca39452	0.019968186
230	0x3d6df29e	0.058092706
231	0x3dffa3ff	0.12482452
232	0x3df630c1	0.12021018
233	0x3d14f359	0.036364887
234	0xbcb11419	-0.021616029
235	0xbdd3fbb6	-0.103507444
236	0xbda08e52	-0.078396454
237	0x3dada380	0.08478451
238	0x3dca7345	0.09885267
239	0x3d8e47f2	0.06947316
240	0xbc96225b	-0.018326929
241	0x3da56e5a	0.080776885
242	0xbd91023f	-0.070805065
243	0xbcf2b29b	-0.029626181
244	0x3d09e662	0.033666976
245	0x3d40eccb	0.047100823
246	0x3a4b861b	0.0007763819
247	0x3dec4190	0.115359426
248	0x3dc56c03	0.09639742
249	0x3dad1290	0.08450806
250	0x3c7ee37d	0.015557167
251	0x3dadc5b4	0.084849745
252	0xbd9c7c56	-0.07640903
253	0xbd19b298	-0.037523836
254	0xbd2473e3	-0.04014958
255	0xbdca8c65	-0.098900594

grucell.weight_hh f4 [192, 64]
0	0xbcbfed02	-0.023428444
1	0xba80fc1a	-0.0009840757
2	0xbd2c7782	-0.04210616
3	0x3d141c14	0.03615959
4	0x3d88fdd6	0.0668904
5	0x3cc6c4a3	0.024263686
6	0xbcd5a5a2	-0.026079956
7	0xbd02712a	-0.031846203
8	0xbb53af87	-0.0032300667
9	0x3d42810e	0.047486357
10	0xbd24b81c	-0.040214643
11	0x3dccfc55	0.10009066
12	0x3df70db8	0.120631635
13	0x3cc38369	0.023866372
14	0x3b45f86d	0.0030207888
15	0xbdf1a224	-0.11798504
16	0x3d973ef3	0.073850535
17	0xbdbc820a	-0.092044905
18	0xbc143417	-0.009045622
19	0xbdaf6019	-0.08563251
20	0xbdea5263	-0.11441495
21	0x3d23e08d	0.04000907
22	0xbdba68ea	-0.09102042
23	0x3b0b4600	0.002125144
24	0x3da1ec68	0.07906419
25	0xbd8bffce	-0.068359
26	0xbd9963a2	-0.074897066
27	0xbdd7abe1	-0.1053083
28	0xbcc2c424	-0.023775168
29	0x3dbf974f	0.09355032
30	0xbcba8105	-0.0227666
31	0xbd961424	-0.0732806
32	0xbd1d5965	-0.03841533
33	0xbbf7eedb	-0.0075663156
34	0xbdac79f8	-0.08421701
35	0xbcc95770	-0.024577826
36	0x3c1613dc	0.009160008
37	0x3d74f3f7	0.059802976
38	0x3dc4ba61	0.096058615
39	0x3d8e92ad	0.0696157
40	0x3b8d7419	0.0043168184
41	0x3d30ae54	0.043135002
42	0x3dbe1a01	0.092823036
43	0xbd8fcdd9	-0.07021684
44	0xbd10c581	-0.035344604
45	0x3c1be75b	0.009515609
46	0x3d3875ae	0.045034103
47	0x3df44dfe	0.11928938
48	0x3cbcde88	0.02305533
49	0x3d6826cf	0.056677636
50	0xbd32abd9	-0.043620918
51	0xbd920335	-0.07129518
52	0x3ccea5ea	0.025225598
53	0x3dd5c4c0	0.10437918
54	0xbcf3cc16	-0.029760402
55	0xbd8d94d3	-0.069131516
56	0xbce152cd	-0.027505303
57	0xbd4a0daa	-0.049329437
58	0x3dbb1266	0.091343686
59	0xbcb70909	-0.022343175
60	0xbd292783	-0.041297447
61	0x3d31972d	0.043357063
62	0xbd04832b	-0.032351654
63	0x3d9964b9	0.074899144
64	0x3c5c5dff	0.013450145
65	0x3de09377	0.10965627
66	0xbd62d597	-0.055379476
67	0x3d371752	0.044699974
68	0xbdc2a716	-0.09504525
69	0xbd00478f	-0.031318244
70	0x3d4a987d	0.04946183
71	0x3dc847e4	0.09779337
72	0xbd05e183	-0.032685768
73	0x3dd19d6e	0.102351055
74	0x3d8120ec	0.063051075
75	0xbce964af	-0.028490392
76	0x3d3be14d	0.04586916
77	0x3d23d9d0	0.040002644
78	0x3dd7ebf1	0.10543049
79	0x3b3af8ad	0.002852957
80	0xbcd6e1ce	-0.026230719
81	0x3c100b34	0.0087917335
82	0xbcac2e73	-0.021018242
83	0xbdc524bb	-0.096261464
84	0x3dd1b64a	0.10239847
85	0xbd96eb3d	-0.07369087
86	0xbd17e55e	-0.037083976
87	0xbd9242e7	-0.07141667
88	0xbd9298c2	-0.071580425
89	0x3cd98134	0.026550867
90	0xbd9573a1	-0.07297445
91	0x3d97ed35	0.074182905
92	0x3c273a78	0.010206811
93	0xbce58992	-0.0280197
94	0xbd808544	-0.062754184
95	0x3cf6a4db	0.030107906
96	0xbdae9cf6	-0.08526032
97	0x3dbb0c7a	0.09133239
98	0x3dbfad25	0.093591966
99	0xbdcab2b9	-0.0989737
100	0x3dc7fa4f	0.097645395
101	0xbdb2afc1	-0.08724929
102	0x3d891f11	0.066953786
103	0xbd312e2c	-0.043256924
104	0xbd97f2ec	-0.074193805
105	0x3d01d6ae	0.031698875
106	0xbbfd9007	-0.0077381167
107	0xbdf65a9f	-0.12029003
108	0x3dfab03a	0.12240644
109	0x3d4f2902	0.050576217
110	0xbdbdd4dc	-0.09269115
111	0x3dcc7ea2	0.09985091
112	0xbd7c1322	-0.061541684
113	0xbbd07187	-0.0063611898
114	0x3c9a7181	0.018852951
115	0xbcd0adb6	-0.025473457
116	0x3d89c90a	0.06727798
117	0x3c73cee0	0.014880866
118	0x3c25ac56	0.010111889
119	0x3d427a2d	0.047479797
120	0xbcebb45b	-0.028772524
121	0xbd39a0b4	-0.045319274
122	0x3d6caa7d	0.057779778
123	0xbc0a97e2	-0.008459063
124	0x3d275bc4	0.040859
125	0x3b8be55c	0.004269285
126	0xbd8b70f5	-0.06808654
127	0xbdcd8d9a	-0.10036774
128	0xba839099	-0.00100376
129	0xbdb6c714	-0.0892469
130	0xbdd54710	-0.10413945
131	0xbd6f9601	-0.058492664
132	0xbdb5906f	-0.08865439
133	0x3de5ed26	0.11226873
134	0x3d1bcb27	0.038035538
135	0x3c884928	0.016636446
136	0xbdcb02f8	-0.099126756
137	0xbd8c474a	-0.06849535
138	0x3d2e6c40	0.042583704
139	0xbd7a0d77	-0.061047997
140	0x3cc00149	0.023438113
141	0xbdfb1e43	-0.12261631
142	0x3d03e7c6	0.03220346
143	0x3d46a70f	0.048499163
144	0xbda250ac	-0.07925543
145	0x3d3e35b9	0.046437953
146	0x3db85897	0.09001272
147	0xbcebd8d2	-0.028789911
148	0xbd9af259	-0.075657554
149	0x3d445744	0.047934785
150	0xbd5c306d	-0.05375712
151	0xbce9a5b7	-0.028521402
152	0x3da8562c	0.08219561
153	0x3dfc426a	0.12317355
154	0x3dbc15d8	0.09183854
155	0x3cd1ae6d	0.025595868
156	0xbd9abb73	-0.07555284
157	0x3b4501b2	0.0030060825
158	0x3d92c80d	0.07167063
159	0x3c58eb3b	0.013239677
160	0x3d257170	0.040391386
161	0xbc65e21a	-0.014030958
162	0x3c9d0508	0.019167438
163	0x3ba528fa	0.005040285
164	0xbc9e4bc1	-0.019323232
165	0xbd5f4e46	-0.054518007
166	0xbdd06160	-0.10174823
167	0xbc528994	-0.012850184
168	0xbc1b0116	-0.009460708
169	0xbd8e2de7	-0.06942349
170	0xbd0b5064	-0.034012213
171	0x3dd0cbce	0.10195123
172	0xbd4ea040	-0.050445795
173	0x3d60a389	0.05484346
174	0x3de75dfd	0.11297224
175	0x3d31b977	0.043389764
176	0x3ca85f59	0.020553278
177	0x3dccea49	0.10005624
178	0xbdceb6a9	-0.100934334
179	0xbd900985	-0.07033066
180	0x3ca43df9	0.020049082
181	0x3d84d768	0.06486398
182	0x3c081f5c	0.008308258
183	0x3d4c395f	0.0498594
184	0x3d4bb1be	0.049730055
185	0xbd0d643e	-0.034519427
186	0xbd890895	-0.0669109
187	0xbd538bb9	-0.05164692
188	0xbdc2beb3	-0.09509029
189	0xbd4ae5f3	-0.049535703
190	0x3dc735ee	0.09727083
191	0x3d7ad096	0.06123408
192	0xbdb9be5c	-0.09069511
193	0x3dbb6a06	0.09151082
194	0xbda5b072	-0.08090295
195	0x3de66427	0.11249571
196	0xbd1fcf2b	-0.03901593
197	0xbd8c94a0	-0.068642855
198	0xbd8168ef	-0.063188426
199	0x3da8d635	0.08243982
200	0x3df65cb3	0.120294
201	0x3d2efa84	0.04271938
202	0xbd4bbcbe	-0.049740545
203	0x3cc543f1	0.024080249
204	0x3d35bfab	0.044372242
205	0x3d6df279	0.058092568
206	0x3c2e53d4	0.010640103
207	0xbd860be0	-0.06545234
208	0x3d06cedd	0.032912124
209	0xbdef0518	-0.116708934
210	0xbd955c3d	-0.07292984
211	0xbacc8648	-0.0015603984
212	0xbddfbfa5	-0.10925225
213	0xbbcbfb76	-0.006225045
214	0x3decd820	0.1156466
215	0xbd5bbf77	-0.053649392
216	0xbd715459	-0.05891833
217	0xbdf00f69	-0.11721689
218	0x3da05d01	0.07830239
219	0xbdc2bc8c	-0.09508619
220	0xbbe23908	-0.0069037713
221	0x3b92b4c3	0.004477115
222	0xbdbb8d5d	-0.09157822
223	0x3dacc46d	0.08435903
224	0x3ded4407	0.11585241
225	0xbd4dac68	-0.050213248
226	0x3d9a234c	0.075262636
227	0xbbfc90e6	-0.007707703
228	0xbc833b45	-0.016019473
229	0x3df6051c	0.12012693
230	0x3de45bac	0.111502975
231	0x3df2a01a	0.11846943
232	0xbdf7d096	-0.121003315
233	0x3ddc0ee3	0.10745027
234	0x3df9dec6	0.12200694
235	0xbda8af97	-0.08236616
236	0xbdc9b8e5	-0.09849719
237	0x3db97459	0.09055395
238	0xbce4ce03	-0.027930265
239	0x3d4d4708	0.05011657
240	0xbdefb1da	-0.11703844
241	0x3de2c47a	0.11072631
242	0xbd7f9c6e	-0.062405042
243	0xbd840e0a	-0.0644799
244	0xbd21d018	-0.039505094
245	0xbd889055	-0.06668154
246	0xbb9a6d04	-0.0047127027
247	0xbd8a521c	-0.06753942
248	0xbd911929	-0.07084877
249	0x3da0f42c	0.07859072
250	0xbc6bf43c	-0.014401492
251	0xbdf9be96	-0.121945545
252	0x3c28f1ed	0.010311586
253	0x3d26fe53	0.040769886
254	0x3dbfd530	0.09366834
255	0x3dfa7e97	0.12231176

grucell.bias_ih f4 [192]
0	0xbdea67ce	-0.114455804
1	0x3dced31f	0.10098862
2	0xbdfb86d9	-0.122815795
3	0x3d4340da	0.04766927
4	0x3c8898bc	0.016674392
5	0xbd2327ff	-0.039833065
6	0x3de85ba6	0.113456056
7	0x3d50f34c	0.051013276
8	0xbdfb8222	-0.1228068
9	0xbd2abcb4	-0.041683868
10	0x3d084550	0.033269227
11	0x3b44487f	0.0029950438
12	0xbd799ca1	-0.06094039
13	0xbdbcc2bd	-0.09216831
14	0xbd7dc4f8	-0.061955422
15	0x3df7c137	0.120974
16	0x3dbbf6c9	0.0917793
17	0x3d76ca13	0.060251307
18	0x3df81ea6	0.12115221
19	0xbd369b55	-0.04458173
20	0x3db983d3	0.090583466
21	0x3dc4213e	0.09576653
22	0xbdc8da68	-0.09807283
23	0x3ced91de	0.029000219
24	0x3de7e1ed	0.11322389
25	0x3cf6caa6	0.030125927
26	0xbdea60fa	-0.11444278
27	0x3d1aa1c0	0.037751913
28	0xbddf199c	-0.108935565
29	0xbcb509d0	-0.022099406
30	0x3da23709	0.079206534
31	0xbdc4ff84	-0.09619048
32	0xbd38fe9c	-0.04516469
33	0x3d561d75	0.052274186
34	0xbd237274	-0.039904073
35	0xbdac14a4	-0.084023744
36	0x3dbdd9b9	0.09270043
37	0xbcebfab2	-0.028806064
38	0xbc3fa0a2	-0.011696013
39	0xbd0cfedd	-0.034422744
40	0x3dbc5ae0	0.091970205
41	0xbd8cd14c	-0.06875858
42	0x3de83328	0.11337882
43	0xbdb4d4ec	-0.08829674
44	0x3d85dbbb	0.06536051
45	0x3da2d464	0.079506665
46	0x3d75ca08	0.060007125
47	0xbd14699f	-0.03623354
48	0xbd377af3	-0.044794988
49	0xbd70bd70	-0.05877441
50	0xbcd1983d	-0.025585288
51	0xbd9de75b	-0.07710143
52	0xbd2d8427	-0.04236236
53	0xbda7e46d	-0.08197866
54	0x3d9b6ef5	0.07589523
55	0xbd81b3a3	-0.06333091
56	0xbc2adf02	-0.010429146
57	0x3d8c56c1	0.068524845
58	0x3bfccd48	0.007714901
59	0x3d8aa7d9	0.06770296
60	0x3da99ad3	0.082814835
61	0x3dbfe4b3	0.09369793
62	0xbd5bf469	-0.053699885
63	0xbd0893c9	-0.033344064
64	0x3c8971f9	0.01677798
65	0x3da8e806	0.0824738
66	0x3b9cbbe3	0.00478314
67	0xbddbe4cc	-0.10736999
68	0x3db477c5	0.08811907
69	0x3d3503ff	0.044193264
70	0xbc5b83e5	-0.013398145
71	0xbdb038cc	-0.08604583
72	0xbde43c42	-0.11144306
73	0x3defe53c	0.11713645
74	0x3dfce925	0.12349156
75	0xbdce1a5f	-0.10063624
76	0x3d63b8c3	0.055596124
77	0x3d8ee3f7	0.069770746
78	0xbd87b171	-0.06625641
79	0x3d3fa16f	0.046784814
80	0xbbe391cb	-0.00694487
81	0x3db5ae28	0.08871108
82	0x3dfa9e31	0.12237204
83	0x3d8ad4c6	0.067788646
84	0xbc8f1167	-0.017464353
85	0xbd8db8be	-0.069200024
86	0x3ca145b8	0.019686565
87	0x3bb2569b	0.005442453
88	0x3c555cd5	0.013022621
89	0x3d9249f8	0.07143015
90	0xbd9ee41e	-0.07758354
91	0x3d6b2d42	0.057416208
92	0x3bdc2eff	0.0067194696
93	0xbdcc2a91	-0.099690564
94	0xbdc13d13	-0.09435477
95	0xbded214c	-0.115786165
96	0xbdf21765	-0.118208684
97	0xbd1b4323	-0.037905823
98	0x3d5a749f	0.053333875
99	0x3d62d97f	0.0553832
100	0xbdb48fa6	-0.08816461
101	0x3d2a3b96	0.04156073
102	0xbca51c82	-0.020155195
103	0x3d42f39c	0.047595605
104	0x3ddadb19	0.10686321
105	0xbdab3db9	-0.08361382
106	0xbdd2b24f	-0.10287916
107	0x3c9fac7a	0.019491423
108	0x3ce97bd4	0.028501429
109	0xbb2c9ace	-0.0026337388
110	0xbde7306d	-0.11288533
111	0x3df39936	0.11894457
112	0xbcbc1214	-0.02295784
113	0x3dbd9fd5	0.09259001
114	0xbd7cd1b2	-0.06172342
115	0xbdbc5fd8	-0.09197968
116	0xbd092e39	-0.033491347
117	0x3c880cf4	0.016607739
118	0x3db2935c	0.08719513
119	0xbdef17a4	-0.11674431
120	0x3d68ab85	0.0568042
121	0x3d188f5c	0.037246093
122	0x3caace7b	0.02085041
123	0x3db8b244	0.090183765
124	0x3c4e9092	0.01260771
125	0xbc40d9de	-0.011770694
126	0xbb1de249	-0.0024091175
127	0x3daab05b	0.083344184
128	0xbd7c8c26	-0.061657093
129	0x3cd22828	0.025653914
130	0x3d8eaf5d	0.06967042
131	0x3e771fa8	0.2413317
132	0xbd66682b	-0.056251686
133	0xbd278a8b	-0.04090361
134	0x3e15e4fb	0.1463813
135	0x3c9a7b6f	0.018857686
136	0xbdb85c86	-0.090020224
137	0xbe15c0da	-0.14624348
138	0xbdcee5db	-0.10102435
139	0xbdcca9e4	-0.099933416
140	0x3e09845b	0.13429396
141	0xbe3bd24d	-0.18341942
142	0xbc8b217b	-0.016983738
143	0x3dd7e3a1	0.10541464
144	0xbd1add4a	-0.037808694
145	0xbcbe094a	-0.023197789
146	0x3d4ec8d0	0.05048448
147	0x3ca13629	0.019679146
148	0x3df82174	0.12115756
149	0x3d221f61	0.039580707
150	0x3d2b9219	0.041887376
151	0xbe0a0670	-0.13479018
152	0xbe0d243a	-0.1378335
153	0xbe866ab2	-0.26253277
154	0x3e18a62d	0.14907141
155	0x3d530a53	0.051523518
156	0x3d8dd576	0.0692548
157	0xbb1b28c2	-0.0023675417
158	0x3d8d04f6	0.06885712
159	0x3df68518	0.12037104
160	0xbd7bebc0	-0.061504126
161	0xbdc13282	-0.09433462
162	0xbdb852cc	-0.09000167
163	0x3e2a18db	0.16611044
164	0x3e1122b8	0.141734
165	0xbc3dc805	-0.011583333
166	0x3d5294d9	0.051411483
167	0x3c9a48a6	0.01883347
168	0x3d0a1063	0.033707034
169	0x3e1d55d4	0.15364772
170	0x3d7a9132	0.061173625
171	0xbe0760fd	-0.13220592
172	0x3d23b315	0.039965708
173	0x3e554720	0.20827913
174	0x3d3d1def	0.046171125
175	0x3b8505a1	0.004059509
176	0x3e045a95	0.1292518
177	0x3c5b4db9	0.01338523
178	0xbe482d4e	-0.19548532
179	0x3df211e4	0.118198186
180	0xbd455412	-0.04817588
181	0xbc73a7cb	-0.014871548
182	0xbd9f8797	-0.077895336
183	0x3d648d5e	0.05579888
184	0xbc1c70d9	-0.009548389
185	0x3c9fb67f	0.0194962
186	0x3da3c9ef	0.079975
187	0xbe792896	-0.24331889
188	0xbd89a856	-0.06721561
189	0xbcb62f5a	-0.022239376
190	0x3e2bf27c	0.16791719
191	0xbe49bb8d	-0.19700451

grucell.bias_hh f4 [192]
0	0x3d90b70e	0.07066165
1	0x3dab38b5	0.083604254
2	0xbdf645c7	-0.12025028
3	0xbdcc3336	-0.09970705
4	0x3dbda802	0.092605606
5	0x3d88908c	0.06668195
6	0x3d5e6a4e	0.0543006
7	0xbdb7e210	-0.08978665
8	0x3cba0aa8	0.02271016
9	0x3da15e18	0.07879275
10	0x3dd6bfbc	0.10485789
11	0xbdc683b4	-0.09693089
12	0xbd150825	-0.03638472
13	0x3dc2e59f	0.09516453
14	0xbdbbcc21	-0.09169794
15	0xbd2aeeff	-0.04173183
16	0x3dacd1b3	0.084384345
17	0xbcc49bdc	-0.0240001
18	0xbdb4f8d8	-0.08836526
19	0x3db645a8	0.089000046
20	0xbb2449e1	-0.002506845
21	0xbcf6b355	-0.030114809
22	0x3d3b5afe	0.045741074
23	0x3d93c00f	0.07214367
24	0xbdcf2dc9	-0.10116155
25	0xbde403c6	-0.11133532
26	0x3cf1339f	0.02944356
27	0xbd2887f8	-0.041145295
28	0xbd6f5611	-0.05843169
29	0x3d6ae1df	0.057344314
30	0xbdc64ac7	-0.096822314
31	0x3dfd5e96	0.123715565
32	0xbd980605	-0.07423023
33	0x3df17812	0.1179048
34	0xbda46a24	-0.08028057
35	0x3de7df46	0.11321883
36	0x3c2c5278	0.010517709
37	0xbdfd7c66	-0.12377243
38	0x3e023420	0.12715197
39	0x3df0edb7	0.117640905
40	0xba047db4	-0.00050541316
41	0x3df81170	0.12112701
42	0xbdc7d3a2	-0.09757163
43	0xbcb0972c	-0.02155646
44	0x3daeb44d	0.085304834
45	0x3dc3fb82	0.09569456
46	0x3d464428	0.048404843
47	0xbd8d4cf2	-0.06899442
48	0x3d4c6161	0.049897555
49	0xbc8bb6d4	-0.017054953
50	0x3dac29ae	0.08406387
51	0x3dca9c59	0.09893102
52	0xbd8b769f	-0.068097346
53	0x3d5ec41c	0.054386243
54	0xbcb91570	-0.02259323
55	0x3d886018	0.066589534
56	0xbd9eb3b5	-0.0774912
57	0x3d461dc4	0.04836823
58	0xbd6985b1	-0.057012264
59	0xbd647728	-0.0557777
60	0xbd8f3c53	-0.06993928
61	0xbdb305c7	-0.08741336
62	0x3dfac695	0.12244908
63	0xbd34ad5d	-0.044110645
64	0xbda21a5a	-0.079151824
65	0x3d0326e2	0.032019503
66	0xbd69b819	-0.057060335
67	0x3d817c20	0.06322503
68	0x3ddfbc31	0.109245665
69	0x3db657cf	0.08903467
70	0x3dced8ac	0.10099921
71	0x3c128da9	0.008944907
72	0x3dcf5acc	0.1012474
73	0x3cf3c87c	0.029758684
74	0x3dc51db5	0.09624807
75	0x3ded331d	0.11582015
76	0x3d6566ff	0.056006428
77	0xbd395667	-0.045248415
78	0xbccfaa3d	-0.02534973
79	0xbd8df64a	-0.069317415
80	0x3bc7b295	0.0060942867
81	0x3de0fa2e	0.10985218
82	0x3ce4a75e	0.027911838
83	0xbd9bb8d0	-0.076036096
84	0x3d25cdf5	0.04047962
85	0xbdecd27c	-0.11563584
86	0x3ce76660	0.028247058
87	0xbdd866a7	-0.105664544
88	0xbd847c69	-0.06469042
89	0xbc15b3d8	-0.009137116
90	0xbd9bc700	-0.076063156
91	0xbd04bbe6	-0.032405756
92	0x3dc38f3b	0.095488034
93	0x3d14b6cd	0.036307145
94	0x3d0e203f	0.03469872
95	0xbccc36fa	-0.024928559
96	0x3da18c8d	0.07888136
97	0x3d6c0ac1	0.057627443
98	0xbde5526e	-0.11197363
99	0xbd9796d8	-0.07401818
100	0xbdc85460	-0.09781718
101	0xbdfc5705	-0.12321285
102	0x3d47a79a	0.04874382
103	0xbc1c60b3	-0.009544539
104	0xbd0d8fc3	-0.03456093
105	0x3bb9df78	0.0056723915
106	0x3d062dd4	0.03275855
107	0x3d1510f2	0.036393113
108	0xbd8dfd87	-0.06933122
109	0xbd94eca0	-0.07271695
110	0x3de7f075	0.113251604
111	0xbc14b4c4	-0.009076301
112	0xbde6c75b	-0.11268493
113	0xbde4b1b1	-0.111667044
114	0x3def6c7f	0.11690616
115	0x3c8606ec	0.016360722
116	0xbdc704ab	-0.09717687
117	0xbd54e33d	-0.051974524
118	0x3d9d37d0	0.07676661
119	0xbd5e862c	-0.054327175
120	0xbdda8dce	-0.10671578
121	0x3d99e566	0.075144574
122	0x3de6a09c	0.112611026
123	0xbd7e9dd8	-0.06216225
124	0x3da81d04	0.08208659
125	0x3deea9cb	0.11653479
126	0xbdda6975	-0.106646456
127	0x3dd3aed1	0.10336078
128	0x3da78b9d	0.08180926
129	0x3c8dc965	0.017307946
130	0x3d4581bf	0.04821944
131	0x3db82659	0.08991689
132	0xbd9c38d8	-0.076280296
133	0xbd9e130c	-0.07718477
134	0x3e142b3b	0.14469616
135	0x3e0d3ed3	0.13793497
136	0xbc935863	-0.017986482
137	0x3d14ca14	0.03632553
138	0xbe38d7e6	-0.18051109
139	0xbd0be7c9	-0.034156594
140	0xbd720300	-0.059084892
141	0xbe028d1d	-0.12749143
142	0xbdc8d76f	-0.09806716
143	0x3dfa35b4	0.12217274
144	0x3da09a55	0.078419365
145	0xbd267c5a	-0.040645935
146	0xbd86210a	-0.065492705
147	0xbd90c134	-0.070681006
148	0xbae89fc4	-0.0017747809
149	0xbe0132de	-0.1261706
150	0x3e145b6e	0.14488003
151	0x3dc16222	0.094425455
152	0xbd0367a4	-0.03208126
153	0xbc94b20c	-0.018151306
154	0xbd468d77	-0.048474755
155	0xbce729b3	-0.028218126
156	0x3d9bc69b	0.0760624
157	0x3cc7058a	0.024294633
158	0xbd9e87bd	-0.07740734
159	0x3d83bcf3	0.064325236
160	0x3dc8fd47	0.09813934
161	0x3cf7a442	0.030229691
162	0x3d871fec	0.065978855
163	0x3dfe6987	0.124224715
164	0xbcc8b11f	-0.02449852
165	0xbca9f68a	-0.020747442
166	0x3e1d2938	0.15347755
167	0xbe21136f	-0.1573007
168	0x3ce1c769	0.027560906
169	0x3caaa443	0.02083028
170	0xbcf7d12f	-0.030251114
171	0xbd65090b	-0.055916827
172	0xbce801f8	-0.028321251
173	0x3e394916	0.18094286
174	0xbd1b8f40	-0.03797841
175	0x3c7363a6	0.014855301
176	0x3c188ca6	0.009310877
177	0xbcd40c23	-0.025884693
178	0xbdc1d645	-0.09464697
179	0xbd475578	-0.048665494
180	0x3b1eab30	0.0024210922
181	0xbdf765a5	-0.12079934
182	0xbe3dfbf5	-0.18553145
183	0x3e13bedb	0.14428274
184	0xbddd6187	-0.108096175
185	0xbd8bea2b	-0.06831773
186	0x3d058442	0.032596834
187	0xbe384e7c	-0.1799869
188	0x3de2e810	0.11079419
189	0x3ddb2076	0.10699551
190	0xbd88a149	-0.06671388
191	0xbcf49202	-0.029854778

linear.weight f4 [2, 64]
0	0xbd7c5e85	-0.06161358
1	0x3ddc21f1	0.10748661
2	0x3daf13d0	0.08548701
3	0xbd469037	-0.048477378
4	0xbd697674	-0.05699773
5	0xbcf40a77	-0.029790146
6	0xbcab64c6	-0.020922076
7	0x3dd0294d	0.101641275
8	0xbdd61971	-0.10454071
9	0x3d6d7f96	0.057983004
10	0xbd8c6a6c	-0.06856236
11	0x3d20e04b	0.039276402
12	0x3c7c6d07	0.0154068535
13	0xbd9513a5	-0.072791375
14	0x3ccb87ec	0.024845086
15	0xbd4f7a69	-0.05065385
16	0xbdc86b49	-0.09786088
17	0xbddbebc2	-0.107383266
18	0xbd7de21c	-0.061983213
19	0xbda48595	-0.08033291
20	0x3dcdb8b7	0.10044997
21	0x3d469a9b	0.048487287
22	0xbd7f74dd	-0.06236731
23	0x3d84f13e	0.06491326
24	0xbb01408e	-0.0019722315
25	0x3d308316	0.043093763
26	0x3c713e9e	0.014724402
27	0xbdbb305c	-0.09140083
28	0xbdd4176b	-0.10356029
29	0x3bc45d90	0.005992599
30	0xbcbfafd8	-0.023399279
31	0xbd94c687	-0.072644286
32	0xbde7cf36	-0.11318819
33	0x3db65f4e	0.08904897
34	0xbdaa2765	-0.08308295
35	0xbdeaf8d3	-0.11473241
36	0xbdd7bc6a	-0.10533984
37	0x3df4c2ae	0.11951195
38	0xbdd9d7dc	-0.10636875
39	0x3d8c7bb2	0.068595305
40	0x3bd107c8	0.0063791014
41	0xbd4cb8d8	-0.04998097
42	0xbb136c23	-0.0022494874
43	0xbdae54e4	-0.08512285
44	0xbc290985	-0.010317211
45	0x3c99bb65	0.018766114
46	0xbbba6369	-0.00568812
47	0x3908f91a	0.00013062768
48	0x3cf9a6a5	0.03047497
49	0x3dcd350d	0.10019884
50	0x3c887216	0.016655963
51	0x3dbb3c3a	0.09142347
52	0x3d73da21	0.059534196
53	0xbdd07928	-0.10179359
54	0x3d79e9dc	0.06101404
55	0xbdffac07	-0.124839835
56	0x3d854d0f	0.065088384
57	0x3d3cbc79	0.04607818
58	0xbc895893	-0.016765868
59	0xbdb0ba19	-0.08629245
60	0xbd6f9dcf	-0.058500107
61	0xbd9ef16a	-0.0776089
62	0xbd878c50	-0.06618559
63	0x3db5536e	0.088538036
64	0x3cc67c88	0.024229303
65	0xbd8e6dc9	-0.069545336
66	0x3dcf7787	0.1013022
67	0xbc299ae6	-0.010351872
68	0xbd3999ea	-0.0453128
69	0x3d2a16ff	0.041525837
70	0xbdb54c73	-0.08852472
71	0x3ce5a470	0.028032511
72	0x3d9267ad	0.07148681
73	0x3deccb6d	0.11562238
74	0x3c56ae5a	0.013103092
75	0x3d1b895b	0.03797279
76	0x3d1c74f1	0.03819746
77	0x3a95c3dd	0.001142617
78	0x3daa3914	0.08311668
79	0x3e001b8b	0.12510507
80	0xbe020c30	-0.12699962
81	0xbd955e7a	-0.072934106
82	0xbc30c778	-0.010789745
83	0x3d19d707	0.03755858
84	0xbdb38616	-0.08765809
85	0x3da64b50	0.081198335
86	0xbd65e075	-0.056122262
87	0x3cb1b6a9	0.021693544
88	0xbafd919d	-0.0019345764
89	0x3d8fd596	0.0702316
90	0xbdf42e00	-0.11922836
91	0xbdf16523	-0.117868684
92	0x3db4a398	0.088202655
93	0x3dccac6e	0.09993826
94	0xbdfd6acd	-0.12373886
95	0xbcf672b6	-0.030083995
96	0x3d49cf38	0.049269885
97	0xbdeffabe	-0.11717747
98	0xbc8613fd	-0.016366953
99	0x3dfab371	0.12241257
100	0xbde54c06	-0.11196141
101	0xbc0390c3	-0.008030119
102	0x3db43c63	0.0880058
103	0x3d9e04a8	0.07715732
104	0x3d095000	0.03352356
105	0x3daecc2b	0.08535036
106	0xbd54c00c	-0.051940963
107	0xbd951f62	-0.072813764
108	0xbd28f9d9	-0.0412539
109	0x3d8bbaa0	0.06822705
110	0xbbaad620	-0.005213514
111	0xbdad00e8	-0.084474385
112	0x3dfd4dbd	0.12368343
113	0xbdae9865	-0.08525161
114	0x3d5cf13e	0.053941004
115	0xbddf49fb	-0.109027825
116	0xbd3084ee	-0.04309552
117	0xbd59a0cf	-0.053131875
118	0x3df0f928	0.11766273
119	0xbbfa9630	-0.0076472983
120	0x3dba7422	0.09104182
121	0x3df24e00	0.118312836
122	0x3dda90fa	0.10672183
123	0x3c8eb8ba	0.017422069
124	0x3ddfc6aa	0.10926564
125	0xbd294f8e	-0.041335635
126	0x3d4fcb35	0.050730903
127	0x3d6eb9df	0.05828273

linear.bias f4 [2]
0	0xbdcb9322	-0.09940173
1	0x3dd98af0	0.10622203

linear_final.weight f4 [5, 64]
0	0x3dccd8ef	0.10002314
1	0xbd07a150	-0.033112824
2	0xbd9d6747	-0.07685714
3	0xbdb9bdfa	-0.09069438
4	0x3daf585d	0.08561776
5	0xbdeddc4a	-0.116142824
6	0xbd95b347	-0.07309585
7	0xbd252609	-0.040319476
8	0xbd754ddf	-0.059888717
9	0xbdc9c4de	-0.098520026
10	0x3d1f4a21	0.038889054
11	0xbd0fa653	-0.03507073
12	0x3d8102a2	0.0629933
13	0xbd5bdf88	-0.053679973
14	0xbd9ff1a5	-0.07809762
15	0xbdf3e54a	-0.11908968
16	0xbdbdd42d	-0.09268985
17	0x3d934a9b	0.07191964
18	0x3da57e10	0.08080685
19	0x3de253d2	0.11051144
20	0x3dc85786	0.09782319
21	0x3dfe09f6	0.12404244
22	0x3df4d4cf	0.119546525
23	0xbdd4d5dd	-0.10392354
24	0xbc77dddb	-0.015128578
25	0x3c69b0c8	0.014263339
26	0x3d0b44a7	0.03400102
27	0x3d545c80	0.051846027
28	0x3dd733c1	0.10507918
29	0x3cae53af	0.021280138
30	0x3b9d1acb	0.0047944537
31	0xbd591f75	-0.053008515
32	0xbd430a0d	-0.047617007
33	0xbc5ef987	-0.013609297
34	0x3cbb7cbe	0.02288663
35	0x3b82ea9e	0.0039952537
36	0xbdc63205	-0.09677509
37	0xbd15f091	-0.036606375
38	0xbd990b9c	-0.074729174
39	0x3c65301b	0.01398852
40	0xbdde3573	-0.108500384
41	0xbddd0483	-0.10791876
42	0xbdbdcc05	-0.09267429
43	0xbc821fa7	-0.015884234
44	0xbd330c7f	-0.04371309
45	0x3d7579bc	0.059930548
46	0xbd3e2acc	-0.046427533
47	0xbd5d568a	-0.05403761
48	0x3d5680c5	0.052368898
49	0x3c443598	0.011975668
50	0xbdb111cf	-0.08645975
51	0xbbb75b56	-0.005595605
52	0xbd82271e	-0.06355117
53	0x3ded8eef	0.11599528
54	0xbddb8f57	-0.10720699
55	0xbda8c1ec	-0.08240113
56	0x3d1ab381	0.037768845
57	0xbd734c4a	-0.059398927
58	0x3d77d490	0.06050545
59	0x39b220f5	0.0003397536
60	0xbda324c6	-0.07965998
61	0x3dc994dc	0.09842846
62	0xbd0ba013	-0.034088206
63	0xbdbde985	-0.09273056
64	0xbdca0390	-0.09863961
65	0x3d1ac3d2	0.037784405
66	0xbda2089a	-0.07911797
67	0x3d36adc5	0.044599313
68	0xbcbfa63e	-0.0233947
69	0xbca6bc7c	-0.020353548
70	0x3cc30ab1	0.023808809
71	0x3d103f13	0.035216402
72	0xbd1fdf6b	-0.039031427
73	0x3cd47729	0.025935726
74	0x3be0f745	0.0068654143
75	0xbd1fa902	-0.038979538
76	0x3da05d30	0.07830274
77	0x3de3665b	0.11103507
78	0xbd82bd62	-0.06383778
79	0xbd10feaf	-0.035399135
80	0x3d38c2de	0.045107715
81	0xbc8fbdae	-0.017546501
82	0xbcec537a	-0.028848398
83	0x3ce712b3	0.028207159
84	0x3d9729ab	0.073809944
85	0xbd83f19a	-0.06442566
86	0x3d7d6ab6	0.061869346
87	0x3d6f8d6e	0.058484487
88	0x3d9b03d4	0.075690895
89	0x3d1e5f40	0.038665056
90	0xbcbae084	-0.022812136
91	0x3d872675	0.06599132
92	0x39cf3da2	0.00039528037
93	0xbd0d642c	-0.03451936
94	0xbd962e40	-0.0733304
95	0x3d9f4bb7	0.07778113
96	0x3db1ff29	0.08691246
97	0xbcfd6a8f	-0.0309346
98	0x3d761a86	0.06008389
99	0x3d88a678	0.066723764
100	0xbc5c51ce	-0.013447238
101	0x3dd843a4	0.105597764
102	0xbde8ff7e	-0.11376856
103	0xbd96e4b0	-0.073678374
104	0xbd5bcc7d	-0.053661812
105	0x3bb83bcd	0.005622363
106	0xbdb31174	-0.08743563
107	0xbb8cd451	-0.004297771
108	0x3dbced88	0.09224993
109	0x3cc4725f	0.023980318
110	0x3d02c05f	0.03192174
111	0x3d4c4a00	0.04987526
112	0xbbcc2924	-0.0062304903
113	0x3d5d8694	0.05408342
114	0x3d2c603e	0.04208397
115	0x3cef77c6	0.029231917
116	0x3dd33720	0.10313249
117	0x3dcbe3e5	0.09955577
118	0x3de88d8b	0.11355122
119	0x3d7b8de3	0.06141461
120	0x3a8de8d7	0.0010826838
121	0xbaa2a842	-0.0012409764
122	0x3d7edac8	0.062220365
123	0x3d3a9d21	0.045560006
124	0xbcaa61be	-0.02079856
125	0x3db4c205	0.08826069
126	0x3d3e310e	0.0464335
127	0xbd3977a2	-0.045280106
128	0x3d96675d	0.07343934
129	0x3cf71769	0.03016253
130	0x3b14c749	0.002270179
131	0xbe6aad96	-0.2291778
132	0x3e0977fe	0.1342468
133	0xbcdb0194	-0.026734151
134	0xbddda1c6	-0.108218715
135	0xbd8ca34c	-0.06867084
136	0xbcc95032	-0.024574373
137	0x3cd677d7	0.026180191
138	0x3e1ee8f3	0.1551855
139	0x3e0cd055	0.13751347
140	0xbd7a0646	-0.06104114
141	0x3e212ddf	0.15740155
142	0x3e17feb8	0.14843261
143	0xbdb0c50c	-0.08631334
144	0xbd2aa034	-0.041656688
145	0xbca68668	-0.020327762
146	0x3ca42f55	0.0200421
147	0x3da9453b	0.08265158
148	0xbd0bee70	-0.03416294
149	0x3d960bce	0.0732647
150	0xbda16588	-0.07880694
151	0x3dc9245b	0.098213874
152	0x3dbcaf81	0.09213162
153	0x3e52c4f9	0.20582952
154	0xbdf67a92	-0.12035097
155	0xbdbca777	-0.09211629
156	0x3c92117f	0.017830608
157	0x3df06b5a	0.11739226
158	0xbdd997e8	-0.10624677
159	0xbe180e2b	-0.14849155
160	0x3daef85e	0.08543466
161	0xbd7acd31	-0.061230842
162	0x3d8827cf	0.06648218
163	0xbd2cc355	-0.04217847
164	0xbe05ebd2	-0.1307824
165	0xbcd713ae	-0.026254501
166	0xbd3506d7	-0.044195976
167	0x3d3cb22c	0.046068355
168	0x3db1b3f4	0.086769015
169	0x3d4b1919	0.049584482
170	0x3ba038eb	0.0048895977
171	0x3dc28713	0.094984196
172	0xbc0132b5	-0.007885625
173	0xbe3abaec	-0.18235368
174	0x3da60e68	0.081082165
175	0xbdd2ef0b	-0.102995
176	0x3d91bb65	0.07115821
177	0x3dbd8f7b	0.09255882
178	0x3e0fc00d	0.14038105
179	0x3d8f6394	0.07001415
180	0xbcf7872a	-0.030215818
181	0x3dc9cc61	0.09853435
182	0x3e07afb8	0.13250625
183	0xbdfb6f2c	-0.12277064
184	0x3d74315c	0.059617385
185	0xbd899400	-0.06717682
186	0x3d032b72	0.032023855
187	0x3e23d0af	0.15997575
188	0xbdab2930	-0.08357465
189	0x3d28ac09	0.04117969
190	0xbd5aba2f	-0.053400215
191	0x3e07ec3a	0.13273707
192	0x3d6dedaa	0.058087982
193	0xbdcf7959	-0.10130567
194	0xbdda1b36	-0.10649721
195	0xbe9e11b9	-0.30872896
196	0x3d079582	0.033101566
197	0x3cbf89f6	0.023381215
198	0xbe13835f	-0.14405583
199	0xbe084681	-0.13308145
200	0x3e289236	0.16462025
201	0x3e2be8b7	0.16787992
202	0x3e461298	0.1934303
203	0x3e41df75	0.18932898
204	0xbca023c0	-0.019548297
205	0x3e44d566	0.1922203
206	0xbb957ec1	-0.0045622294
207	0xbe210329	-0.15723862
208	0xbdb7ac22	-0.089683786
209	0x3d93cdba	0.072169736
210	0x3dd049bf	0.10170316
211	0x3d9e0e9e	0.07717632
212	0xbe0be91a	-0.1366314
213	0x3c816e0c	0.015799545
214	0xbe4d0788	-0.20022404
215	0x3e02668f	0.12734435
216	0x3dae7aa4	0.085194856
217	0x3e9e144b	0.30874857
218	0xbe15aa4f	-0.14615749
219	0x3d39dfa9	0.045379315
220	0xbdcd6dab	-0.10030683
221	0xbd849e55	-0.06475512
222	0xbcd7a0a7	-0.026321722
223	0xbe440625	-0.19142969
224	0x3cea82ec	0.028626882
225	0x3de31713	0.110883854
226	0x3d9a20bb	0.07525774
227	0xbe213ae3	-0.1574512
228	0xbd7a956b	-0.061177652
229	0xbcfe5113	-0.031044519
230	0xbe39101d	-0.18072553
231	0x3de21342	0.110388294
232	0xbb71d302	-0.0036899452
233	0xbe839dfc	-0.2570647
234	0xbcc153ad	-0.02359947
235	0x3e063c55	0.13108952
236	0x3dbdc786	0.09266572
237	0xbe6cc045	-0.2312022
238	0x3d257d61	0.040402774
239	0x3beab26a	0.007162382
240	0xbe4fd0ad	-0.20294447
241	0x3d9340d6	0.07190101
242	0x3e44bb99	0.19212188
243	0xbdc8b12d	-0.097994186
244	0x3c7275e8	0.014798619
245	0x3d862f56	0.06551997
246	0x3e3b7363	0.18305735
247	0xbe443060	-0.19159079
248	0x3e062dac	0.1310336
249	0x3d9f83fb	0.07788845
250	0xbe359288	-0.17731678
251	0x3e868fb8	0.26281524
252	0x3cfd0b0a	0.030889053
253	0xbdbda891	-0.09260667
254	0xbe408898	-0.18802106
255	0x3e354612	0.17702511

linear_final.bias f4 [5]
0	0xbd542b09	-0.051798854
1	0x3b888a61	0.0041668867
2	0xbeb16156	-0.34644574
3	0xbf4b9fd4	-0.79540753
4	0x3c9e6caa	0.019338924
