model_checkpoint/zara1/latest.pth (torch_old, 55823 bytes, 10 tensors)

gcn.gc1.weight f4 [2, 2]
000000 e1 ff 7e 3f 3f 03 96 3e 4f 4a fa 3e f5 50 8e bf
       0.9960919 0.29299352 0.48884818 -1.1118456

gcn.gc1.bias f4 [2]
000000 a9 6b fb 3d 17 33 5e 3e
       0.12276394 0.21699177

grucell.weight_ih f4 [192, 2]
000000 46 6e 12 3e 25 25 9a 3d 33 54 9f bd e0 1e 09 bd
       0.14299878 0.07526616 -0.077797316 -0.03347671
000010 a6 29 ad bd 90 3c 8c bd bc 60 c2 3a 83 17 5a bd
       -0.084552094 -0.06847489 0.0014829854 -0.05324508
000020 28 0c 9f be 0f 69 21 3d 4c ff 8d 3e a7 a8 e6 bd
       -0.31063962 0.039406832 0.2773384 -0.11262637
000030 7a 7e 95 be b1 72 5e be d4 85 d3 3d 0c ee d4 3d
       -0.29198056 -0.21723439 0.1032826 0.10396966
000040 43 19 34 bc 1f 32 1f 3d f7 0d 5a 3d d3 7f 8f bd
       -0.010992351 0.03886616 0.053235974 -0.070068024
000050 5f 8d 7b bd aa e5 96 bd fc 58 6e 3d 33 b9 b6 3d
       -0.06141412 -0.07368024 0.05819033 0.08922043
000060 8b 05 84 bd ae 19 83 3d 28 14 4c 3e 49 d9 bb 3b
       -0.0644637 0.064013824 0.19929564 0.0057326895
000070 af fc 26 bd ca d4 b4 3d 2c 90 52 be e5 62 3b 3d
       -0.04076832 0.08829649 -0.2056281 0.04574861
000080 c3 c5 06 bd 24 24 c8 3d dd 4e 07 3e c9 c2 9d 3d
       -0.032903444 0.09772518 0.13213678 0.07703168
000090 e2 37 41 bd 4f 29 2e be 5f d2 c8 bd 32 bf e4 3d
       -0.047172435 -0.17007945 -0.0980575 0.1116928
0000a0 3b 50 8c ba e2 6f 0a 3e cb ec 4e bd b3 51 7c 3c
       -0.0010705063 0.13519242 -0.050518792 0.015400338
0000b0 ce 19 05 3b 44 35 d7 bd 80 37 42 3e 58 e6 4e 39
       0.002030957 -0.105082065 0.18966484 0.000197315
0000c0 e9 6a 39 be 35 34 5d 3d a7 27 3f be 38 a3 04 be
       -0.18107189 0.054004867 -0.1866747 -0.12952888
0000d0 09 64 b0 3d 55 65 16 3d 5b df 57 be c6 da 8d 3d
       0.0861283 0.03671773 -0.21081297 0.06926493
0000e0 e2 26 a9 bc 37 c7 61 3d da 44 03 3e e4 48 0f 3e
       -0.020648424 0.055121627 0.12819234 0.1399265
0000f0 99 a1 2b be bf e2 7e 3d 5c 0f bf 3d 7e 6f 5c bd
       -0.16760863 0.06222796 0.093291014 -0.053817265
000100 ce 0f 49 3d 77 ec c6 b9 56 61 b5 3c ee 73 f9 3c
       0.04908734 -0.00037941683 0.02214114 0.030450787
000110 d7 db de bc 70 77 40 3b f1 82 8c 3e 1f a6 46 3d
       -0.027204437 0.0029368065 0.2744365 0.04849827
000120 82 de 26 3c 85 fa 6a 3d 6b 76 d3 bd d1 69 2f 3d
       0.010184886 0.05736782 -0.10325321 0.042825524
000130 20 3e d8 3d 52 e5 1c be 53 1e 0f 3e 01 aa fe 3d
       0.105587244 -0.15321854 0.13976412 0.124347694
000140 3b c9 c1 bc 4b 46 71 bd 7d a3 18 3e 7a c6 02 3e
       -0.023655524 -0.058904927 0.14906116 0.12771025
000150 d5 8f 03 3d 5d 7c a9 3d cf 64 db bd 7c a0 ab bd
       0.03211959 0.082756735 -0.10712587 -0.08380219
000160 c1 98 9d bd f9 74 24 bd cf 4f 5d 3c 6e 25 1a 3e
       -0.07695151 -0.040150616 0.013507797 0.15053341
000170 34 b8 83 3e 03 a8 d9 3c d4 ca a6 3d 0f 2e 03 be
       0.25726473 0.026569372 0.08144155 -0.12810539
000180 0a b0 ca bd 7c 1e 07 be 90 b1 50 3d d6 89 7e bd
       -0.09896858 -0.13195223 0.050950587 -0.06214317
000190 b6 6c 82 3d b9 95 25 be 09 7c ae bd 0f f9 26 3e
       0.06368391 -0.16170396 -0.085197516 0.16305946
0001a0 07 b0 cf bd f4 e4 ae bd 54 f9 a8 3d 82 8d aa bd
       -0.101409964 -0.08539763 0.082506806 -0.08327772
0001b0 a1 04 9a bd dd a6 4b bc b1 f1 0c 3e b8 d9 25 bd
       -0.07520414 -0.01242992 0.13764073 -0.040490836
0001c0 e1 05 23 3e 07 36 bb bd 78 ff 4a 3d 87 03 57 be
       0.15920211 -0.09141164 0.04956004 -0.2099744
0001d0 7b b7 31 3d 0e a7 ba 3c c5 df 01 3e f6 91 aa 3c
       0.04338787 0.022784736 0.12683018 0.020821553
0001e0 0d 7f 09 be 8a fe 38 be 33 c0 f7 3d 21 28 c3 3d
       -0.13427372 -0.18065849 0.12097206 0.09529138
0001f0 ae 36 94 bd b9 13 af bd 7b bd de bd c7 f6 1c 3e
       -0.07236992 -0.08548684 -0.10875984 0.15328513
000200 2e f2 be 3d 12 0f 50 3e 51 1d 2f be 48 c8 8d 3e
       0.09323536 0.20318249 -0.17101027 0.27691865
000210 b2 cd c6 3d 42 7f 27 bd 1b f5 87 3d 06 77 d8 bd
       0.09707202 -0.040892847 0.06638547 -0.10569577
000220 08 64 8e be 83 26 d0 bd 06 46 46 bd 9d fe 4e 3e
       -0.27810693 -0.101635955 -0.048406623 0.20214315
000230 2a 3e 59 3e 98 34 f4 be 55 9e 82 bd 85 eb 5b 3d
       0.2121512 -0.47696376 -0.06377856 0.053691406
000240 2d 67 8e bd 2c 20 e7 3d 9e 4d 11 be 37 9b 1a bd
       -0.06953273 0.11285433 -0.14189765 -0.03774568
000250 35 ed 9d b6 b2 23 88 3d 2a e2 3f 3e 12 0f 05 bd
       -4.706579e-06 0.06647433 0.18738618 -0.032485075
000260 81 5f 8e 3c 88 d9 9c 3e a6 92 18 bd cd 79 3d 3d
       0.017379524 0.30634713 -0.03724923 0.046258736
000270 43 03 07 3f 3c 81 77 3e fa 59 fe bd 48 bc c9 bd
       0.5273935 0.24170393 -0.124195054 -0.09850365
000280 16 d6 02 3d e9 52 cd bd 8c 1c 10 bb 07 77 18 3e
       0.03194245 -0.100255795 -0.0021989672 0.14889155
000290 d3 0f 10 be e5 29 e4 3d 0b 52 a1 be 19 0d 72 3e
       -0.14068536 0.11140803 -0.31507906 0.23637809
0002a0 28 1c 8c 3d a7 12 d7 bc 86 f8 67 3e a8 62 28 3e
       0.06841308 -0.026254011 0.22653398 0.16443884
0002b0 ea 89 e7 bd 0e e1 f2 bd 4d bc b5 3e 76 0c 52 3e
       -0.11305602 -0.11859332 0.35495225 0.20512566
0002c0 7f b0 6b bc 32 43 7c 3d 82 4e 0d be 8d 8f 87 bd
       -0.014385342 0.06158752 -0.1379948 -0.06619177
0002d0 f0 8b a8 bd 81 5e 68 bc b2 c8 53 3c 02 ba 6a bd
       -0.08229816 -0.014182688 0.012926267 -0.057306297
0002e0 fc 0c 95 bb 9c 6c 3c bd c1 6d 55 bd 00 71 84 3c
       -0.004548667 -0.046002015 -0.052106623 0.016167164
0002f0 76 57 cd 3d 08 30 94 bd af 09 4c 3e 05 e9 ff 3d
       0.100264475 -0.07235724 0.19925569 0.12495617
000300 fc e3 64 3e 49 b5 db bc 45 b8 b6 3d 01 e3 4b 3e
       0.22352594 -0.026819842 0.089218654 0.19910814
000310 5a b8 8d bc ca da 8f bd 66 4e 28 bc ff f0 f9 bc
       -0.01729982 -0.070241526 -0.010272598 -0.030510424
000320 76 a5 02 be 11 e4 14 3d 74 e9 02 3c 57 d9 91 b8
       -0.12758431 0.036350314 0.00799023 -6.9546215e-05
000330 80 43 af 3d e9 98 85 3d 55 36 87 3e 19 af 5b 3e
       0.085577965 0.06523306 0.2640864 0.21453513
000340 27 79 06 3e 7c eb 17 3e a7 5b c0 bd 11 e4 04 3e
       0.13132153 0.14835924 -0.09392481 0.12977625
000350 d5 95 5c bd e8 98 b5 bd 95 ea 87 3a 26 a9 6e 3e
       -0.05385383 -0.08867055 0.0010369594 0.23306713
000360 fc cc 82 3e 38 8a d2 bd b8 2a 7a 3e c0 c7 37 be
       0.25547016 -0.102802694 0.24430358 -0.17947292
000370 28 94 b4 bd 3e 57 3c be 8d a9 0c 3e a0 4b 89 bd
       -0.08817321 -0.18392655 0.13736553 -0.067038774
000380 38 41 24 3e 33 a6 e8 3b ac 5d a2 bc 1f 73 71 3d
       0.16040504 0.0070998906 -0.019820057 0.05894768
000390 33 38 3e 3d aa 4c 55 be ac 5f 9d 3b d2 33 e5 bc
       0.046440315 -0.20830026 0.0048026647 -0.027978811
0003a0 fb 2a 61 be 75 ef da bc 14 3a 73 3e a5 e9 72 3d
       -0.21989052 -0.02672551 0.23752624 0.059304852
0003b0 17 dc 4c 3e 35 4d ea bd 2b fe f0 3a 41 23 1d be
       0.20005833 -0.11440507 0.0018386295 -0.1534548
0003c0 12 cb 53 bd 0c 52 0c 3e ab e5 1d be f9 ee 85 bc
       -0.051707335 0.13703173 -0.15419643 -0.016349303
0003d0 15 dc b4 bc f1 f6 1a 3e 97 02 a9 bd 37 18 04 be
       -0.0220776 0.15133263 -0.08252447 -0.12899862
0003e0 58 4c 69 bd da e2 70 3d 34 43 11 3e 35 8e 57 bd
       -0.056957573 0.058810093 0.14185792 -0.052625854
0003f0 77 c5 d1 be 1b 05 17 be 9b 99 00 3f cb ef 05 3e
       -0.40970966 -0.14748041 0.50234383 0.13079755

grucell.weight_hh f4 [192, 64]
000000 f2 63 05 bd bf 9d 1f be 25 93 89 3c 3b 1e eb bd
       -0.03256602 -0.15587519 0.016793797 -0.114803754
000010 19 8c 64 3d 3f c8 04 3e 68 b8 9f bc 56 a1 7f 3d
       0.05579767 0.12967013 -0.019497111 0.06240972
000020 8f 4e b0 bd 60 1f 99 3d d9 a4 d9 bd bc a7 df 3c
       -0.08608734 0.074766874 -0.10627145 0.027301662
000030 a0 1a 3c 3d ce 80 92 bd 49 ee 9b bc 7e 25 9c 3d
       0.04592383 -0.07153474 -0.019034522 0.076243386
000040 1d 65 c5 3d d7 20 51 3c c0 8b dd bd 5b a3 3b bd
       0.096384265 0.012764177 -0.10817671 -0.045810085
000050 45 67 a3 bd 69 27 0e 39 c0 50 d8 bd 06 17 80 bd
       -0.079786815 0.00013556857 -0.10562277 -0.06254391
000060 62 c0 de 3d c1 a7 cf bd ea 00 a7 3d 8b bd 7f 3d
       0.10876538 -0.101394184 0.08154471 0.06243662
000070 d2 cc a2 ba 3c 74 0f be b6 b6 d9 3b 30 7a 9e bd
       -0.001242066 -0.14009184 0.0066440953 -0.07738149
000080 72 19 13 be dd a4 b8 3c ec b3 bb bc 02 e0 d9 3c
       -0.14365175 0.02253955 -0.022912942 0.026596073
000090 83 4a 95 bd 24 c4 0b 3d 82 23 00 3e f2 55 95 3d
       -0.072896026 0.0341226 0.12513545 0.072917834
0000a0 66 bc 7f bd 06 52 c7 3d f5 24 64 bd 57 70 8c bd
       -0.06243553 0.097324416 -0.055699307 -0.068573646
0000b0 6d 61 8e 3c e1 f5 c6 3d 77 2f 2c bd 03 99 63 bd
       0.01738044 0.097148664 -0.042037454 -0.055565845
0000c0 1f f8 11 3d 4d 61 ad 3c d1 28 20 be 81 14 ae bc
       0.035637017 0.02116456 -0.1564057 -0.021250011
0000d0 8c b4 5a bd 45 6d 06 3e b8 f8 53 bd 9c 4b ec 3c
       -0.05339484 0.1312762 -0.05175087 0.028844647
0000e0 cc bf 1c 3d ee 26 09 be 23 b5 33 3d 70 18 99 bc
       0.03826885 -0.13393757 0.043873917 -0.01868841
0000f0 70 f4 b5 bd b8 70 cf 3d d0 02 85 3d 70 cf 5b 3d
       -0.088845134 0.10128921 0.06494677 0.053664625
000100 80 7e f9 bc 91 05 fb bc af a4 26 bd 3c 5d 9f bd
       -0.030455828 -0.030642303 -0.0406844 -0.07781455
000110 42 ed c6 bd 85 96 50 3d 41 ea 3c 3d 08 1d 05 bd
       -0.09713222 0.050924797 0.04612184 -0.03249839
000120 c7 28 22 be c5 e1 a3 3d 37 31 1e bd 30 5d c1 3c
       -0.15835868 0.080020465 -0.038621154 0.023604006
000130 66 88 15 be 17 0a 06 3e 64 d6 1f 3d aa 63 87 3d
       -0.14602813 0.13089786 0.03902282 0.06610806
000140 5c f6 99 bd 79 05 e3 bd 0a af b3 bd 1d 7a 26 3d
       -0.075176924 -0.11085028 -0.087736204 0.0406438
000150 ae 47 78 3d da d0 09 3d 1e af 12 3c b0 3c 94 3a
       0.060615234 0.033646442 0.008952884 0.001130959
000160 c6 26 d0 bd ed 10 bd 3d 9d be 35 bd 3b 6f 75 bd
       -0.101636454 0.09231744 -0.044371236 -0.05992053
000170 2c cb 04 3e 81 d4 91 bd a9 f9 75 bd 0a dd 76 3b
       0.12968129 -0.0712061 -0.060052548 0.003766837
000180 44 f7 2a 3c ec 17 c4 bd 0f ae 27 bd c9 d0 70 3d
       0.010434929 -0.09574875 -0.04093748 0.058792863
000190 72 56 ae 3c 6e 9f 2f be 0b fd 25 bc 4f 11 d8 3d
       0.021281455 -0.17150661 -0.010131131 0.10550176
0001a0 e4 41 f9 bc 13 73 03 bd 19 9c b1 bd f5 51 e8 3d
       -0.030426927 -0.032092165 -0.086723514 0.11343757
0001b0 d0 bb 9a bc b3 f9 d0 bb de 4d 0a 3e fb 11 fc bd
       -0.018888384 -0.0063774227 0.13506266 -0.12308117
0001c0 1e 8d cc bd 15 90 ca bc f7 c4 0c 3e 15 57 19 be
       -0.099878535 -0.024726907 0.13747011 -0.14974625
0001d0 2e 43 16 bd ab fd a2 3c 91 cc 86 3b 16 4d 95 3d
       -0.03668516 0.019896349 0.0041137417 0.072900936
0001e0 9b e6 3c 3e df d8 ed bd 38 6f 60 3d 71 83 cd 3d
       0.18447344 -0.116136305 0.054793566 0.10034836
0001f0 71 34 fb 3d c6 f6 97 3c 87 75 3d bd 75 e3 92 3d
       0.12265862 0.018550288 -0.04625466 0.0717229
000200 58 45 32 bd 48 8a 4e 3d 72 77 4c 3d c4 6e c7 3c
       -0.043523163 0.050424844 0.0499186 0.02434481
000210 59 02 82 3d bb 98 6a 3c be 33 39 bd 24 92 28 bc
       0.06348104 0.01431864 -0.04521536 -0.010288749
000220 ef 5f 82 bd 08 3f 4a 3d b1 c9 d5 3d 1e 62 61 bd
       -0.06365954 0.049376518 0.1043886 -0.055025212
000230 23 18 bd bc 56 f0 85 3d 3f 61 a2 bc 04 28 bd bd
       -0.023082798 0.06539981 -0.019821761 -0.09236148
000240 fb 64 e7 3d 87 32 a5 3b 44 13 c2 bd 72 c6 33 bd
       0.11298557 0.0050414237 -0.09476331 -0.043890424
000250 42 a6 e5 3d c7 dd f8 bc 61 09 2d 3c 64 39 10 3b
       0.11213352 -0.03037919 0.010561318 0.0022006864
000260 96 28 d8 3c 0b ee ef bd 48 7c 7f bc b3 cc 09 bc
       0.02638654 -0.11715325 -0.015593596 -0.0084106205
000270 bf f2 8e bd f6 59 fa bd be c6 e9 3d 14 e4 f4 3d
       -0.06979894 -0.1222419 0.1141486 0.11957565
000280 92 ca b3 3c af 09 ba 3d cd 2e 02 be f2 5d a5 bc
       0.021947179 0.09083878 -0.12713166 -0.020186398
000290 b9 73 f7 bd bd b7 30 bd d1 31 f7 bd 93 d2 a6 bd
       -0.12082619 -0.043143976 -0.120700486 -0.081456326
0002a0 85 63 b5 3d 36 b0 b2 3c 07 ce b1 3c e3 62 c3 bc
       0.088568725 0.02181254 0.021704687 -0.023850864
0002b0 ea ad be bd 81 b1 a3 bd 15 9b 89 3d d4 01 00 3d
       -0.09310515 -0.079928406 0.06719033 0.031251743
0002c0 5b 1e 24 bd e0 ac 93 bd 5e 97 06 3e fe 06 b3 3d
       -0.04006801 -0.07210708 0.1314368 0.08741568
0002d0 ff 3e e5 3a 73 d1 79 3d 4f 49 18 bd 45 31 2d bd
       0.0017490088 0.060990762 -0.037179288 -0.042283315
0002e0 25 cb c1 bd 68 41 00 be 2c b1 a2 bd d2 2b 8d bd
       -0.09462575 -0.1252495 -0.07943949 -0.06893124
0002f0 01 1d 38 bd f0 76 09 3d c4 9b a0 bb 31 ff 27 bd
       -0.044949535 0.033560693 -0.004901381 -0.041014854
000300 9c a3 6c bc 4f 0b 66 bd 16 da 0c bb e0 43 53 3d
       -0.014443304 -0.05616313 -0.0021492294 0.051578403
000310 02 65 a8 3d 66 f5 26 3d 4b 9b f6 bd ec 4b a0 bc
       0.08222391 0.040761374 -0.120413385 -0.019567452
000320 35 11 95 bd 9f 87 ee bd 10 4f cc bd 0b 93 3f bd
       -0.072786726 -0.116469614 -0.099760175 -0.04677109
000330 80 67 c8 3d 8a 64 eb 3d 4d db ad bd 7c 04 ab bd
       0.09785366 0.11493786 -0.08489094 -0.08350465
000340 f4 09 cf bc 53 66 d5 bd 98 7a 0d 3e 40 11 16 3d
       -0.0252733 -0.104199074 0.13816297 0.036637545
000350 7a ac d1 bc 1d a3 45 3d d3 96 74 3d 8f 20 f5 3d
       -0.025594939 0.04825126 0.05971415 0.11969101
000360 88 5b 9a 3d 28 24 58 bd b9 4e 35 3d 78 f0 87 3d
       0.075369895 -0.052768856 0.04426453 0.06637663
000370 8b bb 25 3d c6 64 ef bd 3b 51 86 bd db e9 d5 bd
       0.040462058 -0.11689143 -0.06558462 -0.10444995
000380 39 13 8d 3b 93 f4 9a 3b fa 3b 0a bd f9 f0 d9 bd
       0.00430527 0.0047288626 -0.033748604 -0.10641665
000390 bb 1d ab 3d 6c 8d e1 3c 25 96 be bc f3 3b ea 3c
       0.0835528 0.027533256 -0.023264954 0.02859304
0003a0 47 bf fd bd 72 69 0a bd fa 2e 59 3d 28 6e f9 bd
       -0.12389999 -0.033791967 0.053023316 -0.12179214
0003b0 d6 39 66 3d 6b 8b 5b 3c e9 88 87 bd d9 5a 03 bd
       0.0562075 0.013399939 -0.066179104 -0.03206906
0003c0 f0 52 8c 3b 64 6c 29 bd 07 91 08 be ba f7 af 3c
       0.004282348 -0.041363135 -0.13336574 0.02148043
0003d0 5f 5e a2 bd e2 0f a6 bc 95 46 ca bc 06 09 8a bd
       -0.07928156 -0.020271245 -0.02469186 -0.06740002
0003e0 7b 96 70 bd 85 b6 39 3d 0a ba 03 3e a8 83 aa 3d
       -0.05873726 0.04534008 0.12863937 0.08325893
0003f0 81 95 81 bd f9 05 b4 bd 18 4b 05 be 9f e2 30 bd
       -0.06327344 -0.08790202 -0.13016927 -0.043184873

grucell.bias_ih f4 [192]
000000 6f 0f b0 bc 00 33 93 bd 85 a1 0e 3e 4a d0 f6 bd
       -0.021491734 -0.07187462 0.13928802 -0.12051447
000010 a8 9c dc 3c e2 d2 de bc 2a 04 45 be 70 29 3d 3a
       0.026930168 -0.027200166 -0.1923987 0.00072159525
000020 9b c3 bf 3c 9b 4c ce bd 81 c5 71 3d 8b 37 e3 bd
       0.023408702 -0.10073205 0.059026245 -0.11094578
000030 5c 0b 86 bd 6c a6 b9 3c de 45 5d 3e a3 4f ed bc
       -0.065451354 0.022662364 0.21608683 -0.028968638
000040 11 a0 9b 3d 98 b7 08 3e 9e 4a e4 3c 60 df 32 bd
       0.075988896 0.13351285 0.027867611 -0.04367006
000050 d0 51 0b 3e 4a 3a a8 bd 39 78 a8 bb 2f 61 30 3d
       0.13605428 -0.08214243 -0.005141285 0.04306143
000060 06 87 c5 bd ec d7 81 3c d4 7d 89 bc bf b8 fc 3d
       -0.09644894 0.01585003 -0.016783632 0.12339925
000070 28 43 d4 bd 5a 73 bc bd ca fd 21 bc 01 0d 53 bd
       -0.103643715 -0.09201689 -0.009887168 -0.051526073
000080 0e f0 cd bd 6d 0d cd 3d 57 f3 e7 3c 15 1b a0 bd
       -0.100555524 0.100123264 0.028314276 -0.078176655
000090 89 23 a0 3d 26 3d 8c 3d c2 44 dd 3d e0 3f ae bd
       0.07819278 0.06847601 0.1080413 -0.08508277
0000a0 1c d8 08 3e 8c 2d cf 3c ff 36 c3 3c 6c ad 9a 3d
       0.13363689 0.025290273 0.023829935 0.07552609
0000b0 6d 1f 11 3e ad d8 cc 3d 26 c2 f8 3d 7d 9c 14 bd
       0.14172144 0.10002265 0.12146406 -0.03628205
0000c0 c4 31 84 3c e6 1b d4 3d b0 56 9d bd 83 ee 45 3e
       0.016137011 0.10356884 -0.0768255 0.19329266
0000d0 23 13 8c bc 6b c7 be bd a9 03 d6 bc 7d 4e ca bc
       -0.017098969 -0.0931538 -0.026124792 -0.02469563
0000e0 22 f4 99 bd e7 d4 38 bd 39 06 b8 bd f8 51 46 3e
       -0.07517268 -0.045124914 -0.08985562 0.19367206
0000f0 6e 95 e1 bd 42 56 9d bc e6 23 30 bd b7 d4 b3 bd
       -0.110148296 -0.01920617 -0.043002985 -0.087808065
000100 d5 82 33 3e d1 24 04 3e 9e f3 82 3c 8c 80 42 3c
       0.17530377 0.1290467 0.015985306 0.011871468
000110 54 e6 85 3c ac 19 55 3e d8 58 4a 3e d5 da 0d bd
       0.01634518 0.20810574 0.19760454 -0.034632523
000120 9d 33 2e 3e ce c1 cd 3d b6 0a 0a 3e 3d 9c 42 3e
       0.17011876 0.10046731 0.13480648 0.19004913
000130 76 65 64 3d 0c d9 25 3d 24 95 33 3e c3 ac 9b 3d
       0.055760823 0.040490195 0.17537361 0.07601311
000140 37 48 fa 3d 5c 35 6f 3d 91 7f d5 bd 13 14 2a 3e
       0.12220805 0.058400497 -0.10424722 0.1660922
000150 55 0f 3e bd 49 9b cf 3d 67 b2 ab bd 67 00 14 3e
       -0.04640134 0.1013704 -0.08383637 0.14453278
000160 90 13 34 3c 6d dd ed 3c e5 c2 d4 3d 70 4e b9 bd
       0.010990992 0.029036248 0.10388736 -0.09048164
000170 02 25 0f 3d 0e 29 78 3d 81 24 b3 bd cb 54 fb 3d
       0.034947403 0.060586028 -0.08747197 0.12272032
000180 8b 33 d1 3d 6c df 50 bd bc ea e2 3d 66 d8 19 3e
       0.10214909 -0.05099432 0.11079928 0.15023956
000190 51 72 e5 bd c5 e4 bf 3d d0 0f 9b 3d ee 1d e5 3d
       -0.11203445 0.09369806 0.07571375 0.11187349
0001a0 bc 64 a2 3e 4c 4b 2b 3d 8b 57 53 bd 1c 93 44 bd
       0.3171748 0.041819856 -0.05159716 -0.047991857
0001b0 40 62 c9 3c 79 f0 bd 3e 5f b8 14 3e ed c4 a2 bc
       0.024582982 0.3709753 0.14523457 -0.019869292
0001c0 e7 94 cf 3d c7 9b ff bc 16 aa ec 3d cd fd 1d be
       0.10135823 -0.03120221 0.11555879 -0.15428849
0001d0 0c 43 b4 3d 76 43 72 3d 4a 9a 1f 3e 96 84 03 3e
       0.08801851 0.059146367 0.155862 0.12843546
0001e0 47 e1 b1 bc 1e e6 42 3e 57 30 96 bd f5 89 56 3c
       -0.021713866 0.19033095 -0.07333439 0.013094415
0001f0 79 71 ff 3d 8a 63 2f bd 5b 10 50 3e a2 55 5d bc
       0.12472815 -0.042819537 0.20318739 -0.013509186
000200 c4 1b 3b be 24 a3 4b 3c 83 c3 be 3d 72 a3 ae bc
       -0.1827231 0.0124290325 0.09314635 -0.021318171
000210 82 d5 1d bd cd 5e 9a bd 00 92 e6 bc 0b 31 73 3d
       -0.038533695 -0.07537613 -0.02814579 0.059372943
000220 bf 86 9f bc 15 0a 80 3d 4c 78 11 3d 39 0d a5 3d
       -0.019473432 0.06251923 0.035515115 0.08059163
000230 a9 2b 07 bc 75 2a 37 3e b3 f3 fd 3d e0 c0 c9 bd
       -0.0082501555 0.1788729 0.123999976 -0.09851241
000240 3f 3d 87 bb 1d 7b 8c bc 69 41 b3 bd 66 cf cc bd
       -0.004127174 -0.017148549 -0.0875271 -0.100004956
000250 0a bc ec 3d 96 1d ce 3c 79 63 f5 bb 74 6d 6f bd
       0.11559303 0.025160592 -0.0074886647 -0.058453992
000260 77 1a 33 3c 6c 27 6e 3d da 17 06 3d 21 16 f6 3c
       0.010931603 0.058143064 0.03273759 0.030039849
000270 64 ff 80 3d c8 cc b0 bd 9a 84 c2 bc 55 f8 a3 bb
       0.06298712 -0.08632809 -0.02374487 -0.0050039687
000280 a3 13 15 3d 8e 4e 2a bd cd cc 6b be 29 dd 92 bd
       0.03639568 -0.04157882 -0.23027344 -0.07171089
000290 3e 32 1b 3e f1 de 5b bd ac 6d 38 3d f6 5d da bc
       0.15155885 -0.05367941 0.045026466 -0.026656132
0002a0 90 5d c6 3d 28 bf 24 3c ad 67 96 3b 70 2c 14 bd
       0.096858144 0.010055341 0.004589996 -0.03617519
0002b0 ab e7 5c be 95 96 55 be c7 32 b1 3d 5f 87 f3 bb
       -0.2157275 -0.20858224 0.08652263 -0.007431909
0002c0 18 05 6d bc 0b 03 32 3e eb 8d 2d bc 25 03 0e 3d
       -0.0144665465 0.17383973 -0.010592918 0.034670968
0002d0 ce e4 6f bd 60 4b 70 3d aa 9a 93 bd 45 6c 12 3d
       -0.058567815 0.058665633 -0.07207234 0.035747785
0002e0 06 dd 2c bd e5 a5 62 3d 43 96 c8 bd 27 8f 7e be
       -0.042202972 0.05533399 -0.09794285 -0.24859296
0002f0 90 cf 1f 3d c5 51 d3 bc 4a 46 ee bc a5 cd dd 3c
       0.039016306 -0.025795827 -0.02908625 0.027075598

grucell.bias_hh f4 [192]
000000 b6 39 d2 3d 84 9d a1 3d 9e 09 b5 bc 63 5e 91 3b
       0.10264914 0.07891372 -0.022099312 0.0044363006
000010 c0 b4 b9 bd 18 2e 9a bd 82 52 c2 bd c0 ff d8 bd
       -0.090676785 -0.07528323 -0.09488393 -0.105956554
000020 0c 78 a2 bc ff d7 e5 bd ed 8d c6 3d 1e 98 78 bc
       -0.019832633 -0.112228386 0.09695039 -0.015172986
000030 44 53 c7 3d 8d be 49 3d d7 e1 5a 3e 37 50 08 bd
       0.097326785 0.04925399 0.21375214 -0.033279624
000040 e9 4e 8d 3d 44 0b 04 3e 7e ea 5f bd c2 a9 2e 3d
       0.068998165 0.12894922 -0.05466699 0.042642362
000050 36 31 07 bd bd d9 e3 bc 0b d9 d0 bd e3 40 10 3e
       -0.033005916 -0.027813787 -0.10197648 0.14087252
000060 56 3f 93 bd 19 81 9d bd 9f 19 cc 3d eb 5d b5 bd
       -0.07189815 -0.07690639 0.09965824 -0.08855804
000070 24 25 59 3d a1 3a 14 bd f3 d1 24 bd 57 d3 36 3d
       0.053013936 -0.036188725 -0.040239286 0.044635143
000080 31 77 12 3b 5d b3 e2 3d 7d 38 16 bc d1 4b 85 bd
       0.0022348876 0.11069367 -0.009168741 -0.065086015
000090 43 2d 98 bd ed 6f 67 3d 2a 06 c1 3d 76 00 6a 3d
       -0.07430508 0.056503225 0.09425004 0.057129346
0000a0 18 0c 7d 3d 63 99 a7 bd e4 8a d1 3d fa 7c 09 3e
       0.06177911 -0.08183553 0.102315694 0.13426581
0000b0 cf 82 da 3d 80 df 07 3e 01 3a 8c bd 8b 5d 56 3d
       0.10669481 0.13268852 -0.06847001 0.052335303
0000c0 eb 0e 22 bd 50 d6 44 bc 75 54 f9 3b b4 3e 42 3e
       -0.039565008 -0.012013987 0.007608945 0.18969232
0000d0 44 f6 99 3d dd bb 8f bd e2 4d 4f 3d a8 d4 a1 bc
       0.075176746 -0.07018254 0.050611384 -0.019754723
0000e0 aa 7c a1 3d da 56 0a bd 46 a4 bf 3c 9c 23 1f 3e
       0.07885106 -0.033774234 0.023393761 0.15540928
0000f0 9f c8 c0 3d 36 92 1d 3e 4d 9b af 3d d2 78 67 bd
       0.094132654 0.15387806 0.08574543 -0.056511708
000100 43 f0 b4 3d 34 28 88 3d a5 fb d4 bc 57 07 bd 3d
       0.08834889 0.06648293 -0.0259989 0.092299156
000110 c7 20 5a 3e 77 b1 a4 3d fc ce d4 3d b9 cd 9f bc
       0.21301566 0.08041661 0.10391042 -0.019507276
000120 17 8c 26 3e 7a b1 df bd 99 42 bd 3d 14 b4 0e 3e
       0.16264378 -0.10922523 0.09241218 0.13935882
000130 9e 6b 40 bd 20 4a 89 3d 3b 40 3f 3e f8 0b 04 3e
       -0.04697763 0.06703591 0.18676846 0.1289519
000140 3e 2b 99 3c 12 ea 03 3e 34 fa a7 bd 62 e8 dd 3d
       0.018697377 0.1288226 -0.08202019 0.10835339
000150 25 ca 9a bc 0a 6b 66 3c e0 3d 96 3d fd 3d 59 3d
       -0.018895218 0.014063606 0.073360205 0.053037632
000160 08 36 f2 3c a9 f6 23 3d 1f 1a b8 bd c3 94 0b be
       0.02956678 0.040030155 -0.08989357 -0.13630967
000170 45 2c cb 3c f2 33 1f bc 43 2c 93 bd 58 04 cc 3d
       0.024801383 -0.009716975 -0.07186177 0.09961766
000180 73 1f a3 bd a6 75 ad bc c2 52 a2 bc ea 90 ea 3d
       -0.07964983 -0.021174263 -0.019814853 0.114534214
000190 5a d7 22 bb e2 be 4f 3d eb aa 41 3e 8c 65 16 3e
       -0.0024847598 0.05071915 0.18912856 0.14687175
0001a0 3f fb 6d 3e f9 c1 fe 3c 3d ef d6 bd 8b 8b de bd
       0.23240374 0.031098353 -0.1049485 -0.108664595
0001b0 21 c4 c4 bd 8c 7a 86 3e 8d c7 e5 3d 8d 88 d7 bc
       -0.09607721 0.2626537 0.11219702 -0.02631023
0001c0 a2 81 0a bd 33 0a 10 3e bf 52 a0 bd 0c 30 0a be
       -0.033815034 0.1406639 -0.078282826 -0.13494891
0001d0 21 23 9f 3d 9f 9a 3d 3e 50 72 8f 3c a1 69 13 3e
       0.07770372 0.18516015 0.017510563 0.14395763
0001e0 b8 ad c0 bc 24 bb c9 3d 8c 0d d2 3c 42 3a 1e ba
       -0.023520336 0.09850147 0.025641225 -0.0006035903
0001f0 2d e3 2f 3e d8 c3 36 3e 34 5c 02 3e a7 20 25 3d
       0.17176504 0.17848146 0.12730485 0.040314343
000200 ac 56 3e be 21 1a 81 bd a4 c8 ae bd 4c 1a 9f bd
       -0.1858775 -0.06303812 -0.08534363 -0.077686876
000210 2b 9e aa bd 54 5a 71 bc cf 0c b9 bd 32 f4 a5 bc
       -0.083309494 -0.014731009 -0.09035646 -0.020258043
000220 a9 05 21 bc c5 52 c6 3b cd ed 6b 3c f1 83 3e bd
       -0.00982801 0.0060523474 0.014399958 -0.046512548
000230 0c 0a aa bd 3b d0 21 3e 6b 5a ad bd 50 05 5a 3c
       -0.083026975 0.1580209 -0.084645115 0.013306931
000240 76 a7 d7 ba f7 74 6e 3d a2 64 97 bb f8 c2 81 bd
       -0.0016453105 0.058217015 -0.0046201507 -0.063360155
000250 ee 9c a1 3d 0b 89 03 3e 27 50 20 3d 92 a1 c1 bd
       0.0789126 0.12845246 0.03913894 -0.09454645
000260 9e 72 32 3d 55 c1 c3 bd b0 fd bf 3c a5 04 d6 3d
       0.04356634 -0.095583595 0.023436397 0.104501046
000270 38 e4 b2 3d fb 0b 25 bd be 49 f9 bd 05 c7 3a 3d
       0.087349355 -0.04029463 -0.12172268 0.045599956
000280 27 96 d0 3d 81 6a cf bd 67 ff c1 bd c8 ae 85 bd
       0.10184889 -0.10127736 -0.09472542 -0.065274775
000290 96 e4 2e 3d ac 21 f7 3c a8 de 14 bc 1d e3 e6 bd
       0.042698465 0.030167423 -0.0090862885 -0.11273787
0002a0 87 4a 1e 3e 8f 6e 33 bd 3b 22 10 3d 5d 03 aa bd
       0.15458117 -0.04380661 0.035188895 -0.08301423
0002b0 fc e9 29 bc a0 2b b8 bd 0c 1b 2a 3d 8d ea c9 3d
       -0.010370728 -0.08992696 0.0415297 0.0985919
0002c0 c8 f3 7a ba e9 13 54 3e 85 d8 ec bd 05 44 a7 3d
       -0.00095730694 0.2071072 -0.11564735 0.081672706
0002d0 62 ca 7f 3d b0 f3 f7 3c 6b 3c 6c 3d 73 23 2f bd
       0.062448867 0.030267566 0.057674807 -0.042758416
0002e0 c5 46 25 be c6 a4 a7 3d af b9 60 bb 0d 6b ab bd
       -0.16140278 0.08185725 -0.0034290364 -0.08370028
0002f0 f7 af 8b bb fc 4e 57 bd da 5c 70 bd 7c 7a a8 bd
       -0.00426292 -0.05256556 -0.0586823 -0.08226487

linear.weight f4 [2, 64]
000000 9f 64 3b 3d f5 ec 0b 3d 17 b5 ea bd 87 27 b8 bd
       0.045750257 0.034161527 -0.114603214 -0.08991914
000010 3f 71 f0 3d 9b ec 93 3d 39 7a 9f 3d 4b 9e 78 bc
       0.1174035 0.07222863 0.07786984 -0.015174459
000020 01 44 e3 3d a2 eb 47 3c 35 98 16 bd 21 98 9c bd
       0.11096955 0.012202175 -0.03676625 -0.07646204
000030 25 bc d6 bd 01 96 1a be 6e 4e 65 bd 80 bd 09 3d
       -0.104851045 -0.15096284 -0.055983 0.033627987
000040 57 48 6b bd 99 82 b5 3c 54 98 d6 3d 7c 14 a9 bd
       -0.057442036 0.022157 0.10478273 -0.0825586
000050 07 40 0b 3e 91 0b 00 3e 92 2c ee 3d 51 85 f0 3d
       0.13598643 0.12504412 0.11629595 0.11744178
000060 f6 d2 32 3d 59 44 79 3b 3a a9 f2 3d 65 e9 37 bc
       0.04365822 0.0038035123 0.11848684 -0.011225079
000070 0d f0 cf 3d 82 32 e5 3c bd ba ed bd ec 9b f7 bd
       0.10153208 0.027978186 -0.11607883 -0.120902866
000080 96 4c ee 3d ba 42 4c bd b2 48 b0 3d c8 74 56 bd
       0.11635701 -0.049868323 0.086076155 -0.052357465
000090 ac d9 4e 3d 43 4d b6 bd c5 87 b9 3d 1b 2a e8 3d
       0.050500557 -0.08901455 0.09059099 0.11336156
0000a0 e5 a3 b1 3d 93 5b b4 3d 0e 02 98 bc 24 09 4d 3e
       0.086738385 0.08806529 -0.018555667 0.20023018
0000b0 05 36 a2 bb 67 a4 2d bd 3e a3 3c 3e 8f d1 20 bd
       -0.0049502873 -0.042393114 0.18421647 -0.03926235
0000c0 d1 23 10 3e 1d ae 37 be 60 c1 72 bd 6f 19 0c 3c
       0.14076163 -0.17937513 -0.059266448 0.008550986
0000d0 19 9f ff bb 95 3e 6d bd c5 7c 07 be 0f da 60 3c
       -0.0078009483 -0.05792101 -0.1323119 0.013723864
0000e0 e7 e7 7b bd 7f 53 34 3d c0 4a 8e bd 19 31 ef bd
       -0.061500456 0.04402494 -0.06947851 -0.116792865
0000f0 f2 9b 06 be 37 30 9c 3d 3a fb 6f 3d ad 88 83 be
       -0.13145426 0.07626384 0.058589198 -0.25690213
000100 ef ad 66 3e cd 13 31 bd 27 de 0d 3e 05 c0 12 3d
       0.22527288 -0.043231774 0.13854276 0.035827655
000110 51 c0 df 3d 75 65 3e 3e 7e 14 d9 3d 95 cf aa bb
       0.10925353 0.1859339 0.10599612 -0.005212734
000120 9f 09 9c 3d 85 9f d9 bd 40 d7 1a 3e 81 58 34 3e
       0.076190226 -0.10626129 0.15121174 0.17611887
000130 ad 0e 3f be af 63 1b 3e fa a6 80 be e1 3d 12 3d
       -0.18657942 0.15174745 -0.25127393 0.035703544
000140 a9 8f 59 bd 7f eb b2 bc 73 87 0b 3e 8e 3f 18 3e
       -0.05311552 -0.021840809 0.13625889 0.14867994
000150 31 d6 a3 bd 5f 87 10 b9 4d 40 37 be f7 e7 15 3e
       -0.07999838 -0.0001378334 -0.17895623 0.14639269
000160 cc 9f 08 3d b6 7b 1f bd 8c fb 81 3e b9 87 a0 3c
       0.03335552 -0.03893634 0.25387228 0.019595968
000170 12 25 c5 3d 8b 6a 6d be c0 c9 97 bd b0 ce 96 3d
       0.09626211 -0.23185174 -0.07411528 0.07363641
000180 af ce f6 3d 33 66 05 be e5 aa d4 3d 5e a9 a7 bd
       0.120511405 -0.13027267 0.10384158 -0.08186601
000190 d5 c1 18 3e 1a e8 12 be e4 1c 80 bd 9e 31 8d 3d
       0.14917691 -0.14346352 -0.062555104 0.06894229
0001a0 cd 96 a9 bb 19 5b 37 be c9 c6 26 3e c5 8f fe bc
       -0.0051754476 -0.17905845 0.16286768 -0.031074414
0001b0 7b d4 2c bd ce 86 c9 bd ee 2f 86 bd 12 8d 40 3d
       -0.042194825 -0.09840165 -0.065521106 0.047009535
0001c0 a3 a3 b3 3d 31 92 34 3e 78 c0 2e be 5c 50 0e 3e
       0.087714456 0.17633893 -0.17065609 0.13897842
0001d0 29 e0 b8 3d 11 b9 99 3e 6e f4 7e 3d be e2 90 bc
       0.0902713 0.30024007 0.062244825 -0.017686244
0001e0 3d 83 ae 3d 37 19 b3 bd e8 d8 46 b9 2e 95 9d 3e
       0.085211255 -0.08745044 -0.00018963555 0.30777878
0001f0 2a a6 ed bc 6e 94 67 3d 6d 41 00 3e 1a 43 4a be
       -0.029009897 0.056538038 0.12524958 -0.1975216

linear.bias f4 [2]
000000 21 59 bc 3d c1 2e f2 3d
       0.091966875 0.11825324

linear_final.weight f4 [5, 64]
000000 c4 43 6c 3e 10 0f 2d 3d 96 3f e0 3c 2f c4 f4 3c
       0.23072726 0.042250693 0.02737407 0.029878704
000010 bd 70 9c bc 91 f6 c9 bc db ca dc 3d f7 06 6f 3d
       -0.019096727 -0.024653705 0.10780879 0.05835625
000020 f4 92 87 3b 8e 1c c1 bc ee 91 95 ba c1 7a 9b bd
       0.004137391 -0.023573186 -0.0011411288 -0.07591773
000030 fc 0a 70 bd 80 ba 54 3d 10 d4 c1 bc 5f b8 26 39
       -0.058604226 0.051935673 -0.02366069 0.00015899677
000040 44 f7 11 bc 6b 7b c8 bd a3 29 17 bd 30 64 93 bd
       -0.00890905 -0.09789165 -0.036904942 -0.071968436
000050 77 a0 20 3d 5b e1 2f 3d e9 d1 3b bd c7 c3 6b 3d
       0.03921553 0.042939525 -0.045854483 0.057559755
000060 e6 67 19 3a 4c b2 ba bc 6f 43 f7 3b b7 35 c4 bd
       0.0005851969 -0.022790097 0.0075458805 -0.09580558
000070 c9 3e 5b 3b 9b a6 bc 3d 39 14 35 bc ff ab 89 bd
       0.003345417 0.09211465 -0.011052185 -0.06722259
000080 99 c2 71 3d 13 18 47 bd 6f 42 45 bd 24 09 d1 3d
       0.059023473 -0.048606943 -0.04815906 0.102068216
000090 4a e7 16 3c 0c c1 6a bd 96 04 fc bc 80 96 ae bd
       0.009210417 -0.05731301 -0.030763905 -0.08524799
0000a0 7e b1 90 3d 40 e1 57 bc 7a 05 22 bc 9b df 0d 3d
       0.07065104 -0.013176262 -0.009889001 0.034637075
0000b0 f5 c8 ad 3a 96 6e c9 bd 1d e9 9c bd c6 16 ad 3b
       0.0013258742 -0.09835546 -0.0766165 0.005282256
0000c0 cc 97 60 bd e1 37 97 bc 64 87 06 3d 3c d2 51 3e
       -0.054832265 -0.018459262 0.032843962 0.20490354
0000d0 27 df 9f 3d fd 79 a2 bd 18 98 64 bd a3 2d c5 3c
       0.07806235 -0.07933424 -0.05580911 0.024069613
0000e0 f4 7f ab bd 73 c7 d4 3c 9f a5 0b bd 54 71 da 3d
       -0.083740145 0.025974011 -0.034093495 0.10666147
0000f0 92 23 41 3b 7b 0a fd 3c fe 49 fd bc 69 a2 73 bd
       0.0029470664 0.030888787 -0.030919071 -0.05948106
000100 db 62 54 bd f9 04 dc 3d 33 5d ac bc 54 6a 3e bd
       -0.05185209 0.10743136 -0.021040535 -0.04648812
000110 cb fe 16 bd 03 1c b5 bc 7d 03 0e bd 24 cf 2f 3c
       -0.036864083 -0.022108084 -0.034671295 0.0107305385
000120 5c 09 a6 bc 93 a8 cd 3b f7 f3 16 bd 82 00 e1 ba
       -0.020268135 0.006276199 -0.036853757 -0.0017166289
000130 cf af 96 bd a7 ab 47 bc 98 11 c1 3d 09 63 c3 3c
       -0.073577516 -0.012186921 0.09427184 0.023850935
000140 34 c1 9b 3c a9 b7 ac 3a b9 1c 74 bc f6 f6 a5 bc
       0.019013025 0.0013177294 -0.014899426 -0.020259362
000150 bb f6 b4 bc d2 6f 11 3d d6 0c 9d 3c da 32 8e bc
       -0.022090307 0.03550703 0.01917116 -0.017358232
000160 d4 e9 af bb 03 dc 83 bc 8b f0 2f 3c 0f 7b a0 3c
       -0.0053684507 -0.01609612 0.010738502 0.019589929
000170 f2 c6 e5 bc df 3e db bc 61 a2 2d 3d 39 e4 5b 3d
       -0.028048966 -0.026763378 0.042391185 0.053684447
000180 49 c3 e0 3b da 2a 82 3a 93 b0 c0 3b 09 86 95 bd
       0.0068592173 0.0009930984 0.0058804243 -0.07300956
000190 bd 06 89 bd 3a 7f c3 3d d1 fa 5d bd f3 fc 99 bd
       -0.06690738 0.09545751 -0.054194275 -0.07518949
0001a0 2f b8 19 bc 82 e3 7b bd 7e b3 c1 bb 45 75 e5 bd
       -0.009382292 -0.061496265 -0.0059112897 -0.11204008
0001b0 c1 f7 71 3d 3c 8d bc bd a5 5f aa 3d 6a b0 98 3d
       0.059074167 -0.09206626 0.08319024 0.07455523
0001c0 94 ff 6d 3d 69 5d 79 bd 79 3f 0c 3d 82 77 e8 bd
       0.058105066 -0.0608801 0.03424022 -0.11350919
0001d0 bc aa 58 bd 39 6e f5 3d fc 33 55 3d da 39 37 bd
       -0.0528972 0.11983914 0.05205153 -0.044732906
0001e0 ac 93 87 3d 99 95 98 bd 30 81 ef 39 1d 1e 0e 3d
       0.06619963 -0.074504085 0.00045681885 0.034696687
0001f0 85 39 6c bd ea bb c4 ba a0 51 18 bc d8 b4 1f bc
       -0.057672042 -0.0015009616 -0.009296805 -0.009747706
000200 ba b9 c6 3c bb 12 0d 3e 32 f7 a0 3d 87 28 47 3d
       0.024258483 0.13776676 0.07859649 0.048622634
000210 40 75 21 bd 7a 49 19 3e 11 00 e2 3d c2 53 59 be
       -0.03941846 0.14969435 0.11035169 -0.21223357
000220 23 02 1b 3e d2 3f 82 bc a7 b4 ac be 8f 8b 50 be
       0.15137534 -0.015899573 -0.33731577 -0.20365737
000230 6c d4 9a 3e 5f 30 9e 3e 6b b5 7b 3d e4 81 32 3e
       0.3024019 0.3089628 0.06145231 0.17432362
000240 01 12 b9 bd 5d 7b 47 3e bb 84 10 be 22 ef f9 3d
       -0.09036637 0.19480653 -0.14113133 0.12203814
000250 d9 53 9b be 08 b3 95 be 52 55 c4 bd ef b0 fb 3c
       -0.30337408 -0.29238153 -0.09586586 0.030724017
000260 26 0c 21 3d a1 02 5f be fe 72 32 be 87 2f 42 3d
       0.039318226 -0.21778347 -0.17426679 0.047408607
000270 cc 1f 8d bd 13 81 59 3e 30 23 50 3c ff 61 f8 3b
       -0.068908304 0.21240644 0.012703702 0.0075800414
000280 e1 78 1d 3e 88 aa ff 3d 85 d0 0f be ec 5a 0e be
       0.15378143 0.12483698 -0.14044388 -0.13901871
000290 79 59 ac be ba 3d 64 3e 03 d2 a2 3d 32 93 f0 3d
       -0.33662012 0.22289172 0.07950213 0.11746825
0002a0 7b 9a a0 be ab 67 ca 3d 2f 05 37 be 7b a9 c0 be
       -0.3136786 0.09883054 -0.17873071 -0.37629303
0002b0 c6 de 1e 3e 1c 11 03 3e f2 ed e9 3c e2 b8 ea bd
       0.15514669 0.12799495 0.028555844 -0.11461045
0002c0 89 a1 a7 3e f9 5c c8 bd 2a 15 5f 3d 0d be b9 3e
       0.3274043 -0.09783358 0.054463543 0.3627781
0002d0 86 29 04 bf 2b 07 a5 be 67 d9 b7 3e 06 be a3 3c
       -0.5162586 -0.3223203 0.35908052 0.019988071
0002e0 8c 58 d0 3d e6 f8 27 bd 2f 6a ba bd 28 b9 e7 bd
       0.10173139 -0.041008852 -0.09102284 -0.113146126
0002f0 80 87 87 be 85 41 43 3e f9 cb b9 3b 1a f2 52 3e
       -0.26470566 0.19067962 0.0056700674 0.20600167
000300 44 29 86 3d 14 ba a5 3d b0 d5 e4 bd fb dd 60 3e
       0.065508395 0.08092132 -0.1117357 0.21959679
000310 32 82 06 3e 9d 29 54 3e 60 ef 9f 3e 28 41 a1 be
       0.13135603 0.20718999 0.31237316 -0.31495023
000320 65 7c 21 3e 72 fe ec 3c d3 12 fd be d1 a6 cf be
       0.15770109 0.028929923 -0.49428424 -0.40556958
000330 12 c4 67 3e 40 48 c9 be 7a eb ff be 51 f7 00 3d
       0.22633389 -0.39312935 -0.49984342 0.03148586
000340 45 a5 7c 3c 71 c3 c3 bd cf a4 a2 bd 41 dc ba bc
       0.015420263 -0.09558762 -0.07941591 -0.022810103
000350 b6 da 4f be d5 e2 33 bc ef c3 61 3d 96 98 04 be
       -0.20298275 -0.010979374 0.055118497 -0.12948832
000360 b4 8a 86 bd 88 03 94 be 13 d8 08 be d9 69 26 be
       -0.06569424 -0.28908944 -0.13363676 -0.16251315
000370 d6 5b 6d bd cb fd 61 3e e4 1d f3 bc 5d d8 79 be
       -0.05794891 0.2206947 -0.029677339 -0.24398942
000380 60 2a 92 bc 86 80 5a 3e e5 94 a6 be e0 f6 7b bd
       -0.017842472 0.2133809 -0.32535473 -0.061514735
000390 45 5d a8 be 77 fc 2d bc 01 23 d7 3c ea 59 27 3e
       -0.3288366 -0.010619274 0.026261808 0.16342893
0003a0 1b 44 c5 be a4 40 8b 3d d5 46 fd bd f5 ae f0 3e
       -0.38528523 0.067994386 -0.12367026 0.47008482
0003b0 c5 a8 38 3e f6 cc 3c 3e 1b 83 f6 ba 4d eb 36 bd
       0.1803313 0.18437561 -0.0018807383 -0.044657994
0003c0 ca 7d b0 3e 38 c1 1f be 1d 44 a0 3e ca 08 d8 be
       0.3447097 -0.15601051 0.31301966 -0.42194206
0003d0 63 9a 9e be dd 79 16 be cb 89 d7 3e 46 3a 3e be
       -0.30977163 -0.14694925 0.42097315 -0.18576917
0003e0 b4 f3 5e 3e f6 dd 5a be 83 10 94 3e b0 97 36 3e
       0.21772653 -0.21373734 0.28918847 0.17831302
0003f0 90 d4 1f bd 72 67 d9 bc 1d 0a da bd b6 fa b3 3d
       -0.039021075 -0.026538584 -0.1064646 0.08788054

linear_final.bias f4 [5]
000000 38 65 52 bd 6b 99 9f 3a ae a7 a9 bf e3 b5 b7 bf
       -0.05136606 0.001217646 -1.3254297 -1.4352382
000010 8b 86 6b be
       -0.23000543
