model_checkpoint/zara1/val_best.pth (torch_old, 55823 bytes, 10 tensors)

gcn.gc1.weight f4 [2, 2]
0.9999859 0.30065095 0.46129888 -1.1027296
00000000: 13ff 7f3f ecee 993e 5e2f ec3e 3e26 8dbf

gcn.gc1.bias f4 [2]
0.106996514 0.24018416
00000000: fd20 db3d d6f2 753e

grucell.weight_ih f4 [192, 2]
0.13960592 0.0726282 -0.07686421 -0.022263687 -0.08115492 -0.06683028 0.0004238557 -0.055638216
-0.3085719 0.039418433 0.27626094 -0.10820885 -0.28774095 -0.21139385 0.10389693 0.102862895
-0.013616875 0.0398263 0.053008262 -0.06914855 -0.05711678 -0.07234403 0.059593722 0.0890417
-0.060724948 0.067764394 0.19687726 0.0026846754 -0.04688196 0.0865885 -0.20401053 0.045889627
-0.036121868 0.09613783 0.12726897 0.07586203 -0.0487481 -0.16758923 -0.094531916 0.11454746
-0.0018791732 0.13339502 -0.046397742 0.018687695 0.002591679 -0.10565261 0.18739066 0.003064424
-0.18353607 0.053743474 -0.18551214 -0.13003908 0.08676526 0.0378028 -0.20023575 0.06632465
-0.020446755 0.054452613 0.12889165 0.13569273 -0.16217706 0.060034264 0.09347373 -0.052754242
0.04539651 0.0026422872 0.024888681 0.031004434 -0.030435912 0.002563578 0.27249324 0.048010774
0.008145952 0.058428124 -0.09777983 0.042580858 0.10465957 -0.14924486 0.13985713 0.12189738
-0.019381162 -0.060388613 0.14637971 0.12353899 0.032498036 0.08392449 -0.10846857 -0.08018148
-0.07471442 -0.03799703 0.014330014 0.14870375 0.25584978 0.032206554 0.08180884 -0.12755486
-0.09896238 -0.13130304 0.04747606 -0.04980205 0.061812118 -0.16027781 -0.08329106 0.16271536
-0.10674527 -0.085250914 0.07906306 -0.07527468 -0.07326383 -0.010991305 0.13211697 -0.04370295
0.16036738 -0.08906697 0.049269486 -0.20742944 0.04262309 0.021595025 0.12701565 0.01782355
-0.13445309 -0.17808977 0.1147858 0.09143047 -0.07136017 -0.08232507 -0.11010748 0.15248652
0.09905464 0.19705851 -0.17350812 0.26372194 0.101798184 -0.044484556 0.060359437 -0.10637691
-0.27737617 -0.10108271 -0.04786373 0.20081414 0.21414149 -0.47939998 -0.060872726 0.052860443
-0.07179552 0.10947291 -0.14247033 -0.03211983 -0.00038385842 0.0694667 0.18944962 -0.02787654
0.016187117 0.30949742 -0.029327163 0.04140881 0.50558454 0.233217 -0.12521583 -0.09888775
0.031371187 -0.0978725 -0.0051526055 0.1454656 -0.13092037 0.12588632 -0.31242606 0.22615974
0.065787695 -0.027523812 0.2246353 0.160038 -0.11152267 -0.11695353 0.35419226 0.19979052
-0.017402248 0.051591776 -0.14324418 -0.066569045 -0.08212843 -0.020890992 0.012980617 -0.054701105
-0.0067644897 -0.045733094 -0.056388155 0.016995836 0.0959957 -0.07442144 0.1986511 0.12180099
0.22835577 -0.02728546 0.08612908 0.19827469 -0.01635311 -0.075875685 -0.0033486206 -0.028459596
-0.12530388 0.034502737 0.00021864638 -0.004347797 0.090770975 0.06276169 0.26129767 0.21267647
0.1372045 0.14143458 -0.09322154 0.13011009 -0.054923266 -0.09071751 -0.000563112 0.23166162
0.2506013 -0.093105674 0.25031424 -0.1680627 -0.08588495 -0.18374547 0.13800296 -0.06607112
0.1570414 0.0038505516 -0.018395327 0.05578818 0.041765526 -0.20997219 0.004726198 -0.029706337
-0.21839805 -0.027691266 0.24583925 0.05844694 0.19838393 -0.113640584 0.003204455 -0.15271
-0.05001767 0.13641 -0.14714336 -0.017911827 -0.017099313 0.14882396 -0.08545676 -0.12492408
-0.06398494 0.052335143 0.13965419 -0.05040194 -0.40363604 -0.15063973 0.49619654 0.12875812
00000000: dbf4 0e3e 18be 943d fc6a 9dbd 5662 b6bc
00000010: 8d34 a6bd 50de 88bd f338 de39 e6e4 63bd
00000020: 23fd 9dbe 3975 213d 1372 8d3e 9a9c ddbd
00000030: c852 93be a177 58be eac7 d43d c8a9 d23d
00000040: 5019 5fbc e720 233d 311f 593d c19d 8dbd
00000050: 49f3 69bd 1b29 94bd 8c18 743d 7f5b b63d
00000060: b9ba 78bd 0fc8 8a3d 319a 493e 61f1 2f3b
00000070: 4c07 40bd 5055 b13d 23e8 50be c3f6 3b3d
00000080: 86f4 13bd e9e3 c43d cc52 023e 8d5d 9b3d
00000090: 16ac 47bd 839c 2bbe f399 c1bd dc97 ea3d
000000a0: 974e f6ba b498 083e 8f0b 3ebd f016 993c
000000b0: 29d9 293b 6560 d8bd 56e3 3f3e 81d4 483b
000000c0: e1f0 3bbe 1e22 5c3d e5f6 3dbe f728 05be
000000d0: fcb1 b13d 1cd7 1a3d 9a0a 4dbe 38d5 873d
000000e0: f47f a7bc b409 5f3d 2cfc 033e 09f3 0a3e
000000f0: be11 26be 7de6 753d 286f bf3d d514 58bd
00000100: b1f1 393d 392a 2d3b 59e3 cb3c 03fd fd3c
00000110: bc54 f9bc b401 283b 3c84 8b3e f2a6 443d
00000120: 9976 053c 5452 6f3d cb40 c8bd 4469 2e3d
00000130: c257 d63d a5d3 18be b536 0f3e 55a5 f93d
00000140: 3ec5 9ebc 0d5a 77bd 90e4 153e 0302 fd3d
00000150: a91c 053d 9ae0 ab3d c524 debd 3036 a4bd
00000160: e003 99bd c6a2 1bbd 6fc8 6a3c cc45 183e
00000170: befe 823e 05eb 033d 658b a73d be9d 02be
00000180: caac cabd 4e74 06be 4276 423d 3cfd 4bbd
00000190: b42e 7d3d de1f 24be 8194 aabd db9e 263e
000001a0: 449d dabd 0898 aebd d0eb a13d 9d29 9abd
000001b0: 590b 96bd e014 34bc ac49 073e dd01 33bd
000001c0: 5937 243e be68 b6bd cdce 493d 6268 54be
000001d0: 8d95 2e3d 0de8 b03c 6410 023e b202 923c
000001e0: 12ae 09be 2a5d 36be d114 eb3d e63f bb3d
000001f0: 4825 92bd 0c9a a8bd 0880 e1bd 6d25 1c3e
00000200: 29dd ca3d b5c9 493e 1dac 31be 9006 873e
00000210: 917b d03d 7035 36bd 753b 773d 23dc d9bd
00000220: 4004 8ebe 7404 cfbd c20c 44bd 39a2 4d3e
00000230: e847 5b3e ea73 f5be ae55 79bd 3184 583d
00000240: 8809 93bd 5533 e03d bee3 11be 1590 03bd
00000250: 9b40 c9b9 8f44 8e3d 15ff 413e 575d e4bc
00000260: d89a 843c 7276 9e3e 853f f0bc 499c 293d
00000270: fd6d 013f 70d0 6e3e 9438 00be a985 cabd
00000280: 137f 003d 6171 c8bd 30d7 a8bb eff4 143e
00000290: fd0f 06be 58e8 003e 4ff6 9fbe 6b96 673e
000002a0: b3bb 863d 9e79 e1bc cc06 663e 00e1 233e
000002b0: ff65 e4bd 5585 efbd b058 b53e e395 4c3e
000002c0: 298f 8ebc e651 533d 9aae 12be 5a55 88bd
000002d0: f332 a8bd 9623 abbc a7ac 543c 440e 60bd
000002e0: a7a8 ddbb a052 3bbd 44f7 66bd da3a 8b3c
000002f0: 6599 c43d 456a 98bd 326b 4b3e cc72 f93d
00000300: 18d6 693e c285 dfbc 7164 b03d 8508 4b3e
00000310: f5f6 85bc b664 9bbd 8874 5bbb 1924 e9bc
00000320: a94f 00be be52 0d3d 7144 6539 f777 8ebb
00000330: 22e6 b93d 3389 803d cfc8 853e dcc7 593e
00000340: 567f 0c3e 3ad4 103e efea bebd 943b 053e
00000350: 38f7 60bd 1aca b9bd ce9d 13ba b438 6d3e
00000360: d04e 803e 30ae bebd 3029 803e a118 2cbe
00000370: 73e4 afbd c627 3cbe a650 0d3e 4c50 87bd
00000380: 76cf 203e 8959 7c3b ccb1 96bc 2682 643d
00000390: 5412 2b3d f302 57be 39de 9a3b b45a f3bc
000003a0: bda3 5fbe cbd8 e2bc 49bd 7b3e 0f66 6f3d
000003b0: 2825 4b3e 65bc e8bd d501 523b 0360 1cbe
000003c0: 54df 4cbd 10af 0b3e c0ac 16be d3bb 92bc
000003d0: dc13 8cbc 4f65 183e f403 afbd 32d8 ffbd
000003e0: 890a 83bd 605d 563d 8201 0f3e 4472 4ebd
000003f0: 62a9 cebe 4d41 1abe 790d fe3e 2bd9 033e

grucell.weight_hh f4 [192, 64]
-0.034428783 -0.1555846 0.016388746 -0.11494967 0.055091288 0.12998287 -0.02137882 0.062323574
-0.08640902 0.07523121 -0.10558211 0.028040322 0.0458902 -0.07018275 -0.020549843 0.07544419
0.096317485 0.013726509 -0.10665236 -0.046564966 -0.08052821 -8.663335e-05 -0.10486384 -0.061290175
0.109013654 -0.10083588 0.08205864 0.061981846 -0.0011896869 -0.1397484 0.007567335 -0.07717343
-0.1434195 0.023384575 -0.022712735 0.02568638 -0.07227131 0.03362334 0.12374876 0.072098345
-0.060862385 0.09697905 -0.056318715 -0.06935806 0.01640037 0.097540244 -0.04158958 -0.054226328
0.034396525 0.019591644 -0.15580174 -0.020017393 -0.052287698 0.13189876 -0.05143869 0.028762463
0.03734011 -0.13294417 0.04331002 -0.020466639 -0.087908454 0.10223681 0.06409571 0.052816287
-0.03051969 -0.03033992 -0.042154063 -0.07801077 -0.096666075 0.05265645 0.044662602 -0.03387976
-0.15542337 0.079291195 -0.037633743 0.021329597 -0.14433056 0.1278114 0.03686239 0.06593081
-0.07413082 -0.11005219 -0.086222894 0.039735597 0.062215857 0.035333123 0.007641386 0.0018134136
-0.10210766 0.092939526 -0.043294273 -0.058275472 0.12860112 -0.07065982 -0.06096387 0.0022279061
0.0097471895 -0.095406026 -0.040361613 0.05757189 0.021077368 -0.1681932 -0.007526052 0.10536571
-0.028805673 -0.031457517 -0.08631359 0.114060864 -0.0194737 -0.003776934 0.13367169 -0.12252394
-0.099970035 -0.02605518 0.13564491 -0.1473155 -0.0366065 0.019921986 0.0040463693 0.073271655
0.180815 -0.11524628 0.053169843 0.098197326 0.120608985 0.01962554 -0.04578451 0.07148727
-0.043400016 0.05053696 0.049742833 0.02462084 0.06336509 0.014451195 -0.045728114 -0.010470192
-0.06331065 0.0493692 0.10490869 -0.055046886 -0.022926021 0.06580578 -0.020545164 -0.092137374
0.11324934 0.0050365543 -0.09479206 -0.04367495 0.111746915 -0.030142387 0.010432243 0.0031474396
0.026482327 -0.11694856 -0.015253599 -0.008960758 -0.06993325 -0.12182006 0.11441185 0.119113214
0.021593042 0.09119893 -0.12682064 -0.019816346 -0.12091224 -0.042632442 -0.12043827 -0.08164906
0.08877897 0.021505311 0.021538945 -0.024320593 -0.09350708 -0.07928604 0.066179544 0.03171424
-0.039951947 -0.07281211 0.13119425 0.08764709 0.0016943448 0.0611071 -0.03696619 -0.042211536
-0.09474442 -0.12533838 -0.07942407 -0.06976567 -0.044837315 0.03410943 -0.0049112737 -0.042192906
-0.016072845 -0.05516695 -0.0018908993 0.05166064 0.08166812 0.04131693 -0.12002348 -0.0190418
-0.07330742 -0.116306156 -0.10017782 -0.04661988 0.09706411 0.11406775 -0.08413309 -0.083426505
-0.025062967 -0.10415011 0.13770287 0.035537634 -0.025680926 0.047723126 0.06053721 0.119051285
0.07577951 -0.053119984 0.04347589 0.06644214 0.040560234 -0.11705905 -0.06580714 -0.10427772
0.005042764 0.0041788835 -0.03399223 -0.10605435 0.08340785 0.027111163 -0.023134286 0.02854574
-0.12334346 -0.0335744 0.052329525 -0.12177597 0.05591158 0.013234774 -0.06701152 -0.03212228
0.0046458268 -0.04203137 -0.13207307 0.022879062 -0.07903935 -0.021168752 -0.025019463 -0.06740603
-0.058223695 0.045392826 0.12718494 0.083081044 -0.06360771 -0.08773779 -0.12981701 -0.04254655
00000000: 3205 0dbd 9251 1fbe b141 863c bc6a ebbd
00000010: 67a7 613d 3b1a 053e a322 afbc 0147 7f3d
00000020: 36f7 b0bd d212 9a3d 6f3b d8bd d1b4 e53c
00000030: 5df7 3b3d f9bb 8fbd 2558 a8bc 7c82 9a3d
00000040: 1a42 c53d 27e5 603c 8d6c dabd e8ba 3ebd
00000050: f9eb a4bd edae b5b8 dac2 d6bd 680b 7bbd
00000060: 8d42 df3d 0b83 cebd 5c0e a83d ade0 7d3d
00000070: 45ef 9bba 341a 0fbe 68f7 f73b 1a0d 9ebd
00000080: 90dc 12be 0291 bf3c 0f10 babc 3e6c d23c
00000090: fb02 94bd a1b8 093d fd6f fd3d 4ca8 933d
000000a0: d64a 79bd f49c c63d 74ae 66bd 990b 8ebd
000000b0: 125a 863c 2ec3 c73d d659 2abd 6d1c 5ebd
000000c0: 5fe3 0c3d a87e a03c 7e8a 1fbe 84fb a3bc
000000d0: a02b 56bd 7810 073e 60b1 52bd 429f eb3c
000000e0: f1f1 183d 8422 08be d965 313d a7a9 a7bc
000000f0: 5909 b4bd 8861 d13d 9d44 833d e455 583d
00000100: 6e04 fabc 6d8b f8bc bda9 2cbd 1cc4 9fbd
00000110: ddf8 c5bd 4aae 573d 22f0 363d 81c5 0abd
00000120: 4e27 1fbe 6c63 a23d d725 1abd 68bb ae3c
00000130: 64cb 13be fee0 023e 04fd 163d bc06 873d
00000140: e6d1 97bd 0b63 e1bd a195 b0bd cbc1 223d
00000150: 0ed6 7e3d 77b9 103d 9764 fa3b 10b0 ed3a
00000160: d21d d1bd 1457 be3d 5655 31bd 43b2 6ebd
00000170: 03b0 033e 19b6 90bd 40b5 79bd 1002 123b
00000180: adb2 1f3c 3c64 c3bd 3852 25bd 81d0 6b3d
00000190: 72aa ac3c d73a 2cbe 1a9d f6bb fac9 d73d
000001a0: e0f9 ebbc 99d9 00bd 2ec5 b0bd be98 e93d
000001b0: 4f87 9fbc 7086 77bb 3be1 083e d5ed fabd
000001c0: 17bd ccbd ac71 d5bc 80e6 0a3e e0d9 16be
000001d0: b3f0 15bd 6f33 a33c 6897 843b 730f 963d
000001e0: 9127 393e 3e06 ecbd 9fc8 593d ae1b c93d
000001f0: d801 f73d bec5 a03c 8a88 3bbd eb67 923d
00000200: 37c4 31bd d8ff 4e3d 24bf 4b3d a5b1 c93c
00000210: 8ec5 813d b4c4 6c3c 674d 3bbd 2b8b 2bbc
00000220: 04a9 81bd 5c37 4a3d 5eda d63d d878 61bd
00000230: 5acf bbbc 2ec5 863d 554e a8bc 85b2 bcbd
00000240: 45ef e73d ae09 a53b 5722 c2bd 81e4 32bd
00000250: 91db e43d 2bed f6bc 00ec 2a3c 4645 4e3b
00000260: 77f1 d83c ba82 efbd 3bea 79bc 25d0 12bc
00000270: 2a39 8fbd cc7c f9bd c350 ea3d a1f1 f33d
00000280: e4e3 b03c 81c6 ba3d 45dd 01be e455 a2bc
00000290: d6a0 f7bd 5b9f 2ebd 57a8 f6bd 9f37 a7bd
000002a0: c0d1 b53d e82b b03c 7172 b03c fb3b c7bc
000002b0: a480 bfbd b860 a2bd 2489 873d cae6 013d
000002c0: a7a4 23bd 841e 95bd c957 063e 5180 b33d
000002d0: c714 de3a 704b 7a3d dc69 17bd 01e6 2cbd
000002e0: 5d09 c2bd b458 00be 16a9 a2bd 4ee1 8ebd
000002f0: 55a7 37bd 54b6 0b3d c0ee a0bb 78d2 2cbd
00000300: 33ab 83bc bdf6 61bd 0dd8 f7ba 1b9a 533d
00000310: 9e41 a73d f13b 293d dfce f5bd 8dfd 9bbc
00000320: 3322 96bd ec31 eebd 072a cdbd 7df4 3ebd
00000330: 8cc9 c63d 5a9c e93d f84d acbd 84db aabd
00000340: da50 cdbc a74c d5bd fb01 0d3e e98f 113d
00000350: ce60 d2bc 5379 433d def5 773d 29d1 f33d
00000360: 4a32 9b3d 5794 59bd c613 323d d112 883d
00000370: 7d22 263d a8bc efbd e5c5 86bd 8f8f d5bd
00000380: c53d a53b 04ef 883b 703b 0bbd 0633 d9bd
00000390: bcd1 aa3d 3b18 de3c 1d84 bdbc c1d8 e93c
000003a0: 7f9b fcbd 4f85 09bd 7c57 563d ae65 f9bd
000003b0: 8a03 653d aad6 583c 563d 89bd a792 03bd
000003c0: 053c 983b 1629 2cbd 2a3e 07be df6c bb3c
000003d0: 62df a1bd 176a adbc 9ef5 ccbc 2c0c 8abd
000003e0: f87b 6ebd d4ed 393d c53c 023e 6526 aa3d
000003f0: c244 82bd dfaf b3bd c0ee 04be 4b45 2ebd

grucell.bias_ih f4 [192]
-0.020143284 -0.07167301 0.13799942 -0.12134632 0.028317751 -0.027969077 -0.18898697 0.0006285471
0.02305123 -0.100937456 0.06012586 -0.11100446 -0.06408296 0.024633454 0.21590468 -0.028649375
0.07534863 0.13264021 0.027121203 -0.04510054 0.13549724 -0.08223481 -0.005640135 0.04337059
-0.096883364 0.016097834 -0.016419807 0.12294729 -0.10333313 -0.092204735 -0.009602359 -0.052111823
-0.10158523 0.1010153 0.027807968 -0.07875816 0.07737288 0.06814453 0.10757466 -0.08512311
0.13477078 0.025642965 0.0240646 0.07698 0.14040984 0.099484466 0.12436356 -0.03606222
0.01611795 0.102368414 -0.07578641 0.1973837 -0.01589897 -0.09262788 -0.026814967 -0.025321443
-0.07378253 -0.044578962 -0.09094977 0.19202974 -0.108780175 -0.017913377 -0.042180445 -0.08814926
0.17232095 0.12363377 0.016537609 0.009950929 0.01666193 0.20386073 0.19748405 -0.035636183
0.16700456 0.101542555 0.13430908 0.18755238 0.059188228 0.040691562 0.17538022 0.076791696
0.121641226 0.057492595 -0.102839716 0.1646557 -0.04649282 0.09925406 -0.081736416 0.14286861
0.009113094 0.028973836 0.10487671 -0.090518735 0.03795544 0.06101511 -0.08758664 0.12151251
0.10242008 -0.051214244 0.11258727 0.14830108 -0.11128638 0.093261525 0.07409325 0.110075064
0.31363675 0.04027757 -0.049687482 -0.047556337 0.022578161 0.36330613 0.13997117 -0.019654261
0.10106232 -0.02232947 0.11635898 -0.15336275 0.08411053 0.059301272 0.15430748 0.12618549
-0.02413006 0.1875567 -0.070821226 0.013298342 0.12483456 -0.0456739 0.20190383 -0.008553566
-0.17333435 0.014769948 0.101720855 -0.015982432 -0.041336693 -0.06260054 -0.018361118 0.06127498
-0.019417306 0.0632346 0.037841886 0.080732495 -0.0023396944 0.19752225 0.11301304 -0.09603119
-0.007310753 -0.019122088 -0.09002988 -0.08959174 0.11734777 0.018179085 -0.007368066 -0.053225625
0.010377003 0.057538413 0.035215918 0.032414544 0.06454403 -0.09087944 -0.024574531 -0.00241677
0.046937138 -0.0483204 -0.2257101 -0.06627304 0.15681538 -0.053920213 0.042865783 -0.024333015
0.07165572 0.008618514 0.004679913 -0.0490408 -0.21597512 -0.19869106 0.08113873 -0.0068322183
-0.013129144 0.18672077 -0.0137690045 0.044646896 -0.06266319 0.056946356 -0.07000612 0.032650772
-0.044126753 0.060339157 -0.10093739 -0.24236476 0.030716024 -0.022437153 -0.029833805 0.0297081
00000000: 8703 a5bc 4dc9 92bd b84f 0d3e 6b84 f8bd
00000010: a1fa e73c 681f e5bc cd85 41be 15c5 243a
00000020: efd5 bc3c 4cb8 cebd 8946 763d 4e56 e3bd
00000030: ed3d 83bd 19cc c93c 1e16 5d3e 18b2 eabc
00000040: 6250 9a3d d6d2 073e 492d de3c 58bb 38bd
00000050: cabf 0a3e b96a a8bd e2d0 b8bb 5ca5 313d
00000060: c96a c6bd 9bdf 833c d582 86bc cacb fb3d
00000070: 52a0 d3bd d6d5 bcbd 3653 1dbc 3573 55bd
00000080: eb0b d0bd 1ce1 ce3d 89cd e33c f54b a1bd
00000090: ac75 9e3d 5c8f 8b3d 1a50 dc3d 0655 aebd
000000a0: 5a01 0a3e 3211 d23c 2023 c53c b1a7 9d3d
000000b0: 99c7 0f3e 83be cb3d 52b2 fe3d fab5 13bd
000000c0: cb09 843c 88a6 d13d e835 9bbd f41e 4a3e
000000d0: 8f3e 82bc b0b3 bdbd 10ab dbbc ea6e cfbc
000000e0: 4c1b 97bd 6e98 36bd df43 babd 72a3 443e
000000f0: 24c8 debd 13bf 92bc 67c5 2cbd 9987 b4bd
00000100: e774 303e b433 fd3d e179 873c 3909 233c
00000110: 9a7e 883c dec0 503e 4239 4a3e 3ff7 11bd
00000120: 3e03 2b3e 8bf5 cf3d 5288 093e bb0d 403e
00000130: 5b6f 723d 32ac 263d df96 333e f744 9d3d
00000140: 091f f93d 5b7d 6b3d a19d d2bd 819b 283e
00000150: 416f 3ebd b645 cb3d 6c65 a7bd 264c 123e
00000160: 164f 153c 8a5a ed3c 9ac9 d63d e361 b9bd
00000170: 2a77 1b3d fbea 793d a060 b3bd 8ddb f83d
00000180: 9ec1 d13d 07c6 51bd 2894 e63d 3ddc 173e
00000190: 1dea e3bd e6ff be3d 34be 973d 096f e13d
000001a0: ff94 a03e 18fa 243d 1a85 4bbd 6fca 42bd
000001b0: d6f5 b83c 4303 ba3e 9a54 0f3e f901 a1bc
000001c0: c3f9 ce3d 4bec b6bc 9e4d ee3d 200b 1dbe
000001d0: 2442 ac3d e4e5 723d c802 1e3e c536 013e
000001e0: 67ac c5bc dd0e 403e b80a 91bd 4ae1 593c
000001f0: 43a9 ff3d 8e14 3bbd e1bf 4e3e 4224 0cbc
00000200: 8f7e 31be a7fd 713c 0653 d03d 97ed 82bc
00000210: aa50 29bd b634 80bd 0e6a 96bc 79fb 7a3d
00000220: 0b11 9fbc 2481 813d 1800 1b3d 1457 a53d
00000230: 8f55 19bb 4643 4a3e 6173 e73d 00ac c4bd
00000240: 0b8f efbb eda5 9cbc 9661 b8bd e07b b7bd
00000250: 0754 f03d 4eec 943c d16f f1bb 1d03 5abd
00000260: 4e04 2a3c 66ad 6b3d 913e 103d 1dc5 043d
00000270: a92f 843d 001f babd 8750 c9bc ac62 1ebb
00000280: 2841 403d 9deb 45bd 8c20 67be 29ba 87bd
00000290: 3694 203e 71db 5cbd 0894 2f3d 0856 c7bc
000002a0: 3cc0 923d ab34 0d3c f559 993b 02df 48bd
000002b0: 9528 5dbe ab75 4bbe 102c a63d cde0 dfbb
000002c0: 9f1b 57bc bb33 3f3e 6497 61bc aadf 363d
000002d0: 8f55 80bd 9540 693d 5e5f 8fbd d1bc 053d
000002e0: 41be 34bd 3126 773d 43b8 cebd 782e 78be
000002f0: 2ca0 fb3c 1fce b7bc 0666 f4bc 675e f33c

grucell.bias_hh f4 [192]
0.10399779 0.07911532 -0.023388555 0.0036046114 -0.08928907 -0.07605205 -0.09147262 -0.106049456
-0.020190105 -0.11243379 0.09805017 -0.015232041 0.09869518 0.051225126 0.21356998 -0.032960378
0.0683579 0.12807658 -0.055413425 0.04121188 -0.03356247 -0.027906163 -0.10247551 0.1411818
-0.07233257 -0.07665882 0.100022234 -0.08901 0.053324506 -0.036376495 -0.039954487 0.044049393
0.0012054911 0.11158571 -0.009674967 -0.06566752 -0.07512498 0.05617231 0.09378339 0.05708919
0.06291265 -0.08148268 0.10255086 0.1357198 0.10538287 0.13214989 -0.065570496 0.052555136
-0.039583948 -0.013214227 0.008647758 0.19378336 0.07637689 -0.069656625 0.049921162 -0.020380536
0.0802412 -0.033228282 0.022300037 0.15376696 0.095500775 0.1551708 0.08656806 -0.05685326
0.08536559 0.061069906 -0.025446597 0.090378925 0.21333295 0.076171234 0.103790656 -0.020511199
0.15952957 -0.10814998 0.091914505 0.13686207 -0.043550227 0.06723744 0.18677506 0.12972994
0.018130621 0.12791516 -0.08061269 0.106917605 -0.018986627 0.01194704 0.07546016 0.05137425
0.02768877 0.039967787 -0.08890422 -0.13634802 0.027809644 -0.009288081 -0.07197644 0.09840985
-0.07937884 -0.021394223 -0.01802696 0.112595096 -0.0017361618 0.050282646 0.18750851 0.14507331
0.22886518 0.02955604 -0.1030386 -0.108229436 -0.09808234 0.25498456 0.10693334 -0.026095198
-0.034111377 0.14953637 -0.07748263 -0.13402317 0.07379574 0.18531531 0.01595591 0.14170766
-0.025936529 0.095727034 0.02815438 -0.00039964227 0.17187147 0.17562649 0.1260213 0.045269933
-0.17991163 -0.06187326 -0.08107901 -0.07678045 -0.08448419 -0.007155725 -0.08657294 -0.019702656
-0.010083251 0.0063487324 0.016003016 -0.04552849 -0.083055764 0.16714601 -0.08895904 0.014052199
-0.0027693005 0.057277344 -0.0059943506 -0.059164405 0.0789042 0.12511066 0.038908657 -0.09189643
0.042780444 -0.09659842 0.024969226 0.10469766 0.08937937 -0.042829484 -0.12054328 0.047739085
0.10658584 -0.10543821 -0.09346513 -0.06275409 0.045944948 0.02901502 -0.011091534 -0.11251239
0.14205106 -0.04553915 0.03510526 -0.0911115 -0.01163942 -0.08499058 0.038139224 0.09872564
-4.5303153e-05 0.21555786 -0.11697105 0.083785854 0.06002387 0.029096518 0.056949917 -0.043739762
-0.16079532 0.08280006 -0.0041118762 -0.07947701 -0.008857793 -0.050819475 -0.058961138 -0.08133907
00000000: cbfc d43d 3707 a23d 5b99 bfbc 583b 6c3b
00000010: 30dd b6bd 2dc1 9bbd ff55 bbbd 7530 d9bd
00000020: b865 a5bc b043 e6bd 87ce c83d cf8f 79bc
00000030: b320 ca3d 70d1 513d 17b2 5a3e 7601 07bd
00000040: 3aff 8b3d 8226 033e 30f9 62bd cacd 283d
00000050: cd78 09bd 779b e4bc aede d1bd f691 103e
00000060: 1923 94bd 4dff 9cbd 75d8 cc3d e04a b6bd
00000070: cc6a 5a3d 85ff 14bd 51a7 23bd 236d 343d
00000080: 9201 9e3a 0c87 e43d c183 1ebc b17c 86bd
00000090: 20db 99bd f014 663d 8211 c03d 5bd6 693d
000000a0: 59d8 803d 64e0 a6bd 2f06 d23d 22fa 0a3e
000000b0: f9d2 d73d 4d52 073e d349 86bd 0e44 573d
000000c0: c722 22bd 7c80 58bc 53af 0d3c 256f 463e
000000d0: 7d6b 9c3d 22a8 8ebd 227a 4c3d 15f5 a6bc
000000e0: 8055 a43d 611a 08bd 91ae b63c 1675 1d3e
000000f0: e995 c33d 18e5 1e3e 984a b13d f7de 68bd
00000100: 28d4 ae3d 7024 7a3d 6275 d0bc 9618 b93d
00000110: f473 5a3e aaff 9b3d 3290 d43d 1a07 a8bc
00000120: b85b 233e bd7d ddbd ac3d bc3d 9225 0c3e
00000130: b961 32bd c8b3 893d f641 3f3e edd7 043e
00000140: ab86 943c 31fc 023e 4418 a5bd 9ef7 da3d
00000150: d889 9bbc 85bd 433c db8a 9a3d ce6d 523d
00000160: 8fd3 e23c 43b5 233d 6a13 b6bd d19e 0bbe
00000170: 0dd1 e33c 092d 18bc 6268 93bd 1a8b c93d
00000180: 6091 a2bd f042 afbc 46ad 93bc 4298 e63d
00000190: ec8f e3ba 2df5 4d3d 3b02 403e 198e 143e
000001a0: a25b 6a3e 821f f23c e705 d3bd 65a7 ddbd
000001b0: 65df c8bd 568d 823e deff da3d 99c5 d5bc
000001c0: 5fb8 0bbd 1020 193e 37af 9ebd 5f3d 09be
000001d0: 3922 973d 4cc3 3d3e f8b5 823c d01b 113e
000001e0: d878 d4bc 890c c43d 04a4 e63c 1487 d1b9
000001f0: 13ff 2f3e 6ed7 333e ba0b 013e f76c 393d
00000200: c13a 38be d16e 7dbd c10c a6bd 123f 9dbd
00000210: 0c06 adbd 927a eabb 274d b1bd 7767 a1bc
00000220: 3834 25bc 0709 d03b c218 833c 157c 3abd
00000230: 2419 aabd 5328 2b3e 2830 b6bd 323b 663c
00000240: 277d 35bb a69b 6a3d 426c c4bb 6056 72bd
00000250: 8698 a13d 021d 003e af5e 1f3d 3234 bcbd
00000260: 8c3a 2f3d 64d5 c5bd 438c cc3c ba6b d63d
00000270: 880c b73d f86d 2fbd 65df f6bd 0f8a 433d
00000280: ad49 da3d fdef d7bd a56a bfbd 3785 80bd
00000290: c530 3c3d e8b0 ed3c 44b9 35bc e56c e6bd
000002a0: d575 113e 4287 3abd 88ca 0f3d ab98 babd
000002b0: 44b3 3ebc 8b0f aebd e037 1c3d ab30 ca3d
000002c0: e403 3eb8 33bb 5c3e 858e efbd eb97 ab3d
000002d0: 97db 753d d25b ee3c 5144 693d 7728 33bd
000002e0: 87a7 24be 1493 a93d ebbc 86bb d8c4 a2bd
000002f0: 4720 11bc 1528 50bd 3c81 71bd 1995 a6bd

linear.weight f4 [2, 64]
0.0453314 0.033269178 -0.112943605 -0.08577141 0.11806357 0.07251459 0.086805865 -0.014848731
0.106581286 0.01127082 -0.03603883 -0.07365934 -0.10235643 -0.15564723 -0.056228667 0.037994828
-0.059843626 0.023261249 0.1046583 -0.08178591 0.1327557 0.12096978 0.115452625 0.11746603
0.047171377 0.0015114015 0.118149996 -0.009195459 0.10367136 0.029179899 -0.114980094 -0.11709485
0.11779992 -0.053564277 0.087310806 -0.0548627 0.049748037 -0.085393034 0.085983194 0.112327494
0.08653658 0.09155444 -0.022287097 0.19798927 -0.0013414089 -0.044501696 0.18217261 -0.038305983
0.14149626 -0.18659289 -0.05445735 0.010989874 -0.006026946 -0.057951614 -0.12844229 0.007452851
-0.057746917 0.04112195 -0.06953926 -0.11209682 -0.124556586 0.08017624 0.059731506 -0.25172594
0.22275776 -0.03925065 0.13592274 0.034945685 0.11309 0.1823398 0.10482431 -0.00034641646
0.07024677 -0.108661585 0.14543355 0.17814964 -0.17353788 0.15289181 -0.24857429 0.03521924
-0.047878545 -0.028982578 0.13141227 0.14694196 -0.07764241 0.0005827065 -0.17780569 0.1504679
0.033042423 -0.03468589 0.25411344 0.021798106 0.09616392 -0.22968039 -0.07342395 0.06798272
0.12081457 -0.13110253 0.108711965 -0.07471054 0.14770718 -0.13607657 -0.059468854 0.064229056
-0.007120923 -0.17880975 0.16916722 -0.032691456 -0.043072656 -0.08838278 -0.07013795 0.046104614
0.08484522 0.1778913 -0.17484307 0.13537613 0.088061064 0.29945982 0.057165377 -0.013721469
0.08291288 -0.08448886 0.0014769831 0.31284887 -0.027093075 0.044537954 0.12438584 -0.18954964
00000000: 6bad 393d 4345 083d fa4e e7bd eca8 afbd
00000010: 50cb f13d 8882 943d 46c7 b13d 1848 73bc
00000020: 4a47 da3d 3fa9 383c 749d 13bd b5da 96bd
00000030: 3fa0 d1bd fd61 1fbe 0850 66bd 77a0 1b3d
00000040: 971e 75bd 608e be3c 1757 d63d 5f7f a7bd
00000050: 1cf1 073e 01bf f73d 6d72 ec3d 0892 f03d
00000060: c636 413d 381a c63a a0f8 f13d 8da8 16bc
00000070: a651 d43d af0a ef3c af7a ebbd 6dcf efbd
00000080: 1641 f13d 3766 5bbd 02d0 b23d b6b7 60bd
00000090: 99c4 4b3d 8be2 aebd f517 b03d f50b e63d
000000a0: 173a b13d e580 bb3d 6e93 b6bc b3bd 4a3e
000000b0: 37d2 afba 6947 36bd 758b 3a3e bce6 1cbd
000000c0: 65e4 103e 3512 3fbe ac0e 5fbd df0e 343c
000000d0: b07d c5bb ac5e 6dbd 6086 03be 0c37 f43b
000000e0: 0888 6cbd 7d6f 283d 996a 8ebd 0493 e5bd
000000f0: 8617 ffbd 7133 a43d 06a9 743d 39e2 80be
00000100: 9c1a 643e 4ac5 20bd 552f 0b3e 3523 0f3d
00000110: bb9b e73d 49b7 3a3e 21ae d63d 3b9f b5b9
00000120: 8add 8f3d f789 debd 88ec 143e dc6c 363e
00000130: eab3 31be ac8f 1c3e 428a 7ebe 0d42 103d
00000140: 4b1c 44bd df6c edbc f090 063e f477 163e
00000150: fc02 9fbd c5c0 183a b212 36be 4214 1a3e
00000160: 7e57 073d cb12 0ebd 281b 823e f191 b23c
00000170: 97f1 c43d 5631 6bbe 4c5f 96bd 863a 8b3d
00000180: a16d f73d be3f 06be 61a4 de3d d701 99bd
00000190: 8d40 173e a857 0bbe 9d95 73bd 868a 833d
000001a0: a256 e9bb e719 37be 2c3a 2d3e 7ae7 05bd
000001b0: f46c 30bd 0802 b5bd 7ca4 8fbd 31d8 3c3d
000001c0: 55c3 ad3d 2329 363e 100a 33be 0aa0 0a3e
000001d0: 5c59 b43d cc52 993e 3e26 6a3d 03d0 60bc
000001e0: 3ace a93d 7f08 adbd 5497 c13a ba2d a03e
000001f0: 4cf2 ddbc 6e6d 363d 01be fe3d 4d19 42be

linear.bias f4 [2]
0.08350521 0.130084
00000000: c804 ab3d bd34 053e

linear_final.weight f4 [5, 64]
0.22899444 0.042781785 0.028779343 0.023306837 -0.02004114 -0.029589072 0.11022773 0.059109256
0.006313805 -0.021596277 -0.0027575516 -0.07075186 -0.055618823 0.04625517 -0.032083675 0.0015370623
-0.004486607 -0.101637244 -0.03666585 -0.0754444 0.037607227 0.042367365 -0.043738507 0.05578779
-0.00213632 -0.0238145 0.009789363 -0.095498905 0.0058176606 0.08960755 -0.01704009 -0.067627974
0.059528913 -0.0501207 -0.042600267 0.103745446 0.009378419 -0.05212937 -0.028490933 -0.087854214
0.08039769 -0.008748299 -0.008578287 0.042251673 0.00447353 -0.09903497 -0.08676634 0.008667745
-0.059188146 -0.019842088 0.034903564 0.21485381 0.078353316 -0.078762285 -0.056809448 0.02388566
-0.08952949 0.031667445 -0.04386682 0.09932293 0.002165313 0.037962224 -0.029999597 -0.059546016
-0.05753282 0.1042577 -0.020404747 -0.04921464 -0.037991736 -0.018132592 -0.03603902 0.012365211
-0.017224755 0.005131407 -0.032218255 0.0033636864 -0.06645496 -0.020514142 0.09662626 0.019832063
0.022551669 -0.00049872295 -0.011631836 -0.018513992 -0.023439376 0.03864929 0.020819137 -0.0140275555
-0.007663713 -0.0128413355 0.008280398 0.015021972 -0.02653692 -0.024659835 0.04198671 0.055543143
0.0045748237 0.002653064 0.005436472 -0.07156369 -0.066240914 0.09636958 -0.052398734 -0.08005973
-0.0062833712 -0.06532521 -0.0028174345 -0.11257513 0.057166927 -0.09594447 0.073613666 0.07387356
0.060356922 -0.065530024 0.033665773 -0.110346094 -0.04845669 0.11919615 0.045491036 -0.03968148
0.06654863 -0.07416435 -0.0028572911 0.027656129 -0.05917361 -0.0025261496 -0.0090669375 -0.0043392233
0.019496163 0.14381959 0.07971761 0.052653268 -0.043953817 0.15381943 0.11176612 -0.21325363
0.1532942 -0.015338573 -0.3387377 -0.20667745 0.30445078 0.31463498 0.05965118 0.17239907
-0.090534955 0.19289638 -0.14810272 0.11843353 -0.30277473 -0.28930265 -0.09045355 0.025269415
0.040979005 -0.22215752 -0.17855014 0.045535862 -0.073078305 0.2111892 0.012493646 0.0066600284
0.15560636 0.12216999 -0.1486656 -0.13990943 -0.33350292 0.22744994 0.07919132 0.116145805
-0.31410167 0.10290848 -0.18335053 -0.38095498 0.14661685 0.12150454 0.02976489 -0.11736441
0.32677305 -0.089510895 0.05378605 0.37194702 -0.51699924 -0.3214181 0.3620145 0.018980108
0.101014584 -0.04264093 -0.09852012 -0.122165956 -0.26682255 0.18914929 0.004168095 0.2116731
0.062415503 0.081232876 -0.11548037 0.21946932 0.12825415 0.2018324 0.3135238 -0.31595966
0.15867771 0.03046218 -0.49137098 -0.40107864 0.22645363 -0.38982135 -0.48734424 0.02667961
0.01396052 -0.0928529 -0.075708024 -0.019316709 -0.2029744 -0.009043325 0.05451651 -0.12539956
-0.06899595 -0.28803313 -0.13188565 -0.16356151 -0.05658857 0.22395954 -0.028489871 -0.24403003
-0.016198715 0.21593857 -0.32466385 -0.06495586 -0.3266539 -0.014789663 0.023828257 0.1646643
-0.38525006 0.06697259 -0.12718415 0.4662335 0.18211702 0.18579641 0.0039148964 -0.045852926
0.34449738 -0.14536655 0.31654242 -0.41519836 -0.31045866 -0.1387167 0.4171414 -0.18721235
0.22046806 -0.21361458 0.28857395 0.16594304 -0.03541174 -0.025231337 -0.109943286 0.08975459
00000000: 857d 6a3e f43b 2f3d a8c2 eb3c fbed be3c
00000010: 512d a4bc c864 f2bc 13bf e13d 8c1c 723d
00000020: 09e4 ce3b adea b0bc 0ab8 34bb 5ae6 90bd
00000030: 90d0 63bd 1076 3d3d 2c6a 03bd 4177 c93a
00000040: 6304 93bb 3027 d0bd ee2e 16bd 9882 9abd
00000050: 090a 1a3d 6789 2d3d 2627 33bd bd81 643d
00000060: 8101 0cbb a016 c3bc 9063 203c ee94 c3bd
00000070: 13a2 be3b 2a84 b73d a997 8bbc 8980 8abd
00000080: 97d4 733d 5d4b 4dbd 9e7d 2ebd 7e78 d43d
00000090: f1a7 193c 9b85 55bd d165 e9bc e9ec b3bd
000000a0: 8ba7 a43d 0755 0fbc f28b 0cbc 1710 2d3d
000000b0: b196 923b d9d2 cabd 8db2 b1bd 2803 0e3c
000000c0: 456f 72bd e08b a2bc 0af7 0e3d a302 5c3e
000000d0: b477 a03d 1f4e a1bd 06b1 68bd dcab c33c
000000e0: 3d5b b7bd b9b5 013d b2ad 33bd d269 cb3d
000000f0: ede7 0d3b 477e 1b3d b7c1 f5bc 86e6 73bd
00000100: 89a7 6bbd 1085 d53d db27 a7bc 4a95 49bd
00000110: 399d 1bbd cd8a 94bc a79d 13bd 7497 4a3c
00000120: ee1a 8dbc 5d25 a83b 4af7 03bd 4b71 5c3b
00000130: 8a19 88bd 460d a8bc fde3 c53d da76 a23c
00000140: 47be b83c bbbc 02ba 7593 3ebc a8aa 97bc
00000150: ef03 c0bc b84e 1e3d e58c aa3c d5d3 65bc
00000160: e21f fbbb 7764 52bc 82aa 073c b81e 763c
00000170: f463 d9bc 6c03 cabc 42fa 2b3d 3581 633d
00000180: 67e8 953b 07df 2d3b 6f24 b23b fc8f 92bd
00000190: 51a9 87bd 6a5d c53d 0ea0 56bd 5bf6 a3bd
000001a0: bde4 cdbb 39c9 85bd b5a4 38bb ca8d e6bd
000001b0: de27 6a3d 897e c4bd c3c2 963d 054b 973d
000001c0: d238 773d 9b34 86bd 1fe5 093d 22fd e1bd
000001d0: 867a 46bd 1c1d f43d cf54 3a3d 0c89 22bd
000001e0: a64a 883d 7be3 97bd 6441 3bbb 1b8f e23c
000001f0: 0760 72bd c28d 25bb 7e8d 14bc 0b30 8ebb
00000200: 6bb6 9f3c 7145 133e fc42 a33d f4aa 573d
00000210: eb08 34bd d782 1d3e a3e5 e43d 295f 5abe
00000220: 28f9 1c3e a34e 7bbc 076f adbe 41a3 53be
00000230: f9e0 9b3e d617 a13e cc54 743d 6289 303e
00000240: 646a b9bd a186 453e 3da8 17be 478d f23d
00000250: 4a05 9bbe 7a1f 94be b63f b9bd ce01 cf3c
00000260: 9ad9 273d 437d 63be d9d5 36be d083 3a3d
00000270: 14aa 95bd fb41 583e 26b2 4c3c 5e3c da3b
00000280: 4657 1f3e 4234 fa3d cc3b 18be 6b44 0fbe
00000290: e5c0 aabe a3e8 683e 0f2f a23d dadd ed3d
000002a0: efd1 a0be aec1 d23d 3ec0 3bbe 880c c3be
000002b0: ba22 163e 5fd7 f83d 80d5 f33c c05c f0bd
000002c0: cc4e a73e 7d51 b7bd c34e 5c3d d76f be3e
000002d0: 105a 04bf ea90 a4be f759 b93e 2c7c 9b3c
000002e0: bce0 ce3d 41a8 2ebd ebc4 c9bd 2532 fabd
000002f0: f79c 88be 5ab0 413e 8494 883b d5c0 583e
00000300: 66a7 7f3d 6c5d a63d f980 ecbd 91bc 603e
00000310: 0e55 033e 27ad 4e3e 3186 a03e 77c5 a1be
00000320: 697c 223e d28b f93c fa94 fbbe 2e5a cdbe
00000330: 76e3 673e aa96 c7be 2f85 f9be 338f da3c
00000340: aaba 643c a929 bebd cf0c 9bbd 133e 9ebc
00000350: 85d8 4fbe 742a 14bc b44c 5f3d be68 00be
00000360: c04d 8dbd 1479 93be 080d 07be ab7c 27be
00000370: 6bc9 67bd a655 653e 9763 e9bc 02e3 79be
00000380: 2bb3 84bc 001f 5d3e 573a a6be 9407 85bd
00000390: 2e3f a7be 5850 72bc 7a33 c33c c29d 283e
000003a0: 7f3f c5be ed28 893d 903c 02be 28b6 ee3e
000003b0: e27c 3a3e 6a41 3e3e 8848 803b 47d0 3bbd
000003c0: f661 b03e f8da 14be d911 a23e e194 d4be
000003d0: 70f4 9ebe c00b 0ebe 8f93 d53e 98b4 3fbe
000003e0: 61c2 613e c8bd 5abe f7bf 933e f9ec 293e
000003f0: e70b 11bd f3b1 cebc f229 e1bd 41d1 b73d

linear_final.bias f4 [5]
-0.037959527 0.013781761 -1.3062053 -1.4221385 -0.23769984
00000000: 737b 1bbd e5cc 613c bc31 a7bf a208 b6bf
00000010: 9667 73be
