results2_checkpoint/zara1/latest.pth (torch_old, 55823 bytes, 10 tensors)

gcn.gc1.weight f4 [2, 2]
-0.0285924 0.04432576 0.084378526 -0.026250644
00000000: 9c3a eabc ee8e 353d a6ce ac3d 970b d7bc

gcn.gc1.bias f4 [2]
0.02842077 -0.03656438
00000000: add2 e83c 88c4 15bd

grucell.weight_ih f4 [192, 2]
0.060324535 -0.004863794 -0.015425161 0.010027196 -0.09859024 -0.02911066 -0.12478607 0.0476013
-0.07189021 0.117942266 -0.0822383 -0.056901637 -0.032574233 0.061503697 -0.004947793 -0.11445901
0.033967283 0.11448676 0.04598779 0.038293462 -0.03413625 -0.06876437 -0.06748007 0.08929998
0.0108024 -0.12401923 0.09819785 0.030100472 -0.037805572 -0.043724447 0.054980244 -0.09274873
-0.10511778 -0.073781975 -0.117445 0.09904813 -0.05762054 0.03301705 -0.04398248 -0.119233906
-0.05510626 0.083870344 0.12183789 0.07822591 -0.123023786 -0.09468982 0.07582835 -0.008189182
-0.08968051 -0.037556082 -0.052447982 0.05602142 0.06238659 -0.057058446 0.057419665 -0.06562368
-0.073830605 -0.07128162 0.064335145 0.0051256036 -0.103307486 -0.063984334 0.07907523 0.10659068
-0.065049425 -0.002694991 0.11462579 -0.015814316 0.008958365 -0.021637682 -0.086233824 0.05256811
-0.105705515 0.006116077 0.023932893 -0.10713729 -0.053723533 -0.11255969 0.057572406 -0.12230419
0.08392694 0.1105753 -0.071294695 -0.091860995 -0.051997717 0.031115545 -0.08595156 0.030514743
0.08321205 0.0047011543 -0.07181606 0.025480088 -0.06901024 0.07771973 -0.02773277 0.1078458
-0.032039784 -0.07787886 0.07180805 -0.09403934 0.097048946 0.12070124 0.06772609 -0.1161203
0.04653202 0.042184837 0.111197114 0.01953754 0.030319873 -0.033083238 0.0027614068 0.121410966
-0.027231298 0.07679077 0.0070359847 0.10983582 -0.055879477 0.09873646 0.016431088 0.024441274
-0.0055497545 -0.0154282665 0.05265132 -0.109883085 0.039330866 -0.09338741 0.07372921 -0.009658113
0.071587324 0.07399487 0.07345754 -0.10456025 0.00139591 -0.09927753 0.07350296 -0.018664386
-0.029411603 0.030334748 0.11557471 0.016082713 -0.07209754 0.09909652 -0.08313698 0.0648748
0.05832507 -0.07827333 0.10139495 0.1188829 0.010683531 0.0637211 -0.098794304 0.06296718
-0.0860328 -0.04152874 0.05125831 0.009656787 -0.062882274 0.07913386 -0.07956465 -0.07745037
0.054210942 0.05507289 0.028122127 -0.076738246 -0.02183458 0.11787428 -0.025846986 -0.112894736
0.1123839 0.07054196 -0.0674827 -0.11632949 -0.039244376 0.042588968 -0.024967475 -0.09694192
-0.10988915 0.03630113 0.09097584 -0.040214203 -0.06232481 -0.005071607 -0.10843469 0.12426481
0.08980612 0.05399024 -0.10896253 0.0057749925 -0.035259645 0.037202906 0.034952816 0.029638784
-0.023694975 -0.11605121 -0.09006587 0.056106083 0.11091887 -0.07102718 -0.028087327 -0.04097068
0.031278156 0.10768729 -0.092204824 -0.0640537 0.0733228 -0.0873568 -0.06345271 -0.036592923
-0.05508983 -0.10490509 -0.11002599 0.009271483 -0.02919329 -0.08572738 -0.0996841 -0.019690273
0.11405469 -0.07172606 0.11061813 0.054840993 -0.07542724 0.05875113 0.11551942 0.11608697
0.116134465 0.100296035 -0.0031756046 0.031581804 -0.11826974 -0.08654998 0.06671272 0.08987847
-0.0358096 -0.09323159 0.08539689 0.01664702 0.109239325 0.010176757 0.1199697 0.11574403
0.015963802 -0.09715868 0.00628508 -0.1237925 0.061494097 -0.033594728 -0.1117757 0.010080306
0.10863309 -0.07898993 0.0046920767 0.114620626 0.036798164 -0.11668361 0.09268742 0.11767345
00000000: dc16 773d 7660 9fbb d1b9 7cbc 1c49 243c
00000010: aee9 c9bd 7b79 eebc d78f ffbd 95f9 423d
00000020: 2d3b 93bd b78b f13d 8e6c a8bd b111 69bd
00000030: 8f6c 05bd 4deb 7b3d 1921 a2bb 7c69 eabd
00000040: 4721 0b3d 0978 ea3d b15d 3c3d 9bd9 1c3d
00000050: 74d2 0bbd 56d4 8cbd fe32 8abd e8e2 b63d
00000060: 8dfc 303c cbfd fdbd f41b c93d 4495 f63c
00000070: 04da 1abd 6818 33bd f732 613d 0cf3 bdbd
00000080: fe47 d7bd 011b 97bd 0187 f0bd bfd9 ca3d
00000090: 8403 6cbd e33c 073d f926 34bd e830 f4bd
000000a0: 1ab7 61bd 37c4 ab3d 2586 f93d e834 a03d
000000b0: e5f3 fbbd bdec c1bd e54b 9b3d eb2b 06bc
000000c0: 6aaa b7bd 68d4 19bd b2d3 56bd b776 653d
000000d0: 1589 7f3d 1eb6 69bd e230 6b3d b565 86bd
000000e0: 8034 97bd 19fc 91bd 25c2 833d aef4 a73b
000000f0: e092 d3bd 380a 83bd 32f2 a13d 374c da3d
00000100: a238 85bd 729e 30bb edc0 ea3d 068d 81bc
00000110: 1bc6 123c 8241 b1bc 5c9b b0bd a951 573d
00000120: 227c d8bd 5f69 c83b ea0e c43c cc6a dbbd
00000130: 350d 5cbd b285 e6bd 0bd1 6b3d 9f7a fabd
00000140: e3e1 ab3d 4e75 e23d f402 92bd 9e21 bcbd
00000150: 8ffb 54bd 07e6 fe3c 5f07 b0bd 0efa f93c
00000160: 146b aa3d 240c 9a3b 4c14 93bd 9ebb d03c
00000170: 3e55 8dbd 862b 9f3d d62f e3bc 42de dc3d
00000180: 263c 03bd f47e 9fbd 1910 933d b397 c0bd
00000190: 99c1 c63d 3632 f73d fab3 8a3d 7bd0 edbd
000001a0: 5c98 3e3d 02ca 2c3d 50bb e33d 310d a03c
000001b0: 6261 f83c 4a82 07bd b8f8 343b 50a6 f83d
000001c0: 2c14 dfbc 7b44 9d3d 1e8e e63b 9af1 e03d
000001d0: e1e1 64bd 5736 ca3d 7d9a 863c 1139 c83c
000001e0: b7da b5bb d7c6 7cbc e9a8 573d 620a e1bd
000001f0: 6719 213d e641 bfbd 57ff 963d 103d 1ebc
00000200: 609c 923d 9f8a 973d e870 963d af23 d6bd
00000210: f8f6 b63a 0552 cbbd b888 963d 0ee6 98bc
00000220: 9af0 f0bc 9480 f83c 6fb2 ec3d e5bf 833c
00000230: e0a7 93bd 1ef3 ca3d b943 aabd 14dd 843d
00000240: 45e6 6e3d c54d a0bd 28a8 cf3d e178 f33d
00000250: fa09 2f3c 3580 823d ab54 cabd f0f4 803d
00000260: f731 b0bd 0a1a 2abd 3cf4 513d 8037 1e3c
00000270: 6cc8 80bd ef10 a23d cbf2 a2bd 4d9e 9ebd
00000280: 4b0c 5e3d 1c94 613d 6060 e63c f128 9dbd
00000290: 6fde b2bc 1268 f13d 0fbd d3bc 5b35 e7bd
000002a0: 8829 e63d 4e78 903d 5f34 8abd 283e eebd
000002b0: b6be 20bd c571 2e3d 9788 ccbc 7c89 c6bd
000002c0: 900d e1bd 7eb0 143d 8b51 ba3d a6b7 24bd
000002d0: 4d48 7fbd b92f a6bb 0213 debd 8c7e fe3d
000002e0: 45ec b73d df24 5d3d bf27 dfbd 263c bd3b
000002f0: 6b6c 10bd 1362 183d af2a 0f3d 09cd f23c
00000300: f71b c2bc 42ac edbd 7474 b8bd 7ecf 653d
00000310: 6f29 e33d b376 91bd 6517 e6bc dfd0 27bd
00000320: 861d 003d 278b dc3d e2d5 bcbd 962e 83bd
00000330: 442a 963d 1fe8 b2bd 7ff3 81bd 76e2 15bd
00000340: e0a5 61bd 7bd8 d6bd 4e55 e1bd 6be7 173c
00000350: c426 efbc d691 afbd 2d27 ccbd 7f4d a1bc
00000360: 8195 e93d 1de5 92bd c28b e23d f3a0 603d
00000370: 9979 9abd 06a5 703d 7295 ec3d 01bf ed3d
00000380: e8d7 ed3d 0268 cd3d ce1d 50bb ec5b 013d
00000390: 6837 f2bd 1e41 b1bd aea0 883d 3412 b83d
000003a0: 16ad 12bd 34f0 bebd 91e4 ae3d 555f 883c
000003b0: deb8 df3d 6abc 263c adb2 f53d 350b ed3d
000003c0: 85c6 823c 21fb c6bd 13f3 cd3b ec86 fdbd
000003d0: 3ce1 7b3d a09a 09bd a8ea e4bd de27 253c
000003e0: 077b de3d 79c5 a1bd febf 993b 38be ea3d
000003f0: acb9 163d d1f7 eebd e7d2 bd3d c7fe f03d

grucell.weight_hh f4 [192, 64]
0.07305968 0.011185204 -0.03069208 0.0015781542 -0.04783529 0.07270008 -0.062012747 0.106786594
0.08050756 -0.058674786 -0.08328315 -0.06938109 0.1175268 0.06382838 -0.09904969 -0.042424716
0.0011302297 -0.039544806 0.09403936 0.023028318 -0.029255213 0.047771785 -0.072693676 0.07076409
0.024186859 -0.015991325 0.08031292 0.026883293 0.105691 0.08345171 -0.07599316 0.024867743
-0.105981365 0.11294835 0.064402446 0.031948175 -0.02899278 -0.10011869 0.029279543 -0.022353593
0.06001903 0.05701985 0.037415273 -0.052361306 -0.07923987 0.008880453 -0.105123654 -0.012891669
0.10555748 0.019327588 -0.091520466 0.111579664 -0.08826849 0.04068869 -0.100945584 0.10077246
0.031374976 -0.06700389 -0.09939073 0.118943684 -0.026798017 0.047648285 -0.02536918 -0.12337876
0.10348265 -0.03775711 -0.049618717 -0.045750707 -0.10859292 -0.06112921 0.121431306 -0.06222326
0.08660777 0.0810939 -0.04340911 -0.1085033 0.110960595 -0.07721515 0.008969056 0.012097024
-0.035278622 0.06219765 -0.110760935 0.086763345 -0.05487365 -0.0047117695 -0.1233097 -0.00958954
0.020877238 0.050682757 0.06319504 0.029267903 0.07333649 0.09460946 0.10648272 -0.10669977
-0.041513633 -0.021011049 0.114897534 0.026782315 0.09741125 0.051059827 0.019795941 -0.028948238
0.06837008 0.07924231 0.035306416 0.038776185 -0.06677878 0.10238173 -0.065326385 0.01707603
-0.10347855 0.011778109 -0.024007918 -0.03679388 0.12072527 0.05090705 0.11554552 0.06376079
-0.0842274 0.0134882685 -0.048975382 0.116691984 -0.010280907 0.008128436 -0.11825584 -0.005042986
-0.047794912 -0.106914155 -0.024868768 0.08076841 -0.037636105 -0.04822627 -0.0028063986 0.033218097
0.03930253 0.054134168 0.09576295 0.005746831 -0.011128868 0.05487219 -0.021145603 -0.04797699
-0.07240471 0.11660473 0.11072518 -0.11355615 0.122371875 -0.12091012 -0.087890364 -0.088167615
0.0448457 0.09949872 0.07963189 -0.012026266 0.018780485 -0.03298362 0.026597612 0.032937244
-0.11929398 0.0051887785 0.097795404 -0.12136492 -0.09376093 -0.06885475 0.013832293 0.048998185
0.11530403 -0.10491256 0.0023427051 -0.07984967 -0.04102625 0.087552875 -0.014317767 0.015216546
0.09339484 -0.11400112 -0.11892467 0.04191586 -0.00409445 0.0028487665 -0.10237495 -0.046310674
-0.03641587 -0.07612435 -0.028457262 -0.11274028 0.04989032 -0.08293943 -0.079154775 -0.07651147
0.08838757 -0.06834242 0.020078136 -0.016618153 -0.07616402 -0.08242388 -0.08070608 -0.015345878
0.08424685 0.07756415 0.0009735524 -0.07835263 -0.006257587 -0.087431185 -0.07988784 -0.058657218
0.028720537 0.08803296 -0.045946565 -0.10546468 -0.07633234 -0.101736836 0.045741465 -0.043726288
-0.012495035 -0.0069148154 0.0943629 -0.019794952 0.065328434 0.0033898882 0.013320135 -0.06470118
-0.011693178 0.047417454 0.016123112 -0.045418896 -0.08604408 -0.015331196 0.009725622 -0.08165432
0.050312538 0.11449786 0.062189095 -0.086030215 -0.08361784 -0.055470802 -0.08600341 -0.097416066
-0.03027075 -0.105876334 -0.09666467 0.059418 0.0041461065 0.056526445 0.025009109 -0.122221805
0.05526662 0.10068564 -0.119625874 -0.015972566 0.093642406 0.12398793 -0.017082212 -0.03982952
00000000: 50a0 953d 2542 373c f56d fbbc 11da ce3a
00000010: f0ee 43bd c8e3 943d 1401 7ebd eeb2 da3d
00000020: 26e1 a43d f954 70bd 5b90 aabd ac17 8ebd
00000030: e4b1 f03d 74b8 823d 90da cabd 8ac5 2dbd
00000040: 3724 943a bcf9 21bd b597 c03d e2a5 bc3c
00000050: a1a8 efbc 59ac 433d 6ce0 94bd c3ec 903d
00000060: 8523 c63c 3d00 83bc 1a7b a43d 5a3a dc3c
00000070: 8674 d83d bbe8 aa3d 4da2 9bbd 70b7 cb3c
00000080: c20c d9bd 7751 e73d 6ee5 833d 17dc 023d
00000090: 4482 edbc 070b cdbd a7db ef3c e21e b7bc
000000a0: 84d6 753d a58d 693d c240 193d cf78 56bd
000000b0: 8348 a2bd 527f 113c 124b d7bd 9437 53bc
000000c0: 852e d83d e454 9e3c 156f bbbd e183 e43d
000000d0: 1cc6 b4bd 2fa9 263d 8fbc cebd cb61 ce3d
000000e0: 0c83 003d 5639 89bd 5e8d cbbd bf98 f33d
000000f0: 8487 dbbc d92a 433d 07d3 cfbc 01ae fcbd
00000100: b6ee d33d 33a7 1abd ff3c 4bbd 1865 3bbd
00000110: f765 debd 9f62 7abd fab0 f83d d1dd 7ebd
00000120: 6a5f b13d 8f14 a63d c0cd 31bd fa36 debd
00000130: 4f3f e33d fa22 9ebd f3f2 123c 9932 463c
00000140: 5180 10bd f7c2 7e3d a1d6 e2bd fbb0 b13d
00000150: 31c3 60bd 3065 9abb cc89 fcbd 721d 1dbc
00000160: be06 ab3c b998 4f3d 676c 813d 3ec3 ef3c
00000170: 7131 963d 9bc2 c13d 9d13 da3d 6985 dabd
00000180: 330a 2abd 5d1f acbc 664f eb3d 9666 db3c
00000190: 8d7f c73d 1c24 513d 192b a23c db24 edbc
000001a0: 9d05 8c3d cb49 a23d 769d 103d c7d3 1e3d
000001b0: 50c3 88bd 83ad d13d d7c9 85bd 08e3 8b3c
000001c0: 90ec d3bd f8f8 403c 41ac c4bc 2eb5 16bd
000001d0: cf3e f73d e983 503d 21a3 ec3d 0495 823d
000001e0: 6a7f acbd e6fd 5c3c 699a 48bd 35fc ee3d
000001f0: 4071 28bc 222d 053c 1e30 f2bd a23f a5bb
00000200: 99c4 43bd cff5 dabd 96b9 cbbc e869 a53d
00000210: 5128 1abd e988 45bd 8eeb 37bb b30f 083d
00000220: b1fb 203d cabb 5d3d 5e1f c43d ea4f bc3b
00000230: db55 36bc a9c1 603d 8b39 adbc 8583 44bd
00000240: ec48 94bd 76ce ee3d e2c3 e23d 2090 e8bd
00000250: 1b9e fa3d ba9f f7bd ddff b3bd 3991 b4bd
00000260: 20b0 373d fcc5 cb3d 0b16 a33d d109 45bc
00000270: 88d9 993c d519 07bd 3ce3 d93c 34e9 063d
00000280: 6750 f4bd a106 aa3b f548 c83d 2c8e f8bd
00000290: bb05 c0bd b803 8dbd d8a0 623c 52b2 483d
000002a0: 8524 ec3d 65dc d6bd 1288 193b 3988 a3bd
000002b0: 240b 28bd ec4e b33d 1195 6abc d24e 793c
000002c0: cb45 bf3d 6b79 e9bd c78e f3bd f7af 2b3d
000002d0: bc2a 86bb 5fb2 3a3b f5a9 d1bd 43b0 3dbd
000002e0: cf28 15bd 15e7 9bbd 341f e9bc 60e4 e6bd
000002f0: cb59 4c3d 26dc a9bd e61b a2bd 0cb2 9cbd
00000300: 8b04 b53d 1cf7 8bbd e77a a43c cb22 88bc
00000310: e2fb 9bbd dacd a8bd 3b49 a5bd 476d 7bbc
00000320: 9d89 ac3d f4d9 9e3d ff35 7f3a 5877 a0bd
00000330: 720c cdbb 1f0f b3bd 3c9c a3bd 8d42 70bd
00000340: 5547 eb3c a04a b43d 7732 3cbd defd d7bd
00000350: 2154 9cbd 675b d0bd 675b 3b3d 561a 33bd
00000360: fab7 4cbc ad95 e2bb 5641 c13d 0629 a2bc
00000370: eaca 853d e328 5e3b b23c 5a3c 0d82 84bd
00000380: be94 3fbc ce38 423d 9e14 843c 2a09 3abd
00000390: e137 b0bd b22f 7bbc 3758 1f3c 613a a7bd
000003a0: 8514 4e3d db7d ea3d feb9 7e3d 9c30 b0bd
000003b0: d53f abbd 5a35 63bd 8e22 b0bd 1382 c7bd
000003c0: 5dfa f7bc b1d5 d8bd 20f8 c5bd 4a60 733d
000003d0: 10dc 873b 4688 673d e7df cc3c 6d4f fabd
000003e0: 405f 623d 4634 ce3d 69fe f4bd e6d8 82bc
000003f0: 97c7 bf3d 62ed fd3d ffef 8bbc 4724 23bd

grucell.bias_ih f4 [192]
0.06332776 -0.06923532 -0.07850181 -0.11730422 0.08438136 -0.07652526 0.08063148 0.053385954
-0.11385871 0.06016458 -0.12238235 0.07466151 0.00818814 0.041803844 -0.087392755 0.061482325
0.043026667 0.027258698 -0.04960168 0.012227447 0.04498913 -0.045798738 0.014346776 0.020743014
-0.07707921 0.09899995 0.08453757 -0.10361666 0.09840233 0.022468988 -0.078244224 0.046043985
0.028021779 -0.053315658 0.05118819 -0.023739135 0.011327337 0.124946766 0.081837006 0.018372415
-0.09176768 -0.06395849 0.09175233 0.10210073 -0.07065984 0.027411098 0.026486915 -0.07811097
0.026194794 0.035620365 -0.03122866 0.06759016 0.040542483 -0.008693066 -0.11625344 -0.04930628
-0.002298568 -0.04815999 -0.009276942 0.03980615 -0.07857218 -0.07014602 0.008051693 0.04862863
0.01879406 -0.12281375 0.04580794 0.09243269 -0.09796834 0.05572192 -0.049594942 -0.00015728014
0.08203306 -0.048499342 0.08005125 -0.060553115 0.12015484 -0.07610278 -0.04099824 0.048404213
0.035463363 -0.12367629 -0.105168805 0.02921588 -0.06975867 0.06277 -0.018051941 -0.067059025
0.02177337 0.021439096 -0.049476437 -0.06074476 -0.07822049 0.0038512354 0.050144844 0.007381567
0.10177558 0.1012494 0.06526768 -0.0057940213 -0.101134665 -0.0676633 -0.0038371496 -0.09105334
0.004378329 -0.016143737 0.025666421 0.04129766 0.029636761 -0.09244438 0.012252367 0.11677548
0.12066107 -0.014654106 0.09657938 -0.083415754 0.08321138 -0.061410792 0.011802324 0.09286142
-0.11401612 0.12511608 0.08052501 -0.11312059 -0.03831517 0.11744572 -0.05592341 0.111336775
0.07254946 -0.07633004 0.0772733 0.059243977 -0.0067188065 -0.027743807 0.00095449714 0.14169163
-0.07209347 0.03627079 0.07386133 -0.07873741 0.027979495 0.011306277 0.07429784 -0.06024118
-0.16434994 0.04961626 0.13037848 0.09655778 0.13881907 0.14666516 0.07061912 0.035238598
-0.15741883 0.061014082 -0.15014647 0.14222743 -0.05743714 0.050347116 0.08770874 0.017280208
0.05782392 0.04296293 0.024892615 0.036766313 0.04113002 0.020223536 -0.2393114 0.10005405
-0.13538256 -0.112153195 0.036529638 -0.07801538 -0.050467446 0.005014259 0.012167831 0.13572378
0.008714793 -0.13942774 -0.011417387 0.052295752 0.08164951 -0.034042396 0.024289805 0.13652897
0.048473705 0.0044675795 0.010548921 -0.012702881 0.009313968 0.17750293 -0.0069009843 -0.17039196
00000000: fcb1 813d 3fcb 8dbd 8fc5 a0bd 323d f0bd
00000010: 22d0 ac3d 47b9 9cbd 1e22 a53d 3bab 5a3d
00000020: c12e e9bd 226f 763d 99a3 fabd 22e8 983d
00000030: 8c27 063c 823a 2b3d f9fa b2bd e4d4 7b3d
00000040: bb3c 303d a24d df3c 222b 4bbd a155 483c
00000050: 8646 383d 7597 3bbd bd0e 6b3c 41ed a93c
00000060: b4db 9dbd 7cc0 ca3d 0922 ad3d f934 d4bd
00000070: 2987 c93d e210 b83c 823e a0bd 9e98 3c3d
00000080: ee8d e53c 8561 5abd b5aa 513d 9378 c2bc
00000090: 4b96 393c 17e4 ff3d 299a a73d bf81 963c
000000a0: b2f0 bbbd abfc 82bd a5e8 bb3d 301a d13d
000000b0: 1bb6 90bd 3d8d e03c 16fb d83c a5f8 9fbd
000000c0: 7796 d63c a9e6 113d 3fd3 ffbc b66c 8a3d
000000d0: e00f 263d 5d6d 0ebc 4916 eebd 62f5 49bd
000000e0: 92a3 16bb 6943 45bd 51fe 17bc c60b 233d
000000f0: 73ea a0bd b7a8 8fbd 40eb 033c d02e 473d
00000100: 00f6 993c c685 fbbd 1ba1 3b3d 5a4d bd3d
00000110: a0a3 c8bd ab3c 643d 1124 4bbd 91eb 24b9
00000120: f300 a83d 3fa7 46bd e9f1 a33d 8b06 78bd
00000130: be13 f63d c6db 9bbd c5ed 27bd 7f43 463d
00000140: 0842 113d ff49 fdbd be62 d7bd 2456 ef3c
00000150: a2dd 8ebd 8f8d 803d aae1 93bc 3e56 89bd
00000160: 115e b23c 0ba1 af3c cea7 4abd 7fcf 78bd
00000170: 1032 a0bd 0265 7c3b ae64 4d3d 12e1 f13b
00000180: b76f d03d d85b cf3d 10ab 853d c6db bdbb
00000190: b11f cfbd 0e93 8abd b078 7bbb 2c7a babd
000001a0: 1678 8f3b df3f 84bc 6342 d23c bc27 293d
000001b0: cbc8 f23c 7b53 bdbd 27be 483c fc27 ef3d
000001c0: 271d f73d c717 70bc 69cb c53d e1d5 aabd
000001d0: ba6a aa3d e289 7bbd 895e 413c 212e be3d
000001e0: 4981 e9bd 6e1e 003e 4cea a43d c5ab e7bd
000001f0: 5ef0 1cbd 6287 f03d f20f 65bd 8904 e43d
00000200: d094 943d ed52 9cbd 7741 9e3d d0a9 723d
00000210: 6f29 dcbb fb46 e3bc 3837 7a3a 9c17 113e
00000220: bea5 93bd ae90 143d 9c44 973d 1441 a1bd
00000230: 4135 e53c f63d 393c 7729 983d 75bf 76bd
00000240: 5a4b 28be 6b3a 4b3d f081 053e 16c0 c53d
00000250: 9626 0e3e 642f 163e c2a0 903d 5956 103d
00000260: 6732 21be e7e9 793d ffbf 19be 11a4 113e
00000270: 3543 6bbd c738 4e3d a4a0 b33d 398f 8d3c
00000280: c6d8 6c3d e6f9 2f3d 99eb cb3c 4698 163d
00000290: f477 283d d4ab a53c 0c0e 75be 23e9 cc3d
000002a0: baa1 0abe 93b0 e5bd 1aa0 153d 87c6 9fbd
000002b0: f4b6 4ebd a74e a43b 955b 473c 2dfb 0a3e
000002c0: 7ec8 0e3c 25c6 0ebe fe0f 3bbc 1234 563d
000002d0: dc37 a73d 0a70 0bbd 6afb c63c 40ce 0b3e
000002e0: 5d8c 463d c664 923b 62d5 2c3c bf1f 50bc
000002f0: 9d99 183c 54c3 353e a721 e2bb 3b7b 2ebe

grucell.bias_hh f4 [192]
0.0627801 -0.06310403 0.1180686 -0.04284209 0.108396485 0.10111105 0.07496776 -0.012901649
-0.10804687 0.0064682513 0.090200596 -0.038582407 0.05539221 0.06703962 -0.1187358 0.033010006
0.10490903 -0.0926476 -0.09140294 0.037322298 0.020722218 0.113827676 -0.1249305 0.09642953
0.012587123 0.047467254 -0.007064262 0.030598948 0.090559475 0.058768544 0.10746905 -0.059162147
0.0016173361 0.00048507727 0.11710599 0.11658565 0.08459803 -0.046503663 -0.11776484 -0.059589837
0.07952255 0.06863173 0.0635834 -0.0027915046 0.12060618 0.12137828 -0.040265422 0.0692239
-0.017681135 -0.021210615 0.043982487 0.10376647 -0.10647092 0.1118867 0.07650346 -0.018774232
-0.025371842 -0.016292553 0.0068461355 -0.06342376 -0.1135442 0.008854756 -0.08573631 0.07959012
0.110716596 0.10187444 -0.1224978 -0.07700051 0.0016492978 0.05138735 -0.017284568 -0.009529818
-0.09480608 0.0030161964 0.044441618 0.108193666 0.019851977 0.048230097 -0.11107096 0.09762085
-0.1082312 0.057411153 -0.0032404668 0.04772888 -0.105750546 -0.08370233 0.01223273 -0.032938737
0.10954996 0.08849998 0.09957601 0.001783943 -0.119743004 0.063521355 0.038731225 0.08580924
0.036937945 0.051785026 -0.097910106 0.072207496 0.06683431 0.10518977 -0.09564951 -0.049216665
0.01632838 0.049436282 -0.120448016 0.06682914 0.11232822 -0.046039037 -0.044802267 0.07511474
-0.11101893 0.0042645438 0.05287102 -0.051727448 -0.04876301 -0.06239148 0.044129953 0.0010462198
0.097870626 -0.060987756 -0.107595414 -0.09856006 -0.010018358 -0.12408303 0.11593058 -0.102183364
0.063213415 -0.019296836 -0.06443992 0.0032346523 0.06397647 -0.097674325 -0.106943496 0.040802468
-0.017246613 -0.033240452 0.046985403 0.035808142 -0.0888707 -0.1353747 0.08286971 0.05252332
-0.145855 -0.0389384 -0.03376041 -0.09595888 0.10695776 0.15471493 0.000536019 0.022592835
-0.02274027 -0.040354658 -0.09519541 0.101788305 -0.10042727 0.027610632 0.10203116 -0.074729875
-0.059233557 0.040093783 -0.0043860506 -0.0036478727 0.050755262 0.06548063 -0.09013669 0.10560946
0.026105428 0.05209916 0.08412119 -0.013401553 0.07682604 0.04304695 0.04097714 0.07348612
0.123594865 -0.13121471 -0.052352425 0.0027222189 0.053871393 -0.018447435 -0.04445305 -0.08110541
0.08441424 0.0039677983 0.051108643 -0.106629275 -0.10652242 0.002062433 -0.087977774 -0.08957716
00000000: da92 803d b03c 81bd f3cd f13d 307b 2fbd
00000010: fafe dd3d 4f13 cf3d b288 993d 7061 53bc
00000020: ad47 ddbd a0f3 d33b 17bb b83d 9608 1ebd
00000030: f1e2 623d 114c 893d c12b f3bd 8035 073d
00000040: 8cda d63d 06be bdbd 7731 bbbd 44df 183d
00000050: a4c1 a93c 7c1e e93d 90db ffbd d87c c53d
00000060: 383a 4e3c 066d 423d 537b e7bb a5aa fa3c
00000070: 3f77 b93d 49b7 703d bc18 dc3d 0254 72bd
00000080: cbfc d33a f851 fe39 44d5 ef3d 75c4 ee3d
00000090: bb41 ad3d a07a 3ebd b12e f1bd 7914 74bd
000000a0: b8dc a23d cb8e 8c3d 0338 823d adf1 36bb
000000b0: 5f00 f73d 2d95 f83d 5bed 24bd 43c5 8d3d
000000c0: 07d8 90bc e2c1 adbc fb26 343d 8483 d43d
000000d0: 6d0d dabd db24 e53d d9ad 9c3d 6bcc 99bc
000000e0: 9cd8 cfbc f677 85bc 8c55 e03b 51e4 81bd
000000f0: dd89 e8bd 8a13 113c 8596 afbd 2500 a33d
00000100: 62bf e23d 8ca3 d03d 20e0 fabd 72b2 9dbd
00000110: 402d d83a 8b7b 523d 5e98 8dbc f422 1cbc
00000120: b129 c2bd 61ab 453b 6a08 363d a494 dd3d
00000130: 9da0 a23c ec8c 453d 2c79 e3bd 71ed c73d
00000140: 52a8 ddbd f527 6b3d 035e 54bb 5c7f 433d
00000150: be93 d8bd 216c abbd ca6b 483c c5ea 06bd
00000160: bb5b e03d 7a3f b53d 82ee cb3d 32d3 e93a
00000170: d23b f5bd 7c17 823d a2a4 1e3d c1bc af3d
00000180: 3e4c 173d 891c 543d 1885 c8bd 86e1 933d
00000190: 6de0 883d bc6d d73d e4e3 c3bd 6a97 49bd
000001a0: 18c3 853c b37d 4a3d 73ad f6bd b7dd 883d
000001b0: 560c e63d 6e93 3cbd 9582 37bd c2d5 993d
000001c0: e55d e3bd 96bd 8b3b 488f 583d 29e0 53bd
000001d0: b9bb 47bd 358e 7fbd 9cc1 343d 5021 893a
000001e0: 6570 c83d 4cce 79bd fc5a dcbd dbd9 c9bd
000001f0: 0a24 24bc 3e1f febd 036d ed3d 8345 d1bd
00000200: 0976 813d 6614 9ebc 14f9 83bd 76fc 533b
00000210: 1806 833d 7a09 c8bd 3105 dbbd 7d20 273d
00000220: c548 8dbc 2427 08bd c473 403d 8fab 123d
00000230: d701 b6bd aa9f 0abe 98b7 a93d b122 573d
00000240: 035b 15be df7d 1fbd 5b48 0abd 1786 c4bd
00000250: ac0c db3d 976d 1e3e a083 0c3a 9c14 b93c
00000260: cd49 babc ed4a 25bd d0f5 c2bd 6376 d03d
00000270: d0ac cdbd b12f e23c b6f5 d03d fa0b 99bd
00000280: e39e 72bd 6139 243d dcb8 8fbb 2611 6fbb
00000290: c0e4 4f3d b51a 863d 9699 b8bd c649 d83d
000002a0: 0ddb d53c ee65 553d bb47 ac3d 3092 5bbc
000002b0: f956 9d3d 0052 303d a5d7 273d e47f 963d
000002c0: 4e1f fd3d 265d 06be 7f6f 56bd 4167 323b
000002d0: 40a8 5c3d 131f 97bc 6714 36bd 981a a6bd
000002e0: 60e1 ac3d 4e04 823b 4c57 513d 7360 dabd
000002f0: 6d28 dabd e229 073b b12d b4bd 3b74 b7bd

linear.weight f4 [2, 64]
-0.08617045 -0.025847938 -0.09399021 -0.024775624 0.025079627 0.06449431 -0.0443117 -0.011360048
-0.08753058 -0.033370037 0.07758033 0.0023872734 0.10512714 -0.030447379 -0.07306453 0.08703493
0.065198235 -0.10048937 -0.035643104 0.032514006 -0.006226606 -0.081117995 0.11415561 0.0060951007
-0.11617509 -0.064013585 -0.06806644 -0.068615064 -0.11966423 -0.030958781 0.10198011 0.026872838
0.098729834 -0.01460275 -0.10335824 0.057673983 -0.07401348 -0.033169605 -0.053245917 -0.09598415
-0.04002783 -0.05874534 -0.026503323 -0.11123524 0.04451499 0.10785545 0.018935943 -0.10100631
0.068743244 0.018535253 0.10689431 0.10140333 -0.051030003 0.086183645 -0.0027169273 0.12462771
0.017384231 0.081407316 -0.09467997 -0.06294124 -0.061623234 -0.042659547 -0.123453975 -0.113394536
0.039937746 -0.00926337 -0.031367842 0.05301881 0.08272225 0.0073946533 -0.10721894 0.081461765
-0.0038142116 0.08930247 0.071411535 -0.063655846 0.012168749 -0.12309484 -0.05272548 0.021542355
-0.04938815 0.07932897 0.13053344 0.10842103 -0.096968204 0.12532297 -0.032513782 0.05217448
-0.050137036 -0.09595925 -0.08634837 0.029025285 -0.034663934 -0.06772242 0.1269734 -0.09845809
-0.11500991 -0.11356719 -0.078113444 0.034098282 0.026669668 -0.0013031856 -0.02669688 -0.09686311
0.012138991 -0.11230821 0.011944307 -0.024551386 0.014527778 -0.059429426 0.02690354 -0.059421644
0.12710346 0.09650703 -0.00911095 -0.097800344 -0.01876979 -0.048743483 0.050487857 -0.10301155
0.097164 -0.083145104 0.025544181 -0.0025238195 -0.0781888 -0.016814686 -0.04401757 -0.06840992
00000000: 227a b0bd 0ebf d3bc f07d c0bd 40f6 cabc
00000010: ca73 cd3c 9815 843d 2f80 35bd 7f1f 3abc
00000020: 3c43 b3bd 05af 08bd 70e2 9e3d cd73 1c3b
00000030: e64c d73d c86c f9bc dba2 95bd 5f3f b23d
00000040: a786 853d 5fcd cdbd 81fe 11bd 682d 053d
00000050: 8f08 ccbb 3121 a6bd 6bca e93d 69b9 c73b
00000060: 35ed edbd 8e19 83bd 6b66 8bbd 0e86 8cbd
00000070: 8512 f5bd 459d fdbc f3da d03d 6d24 dc3c
00000080: de32 ca3d 5f40 6fbc 7cad d3bd 8e3b 6c3d
00000090: 6194 97bd dadc 07bd 6418 5abd 5793 c4bd
000000a0: 39f4 23bd f49e 70bd 7f1d d9bc 4dcf e3bd
000000b0: 5a55 363d 51e3 dc3d 8d1f 9b3c 65dc cebd
000000c0: 42c9 8c3d 3ed7 973c 67eb da3d 8dac cf3d
000000d0: d604 51bd 0d81 b03d 7a0e 32bb d03c ff3d
000000e0: 6069 8e3c e1b8 a63d 92e7 c1bd 56e7 80bd
000000f0: a568 7cbd c7bb 2ebd 70d5 fcbd 653b e8bd
00000100: c395 233d 64c5 17bc 917b 00bd 402a 593d
00000110: 486a a93d d94e f23b 9b95 dbbd 6dd5 a63d
00000120: daf7 79bb 37e4 b63d 3640 923d ff5d 82bd
00000130: 6f5f 473c 2619 fcbd acf6 57bd 9879 b03c
00000140: 3b4b 4abd 3a77 a23d 8faa 053e d80b de3d
00000150: 4497 c6bd aa54 003e 2c2d 05bd e8b4 553d
00000160: 7e5c 4dbd 4986 c4bd 6ad7 b0bd 6fc6 ed3c
00000170: c5fb 0dbd 0db2 8abd 5105 023e 65a4 c9bd
00000180: 518a ebbd ea95 e8bd f1f9 9fbd a4aa 0b3d
00000190: 597a da3c a7cf aaba 6ab3 dabc 2b60 c6bd
000001a0: 9ee2 463c d901 e6bd 0eb2 433c fd1f c9bc
000001b0: eb05 6e3c 456c 73bd d064 dc3c 1c64 73bd
000001c0: 6927 023e 7aa5 c53d 1846 15bc 8c4b c8bd
000001d0: 1ac3 99bc 3fa7 47bd 5bcc 4e3d b8f7 d2bd
000001e0: ebfd c63d fb47 aabd 0842 d13c aa66 25bb
000001f0: 7321 a0bd f4be 89bc c44b 34bd 801a 8cbd

linear.bias f4 [2]
-0.11263373 -0.083276704
00000000: 83ac e6bd fa8c aabd

linear_final.weight f4 [5, 64]
-0.03601804 -0.0019739354 -0.04275462 0.05343667 0.018061332 -0.0074628224 0.020193936 -0.016925575
0.0063290233 0.026372928 -0.048734926 -0.021907145 -0.029201973 -0.01901846 -0.055054706 -0.046927437
0.04388854 0.11086765 0.05052903 -0.019165454 -0.005511833 0.11500348 0.03846928 -0.06711922
0.024187079 -0.034441046 0.09764231 -0.09592719 -0.05617835 -0.08635092 -0.046701916 -0.08076618
-0.07416473 -0.0925859 -0.03780742 0.08909619 0.06596533 -0.060895067 0.0770318 -0.08326335
-0.046816092 -0.005978243 -0.020394187 -0.10773513 -0.017336827 -0.04512912 0.024791261 -0.06818302
-0.047216825 0.09515917 0.096785404 0.048915952 -0.01781669 -0.053532522 -0.10504453 0.010246582
-0.04396863 -0.032646913 -0.061517496 -0.016751997 0.09060784 0.018615302 -0.041378397 -0.09670901
-0.06147964 -0.011281438 0.052481133 -0.0030841029 0.06219632 0.027753718 0.042336296 -0.078295894
-0.004026028 -0.008336747 0.00213102 0.013079531 0.064660154 0.0032578283 0.07264445 0.09360807
0.046449274 0.07199058 -0.005590369 0.005611184 -0.045426298 -0.087578766 0.024301557 0.041738093
0.021216309 0.0018869922 0.0735536 -0.045349516 -0.037493184 0.0023623127 -0.07468497 0.09814809
0.042921625 0.015828682 0.0050024986 -0.0031442263 -0.020406198 0.026947705 -0.04584155 -0.043775342
0.11101876 0.016869036 -0.020371333 -0.07721599 -0.07513618 -0.05854703 -0.0076014604 0.035480894
0.040529273 0.013741454 0.0025378186 0.081198074 0.079834774 0.06722945 -0.027754694 -0.08084926
0.044854827 0.054879125 0.057671715 -0.035252333 0.05835363 -0.08521899 0.0007851199 -0.02554417
-0.15595333 0.0016230152 0.03359584 -0.13841236 0.06213913 0.04517702 0.17500205 -0.18758368
0.15499903 -0.005402101 0.058428742 0.06665834 -0.06966774 -0.072478026 -0.12771232 0.03914697
0.09647966 0.0889937 -0.08324121 -0.15877225 -0.09657904 -0.22149567 0.028234642 -0.12236414
0.109441526 -0.093665086 -0.01907436 -0.10821263 -0.055677302 -0.10009282 -0.20197397 -0.07911214
0.04929814 -0.010349823 0.030955797 -0.08204707 -0.118662514 -0.1359238 0.19629057 -0.13573614
0.073106244 -0.007563833 -0.020866666 0.09954406 0.06819764 -0.03331507 -0.05719773 -0.040994108
-0.04781181 0.10286477 -0.09753458 -0.07561663 -0.1744525 -0.03378654 0.09269236 0.05886609
0.0065438426 0.08359889 -0.10358474 0.18654847 0.03994399 -0.18775558 0.10533553 0.16097392
0.0037719745 0.20907521 -0.10108067 -0.073552795 -0.09499177 0.0824924 0.0022896323 -0.1659448
0.08820253 0.020062018 -0.12639679 0.09357914 0.067538336 0.16014686 -0.15273756 0.17028274
0.26255125 -0.001630255 -0.07996892 -0.03480995 -0.2401943 -0.31145725 -0.1494747 -0.0451256
0.22131884 -0.121840835 0.241382 -0.21397483 0.17257722 -0.017543716 -0.17823157 0.06637972
-0.09002348 -0.07016597 -0.08580468 -0.01408187 -0.07059092 -0.08265642 0.3324239 0.0047367825
0.21426702 0.10863627 -0.15905726 -0.011569634 0.05184901 -0.020850016 -0.05039087 -0.25023225
-0.079834804 0.19663665 0.051727213 -0.03377044 -0.012034682 0.03348486 0.019388987 -0.14800166
-0.06990804 0.050945967 0.055397492 0.05662049 0.13849658 -0.2996473 0.11467592 0.2893544
00000000: a787 13bd 245d 01bb 781f 2fbd 69e0 5a3d
00000010: 5cf5 933c b18a f4bb c16d a53c 81a7 8abc
00000020: b263 cf3b 0a0c d83c 469e 47bd 9d76 b3bc
00000030: fa38 efbc 9acc 9bbc 0b81 61bd fc36 40bd
00000040: 78c4 333d 940e e33d 87f7 4e3d df00 9dbc
00000050: 9b9c b4bb f286 eb3d f791 1d3d cd75 89bd
00000060: fb23 c63c 0e12 0dbd b1f8 c73d 7975 c4bd
00000070: 451b 66bd c0d8 b0bd 824a 3fbd bd68 a5bd
00000080: aee3 97bd ad9d bdbd f4db 1abd 1078 b63d
00000090: d518 873d 1b6d 79bd d9c2 9d3d fa85 aabd
000000a0: 3bc2 3fbd 23e5 c3bb b611 a7bc 3ca4 dcbd
000000b0: f605 8ebc 50d9 38bd 0b17 cb3c 8aa3 8bbd
000000c0: 6e66 41bd d0e2 c23d 6d37 c63d 185c 483d
000000d0: 4ff4 91bc eb44 5bbd 9621 d7bd 48e1 273c
000000e0: 7318 34bd c5b8 05bd c5f9 7bbd 7c3b 89bc
000000f0: 9a90 b93d 1e7f 983c 657c 29bd 600f c6bd
00000100: 13d2 7bbd c8d5 38bc 75f6 563d a91e 4abb
00000110: 92c1 7e3d c45b e33c d368 2d3d 9959 a0bd
00000120: c5ec 83bb da96 08bc 95a8 0b3b 874b 563c
00000130: 8b6c 843d 4a81 553b 9dc6 943d 96b5 bf3d
00000140: 9841 3e3d cc6f 933d 6a2f b7bb 06de b73b
00000150: ed10 3abd 7f5c b3bd 0f14 c73c 90f5 2a3d
00000160: d3cd ad3c f454 f73a 45a3 963d 6ac0 39bd
00000170: 7492 19bd 08d1 1a3b 6ff4 98bd de01 c93d
00000180: 96ce 2f3d 27ab 813c 00ec a33b 5d0f 4ebb
00000190: e62a a7bc 6fc1 dc3c 59c4 3bbd c64d 33bd
000001a0: ce5d e33d ef30 8a3c c8e1 a6bc 6b23 9ebd
000001b0: ffe0 99bd 03cf 6fbd ac15 f9bb 6a54 113d
000001c0: 0602 263d d623 613c 8851 263b 2d4b a63d
000001d0: 6a80 a33d 98af 893d d05d e3bc 4c94 a5bd
000001e0: b2b9 373d efc8 603d 2d39 6c3d c064 10bd
000001f0: 3704 6f3d 4b87 aebd 81d0 4d3a 0242 d1bc
00000200: 3bb2 1fbe 5abb d43a cb9b 093d f8bb 0dbe
00000210: 9a85 7e3d 8a0b 393d bd33 333e f015 40be
00000220: 11b8 1e3e 1c04 b1bb fa52 6f3d 2b84 883d
00000230: f6ad 8ebd 5c6f 94bd 05c7 02be 9358 203d
00000240: 2197 c53d 5442 b63d 5e7a aabd 3195 22be
00000250: 3bcb c5bd c3cf 62be 564c e73c 0d9a fabd
00000260: e122 e03d 7bd3 bfbd d541 9cbc 959e ddbd
00000270: e20d 64bd 77fd ccbd 44d2 4ebe 8c05 a2bd
00000280: d9ec 493d 4e92 29bc 0397 fd3c 4b08 a8bd
00000290: 5505 f3bd 9c2f 0bbe 6500 493e 6afe 0abe
000002a0: bab8 953d 08da f7bb 92f0 aabc c2dd cb3d
000002b0: 34ab 8b3d 6275 08bd 2b48 6abd 70e9 27bd
000002c0: 51d6 43bd c4aa d23d 36c0 c7bd e4dc 9abd
000002d0: ada3 32be c163 0abd 7ed5 bd3d 921d 713d
000002e0: bb6d d63b e535 ab3d 3c24 d4bd 9006 3f3e
000002f0: 4f9c 233d 0043 40be 28ba d73d 59d6 243e
00000300: 3b33 773b d017 563e 6203 cfbd d9a2 96bd
00000310: 0c8b c2bd c7f1 a83d a80d 163b 6fed 29be
00000320: 87a3 b43d 1a59 a43c 296e 01be 6ca6 bf3d
00000330: 8a51 8a3d 8afd 233e 3c67 1cbe 995e 2e3e
00000340: 1e6d 863e 48ae d5ba bfc6 a3bd e194 0ebd
00000350: 7ff5 75be 5377 9fbe e50f 19be 9fd5 38bd
00000360: 68a1 623e b087 f9bd d82c 773e 381c 5bbe
00000370: 15b8 303e d7b7 8fbc 5682 36be 17f2 873d
00000380: 3b5e b8bd 2db3 8fbd 5dba afbd a5b7 66bc
00000390: f991 90bd c547 a9bd 7733 aa3e 0337 9b3b
000003a0: d068 5b3e b17c de3d e8df 22be 908e 3dbc
000003b0: a15f 543d a7cd aabc a866 4ebd 711e 80be
000003c0: 6e80 a3bd 1e5b 493e eadf 533d df52 0abd
000003d0: 1d2d 45bc 6c27 093d a7d5 9e3c bf8d 17be
000003e0: f22b 8fbd b8ac 503d 7be8 623d e3ea 673d
000003f0: 0cd2 0d3e 5f6b 99be 35db ea3d 4326 943e

linear_final.bias f4 [5]
0.05391476 0.10443176 -0.57646626 -0.837821 -0.115165934
00000000: b9d5 5c3d 52e0 d53d 4b93 13bf 707b 56bf
00000010: 1edc ebbd
