results2_checkpoint/zara1/val_best.pth (torch_old, 55823 bytes, 10 tensors)

gcn.gc1.weight f4 [2, 2]
00000000: aa5d 83bc 2ad8 b43c 8a9e 533d c06c b3bc
-0.016035873 0.022075731 0.051664867 -0.021902442

gcn.gc1.bias f4 [2]
00000000: 80ce 9f3c 3fc7 e2bc
0.019507647 -0.027682899

grucell.weight_ih f4 [192, 2]
00000000: 3316 773d 924b 9fbb ebdb 7cbc 516d 253c
00000010: a6e6 c9bd 7596 eebc 2095 ffbd c1c5 423d
00000020: 6349 93bd 369f f13d 0c52 a8bd a1df 68bd
00000030: 4936 05bd c8fc 7b3d e5fb 9fbb 9242 eabd
00000040: 712c 0b3d fa81 ea3d 7d5a 3c3d 99f7 1c3d
00000050: f4cd 0bbd 87c8 8cbd 1120 8abd 68e0 b63d
00000060: 684c 323c 87ff fdbd ed19 c93d 816c f73c
00000070: 0dd3 1abd 1bde 32bd db81 613d 10d3 bdbd
00000080: d62f d7bd adcf 96bd a27a f0bd f7d1 ca3d
00000090: 0708 6cbd ec3d 073d c823 34bd 3923 f4bd
000000a0: be70 61bd cadb ab3d 08f0 f93d f67b a03d
000000b0: 83ec fbbd b8d8 c1bd fe44 9b3d f1ba 05bc
000000c0: 029f b7bd 2ac4 19bd ded3 56bd 1598 653d
000000d0: 0b95 7f3d f180 69bd 4236 6b3d 8545 86bd
000000e0: 003f 97bd bbf7 91bd 66c1 833d 498a a73b
000000f0: 9e1f d3bd ae1a 83bd 60fa a13d 574c da3d
00000100: 6038 85bd 8120 30bb 7dc5 ea3d b05f 81bc
00000110: 50ca 123c 6632 b1bc ac9b b0bd 495e 573d
00000120: 7b72 d8bd 7027 c83b a2df c33c f353 dbbd
00000130: 2a5a 5cbd 6d20 e6bd 30c6 6b3d b68e fabd
00000140: cefb ab3d b196 e23d 3609 92bd 8d34 bcbd
00000150: c011 55bd ff67 ff3c e800 b0bd bd36 fa3c
00000160: fa6e aa3d af0b 9a3b cd18 93bd cacb d03c
00000170: 8e59 8dbd c23d 9f3d ba77 e3bc b849 dd3d
00000180: 7c5f 03bd b64a 9fbd b30d 933d 1e54 c0bd
00000190: 92c3 c63d 9b30 f73d 40b4 8a3d 50cc edbd
000001a0: 8c97 3e3d 8fda 2c3d 0cb4 e33d 5a2a a03c
000001b0: 4e9f f83c 8bbd 07bd a450 2c3b f7a7 f83d
000001c0: d81b dfbc b44f 9d3d d7a3 e63b a5ec e03d
000001d0: a5df 64bd 6c3e ca3d e587 863c 0689 c83c
000001e0: 19f3 b2bb 7c08 7bbc ebdc 573d e3d3 e0bd
000001f0: 5777 213d c647 bfbd 9e0d 973d 974a 1dbc
00000200: 769e 923d bc86 973d a66d 963d e224 d6bd
00000210: 1e41 b73a 4151 cbbd 508f 963d 50da 98bc
00000220: b8eb f0bc 1e75 f83c 31ac ec3d 97ce 833c
00000230: f3a9 93bd a0f4 ca3d e04d aabd 85e9 843d
00000240: f8e3 6e3d 8152 a0bd 28a8 cf3d 0478 f33d
00000250: 8d06 2f3c f57f 823d 8959 cabd a2ed 803d
00000260: 0632 b0bd e81e 2abd 5bf0 513d 0f3f 1e3c
00000270: aac9 80bd 1e19 a23d bdf8 a2bd 01b2 9ebd
00000280: fcfc 5d3d 839b 613d 5860 e63c df25 9dbd
00000290: d2de b2bc 976e f13d 5ecc d3bc ef33 e7bd
000002a0: a42b e63d 1670 903d 934d 8abd 4027 eebd
000002b0: 6ac2 20bd 6375 2e3d 4983 ccbc 3c8d c6bd
000002c0: c915 e1bd c1b4 143d 9c4e ba3d d8b3 24bd
000002d0: ba52 7fbd 2f9a a6bb e210 debd bb7f fe3d
000002e0: 21ef b73d da24 5d3d b027 dfbd 7c29 bd3b
000002f0: 6590 10bd c86c 183d a634 0f3d f1b3 f23c
00000300: 1717 c2bc 10af edbd a774 b8bd c6ce 653d
00000310: 9128 e33d 0c76 91bd b215 e6bc e4cf 27bd
00000320: 9c1a 003d e886 dc3d f5d5 bcbd 3d2f 83bd
00000330: bd26 963d 22e6 b2bd 94ef 81bd 77f0 15bd
00000340: 84bb 61bd c8c5 d6bd 4e55 e1bd 99db 173c
00000350: a728 efbc 4389 afbd 1928 ccbd e848 a1bc
00000360: 7796 e93d 8fe6 92bd c28b e23d 4298 603d
00000370: 9479 9abd 78a4 703d ea87 ec3d 32d0 ed3d
00000380: dbd6 ed3d 2c6f cd3d c21d 50bb b860 013d
00000390: 6837 f2bd 4642 b1bd c59f 883d 9211 b83d
000003a0: 72b1 12bd 6ce9 bebd 91e4 ae3d 1a4d 883c
000003b0: 92ba df3d e6b3 263c acb2 f53d f5fa ec3d
000003c0: eac5 823c 7cf6 c6bd 47fb cd3b 6089 fdbd
000003d0: 01d8 7b3d d695 09bd adec e4bd 952c 253c
000003e0: da71 de3d d9c0 a1bd 7d9d 993b 1aca ea3d
000003f0: 4baa 163d d5f0 eebd edc9 bd3d d502 f13d
0.060323905 -0.0048613036 -0.015433292 0.010096864 -0.09858446 -0.029124478 -0.12479615 0.047551874
-0.07191732 0.11797945 -0.08218774 -0.056853894 -0.032522473 0.061520368 -0.004882323 -0.114384785
0.03397793 0.11450572 0.045984734 0.038322065 -0.03413196 -0.06874185 -0.067443974 0.08929521
0.0108824745 -0.124022536 0.09819398 0.030203106 -0.03779893 -0.043668848 0.05505548 -0.092687726
-0.10507171 -0.0736383 -0.1174214 0.09903329 -0.057624843 0.033018038 -0.043979436 -0.11920781
-0.05503916 0.08391531 0.122039855 0.07836144 -0.123009704 -0.09465164 0.075815186 -0.008162246
-0.08965875 -0.037540592 -0.052448146 0.05605324 0.062397998 -0.057007734 0.05742479 -0.065562285
-0.07385063 -0.07127329 0.06433372 0.0051129204 -0.10308765 -0.06401573 0.07909083 0.10659092
-0.06504893 -0.0026874843 0.11463449 -0.015792698 0.008959368 -0.021630477 -0.08623442 0.05258015
-0.105687104 0.006108217 0.023910347 -0.107093714 -0.053796925 -0.112366535 0.057562053 -0.12234251
0.08397637 0.11063898 -0.07130663 -0.09189711 -0.05201888 0.031177519 -0.08593923 0.03054368
0.08321948 0.0047011 -0.07182465 0.0254878 -0.06901847 0.07775451 -0.027767051 0.10805076
-0.032073483 -0.07777922 0.07180347 -0.09391044 0.09705271 0.12069818 0.06772661 -0.11611235
0.046531245 0.04220062 0.111183256 0.019551445 0.0303494 -0.033139747 0.0026293183 0.12141412
-0.027234957 0.07681218 0.007038574 0.10982636 -0.055877347 0.09875187 0.016422221 0.0244794
-0.0054611084 -0.015321847 0.05270092 -0.10977914 0.039420452 -0.093398616 0.07375644 -0.009600303
0.0715913 0.073987454 0.073451325 -0.104562536 0.0013981198 -0.09927607 0.073515534 -0.018658787
-0.029409274 0.030329283 0.115562804 0.01608972 -0.072101496 0.0990994 -0.08315635 0.06489853
0.058322877 -0.07828236 0.10139495 0.118881255 0.010682714 0.06372062 -0.09880359 0.06295325
-0.08603291 -0.04153338 0.05125461 0.009658589 -0.06288464 0.07914947 -0.07957599 -0.07748795
0.054196343 0.05507995 0.028122112 -0.07673239 -0.021834765 0.117886715 -0.025854286 -0.112892024
0.112387925 0.07052629 -0.06753077 -0.1162858 -0.039247908 0.042592417 -0.024964945 -0.09694907
-0.10990483 0.036305193 0.09097025 -0.040210575 -0.062334754 -0.005084298 -0.10843064 0.124267064
0.08981157 0.053990223 -0.10896242 0.0057727676 -0.035293955 0.037213117 0.03496232 0.029626818
-0.02369265 -0.11605656 -0.09006625 0.056105398 0.11091722 -0.07102594 -0.028086517 -0.040969744
0.031275377 0.10767919 -0.092204966 -0.06405494 0.073316075 -0.087353006 -0.06344524 -0.03660628
-0.05511047 -0.104869425 -0.11002599 0.009268665 -0.02919419 -0.085711025 -0.099685855 -0.019688085
0.11405652 -0.07172882 0.11061813 0.054832704 -0.075427204 0.0587506 0.11549361 0.11611976
0.11613246 0.1003097 -0.0031756018 0.03158638 -0.11826974 -0.08655219 0.066710986 0.08987726
-0.035813756 -0.093218654 0.08539689 0.016638327 0.10924257 0.010174727 0.119969696 0.11571304
0.015963513 -0.09714982 0.006286058 -0.12379718 0.061485294 -0.03359016 -0.11177955 0.01008143
0.10861559 -0.07898111 0.0046879635 0.11464329 0.036783498 -0.11667029 0.0926703 0.11768118

grucell.weight_hh f4 [192, 64]
00000000: 3ba8 953d 3815 373c 4364 fbbc 8204 d03a
00000010: d3e7 43bd ebda 943d ff08 7ebd 18bc da3d
00000020: 7dd9 a43d 6e55 70bd 0088 aabd dc1f 8ebd
00000030: b8b0 f03d 49b0 823d 3cd3 cabd f1d1 2dbd
00000040: 4d6f 913a 72ff 21bd 939f c03d 8eb9 bc3c
00000050: 4a84 efbc 29c4 433d 15d9 94bd 9bf4 903d
00000060: 5405 c63c bff0 82bc 7873 a43d fb59 dc3c
00000070: 706d d83d 1ae8 aa3d f898 9bbd 3cbb cb3c
00000080: d605 d9bd 2b56 e73d e5e5 833d 74dc 023d
00000090: d273 edbc d602 cdbd 61aa ef3c 5d10 b7bc
000000a0: b2c6 753d 6387 693d b347 193d 427d 56bd
000000b0: 1b4a a2bd 8289 113c bf49 d7bd 8bf9 52bc
000000c0: c232 d83d 7e36 9e3c 496e bbbd 2389 e43d
000000d0: d0bd b4bd b2a3 263d 2ebd cebd f468 ce3d
000000e0: d78a 003d c037 89bd c78d cbbd 8891 f33d
000000f0: ab99 dbbc a342 433d 00e3 cfbc 85ba fcbd
00000100: 401d d43d ae6c 1bbd e3e6 4abd 3ff2 3abd
00000110: 4d45 debd 44f2 7abd fc6f f83d 20e0 7dbd
00000120: 2506 b13d 7e18 a63d d64e 31bd 0597 debd
00000130: 9627 e33d c082 9ebd 6115 143c bf17 443c
00000140: c9c3 11bd d2a8 7e3d 3c87 e2bd 7a0e b23d
00000150: 21a2 5fbd c141 94bb 882e fcbd f2ee 1bbc
00000160: bbeb a93c be16 503d eaff 803d b7c4 f03c
00000170: 3ede 953d bcc5 c13d a79a da3d 067d dabd
00000180: b29f 29bd fb9a abbc a96c eb3d ed88 db3c
00000190: 09c4 c73d b78f 513d f688 a03c fb77 ecbc
000001a0: e48e 8b3d 4b07 a23d 4b1c 113d ccc7 1e3d
000001b0: fcd8 88bd c6ba d13d e6b3 85bd 6a39 8d3c
000001c0: afc2 d3bd fa9f 3e3c 52d7 c4bc cf54 16bd
000001d0: db89 f73d fd57 503d 3886 ec3d ccce 823d
000001e0: f54f acbd 7b8d 5c3c db9d 48bd 2ca5 ee3d
000001f0: 8bf6 29bc f423 083c 1485 f2bd 41e4 abbb
00000200: 09c8 43bd f2ee dabd 63c3 cbbc 0268 a53d
00000210: 9d2c 1abd a682 45bd b33d 38bb 27fd 073d
00000220: c809 213d 9db6 5d3d 081c c43d 5256 bc3b
00000230: b547 36bc 92cc 603d 5c41 adbc c966 44bd
00000240: e63c 94bd ead2 ee3d 27c0 e23d 1497 e8bd
00000250: b096 fa3d 69aa f7bd 6e05 b4bd 2d9a b4bd
00000260: 98c6 373d 43bf cb3d e319 a33d c6de 44bc
00000270: b6fd 993c 3a19 07bd ead6 d93c 66e2 063d
00000280: 895a f4bd e311 aa3b bf41 c83d 6497 f8bd
00000290: a50d c0bd f407 8dbd 996d 623c 5cac 483d
000002a0: 572b ec3d 16d4 d6bd 26d2 193b 1788 a3bd
000002b0: 2d0a 28bd ad4a b33d 5ea4 6abc 4833 793c
000002c0: 163f bf3d 9570 e9bd fd89 f3bd 7da8 2b3d
000002d0: ac15 86bb 93ce 3a3b 9f9f d1bd 7fb9 3dbd
000002e0: 9624 15bd 1cda 9bbd fc25 e9bc 0ddf e6bd
000002f0: c865 4c3d 6ce8 a9bd 5c18 a2bd 0b9e 9cbd
00000300: 5302 b53d 6cec 8bbd bf62 a43c 392b 88bc
00000310: edfc 9bbd b6c8 a8bd 3c45 a5bd 36b9 7bbc
00000320: 9b95 ac3d 2ad9 9e3d e29c 7c3a f96d a0bd
00000330: cbc7 ccbb 6606 b3bd 66a0 a3bd e806 70bd
00000340: 3382 eb3c eb46 b43d db46 3cbd 3c08 d8bd
00000350: 906b 9cbd aa73 d0bd a442 3b3d d439 33bd
00000360: 424c 4cbc 69fb e2bb 7a49 c13d 282b a2bc
00000370: 30dc 853d 75b0 5e3b 83eb 593c fb7b 84bd
00000380: 4b04 40bc 4f38 423d 5801 843c dc0c 3abd
00000390: 073f b0bd f243 7bbc 2bec 1f3c b63f a7bd
000003a0: 0030 4e3d ea84 ea3d 48b1 7e3d 0c37 b0bd
000003b0: c445 abbd d634 63bd b923 b0bd 219a c7bd
000003c0: 860a f8bc 5fc0 d8bd 1dfc c5bd e456 733d
000003d0: bac8 873b 1192 673d a603 cd3c 0f59 fabd
000003e0: 9169 623d e632 ce3d 8b02 f5bd 62c2 82bc
000003f0: 78d3 bf3d acd1 fd3d dfdd 8bbc 0200 23bd
0.07307478 0.011174493 -0.030687457 0.0015870484 -0.047828507 0.07268318 -0.062020298 0.10680407
0.08049295 -0.058675222 -0.08326721 -0.069396704 0.117524564 0.0638128 -0.09903571 -0.042436544
0.0011095792 -0.039550252 0.09405436 0.023037698 -0.029237885 0.047794495 -0.072679676 0.07077905
0.024172463 -0.015983937 0.080298364 0.026898375 0.105677485 0.08345051 -0.07597536 0.024869554
-0.10596816 0.11295732 0.06440333 0.03194852 -0.028985891 -0.100103065 0.029256048 -0.02234667
0.060003944 0.05701388 0.037421893 -0.05236555 -0.07924291 0.008882882 -0.10512113 -0.0128768785
0.10556556 0.019313093 -0.091518946 0.11158969 -0.08825266 0.040683456 -0.10094677 0.10078612
0.031382408 -0.067000866 -0.09939151 0.11892992 -0.026806673 0.04767097 -0.025376797 -0.12340263
0.103571415 -0.037945442 -0.049536597 -0.04564118 -0.10853062 -0.0612662 0.12130734 -0.06198132
0.0864375 0.0811014 -0.043288074 -0.108686484 0.11091535 -0.07739782 0.0090383 0.011968552
-0.035587106 0.06217272 -0.1106095 0.086941674 -0.054597978 -0.00452444 -0.12313563 -0.009517418
0.020742288 0.05080294 0.06298812 0.029390676 0.0731778 0.09461543 0.10674029 -0.106683776
-0.041412063 -0.020947924 0.11495335 0.02679869 0.097541876 0.051162448 0.019596558 -0.028865805
0.068143636 0.07911547 0.035427373 0.03876476 -0.066820115 0.10240702 -0.065284535 0.017239291
-0.10339867 0.011634821 -0.024028454 -0.036701974 0.12086841 0.050865162 0.11549038 0.063870996
-0.08413688 0.013461466 -0.048978668 0.11652598 -0.010373722 0.008309353 -0.11841789 -0.005245716
-0.04779819 -0.106901065 -0.024873441 0.080764785 -0.037640203 -0.0482203 -0.0028112947 0.03320041
0.03931597 0.05412923 0.09575659 0.005747595 -0.011125495 0.054882593 -0.02114933 -0.047949586
-0.07238178 0.116613224 0.110718064 -0.11356941 0.122357726 -0.1209305 -0.08790098 -0.08818469
0.044867128 0.0994859 0.07963922 -0.012016004 0.018797737 -0.032983042 0.026591737 0.032930754
-0.11931331 0.0051901205 0.09778165 -0.121382505 -0.093776025 -0.068862826 0.013820075 0.0489925
0.11531704 -0.10489671 0.0023471205 -0.079849415 -0.04102533 0.08754478 -0.014321415 0.01520998
0.093382046 -0.113984264 -0.118915536 0.04190873 -0.004091939 0.0028504475 -0.102355234 -0.04631948
-0.036411844 -0.076099604 -0.028460495 -0.11273012 0.049901754 -0.08296284 -0.079148024 -0.07647332
0.08838334 -0.06832203 0.020066617 -0.016622173 -0.07616601 -0.082414076 -0.08069846 -0.015363982
0.084269725 0.077562645 0.00096364145 -0.078334756 -0.006249403 -0.08741455 -0.07989578 -0.058600336
0.028748607 0.08802589 -0.04596601 -0.105484456 -0.076377034 -0.10178311 0.04571785 -0.04375632
-0.012469353 -0.006926943 0.09437843 -0.01979597 0.06536138 0.0033979688 0.013300779 -0.0646896
-0.0117197735 0.04741698 0.016113922 -0.04542242 -0.086057715 -0.015336024 0.009760897 -0.08166449
0.050338745 0.114511326 0.062180787 -0.08604249 -0.08362916 -0.05547031 -0.086005636 -0.09746195
-0.030278455 -0.10583567 -0.096672274 0.059409037 0.0041438015 0.056535784 0.025026154 -0.12224018
0.055276457 0.10068302 -0.11963376 -0.01596183 0.09366506 0.12393507 -0.01707357 -0.03979493

grucell.bias_ih f4 [192]
00000000: 70df 813d 06cc 8cbd 59c0 a0bd 5f61 f0bd
00000010: 6545 ad3d 0e9c 9bbd 9599 a53d a334 5e3d
00000020: 9657 e8bd 8e06 773d f842 fabd 7f06 9a3d
00000030: 03b4 093c f79d 2d3d 8aa3 b2bd 1026 7e3d
00000040: fe3d 353d 3c9d df3c 72ef 4abd 376d 4b3c
00000050: f03c 3b3d f8eb 34bd ba74 713c b140 ab3c
00000060: 4f12 9dbd 3d8c cb3d 4a64 ae3d 9fad d3bd
00000070: 718c c93d a158 b83c 269d 9ebd 9b9c 3c3d
00000080: f695 e63c 3b84 59bd 5247 523d 187f c1bc
00000090: fe55 3c3c fd17 003e 32db a93d ff82 943c
000000a0: 3a7b babd 5789 83bd 94a4 bc3d 9586 d13d
000000b0: e5a6 90bd fed2 e03c 91e4 d83c 0754 9dbd
000000c0: b68b d83c b006 153d 425d ffbc a593 8a3d
000000d0: 8ed2 263d fe5d 0cbc ec07 eebd 2669 49bd
000000e0: 1c66 19bb 58eb 45bd 22be 0fbc f77e 253d
000000f0: b4c6 9ebd 7fe9 8cbd b4e1 083c 8311 4d3d
00000100: 4e8b 983c c778 fbbd 3614 3b3d 8031 bd3d
00000110: 27f1 c8bd e038 643d 0659 4bbd 4005 6bb9
00000120: bfed a73d b5e2 46bd 22f8 a33d 41b6 78bd
00000130: a9a2 f53d 86bf 9bbd cf91 28bd 43b7 443d
00000140: 6489 113d c729 fdbd 2744 d7bd ec2c ef3c
00000150: 2d0d 8fbd 2a61 813d c170 93bc 22fe 88bd
00000160: e005 b23c c18f af3c 6c64 4bbd 6f61 79bd
00000170: 191b a0bd 9ecf 763b 1167 4c3d 26a6 e93b
00000180: efe9 d03d acd9 ce3d f098 853d f669 bebb
00000190: c072 cfbd 22ba 8abd 6828 80bb d46d babd
000001a0: 484b 923b f36f 84bc 9fc6 d13c 4446 293d
000001b0: f3d3 f03c be5e bdbd 66bf 483c bd6b ef3d
000001c0: d7d4 f63d 3e27 6ebc c069 c53d d6e6 aabd
000001d0: c233 aa3d 333e 7cbd 93fe 3e3c 8f9f bd3d
000001e0: dd1a eabd 51cc ff3d 2e07 a53d 97ae e7bd
000001f0: bfec 1cbd 78c1 f03d d2fa 64bd 1818 e43d
00000200: 4e77 943d 66be adbd 13e8 a23d b9e5 643d
00000210: 97ac c2bb 3de2 1cbd 63b8 8fbb 3d3b 1e3e
00000220: 336e a1bd c9d8 0d3d c38e a23d 5cd6 b1bd
00000230: a7ff dc3c 166d ae3b 5115 a43d 629c 88bd
00000240: c49b 37be 4e5d 4d3d 539d 0d3e 11c5 d53d
00000250: 704b 1a3e aa84 253e e282 a03d 35c2 1b3d
00000260: 2788 2bbe ca72 883d ecd1 28be 7fa6 193e
00000270: e850 76bd 06ac 4c3d 50b3 c83d 98c8 893c
00000280: ec4c 813d a0de 473d db12 db3c 0679 173d
00000290: 33d6 2f3d a299 a83c 7ae9 81be c91f df3d
000002a0: 9a43 18be 6f85 f0bd d387 2a3d e995 a0bd
000002b0: c234 47bd f654 753b e1cd 283c 4c0f 1b3e
000002c0: 45c2 4b3c 1206 1ebe ee7e 80bc 4053 683d
000002d0: 5f86 b83d 4d1d 18bd aa88 ca3c 750a 103e
000002e0: ad14 5a3d db58 343c 6121 ce3b 8829 a6bc
000002f0: 3dd3 a139 60df 433e afa3 38bc 9691 3cbe
0.063414454 -0.06874852 -0.078491874 -0.11737322 0.084605016 -0.075981244 0.08085934 0.054249417
-0.11344831 0.060308985 -0.122198045 0.0752077 0.008404735 0.042386975 -0.08722599 0.062048018
0.044248573 0.027296655 -0.04954476 0.012416176 0.04571241 -0.04417035 0.014737302 0.02090487
-0.07669508 0.09938858 0.08515222 -0.1033585 0.0984124 0.022503199 -0.077448174 0.046047788
0.028147679 -0.05310462 0.051337548 -0.023620173 0.0114951115 0.12509151 0.08293761 0.01812887
-0.09105535 -0.0642268 0.09211078 0.102307476 -0.070630826 0.027444359 0.026476176 -0.076820426
0.026433807 0.03638333 -0.031172398 0.06766442 0.040728144 -0.008567331 -0.11622605 -0.049172543
-0.002340681 -0.048320144 -0.008773359 0.040404286 -0.07752743 -0.06880473 0.008354593 0.05006553
0.018621113 -0.12278896 0.04567357 0.09237957 -0.09811621 0.055718303 -0.049645446 -0.00022413302
0.08199643 -0.04855605 0.08006312 -0.060720686 0.119939156 -0.076048896 -0.04115468 0.048026334
0.035531417 -0.12361484 -0.10511046 0.029196225 -0.06984935 0.06317361 -0.017998101 -0.06689097
0.021731317 0.021430852 -0.049656317 -0.060883936 -0.078176685 0.003766037 0.04990298 0.007130402
0.10200869 0.10100111 0.06523311 -0.0058109714 -0.10129309 -0.06773783 -0.003911067 -0.09102979
0.0044645406 -0.016166663 0.025607405 0.041326776 0.02939794 -0.09246586 0.012252664 0.11690471
0.12052315 -0.014535723 0.09639311 -0.0834481 0.08310653 -0.061582755 0.011657375 0.09258949
-0.11430905 0.12490142 0.0805801 -0.11312597 -0.038311716 0.11755651 -0.055903263 0.11137408
0.07249318 -0.08483581 0.07954421 0.055883143 -0.0059409845 -0.038301695 -0.0043859943 0.15452285
-0.07882347 0.03463057 0.07937386 -0.08683464 0.026977373 0.0053230627 0.08011878 -0.06670453
-0.17930514 0.05013781 0.13829546 0.10437978 0.1506784 0.16163889 0.07837464 0.038027007
-0.16751157 0.06662519 -0.16486329 0.1500492 -0.060135752 0.04996874 0.09799826 0.016819283
0.063135 0.048796296 0.02674239 0.03698065 0.042928886 0.02058107 -0.2537344 0.108947344
-0.14869538 -0.117442004 0.04163344 -0.07841093 -0.0486343 0.0037434674 0.010302992 0.15142554
0.012436454 -0.15432003 -0.015685525 0.05672002 0.09010004 -0.03713732 0.02472337 0.14066489
0.053242374 0.011007513 0.0062906 -0.020283476 0.00030865698 0.1912818 -0.011269494 -0.18414912

grucell.bias_hh f4 [192]
00000000: 4ec0 803d 773d 80bd 29d3 f13d 13c5 2fbd
00000010: 3d74 de3d 8830 d03d 2900 9a3d d546 45bc
00000020: 8270 dcbd fdfa d53b b81b b93d e561 1cbd
00000030: 44c5 633d 2d71 8a3d 52d4 f2bd ac86 093d
00000040: d649 d93d b398 bdbd d53d bbbd e4bd 193d
00000050: f7b0 af3c 687a ec3d d3fe febd e9d1 c53d
00000060: d96c 523c 2e8a 433d c045 d7bb 13e2 fc3c
00000070: 877c b93d dea2 703d 18ba dd3d 0550 72bd
00000080: 4284 e33a 3f33 283a 4d1f f03d f1d6 ee3d
00000090: a4a2 ad3d a4e8 3dbd a8ed eebd 21f2 74bd
000000a0: 3052 a43d 1f02 8c3d f2f3 823d 867b 28bb
000000b0: 950f f73d 877c f83d c5fe 24bd e169 903d
000000c0: c8e2 8ebc 4e38 a7bc a673 343d 73aa d43d
000000d0: f8a4 d9bd e964 e53d 36bc 9c3d 14da 98bc
000000e0: 200a d0bc a6ab 86bc b7dc f03b da9c 80bd
000000f0: 1e66 e6bd 1c0e 263c d9fe aebd 59fa a53d
00000100: 1d66 e23d 8bb0 d03d ed20 fbbd 4cce 9dbd
00000110: 1e9a c23a c077 523d 3905 8ebc c08f 1dbc
00000120: e53c c2bd 1cd8 413b 4621 363d 923d dd3d
00000130: 39c9 a03c 15c5 453d 1bc6 e3bd a616 c73d
00000140: 6c89 ddbd ab67 6b3d 422e 51bb 686f 433d
00000150: 49c3 d8bd 8698 aabd cc35 493c 3442 06bd
00000160: ea42 e03d f437 b53d 228f cb3d 6824 d33a
00000170: db24 f5bd 65f1 813d 05a7 1d3d c343 af3d
00000180: fa43 183d fd13 533d 3897 c8bd e0d7 933d
00000190: 5e8d 883d a846 d73d 1e1c c4bd 8f80 49bd
000001a0: 925f 863c 6d68 4a3d 53c5 f6bd 89f5 883d
000001b0: e093 e53d ceae 3cbd 0972 37bd 8319 9a3d
000001c0: 35a6 e3bd 64fd 8f3b c3c8 573d 0ff4 53bd
000001d0: a628 48bd 3c21 80bd 4b2d 343d c983 4e3a
000001e0: d1d6 c73d cbb5 7abd 1a3e dcbd addc c9bd
000001f0: c9a9 23bc 28e5 fdbd 1d7a ed3d f431 d1bd
00000200: fc9d 813d 3da3 bdbc cc86 81bd 2a02 ec3a
00000210: cd0c 843d db7a d2bd 5c79 e0bd 59a6 3e3d
00000220: 2dd2 a6bc a2b8 0bbd 35ab 4a3d 3624 013d
00000230: fd26 b7bd 87a1 0dbe 7da3 ae3d a285 483d
00000240: 0383 1dbe 5e39 1ebd 34f2 f6bc a239 bcbd
00000250: f4ff e63d 1ed5 263e 7a1e 953b ad9c c53c
00000260: 8f07 dfbc b327 18bd 9143 d2bd c671 d83d
00000270: 938a d0bd 8ebc e03c 5fd9 db3d 8942 9abd
00000280: 1754 67bd 1191 313d 494f 56bb 6635 6abb
00000290: 6847 533d 5888 863d 3f4a c7bd 070d e13d
000002a0: bcb3 a53c 8d1e 4a3d c6b3 b13d 3f85 5fbc
000002b0: e151 9f3d 6887 2d3d aa1c 243d 4589 a73d
000002c0: 9150 003e 2487 0dbe 4c5c 5ebd 47de a83b
000002d0: 0f29 6d3d ee6e a4bc 3d2c 35bd 4eee a1bd
000002e0: 4ffd b13d b370 e93b d7e2 493d e76d e2bd
000002f0: 0e64 e2bd 0bf2 103c efe8 b8bd 6182 c6bd
0.06286679 -0.062617235 0.11807854 -0.042912554 0.108620144 0.101655066 0.07519562 -0.012040813
-0.10763647 0.0065301643 0.0903849 -0.038179297 0.05560805 0.06759868 -0.11856903 0.0335757
0.10609786 -0.09257641 -0.09142653 0.03753461 0.021446688 0.11546785 -0.124509476 0.09659178
0.012843334 0.0477392 -0.006569594 0.03086952 0.09056955 0.058749072 0.1082651 -0.059158344
0.0017358141 0.00064163277 0.1172472 0.116620906 0.08478287 -0.04636444 -0.11666423 -0.059801225
0.080234885 0.06836342 0.06394185 -0.0025708391 0.12063519 0.12133127 -0.04028203 0.07051445
-0.017442122 -0.02041259 0.044055603 0.10384073 -0.106271684 0.11200888 0.07653086 -0.018658675
-0.025395453 -0.01643927 0.00735053 -0.06279917 -0.11249946 0.0101352 -0.08544702 0.08104391
0.11054633 0.10189923 -0.122621395 -0.07705364 0.0014846956 0.051383734 -0.017336475 -0.009616792
-0.09484271 0.0029578274 0.044465326 0.10802759 0.0196272 0.048283655 -0.1112177 0.09721117
-0.10817227 0.057471912 -0.003191844 0.047713667 -0.10584123 -0.08329873 0.012280893 -0.03277798
0.10950263 0.08848563 0.0993941 0.0016108872 -0.1196992 0.063448705 0.03848936 0.085578464
0.037174203 0.051532734 -0.09794468 0.07218909 0.06667589 0.105115235 -0.095756754 -0.04919487
0.016402993 0.049415994 -0.12049355 0.06687457 0.112098455 -0.046065144 -0.044786487 0.07524397
-0.11115686 0.00439422 0.052681696 -0.051746424 -0.04886689 -0.06256339 0.043988507 0.0007877914
0.0975777 -0.061208528 -0.107540324 -0.09856544 -0.00998921 -0.12397224 0.11595557 -0.10214606
0.06328961 -0.023149127 -0.063245386 0.0018006016 0.06447754 -0.10277339 -0.109606475 0.04654536
-0.020363891 -0.034111626 0.049479682 0.031528674 -0.08942983 -0.13831149 0.08527277 0.048955567
-0.15382008 -0.03862893 -0.030144788 -0.0919068 0.11279288 0.16292235 0.004550752 0.02412256
-0.027225284 -0.037147235 -0.102667935 0.105685756 -0.10182681 0.02743366 0.107348196 -0.07532222
-0.05647668 0.043351237 -0.0032701066 -0.0035737394 0.05158177 0.06568974 -0.09730958 0.10988813
0.020227306 0.04934554 0.08676867 -0.013642608 0.07779289 0.04236546 0.0400664 0.08180479
0.12530734 -0.13821083 -0.05428724 0.0051534506 0.057900485 -0.020072427 -0.044231642 -0.07906781
0.08690893 0.0071240305 0.049288597 -0.110561185 -0.1105424 0.00884677 -0.090288036 -0.096928366

linear.weight f4 [2, 64]
00000000: 5475 b0bd 36da d3bc c67a c0bd c0e5 cabc
00000010: 777c cd3c cc11 843d 318a 35bd d1f2 39bc
00000020: 614b b3bd 90ae 08bd bfe5 9e3d 82f1 1b3b
00000030: 1d4c d73d 8e92 f9bc 4e9d 95bd ea31 b23d
00000040: a87a 853d 71c9 cdbd 12f0 11bd 2341 053d
00000050: 6377 cbbb 1817 a6bd 4fd0 e93d 5f4e c83b
00000060: 58f9 edbd 4214 83bd ab6d 8bbd be7e 8cbd
00000070: a71f f5bd 569c fdbc b8e5 d03d cd26 dc3c
00000080: 103b ca3d d326 6fbc e8ab d3bd 3844 6c3d
00000090: 688d 97bd c3d2 07bd bf41 5abd 808e c4bd
000000a0: 5d09 24bd 10ae 70bd e604 d9bc 13cc e3bd
000000b0: 6957 363d a0e1 dc3d 2126 9b3c 38ca cebd
000000c0: c5cc 8c3d 599a 973c e1ef da3d 9caf cf3d
000000d0: 78f9 50bd 2482 b03d d3ed 32bb b640 ff3d
000000e0: e165 8e3c a0b5 a63d 71e2 c1bd f2ef 80bd
000000f0: 9676 7cbd 48a3 2ebd 08d8 fcbd e04e e8bd
00000100: c3a6 203d 32c1 edbb d5ae 03bd 88ef 543d
00000110: 7d4c a83d 95c1 113c 0369 d9bd 8469 a13d
00000120: f510 01bb 92c2 b63d b285 8f3d f916 7ebd
00000130: b9d3 4e3c 15db f8bd c610 5ebd 786b c53c
00000140: 4404 3cbd 0824 a33d 6e24 043e 57c4 da3d
00000150: cf9d ccbd 441c f93d fb01 0cbd ab0c 503d
00000160: a05a 43bd 6860 c7bd 764e acbd 4307 db3c
00000170: 4c96 07bd a6d0 8abd c90f fe3d 7505 cabd
00000180: 42ed edbd c00c eabd ed67 a1bd a5b4 0b3d
00000190: f86a d13c afb3 1ebb 1760 b9bc 1835 c8bd
000001a0: 48b1 703c 0491 e3bd f019 2f3c 36fe cabc
000001b0: f182 723c 9f7e 73bd 4cf5 d83c 9fe7 7fbd
000001c0: 7658 013e b87a cb3d 87de 12bc 7617 cabd
000001d0: 1199 a2bc 0963 45bd 0733 513d 0731 d5bd
000001e0: caf3 c53d f239 a9bd c8bb d23c f979 5bba
000001f0: 7347 9cbd 2de5 a6bc 0691 2ebd e91d 84bd
-0.086161286 -0.025860887 -0.09398417 -0.024767756 0.025083764 0.06448707 -0.044321243 -0.011349396
-0.08754612 -0.0333696 0.07758664 0.0023795073 0.10512564 -0.03046539 -0.07305394 0.087009266
0.065175354 -0.100481875 -0.03562934 0.032532822 -0.0062093004 -0.081098735 0.11416685 0.006112858
-0.11619824 -0.06400348 -0.06808027 -0.06860112 -0.11968928 -0.030958336 0.102000654 0.02687397
0.098745465 -0.014596659 -0.10335523 0.057682246 -0.07400018 -0.033159982 -0.053285357 -0.09597492
-0.040047992 -0.05875975 -0.026491594 -0.111229084 0.044516955 0.10785222 0.01893908 -0.10097164
0.06874994 0.018506216 0.106902845 0.10140917 -0.051019162 0.08618572 -0.0027302399 0.124635145
0.017382564 0.08140111 -0.094670184 -0.06295766 -0.06163653 -0.042636186 -0.12345892 -0.11343169
0.039221536 -0.0072556967 -0.032149155 0.051986247 0.08217714 0.008896251 -0.106157325 0.07881454
-0.0019693945 0.0892383 0.07007922 -0.062033627 0.012623721 -0.121511616 -0.054215215 0.024099097
-0.045902506 0.07965857 0.12904522 0.1068198 -0.09991037 0.12163594 -0.034181576 0.05079333
-0.04769385 -0.09735185 -0.08413403 0.026736861 -0.03310232 -0.06778078 0.124053545 -0.09864322
-0.11617519 -0.11428213 -0.078811504 0.034107823 0.025563702 -0.0024215986 -0.022628827 -0.09775752
0.014690705 -0.11111644 0.010687336 -0.02477942 0.014801727 -0.059446927 0.026484154 -0.06247675
0.12631401 0.09935516 -0.008964187 -0.09867756 -0.019848378 -0.04819015 0.051074054 -0.10409742
0.0966564 -0.08263005 0.025724307 -0.00083723624 -0.07630815 -0.020372951 -0.042618774 -0.064510174

linear.bias f4 [2]
00000000: c283 e6bd e99c c1bd
-0.112555996 -0.09453756

linear_final.weight f4 [5, 64]
00000000: b4a0 19bd 9022 65bb e80e 2fbd a46d 653d
00000010: 10d7 a93c c04d 0bbc 35c6 aa3c eda2 88bc
00000020: d8ca c03b 75da d03c 7a00 4bbd 237b c0bc
00000030: 1ce2 e7bc 775f aabc c027 5cbd 0ec2 37bd
00000040: 3df9 2f3d d2f8 e43d 3b17 5d3d 8867 a0bc
00000050: a1b3 9cbb 573f f13d 3a83 263d 4db5 8dbd
00000060: a6c9 c93c 40a2 10bd fd6c c93d 301d c3bd
00000070: db06 66bd b665 b3bd a447 3dbd cfe6 a4bd
00000080: 82f0 9dbd 1b65 bfbd 85f2 20bd b2e9 ba3d
00000090: d462 8b3d babd 7dbd 7357 9d3d 559a adbd
000000a0: e168 40bd 95ac 9abb d107 a2bc 604c e8bd
000000b0: 3340 a9bc 361c 3cbd 8205 ca3c d2a6 8ebd
000000c0: 5fec 3cbd d23f c93d 0fcc c53d 79ad 4e3d
000000d0: 3095 81bc adc1 58bd adcd d8bd 4e6f 123c
000000e0: 8035 28bd dae3 fcbc 749b 83bd 562f 96bc
000000f0: d8da be3d 2ec5 a73c f241 2fbd 6c6e cbbd
00000100: 89f5 85bd ae99 49bc 8cc0 6c3d 4d6a 0fbc
00000110: cb51 8b3d 45e8 eb3c f439 353d 42c2 a9bd
00000120: 5bea d6bb 2939 22bc 2005 8c38 e2b6 7f3c
00000130: 9c48 903d 2c97 b5b9 ecb1 9b3d b0ab bb3d
00000140: 55d7 463d 8bab a53d 23f3 1bbb 6b46 1e3c
00000150: 4512 3bbd 67ef b9bd 394e df3c dd99 513d
00000160: 9925 943c 9ff9 2b3b daaf a33d ff4c 40bd
00000170: aca0 43bd bda1 223a 3059 9bbd 322c ce3d
00000180: 7942 4a3d e3c2 963c 9b79 cb3b c821 bf3b
00000190: f753 96bc 6b5e f23c 27a1 53bd dac5 3dbd
000001a0: 2db6 e43d e676 7a3c 05ea 7ebc e060 9fbd
000001b0: 957c 9cbd 1d2c 81bd 25c3 07bc 40d1 473d
000001c0: 894b 423d 4268 053c 76f2 223c 972f af3d
000001d0: 1e51 b03d 4ccf 973d 0825 1abd 867e afbd
000001e0: a822 313d 652f 513d 501f 873d acf4 28bd
000001f0: 4d97 713d 3443 b1bd d3b2 123b c09b 10bd
00000200: 3287 1ebe 0177 adba dabf 0e3d c063 0bbe
00000210: 3742 813d 2aed 313d 6c01 323e 175c 3cbe
00000220: 4a89 1c3e c7ec abbb aaae 793d 6a51 843d
00000230: 1188 91bd 75b2 99bd e7d8 00be d4c1 113d
00000240: 24b5 ba3d 80a5 b63d 5c93 a6bd 0115 21be
00000250: c001 bcbd b7fe 5dbe 414b ff3c a379 f7bd
00000260: d6e1 d83d 4559 bdbd 7979 b6bc 16fc d5bd
00000270: aa45 71bd 2f87 cdbd f201 4bbe 274f a2bd
00000280: d360 533d bed2 22bc 0366 023d 86e3 a8bd
00000290: ab50 f0bd 10d5 09be c1f2 423e 367e 09be
000002a0: 4f2e 8f3d 863a 1dbc 3b14 9ebc 2397 cc3d
000002b0: 2a2a 8b3d 510f 07bd 4f6a 66bd fb36 17bd
000002c0: 26b3 40bd 6c53 ca3d 8b8b c8bd 9fe4 98bd
000002d0: af99 31be a071 0fbd e082 bc3d 1e70 7a3d
000002e0: 16ec fd3b e435 aa3d 3283 d4bd 105a 3d3e
000002f0: 1b25 1b3d 0230 3bbe 9c62 d43d bc09 1f3e
00000300: d45e 083c aeb0 563e d02e d0bd 675a 90bd
00000310: f1fa c3bd 3bec a93d 01e1 03ba e38d 27be
00000320: de6c b43d ca04 bb3c 21f0 ffbd d56c c03d
00000330: 4add 893d 8fa9 253e 0fa0 19be cd44 313e
00000340: 630b 863e e98a 59bb 99d6 9fbd b64d 0abd
00000350: dd4a 74be b212 9fbe 1e33 1abe 5fda 31bd
00000360: 9ab4 603e f999 fcbd 927a 763e 468a 57be
00000370: 2cd6 2e3e e598 6dbc 0229 34be 65e7 8a3d
00000380: 34b0 babd 25eb 8ebd c5ff b4bd 93db 3fbc
00000390: bf82 8ebd 661c a6bd 6c4c a83e 66d4 e33b
000003a0: 7ccb 5b3e d5e4 de3d bfb4 23be 5d03 80bc
000003b0: e365 533d caf0 96bc f91d 4dbd 4648 80be
000003c0: 7ddc a5bd 4e90 483e af6d 563d a84b 0bbd
000003d0: cef9 29bc b8df 0b3d ca5f a23c 688e 18be
000003e0: 41f1 8bbd 25d1 533d e17e 743d f7a0 5f3d
000003f0: 3423 103e 88b5 98be d249 ec3d b80a 933e
-0.037506774 -0.0034963228 -0.042738825 0.056012765 0.020732433 -0.008502424 0.020846466 -0.016679252
0.005883556 0.025494793 -0.049561 -0.023496216 -0.02830606 -0.020797474 -0.053748846 -0.0448628
0.0429623 0.11180271 0.053977232 -0.019580618 -0.0047821556 0.11779659 0.04065249 -0.06919346
0.024632286 -0.035310984 0.09835241 -0.095270514 -0.05615888 -0.08759634 -0.0462109 -0.08051836
-0.07711889 -0.09345456 -0.039293785 0.09126605 0.06805959 -0.061948515 0.07682695 -0.08476702
-0.04697502 -0.0047202804 -0.019779118 -0.113426924 -0.020660495 -0.04592534 0.02466083 -0.06965412
-0.04612386 0.09826626 0.09658062 0.050458405 -0.015818208 -0.05291908 -0.105861045 0.00893767
-0.041066647 -0.030870367 -0.06426135 -0.018333118 0.09319085 0.020479765 -0.0427875 -0.09933171
-0.06540973 -0.0123047065 0.057800815 -0.008753371 0.0680271 0.028797278 0.04424472 -0.08289005
-0.006558699 -0.009901323 6.676675e-05 0.0156075675 0.07045099 -0.00034635642 0.07602295 0.09163606
0.0485452 0.0808936 -0.0023796044 0.009660344 -0.04567172 -0.090788655 0.02725898 0.051172126
0.018084334 0.0026241315 0.079925254 -0.04694843 -0.04776065 0.00062039105 -0.075853705 0.10067023
0.0493798 0.018403476 0.006209565 0.0058328845 -0.018350584 0.029586038 -0.05166736 -0.046331264
0.1116756 0.015287137 -0.015558724 -0.07782149 -0.0764095 -0.06307242 -0.008286272 0.04878354
0.047435317 0.008142533 0.0099455025 0.08553999 0.08609222 0.074125856 -0.037632972 -0.08569054
0.04324594 0.05107059 0.06597769 -0.041248962 0.058982182 -0.08655396 0.002238442 -0.035304785
-0.1548126 -0.0013234318 0.034850933 -0.1361227 0.063114576 0.043439068 0.17383355 -0.18394504
0.15286747 -0.005246732 0.06095759 0.06460841 -0.07106031 -0.07504741 -0.12582742 0.03558524
0.09116581 0.08918285 -0.08133575 -0.15730669 -0.09180021 -0.21679197 0.031163814 -0.12083747
0.1058995 -0.092455424 -0.02227472 -0.10448472 -0.058904327 -0.1003555 -0.19824961 -0.07925253
0.05160601 -0.00993794 0.031835567 -0.08246522 -0.11734136 -0.13460183 0.19037916 -0.13427052
0.069912545 -0.009596473 -0.019296756 0.099897645 0.067951515 -0.03297359 -0.056253728 -0.036917668
-0.04704585 0.09879193 -0.09792241 -0.07465481 -0.17343782 -0.03502047 0.0920465 0.06114208
0.007749091 0.0831106 -0.10376586 0.18491387 0.037877183 -0.18280032 0.10370371 0.15531057
0.00832339 0.20965835 -0.10165179 -0.07048493 -0.09569348 0.082970105 -0.00050307816 -0.16362719
0.08809827 0.022829432 -0.12496973 0.09395758 0.06731661 0.16177963 -0.15002464 0.17311402
0.26180562 -0.003319437 -0.07804603 -0.033765517 -0.23856683 -0.3106895 -0.15058562 -0.043421146
0.21943894 -0.123340555 0.24070194 -0.21048841 0.17073888 -0.014501785 -0.17593768 0.06782416
-0.09115639 -0.06978444 -0.08837847 -0.011710065 -0.069585316 -0.08110885 0.32870805 0.00695281
0.21464342 0.1088349 -0.15986918 -0.015626604 0.05161084 -0.018425364 -0.050077412 -0.2505514
-0.080986954 0.19586298 0.052350696 -0.0340077 -0.0103744995 0.0341489 0.019821066 -0.14898074
-0.06833125 0.051713128 0.059691314 0.054596867 0.14075929 -0.29825997 0.115375176 0.28719115

linear_final.bias f4 [5]
00000000: 43a0 6e3d 7add d23d 5679 0dbf 1db8 4dbf
00000010: ffb2 debd
0.058258306 0.102961496 -0.5526327 -0.8035906 -0.108739845
